model/AAC_k4_model.ckpt (torch, 46683 bytes, 40 tensors)

conv1.0.weight f4 [10, 1, 3]
0	0xbf246961	-0.64223295
1	0x3ec21a44	0.37910664
2	0xbef204ef	-0.4726939
3	0xbeade53d	-0.33963957
4	0x3ec2dc57	0.3805873
5	0xbc2d50fe	-0.010578392
6	0x3ed68e21	0.4190531
7	0xbc2c2e67	-0.01050911
8	0xbd2e3441	-0.042530302
9	0x3ea4e559	0.32206228
10	0x3ece1496	0.4025008
11	0x3eec4bc6	0.4615156
12	0x3f0a1e9c	0.53952956
13	0xbed4e4a0	-0.41580677
14	0x3ebc6d4a	0.3680213
15	0x3e3ff9ab	0.18747585
16	0x3e4cf7d4	0.20016414
17	0xbe9af0c8	-0.30261827
18	0xbebc0dc8	-0.36729264
19	0xbddf8c72	-0.1091546
20	0x3dd135cb	0.10215338
21	0xbed0902f	-0.40735003
22	0xbe83dcd5	-0.2575442
23	0x3eabaf31	0.33532098
24	0xbd43ef26	-0.04783549
25	0xbe9af38c	-0.30263937
26	0x3e8bf11e	0.27332395
27	0x3d5b61fa	0.053560235
28	0xbe88b9a7	-0.26704141
29	0xbf1dc1ff	-0.6162414

conv1.0.bias f4 [10]
0	0xbef2cac1	-0.47420314
1	0xbe8a4bce	-0.2701096
2	0x3ea9e71f	0.33184144
3	0xbebff6cc	-0.3749298
4	0x3cf041f9	0.029328333
5	0x3d92d2a7	0.07169085
6	0xbedcad1a	-0.43100816
7	0x3e2a465a	0.166284
8	0xbd984c03	-0.07436373
9	0xbef9f3a9	-0.4881871

conv1.1.weight f4 [10]
0	0x3f83655a	1.0265305
1	0x3f80391d	1.001743
2	0x3f806486	1.0030677
3	0x3f86b7ba	1.0524819
4	0x3f840a88	1.0315714
5	0x3f84e648	1.0382776
6	0x3f80f71d	1.0075413
7	0x3f7faac6	0.99869955
8	0x3f7b6af0	0.9821005
9	0x3f8456d8	1.0339003

conv1.1.bias f4 [10]
0	0x3ab3bcd3	0.001371289
1	0x3ba77910	0.0051108673
2	0x3cd5f701	0.026118757
3	0xbced9297	-0.029000564
4	0xba585eba	-0.00082538615
5	0x3c081b40	0.008307278
6	0x39633f67	0.00021672026
7	0xbb8cf6a5	-0.0043018633
8	0xbb9d1ea8	-0.0047949143
9	0x3c4d7050	0.012538984

conv1.1.running_mean f4 [10]
0	0xbef70176	-0.48243302
1	0xbe8b12a8	-0.2716267
2	0x3eabda45	0.33564964
3	0xbe9ffcfc	-0.312477
4	0x3d66c6cd	0.056341935
5	0x3d84c82f	0.064834945
6	0xbee33fc9	-0.44384602
7	0x3e1d0db4	0.15337259
8	0xbdbd6377	-0.09247487
9	0xbf0bc3bc	-0.5459554

conv1.1.running_var f4 [10]
0	0x3d102f17	0.03520116
1	0x3d0dc213	0.03460891
2	0x3d0d4754	0.034491852
3	0x3d0dd9b0	0.03463143
4	0x3d0f727b	0.035021286
5	0x3d0d07f1	0.0344314
6	0x3d0d0e91	0.03443772
7	0x3d0d84b3	0.03455038
8	0x3d0d3787	0.034476783
9	0x3d0de972	0.03464646

conv1.4.weight f4 [20, 10, 3]
0	0xbd453529	-0.0481464
1	0xbe13a8df	-0.14419888
2	0xbe4c16f3	-0.1993063
3	0xbd9fc798	-0.07801741
4	0xbe44ee10	-0.19231439
5	0x3d86ac9b	0.06575891
6	0xbbdd2412	-0.0067486847
7	0x3c9f3268	0.019433215
8	0xbc52bc13	-0.012862223
9	0xbc3a3c64	-0.011366937
10	0x3e192e40	0.14959049
11	0x3df61661	0.12015987
12	0xbe37f77e	-0.17965505
13	0x3d24d7e3	0.040244948
14	0x3d86d1d2	0.06582989
15	0x3e095f19	0.13415183
16	0x3e2ce16e	0.1688287
17	0x3dd69f4f	0.104796045
18	0x3cfc99ec	0.030835114
19	0x3dd26b91	0.10274423
20	0xbd8eb191	-0.06967462
21	0xbce501b6	-0.027954917
22	0x3dc7abda	0.09749575
23	0x3d2a42ab	0.041567486
24	0xbdfca911	-0.12336934
25	0x3dde6d65	0.10860709
26	0x3e01cebb	0.12676518
27	0xbe776e86	-0.24163255
28	0xbdc8b712	-0.09800543
29	0xbd81c043	-0.06335499
30	0xbe25daaf	-0.16196702
31	0xbd2232ca	-0.039599217
32	0x3cf41381	0.029794456
33	0x3e3f650a	0.18690887
34	0xbe15af67	-0.14617692
35	0xbe2d657f	-0.16933249
36	0xbe37b8fe	-0.17941663
37	0xbdae2568	-0.085032284
38	0x3e16ae3a	0.147149
39	0xbd626cc4	-0.05527951
40	0xbc9a5e66	-0.01884384
41	0xbc4254d8	-0.011861049
42	0xbe5995cf	-0.21248554
43	0xbd8360aa	-0.064149216
44	0x3dc4e80b	0.09614571
45	0x3e004c37	0.12529074
46	0xbde78a7d	-0.113057114
47	0xbe2ecb87	-0.17069827
48	0x3d55d505	0.052205104
49	0x3de12eee	0.10995279
50	0x3acf6f2c	0.0015825978
51	0x3e0add50	0.13560987
52	0xbd0e3a6a	-0.034723677
53	0xbc91e08c	-0.017807268
54	0x3dff7001	0.12472535
55	0x3cb4dd56	0.022078197
56	0x3d1f1cdd	0.038845886
57	0xbd94e559	-0.07270307
58	0xbcba397d	-0.02273249
59	0xbde5a317	-0.112127475
60	0x3dffc0e0	0.1248796
61	0x3dc77ca3	0.097405694
62	0xbe1a1792	-0.15048054
63	0x3e244ec3	0.1604567
64	0x3d5d42d3	0.054018807
65	0xbd594758	-0.053046554
66	0x3c76468a	0.015031466
67	0xbe2ca7df	-0.16860913
68	0xbd689b4b	-0.056788724
69	0xbde723b1	-0.112861045
70	0xbde8c65b	-0.11365958
71	0x3dd83d56	0.10558574
72	0xbcd1f89b	-0.02563124
73	0x3e3e1543	0.18562798
74	0xbd99e902	-0.07515146
75	0x3d3179d9	0.043329094
76	0xbd84bc7a	-0.064812616
77	0x3b2543f1	0.0025217498
78	0xbd60e215	-0.05490311
79	0xbe1a5cfa	-0.1507453
80	0xbdcb640e	-0.09931193
81	0xbe031b66	-0.1280342
82	0x393ca044	0.00017988781
83	0x3d835049	0.064117976
84	0x3c598cc3	0.013278189
85	0x3e35d30b	0.17756288
86	0xbce03523	-0.027369088
87	0x3e062c1d	0.13102765
88	0xbe0f5034	-0.13995439
89	0x3c8228ba	0.01588856
90	0xbe0e7eb1	-0.13915516
91	0xbe295fb5	-0.16540416
92	0x3d08fa5c	0.033441886
93	0x3dd35594	0.10319057
94	0x3d9e44cc	0.07727966
95	0xbdc8432f	-0.09778439
96	0xbe58c406	-0.21168527
97	0x3d87624f	0.06610548
98	0x3e3dae77	0.18523584
99	0x3c85af69	0.016318994
100	0x3e0b0f7e	0.13580129
101	0xbd46250f	-0.048375186
102	0xbdde4886	-0.108536765
103	0xbbccb18a	-0.0062467502
104	0xbdc610ae	-0.0967115
105	0xbd946f0f	-0.07247745
106	0x3df808eb	0.12111076
107	0x3c3e64df	0.011620729
108	0x3e210653	0.15725069
109	0xbccd092a	-0.025028784
110	0x3db9f5da	0.090800956
111	0xbda68bc0	-0.08132124
112	0xbe1265c5	-0.14296634
113	0x3e129fea	0.14318815
114	0xbd0c23eb	-0.03421394
115	0xbbb2901f	-0.0054493095
116	0x3e3f292a	0.18668047
117	0x3dfba5c0	0.12287474
118	0xbdd3bbfa	-0.10338588
119	0x3cfaac14	0.030599631
120	0xbc113851	-0.0088635245
121	0x3e16d57c	0.14729875
122	0xbe18d4ce	-0.14924929
123	0x3dd9ea3b	0.10640379
124	0x3c23368d	0.009961736
125	0xbcc74fe9	-0.024330096
126	0x3bf1d11c	0.007379664
127	0x3c8ef7df	0.017452179
128	0x3c8125a3	0.015765017
129	0xbdd6bbc3	-0.104850315
130	0xbd830e26	-0.06399183
131	0x3dcda741	0.10041667
132	0xbd1cfd7c	-0.03832768
133	0x3d90184b	0.070358835
134	0x3cd027d0	0.02540961
135	0x3dea899c	0.11452028
136	0xbe348619	-0.17629279
137	0x3d834443	0.06409504
138	0x3c5884f1	0.013215289
139	0xbd457a75	-0.048212487
140	0x3dea65fa	0.11445232
141	0x3dd3c7eb	0.10340866
142	0x3d907260	0.07053065
143	0x3d82e68b	0.06391629
144	0x3e25282e	0.16128609
145	0xbe155391	-0.1458266
146	0x3de9c7d9	0.11415071
147	0xbb915132	-0.004434728
148	0xbc9bc584	-0.019015081
149	0x3c85b8d9	0.016323494
150	0x3e33e310	0.17567086
151	0xbd6a45d4	-0.0571955
152	0xbdb9a3e9	-0.090644665
153	0xbdc48706	-0.09596066
154	0x3d370843	0.044685613
155	0x3c2bbf6b	0.010482649
156	0x3d99b6bc	0.07505557
157	0x3dcda7df	0.100417845
158	0x3c9b1276	0.018929701
159	0xbc56a751	-0.013101415
160	0xbdc8f778	-0.09812826
161	0xbe4a989f	-0.19784783
162	0xbde332be	-0.11093663
163	0xbce2fcf0	-0.0277085
164	0xbd97a205	-0.0740395
165	0x3de71b0c	0.11284456
166	0xbd9e5d90	-0.077326894
167	0xbd612054	-0.05496247
168	0xbdfb8ae8	-0.12282354
169	0xbe2a3d94	-0.16625053
170	0x3e25c732	0.16189268
171	0x3e26778d	0.16256543
172	0xbdd1e2ea	-0.102483585
173	0x3e1331a7	0.1437441
174	0xbd647880	-0.05577898
175	0x3d967099	0.07345695
176	0x3d47370c	0.04863648
177	0x3d7db101	0.061936382
178	0xbd9c1ff1	-0.0762328
179	0xbe313c36	-0.17308125
180	0x3dd1578e	0.10221778
181	0x3e33ad43	0.17546563
182	0xbe3712d9	-0.17878284
183	0x3da0fc8c	0.078606695
184	0xbde05ece	-0.109555826
185	0x3cd4774a	0.025935788
186	0xbe0a012b	-0.13477008
187	0x3cefaecf	0.02925816
188	0x3d54922c	0.051897213
189	0x3e17c106	0.14819726
190	0x3e582003	0.21105962
191	0xbe24924f	-0.16071437
192	0xbd989fb6	-0.074523374
193	0xbdd21f18	-0.10259837
194	0x3cbadf46	0.022811543
195	0x3d38ff49	0.045165334
196	0xbd51a039	-0.05117819
197	0x3db37109	0.08761794
198	0xbe21b2b8	-0.15790832
199	0xbb9748e4	-0.0046168435
200	0x3dff101c	0.124542445
201	0x3e0467ad	0.12930174
202	0x3c43ed3d	0.0119584175
203	0x3e2ef17a	0.17084303
204	0x3d8d0341	0.06885386
205	0xbcaa6017	-0.020797772
206	0xbdf1a6a4	-0.11799362
207	0xbe0f9e19	-0.14025153
208	0x3debdf7e	0.11517237
209	0xbcf1a158	-0.02949588
210	0x3d06b1dc	0.032884464
211	0x3da21762	0.07914616
212	0x3d4ee8ca	0.050514974
213	0x3d0aa538	0.03384897
214	0x3e006f68	0.12542498
215	0xbe11a4f8	-0.14223087
216	0x3c871d3f	0.016493438
217	0xbe3386fb	-0.1753196
218	0x3e24e90d	0.16104527
219	0xbc92cfa5	-0.017921278
220	0x3dc18e5a	0.094509795
221	0x3d12e13d	0.035859335
222	0x3d6e4a4d	0.058176327
223	0xbd56d444	-0.052448526
224	0xbd328dbd	-0.043592203
225	0x3d240df9	0.040052388
226	0xbe3d1917	-0.18466602
227	0xbdb968b3	-0.09053173
228	0xba9031ff	-0.0011001228
229	0xbd8e7323	-0.06955554
230	0xbdc5356b	-0.09629329
231	0x3dd5d6d3	0.10441365
232	0xbd981c24	-0.074272424
233	0xbe2cebc2	-0.1688681
234	0xbd362c62	-0.04447592
235	0x3d3eec83	0.046612274
236	0xbd66b958	-0.0563291
237	0xbda79c23	-0.081840776
238	0x3dd1861a	0.10230656
239	0xbda479ba	-0.0803103
240	0x3df6a86c	0.12043843
241	0xbd6f35c8	-0.0584009
242	0x3d31f6ff	0.043448444
243	0xbe374605	-0.17897804
244	0xbd541b17	-0.051783647
245	0x3dc8660d	0.0978509
246	0x3ddad385	0.106848754
247	0xbbc20afa	-0.0059217187
248	0xbe383aec	-0.17991227
249	0xbc912074	-0.01771567
250	0xbd75eebb	-0.060042124
251	0xbd948f9c	-0.07253954
252	0x3d962103	0.07330515
253	0xbcae9761	-0.021312417
254	0xbd28e69b	-0.041235548
255	0xbdb5932d	-0.08865962

conv1.4.bias f4 [20]
0	0xbdbb166c	-0.09135136
1	0x3d5a7c23	0.053341042
2	0xbde0a7db	-0.10969516
3	0x3e1f4a0f	0.15555595
4	0xbde15658	-0.11002797
5	0x3e0131f0	0.12616706
6	0x3e0ea578	0.13930309
7	0xbd20118e	-0.03907924
8	0xbe6162e8	-0.22010386
9	0x3c971b6e	0.018445697
10	0x3e5c025b	0.21485274
11	0x3d864b4b	0.0655733
12	0xbc9d7dc0	-0.019225001
13	0x3cf6386c	0.0300562
14	0x3cdfe16e	0.027329173
15	0xbcd3e642	-0.025866631
16	0x3e3ee882	0.18643382
17	0x3e0b18f2	0.13583735
18	0x3d576bd1	0.052593056
19	0xbbc74830	-0.0060816035

conv1.5.weight f4 [20]
0	0x3f8048cd	1.0022217
1	0x3f7eba7a	0.9950329
2	0x3f808e2d	1.0043389
3	0x3f80b78a	1.0056012
4	0x3f7a85f6	0.9786066
5	0x3f7b0cc2	0.9806634
6	0x3f80b9a1	1.005665
7	0x3f7aeb02	0.98014843
8	0x3f7b77e6	0.98229825
9	0x3f7ce647	0.98788875
10	0x3f7fda71	0.9994269
11	0x3f774022	0.96582234
12	0x3f7db525	0.9910453
13	0x3f7d7560	0.99007225
14	0x3f814927	1.0100449
15	0x3f8a6498	1.0811949
16	0x3f7b3a2a	0.98135626
17	0x3f7e54d5	0.99348193
18	0x3f7bc98f	0.9835443
19	0x3f77f637	0.9686007

conv1.5.bias f4 [20]
0	0xbc99e281	-0.018784763
1	0xbc0d304b	-0.008617471
2	0xbaef7763	-0.0018269833
3	0x3cb1d5d9	0.021708416
4	0xbbb2fa72	-0.0054619843
5	0x3bad731f	0.0052932645
6	0x3c19951f	0.009373932
7	0xbb3e101d	-0.0029001303
8	0xbcee45a4	-0.029085942
9	0xbd10f304	-0.035388008
10	0x3c989172	0.018624041
11	0xbd19fae6	-0.03759279
12	0x3cc87c47	0.024473323
13	0x3b244199	0.0025063513
14	0xbc8892bb	-0.016671529
15	0xbb30ea55	-0.0026995142
16	0x3d0b0543	0.033940565
17	0xbc1a660d	-0.009423745
18	0xbc0675cf	-0.008206799
19	0xbc447575	-0.011990895

conv1.5.running_mean f4 [20]
0	0xbdaf5eb8	-0.08562988
1	0x3c84b833	0.016201114
2	0xbe00cf10	-0.12578988
3	0x3e1e94a2	0.15486386
4	0x3dd37bca	0.10326345
5	0x3d89945f	0.06717753
6	0x3e36a611	0.17836787
7	0xbe23f2ef	-0.1601064
8	0xbe5c25c2	-0.21498778
9	0xbcad5fb8	-0.021163806
10	0x3e03f5f3	0.12886791
11	0xbde0fc3e	-0.109856114
12	0xbd88cf74	-0.066801935
13	0xbe72bbda	-0.23704472
14	0xbde2da36	-0.11076777
15	0xbb94b585	-0.0045382404
16	0x3eaaea8c	0.3338207
17	0xbcb6bf50	-0.022308022
18	0x3f1469bc	0.5797384
19	0x3e776fae	0.24163696

conv1.5.running_var f4 [20]
0	0x3e5193b6	0.20466504
1	0x3e17113b	0.14752667
2	0x3e12d705	0.14339836
3	0x3e20fb86	0.15720949
4	0x3e01a67d	0.12661166
5	0x3e3efcb0	0.1865108
6	0x3e16b83f	0.14718722
7	0x3e1dc962	0.15408853
8	0x3e2456c6	0.16048726
9	0x3e4f3e4e	0.20238611
10	0x3e3b2a2d	0.18277808
11	0x3e25db3f	0.16196917
12	0x3e19a73d	0.15005203
13	0x3e006678	0.12539089
14	0x3e0dcf24	0.13848549
15	0x3e37c26e	0.17945263
16	0x3eee702d	0.46569958
17	0x3e3bf92d	0.18356772
18	0x3e82fd5e	0.2558393
19	0x3e66fa8e	0.22556517

conv2.0.weight f4 [10, 1, 6]
0	0xbe743793	-0.23849325
1	0xbd8afb40	-0.067862034
2	0x3cde8ccf	0.027166752
3	0xbe2360f9	-0.15954961
4	0x3ec1f8fd	0.37885275
5	0xbea03d6b	-0.31296858
6	0xbeccdf0c	-0.4001392
7	0x3d9aae92	0.07552828
8	0xbe7bf398	-0.24604642
9	0xbec727f8	-0.3889768
10	0xbcaa293a	-0.020771611
11	0x3e1dde31	0.1541679
12	0x3df4cb22	0.11952807
13	0xbec53c94	-0.3852278
14	0xbd175952	-0.036950417
15	0xbd39699c	-0.045266733
16	0xbdeb8307	-0.11499601
17	0xbf11ffda	-0.57031024
18	0x3e9392ce	0.2882294
19	0x3ed6b695	0.41936174
20	0xbed39e30	-0.41331625
21	0xbdfb4247	-0.12268501
22	0xbd420f8a	-0.0473781
23	0xbe14fddc	-0.14549965
24	0xbc171b3d	-0.009222803
25	0x3e89ec8f	0.26938292
26	0xbe92dd32	-0.28684384
27	0x3e9b7627	0.3036358
28	0xbea4c9a1	-0.3218508
29	0xbe3c95bc	-0.18416494
30	0xbddf6ab0	-0.10909021
31	0x3e69576d	0.22787257
32	0xbebbe145	-0.36695305
33	0xbc54e153	-0.012993175
34	0x3ee38290	0.4443555
35	0xbe861c2c	-0.26193368
36	0x3e818762	0.252986
37	0xbec285ce	-0.3799271
38	0x3d4ec6d7	0.050482597
39	0x3e66f123	0.22552924
40	0xbeb67f57	-0.35644028
41	0x3e97a0ec	0.2961496
42	0xbe2e2d79	-0.17009534
43	0x3e3ebe30	0.18627238
44	0x3ed5e8c3	0.41779146
45	0x3eb0b664	0.34514153
46	0x3e82a2e3	0.25514898
47	0xbc5521c4	-0.013008539
48	0x3eb5ad8e	0.35483974
49	0x3c902568	0.017595962
50	0x3e0460f0	0.12927604
51	0x3e57db4d	0.2107975
52	0xbe42e471	-0.19032456
53	0xbd84dc5b	-0.06487342
54	0x3decf526	0.11570196
55	0x3e9bbd37	0.30417797
56	0xbe60bbc7	-0.21946631
57	0x3ea3e21b	0.32008442
58	0xbec4b918	-0.38422465
59	0xbe1b52a1	-0.15168239

conv2.0.bias f4 [10]
0	0xbea346a7	-0.3188984
1	0xbebd3928	-0.3695767
2	0x3c2a1dec	0.0103831105
3	0x3eb3099b	0.34968266
4	0x3ea4f4ae	0.32217926
5	0x3e387bbd	0.18015952
6	0x3ecad3c0	0.39614677
7	0xbea32393	-0.31863078
8	0xbec1470b	-0.37749514
9	0xbe7e19c5	-0.24814518

conv2.1.weight f4 [10]
0	0x3f8abe5f	1.0839347
1	0x3f8ad22f	1.0845393
2	0x3fa0ec82	1.2572176
3	0x3f8b9a5d	1.0906483
4	0x3f8d8c54	1.105845
5	0x3f8cec8d	1.100969
6	0x3f8eacab	1.1146444
7	0x3f8902c6	1.0703971
8	0x3f887a1f	1.0662268
9	0x3f82907e	1.0200346

conv2.1.bias f4 [10]
0	0x3cafe744	0.02147258
1	0x3bc25906	0.0059310226
2	0x3d2ec884	0.042671695
3	0x3a5190cb	0.0007994293
4	0xbaa48007	-0.0012550362
5	0x3c847b62	0.016172115
6	0x3c2ee8e8	0.010675646
7	0x3c08bcdc	0.008345809
8	0xbbf65b0a	-0.007518177
9	0x3c0361da	0.008018935

conv2.1.running_mean f4 [10]
0	0xbeb1351c	-0.34610832
1	0xbed43af7	-0.41451237
2	0xbd8067e4	-0.062698156
3	0x3eac1b4a	0.3361457
4	0x3ea0256f	0.3127856
5	0x3e20426c	0.15650338
6	0x3ec13bf8	0.37741065
7	0xbe8e809a	-0.2783249
8	0xbeb9ad47	-0.36265013
9	0xbe83044a	-0.2558921

conv2.1.running_var f4 [10]
0	0x3d0d9f70	0.03457588
1	0x3d0d8ace	0.034556203
2	0x3d0dc03e	0.034607165
3	0x3d0e0add	0.03467833
4	0x3d0deed3	0.03465159
5	0x3d0dbafd	0.034602154
6	0x3d0df714	0.03465946
7	0x3d0dccb9	0.034619067
8	0x3d0d3422	0.034473546
9	0x3d0e6e5f	0.034773227

conv2.4.weight f4 [20, 10, 6]
0	0xbd68bc97	-0.05682048
1	0xbd2881b3	-0.041139316
2	0xbdc8e826	-0.09809904
3	0x3deb35ab	0.11484846
4	0xbd9d5ed6	-0.07684104
5	0xbd85ade4	-0.06527308
6	0x3c58e9ae	0.013239307
7	0xbc6160c0	-0.013755977
8	0xbdae70ec	-0.08517632
9	0x3dddccaa	0.10830052
10	0xbbcf45bd	-0.006325452
11	0x3caccece	0.021094706
12	0x3c78e94b	0.01519234
13	0xb9bf4e69	-0.0003648878
14	0x3d85be92	0.06530489
15	0x3b5de864	0.003386044
16	0xbc909080	-0.017647028
17	0xbb40fe67	-0.002944851
18	0xbdb93ca5	-0.0904477
19	0xbe3f56ad	-0.18685408
20	0x3dc1ac76	0.094567224
21	0x3c4353f2	0.01192187
22	0xbe037329	-0.12836899
23	0x3da0e9be	0.07857083
24	0x3c8a0b3f	0.016851066
25	0xbe01a1eb	-0.12659423
26	0x3d8abd62	0.06774403
27	0x3d876106	0.066103026
28	0xbbd3b939	-0.0064612892
29	0x3d710f6c	0.058852598
30	0x3d7d3482	0.061817653
31	0x3ca4cdaf	0.020117609
32	0x3d93a6f9	0.07209582
33	0xbded2ed3	-0.11581197
34	0xbdd029fb	-0.10164257
35	0xbd66a32e	-0.056307964
36	0x3cbbf63f	0.022944568
37	0x3e19063d	0.14943786
38	0xbe102dc6	-0.14079961
39	0xbdb0209e	-0.08599971
40	0x3d92681d	0.07148764
41	0xbd4d0eb0	-0.050062835
42	0x3d52fd11	0.051510874
43	0xbc539a95	-0.012915273
44	0x3e17970b	0.14803712
45	0x3ba6f880	0.0050955415
46	0x3dc94eae	0.0982946
47	0xbd044c14	-0.032299116
48	0xbc1da61b	-0.009622122
49	0x3dabc755	0.08387629
50	0x3db9d7da	0.090743735
51	0x3e37c538	0.17946327
52	0xbd19d53d	-0.037556875
53	0x3dde2315	0.10846535
54	0xbd19c17a	-0.03753803
55	0xbe1af489	-0.15132345
56	0x3cb75adf	0.022382198
57	0x3e0f2703	0.13979726
58	0x3d75c732	0.06000442
59	0x3e2031fb	0.15644066
60	0xbccab2d9	-0.024743484
61	0xbe38f469	-0.18061985
62	0xbc077b06	-0.008269077
63	0x3e0ad290	0.13556886
64	0xbcf72c56	-0.030172508
65	0x3b3bfdc3	0.002868519
66	0xbc7ae1f7	-0.015312663
67	0xbded473d	-0.11585853
68	0x3df4496c	0.119280666
69	0xbdabc82e	-0.083877906
70	0xbdd69a1d	-0.104786135
71	0x3dc2fd6a	0.09520991
72	0x3de00946	0.10939269
73	0x3ca94f39	0.02066766
74	0xbd224e13	-0.03962524
75	0x3e2e3a81	0.17014505
76	0xbc40d171	-0.011768685
77	0x3da4097e	0.08009623
78	0x3db43d5b	0.08800765
79	0xbe281697	-0.16414867
80	0x3dc83470	0.09775627
81	0xbd0ff22b	-0.03514306
82	0xbdfab919	-0.12242336
83	0xbe4c09a4	-0.19925553
84	0x3dce5e17	0.1007654
85	0xbe35a0a1	-0.17737056
86	0xbc14658a	-0.009057412
87	0xbe261d17	-0.16222034
88	0x3d4553b6	0.048175536
89	0x3da2bd4d	0.079462625
90	0xbdc60ae6	-0.096700475
91	0xbda9a23b	-0.08282896
92	0xbdcc475a	-0.09974547
93	0x3cc9909f	0.024605094
94	0xbcdb78ed	-0.02679106
95	0xbc1a02e8	-0.009400107
96	0xbd23dcf2	-0.04000563
97	0x3d6f7a5b	0.058466297
98	0xbd6f6405	-0.058444995
99	0xbd059856	-0.032615982
100	0x3e1f1395	0.15534814
101	0x3dae3b2e	0.085073814
102	0xbe08b5a9	-0.13350548
103	0xbe135b2e	-0.14390251
104	0xbd0b67bf	-0.034034487
105	0xbdf5a806	-0.119949386
106	0x3d540c96	0.051769815
107	0x3e07681b	0.13223307
108	0x3d82e91b	0.063921176
109	0x3d6eb347	0.05827644
110	0xbe0b9587	-0.13631259
111	0xbda51cdf	-0.08062147
112	0xbd3e8000	-0.04650879
113	0xbe18d9bf	-0.14926814
114	0x3da081f8	0.078372896
115	0x3d657ade	0.05602538
116	0xbc3f5271	-0.01167737
117	0xbe5605c6	-0.2090064
118	0x3dfb9048	0.12283379
119	0xbdd27e30	-0.102779746
120	0xbd9b5842	-0.07585193
121	0x3d973408	0.07382971
122	0xbda159ab	-0.07878431
123	0x3d79cd36	0.06098672
124	0xbdda776f	-0.106673114
125	0x3db325dc	0.087474555
126	0xbd4a0a20	-0.049326062
127	0x3d7269c6	0.059182905
128	0xbd1d5989	-0.038415466
129	0x3d34abe3	0.044109236
130	0x3df618d3	0.120164536
131	0xbe1528e9	-0.14566387
132	0xbd602539	-0.054723
133	0x3cbf63f9	0.0233631
134	0x3e45b306	0.19306573
135	0x3e2bd2c4	0.1677962
136	0x3d95148d	0.072793104
137	0x3e391a79	0.18076505
138	0xbe2b2c59	-0.16716136
139	0xbd7eaf33	-0.0621788
140	0xbc1dda16	-0.009634515
141	0xbd6234e7	-0.055226233
142	0x3d662045	0.05618312
143	0xbca268eb	-0.01982542
144	0xbde19eff	-0.11016654
145	0x3d8ab48f	0.0677272
146	0x3d4e6177	0.05038592
147	0xbdc52fb9	-0.09628243
148	0x3e1d3f1a	0.15356103
149	0xbda561c6	-0.080752894
150	0xbc403d00	-0.0117332935
151	0x3e008c10	0.1255343
152	0xbe47dc01	-0.19517519
153	0x3c6c4e3f	0.014422952
154	0xbc18804e	-0.009307934
155	0x3defd163	0.11709859
156	0xbd4c4146	-0.049866937
157	0xbdd5688e	-0.10420333
158	0x3d47be10	0.048765242
159	0x3d3f9aec	0.046778604
160	0xbe2908e1	-0.16507293
161	0x3d1875df	0.037221786
162	0xbdaba59a	-0.08381195
163	0x3da3b348	0.079931796
164	0xbd894ab7	-0.06703704
165	0xbdcc4907	-0.09974866
166	0xbdc7feac	-0.09765372
167	0xbe0d8867	-0.13821565
168	0xbde121fa	-0.10992809
169	0x3d34233d	0.04397892
170	0x3d6573c0	0.05601859
171	0xbdb751f2	-0.08951177
172	0x3dbdaeff	0.092618935
173	0xbd71c76c	-0.059028074
174	0xbdaf845e	-0.08570169
175	0xbdd397fc	-0.10331723
176	0x3d21e921	0.03952897
177	0x3c5d5dae	0.0135111045
178	0xbcc5a987	-0.024128688
179	0xbdbe6a2f	-0.09297597
180	0x3e11b443	0.1422892
181	0x3e40edb9	0.18840684
182	0xbd602419	-0.054721925
183	0xbbaacfae	-0.0052127456
184	0xbe11faad	-0.14255781
185	0x3dda4b93	0.10658946
186	0xbd19e0fd	-0.03756808
187	0xbdcccfad	-0.100005485
188	0x3dc2dbc0	0.0951457
189	0x3dbb2161	0.09137226
190	0xbd2b0dc2	-0.041761167
191	0xbd89081b	-0.06690999
192	0xbaa291d3	-0.0012403078
193	0x3d624a1b	0.055246454
194	0x3e0837f1	0.1330259
195	0xbdafdfc6	-0.08587603
196	0xbe35243c	-0.17689604
197	0x3e32f3e5	0.17475851
198	0x3df7fd83	0.121089004
199	0x3dd157b3	0.102218054
200	0xbdc7c5c7	-0.0975452
201	0xbd0f68e8	-0.035012156
202	0xbd31f533	-0.04344673
203	0x3e038f02	0.12847522
204	0xbdc0691a	-0.093950465
205	0xbdaaeeed	-0.08346353
206	0xbc7414aa	-0.014897505
207	0xbd0c7f2c	-0.034300968
208	0x3c2fe9e8	0.01073692
209	0x3d59a72a	0.053137936
210	0x3e12b1a7	0.14325581
211	0xbd5657f3	-0.05232997
212	0xbc8c3c63	-0.017118638
213	0xbce1da2e	-0.027569856
214	0xbd1644c8	-0.03668669
215	0x3e2d84d0	0.16945195
216	0xbd5d0eef	-0.05396932
217	0xbca65c71	-0.020307751
218	0xbd97500c	-0.073883146
219	0x3e118a09	0.14212812
220	0x3e0e2120	0.13879824
221	0xbe77348c	-0.24141139
222	0xbd6edf13	-0.05831821
223	0xbd643bc2	-0.055721052
224	0xbe0db154	-0.13837177
225	0xbe3ef743	-0.1864901
226	0xbc8f4c7e	-0.017492529
227	0x3d05afda	0.03263841
228	0xbda4e9cf	-0.08052408
229	0x3dbfdbda	0.09368105
230	0x3c9d3d5e	0.019194301
231	0xbd3c7d8b	-0.046018165
232	0x3d0b6f45	0.03404166
233	0xbe1fe47b	-0.15614502
234	0x3e26fe4f	0.16307949
235	0x3d5948e1	0.05304802
236	0xbdcf96c8	-0.10136181
237	0x3d13c0e2	0.03607262
238	0xbc96d59c	-0.018412404
239	0xbdfb80e3	-0.122804426
240	0xbd9087c2	-0.07057144
241	0xbd23e24b	-0.04001073
242	0x3de31c4f	0.11089384
243	0xbd6bb86c	-0.057548925
244	0x3d3190f3	0.043351125
245	0x3dc3b1a0	0.09555364
246	0x3dc196c4	0.094525844
247	0xbe0638f6	-0.13107666
248	0x3dd6fdcc	0.10497627
249	0x3d878033	0.06616249
250	0xbae0e3bd	-0.0017157715
251	0x3c8fbc89	0.017545955
252	0xbda2dbd3	-0.079520844
253	0x3de1a451	0.11017669
254	0xbe1d4d7d	-0.1536159
255	0xbdd624a8	-0.104562104

conv2.4.bias f4 [20]
0	0x3de9ba44	0.114124805
1	0xbde65b47	-0.112478785
2	0xbd66b128	-0.056321293
3	0xbdf4faf5	-0.11961929
4	0xbc6b339d	-0.014355567
5	0x3c7f0fbf	0.015567719
6	0xbcc335a3	-0.023829287
7	0x3ddf41cb	0.10901221
8	0x3c49ee54	0.012324888
9	0x3b9564b4	0.004559124
10	0xbe401c32	-0.18760756
11	0x3db1cb93	0.08681407
12	0xbdb54b42	-0.08852245
13	0xbcfc36dd	-0.03078788
14	0xbd7c55dc	-0.06160532
15	0xbd222859	-0.03958926
16	0xbaded868	-0.001700175
17	0x3dd1f303	0.10251429
18	0x3d192368	0.03738728
19	0x3d94ce4f	0.07265913

conv2.5.weight f4 [20]
0	0x3f840fee	1.0317361
1	0x3f849070	1.0356579
2	0x3f83b490	1.0289478
3	0x3f88f4df	1.0699729
4	0x3f803dbd	1.0018841
5	0x3f77fa5e	0.96866405
6	0x3f876b97	1.0579709
7	0x3f891b69	1.071149
8	0x3f79ce8f	0.9758081
9	0x3f82d7f1	1.022215
10	0x3f7cdbca	0.9877287
11	0x3f7af9df	0.98037523
12	0x3f7e242a	0.9927393
13	0x3f812d5f	1.0091971
14	0x3f79f645	0.976414
15	0x3f84022a	1.031316
16	0x3f7dd1aa	0.99148047
17	0x3f83b4cd	1.0289551
18	0x3f815126	1.010289
19	0x3f815084	1.0102696

conv2.5.bias f4 [20]
0	0x3c34cfe9	0.011035898
1	0x3bbaebff	0.0057044025
2	0xbc0440c2	-0.00807208
3	0xbcd52db3	-0.026022768
4	0x3c923dab	0.017851671
5	0xbce0e381	-0.027452232
6	0x3b2a339d	0.0025970705
7	0xbb207ea8	-0.0024489556
8	0xbc1b2d3a	-0.009471232
9	0xbbb80816	-0.0056161983
10	0xbcd44687	-0.025912536
11	0xba7a9edf	-0.0009560417
12	0xbc973b32	-0.018460844
13	0x3b474fc4	0.0030412534
14	0xbcb126d1	-0.021624954
15	0x3d7377ed	0.059440542
16	0x3d2b1c08	0.04177478
17	0x3bbed19b	0.0058233268
18	0xbc2c5862	-0.010519119
19	0x3c8f6b31	0.017507168

conv2.5.running_mean f4 [20]
0	0x3e533152	0.20624283
1	0xbe8661bd	-0.26246443
2	0xbe09088a	-0.13382164
3	0xbdb1c132	-0.08679427
4	0xbda2f502	-0.07956888
5	0xbc3e371f	-0.011609822
6	0xbd24809c	-0.040161714
7	0x3dc8eab5	0.09810392
8	0x3e8d4430	0.27591085
9	0xbd81b79f	-0.06333851
10	0xbea72748	-0.32647157
11	0xbe5ee0ad	-0.21765395
12	0xbdae0022	-0.08496119
13	0x3c6aa4c3	0.014321509
14	0xbe9415d7	-0.28922912
15	0xbe97d8d1	-0.29657605
16	0xbd7e9eab	-0.062163036
17	0xbbb05bf1	-0.005382054
18	0xbe12fd58	-0.14354455
19	0xbe325042	-0.17413428

conv2.5.running_var f4 [20]
0	0x3e2c3249	0.16816057
1	0x3e3db9fc	0.18527979
2	0x3e4c2b99	0.19938506
3	0x3e3555a3	0.17708449
4	0x3e69c2b6	0.22828183
5	0x3e2b8c74	0.16752797
6	0x3e04a875	0.12954886
7	0x3e406ad1	0.18790747
8	0x3e150528	0.14552748
9	0x3e23d5b0	0.15999484
10	0x3e120653	0.14260225
11	0x3e1a2c9e	0.15056083
12	0x3ded8cfa	0.11599155
13	0x3e65c33a	0.22437754
14	0x3e5a8707	0.21340571
15	0x3e12e90d	0.14346714
16	0x3e618fa8	0.22027457
17	0x3e1ee2ff	0.1551628
18	0x3e0db9f4	0.13840467
19	0x3e599d06	0.21251306

conv3.0.weight f4 [10, 1, 9]
0	0xbefc10ad	-0.49231473
1	0x3ea12d84	0.31480038
2	0x3e3b83bb	0.1831197
3	0x3d13854b	0.03601579
4	0x3e47008d	0.19433804
5	0xbe072f4f	-0.1320164
6	0x3daf3f76	0.08557026
7	0x3e8a5b8d	0.27022973
8	0x3e931598	0.28727412
9	0x3e1418ef	0.14462636
10	0xbd99216d	-0.074770786
11	0xbe8f4db9	-0.27988985
12	0x3df01730	0.11723173
13	0xbe9dfab4	-0.30855334
14	0x3eb17671	0.34660676
15	0xbddaabd1	-0.10677303
16	0x3ea6b5fc	0.32560718
17	0x3ee906ed	0.45513096
18	0x3d38a62c	0.04508035
19	0x3ef2a596	0.47391957
20	0xbe9d2e34	-0.30699313
21	0xbe7b70ff	-0.24554823
22	0xbe0e45d8	-0.13893831
23	0xbead62ab	-0.3386434
24	0xbe403f81	-0.18774225
25	0x3e91b2e4	0.28456795
26	0x3ed2f3da	0.4120167
27	0xbeb3db18	-0.35128093
28	0x3e189c5a	0.14903393
29	0xbe979a4c	-0.29609907
30	0xbc98979f	-0.018626986
31	0x3c86c66a	0.016452033
32	0x3e501eb4	0.20324212
33	0x3dbe6aa9	0.092976876
34	0x3de6e949	0.11274964
35	0xbe99de3c	-0.30052364
36	0xbd73c6f4	-0.05951591
37	0xbe4c3f25	-0.19945963
38	0xbe8dda08	-0.27705407
39	0xbe43202e	-0.19055244
40	0x3e89bccf	0.26901862
41	0xbecaa42d	-0.3957838
42	0xbd005e39	-0.031339858
43	0x3e35867c	0.17727083
44	0xbe832a92	-0.25618416
45	0xbe9ee078	-0.3103063
46	0x3e5274aa	0.20552316
47	0x3bd8246d	0.006596139
48	0x3dcbf239	0.0995831
49	0xbe9872e9	-0.2977517
50	0xbeaa1c24	-0.33224595
51	0x3ef8ecdd	0.48618212
52	0x3e855400	0.2604065
53	0xbeeb1c80	-0.4592018
54	0x3e4cb739	0.19991769
55	0x3de574a3	0.11203887
56	0x3eaeb2f6	0.3412091
57	0xbda8f938	-0.0825066
58	0x3e85102b	0.25988898
59	0x3ec90e5f	0.39268777
60	0xbe4608bc	-0.1933927
61	0x3e8b1e99	0.27171782
62	0x3e445281	0.19172098
63	0x3dcdb1ff	0.10043716
64	0xbe6ab537	-0.2292069
65	0xbe6a0d11	-0.22856547
66	0xbdc05447	-0.09391075
67	0x3de0a264	0.109684736
68	0xbc2e32c7	-0.010632223
69	0xbc879867	-0.016552163
70	0xbe010a84	-0.12601668
71	0xbeb217ed	-0.3478388
72	0xbe80be24	-0.25145066
73	0xbe5512dd	-0.20807977
74	0x3eb82ed6	0.35973233
75	0x3ec421ae	0.38306946
76	0xbe96870a	-0.29399902
77	0x3e1fbb6e	0.15598843
78	0x3e8ce24a	0.27516395
79	0xbe391052	-0.18072632
80	0xbe769210	-0.24079156
81	0xbe6330b5	-0.22186549
82	0xbed21a32	-0.4103561
83	0x3e22e30b	0.15906923
84	0xbea8aadd	-0.32942858
85	0x3e1aa08a	0.15100303
86	0xbd3327d6	-0.043739162
87	0x3eb48415	0.3525702
88	0x3d33bcad	0.043881107
89	0x3db25bb7	0.087088995

conv3.0.bias f4 [10]
0	0x3eaf1849	0.34198216
1	0x3e2ec6a7	0.17067967
2	0x3ea3b951	0.31977323
3	0xbe84ef45	-0.25963798
4	0x3dd3fcfa	0.10350986
5	0xbe89794b	-0.26850352
6	0x3e9a562c	0.3014387
7	0xbe8aa010	-0.27075243
8	0xbe071d93	-0.13194875
9	0xbe1a13ce	-0.15046617

conv3.1.weight f4 [10]
0	0x3f9a075c	1.2033496
1	0x3f9b63d4	1.213984
2	0x3fa82750	1.3136997
3	0x3f9534c6	1.165673
4	0x3f91fbd1	1.1404973
5	0x3fa39f2d	1.2782952
6	0x3f8fd809	1.1237804
7	0x3f8da558	1.1066084
8	0x3f986c4d	1.1908051
9	0x3f9039db	1.1267656

conv3.1.bias f4 [10]
0	0xbc1ea10f	-0.009681954
1	0x3c1e2217	0.009651682
2	0xba7f156c	-0.000973067
3	0x3b940ab6	0.0045178784
4	0x3c94aa43	0.018147593
5	0x3c8904bb	0.016725888
6	0x3bebb2d6	0.0071929498
7	0x3b9972b3	0.0046828627
8	0xbb8d97ea	-0.004321088
9	0x3c4e4bd3	0.01259132

conv3.1.running_mean f4 [10]
0	0x3eb267cb	0.34844813
1	0x3e38be66	0.18041381
2	0x3e9779ce	0.29585117
3	0xbe92e302	-0.28688818
4	0x3d29c03f	0.041443106
5	0xbea4aeca	-0.32164603
6	0x3eab6251	0.33473447
7	0xbea4ddc2	-0.32200438
8	0xbe1ba6a8	-0.15200293
9	0xbe2f5bb1	-0.17124821

conv3.1.running_var f4 [10]
0	0x3d0de58e	0.03464275
1	0x3d0e433c	0.03473209
2	0x3d0dc6d9	0.034613464
3	0x3d0d74b3	0.03453512
4	0x3d0dd5ce	0.03462773
5	0x3d0ded54	0.03465016
6	0x3d0df4de	0.03465735
7	0x3d0d40b6	0.03448554
8	0x3d0df181	0.034654144
9	0x3d0e50fe	0.03474521

conv3.4.weight f4 [20, 10, 9]
0	0xbdb8c776	-0.09022419
1	0x3dce1ca6	0.10064058
2	0x3d2fe58b	0.04294352
3	0x3c406000	0.011741638
4	0xbdbf3705	-0.09336666
5	0x3dbc9e72	0.092099085
6	0x3d353b1b	0.04424582
7	0xbcb4e118	-0.02207999
8	0xbd50f496	-0.051014505
9	0x3d6c6b46	0.05771949
10	0x3d5d44b4	0.0540206
11	0xbdab1da7	-0.08355265
12	0xbd0671f4	-0.032823518
13	0x3bf0f6cb	0.0073536388
14	0xbd969c0b	-0.073539816
15	0x3d8cd297	0.06876104
16	0x3cf01b56	0.02930991
17	0x3d4a52a2	0.04939521
18	0xbd3e8821	-0.04651654
19	0x3dd7e462	0.105416074
20	0xbdfd44c3	-0.12366631
21	0x3e06b9b4	0.13156778
22	0xbd30ce48	-0.043165475
23	0x3d714e11	0.05891234
24	0x3dca6551	0.09882606
25	0xbdc0c595	-0.09412686
26	0xbdf8c33d	-0.12146614
27	0x3d8f3e62	0.069943205
28	0xbd0c8eea	-0.03431598
29	0x3d9cc9be	0.07655667
30	0xbda43289	-0.08017451
31	0xbdff1411	-0.12454999
32	0xbde0ddc5	-0.10979799
33	0xbddd495d	-0.108050086
34	0x3dff82c4	0.124761134
35	0xbd6f3c42	-0.058407076
36	0x3cbfbe76	0.023406249
37	0x3dd43d45	0.10363249
38	0x3d0b02a9	0.033938084
39	0x3daf2c98	0.085534275
40	0x3d5df554	0.05418904
41	0x3daeb380	0.08530331
42	0xbe0427b3	-0.12905769
43	0xba4f5ade	-0.00079099636
44	0xbe5d5ab5	-0.21616633
45	0xbd56efc3	-0.05247475
46	0x3c7244d5	0.014786919
47	0x3d97b2d3	0.07407155
48	0x3d3137b7	0.043266024
49	0xbdf03669	-0.11729128
50	0xbdabb022	-0.08383204
51	0x3d84ee81	0.064908035
52	0x3e0a7d57	0.13524376
53	0x3c5d30a9	0.013500371
54	0xbd10406b	-0.035217684
55	0xbe519d38	-0.2047013
56	0xbdb76b61	-0.08956028
57	0xbce6a53c	-0.028154962
58	0x3c891afe	0.016736504
59	0xbdb6826b	-0.08911594
60	0x3cd7ad08	0.026327625
61	0xbd42301e	-0.04740917
62	0x3d868895	0.0656902
63	0x3df408d7	0.119157486
64	0x3dd07645	0.10178808
65	0xbcfe6874	-0.031055667
66	0xbdc8501c	-0.09780905
67	0x3da46872	0.08027734
68	0x3b9dd75e	0.0048169335
69	0x3d118db0	0.035535514
70	0xbda972ae	-0.082738265
71	0x3df51f42	0.119688526
72	0xbd0dd757	-0.034629192
73	0x3c0385e5	0.008027528
74	0x3e07651e	0.13222167
75	0xbde29e4b	-0.11065348
76	0xbd1eea90	-0.038797915
77	0x3da7fc40	0.0820241
78	0x3d8ca1d5	0.068668045
79	0x3c17c87e	0.00926411
80	0x3dd059c3	0.10173371
81	0x3dc190e5	0.094514646
82	0xbd120936	-0.035653315
83	0xbcf81417	-0.030283017
84	0xbca14dfb	-0.019690504
85	0xbc4c0acb	-0.012453745
86	0x3df1916e	0.11795317
87	0xbd79c511	-0.060978953
88	0xbc9fe05f	-0.019516168
89	0xbd8d144e	-0.068886384
90	0x3d449d27	0.048001435
91	0x3c9e52cb	0.019326588
92	0xbd8a6e06	-0.067592666
93	0xbcc6aec8	-0.024253264
94	0x3d394f52	0.04524166
95	0x3cd4615b	0.025925329
96	0x3c655c9b	0.01399913
97	0xbd893481	-0.066994675
98	0x3d49e34f	0.049289044
99	0xbd82bb9a	-0.063834384
100	0x3d11448e	0.03546577
101	0x3d9048d9	0.070451446
102	0xbd8fab3c	-0.07015082
103	0x3d9e8e3b	0.07741972
104	0xbb9112e7	-0.004427302
105	0xbddf0f60	-0.108916044
106	0xbd196e67	-0.037458804
107	0xbd910468	-0.070809186
108	0xbd5d6ed5	-0.054060776
109	0x3d9db519	0.07700557
110	0x3d405649	0.046957288
111	0x3b995c1d	0.00468017
112	0x3afddc56	0.0019368033
113	0x3da9cbd2	0.08290829
114	0xbc281df5	-0.010261049
115	0x3d50f309	0.051013026
116	0xbb6992ce	-0.003564048
117	0xbdc84df3	-0.09780493
118	0x3dd019fb	0.101612054
119	0x3dbe7940	0.0930047
120	0x3d2097ea	0.039207377
121	0x3d729502	0.059224136
122	0x3b534fd1	0.003224362
123	0x3dcddee6	0.1005228
124	0xbdbb0970	-0.091326594
125	0x3db50c72	0.088402644
126	0x3dd2f9cc	0.10301551
127	0xbd8b927b	-0.06815048
128	0xbca02169	-0.019547181
129	0xba9fc474	-0.0012189285
130	0x3c894b67	0.016759587
131	0x3c836086	0.016037237
132	0x3da79bb4	0.08183995
133	0x3d65e415	0.05612572
134	0x3d37f120	0.04490769
135	0xbd5d0851	-0.05396301
136	0x3decf13e	0.11569451
137	0xbb86b313	-0.004110703
138	0x3cb39e79	0.021926152
139	0x3d76b151	0.060227696
140	0xbdb4de2b	-0.08831438
141	0x3d000424	0.03125395
142	0xbd798c1a	-0.060924627
143	0xbd6b1fe2	-0.057403453
144	0xbb5900c1	-0.0033112022
145	0x3d5cd999	0.053918455
146	0xbcb22f0d	-0.021750951
147	0x3c8fbad5	0.017545143
148	0xbc5fc65e	-0.013658134
149	0x3bfc0a0c	0.0076916274
150	0x3dc35c34	0.09539071
151	0xbcca2ce2	-0.024679605
152	0x3dd8eb9a	0.105918124
153	0xbc06d560	-0.0082295835
154	0xbdd69118	-0.10476893
155	0xbd8e05aa	-0.06934674
156	0x3c9ffc38	0.019529447
157	0x3d663a79	0.056208108
158	0x3da6613b	0.08124014
159	0xbd1e223e	-0.038606875
160	0xbd116cc7	-0.03550413
161	0xbd449818	-0.04799661
162	0xbc919ca4	-0.017774887
163	0x3c8bf216	0.017083209
164	0xbc9f0956	-0.019413631
165	0xba620362	-0.000862172
166	0x3be14ada	0.006875378
167	0x3d73724f	0.059435185
168	0xbdcdaaf2	-0.10042371
169	0xbd50e95e	-0.051003806
170	0xbd713d49	-0.058896337
171	0x3d30e1e2	0.04318417
172	0xbdab9a3f	-0.083790295
173	0x3bf3a304	0.0074352045
174	0x3db8e10e	0.09027301
175	0x3c949263	0.018136209
176	0xbcfd97c5	-0.030956158
177	0x3da738a1	0.08165098
178	0xbdbea38a	-0.09308536
179	0xbc16df5b	-0.0092085255
180	0xbd2019ad	-0.039086986
181	0xbc3847e7	-0.011247612
182	0xbdcd3bb7	-0.10021155
183	0x3c372f2e	0.011180682
184	0x3d4f42a8	0.050600678
185	0xbda914cd	-0.082559206
186	0xbd2fa1e9	-0.04287902
187	0x3cec67d0	0.028858095
188	0xbd33b203	-0.043870937
189	0x3ba6e33d	0.005093007
190	0x3d964201	0.07336808
191	0xbcf8537f	-0.030313252
192	0x3da5424d	0.080692865
193	0x3d66beb4	0.056334212
194	0x3dd620a0	0.104554415
195	0xbd48fee4	-0.049071208
196	0xbd472bb9	-0.04862568
197	0xbcb1af37	-0.021689994
198	0x3d41c62d	0.047308136
199	0xbdce5abb	-0.10075899
200	0xbdc3691c	-0.095415324
201	0x3dd9ae05	0.10628895
202	0xbde321b5	-0.110904135
203	0xbd392a8c	-0.04520659
204	0x3d9960a6	0.07489137
205	0x3dc77ed9	0.09740991
206	0xbc93b57c	-0.018030874
207	0x3db7b785	0.089705504
208	0xbd8e5d98	-0.06951445
209	0x3da08975	0.07838718
210	0xbd087c75	-0.033321816
211	0xbc95a379	-0.018266426
212	0x3d70ed48	0.05882004
213	0x3cb83017	0.022483869
214	0x3d95d0c7	0.07315212
215	0xbd3ba4c5	-0.045811433
216	0xbd15269d	-0.036413778
217	0xbda33a5c	-0.079701155
218	0x3cdd8af4	0.027043797
219	0x3dcd2a09	0.10017783
220	0x3d3a3eac	0.045469925
221	0xbe070a9d	-0.13187642
222	0x3dabb171	0.08383454
223	0x3d94b5d5	0.07261244
224	0x3d256f23	0.04038919
225	0x3dc21da9	0.094783135
226	0xbd99d8ff	-0.07512092
227	0x3d81346d	0.063088275
228	0xbd484350	-0.04889232
229	0x3d619700	0.055075645
230	0xbd81c5b9	-0.06336541
231	0x3baa5751	0.005198397
232	0xbde9f680	-0.11423969
233	0x3ddc1825	0.10746793
234	0xbdac0316	-0.08399026
235	0xbc0059b7	-0.00783389
236	0xbd76e7e2	-0.060279734
237	0xbd181cb0	-0.037136734
238	0x3c66b215	0.014080544
239	0x3c0679d4	0.008207757
240	0x3d9dd4a6	0.07706575
241	0x3dbd91b3	0.092563055
242	0xbd884c4f	-0.0665518
243	0x3bf8b2cd	0.007589674
244	0x3d41eee6	0.047346972
245	0x3da05318	0.07828349
246	0x3bf18fa2	0.0073718587
247	0xbda08d2d	-0.07839427
248	0xbc45a554	-0.012063343
249	0x3d0017f1	0.031272832
250	0xbdaa8700	-0.083265305
251	0xbdbc0bc2	-0.0918193
252	0x3dcf5ba1	0.10124899
253	0xbdb8a374	-0.09015551
254	0xbdd606b6	-0.10450499
255	0xbbb4a038	-0.0055122636

conv3.4.bias f4 [20]
0	0xbcbee825	-0.023304055
1	0xbda0f409	-0.07859046
2	0xbc55f423	-0.013058695
3	0x3c920329	0.017823773
4	0xbdc4283f	-0.09577989
5	0xbdb41e02	-0.08794786
6	0xbdee04f0	-0.116220355
7	0xbd6c08fa	-0.05762575
8	0x3d458083	0.04821826
9	0x3bf3f89f	0.0074454094
10	0xbce24395	-0.027620116
11	0x3dbd28d6	0.092363045
12	0xbc7b8cb0	-0.015353367
13	0x3e0618ca	0.13095394
14	0x3da96273	0.08270731
15	0x3d5289a1	0.051400784
16	0x3dbe8945	0.09303526
17	0x3d4634b7	0.048390117
18	0xbd58f723	-0.052970063
19	0xbdd29030	-0.10281408

conv3.5.weight f4 [20]
0	0x3f8615da	1.0475419
1	0x3f7b8320	0.98246956
2	0x3f808daf	1.0043238
3	0x3f899307	1.0747994
4	0x3f7dfd90	0.9921503
5	0x3f82cb13	1.0218223
6	0x3f825ff3	1.0185531
7	0x3f7cddfc	0.9877622
8	0x3f820e84	1.016068
9	0x3f7e07e1	0.9923077
10	0x3f8fee27	1.1244553
11	0x3f83ce93	1.0297416
12	0x3f873171	1.0561963
13	0x3f87a3a7	1.0596818
14	0x3f7febb4	0.9996903
15	0x3f981ab1	1.1883146
16	0x3f85a32b	1.044042
17	0x3f891385	1.0709082
18	0x3f8246c6	1.0177848
19	0x3f8d5869	1.1042606

conv3.5.bias f4 [20]
0	0xbd02b7ab	-0.03191344
1	0xbb99ca28	-0.0046932884
2	0xbcbd0975	-0.023075799
3	0xbc014f03	-0.007892373
4	0xbc50d634	-0.0127463825
5	0x3a81888c	0.0009882613
6	0xbbc8a4ca	-0.00612316
7	0xb822561a	-3.8703998e-05
8	0xbca7e845	-0.020496497
9	0xbd2a0d86	-0.041516803
10	0xbc8f6764	-0.017505355
11	0xbc164018	-0.009170555
12	0x3bd60481	0.0065312986
13	0x3ca094d2	0.019602213
14	0x3c43481b	0.011919047
15	0x3c543b9e	0.012953667
16	0x3b443352	0.0029937816
17	0x3cb9325d	0.022607023
18	0xbcdda1d9	-0.027054714
19	0xbcb111b3	-0.021614885

conv3.5.running_mean f4 [20]
0	0x3d3338f5	0.04375549
1	0x3e511e1a	0.20421639
2	0x3d310ab7	0.04322311
3	0xbdaa50f5	-0.083162226
4	0xbed3cf89	-0.41369274
5	0xbf0a10fa	-0.53932154
6	0x3be726eb	0.0070542
7	0x3e815788	0.25262094
8	0xbe2c6854	-0.16836673
9	0xbd918eca	-0.07107313
10	0xbd6b688b	-0.057472747
11	0xbe64b80d	-0.22335835
12	0x3e2fc910	0.17166543
13	0x3e2f7105	0.17132957
14	0xbe9cee76	-0.3065068
15	0x3dc59ab2	0.096486464
16	0x3f04cbe1	0.51873595
17	0x3e67ad66	0.2262474
18	0xbe19d415	-0.15022309
19	0xbe58eb75	-0.2118357

conv3.5.running_var f4 [20]
0	0x3e44985e	0.19198748
1	0x3e2986a5	0.16555269
2	0x3e373150	0.17889905
3	0x3e562547	0.20912658
4	0x3e5ca057	0.2154554
5	0x3e34a461	0.1764083
6	0x3e1bd2ff	0.15217207
7	0x3e2e8a7d	0.17045017
8	0x3e1d995a	0.1539053
9	0x3e2d2958	0.16910303
10	0x3e1b3ff4	0.15161115
11	0x3e837501	0.25675204
12	0x3e243e60	0.16039419
13	0x3e2d44e8	0.16920817
14	0x3e4e6088	0.20154011
15	0x3e19dc20	0.15025377
16	0x3e4fbbd3	0.20286493
17	0x3e16b7fd	0.14718623
18	0x3e0ba2e4	0.13636357
19	0x3e680a9a	0.22660294

mlp.1.weight f4 [64, 60]
0	0x3d9d742a	0.07688172
1	0xbdd16fe8	-0.102264225
2	0xbdac15cb	-0.08402594
3	0xbc3be019	-0.011467003
4	0x3d476556	0.048680626
5	0x3dd8f172	0.10592927
6	0xbe0091ca	-0.12555614
7	0x3d7b39d9	0.061334465
8	0xbdfb8553	-0.12281289
9	0xbdc7aeec	-0.097501606
10	0xbd4fcc4b	-0.05073194
11	0x3dc578c6	0.09642176
12	0xbdd45e48	-0.10369545
13	0xbd80cfab	-0.062896095
14	0x3d887951	0.06663764
15	0x3daaadee	0.08333956
16	0xbdcb2a40	-0.09920168
17	0x3cf3fbaa	0.029783089
18	0x3dacee5f	0.08443903
19	0x3d6e9fcc	0.058257863
20	0x3d7b81a1	0.06140292
21	0xbdc1d6a0	-0.094647646
22	0x3d871c9b	0.06597253
23	0x3df860fb	0.121278726
24	0xbe0c8351	-0.13721968
25	0x3ddf32e9	0.10898382
26	0xbdbbae6f	-0.0916413
27	0x3db99df3	0.090633295
28	0x3dea9b8b	0.11455449
29	0x3c21233e	0.009835063
30	0xbd56a380	-0.05240202
31	0x3db954d5	0.090493836
32	0xbdeac2f1	-0.11462963
33	0xbd8443ad	-0.06458221
34	0xbd66f199	-0.05638275
35	0x3e02ad66	0.12761459
36	0x3d860ebf	0.06545781
37	0xbda82e95	-0.0821201
38	0x3de745af	0.11292588
39	0xbcef751d	-0.029230649
40	0xbca0668c	-0.019580148
41	0xbce30f16	-0.027717154
42	0xbd69717b	-0.05699299
43	0x3ce9efc6	0.028556716
44	0xbcac69d8	-0.021046564
45	0xbde78d50	-0.1130625
46	0xbd207187	-0.039170768
47	0x3c940f6d	0.018073762
48	0xbe00c9ef	-0.12577032
49	0xbcec24bd	-0.028826112
50	0x3e2e8d67	0.17046128
51	0xbbb997c4	-0.005663844
52	0x3e02cbb7	0.12773024
53	0x3d712de4	0.058881655
54	0x3da3c4a7	0.07996493
55	0xbe43960c	-0.19100207
56	0x3d95ca42	0.07313968
57	0x3d381d6b	0.04494993
58	0x3e04e8fa	0.12979499
59	0x3e298828	0.16555846
60	0x3bd29bec	0.0064272787
61	0xbcad3b9d	-0.02114659
62	0xbda777e7	-0.081771664
63	0xbc9e9252	-0.01935688
64	0xbd947f0f	-0.07250797
65	0xbd9de763	-0.07710149
66	0xba192738	-0.0005842331
67	0xbcea210d	-0.028580213
68	0x3dfcb647	0.12339454
69	0x3db29b6d	0.08721051
70	0xbd8e23d3	-0.06940427
71	0xbc52f73f	-0.012876331
72	0x3d3a3f2f	0.045470413
73	0x3da5bb75	0.08092395
74	0xbceb3a53	-0.028714335
75	0xbdb178c6	-0.08665614
76	0xbd2fee72	-0.04295201
77	0xbcdadf12	-0.026717696
78	0x3dd64b98	0.10463637
79	0x3d6b0d89	0.057385955
80	0xbce0abbf	-0.027425645
81	0x3d380a90	0.04493195
82	0xbcb070bc	-0.021538131
83	0xbcd2df9c	-0.02574139
84	0xbdc8f6d3	-0.09812703
85	0x3e0e6a3c	0.13907713
86	0x3e0d38f5	0.13791259
87	0xbe16ae5d	-0.14714952
88	0x3dea665c	0.11445305
89	0xbd57b09a	-0.052658655
90	0xbdd597f1	-0.10429371
91	0x3dbf75d9	0.093486495
92	0x3b841ed2	0.0040319944
93	0x3dcd4acf	0.10024034
94	0x3de068bd	0.10957477
95	0xbd76b457	-0.06023058
96	0x3dc28776	0.094984934
97	0x3b3bcf64	0.002865755
98	0xbdfc3f81	-0.123168
99	0x3d88d492	0.066811696
100	0xbb6946fa	-0.0035595284
101	0xbcbef7b5	-0.023311475
102	0x3d4f5e79	0.050627206
103	0xbd1bd988	-0.03804925
104	0xbe018646	-0.12648878
105	0x3de2f9a8	0.110827744
106	0xbd87fff5	-0.06640617
107	0xbbf6ff07	-0.007537726
108	0x3da2ea66	0.07954864
109	0xbd388a7c	-0.045053944
110	0xbe536954	-0.20645648
111	0x3e0bdb10	0.13657784
112	0xbde83045	-0.11337332
113	0x3d403cc1	0.04693294
114	0x3cc4f746	0.02404369
115	0x3e21d9cb	0.15805738
116	0x3da5485b	0.08070441
117	0x3d53129b	0.051531415
118	0xbc9b6102	-0.018967155
119	0xbd0da550	-0.034581482
120	0xbdcd4b90	-0.10024178
121	0x3bb32740	0.0054673254
122	0x3d4998a9	0.049217854
123	0x3d04bcf5	0.032406766
124	0x3dd0f57f	0.10203075
125	0xbde9dfd7	-0.11419647
126	0xbd950a11	-0.07277311
127	0x3d1bfd25	0.038083214
128	0x3d56dc1b	0.052456003
129	0x3e0d5636	0.13802418
130	0x3d27c4ae	0.040959053
131	0xbdfe40b9	-0.124146886
132	0xbbde3c65	-0.006782102
133	0x3baccc68	0.0052733906
134	0xbc8c69e3	-0.017140334
135	0xbba819b4	-0.005130017
136	0x3e02050d	0.12697239
137	0x3dfc1111	0.12307943
138	0x3b6ecf1c	0.0036439365
139	0xbd6c1f6a	-0.057647146
140	0xbc2494fa	-0.010045284
141	0xbd8967e3	-0.06709268
142	0xbcde2648	-0.027117863
143	0x3dd6e30b	0.10492524
144	0xba86fab7	-0.0010298108
145	0xbd1afa06	-0.037836097
146	0x3dd49864	0.10380629
147	0x3e1cb342	0.15302756
148	0x3da07cfe	0.0783634
149	0x3dd98005	0.10620121
150	0xbd7c3348	-0.061572343
151	0x3dc194fd	0.094522454
152	0xbbdc49a8	-0.0067226477
153	0x3dffdc69	0.12493212
154	0x3d34a3e4	0.04410161
155	0xbd44e703	-0.048071872
156	0xbc5740a4	-0.01313797
157	0x3d3b0c3e	0.045665972
158	0x3de20826	0.110367104
159	0x3ca77700	0.020442486
160	0x3d47f4e9	0.04881755
161	0xbdeec0b1	-0.11657847
162	0x3dc2fa5c	0.095204085
163	0xbd76bf5d	-0.060241092
164	0xbd7e7472	-0.06212277
165	0x3db71f03	0.08941462
166	0x3dc06b91	0.09395517
167	0xbdcf8e07	-0.101345114
168	0x3bb8e7f1	0.005642884
169	0xbda0ac3b	-0.0784535
170	0x3d706eee	0.05869954
171	0xbdb30eca	-0.08743055
172	0xbd485700	-0.048911095
173	0xbe1da961	-0.15396644
174	0xbdb2931f	-0.08719467
175	0x3c3b60f7	0.011436692
176	0x3d603236	0.054735385
177	0xbb86f135	-0.0041181096
178	0x3d08a8a7	0.033363964
179	0x3d863166	0.06552391
180	0xbda02047	-0.078186564
181	0xbd6cefd7	-0.057845917
182	0xbe0023c6	-0.12513646
183	0xbde683d7	-0.11255615
184	0xbd93799a	-0.07200928
185	0x3de4821d	0.1115763
186	0x3dd448f6	0.10365479
187	0xbcda46d2	-0.026645098
188	0x3d0ab724	0.033866063
189	0x3af0b1af	0.0018363501
190	0xbd50ec66	-0.051006697
191	0xbd0f9877	-0.03505751
192	0xbd59f76a	-0.053214468
193	0xbdabed95	-0.083949246
194	0x3dd5d940	0.10441828
195	0x3b3b77cb	0.0028605338
196	0x3db1f110	0.08688557
197	0xbc338f45	-0.010959451
198	0xbbb82366	-0.005619454
199	0xbdba3ae2	-0.09093262
200	0xbdf11268	-0.11771089
201	0x3d549448	0.051899225
202	0xbb507193	-0.0031805977
203	0x3d36a03f	0.044586416
204	0xbde498e0	-0.11161971
205	0xbdbf2f0e	-0.09335147
206	0xbd809b27	-0.06279593
207	0xbd03c076	-0.032165967
208	0x3c965974	0.018353201
209	0xbda6fbbb	-0.081534825
210	0x3de77e14	0.11303344
211	0x3d9d2a75	0.07674114
212	0x3d20f836	0.039299212
213	0x3a18d470	0.00058299955
214	0xbd50b68f	-0.05095535
215	0xbdbd1376	-0.092322275
216	0xbd93488c	-0.071915716
217	0xbdae4ace	-0.085103616
218	0xbd0d0192	-0.034425326
219	0xbd9151bf	-0.0709567
220	0xbd487152	-0.048936196
221	0xbd0ab483	-0.033863556
222	0x3d29dfd4	0.041473225
223	0x3da6b871	0.08140648
224	0x3bdff2f2	0.0068343813
225	0xbbdb9787	-0.006701413
226	0xbd08335e	-0.033252113
227	0x3aa0d35d	0.0012270022
228	0xbd4d7cca	-0.050167836
229	0xbd74506b	-0.059647005
230	0xbbd5a7ef	-0.0065202634
231	0x3d94b7e9	0.072616406
232	0x3bdbfb24	0.006713288
233	0xbdbdb388	-0.092627585
234	0xbda59826	-0.08085661
235	0xbddb6358	-0.10712308
236	0xbc753a4e	-0.014967514
237	0x3e017a50	0.12644315
238	0x3df52aa7	0.11971026
239	0xbdb1cb08	-0.08681303
240	0xbdbbfc1f	-0.09178948
241	0x3db6f4a7	0.089333825
242	0x3d8836f4	0.066511065
243	0xbd306684	-0.043066517
244	0xbd1017c1	-0.035178903
245	0xbbd2c552	-0.006432214
246	0x3da6af17	0.081388645
247	0x3e02d4f6	0.1277655
248	0x3de2049e	0.11036037
249	0x3df55ee5	0.1198099
250	0x3d6575a9	0.056020413
251	0x3c344dad	0.0110048475
252	0x3dc5c6bf	0.096570484
253	0x3dd5c4ed	0.10437951
254	0x3c347f1a	0.0110166315
255	0x3d13c709	0.036078487

mlp.1.bias f4 [64]
0	0x3dca9ed0	0.09893572
1	0x3e04811c	0.12939876
2	0x3d658790	0.056037486
3	0x3df60aa1	0.12013746
4	0xbdcc652d	-0.09980235
5	0x3d4abd77	0.049497094
6	0xbbbbd3fa	-0.0057320567
7	0xbd6fa240	-0.058504343
8	0x3bcd0ab1	0.006257378
9	0x3e00cbd2	0.12577751
10	0x3d4f85f5	0.05066486
11	0x3d274927	0.040841248
12	0xbdc81057	-0.097687416
13	0x3d91c5cf	0.07117807
14	0xbbb71876	-0.005587633
15	0x3cd2a141	0.025711657
16	0xbd0c88a5	-0.034310002
17	0xbdc706a2	-0.09718062
18	0xbd3f0be6	-0.046642207
19	0x3a03fbd5	0.00050347793
20	0x3c94e2a9	0.018174486
21	0xbdfdb5e6	-0.1238821
22	0xbcce9c08	-0.025220886
23	0x3dababba	0.083823636
24	0x3d8fd867	0.07023697
25	0x3dcb1681	0.09916402
26	0x3dd96af8	0.10616106
27	0x3d77c3c4	0.06048943
28	0x3d8b4634	0.068004996
29	0xbceb57cd	-0.02872839
30	0xbdf79609	-0.12089164
31	0xbd620954	-0.055184677
32	0x3bf0ee8d	0.007352656
33	0xbe00d33b	-0.12580578
34	0x3dcd683a	0.10029645
35	0x3dd3ebb6	0.10347693
36	0xbcbffac3	-0.023435002
37	0xbd68b2fe	-0.056811325
38	0x3dccbe52	0.09997238
39	0x3b4f32dc	0.0031616008
40	0x3c123575	0.008923878
41	0xbd5250e8	-0.05134669
42	0x3c81c21a	0.015839625
43	0x3d134777	0.035956826
44	0xbc559567	-0.013036109
45	0x3d55b298	0.052172273
46	0x3d373d5d	0.044736255
47	0x3d01217e	0.03152608
48	0xbc8c8f06	-0.017158043
49	0xbe0cec31	-0.13761975
50	0x3dd12e1a	0.10213871
51	0x3c87f210	0.016594917
52	0xbd06956a	-0.032857336
53	0xbd85e8c0	-0.06538534
54	0xba77844e	-0.0009442017
55	0xbd3b907a	-0.04579208
56	0x3bf43122	0.007452146
57	0xbdf757a3	-0.12077262
58	0x3da261ee	0.07928835
59	0xbdd807e8	-0.10548383
60	0x3e098256	0.13428625
61	0xbdd6a9da	-0.10481615
62	0x3de563a3	0.11200645
63	0xbc95dfdf	-0.018295227

mlp.4.weight f4 [2, 64]
0	0x3e495ad0	0.19663548
1	0xbe0ffba5	-0.14060839
2	0x3c8dc899	0.017307566
3	0x3ccb426a	0.024811942
4	0xbcc71d77	-0.024306042
5	0x3d93c583	0.07215407
6	0xbd9d1145	-0.076693095
7	0xbdb608ec	-0.088884205
8	0xbe64bfb4	-0.22338754
9	0xbe88c5f2	-0.2671352
10	0xbe1b981f	-0.15194748
11	0xbd2c09fa	-0.042001702
12	0x3ca64f23	0.020301407
13	0x3ddb7a5c	0.107166976
14	0xbe24440a	-0.1604158
15	0xbde5b9a9	-0.112170525
16	0xbd980e89	-0.07424647
17	0x3d8b059d	0.0678818
18	0x3cadd1d9	0.021218227
19	0x3d39b171	0.045335237
20	0xbdabefb9	-0.08395333
21	0xbd44c080	-0.048035145
22	0x3cfdea97	0.03099565
23	0x3e5195b1	0.20467259
24	0x3d47ce5b	0.04878078
25	0x3da009a1	0.078143366
26	0x3cb5701d	0.022148186
27	0x3e3fc496	0.18727335
28	0xbe320577	-0.17384897
29	0x3e80806f	0.25097987
30	0x3e00fd97	0.12596737
31	0x3d7559a0	0.059899926
32	0xbde23773	-0.11045732
33	0xbda7de8c	-0.08196744
34	0x3de58aaf	0.112080924
35	0xbe02d85b	-0.12777846
36	0x3dab9ed7	0.08379906
37	0x3cbbf8c2	0.022945765
38	0x3db8d788	0.09025484
39	0x3df4fcfc	0.119623154
40	0x3c6e6c7d	0.014552233
41	0xbd5fc59e	-0.05463182
42	0xbb0df087	-0.0021658258
43	0x3e80f267	0.25184938
44	0xbd15755e	-0.036488883
45	0xbd84ca20	-0.06483865
46	0xbd9aa936	-0.07551806
47	0xbdd5c2e0	-0.1043756
48	0xbd033174	-0.032029584
49	0x3d533f95	0.05157431
50	0xbe7a621e	-0.24451491
51	0xbc950a78	-0.018193468
52	0x3dca2fc1	0.098723896
53	0x3dc71ce6	0.09722309
54	0x3da9b365	0.0828617
55	0xbb41d9fc	-0.0029579392
56	0x3dd6d129	0.10489113
57	0xbda3de30	-0.08001363
58	0x3df995f5	0.12186805
59	0xbdb21fe8	-0.08697492
60	0x3e1957c2	0.14974883
61	0xbcc3dcd7	-0.023909016
62	0xbe6c5aff	-0.23081587
63	0x3e2a96df	0.16659115
64	0xbe3e8316	-0.18604693
65	0x3cf0cfd7	0.02939598
66	0xbd875efa	-0.06609912
67	0xbd9dd38d	-0.07706366
68	0x3db621f7	0.08893197
69	0xbd881104	-0.066438705
70	0x3dc17d85	0.09447769
71	0x3d50c7f2	0.050971933
72	0x3db7888a	0.0896159
73	0x3e97a8e7	0.2962105
74	0x3dd35652	0.10319199
75	0xbc4c69a4	-0.012476359
76	0x3dc7bf1c	0.09753248
77	0xbdb423a2	-0.08795859
78	0x3cc24092	0.02371243
79	0x3e25baeb	0.16184585
80	0x3e021c38	0.12706077
81	0x3d10d3d4	0.035358265
82	0xbe148adf	-0.145061
83	0x3c7460eb	0.014915685
84	0xbd40a07d	-0.047028054
85	0xbde793e5	-0.113075055
86	0x3c1e1834	0.009649325
87	0xbd321434	-0.0434763
88	0x3de6b469	0.11264879
89	0x3d125af4	0.03573127
90	0xbce0ad2e	-0.027426329
91	0xbe0642ea	-0.13111463
92	0x3e4ab665	0.1979614
93	0xbe3dcc48	-0.18534958
94	0xbd255dc9	-0.040372644
95	0xbe8115a8	-0.25211835
96	0x3e22f393	0.15913229
97	0x3d524e48	0.051344186
98	0xbde474b9	-0.111550756
99	0x3d59dd9b	0.053189855
100	0x3d8614ee	0.06546961
101	0x3da2d620	0.07950997
102	0xbe1be297	-0.15223156
103	0xbc0f2424	-0.008736644
104	0xbca428aa	-0.020038921
105	0xbc248a34	-0.010042716
106	0x3da3a531	0.07990492
107	0xbe668444	-0.22511393
108	0x3ca52d8b	0.020163318
109	0xbd79446a	-0.06085626
110	0x3ce74834	0.028232671
111	0x3e517da0	0.20458078
112	0xbddb48b2	-0.10707225
113	0xbd3bc32e	-0.045840435
114	0x3e21293c	0.15738386
115	0x3e40e377	0.18836771
116	0xbdaee3d3	-0.08539548
117	0x3c6a02a4	0.014282856
118	0xbd5b5974	-0.053552106
119	0x3d8b0d9d	0.06789706
120	0xbd9cbffe	-0.07653807
121	0x3d63a2be	0.055575125
122	0xbde475fd	-0.11155317
123	0x3c34cea8	0.011035599
124	0xbdd66409	-0.10468299
125	0x3e1f4f2e	0.15557548
126	0x3e99edfb	0.30064377
127	0xbd80b073	-0.06283655

mlp.4.bias f4 [2]
0	0x3bda9b8b	0.006671374
1	0xbc9053b3	-0.017618036
