model/AAC_k2_model.ckpt (torch, 46683 bytes, 40 tensors)

conv1.0.weight f4 [10, 1, 3]
0	0xbf1b9fbf	-0.6079063
1	0xbeef394c	-0.46723402
2	0xbe271acd	-0.16318817
3	0x3c945e54	0.018111385
4	0x3f083d9a	0.53218997
5	0x3e61ca3a	0.220498
6	0xbf206a91	-0.6266261
7	0xbf0a2819	-0.53967434
8	0x3dd70615	0.10499207
9	0x3e051101	0.12994768
10	0x3f05a745	0.5220836
11	0xbeec57b2	-0.46160656
12	0x3eec7184	0.46180356
13	0xbec610f5	-0.38684812
14	0xbf100b8a	-0.5626761
15	0x3f0c634b	0.5483901
16	0x3dea298b	0.11433705
17	0x3e659880	0.22421455
18	0xbede0bef	-0.4336848
19	0xbeafc427	-0.3432934
20	0x3e3b2a19	0.18277778
21	0x3e808fec	0.25109804
22	0x3ed2f1a3	0.4119998
23	0x3f0ce7e0	0.55041313
24	0xbef4ad64	-0.47788537
25	0x3f261111	0.6486979
26	0xbcbfbd97	-0.023405833
27	0x3daa1156	0.08304088
28	0x3ea00b60	0.31258678
29	0x3dc7a76b	0.09748729

conv1.0.bias f4 [10]
0	0x3c861936	0.016369443
1	0x3e9b3d37	0.3032014
2	0xbd9f12cd	-0.07767258
3	0x3e8fe527	0.28104517
4	0xbf0c9dfc	-0.54928565
5	0x3c890f94	0.016731061
6	0xbdb8e6bc	-0.09028384
7	0xbed6b66d	-0.41936055
8	0xbe9035e0	-0.28166103
9	0x3e20e945	0.15713985

conv1.1.weight f4 [10]
0	0x3f8762e4	1.0577054
1	0x3f854d1c	1.0414157
2	0x3f8f9640	1.1217728
3	0x3f8def6a	1.1088688
4	0x3f884f64	1.0649228
5	0x3f898bb7	1.0745763
6	0x3f89384e	1.0720308
7	0x3f77ece7	0.9684586
8	0x3f85c8d5	1.0451914
9	0x3f840ada	1.0315812

conv1.1.bias f4 [10]
0	0x3ce66063	0.028122133
1	0x3c3bd952	0.011465387
2	0x3b796cc1	0.0038059207
3	0x3c6822bc	0.014168438
4	0x3b0d4b3a	0.002155973
5	0x3d580f7c	0.052749142
6	0x3bbcf0c6	0.005766007
7	0xb9fe0c55	-0.00048455843
8	0x3c92fec5	0.01794375
9	0xbaf6cd86	-0.0018829561

conv1.1.running_mean f4 [10]
0	0xbd838a30	-0.064228415
1	0x3ea61797	0.32439873
2	0xbe06cb3e	-0.13163468
3	0x3e89805e	0.2685575
4	0xbf12f575	-0.5740579
5	0xbab9b8af	-0.001416942
6	0xbdf08ebd	-0.11745975
7	0xbebb1686	-0.36540622
8	0xbea31f9d	-0.31860057
9	0x3e25193f	0.16122912

conv1.1.running_var f4 [10]
0	0x3d0dee59	0.034651134
1	0x3d0d6ca2	0.03452743
2	0x3d0de754	0.03464444
3	0x3d0defd8	0.03465256
4	0x3d0e7976	0.034783803
5	0x3d0d8dbe	0.034559004
6	0x3d0d4210	0.03448683
7	0x3d0e2f6c	0.034713194
8	0x3d0f003e	0.03491234
9	0x3d0cd0b0	0.034378707

conv1.4.weight f4 [20, 10, 3]
0	0x3e339602	0.17537692
1	0x3def328d	0.11679564
2	0xbde54d6d	-0.111964084
3	0x3e2d6a60	0.1693511
4	0x3e237576	0.15962777
5	0x3d90b1f1	0.0706519
6	0x3d5defdc	0.054183826
7	0x3e235154	0.15948993
8	0xbd89dba6	-0.06731348
9	0xbe267379	-0.16254987
10	0x3e1bb3dd	0.15205331
11	0xbe35ee5b	-0.17766707
12	0xbd6d3f90	-0.057921946
13	0xbd9545fe	-0.072887406
14	0x3d0be600	0.034154892
15	0x3da6a7c2	0.08137466
16	0x3cb3904c	0.021919392
17	0xbd1253e6	-0.035724543
18	0xbd356dae	-0.04429405
19	0x3dcc2c6d	0.09969411
20	0x3e2c3cfb	0.16820137
21	0xbb58d0f8	-0.003308354
22	0xbcab3940	-0.020901322
23	0xbc74830a	-0.01492382
24	0x3d29510d	0.04133706
25	0xbc92ea03	-0.017933851
26	0x3e0a0528	0.1347853
27	0x3d3a6af5	0.04551216
28	0xbd72d45b	-0.05928455
29	0x3d297498	0.041370958
30	0xbe242e63	-0.1603332
31	0xbd4f7bd1	-0.05065519
32	0xbe251a54	-0.16123325
33	0x3e06bd50	0.13158154
34	0xbd45d718	-0.048300833
35	0x3e5d8266	0.21631774
36	0xbe5aaed8	-0.2135576
37	0x3db03791	0.086043485
38	0xbd26a9c1	-0.040689234
39	0x3e0621ed	0.13098879
40	0xbe44f086	-0.19232377
41	0x3c88a11d	0.016678387
42	0xbdc2bbf2	-0.09508504
43	0x3cb6014a	0.022217412
44	0xbe1a428f	-0.15064453
45	0x3e406259	0.18787517
46	0x3db97195	0.09054867
47	0x3dcbc656	0.09949939
48	0xbc8cfebb	-0.017211309
49	0x3dcd815b	0.10034438
50	0x3b1c1539	0.002381636
51	0x3e2d0128	0.16894972
52	0xbb1d8fb5	-0.0024041955
53	0xbdc17752	-0.09446587
54	0xbcd8741f	-0.026422558
55	0x3dcb5470	0.099282146
56	0x3ddd93e3	0.10819223
57	0x3df0755e	0.11741136
58	0x3c77e9cb	0.015131424
59	0x3d6f5aa1	0.05843604
60	0x3d8d79c7	0.06907993
61	0x3e25ddd3	0.161979
62	0x3de001ee	0.10937868
63	0xbe130c9d	-0.1436028
64	0x3d6de3e8	0.058078676
65	0x3e20864f	0.15676235
66	0x3de9ba60	0.11412501
67	0x3e245803	0.16049199
68	0x3dc1ffdb	0.09472629
69	0x3a19df69	0.00058697775
70	0x3dccf21d	0.10007117
71	0xbcb8f92f	-0.022579757
72	0x3e2cdd38	0.16881263
73	0xbdbf1836	-0.0933079
74	0xbdecb6e8	-0.11558324
75	0x3e04e7c5	0.12979038
76	0xbcb33c40	-0.021879315
77	0x3d839514	0.06424919
78	0x3e0e5c55	0.1390241
79	0x3b44eb65	0.0030047533
80	0x3df2e3f0	0.11859882
81	0xbbea5b1e	-0.0071519753
82	0xbe20d3c6	-0.15705785
83	0xbde1f48a	-0.1103297
84	0x3e02f632	0.12789229
85	0x3d3e1546	0.046407007
86	0x3d17f4cb	0.037098687
87	0x3c5b6af0	0.013392195
88	0xbcaa57b1	-0.020793768
89	0xbd28a44d	-0.041172314
90	0xbeb4e097	-0.35327598
91	0xbcae6722	-0.021289412
92	0x3d1d8d0c	0.03846459
93	0x3dc27f0b	0.09496888
94	0xbd3a5afc	-0.045496926
95	0xbdca30c8	-0.098725855
96	0xbea293f1	-0.31753495
97	0x3d3f890e	0.046761565
98	0x3ca28e85	0.01984335
99	0xbe9372db	-0.28798565
100	0x3e106356	0.14100394
101	0xbe0f890b	-0.14017121
102	0x3b37fd78	0.0028074663
103	0xbeacef36	-0.33776253
104	0x3d8d8fb3	0.06912174
105	0x3e5ff0e5	0.21869238
106	0x3e4cfc6a	0.20018163
107	0x3e04bb34	0.12962037
108	0xbe017e5a	-0.12645856
109	0x3cf20e37	0.029547794
110	0xbc163e39	-0.0091701085
111	0x3e693c01	0.22776796
112	0xbb9cfd34	-0.0047909264
113	0x3df989d9	0.121844955
114	0xbe151104	-0.14557272
115	0x3dd04518	0.101694286
116	0xbe212acd	-0.15738983
117	0x3da5596c	0.080736965
118	0x3d827d68	0.063715756
119	0x3e1a261e	0.15053603
120	0x3df9758d	0.12180624
121	0x3e765c4c	0.24058646
122	0xbe2ff202	-0.17182162
123	0xbdae3256	-0.085056946
124	0x3dab7864	0.08372572
125	0xbbfe7c7a	-0.0077663036
126	0x3e2649ee	0.1623914
127	0x3d72ebb4	0.059306815
128	0x3df66db0	0.1203264
129	0xbdd2e079	-0.10296721
130	0xbe309ae1	-0.17246582
131	0xbe297208	-0.16547406
132	0x3e324da9	0.17412437
133	0xbe2a8165	-0.16650923
134	0xbddf407c	-0.10900971
135	0xbc968c8a	-0.018377561
136	0xbe5ee302	-0.21766284
137	0xbe0e4654	-0.13894016
138	0x3e6e8cea	0.23295942
139	0x3e3c5752	0.18392685
140	0x3c85ccc6	0.016332995
141	0x3d34b1fa	0.044115044
142	0x3d6db33a	0.058032252
143	0xbc83c242	-0.01608384
144	0xbe985c23	-0.29757795
145	0x3e214f63	0.1575294
146	0x3dccab50	0.09993613
147	0xbe2b5835	-0.16732867
148	0x3dc70452	0.09717621
149	0x3cee8f5c	0.029121093
150	0xbd34ff50	-0.044188797
151	0x3e534505	0.20631798
152	0x3da989c5	0.082782306
153	0x3df612e4	0.12015322
154	0xbd47635b	-0.048678737
155	0xbdcba3a5	-0.09943322
156	0x3e675b6c	0.22593468
157	0xbd741256	-0.0595878
158	0xbd82a4f9	-0.06379122
159	0x3dee3d20	0.116327524
160	0x3e2fbe4b	0.17162435
161	0xbe08a1d8	-0.13342988
162	0x3e06d31e	0.13166472
163	0xbe4764a4	-0.19471985
164	0xbdab3011	-0.08358777
165	0x3d7e64e2	0.062107928
166	0xbdd79f4d	-0.10528431
167	0xbdc3b800	-0.095565796
168	0x3e361a48	0.17783463
169	0x3d54cff1	0.05195612
170	0xbe46bb91	-0.19407488
171	0x3e2759d5	0.16342862
172	0x3bc49f98	0.0060004704
173	0x3cbb72a6	0.022881817
174	0xbe5ed6ca	-0.21761623
175	0xbcf69d2e	-0.030104246
176	0x3d7bd6be	0.06148409
177	0xbe0b46a2	-0.13601163
178	0xbc828627	-0.01593311
179	0xbd9b88ea	-0.07594474
180	0xbd7da225	-0.06192221
181	0x3da6463f	0.08118867
182	0x3e30b8f8	0.1725806
183	0x3e2a4dc1	0.16631223
184	0x3db7d256	0.08975665
185	0xbdeafd59	-0.114741035
186	0x3d55ab27	0.052165177
187	0x3e25e7bd	0.16201682
188	0xbcbbac23	-0.02290923
189	0x3d8e4830	0.069473624
190	0xbd8a2f19	-0.067472644
191	0xbd6da380	-0.058017254
192	0x3c98074d	0.018558169
193	0x3d681397	0.056659307
194	0xbd7f9e41	-0.062406782
195	0xbd9dcf83	-0.07705595
196	0x3e284130	0.16431117
197	0xbe58d8a3	-0.2117639
198	0xbccbeb86	-0.02489258
199	0x3d9fc675	0.078015245
200	0xbe1b0858	-0.15139902
201	0x3d9d5d00	0.07683754
202	0x3dfe3853	0.12413087
203	0x3d5e09b9	0.05420849
204	0x3df71d99	0.12066192
205	0xbdb14766	-0.08656196
206	0xbd92ba10	-0.07164395
207	0xbddb23d6	-0.107001945
208	0xbb751a71	-0.0037399794
209	0xbe36fcd1	-0.1786988
210	0x3e1e82c3	0.15479569
211	0xbdd8d66b	-0.10587772
212	0xbdd8e43b	-0.105904065
213	0xbe07ab52	-0.13248947
214	0xbcd3ea9c	-0.025868706
215	0x3d2d1bdc	0.042262897
216	0xbdb9fd86	-0.09081559
217	0xbc5f3390	-0.013623133
218	0x3e1e13ee	0.1543729
219	0x3c6b4f72	0.014362203
220	0x3e067fa3	0.13134627
221	0x3ca9f165	0.020744989
222	0xbe74cb84	-0.2390576
223	0xbd95f334	-0.07321778
224	0x3b918f97	0.004442166
225	0x3df12fb5	0.117766775
226	0xbe11941b	-0.14216654
227	0xbe6c7138	-0.23090065
228	0xbda08475	-0.07837764
229	0xbd35e5c7	-0.044408586
230	0xbe247ab1	-0.16062428
231	0xbe340c71	-0.17582871
232	0x3de1f4d8	0.11033028
233	0x3e00efac	0.12591428
234	0x3e319363	0.1734138
235	0xbdb060fa	-0.08612247
236	0xbe2659c8	-0.16245186
237	0xbe085593	-0.13313894
238	0xbdb34c91	-0.08754838
239	0x3db31bf4	0.08745566
240	0x3da113d3	0.07865109
241	0xbcbea9f2	-0.023274396
242	0xbdeeb396	-0.11655347
243	0xbc8ecf35	-0.017432788
244	0x3de47b82	0.1115637
245	0x3e28b4ff	0.16475295
246	0x3e163239	0.14667596
247	0xbe2b75f9	-0.16744222
248	0xbd192c57	-0.0373958
249	0xbdb239fe	-0.087024674
250	0xbdd3c92f	-0.10341107
251	0xbdd8a860	-0.1057899
252	0xb99521c3	-0.0002844465
253	0x3e0d95af	0.13826631
254	0x3de0bb8e	0.10973273
255	0xbdceaf06	-0.10091977

conv1.4.bias f4 [20]
0	0x3ced6d48	0.028982773
1	0xbcbb98f5	-0.022900084
2	0x3d6e94c5	0.058247346
3	0xbd3eb352	-0.046557732
4	0x3df61d08	0.12017256
5	0xbde7baac	-0.11314902
6	0x3da8071c	0.08204481
7	0x3e2edcef	0.17076467
8	0xbdeae1c3	-0.11468842
9	0x3e00272b	0.12514941
10	0xbcc6239a	-0.024186898
11	0xbd999357	-0.07498806
12	0xbe250b8b	-0.16117685
13	0x3cea5987	0.028607143
14	0xbe2dac9d	-0.16960378
15	0x3e0178de	0.12643763
16	0xbdf53878	-0.11973661
17	0x3d4c2620	0.049841046
18	0xbbdfe670	-0.00683289
19	0xbdabbcd9	-0.08385629

conv1.5.weight f4 [20]
0	0x3f7a399e	0.97744167
1	0x3f81b32c	1.0132804
2	0x3f7cc661	0.987402
3	0x3f8b4282	1.0879672
4	0x3f9512f3	1.1646408
5	0x3f868fb2	1.0512602
6	0x3f7dc493	0.99128073
7	0x3f7d7b40	0.9901619
8	0x3f7d9a42	0.99063504
9	0x3f7ae7b4	0.980098
10	0x3f80c535	1.0060183
11	0x3f76d27e	0.96414936
12	0x3f7cd862	0.98767674
13	0x3f77646a	0.96637595
14	0x3f764401	0.96197516
15	0x3f828d5f	1.0199393
16	0x3f7c2bb8	0.9850421
17	0x3f7c38ef	0.98524374
18	0x3f7af23c	0.9802587
19	0x3f897639	1.0739204

conv1.5.bias f4 [20]
0	0xbb817d6d	-0.0039517195
1	0x3c54ab59	0.012980306
2	0x3b15dd58	0.0022867527
3	0xbbfe4350	-0.007759489
4	0xbc105d53	-0.008811313
5	0x3c794add	0.015215603
6	0x3b857085	0.0040722513
7	0x3c6c75ff	0.014432429
8	0xbbcf5843	-0.0063276603
9	0x3c556db4	0.013026644
10	0x3c9e30bd	0.01931035
11	0xba7dfb3d	-0.00096886215
12	0x3bd5ec6a	0.006528427
13	0xbc7834da	-0.01514932
14	0xbc72ccb4	-0.014819313
15	0xbc4d8ffa	-0.012546534
16	0x3c252cd3	0.010081488
17	0x3c060d40	0.00818187
18	0xbcb4144b	-0.021982333
19	0xbbfb4bdd	-0.0076689557

conv1.5.running_mean f4 [20]
0	0x3eab629f	0.3347368
1	0x3e3dec2d	0.18547125
2	0x3f008c25	0.50213844
3	0x3da6ecff	0.08150672
4	0x3e22f860	0.1591506
5	0xbd0db84f	-0.0345996
6	0x3e0f7873	0.14010791
7	0xbc7d4440	-0.015458167
8	0xbda05e31	-0.078304656
9	0xbdace46e	-0.08442007
10	0xbd300cad	-0.04298084
11	0xbdb2d062	-0.08731152
12	0xbea26db5	-0.31724325
13	0xbddea627	-0.10871535
14	0xbe0e8085	-0.13916214
15	0x3d8d2018	0.06890887
16	0xbedaef77	-0.42760822
17	0xbeb66e52	-0.35631043
18	0xbd63dadd	-0.055628646
19	0xbe46cbc9	-0.19413675

conv1.5.running_var f4 [20]
0	0x3e1fc3fd	0.15602107
1	0x3e7e1494	0.24812537
2	0x3e80e489	0.25174358
3	0x3e6d97ef	0.2320249
4	0x3e3dc8b2	0.1853359
5	0x3e014711	0.12624766
6	0x3e143221	0.14472248
7	0x3e307e14	0.17235595
8	0x3e08baf1	0.13352562
9	0x3dfbe64c	0.12299785
10	0x3e1c34ec	0.15254563
11	0x3e3cc397	0.18433987
12	0x3e89af56	0.26891583
13	0x3e0fdc09	0.1404878
14	0x3dfff7f6	0.12498467
15	0x3e5a7eb3	0.21337394
16	0x3e50c464	0.20387417
17	0x3e373710	0.17892098
18	0x3e1e1a35	0.15439685
19	0x3e85407f	0.2602577

conv2.0.weight f4 [10, 1, 6]
0	0x3ec9892d	0.3936247
1	0xbe99a0be	-0.3000545
2	0xbe84d10c	-0.2594074
3	0x3e834cfb	0.2564467
4	0xbe341053	-0.17584352
5	0xbeb448f1	-0.352119
6	0x3e2530b8	0.16131866
7	0xbd74ce88	-0.059767276
8	0x3e3d7c72	0.18504503
9	0x3c05e32e	0.00817184
10	0xbddd7b05	-0.1081448
11	0x3e94659c	0.28983772
12	0xbd8b5a8c	-0.0680438
13	0xb9ff2d5e	-0.0004867119
14	0x3daf0b12	0.08547033
15	0x3e8af33d	0.271387
16	0xbef75a93	-0.4831129
17	0xbe860f35	-0.26183477
18	0xbe22b5ec	-0.1588971
19	0xbe0857a4	-0.13314682
20	0x3dbc48a4	0.091935426
21	0x3ee3123f	0.44349858
22	0xbea33d84	-0.3188287
23	0x3e90521c	0.28187644
24	0xbefcd546	-0.49381465
25	0x3d5a22a6	0.0532557
26	0x3ebcf6ef	0.36907145
27	0xbe7a62c2	-0.24451736
28	0xbe8e6070	-0.2780795
29	0x3ec179e8	0.3778832
30	0xbe72bd82	-0.23705104
31	0x3e0cbbf5	0.13743575
32	0x3ece3bc4	0.40279973
33	0xbdbe02c1	-0.09277869
34	0xbe0801d1	-0.13281943
35	0xbe778bc2	-0.24174407
36	0x3eeb13a9	0.45913437
37	0xbee71ff2	-0.4514156
38	0x3ed2b1e0	0.41151333
39	0x3db0e9c6	0.08638339
40	0x3eab2553	0.33426914
41	0x3e39d891	0.1814902
42	0xbdd96118	-0.10614222
43	0xbe8213f0	-0.25405836
44	0xbe81d2ee	-0.2535624
45	0x3dd87a81	0.10570241
46	0xbcf77b86	-0.030210268
47	0xbed15d7e	-0.4089164
48	0xbd9351b0	-0.07193315
49	0xbeb7e68c	-0.3591808
50	0xbf02edfb	-0.5114438
51	0xbe624397	-0.22096096
52	0xbdcff212	-0.10153593
53	0x3e76585c	0.24057144
54	0xbdbbe2d6	-0.09174125
55	0xbe3410ca	-0.1758453
56	0xbec7e4ab	-0.39041647
57	0xbecbb170	-0.39783812
58	0x3d92ba64	0.071644574
59	0xbe51e197	-0.20496212

conv2.0.bias f4 [10]
0	0xbe843f07	-0.25829336
1	0x3e0bd02f	0.13653634
2	0xbde525d5	-0.111888565
3	0xbea0dca9	-0.3141835
4	0x3e582bd8	0.21110475
5	0xbe0624ad	-0.13099928
6	0xbca07928	-0.019589022
7	0xbce2c01a	-0.027679492
8	0x3eb94a07	0.3618929
9	0x3eaf6995	0.3426024

conv2.1.weight f4 [10]
0	0x3f88d655	1.0690409
1	0x3f80c0de	1.0058858
2	0x3f9b3ad9	1.2127334
3	0x3f8a1dfe	1.0790403
4	0x3f91e20c	1.1397109
5	0x3f83740d	1.0269791
6	0x3f8685ac	1.0509543
7	0x3f857ae3	1.0428127
8	0x3f8d0d74	1.101973
9	0x3f8c9b0b	1.0984815

conv2.1.bias f4 [10]
0	0x3ca3f535	0.020014385
1	0x3bd2c10d	0.006431705
2	0x3c613bef	0.013747199
3	0x3cba2227	0.022721363
4	0x3cab7781	0.020931007
5	0xbc202106	-0.009773498
6	0x3c5c62a2	0.01345125
7	0x3c91ff98	0.017822072
8	0x3b9edcc1	0.0048480933
9	0x3c617ab0	0.013762161

conv2.1.running_mean f4 [10]
0	0xbe904eab	-0.2818502
1	0x3e0f430b	0.13990419
2	0xbe1bc4fb	-0.15211861
3	0xbea75506	-0.32682055
4	0x3e471a3f	0.19443606
5	0xbdef1401	-0.11673737
6	0x3b573398	0.0032837149
7	0xbdbfcdc8	-0.093654215
8	0x3ea3c15e	0.31983465
9	0x3e8713c6	0.26382273

conv2.1.running_var f4 [10]
0	0x3d0e6472	0.03476376
1	0x3d0d2191	0.03445584
2	0x3d0d75f0	0.034536302
3	0x3d0dcea2	0.03462089
4	0x3d0e08c1	0.034676317
5	0x3d0db4d7	0.03459629
6	0x3d0f9011	0.0350495
7	0x3d0d8f62	0.03456057
8	0x3d0ddbd6	0.03463348
9	0x3d0dad69	0.034589205

conv2.4.weight f4 [20, 10, 6]
0	0x3bd05418	0.006357681
1	0x3d68ed8b	0.056867164
2	0xbdf6e898	-0.120560825
3	0xbdab1fa3	-0.083556436
4	0x3d577743	0.05260397
5	0xbe0c89d4	-0.13724452
6	0xbceb8a0f	-0.028752355
7	0xbb66155c	-0.0035107946
8	0x3d987e07	0.07445913
9	0x3b0bc17f	0.002132505
10	0x3d4b23bb	0.049594622
11	0xbe0ac338	-0.13551033
12	0x3dfabd89	0.12243182
13	0x3d81ae2d	0.063320495
14	0xbd9dd0c6	-0.07705836
15	0xbd7a22d0	-0.061068356
16	0x3d94fe2d	0.07275043
17	0xbbd2c9fd	-0.0064327703
18	0xbc28dd60	-0.010306686
19	0xbd991bd0	-0.07476008
20	0xbded3b2e	-0.11583553
21	0xbd481d14	-0.048855856
22	0x3dc61a79	0.09673018
23	0xbda38db8	-0.07986015
24	0xbcf0cd61	-0.029394807
25	0xbdbb26ee	-0.091382846
26	0xbce590ad	-0.028023088
27	0xbdded9ce	-0.10881387
28	0x3da39144	0.079866916
29	0x3e06d47a	0.13166991
30	0xbd29ca04	-0.041452423
31	0x3ce3a492	0.027788434
32	0xbd0144be	-0.0315597
33	0xbda35139	-0.07974476
34	0x3c32beca	0.0109097455
35	0xbbd02a1e	-0.006352677
36	0xbd7869af	-0.060647663
37	0xbd4e3d4f	-0.050351437
38	0xbd19dc76	-0.037563764
39	0x3d0df3e8	0.034656435
40	0x3d202932	0.039101787
41	0xbe183f3c	-0.14867872
42	0xbd7358f6	-0.05941101
43	0xbc44ba7c	-0.012007352
44	0xbdcf220c	-0.10113916
45	0xbd6f1b7a	-0.058375813
46	0x3db43c48	0.0880056
47	0x3d4527e0	0.04813373
48	0xbb7abefe	-0.0038260813
49	0x3df8c0fb	0.12146183
50	0x3d600c0b	0.054698985
51	0xbe052587	-0.13002597
52	0xbd9d51f9	-0.07681651
53	0xbdfe70db	-0.12423869
54	0xbbe0ee50	-0.0068643466
55	0x3cb38ee7	0.021918727
56	0x3e331a12	0.17490414
57	0x3c941629	0.018076973
58	0xbe48fd5a	-0.19627896
59	0xbda7bf5e	-0.08190797
60	0x3d7508a4	0.059822693
61	0x3e01b542	0.126668
62	0xbdb4e2c3	-0.08832314
63	0xbdc3bb0d	-0.095571615
64	0x3c939534	0.018015482
65	0x3d25118b	0.040299933
66	0x3d3a34ab	0.045460384
67	0xbdeb94bb	-0.115029775
68	0x3d83e845	0.06440786
69	0xbdb10376	-0.08643238
70	0x3b8843d5	0.004158477
71	0xbd7a9316	-0.06117543
72	0xbe3fd466	-0.18733367
73	0x3dce8fa3	0.1008599
74	0xbd8b4302	-0.0679989
75	0xbc9cee6d	-0.019156659
76	0xbd91c814	-0.0711824
77	0x3d066d65	0.03281917
78	0xbe3a50a5	-0.18194826
79	0x3e00db6b	0.12583701
80	0xbceb055b	-0.028689077
81	0x3d915154	0.0709559
82	0x3d69cd12	0.057080336
83	0xbdd20960	-0.102556944
84	0xbc165242	-0.009174885
85	0xbbcddebd	-0.006282656
86	0x3dc11a98	0.094289005
87	0x3d81972b	0.06327661
88	0x3def826b	0.11694797
89	0x3d604c25	0.054760117
90	0x3d1ad915	0.03780468
91	0xbd02e129	-0.03195301
92	0xbc69727e	-0.0142484885
93	0xbd529385	-0.051410217
94	0x3dc9d09d	0.09854243
95	0xbda85347	-0.08219009
96	0x3d70c73a	0.058783747
97	0xbe42f865	-0.19040067
98	0x3d5d0ab5	0.05396529
99	0x3d2e3aa5	0.042536397
100	0xbdbb7864	-0.09153822
101	0xbd89db31	-0.067312606
102	0xbd8ea1f2	-0.06964482
103	0x3dfdffc3	0.12402298
104	0x3b7a7d3e	0.0038221623
105	0x3d4fcd26	0.050732754
106	0xbe074f46	-0.13213834
107	0x3de54154	0.11194101
108	0xbad50a4e	-0.0016253681
109	0x3cb10494	0.021608628
110	0x3e16677d	0.14687915
111	0xbbd5fb73	-0.006530219
112	0x3a6fb49d	0.000914404
113	0x3dd51943	0.10405209
114	0x3e53e2ea	0.2069203
115	0xbe2097cb	-0.15682904
116	0xbcc18beb	-0.023626288
117	0xbdf39792	-0.11894144
118	0x3d58ea5b	0.052957874
119	0x3c95e6d6	0.018298548
120	0xbdbfbe68	-0.09362489
121	0x3d903f75	0.070433535
122	0x3dc9c7f3	0.098525904
123	0xbbf35ec9	-0.0074270708
124	0x3de86588	0.113474905
125	0xbccf45e1	-0.025301876
126	0x3da53ff7	0.08068841
127	0x3ddf05ba	0.10889764
128	0x3ca3effb	0.020011893
129	0xbda15b6c	-0.078787655
130	0x3dbacf8d	0.091216184
131	0x3cabe6f0	0.020984143
132	0x3d402586	0.046910785
133	0x3d2a5151	0.041581456
134	0x3dab8fa6	0.08377008
135	0xbd9f4363	-0.07776525
136	0x3c1f0bd5	0.009707411
137	0xbcccb6f2	-0.024989579
138	0xbdf3724f	-0.11887037
139	0x3d0d90f2	0.03456206
140	0xbd0ed69f	-0.034872647
141	0xbc2e56bb	-0.010640795
142	0xbd8e7f3e	-0.06957863
143	0x3d9ccdc9	0.07656438
144	0xbc209257	-0.009800515
145	0x3dced3df	0.10099005
146	0xbddb118a	-0.10696705
147	0x3d3b4e07	0.04572871
148	0x3d4276ea	0.047476687
149	0x3d1f9df2	0.038968988
150	0x3d849c37	0.06475108
151	0x3d64dc77	0.055874314
152	0xbd90092e	-0.07033001
153	0xbdbb9010	-0.09158337
154	0xbc9a47c6	-0.018833052
155	0x3ce603cc	0.028077982
156	0x3d2d70e8	0.042344004
157	0x3df6a9ea	0.12044127
158	0x3cabb60d	0.020960832
159	0xbd0deacb	-0.034647744
160	0xbd8c837c	-0.06861016
161	0x3cffdd9f	0.031233607
162	0xbdabec3f	-0.0839467
163	0xbd4dc0f5	-0.050232846
164	0xbdc68aaa	-0.09694417
165	0x3c3afff1	0.01141356
166	0x3d1ae977	0.037820306
167	0x3cdb4a1f	0.026768742
168	0x3d8279ca	0.06370886
169	0x3da20c13	0.07912459
170	0x3dfcefc4	0.12350419
171	0x3de9b720	0.114118814
172	0x3dfeb3fe	0.124366745
173	0x3ccef1ae	0.025261726
174	0x3d8f9a9b	0.070119105
175	0x3c9cebd8	0.019155428
176	0xbdc2b480	-0.09507084
177	0xbd0e75dd	-0.034780372
178	0xbd4e9c4d	-0.05044203
179	0xbd749065	-0.059708018
180	0x3d9af137	0.07565539
181	0x3c62a730	0.013833806
182	0x3c5375a5	0.012906467
183	0xbd3edd1c	-0.046597585
184	0xbd115f8b	-0.035491508
185	0xbdb7bac1	-0.08971167
186	0x3d01d1bb	0.031694155
187	0x3defb118	0.117037
188	0xbe049eb3	-0.12951164
189	0xbcc3e990	-0.023915082
190	0x3d27bfc3	0.040954363
191	0x3b6cc519	0.0036128222
192	0x3e023a52	0.1271756
193	0x3d543378	0.051806897
194	0xbddcae40	-0.10775423
195	0xb927fc2b	-0.00016020301
196	0x3dfe5754	0.12419
197	0xbe3e7860	-0.18600607
198	0xbd7c0371	-0.06152672
199	0x3d3784c5	0.044804353
200	0x3cafa82a	0.021442492
201	0x3d4b38b0	0.04961461
202	0xbcaf619f	-0.021408854
203	0xbdbd1fa0	-0.092345476
204	0x3d80f99e	0.06297611
205	0x3bff891f	0.0077983285
206	0x3da60b30	0.081076026
207	0x3d0cc13a	0.034363963
208	0x3e14809d	0.14502187
209	0xbd969d7b	-0.07354256
210	0xbcad7bd1	-0.021177204
211	0xbddaac44	-0.10677388
212	0xbd0ac508	-0.03387931
213	0x3da33ae5	0.079702176
214	0xbc6e7eae	-0.01455657
215	0xbe065caa	-0.13121286
216	0x3d6ba826	0.057533406
217	0x3dabe2b7	0.08392852
218	0xbd551df7	-0.05203053
219	0xbc3b5a30	-0.011435077
220	0x3cba5b79	0.022748696
221	0x3dbfcd30	0.09365308
222	0xbb300aba	-0.0026861862
223	0x3c6017dd	0.013677564
224	0x3dc11af5	0.0942897
225	0x3e4163e7	0.18885766
226	0xbe1d8075	-0.15381034
227	0xbe5b986f	-0.21444868
228	0xbe8aac94	-0.27084792
229	0xbd870129	-0.06592018
230	0xbd9b390c	-0.0757924
231	0xbdc99a2a	-0.098438576
232	0x3cea494a	0.0285994
233	0xbd443ee3	-0.047911536
234	0xbc5d9eaf	-0.013526603
235	0xbda136fc	-0.078718156
236	0x3dfa14f4	0.12211028
237	0xbac05b85	-0.0014675712
238	0xbd9c1813	-0.07621779
239	0x3d74e031	0.059784118
240	0x3dc42eec	0.09579262
241	0x3cad5b4a	0.021161694
242	0x3d49324a	0.049120225
243	0xbd75b138	-0.059983462
244	0xbd95ede4	-0.07320765
245	0xbd9b0b84	-0.07570556
246	0xbe51f2f5	-0.20502837
247	0x3dd3f373	0.10349169
248	0x3bb04562	0.005379365
249	0x3d38bdf8	0.045103043
250	0x3d45ee8e	0.048323207
251	0x3de6a34b	0.112616144
252	0xbe4c467b	-0.19948761
253	0x3db9ad06	0.09066205
254	0xbcbed57a	-0.023295153
255	0x3e45dd38	0.1932267

conv2.4.bias f4 [20]
0	0x3d4c473c	0.049872622
1	0x3dd43828	0.103622735
2	0x3dd3f2a4	0.103490144
3	0x3e153b9d	0.14573522
4	0x3df86811	0.12129224
5	0x3d048f6d	0.032363344
6	0x3dae7602	0.08518602
7	0x3d0701dd	0.03296076
8	0x3d244f4c	0.040114686
9	0xbcc6d122	-0.024269644
10	0x3d1bcda1	0.0380379
11	0x3dc0644a	0.093941286
12	0xbdc4f516	-0.09617059
13	0xbdad8258	-0.08472127
14	0xbceb4dc2	-0.028723601
15	0x3d0f4cca	0.03498534
16	0xbdd573dc	-0.10422489
17	0xbb19dedb	-0.002347878
18	0xbe2eb867	-0.17062531
19	0x3aa12893	0.0012295417

conv2.5.weight f4 [20]
0	0x3f7bff07	0.98436016
1	0x3f80252d	1.0011345
2	0x3f797e78	0.974586
3	0x3f832e9a	1.0248597
4	0x3f8d4ea3	1.1039623
5	0x3f79efb9	0.9763141
6	0x3f7effde	0.9960917
7	0x3f80b83e	1.0056226
8	0x3f783e86	0.96970403
9	0x3f80cc51	1.0062352
10	0x3f7b623e	0.9819678
11	0x3f8881cb	1.066461
12	0x3f803df1	1.0018903
13	0x3f884e19	1.0648834
14	0x3f797844	0.97449136
15	0x3f7950d3	0.9738895
16	0x3f7d6aba	0.98990977
17	0x3f79813e	0.9746283
18	0x3f7abcd0	0.97944355
19	0x3f81c37a	1.013778

conv2.5.bias f4 [20]
0	0x3ad89071	0.0016522539
1	0xbb4a283b	-0.0030846733
2	0xbac4b887	-0.0015008607
3	0x3cf3863b	0.029727092
4	0xbb7c58f2	-0.0038505164
5	0xbbcfd542	-0.006342561
6	0xbc5581ce	-0.013031436
7	0x3cb2dd8d	0.02183416
8	0xbc0615cd	-0.008183909
9	0xbc7cf04e	-0.0154381525
10	0x3bb4ba84	0.0055153985
11	0xbcb20d5e	-0.02173489
12	0x3c06dc80	0.008231282
13	0xbc686017	-0.014183066
14	0x3a2ed149	0.0006668759
15	0xbb13e499	-0.0022566675
16	0xbbb992ba	-0.005663243
17	0xbc525da1	-0.012839706
18	0x3b5b4c63	0.0033462278
19	0xbc948e97	-0.018134398

conv2.5.running_mean f4 [20]
0	0xbe737a50	-0.23777127
1	0x3da8c492	0.08240618
2	0x3eaf5ff8	0.34252906
3	0xbd1d7a3e	-0.038446657
4	0x3e30314b	0.17206304
5	0x3e5e23f4	0.21693403
6	0x3d0ea13e	0.03482174
7	0xbece2bbf	-0.4026775
8	0xbc74a5a9	-0.014932075
9	0xbe1a9170	-0.15094543
10	0xbea246d2	-0.31694657
11	0x3e5ff96d	0.21872492
12	0xbd850a10	-0.0649606
13	0xbc3886e1	-0.011262626
14	0x3e4de206	0.20105752
15	0x3e822272	0.25416905
16	0x3e350e58	0.17681253
17	0x3e838d34	0.25693667
18	0x3c309b71	0.010779248
19	0xbe4f569a	-0.2024788

conv2.5.running_var f4 [20]
0	0x3e49dcb1	0.19713093
1	0x3e2af3a7	0.16694508
2	0x3e02662c	0.12734288
3	0x3e03371a	0.12813988
4	0x3e25245a	0.16127148
5	0x3e76ffef	0.24121068
6	0x3e4600cc	0.19336241
7	0x3e25668d	0.16152401
8	0x3df399d3	0.11894574
9	0x3e6c8a22	0.23099568
10	0x3e3468c2	0.17618087
11	0x3e2498d7	0.16073929
12	0x3e5f791f	0.21823548
13	0x3e13d529	0.14436783
14	0x3e148f80	0.14507866
15	0x3e1d45e7	0.15358697
16	0x3e60e2e7	0.21961556
17	0x3e002182	0.12512782
18	0x3e0f87c6	0.14016637
19	0x3e313aff	0.17307661

conv3.0.weight f4 [10, 1, 9]
0	0xbe6a5248	-0.2288295
1	0x3db2b143	0.08725216
2	0xbebcf870	-0.36908293
3	0xbe0fc10d	-0.14038487
4	0x3eea110f	0.4571614
5	0x3ea7e0d3	0.32788715
6	0x3dc8bea7	0.09801989
7	0xbe599d43	-0.21251397
8	0x3eebb504	0.4603654
9	0x3e98e344	0.2986089
10	0x3efca580	0.49345016
11	0xbe9a8ed7	-0.30187103
12	0x3ee66864	0.4500152
13	0x3c82163d	0.015879745
14	0x3eaa1e4c	0.3322624
15	0x3da25678	0.07926649
16	0x3ec2d16e	0.38050407
17	0xbe59d4e6	-0.2127262
18	0xbeaef91f	-0.3417444
19	0x3cce235e	0.025163349
20	0x3e591cb1	0.21202351
21	0xbe5d6e05	-0.21624
22	0x3e319b8c	0.17344493
23	0x3e67195a	0.22568265
24	0xbf15887d	-0.5841139
25	0x3de03fbb	0.109496556
26	0x3c9f378b	0.019435665
27	0x3e1d1ff9	0.15344228
28	0xbc924c53	-0.01785866
29	0x3e80f06c	0.25183427
30	0xbe704ff2	-0.23467997
31	0x3e006187	0.12537204
32	0x3d47a3d5	0.048740227
33	0xbdf9f9e6	-0.122058675
34	0xbec972ad	-0.39345303
35	0xbef81092	-0.48450142
36	0x3e8a8742	0.2705632
37	0xbeae04f4	-0.33988154
38	0x3e4ffc60	0.20311117
39	0x3e042d68	0.12907946
40	0xbd914152	-0.07092537
41	0x3ec905ae	0.39262146
42	0xbe8d8db8	-0.27647185
43	0x3e9825ce	0.29716343
44	0x3ee17425	0.44033924
45	0xbddeff71	-0.10888565
46	0x3e9f2603	0.31083688
47	0x3d2fb5e9	0.042898092
48	0xbddf3eb2	-0.1090063
49	0xbeaa2365	-0.3323013
50	0xbe70d0fb	-0.2351722
51	0xbeb69fb3	-0.35668716
52	0xbd770f11	-0.060317103
53	0x3e4a0442	0.19728187
54	0x3e1de7c5	0.15420444
55	0x3c329fed	0.010902387
56	0x3e88428d	0.26613274
57	0x3e35366a	0.17696539
58	0x3db2fcbb	0.08739611
59	0x3e36e327	0.17860089
60	0xbef1e0c7	-0.47241804
61	0xbe7d8d84	-0.24761015
62	0x3eb0eef0	0.34557295
63	0xbdb64ac3	-0.089009784
64	0xbec0d39c	-0.37661445
65	0x3f08cab9	0.5343433
66	0x3e8d509f	0.27600572
67	0x3c752902	0.01496339
68	0x3dce3d9a	0.10070343
69	0x3e707720	0.23482943
70	0x3e65e267	0.22449647
71	0xbe19e091	-0.15027072
72	0xbe93479c	-0.2876557
73	0xbecdbe06	-0.4018404
74	0xbd5bb9e3	-0.053644072
75	0x3ed171e1	0.40907195
76	0xbe5779a9	-0.21042503
77	0xbe0bba72	-0.13645342
78	0xbe01f537	-0.12691198
79	0xbeeee118	-0.46656108
80	0xbe001f81	-0.12512018
81	0x3e4a0c12	0.19731167
82	0xbe900e1d	-0.28135768
83	0x3ec0733a	0.3758791
84	0xbe690694	-0.22756416
85	0x3d774d64	0.06037654
86	0x3e861b8c	0.26192892
87	0x3c4881ff	0.012238025
88	0x3e92e67b	0.28691468
89	0xbe94e94f	-0.2908425

conv3.0.bias f4 [10]
0	0x3df0e1b5	0.117618
1	0xbdae459d	-0.085093714
2	0xbe58ead8	-0.21183336
3	0xbe9f6ead	-0.31139126
4	0x3d1e22cf	0.038607415
5	0x3d6897c7	0.05678537
6	0x3ea839f7	0.32856724
7	0xbe88389e	-0.26605695
8	0x3e960154	0.29297888
9	0xbda86dc7	-0.08224063

conv3.1.weight f4 [10]
0	0x3f98a90e	1.1926591
1	0x3f9ac525	1.2091414
2	0x3fa1d783	1.2643894
3	0x3f9d924d	1.2310272
4	0x3fa3a404	1.2784429
5	0x3f9d9bde	1.2313192
6	0x3fb6cd20	1.4281349
7	0x3fb6bc1e	1.4276159
8	0x3fa2f737	1.2731694
9	0x3f923866	1.1423461

conv3.1.bias f4 [10]
0	0x3c13a38f	0.009011163
1	0x3cd8969b	0.026439002
2	0x3cd424c8	0.025896445
3	0x3c04f455	0.008114894
4	0x3beddb8a	0.007258837
5	0x3cf5d7c7	0.030010117
6	0x3ca89924	0.020580836
7	0xbbd8982f	-0.0066099386
8	0x3d2f2876	0.042763196
9	0xbc0883ea	-0.008332232

conv3.1.running_mean f4 [10]
0	0x3dea8606	0.11451344
1	0xbd6bcb9b	-0.05756722
2	0xbe8482ac	-0.25880945
3	0xbea894be	-0.3292598
4	0x3d649138	0.055802554
5	0xbb609daa	-0.0034273663
6	0x3ea59639	0.32341173
7	0xbe789e19	-0.2427906
8	0x3e588e25	0.21147974
9	0xbd8b8783	-0.06812956

conv3.1.running_var f4 [10]
0	0x3d0e326c	0.034716055
1	0x3d0e51fc	0.034746155
2	0x3d0d59ee	0.03450959
3	0x3d0e52c9	0.03474692
4	0x3d0def1b	0.034651857
5	0x3d0d86de	0.034552447
6	0x3d0d63b8	0.034518927
7	0x3d0d973d	0.03456806
8	0x3d0e7ad4	0.034785107
9	0x3d0ee172	0.03488297

conv3.4.weight f4 [20, 10, 9]
0	0x3d729078	0.059219807
1	0x3dab04a7	0.08350497
2	0x3c3bc109	0.011459597
3	0x3d37be64	0.044859305
4	0xbe0ea823	-0.13931327
5	0xbe233831	-0.15939404
6	0x3e26201d	0.16223188
7	0xbb2a0be6	-0.0025947033
8	0xbdd0f597	-0.102030925
9	0xbdf9659c	-0.121775836
10	0x3d89bd9e	0.0672562
11	0xbe049110	-0.12945962
12	0x3da625e8	0.08112699
13	0x3dc92a45	0.098225154
14	0xbccf529a	-0.025307942
15	0xbcb3ed67	-0.021963788
16	0x3db95049	0.09048516
17	0x3c889bbf	0.016675828
18	0x3db51e70	0.08843696
19	0x3d2820d2	0.041046925
20	0xbb71d66f	-0.0036901494
21	0x3e1a70cf	0.15082096
22	0xbdb50f69	-0.0884083
23	0x3df6d59e	0.12052463
24	0x3d9c7a97	0.0764057
25	0x3cf6dcaf	0.030134527
26	0xbde288b9	-0.11061234
27	0x3daee95d	0.08540604
28	0x3b31e6ad	0.002714555
29	0xbd9de76a	-0.07710154
30	0x3d0b2bfd	0.033977497
31	0x3be28b68	0.006913591
32	0xbde41937	-0.11137622
33	0xbd54a768	-0.051917464
34	0x3d8abc2b	0.067741714
35	0xbc315cac	-0.010825317
36	0x3d713273	0.058886003
37	0xbcc12908	-0.023579136
38	0x3d6133f9	0.054981206
39	0xbdbcd7d9	-0.09220857
40	0xbd8a3fbf	-0.0675044
41	0xbe23c989	-0.15994848
42	0x3cef9230	0.029244512
43	0x3dc95007	0.09829717
44	0x3e0d12ce	0.13776705
45	0x3db1ca1f	0.0868113
46	0x3d735f2d	0.05941694
47	0xbd3974b6	-0.04527732
48	0x3d17236c	0.036899015
49	0xbd689fab	-0.056792896
50	0x3cac775b	0.021053007
51	0x3de35f5d	0.111021735
52	0x3d5886ea	0.05286304
53	0x3d2dafa2	0.042403825
54	0x3ccf694e	0.025318768
55	0xbdf62a29	-0.1201976
56	0x3dc8022a	0.09766038
57	0x3cfb352a	0.030664999
58	0x3d0217f7	0.031761136
59	0xbd9a38f4	-0.07530394
60	0x3dcb2724	0.09919575
61	0x3c084ec5	0.008319561
62	0xbe37bb10	-0.17942452
63	0x3c0db54c	0.008649182
64	0xbda75925	-0.081713
65	0x3ce621cb	0.028092286
66	0xbea44b48	-0.32088685
67	0x3cd5ac3e	0.026083108
68	0xbdb1842a	-0.086677864
69	0xbea22e2c	-0.3167585
70	0xbe07c6fc	-0.132595
71	0x3e80351b	0.25040516
72	0x3da194c9	0.07889707
73	0xbe0074d4	-0.12544566
74	0x3d7b4e80	0.06135416
75	0xbacd591d	-0.0015666817
76	0x3c645273	0.013935673
77	0x3d5f2b94	0.05448492
78	0x3d38c9e1	0.0451144
79	0xbe4045b9	-0.18776597
80	0xbc2d6ca7	-0.010584987
81	0x3c4787e6	0.012178397
82	0x3b4bbe4a	0.0031088763
83	0xbbeba75f	-0.007191583
84	0xbe221344	-0.15827662
85	0x3c281772	0.010259496
86	0xbdb624db	-0.088937484
87	0xbdf7c10f	-0.1209737
88	0xbcba2701	-0.022723677
89	0x3e371e92	0.17882755
90	0xbce6af3c	-0.02815973
91	0x3d8d47ba	0.068984464
92	0x3e017607	0.1264268
93	0x3b8c94ef	0.004290215
94	0xbdb1dd4e	-0.08684789
95	0xbccc7d0f	-0.024961976
96	0x3dd1ba81	0.10240651
97	0xbdfcf9b2	-0.12352313
98	0xbdbe2f2f	-0.09286343
99	0x3c9632ad	0.018334711
100	0x3e212c4d	0.15739556
101	0xbd83e1cb	-0.06439551
102	0x3e518dbc	0.20464224
103	0xbdcdccf7	-0.100488596
104	0x3e181cff	0.14854811
105	0x3d71c77d	0.059028137
106	0xbd5a975e	-0.05336701
107	0xbec28859	-0.3799465
108	0x3e0e61c3	0.1390448
109	0xbcefcba8	-0.029271916
110	0xbd941586	-0.07230668
111	0x3d999c66	0.07500534
112	0xbd981331	-0.074255355
113	0x3dd6ef19	0.10494823
114	0xbaf3532e	-0.0018564218
115	0xbe991190	-0.29896212
116	0x3d9cbff7	0.07653802
117	0xbe78e0bb	-0.24304478
118	0xbd3370fc	-0.043808922
119	0xbdd40167	-0.1035183
120	0xbc461777	-0.012090555
121	0x3ca1fc60	0.019773662
122	0x3d3a25cf	0.045446213
123	0x3e07d613	0.13265257
124	0xbd1a3642	-0.0376494
125	0xbdaf7499	-0.08567161
126	0xbdbe0933	-0.09279098
127	0x3d81f063	0.06344678
128	0xbc92cf0e	-0.017920997
129	0xbd68c199	-0.056825254
130	0xbde34cb0	-0.11098611
131	0x3e0b398e	0.13596174
132	0xbdb06a38	-0.086140096
133	0xbdfb38fa	-0.12266727
134	0x3db27c68	0.08715135
135	0xbd75919a	-0.05995331
136	0xbd447995	-0.047967512
137	0x3dbc32b2	0.09189357
138	0x3d5b34da	0.0535172
139	0x3ce9e605	0.028552065
140	0x3d9e40d7	0.07727211
141	0x3d6f8ef2	0.058485933
142	0xbe197c9a	-0.14988938
143	0xbdf0b25e	-0.11752771
144	0xbdecb070	-0.1155709
145	0xbcaf0f73	-0.021369671
146	0x3d958233	0.07300224
147	0xbe0a465c	-0.13503402
148	0xbc7163d2	-0.014733272
149	0xbc9d1d4f	-0.019179014
150	0x3dc47052	0.09591736
151	0xbe479545	-0.19490536
152	0xbdac5eff	-0.084165566
153	0x3e44e598	0.19228208
154	0x3d17c024	0.037048474
155	0xbd37fb00	-0.044917107
156	0x3cd34b35	0.025792697
157	0x3e31a0cf	0.173465
158	0xbd90a1d6	-0.07062118
159	0xbcbacb8f	-0.022802142
160	0x3ced0957	0.028935118
161	0x3e3d9bce	0.18516466
162	0xbd3bece5	-0.045880217
163	0xbd3a5e6f	-0.045500215
164	0xbe0cb94e	-0.13742563
165	0xbdb1faae	-0.086903915
166	0x3d279de6	0.040922068
167	0x3c21c9e4	0.009874795
168	0x3c363588	0.011121161
169	0x3d9cbd46	0.076532885
170	0xbea35c61	-0.31906417
171	0xbe14968f	-0.14510559
172	0x3db54a22	0.0885203
173	0xbdd1076e	-0.10206495
174	0x3d14f675	0.036367852
175	0xbcac6ae3	-0.021047061
176	0xbddd031a	-0.10791607
177	0xbcb9fbf0	-0.022703141
178	0xbd24647f	-0.040134903
179	0x3c3a1a15	0.0113587575
180	0xbbb6d2de	-0.0055793365
181	0x3ccf31fd	0.025292391
182	0x3e270e66	0.16314086
183	0x3c04cfde	0.0081062
184	0xbd871a28	-0.06596786
185	0x3da94d2d	0.08266673
186	0xbd7c89a5	-0.061654706
187	0x3cd55be5	0.026044795
188	0xbd30dd53	-0.04317982
189	0x3d21a263	0.039461505
190	0x3d28e9b3	0.041238498
191	0xbc7418d9	-0.014898502
192	0x3c97fbe0	0.01855272
193	0xbd4e726a	-0.050402083
194	0xbcf523ee	-0.02992436
195	0x3e095231	0.1341026
196	0xbe0c4199	-0.13696899
197	0x3cb14f61	0.021644296
198	0xbd2927d9	-0.041297767
199	0xbd9f61eb	-0.07782348
200	0x3deb84ac	0.114999145
201	0xbd4689a4	-0.048471108
202	0x3c3a5634	0.0113730915
203	0x3dabca77	0.083882265
204	0x3ceb06cb	0.028689763
205	0xbe20541d	-0.15657087
206	0x3cebe33f	0.028794883
207	0xbdaa6ddb	-0.083217345
208	0xbdcadfdb	-0.09905978
209	0x3d60cf35	0.054885108
210	0xbdac1e6f	-0.08404242
211	0xbd121a38	-0.035669535
212	0xbcbe95ab	-0.023264727
213	0x3d9b263b	0.07575651
214	0xbdf8b7e9	-0.12144453
215	0xbdbb0dbb	-0.09133478
216	0x3d438b79	0.047740433
217	0xbd5bec7f	-0.053692337
218	0x3bd9b6ea	0.0066441195
219	0xbdec647f	-0.115426056
220	0x3d937598	0.072001636
221	0xbe278790	-0.16360307
222	0x3d494076	0.04913374
223	0x3d06e7f0	0.032936037
224	0x3e180244	0.14844614
225	0xbe0808fb	-0.13284676
226	0xbe6a9abc	-0.22910589
227	0x3d20370a	0.03911499
228	0x3d943042	0.07235767
229	0x3d91674e	0.07099782
230	0x3bc999f6	0.006152387
231	0x3d8ae6cf	0.067823045
232	0x3de86962	0.11348225
233	0x3dc22a86	0.09480767
234	0xbe0ee1e5	-0.1395336
235	0xbe1c2026	-0.15246639
236	0xbd9c28ac	-0.07624945
237	0xbd0e8a9a	-0.03480015
238	0xbc48d754	-0.0122583695
239	0x3d85d5d7	0.06534927
240	0x3d89c5d7	0.06727188
241	0xbafa6691	-0.0019104053
242	0x3d4f6eb9	0.050642703
243	0xbd2e7b61	-0.042598132
244	0x3cd16125	0.025559017
245	0xbd5e31f3	-0.054246854
246	0x3dd8cac4	0.105855495
247	0xbc8446cc	-0.01614704
248	0x3caca754	0.021075882
249	0xbde15f80	-0.11004543
250	0x3ddf3426	0.108986184
251	0x3db9d4a8	0.09073764
252	0x3d4738ba	0.048638083
253	0xbe3a477e	-0.18191335
254	0xbd723ea3	-0.059141766
255	0x3da742a9	0.08167011

conv3.4.bias f4 [20]
0	0xbc9f81a4	-0.019470997
1	0x3d8c9b40	0.06865549
2	0x3cfc0112	0.03076223
3	0xbd94cb66	-0.07265358
4	0xbdc5e81e	-0.096634135
5	0x3d834f62	0.064116254
6	0xbc2ecbed	-0.010668737
7	0xb9cc88fe	-0.0003901198
8	0xbd41efac	-0.04734771
9	0x3e18e5a8	0.14931357
10	0x3d3b7de9	0.045774374
11	0x3db012db	0.085973464
12	0x3d7c4c4f	0.06159621
13	0xbc84b0b4	-0.01619754
14	0x3d58a21e	0.052888982
15	0x3dfaf42a	0.12253602
16	0xbdbe30e2	-0.092866674
17	0xbdfc2756	-0.1231219
18	0x3ce3e707	0.027820123
19	0x3d24b72a	0.04021374

conv3.5.weight f4 [20]
0	0x3f87524b	1.0571989
1	0x3f8b41a8	1.0879412
2	0x3f843beb	1.0330786
3	0x3f8fa897	1.1223325
4	0x3f8a08e0	1.0783958
5	0x3f852a12	1.0403464
6	0x3f85d9c1	1.0457078
7	0x3f87fecb	1.0624632
8	0x3f82a336	1.0206058
9	0x3f81f9bd	1.0154339
10	0x3f8422b3	1.0323089
11	0x3f7c9fbb	0.9868123
12	0x3f89e92e	1.0774286
13	0x3f855fe1	1.0419885
14	0x3f81f89c	1.0153995
15	0x3f84de96	1.0380428
16	0x3f808e3d	1.0043408
17	0x3f9f21e2	1.2432215
18	0x3f826a8f	1.0188769
19	0x3f8139d1	1.0095769

conv3.5.bias f4 [20]
0	0x3c89b284	0.016808756
1	0x3caa247c	0.02076935
2	0xbc89e3cb	-0.016832253
3	0x3b3bb3b5	0.002864105
4	0xbcff8793	-0.031192577
5	0x3be3356d	0.006933859
6	0x3c82250f	0.015886812
7	0xbcdfd1cf	-0.027321724
8	0xbcbaaf6f	-0.022788731
9	0x3b4716a8	0.0030378494
10	0xbce40055	-0.02783219
11	0x3c538106	0.01290918
12	0x3c94b3bf	0.018152116
13	0xbc0be727	-0.008538998
14	0x3b7ef7c2	0.0038905
15	0x3bbfd5c6	0.005854341
16	0xbcbd75f9	-0.023127543
17	0xbcfd1874	-0.03089545
18	0xbc9f6fab	-0.019462427
19	0x3c8da4ca	0.017290492

conv3.5.running_mean f4 [20]
0	0xbdc35a43	-0.095387004
1	0xbd2a0cbf	-0.041516062
2	0x3e047077	0.12933527
3	0xbe158247	-0.14600478
4	0xbdacd2e8	-0.08438665
5	0x3cf4234f	0.029801993
6	0x3f0e314f	0.5554399
7	0xbc090280	-0.008362412
8	0xbe86db62	-0.2633925
9	0x3e937ee8	0.2880776
10	0xbc82c8c1	-0.015964868
11	0xbecdbde0	-0.40183926
12	0x3e3e874d	0.186063
13	0x3ce55df2	0.027998898
14	0x3e8133f2	0.25234944
15	0xbbfe0c61	-0.0077529405
16	0xbe8460c4	-0.25855076
17	0xbe10d346	-0.14143094
18	0x3ec2d2b2	0.38051373
19	0xbe884a06	-0.26618975

conv3.5.running_var f4 [20]
0	0x3e152964	0.1456657
1	0x3e2550ac	0.16144055
2	0x3e24ef5e	0.16106936
3	0x3e05b5c7	0.13057624
4	0x3e222ac1	0.15836622
5	0x3e16ad61	0.14714576
6	0x3e5c93b0	0.21540713
7	0x3e3afcd4	0.18260509
8	0x3e503155	0.20331319
9	0x3e398752	0.18118027
10	0x3e38a9a5	0.18033464
11	0x3e3e456a	0.18581167
12	0x3e2d3c3d	0.1691751
13	0x3e37bf1d	0.17943998
14	0x3e3577f5	0.17721541
15	0x3e2fbe87	0.17162524
16	0x3e1dad7a	0.15398207
17	0x3e64a174	0.22327214
18	0x3e407885	0.18795975
19	0x3e0d4f8f	0.1379988

mlp.1.weight f4 [64, 60]
0	0xbdf49577	-0.11942571
1	0xbd77098a	-0.06031183
2	0x3dabac97	0.08382528
3	0x3d80306d	0.062592365
4	0x3d9cfb0d	0.07665072
5	0x3d6e406b	0.058166903
6	0x3dd389d9	0.10329027
7	0x3d36f7af	0.044669803
8	0xbd58bd90	-0.052915156
9	0xbde85405	-0.113441505
10	0xbdbe3b71	-0.09288681
11	0xbcf867fb	-0.03032302
12	0xbde02707	-0.10944944
13	0x3d80d1bd	0.062900044
14	0x3d4f281a	0.050575353
15	0xbd612d17	-0.05497464
16	0xbd970c1f	-0.07375359
17	0xbdd85ade	-0.105642065
18	0xbd7dbeeb	-0.06194965
19	0x3de9f76f	0.11424147
20	0x3d554574	0.05206819
21	0xbd91e6f9	-0.07124133
22	0xbd63cdcc	-0.055616185
23	0xbd83fb86	-0.06444459
24	0x3db4915d	0.08816788
25	0xbdb94806	-0.090469405
26	0xbd28f137	-0.041245665
27	0xbe00d2f4	-0.12580472
28	0xbd834f02	-0.06411554
29	0xbdb62602	-0.08893968
30	0x3c7305e9	0.014832952
31	0xbcd20518	-0.025637195
32	0xbd89c2d9	-0.06726617
33	0xbdf07c52	-0.11742462
34	0xbba95b47	-0.005168352
35	0x3d2c95e6	0.04213514
36	0xbc99f915	-0.01879553
37	0x3df8c103	0.12146189
38	0x3dfc49aa	0.12318738
39	0x3df17a5c	0.11790916
40	0xbdd6a802	-0.10481264
41	0x3d8fc046	0.07019095
42	0x3d51af3e	0.051192515
43	0x3dd7a261	0.10529018
44	0xbcfed937	-0.031109435
45	0x3dc65100	0.09683418
46	0xbdb8d6f5	-0.09025375
47	0xbc8647b9	-0.016391622
48	0xbdb77aaa	-0.08958943
49	0x3d53e736	0.05173417
50	0xbd0e8136	-0.034791194
51	0xbdfe6bd5	-0.12422911
52	0x3d24da6b	0.040247362
53	0xbd946ca6	-0.072472855
54	0xbdc457c7	-0.09587055
55	0xbd71e230	-0.0590536
56	0xbd0d84d4	-0.034550503
57	0x3be18a19	0.0068829176
58	0x3d49c650	0.04926139
59	0xbce7c1aa	-0.028290588
60	0xbd9ffce4	-0.07811907
61	0x3dc11b3a	0.09429021
62	0xbdfc5c76	-0.12322323
63	0xbe375917	-0.17905079
64	0xbd1060d6	-0.0352486
65	0xbd847372	-0.06467332
66	0x3dce07b2	0.100600615
67	0x3d6acbcf	0.057323273
68	0x3babb0c6	0.005239579
69	0x3da74c3c	0.081688374
70	0x3d7f44cb	0.062321465
71	0x3cd95d8f	0.02653387
72	0x3dae9186	0.0852385
73	0xbd80cd5e	-0.06289171
74	0xbc35e5f6	-0.01110219
75	0x3d92239b	0.071356975
76	0x3e1d0080	0.15332222
77	0x3db4b3e1	0.08823372
78	0xbcfddbe3	-0.03098864
79	0xbe26f427	-0.16304074
80	0x3db021f3	0.08600225
81	0x3d2618b7	0.040550914
82	0xbd2183a8	-0.039432198
83	0x3dcc8ba6	0.09987573
84	0x3ce05c2d	0.027387703
85	0x3d12bcaf	0.035824474
86	0x3e0739fc	0.13205713
87	0x3e0f8a82	0.1401768
88	0x3de7b03c	0.11312911
89	0xbe041768	-0.12899554
90	0x3df417fa	0.11918636
91	0x3e1b2311	0.15150096
92	0x3d885265	0.066563405
93	0xbd6c77be	-0.057731383
94	0x3ba9e969	0.0051852954
95	0x3c08ae64	0.008342359
96	0x3d28d30e	0.041216902
97	0xbd97e9dd	-0.07417653
98	0xbbecb2d4	-0.0072234664
99	0x3cb60597	0.022219462
100	0x3dfa8b60	0.12233615
101	0x3e319727	0.17342816
102	0xbca134e9	-0.01967855
103	0x3db11895	0.08647267
104	0x3ca8b7f2	0.020595524
105	0x3dc3eb59	0.095663734
106	0xbd7e5fb3	-0.062102985
107	0xbca6ab90	-0.02034548
108	0xbdeeecb3	-0.116662405
109	0xbdf85f40	-0.121275425
110	0xbde49e5a	-0.11163016
111	0xbd94ca95	-0.07265202
112	0x3e5e68d1	0.21719672
113	0x3b6b9b56	0.0035950742
114	0x3d812ee2	0.0630777
115	0x3e3dd274	0.18537313
116	0xbdad980f	-0.084762685
117	0xbe7a4304	-0.24439627
118	0x3d7112f8	0.05885598
119	0x3e0ac4c2	0.1355162
120	0xbcce639c	-0.025193982
121	0xbd72319b	-0.05912934
122	0x3c836b28	0.016042307
123	0xbdb680ae	-0.089112625
124	0x3d4f8777	0.0506663
125	0x3d1797da	0.03701005
126	0xbdc02d3d	-0.093836285
127	0x3cb69b5a	0.022290874
128	0x3df33914	0.11876121
129	0xbe0128c5	-0.12613209
130	0xbd7bdaa5	-0.061487813
131	0xbc2fc4bf	-0.01072806
132	0x3c8ea1a1	0.017411055
133	0x3df9e38a	0.12201603
134	0xbdc437ab	-0.0958093
135	0x3cc2b655	0.023768583
136	0xbd7f0c53	-0.062267613
137	0xbccdb452	-0.025110397
138	0xbd0360ab	-0.03207461
139	0xbdc2960e	-0.09501277
140	0x3ddc5567	0.10758477
141	0x3d4717c5	0.048606653
142	0x3c4d6030	0.01253514
143	0xbdbea958	-0.093096435
144	0x3dbe04b2	0.09278239
145	0xbd1fc220	-0.03900349
146	0x3cb2522f	0.021767704
147	0xbd0eeebf	-0.034895655
148	0xbd98ab0e	-0.07454501
149	0x3d2a0749	0.041510854
150	0x3cb53f89	0.022125022
151	0xbdd38022	-0.10327174
152	0x3cbbe413	0.022935903
153	0xbd273dbb	-0.040830355
154	0x3dac8e0c	0.08425531
155	0x3c2b8e4d	0.010470939
156	0xbd399289	-0.045305762
157	0xbd91f695	-0.0712711
158	0x3d89f0a0	0.06735349
159	0xbd9c0b23	-0.07619312
160	0xbcf1feec	-0.029540502
161	0x3dbff746	0.093733355
162	0xbcd9ab8a	-0.026571054
163	0xbcbd3f83	-0.023101574
164	0x3dd2fc1b	0.103019916
165	0xbdff0aad	-0.12453208
166	0xbc731f44	-0.014838997
167	0x3d9e1a9c	0.07719919
168	0x3d7da56b	0.061925333
169	0x3de54b64	0.1119602
170	0x3de44bc8	0.111472666
171	0xbdc0e5ee	-0.094188556
172	0x3df01c74	0.11724177
173	0xbdc611ed	-0.09671388
174	0xbccfd29b	-0.02536898
175	0xbdfe7f1f	-0.1242659
176	0x3ca4754e	0.020075466
177	0xbd4f3914	-0.050591543
178	0xbcfab801	-0.030605318
179	0xbd563f2f	-0.05230635
180	0x3db99555	0.09061686
181	0x3de2707e	0.110566124
182	0x3d228145	0.039674062
183	0x3c936632	0.017993066
184	0xbd4c6204	-0.049898162
185	0xbde06bca	-0.10958059
186	0x3dab5380	0.08365536
187	0xbd08235d	-0.03323685
188	0xbdbfd9de	-0.09367727
189	0xbdd9c284	-0.10632804
190	0xbd809ec3	-0.062802814
191	0xbd1d83d5	-0.038455803
192	0xbdb99d31	-0.09063185
193	0x3d8fc7d0	0.07020533
194	0xbd787709	-0.060660396
195	0xbe0fe448	-0.14051926
196	0xbc94c655	-0.018160978
197	0xbd62afd1	-0.055343453
198	0xbd3c79f3	-0.046014737
199	0xbdfc175e	-0.123091444
200	0xbdb880ad	-0.09008918
201	0xbcb0f8ea	-0.021603066
202	0x3b330380	0.0027315319
203	0xbd911fb3	-0.07086124
204	0x39bc9809	0.0003597143
205	0x3c2453d0	0.010029748
206	0xbe0dd680	-0.13851357
207	0x3d97abaf	0.07405793
208	0xbb837127	-0.0040112915
209	0xbc093e25	-0.008376633
210	0xbe06b216	-0.13153872
211	0x3dbdb024	0.09262112
212	0xbe05aaa0	-0.1305337
213	0xba0d3624	-0.0005386791
214	0x3dbc972f	0.092085235
215	0xbbaa3ba9	-0.0051951003
216	0x3c253802	0.010084154
217	0x3cfcf9b7	0.030880792
218	0xbddd478b	-0.10804661
219	0xbd66c9a5	-0.056344647
220	0xbd25fec6	-0.040526174
221	0xbe08863a	-0.13332453
222	0x3dcc50b2	0.09976329
223	0x3d7aabb2	0.061198898
224	0xbbab2839	-0.005223301
225	0x3cc87ad4	0.024472632
226	0xbdbb994c	-0.091600984
227	0xbdc34144	-0.09533933
228	0x3d18a47d	0.037266243
229	0x3ca86049	0.020553725
230	0x3c5648c5	0.013078873
231	0x3dd7d9ab	0.10539564
232	0xbca55f04	-0.020186909
233	0xbb73b187	-0.0037184672
234	0xbdfb9057	-0.1228339
235	0x3d9ff83b	0.07811018
236	0x3cde82e0	0.027162015
237	0x3c37b317	0.011212132
238	0xbdbbe1fb	-0.09173962
239	0xbca8c863	-0.020603364
240	0xbdb10035	-0.086426176
241	0xbb128809	-0.0022358915
242	0xbd4a7eec	-0.04943745
243	0xbe0567fd	-0.1302795
244	0x3ddb0a19	0.10695285
245	0x3d93c35b	0.072149955
246	0xbc09441c	-0.008378055
247	0xbddc3861	-0.10752941
248	0x3da4fea7	0.080563836
249	0x3b10a3d1	0.0022070298
250	0xbd89cd63	-0.067286275
251	0xbc312c79	-0.010813826
252	0x3de30b87	0.11086183
253	0x3ded6778	0.11592001
254	0xbc8e4a6e	-0.017369475
255	0x3d8c9975	0.06865207

mlp.1.bias f4 [64]
0	0x3b60a95f	0.003428064
1	0xbd11ad95	-0.03556593
2	0xbd2e96b6	-0.042624198
3	0x3d88a6a9	0.06672413
4	0x39012212	0.00012315091
5	0xbde11c0e	-0.10991679
6	0x3dab24ac	0.08356604
7	0x3d0cfa7d	0.03441857
8	0x3df69256	0.1203963
9	0x3dae539c	0.08512041
10	0xbd8a842c	-0.06763491
11	0xbd54d556	-0.051961266
12	0x3cc2fefc	0.023803227
13	0x3c8f62ca	0.017503161
14	0xbda2151a	-0.07914181
15	0xbdf24c8c	-0.118310064
16	0xbb42c2c2	-0.0029718135
17	0xbd05834d	-0.03259592
18	0x3da05b9b	0.07829972
19	0xbd4c440c	-0.049869582
20	0xbdd2a17f	-0.10284709
21	0xbdbf3aab	-0.09337362
22	0xbdcb02ee	-0.09912668
23	0xbd1da365	-0.038485903
24	0xbd71725d	-0.058946956
25	0x3bb68c84	0.00557095
26	0xbd46a795	-0.048499662
27	0xbd5dda14	-0.054163054
28	0x3d3cb3f7	0.046070065
29	0x3bec25dd	0.007206662
30	0xbdae6536	-0.08515398
31	0xbdd6a91b	-0.10481473
32	0xbdf40c45	-0.11916403
33	0x3d17b2f7	0.03703591
34	0xbd883410	-0.06650555
35	0x3d3349f5	0.043771703
36	0x3e249ecb	0.160762
37	0xbdcb2daf	-0.09920823
38	0x3d8eb4f9	0.069681115
39	0x3e0ee4ba	0.1395444
40	0xbbcffe50	-0.006347455
41	0xbc964d17	-0.018347306
42	0xbc54b89a	-0.012983466
43	0x3cddfd57	0.02709834
44	0x3e2189a9	0.1577517
45	0xbda67dfa	-0.08129497
46	0xbdc14225	-0.09436444
47	0xbd3bf0ac	-0.04588382
48	0x3c4c02ec	0.0124518685
49	0xbd8ca470	-0.068673015
50	0x3cbf1a2e	0.023327913
51	0xbc5d6646	-0.013513153
52	0x3bcf5135	0.0063268193
53	0xbdc6b9e6	-0.09703426
54	0xbe024fdf	-0.12725781
55	0x3d751568	0.059834868
56	0x3cdfb963	0.027310079
57	0xbdee2bb0	-0.116294265
58	0xbccd226e	-0.025040831
59	0x3d9faaba	0.077962354
60	0xbde89b83	-0.113577865
61	0x3db5c836	0.08876078
62	0x3d165e61	0.0367111
63	0xbd8d4eef	-0.06899821

mlp.4.weight f4 [2, 64]
0	0xbdee288f	-0.1162883
1	0xbdd4a066	-0.10382156
2	0x3db5d388	0.08878237
3	0xbd867a82	-0.06566335
4	0xbdc47105	-0.09591869
5	0xbdd8116a	-0.105501965
6	0x3d28c529	0.04120365
7	0x3e4efc34	0.20213395
8	0x3ac88191	0.0015297403
9	0xbd897d08	-0.06713301
10	0xbdba9758	-0.09110898
11	0x3e842117	0.25806496
12	0x3d967206	0.07345967
13	0x3cf54e25	0.029944489
14	0x3d92355b	0.07139083
15	0x3d9d3fad	0.07678161
16	0x3ba2b3ec	0.004965296
17	0xbd93850f	-0.07203113
18	0x3e748115	0.23877366
19	0xbb84b092	-0.004049369
20	0x3e1d3544	0.1535235
21	0xbbd889c8	-0.0066082217
22	0xbdb6d84c	-0.08927974
23	0x3c230927	0.009950913
24	0xbe10fb9b	-0.1415848
25	0xbc6786ec	-0.014131289
26	0x3e94927d	0.29018012
27	0x3e8b823a	0.27247792
28	0x3e657e37	0.22411428
29	0xbcffc61a	-0.031222392
30	0x3c404bcf	0.011736824
31	0x3e8d82d3	0.27638873
32	0xbd9a8b7c	-0.07546136
33	0x3dec0567	0.11524468
34	0x3d47497a	0.048654057
35	0x3d8a5388	0.067542136
36	0xbdb8dc88	-0.09026438
37	0xbdb82eb6	-0.089932844
38	0x3e8bffa3	0.27343473
39	0xbe323748	-0.174039
40	0x3dd3647f	0.103219025
41	0x3cea505b	0.02860277
42	0xbd2e91bc	-0.042619452
43	0xbe20ebd9	-0.15714969
44	0xbe303d89	-0.17210974
45	0x3dba6400	0.09101105
46	0xbd815a54	-0.06316057
47	0xbb59de75	-0.0033244167
48	0xbd31b8b5	-0.04338904
49	0xbdc14f8a	-0.09438999
50	0xbd2f754f	-0.042836484
51	0x3e08d9bf	0.13364314
52	0xbd0c78f5	-0.03429504
53	0x3dfdb961	0.12388874
54	0xbdd1a1cf	-0.10235941
55	0x3e2d5955	0.16928609
56	0x3e0f913f	0.1402025
57	0x3dc3242d	0.09528384
58	0x3dea45e6	0.11439113
59	0x3e05b321	0.13056614
60	0x3d2a8f4a	0.041640557
61	0x3d168a5f	0.036753055
62	0xbe1b0ae3	-0.15140872
63	0xbd438097	-0.047730055
64	0x3d7b4665	0.06134643
65	0x3e8475b4	0.2587105
66	0xbd999dc2	-0.07500793
67	0x3d15cb74	0.03657098
68	0xbde03cf4	-0.10949126
69	0x3cbfaffa	0.023399342
70	0x3e46aa3b	0.19400875
71	0xbe6f11f6	-0.23346695
72	0x3e3cd595	0.1844085
73	0x3e4304d1	0.19044806
74	0xbcda55e2	-0.02665228
75	0xbe65f162	-0.22455361
76	0xbe63221a	-0.22180977
77	0xbd1b4785	-0.037910003
78	0x3d4b0ae2	0.049570926
79	0x3d9e801a	0.07739277
80	0xbd912841	-0.07087756
81	0xbcd7b5d1	-0.026331814
82	0xbeaee8a0	-0.34161854
83	0xbc726e60	-0.014796823
84	0xbdb8b846	-0.09019522
85	0x3dc77eff	0.097410195
86	0xbd518772	-0.05115456
87	0x3d18d7fe	0.03731536
88	0x3da69bc3	0.08135178
89	0x3df4295b	0.119219504
90	0xbe79b46c	-0.24385232
91	0xbeac9c57	-0.33713028
92	0xbeb06126	-0.34449118
93	0x3d5609bc	0.052255377
94	0x3dd7784c	0.10520992
95	0xbe828b3b	-0.2549685
96	0xbd6a380b	-0.057182353
97	0xbd6232d2	-0.055224247
98	0x3db1fc3b	0.08690687
99	0xbd5e805b	-0.054321628
100	0x3db1869c	0.08668253
101	0xbdd43e1c	-0.10363409
102	0xbe05c8e2	-0.13064912
103	0x3b131c2a	0.0022447207
104	0xbca77bf2	-0.020444844
105	0x3e159171	0.14606263
106	0x3e6cc94b	0.23123662
107	0x3e51bd06	0.20482263
108	0x3dfd3951	0.12364448
109	0xbd33a23a	-0.043855883
110	0xbe17bf08	-0.14818966
111	0xbcaf469d	-0.021395976
112	0xbe068723	-0.13137488
113	0x3ba48794	0.005021045
114	0xbdbbaf9b	-0.091643535
115	0xbe379243	-0.17926888
116	0xbde31015	-0.11087052
117	0xbe3cc1e9	-0.18433346
118	0x3ddd9c4a	0.108208254
119	0xbe2febbe	-0.17179772
120	0xbcae7098	-0.021293923
121	0xbe141534	-0.14461213
122	0xbd55ccc3	-0.05219723
123	0xbe130fe7	-0.14361535
124	0xbd25af67	-0.04045048
125	0xbd9cf3ce	-0.076636896
126	0x3d73e29e	0.05954229
127	0xbc543b05	-0.0129535245

mlp.4.bias f4 [2]
0	0x3cc9d891	0.0246394
1	0x3e2319d4	0.15927821
