model/AAC_k3_model.ckpt (torch, 46683 bytes, 40 tensors)

conv1.0.weight f4 [10, 1, 3]
00000000: 4fb4 17bf 0219 a73d 69da 5b3e 1fcc 043e
00000010: e366 87be f9f5 bc3e 8252 9d3a 5b1f eebe
00000020: af0c 133f 4d10 c4be f7c4 01bf 8646 da3e
00000030: a279 06be baa6 cb3e f926 4abe 922e 173f
00000040: f97f d6be 9de9 98be 73b1 3bbe 38df b73e
00000050: 02db c33e 62c0 af3e e7d9 ef3c f7c7 1dbe
00000060: 8eb2 a3be c17a 9cbe 9a49 023e 93d2 2b3f
00000070: 85f8 d23d f86b 813e
-0.59259504 0.08159067 0.21470036 0.12968491 -0.26445684 0.36906412 0.0012002739 -0.46508297
0.5744123 -0.38293687 -0.5069117 0.4263193 -0.13132337 0.3977564 -0.1974143 0.59055436
-0.4189451 -0.29865733 -0.1832941 0.3591249 0.38253027 0.34326464 0.029278709 -0.15408312
-0.31972164 -0.30562404 0.1272339 0.67118186 0.103013076 0.25277686

conv1.0.bias f4 [10]
00000000: a2b3 66be b464 d0bd 8c45 c83e 309f 7bbe
00000010: f5ee 3d3e 8fdb 313e cbac 173f cd2b 153e
00000020: 4168 a1bd 5394 343c
-0.22529462 -0.101754576 0.3911556 -0.24572444 0.18548186 0.17368911 0.59248036 0.1456749
-0.07881213 0.011021691

conv1.1.weight f4 [10]
00000000: 6bc5 793f 50c0 8a3f e4d0 883f 7b0a 793f
00000010: abbb 7c3f f26b 873f 19c3 803f bc27 7c3f
00000020: d7ac 8e3f 419d 8c3f
0.9756686 1.0839939 1.0688748 0.97281617 0.9872386 1.0579817 1.0059539 0.9849813
1.1146497 1.098549

conv1.1.bias f4 [10]
00000000: 400a 63bc a642 d73b dca3 993c 7db9 fcbc
00000010: 7747 8e3c e7a5 f83b d84a 603c c916 4e3c
00000020: d638 c93c ef90 b6bb
-0.013857424 0.0065692244 0.018754892 -0.030850166 0.017368061 0.0075881365 0.013689719 0.012578675
0.024563234 -0.0055714766

conv1.1.running_mean f4 [10]
00000000: 84fb 5bbe 0083 f4bd 7751 b33e 2c88 52be
00000010: e770 283e a20e 273e 299d 0f3f ab06 043e
00000020: 4ac4 18be c247 713d
-0.21482664 -0.11939049 0.3502309 -0.20559758 0.16449319 0.16314176 0.5609918 0.12893169
-0.14918628 0.058906324

conv1.1.running_var f4 [10]
00000000: 0d01 0e3d 1a4b 0d3d f467 0e3d f360 0e3d
00000010: 1099 0d3d 7f6c 0e3d b067 0d3d a107 0d3d
00000020: 2012 0d3d 9538 0e3d
0.03466897 0.03449545 0.034767106 0.034760427 0.0345698 0.03477144 0.034522712 0.034431104
0.034441113 0.03472193

conv1.4.weight f4 [20, 10, 3]
00000000: 46e4 1d3e 5213 cbbd fdbf 88bd 1151 39be
00000010: 8848 80bd 06c7 103e 10cf b73d 12d0 0d3e
00000020: 02bb 28be 5f41 2cbd 288e bc3d d724 e03d
00000030: d66d 443d 771b ff3d 303e 033e 5638 2fbe
00000040: 1fe9 2a3e f366 e13d c24f 55be 857f f0bb
00000050: a49e c5bd d1a0 3cbe 548a 2b3d 9b76 043e
00000060: 121b fabd bfc7 1f3e 5ced d6bd f3fb b43d
00000070: 6d7b 443d cde1 8b39 8d5f 903d 9917 83bd
00000080: e511 163e 92d7 cbbc 0307 293e d8c0 cfbc
00000090: 77a0 f83a 5ecc 733d 8ad3 0bbd 3de7 ad3d
000000a0: 592b 503c a11f cebc 7f58 11bd 8609 8bbd
000000b0: 7d81 243e cf69 a53d 2b5b 113e ec45 9d3c
000000c0: 84fd 2dbe 20dc 09be 7daa 0b3e e150 4ebd
000000d0: 14f6 e13d 6c1c 0e3e 7ea9 3abe 78ed fd3a
000000e0: 01ce e4bd 106e 353e c354 e6bd a98b 723d
000000f0: ed48 343d 7607 01bd 6b86 05be 41ae 96bd
00000100: 1aaf e4bd 4292 cebd 67a9 303d 67a4 313e
00000110: 8e6a a7bd 1663 89bc 7fe9 2b3e b1be b7bc
00000120: db75 313d 1844 bc3d e7d1 283e 54b7 993d
00000130: dbd4 5bbe 17e3 1a3e dd86 a43d 5f8c 743d
00000140: b12c 1e3e bd74 353e 7a00 25be c492 c53d
00000150: be61 41be 7efc 48bd 1248 cb3d 010e ff3c
00000160: 6de4 613d d37a 153e f944 393d db97 a8bd
00000170: 3691 5d3d 8c14 c33d 0b28 1dbe 58a1 333e
00000180: 284b 1cbe db47 6e3a 75e3 3d3e f57d b03c
00000190: 69b3 443c dc35 fcbc 9ac1 2ebe 66eb 963d
000001a0: d565 43be 1a70 e73c b26a 14be 8663 58bd
000001b0: 3165 b4bd 5135 c1bc 9dcc 103e e13f 03be
000001c0: 0d0b 1abe b8b1 103e ebf5 0ebe 3d83 5f3c
000001d0: 351a 12be bb26 893d f5a0 163e 3b63 abbc
000001e0: a994 bd3d 045c a1bd 675e d03d ca1a d63d
000001f0: 5214 b1bd 836e 07be 6e54 38bd 9122 ddbd
00000200: c3eb 083e a8db 293e c52f 85bd f2e7 e1bc
00000210: e6e6 b43d fc96 febb 2c5b c1bd e5aa 9cbd
00000220: 4d1b b0be 477e 183e 8c3a f03d e0bb 9fbd
00000230: dafb 24bd 4560 473e 861f 553c 31e3 143d
00000240: 9830 a2bd 38a4 02bd f3eb 46bd ed7d 973e
00000250: 2dc0 5ebe 962c 57bc a4a3 adbd 076d 3bbc
00000260: e13c aa3d abd8 0a3e 8cbd 4e3d bdc6 b7bc
00000270: 6f11 43bd 0dd5 943d 0139 b33c 3328 0dbe
00000280: 25db a0ba 8791 d83d 5525 7dbd 4c02 0cbe
00000290: b205 afba 899e 703e d14d a6bd 12a8 fbbd
000002a0: 6be8 d83d bc50 e5bc cd2c debd 427f 1bbc
000002b0: bdfc 03bd 1f77 25be 7698 05be 4b53 3d3e
000002c0: 2179 81be 5609 f73d 0a96 d7bc 69d4 0dbc
000002d0: fe9d c0bd 1a8a 133e cacb 48bd 64ed 6bbc
000002e0: 28a5 9fbd 0d94 fc3d aeb8 753d fff5 cb3d
000002f0: d5d4 183e d8c2 1d3e 206a 623d a4fc f3bd
00000300: de39 f7bc 9d70 5b3c e13c dabd 9e38 17be
00000310: 5d83 afbd 36c4 3ebe d8cc 153e c897 023e
00000320: 3983 af3d ef9a cebd e7e1 d6bd a40d 323d
00000330: 4f2f d1bd 7632 07be 048c 8abd 0c55 d8bc
00000340: 93d0 a0bc 8e62 483e fbf3 643d 1f91 b9bc
00000350: f1ba 6c3d bb30 86be 2ab8 253e 09be 21be
00000360: 8b3f 41be c6ba c93d 4c76 55bd 319e 5f3d
00000370: dbe1 b5bc e24e 04be 9e23 09bc 1e17 55be
00000380: 0793 dabd 5d93 28be 53ff 223e 2103 c03d
00000390: e5e0 ffbd 31a8 72be 697f 44be c385 ea3d
000003a0: 019f e33d da6d 3abe 9a9d 55be a5cf 163e
000003b0: 54a6 493e 0216 67be 5387 22be 038b 07be
000003c0: a944 7e3d 6377 f73d 4474 13be 9630 d5bc
000003d0: 9f01 94bd b9a7 1ebc 222d 863b 13e0 18be
000003e0: f2f6 0bbe 3ebd cabd 169d 91ba 1d40 e7bb
000003f0: 5824 36bd 18fc e53c 8553 0d3d 868e 19be
0.1541911 -0.099157944 -0.06677244 -0.1809733 -0.06263834 0.14138421 0.08975041 0.13848904
-0.16477588 -0.04205453 0.09206802 0.10944527 0.04795631 0.124564104 0.12816691 -0.17111334
0.16690491 0.11005964 -0.20831206 -0.0073394203 -0.09649399 -0.18420722 0.041879967 0.1293587
-0.122121945 0.15603541 -0.104944915 0.08837118 0.04796927 0.0002668038 0.07049475 -0.06400985
0.14655264 -0.024883065 0.16506581 -0.02536051 0.0018968721 0.05952107 -0.034137286 0.08491371
0.012705647 -0.025161566 -0.035484787 -0.06788926 0.16065021 0.08076822 0.14194934 0.01919838
-0.1699124 -0.13462877 0.13639255 -0.0503701 0.11033264 0.1387803 -0.18228719 0.0019373139
-0.111721046 0.17717767 -0.11246636 0.05921522 0.04401486 -0.031501256 -0.13039558 -0.07357455
-0.111662105 -0.1008649 0.043130305 0.17347871 -0.081746206 -0.01677088 0.1678829 -0.022429796
0.043325286 0.09192675 0.16486321 0.0750567 -0.21467917 0.1512569 0.08033536 0.05970418
0.15446736 0.17720313 -0.16113463 0.09647134 -0.18884942 -0.04906892 0.09925856 0.031134607
0.055149484 0.14597635 0.045231793 -0.08232089 0.054093562 0.095254034 -0.15347306 0.17542017
-0.15263045 0.0009089687 0.18543799 0.021544436 0.012005665 -0.0307874 -0.1706604 0.073691174
-0.19081815 0.028251696 -0.14493826 -0.052829288 -0.08808363 -0.023584994 0.14140554 -0.12817337
-0.15043278 0.14130294 -0.13960998 0.0136421295 -0.1426781 0.066968404 0.14709838 -0.02092134
0.0925687 -0.07878879 0.10174256 0.10454328 -0.08646454 -0.1322575 -0.045002393 -0.10797609
0.13371186 0.16587698 -0.06503252 -0.02757642 0.08833103 -0.0077694636 -0.09441218 -0.07649783
-0.3439583 0.14891921 0.11729917 -0.07799506 -0.040279247 0.19470318 0.013008004 0.03634948
-0.07919425 -0.031894892 -0.048564862 0.2958826 -0.21752997 -0.013133189 -0.084784776 -0.011439568
0.08312393 0.13559215 0.050473735 -0.022433633 -0.047624048 0.07267199 0.021877768 -0.13784866
-0.0012272341 0.10574632 -0.06180318 -0.13672751 -0.0013353138 0.23497976 -0.08120311 -0.12287916
0.10591205 -0.027992599 -0.10848389 -0.00949079 -0.032223452 -0.16158722 -0.1304644 0.18488805
-0.25287727 0.120623276 -0.026316661 -0.0086566 -0.094051346 0.1440815 -0.049022473 -0.01439986
-0.07795173 0.12332926 0.059990577 0.099590294 0.14924939 0.15406358 0.05527699 -0.11913422
-0.03017896 0.013393548 -0.10656143 -0.14767691 -0.085699774 -0.18629536 0.14628923 0.12753212
0.085699506 -0.10088145 -0.10492306 0.04347004 -0.102141015 -0.13202843 -0.06764987 -0.026407741
-0.019630706 0.19568846 0.05589674 -0.022652207 0.05779547 -0.26209053 0.16183534 -0.15795149
-0.18871896 0.09850077 -0.05211477 0.054594222 -0.022202423 -0.12920716 -0.008370308 -0.208096
-0.106725745 -0.16462465 0.15917711 0.09375597 -0.12494067 -0.23696972 -0.19189228 0.11451294
0.11114312 -0.18205968 -0.20860901 0.14727648 0.19692355 -0.22566989 -0.15871935 -0.13236623
0.0620772 0.12083318 -0.1439982 -0.026024144 -0.07226872 -0.009683543 0.0040947357 -0.14929228
-0.13668421 -0.09899376 -0.0011109437 -0.0070572034 -0.044468254 0.02807431 0.03450348 -0.14995775

conv1.4.bias f4 [20]
00000000: 8396 313e d9c7 af3c b978 22be 0699 8fbd
00000010: cb5b 093e b5b2 573d 5032 fd3c 2415 c03a
00000020: a987 d3bd 34e9 3ebd bc2b 6bbd 21b9 86bd
00000030: a2fb 453e 762c 593d 7d09 1abb 3f86 f5bb
00000040: 1be1 823d 4d03 b83d ff23 3d3c d36d b5bc
0.17342572 0.0214576 -0.15866365 -0.07011609 0.13413922 0.052660663 0.03090778 0.0014654738
-0.103286095 -0.04660912 -0.057414755 -0.06578279 0.19334272 0.053020917 -0.002350419 -0.00749281
0.06390592 0.089850046 0.011544227 -0.022147095

conv1.5.weight f4 [20]
00000000: 7af2 7a3f c471 7d3f e89b 823f 955d 7f3f
00000010: d09c 863f 363f 833f 6ac8 7d3f 5142 883f
00000020: 6ce8 6d3f 5511 7b3f 9db0 7a3f 5582 803f
00000030: 9901 7b3f b505 7f3f 8c48 783f 0bc3 7a3f
00000040: ee8a 803f 240f 823f b337 803f 9cea 7b3f
0.9802624 0.9900172 1.0203829 0.9975217 1.0516605 1.0253665 0.9913393 1.0645238
0.9293277 0.9807332 0.9792574 1.0039774 0.9804931 0.99618083 0.969857 0.9795386
1.0042398 1.016087 1.0016998 0.9840486

conv1.5.bias f4 [20]
00000000: ffab ba3c bdba 11bb bf0c 913c d5e2 cc3c
00000010: 1f9f 7ab9 dbd2 d7bc 46b6 6abc 22fe e3bc
00000020: 4b6b a7bd 6d0b 17bc c883 c9bb 5233 e5ba
00000030: d86e 803a 8610 83bc 8906 00bd 622c 8bbb
00000040: 82e7 9d3c 2c25 c63c 212a d33b e555 613b
0.022787092 -0.0022236549 0.017706273 0.025010506 -0.00023901135 -0.02634566 -0.014325684 -0.02783114
-0.081747614 -0.009219033 -0.0061497428 -0.0017486608 0.0009798659 -0.01599909 -0.031256232 -0.004247234
0.01927543 0.024187647 0.006444231 0.0034383473

conv1.5.running_mean f4 [20]
00000000: 2e08 513e e9d9 ca3d 8d15 b43c 9630 37be
00000010: aab1 0b3e 27bc 473d e7a1 d6bd e81e 43be
00000020: b1b0 b7be 9423 d73d e604 ea3d b6fa 5abe
00000030: 4912 3f3e b14f 27be 97b0 743d f936 d43e
00000040: 1f5f 8a3c 3be2 9d3e 080c 813e 1643 b13e
0.20413277 0.09904844 0.021982932 -0.17889628 0.13641992 0.04876342 -0.10480099 -0.19054759
-0.35876992 0.10504833 0.114267156 -0.21384701 0.18659319 -0.16338994 0.05973872 0.4144819
0.01689106 0.30836663 0.25204492 0.34621495

conv1.5.running_var f4 [20]
00000000: 78e0 4d3e 5eee 003e a089 373e 876b 573e
00000010: c204 1f3e 629a 5c3e b817 ab3e 9e0b 913e
00000020: d13a ff3d 74d6 073e 7224 033e fd67 913e
00000030: 28de cd3d 92b9 163e 9e9d 9c3e 69b7 573e
00000040: 2b79 0a3e a438 643e 861f 663e a8a5 5b3e
0.2010516 0.1259093 0.17923594 0.21037112 0.15529159 0.21543267 0.33416533 0.28329176
0.1246239 0.13265401 0.12806872 0.2839965 0.100521386 0.14719227 0.30589002 0.21066059
0.13522784 0.22287232 0.22472963 0.21449912

conv2.0.weight f4 [10, 1, 6]
00000000: 0ece f1bd a2c4 0fbd e4d7 c53e c256 743e
00000010: 4f60 c93d 28b1 3bbe 98c6 063f b3fb e13e
00000020: 24c4 d7be 702c 803e 7c4c 753b 8a78 9a3d
00000030: 5e97 6dbd 7c46 863d a561 803e a898 b43d
00000040: 5738 b33e 7c78 2c3d f74a ca3d 7f3e b6be
00000050: 762e 20be bd89 c43d 8c90 c7be 4d38 cf3e
00000060: c710 7d3e f8b4 84be f47c 2bbe f511 d83e
00000070: 1ed1 89be d081 e63e 84e0 5c3d aa8f 70bd
00000080: abf8 0abd eda9 b0be 5450 41be bd9d f4bd
00000090: 22b2 c03d ea98 c93e 87ea 843d fbc5 64be
000000a0: d8c5 d43e 7a8b ca3d 6224 9c3e 423b 2b3e
000000b0: 8870 183e a329 d03e 4a8f e9be ac27 e83e
000000c0: c3cc 8f3e d762 32bd 7ce5 a1be b24f b53e
000000d0: 245f 74be a1ba 213e e8b2 c6be 36ce 9d3e
000000e0: 4a6c 4dbc 4a62 e0be c96f 713e 008a 1d3e
-0.1180688 -0.035099633 0.38641274 0.2386122 0.098328225 -0.18329298 0.5264678 0.44137344
-0.4214183 0.25033903 0.0037429621 0.07542522 -0.058005683 0.065564126 0.25074497 0.08818179
0.3500392 0.04210709 0.0987758 -0.35594556 -0.15642723 0.09596584 -0.38977468 0.40472642
0.24713431 -0.25919318 -0.16746885 0.422012 -0.26917356 0.45020914 0.053925052 -0.05873076
-0.033928555 -0.34504643 -0.18878299 -0.11944149 0.09408976 0.39374477 0.06490045 -0.22341149
0.41557193 0.09889884 0.30496508 0.16721824 0.14886677 0.40656766 -0.45617133 0.45342767
0.28085908 -0.043551292 -0.31620395 0.35412365 -0.23864418 0.1579385 -0.3880837 0.3082139
-0.012538025 -0.4382499 0.23577799 0.15384674

conv2.0.bias f4 [10]
00000000: 7340 c3be 5612 0f3e 5c6f 59be e7ac 9e3d
00000010: aa30 84be bb9b 1e3e b08f 9cbe 8909 2dbe
00000020: 146d b53d e5de efbb
-0.38135108 0.13971838 -0.21233886 0.07747822 -0.25818378 0.15489094 -0.30578375 -0.16898169
0.088586956 -0.0073202723

conv2.1.weight f4 [10]
00000000: 7cae 863f 10c4 933f bf69 853f eb3d 923f
00000010: 3440 8e3f 2a0b 863f fd32 913f 2773 883f
00000020: 8c6c 8a3f fe10 8e3f
1.0521998 1.1544209 1.0422896 1.1425146 1.1113343 1.0472157 1.1343685 1.0660142
1.0814376 1.1098936

conv2.1.bias f4 [10]
00000000: d09f 003c 6cfb 333c 87a4 d8ba b978 853c
00000010: b5ba 86bb b9c3 743c 0d0b 6fbc b123 663c
00000020: 300b 153d 4435 db3b
0.007850602 0.010985237 -0.0016528525 0.016292917 -0.0041116127 0.014939242 -0.014590037 0.014046595
0.036387622 0.0066896994

conv2.1.running_mean f4 [10]
00000000: fac3 c2be 0bec 063e 2724 41be 4526 193d
00000010: a865 70be c6c4 c43d ec46 8bbe a7f6 15be
00000020: f806 8b3d d95c 8cbc
-0.38040143 0.13175981 -0.18861447 0.037390012 -0.23476279 0.09607844 -0.27202547 -0.14644872
0.067884386 -0.017134117

conv2.1.running_var f4 [10]
00000000: bd46 0d3d b06b 0e3d 7c36 0d3d 43f0 0d3d
00000010: c5d8 0e3d 8025 0d3d c4a9 0d3d 278d 0e3d
00000020: c0c4 0d3d 5409 0e3d
0.03449129 0.034770668 0.03447579 0.03465296 0.034874696 0.03445959 0.03458573 0.034802582
0.034611464 0.034676865

conv2.4.weight f4 [20, 10, 6]
00000000: 1dd5 e53d c109 09be 4bc7 fb3d 5511 e9bc
00000010: 77b0 263e 6a31 f33d c899 26be e064 55bd
00000020: af66 ba3c 5b76 5b3d cb55 5b3c 7dd3 473e
00000030: 5d40 20be fa84 17bc 3f02 563d 499b 3d3d
00000040: 7f92 313e b25b 10bd d125 b0bc 0dcc 093e
00000050: e96a 0a3d 258a 5c3d aa0f 46be 5e06 acbb
00000060: 9532 e0bd fef0 0dbd b59a ca3c ef54 0f3e
00000070: 9b75 103e e504 1d3c bc3b 8cbd 391a 303d
00000080: d570 68bd 00fe 03bd 4cee b4bd 0173 51be
00000090: 3b99 513c 0ffa 023d c336 5c3e d75c 07bc
000000a0: 2321 383d c2c9 dcbd d12d 55bd c6c4 dc3d
000000b0: b58f d8bc 652d 3d3e c675 39be e07c f33d
000000c0: 5510 d23d 7842 953d 299e 17be 16b2 423e
000000d0: c4d6 49be 9d36 debc 9b94 86bd 522b 1cbd
000000e0: 57fd 87bd 6b09 44be bb9f 16be 499a 6ebd
000000f0: ddb3 9cbd 06c1 973d bb20 673c 81ac b2bd
00000100: 2553 4c3d 6ae7 023c ed01 8cbd 8353 8cbc
00000110: 1c28 5a3d 3353 863d cd08 7a3d c228 993d
00000120: 057a 45bc 4b8a fabd 43fa 033e 125b a8bd
00000130: 7703 aabd acd7 15bd 478b 243d 698c 8abd
00000140: b9ac 23bd 08a9 a33d af90 35bb 755d 33bd
00000150: 07a2 643b bd4a 8abd 4665 3a3d c17b 3e3d
00000160: 429a bd3d 5388 c83d cc2f 2a3d 8dfe 923d
00000170: 12f7 fe3b df0b a43d fa50 123e be09 bbbd
00000180: f25c c8bc e270 93bc 4333 77bc 81ca aabc
00000190: 6e54 95bd 37c2 1bbd cfaf d1bd c8ff 1cbd
000001a0: 0ef8 efbd 049c 0abe 6942 48bd 8fd8 cd3d
000001b0: 2deb e63d 1be5 bcbd 03e5 fcbd 8f5c 893d
000001c0: 2e31 d93d a1ec cebd 4f57 5dbd d97a 5e3d
000001d0: 94e1 7c3d 7c20 973d 85a4 b23d fa29 adbd
000001e0: 0867 aabd ddb2 91bd dd55 093d 743c fabc
000001f0: 89d6 803d 3495 293e dca5 eebd d78d 6e3d
00000200: 5c56 8d3d c7d8 39be e523 a53d 856b 39be
00000210: 9732 e73d bcbb 6fbd f2b6 71be 57f8 033d
00000220: a936 4ebc 51dc 5d3d 0c2b abba 9237 4fbe
00000230: 3d8f 183e bb56 ac3d d924 8bbd 5d19 353e
00000240: 5156 ae3d 0fa1 9f3d de44 4e3e bf73 4c3d
00000250: d647 143d 8011 debc 9155 bb3d 374e a6bd
00000260: 3277 9c3d e768 a1bd 21e1 b1bc 1c43 b93d
00000270: edf9 c5bb 6c83 a5bc 8187 e5bc 5eea 1f3c
00000280: e361 9dbd a03e 35bd fddb 1ebc 0f98 e6bd
00000290: 7cef 863b 16f7 4fbe 9b7b 18be 556e 4c3e
000002a0: d1ac 0a3d 89a3 11be 1b33 303d 185f 98bd
000002b0: c6ba 083e d39b 83bd cc2a 5ebe dd19 bc3d
000002c0: 9872 a6be 786f b53d f163 2cbe 3f5b 713d
000002d0: 3845 7ebd 03f7 22be 7e52 45be 2569 ad3d
000002e0: 1799 a23d e9f2 96bc 1ead 86bd c62b 1dbd
000002f0: c96c 1bbb 3ee8 50bd 63e0 0d3d 0f23 c43c
00000300: d143 c03d 743d 6fbd 59b0 cabd 9e3c 8b3d
00000310: 0a32 0dbe 9276 f2bb bca2 2f3b 05b4 3bbd
00000320: a299 0c3e 20a1 43be 49b6 9e3c bb3e cd3d
00000330: 68ed 023e 7943 f1bd 57c8 fc3d 0030 503c
00000340: f0c3 ed3d c18c 97bd 480a 3d3d d6b4 893c
00000350: 00b4 f53d 71fe 44bc b5f0 d53c 1577 d23c
00000360: 035e 233c bd42 09bd 48c5 003e 4d1c bebb
00000370: 2d5e f4bd dd52 e23d 8cf9 10be 3c67 bbbb
00000380: 9816 8f3d 3123 77be 6eca 663c a679 9bbd
00000390: 02e7 09be d131 9c3d b6c9 983d 86a8 36be
000003a0: 08b0 a43d 4c5d f33b 557b 8fbd 359b a7bd
000003b0: 0695 44bd fb37 03bc 7e4f 283a 8023 243e
000003c0: 38f2 3cbd eccc a03d e8f8 afbc 1bd2 f4bc
000003d0: ff96 893b a452 90bd a0e7 e2bd afcb a43d
000003e0: b505 1ebd c6d1 aabd 754a d0bd 729d 63bc
000003f0: 065c 073c b26c d83d b737 8e3c 8386 ea3c
0.11222289 -0.13382627 0.122938715 -0.028450647 0.16278253 0.11874659 -0.162696 -0.052098155
0.022754041 0.05357967 0.013387154 0.1951427 -0.15649553 -0.009248013 0.052248236 0.04629067
0.1734104 -0.035243697 -0.021502407 0.13456745 0.033793364 0.053842682 -0.19341913 -0.0052497825
-0.10947148 -0.034653656 0.024731973 0.13997243 0.14107363 0.0095836865 -0.06847331 0.042993758
-0.05674823 -0.032224655 -0.08834514 -0.20454027 0.012792881 0.031976756 0.21505265 -0.008261881
0.044953477 -0.1078067 -0.052045647 0.10779719 -0.026435712 0.18474348 -0.18111333 0.118890524
0.10257021 0.072880685 -0.14806427 0.19013247 -0.19710833 -0.027125651 -0.06571313 -0.03812725
-0.066401176 -0.19144218 -0.1470937 -0.058252607 -0.07651494 0.07409863 0.014106925 -0.08724309
0.04988398 0.007989744 -0.06836305 -0.017129665 0.053260908 0.06558838 0.06104355 0.07478477
-0.0120530175 -0.122334085 0.12888436 -0.08220495 -0.08301442 -0.036582634 0.040171888 -0.06765062
-0.039959643 0.079912245 -0.0027704646 -0.0437903 0.0034886615 -0.067525364 0.045506738 0.04650474
0.09257938 0.09791627 0.04154949 0.07177458 0.007780918 0.08010077 0.14288703 -0.091327175
-0.024458382 -0.017998163 -0.015087905 -0.020848515 -0.07291494 -0.038027015 -0.10238611 -0.03832987
-0.117172346 -0.13536078 -0.04889146 0.10051071 0.11275325 -0.09223386 -0.12348368 0.06707107
0.106050834 -0.10103727 -0.054038342 0.054316375 0.061738566 0.07379243 0.08722786 -0.08455272
-0.08320433 -0.071141936 0.03352915 -0.030546404 0.06290919 0.16560823 -0.11652729 0.058240738
0.06901237 -0.181491 0.08063487 -0.18107422 0.11288946 -0.058528647 -0.23604944 0.032219257
-0.012586274 0.05416519 -0.0013059094 -0.20236042 0.14898391 0.0841498 -0.067941375 0.17685457
0.08512557 0.07794391 0.20143458 0.04991507 0.03620132 -0.027107954 0.0914718 -0.08120387
0.07639922 -0.07881337 -0.021713795 0.09046003 -0.0060417564 -0.020204268 -0.028018715 0.009760467
-0.07684686 -0.044249177 -0.009696004 -0.112594716 0.004117904 -0.203091 -0.14890902 0.19963963
0.033856217 -0.1422254 0.043017488 -0.07440013 0.13352498 -0.064262055 -0.21696013 0.091846205
-0.32509303 0.088591516 -0.16835 0.05892491 -0.06207773 -0.1591454 -0.1926975 0.0846732
0.07939356 -0.018426375 -0.06575988 -0.038371824 -0.0023715964 -0.051002733 0.03463782 0.023942498
0.09387935 -0.058408216 -0.09896917 0.06798671 -0.1378862 -0.0073993886 0.0026799878 -0.045825977
0.13730481 -0.19104433 0.01937403 0.100217305 0.12785876 -0.117804475 0.12342899 0.012706757
0.11609638 -0.073998936 0.046152383 0.016809862 0.11997223 -0.012023554 0.026115755 0.025691548
0.009971145 -0.033510912 0.12575257 -0.0058017136 -0.11932025 0.11050961 -0.14157695 -0.0057190936
0.06986731 -0.24134518 0.014086349 -0.07591562 -0.13467029 0.07626689 0.07460348 -0.17837724
0.08041388 0.0074268933 -0.070059456 -0.081839 -0.047993682 -0.008008952 0.00064205367 0.16029167
-0.046129435 0.07851586 -0.021480992 -0.029885342 0.0041989083 -0.070470124 -0.11079335 0.08046662
-0.03857966 -0.08340792 -0.101704516 -0.013892518 0.008261686 0.10567607 0.017360551 0.028628593

conv2.4.bias f4 [20]
00000000: 0f73 1f3d 2a9f 02bd 3aa3 da3d c857 e8bb
00000010: 93f4 9cbd bf6b e8bd 71ca f13d db4f a93d
00000020: bb44 623a b74f d3bd 9d38 e53d 241b 733d
00000030: 572a f8bd 28de dbbd 6179 103d cc14 023e
00000040: 9ebb 34bd bb3e f43b 1057 ba3d d598 7a3a
0.038928088 -0.031890072 0.10675664 -0.0070905425 -0.07663836 -0.11348676 0.11806191 0.08267184
0.00086314575 -0.10317939 0.11192439 0.059352055 -0.12117451 -0.10735732 0.035272006 0.12703246
-0.04412424 0.007453767 0.09098637 0.0009559517

conv2.5.weight f4 [20]
00000000: b041 8a3f 258e 783f 7695 8c3f 045f 7e3f
00000010: 474b 7c3f 1b98 893f c0ab 783f f598 883f
00000020: 1463 863f d0d9 773f 15d8 863f 4506 7c3f
00000030: 4c04 803f ca95 7a3f 98c3 833f 7b9d 833f
00000040: b099 7c3f b56a 7e3f 8c82 7e3f 9f18 813f
1.0801296 0.97091895 1.0983112 0.9936373 0.98552364 1.0749544 0.9713707 1.0671679
1.0498986 0.9681673 1.0534693 0.98447067 1.0001311 0.9788481 1.0294065 1.0282434
0.9867201 0.9938157 0.9941795 1.0085639

conv2.5.bias f4 [20]
00000000: 4409 01bc 3774 8c3b cb9a 3f3c a7c7 293c
00000010: 8201 2f3c 53e0 e8ba 9f1a 99bb 3160 bbbc
00000020: 3a95 9a3b 82fc 0fbb 3156 04bc adec aebb
00000030: 29e3 fdbb 7e2f 833a c741 613c 44bd 943b
00000040: bb89 663c 40a1 08bd b7ef cd3c e79c f4bc
-0.007875744 0.004286315 0.01169462 0.010362542 0.010681512 -0.0017767049 -0.004672363 -0.022873016
0.004717496 -0.0021970575 -0.00807719 -0.0053382725 -0.007748027 0.0010008661 0.013748593 0.004539164
0.014070923 -0.033356905 0.025138719 -0.029859973

conv2.5.running_mean f4 [20]
00000000: bfe9 2d3d 4587 edbd c356 333e 0f96 2cbe
00000010: a6f2 a3bd 74f3 80be a6aa 66bd b767 763d
00000020: be7c 15be 8192 4a3e 5eb4 1d3e 7c94 8f3e
00000030: 9e67 cb3d 249a 3d3e 65fd ccbc d6a6 123d
00000040: bfbc 40be c765 bdbd 8ac8 39be 2ac8 9a3e
0.042459246 -0.11598066 0.17513566 -0.16854118 -0.08005266 -0.2518574 -0.056315087 0.060157504
-0.14598367 0.1978245 0.15400836 0.28042972 0.09931873 0.18515831 -0.025023172 0.03580364
-0.18822001 -0.09247928 -0.18142906 0.30230838

conv2.5.running_var f4 [20]
00000000: 3151 543e 8bf0 5c3e 4cb2 553e 8c73 523e
00000010: e2c9 293e 5b1d 103e 8de3 183e f50c 3f3e
00000020: 7072 583e 431c 0f3e d36e 833e 48e4 0c3e
00000030: f6ed 233e 37e8 1e3e 9c51 0a3e 9721 8d3e
00000040: 6796 123e 25bb 543e 0d8e 373e 71b9 763e
0.20734097 0.21576135 0.20868796 0.2055189 0.16580918 0.14073698 0.14930554 0.18657286
0.21137404 0.13975625 0.2567049 0.13758957 0.16008744 0.1551827 0.13507694 0.2756469
0.14315186 0.20774515 0.17925282 0.24094178

conv3.0.weight f4 [10, 1, 9]
00000000: 4f87 d13e 40de 0dbf 225e 083e eccc 993b
00000010: 2625 5fbe a606 bd3e abce d73e 8759 e53e
00000020: af54 6ebe 0598 3e3e 5e95 debd 7612 4a3e
00000030: 6a70 13be 41c0 d5be 7a14 c5be f538 4c3e
00000040: d403 fabe 1f02 053e 4b2f 54be f1f6 aabe
00000050: 5137 63be e680 6e3e dcc1 f53e bc3b 80be
00000060: 5de1 cdbe d7b4 c43d cb10 363e 3446 6bbe
00000070: 59b8 923e 522f e13d 6a0b 2a3d b082 4ebe
00000080: 3162 353e b0ba 623d cfa9 5d3c 5ae6 403e
00000090: a499 aa3e 091f 4c3d f2cd f13e 583f 3a3d
000000a0: 545e e0bd 65d6 043e 6bdb c7be 8c43 0bbf
000000b0: fc2e f4be 6a32 833e 318d d03e 3996 3f3e
000000c0: 6138 28be 744e 623d c482 d33e bc22 93be
000000d0: 4bc6 573d 8a85 6f3e 988c b73e 190c 6c3e
000000e0: d1ec 483e ea18 883d 8e09 823e ca47 753e
000000f0: 808e c93d 4f8b 543e 7140 3c3d 1c5f 983e
00000100: 485f 533e f489 1c3e 524b ca3e dfd4 97bd
00000110: eb87 b3be 1644 b73e c9d9 883e 6895 bebe
00000120: 7f3e 67be 7f82 ba3e f793 683e e263 673e
00000130: 0f8f febd 91b9 a4be e9f1 813e 5885 c2be
00000140: 923a 9a3d 4390 9f3e 0795 f5be 1ee4 073e
00000150: d882 62be 6064 5e3e 1a6f 17be 37bd 2fbd
00000160: 42d9 87bd 8de8 c23e
0.40923545 -0.5541725 0.13317159 0.004693618 -0.21791515 0.36919135 0.42149863 0.44794866
-0.23274492 0.18612678 -0.10868333 0.19733605 -0.14398351 -0.4174824 -0.38492185 0.19943602
-0.48831046 0.1298909 -0.20721166 -0.33391526 -0.2218907 0.23291358 0.47999465 -0.25045574
-0.40211 0.09604805 0.17779844 -0.22975999 0.2865627 0.10995354 0.04151479 -0.20167041
0.17713238 0.05535382 0.013529255 0.18837872 0.33320343 0.049834285 0.47227436 0.045470566
-0.10955492 0.1297241 -0.3903459 -0.54399943 -0.47692096 0.256244 0.4073272 0.18709649
-0.16427757 0.0552506 0.41310704 -0.28737438 0.05267934 0.23390785 0.35849452 0.2305149
0.19621588 0.06645377 0.25397915 0.23953167 0.09841633 0.20756267 0.045959894 0.29760063
0.20641816 0.15287 0.3951059 -0.07413649 -0.35064635 0.35794133 0.26728657 -0.37223363
-0.22582434 0.36427686 0.22712694 0.22596696 -0.1242963 -0.32172826 0.25379875 -0.37992358
0.07530703 0.3116475 -0.4796526 0.13270614 -0.22120225 0.21717978 -0.14788476 -0.04290506
-0.066332355 0.38068047

conv3.0.bias f4 [10]
00000000: 0c4c 81bd d2bb 61bd 6227 9a3e ebad 81be
00000010: 13be 1abe 1b04 953e 9f0d 153e 759e 633e
00000020: e5f8 2a3a b77e 953e
-0.06313333 -0.05511076 0.30108172 -0.25328 -0.1511157 0.29104695 0.14555977 0.22228415
0.00065220735 0.29198238

conv3.1.weight f4 [10]
00000000: 394f b43f 8555 a23f 10c5 a93f 2b03 7b3f
00000010: 2335 af3f 91a2 a83f d479 913f 84f3 943f
00000020: 00d2 893f feab 9d3f
1.4086677 1.2682348 1.3263264 0.9805171 1.3688091 1.3174611 1.1365304 1.1636815
1.0767212 1.2318113

conv3.1.bias f4 [10]
00000000: a27e 0d3d d13c b53c d630 443d 478a 0cbc
00000010: ecd3 fd3c 023d dc3b 88de babc bf0e 203a
00000020: e45c 153d 3e32 05bc
0.034544595 0.022123726 0.047898136 -0.00857789 0.030984841 0.00672114 -0.02281119 0.0006105713
0.03646554 -0.008129654

conv3.1.running_mean f4 [10]
00000000: 8c0d a4bd 933c dbbd 6833 823e a638 39be
00000010: 2673 3dbe 4ad4 a53e 3656 593e b6dc 803e
00000020: 9cbb c1bc 2cd4 893e
-0.08010396 -0.10704913 0.25429845 -0.18088016 -0.18500957 0.32388526 0.21224293 0.2516839
-0.02364903 0.26919687

conv3.1.running_var f4 [10]
00000000: 45ba 0e3d b8ef 0d3d 06eb 0d3d 91cb 0d3d
00000010: d43f 0f3d 34b4 0d3d 4985 0d3d f327 0e3d
00000020: 5c36 0e3d a721 0e3d
0.03484561 0.03465244 0.034647964 0.034617964 0.03497298 0.034595683 0.03455094 0.034706067
0.03471981 0.034700062

conv3.4.weight f4 [20, 10, 9]
00000000: ba8e cd3d ab0c 22bd 8726 7bbd 136c 813c
00000010: 3ad4 cb3d bb39 14be 3c08 70be f01e c53c
00000020: a749 023d 8989 17be f822 90bc 4091 e63d
00000030: 5519 2a3c 164a 483d 0e24 2cbd d3fd 143e
00000040: 439d 2ab9 cf67 4bbb bd7e 463c c911 49be
00000050: cec3 89bd 0813 97bc 33bc 8bbd 1e1d 4fbd
00000060: bf3d bb3d 16ed cdbd 863f 52bd f166 94bd
00000070: b98d 3c3d d12c d3bd 3315 d23c ec07 0fbc
00000080: 879a 0bbc 30e6 88bd 6f06 313d 2de3 683d
00000090: 08ed 11be 8ce5 b53c cc9d 26bd 1a7e fabd
000000a0: d652 063d 0c7d 3d3e a716 013d 384c 58be
000000b0: acc9 0abe d159 45be 627b c13d 3ef3 013e
000000c0: ab83 863d 1b53 35be 84dc ec3d 8a5b ad3d
000000d0: 2763 31be bc05 f3bd 6635 c53c 2116 113e
000000e0: e6d9 0e3e dbe6 d63d 2174 ffbc 4586 a6bd
000000f0: 61ae 8e3d 8c06 3ebe 045a f83b 3d25 89bd
00000100: 99a1 263d 6638 c53d 962b 0a3e 8f83 033e
00000110: 53a9 863d 5b3c b9bc 238e 8b3d 6420 a0bd
00000120: b697 1dbc 95d6 9f3c 9af8 a63d 8b92 40be
00000130: 932f 9bba 9a80 dcbc 45d4 243e 5bef 4a3d
00000140: eaba 753d 8c60 dfbd 71f3 b33a ffb3 8a3d
00000150: 7093 88bc fb59 7a3d 0120 2cbe 5acf 243e
00000160: c95a 60be a86c a93d 7b3e 023e 2909 f63b
00000170: 195b 313d 419d 4cbe 056b 893d aae8 14bd
00000180: c023 bb3d 593e 1f3e d135 05bd e331 9c3a
00000190: 56b8 27bd fafc 09be 3806 84bd 5e80 01bc
000001a0: 815e dd3d 9d6a 60bc e8fe 76bd 814a 7b3c
000001b0: 7f5c 92bc aeff aabb 5639 d33d 8c57 9b3d
000001c0: b333 4dbd a36e b6bc 0c35 9abd 66e2 6e3c
000001d0: 40ee 58bd 7487 bd3d dc26 cb3d 92d9 85bd
000001e0: 0953 81bc 161f 88bd 4bc8 cbbd df77 04bd
000001f0: 7074 d13d e686 99bd 1788 863b db68 adba
00000200: e93e 9b3d 077f c8bd a055 f13d f1f3 38bd
00000210: 083e 20be 33ec 6ebd 9e0e 4f3d d094 963d
00000220: 2c48 883d ea58 ed3d cb32 75bc e412 123e
00000230: ce3c 623d 6244 bc3c 533b 593c 289d 35be
00000240: 2dfd ba3d 18d7 2f3d a71a 003d ebfa a73d
00000250: bc2e 93bb ca42 2cbd 1996 693d be5a f93d
00000260: bc8c 58bd ac82 473c d7a9 64bd 443c 05bd
00000270: 1852 b43d b758 553d 5ca9 893b 3c1f 45bc
00000280: 0da9 213e d324 9a3d 5140 9fbd 1ab2 c63d
00000290: 97ab d5bd 9945 553d cc37 c1bd d222 e63c
000002a0: 1fb3 d8bd 6b07 e7bb 80cf 47bd 8c58 f23d
000002b0: e7ea b1bd 6563 14bc 73ef c1bd 9017 15bb
000002c0: 8848 1fbd cf91 d83d a494 7d3d 4481 0fbe
000002d0: 991a a73d b6c4 2bbe 820a c63d a2be 5ebd
000002e0: ac23 88be b7bb 5dbd a945 2b3e e5b2 46bc
000002f0: c234 f33d d890 393d c887 ae3d c24c 7abb
00000300: ba45 233e 1571 7fbc 8048 153c 1ace a03c
00000310: 06f1 4cbd df9b 40be 2b61 c7bc 27f4 3cbd
00000320: 52aa 22bd 494e 9fbd 9f0f a53d 32e6 2f3e
00000330: 960c 2abe 1269 39be 26e5 ca3d 0d24 61bd
00000340: e8e8 abbd ea62 30bd cb4f 4ebd 2f4f d73d
00000350: 727d 78bd cbf2 d3bd 1112 073d 7feb d33d
00000360: a1c2 2f3e 265d 31be 9e2e 4cbd 4d81 043e
00000370: 9fb7 38bd e6ce e1bd 39e8 be3c f0d7 c3bd
00000380: 0cd5 21be 8683 a13d 59fe f93c cf8b 8bbb
00000390: 3e09 7d3a 3771 e93d 63ae e6bd bb96 3d3c
000003a0: 02af 583b dda4 d7bc 08a3 f53d 2dcd 03bd
000003b0: b4db 9f3d a117 81bc 5e9c 8abc 8ef3 873d
000003c0: 8b0f 96bd 12fd 38bd 8a32 6a3d f116 1fbd
000003d0: 4665 75bd 25d5 0e3e dc60 8e3d 5ac9 a4bc
000003e0: b1b3 85bc 04e7 853c adf8 e0bd 0005 42be
000003f0: f14f b13d dcfb b2bd 8461 50bd 5475 6c3c
0.100369886 -0.039562862 -0.06131604 0.015798604 0.099525884 -0.14475147 -0.23440641 0.024062604
0.03180852 -0.14798559 -0.0175948 0.11258173 0.010382016 0.04889878 -0.042026572 0.14549951
-0.00016271048 -0.0031037217 0.012115178 -0.19635691 -0.067268 -0.018441692 -0.068230055 -0.050564878
0.091426365 -0.10054986 -0.051330112 -0.07246197 0.046033595 -0.103112824 0.025644874 -0.008729916
-0.008520729 -0.0668453 0.043219026 0.056857277 -0.14250576 0.022204183 -0.04067783 -0.12231083
0.032793842 0.18504733 0.031515744 -0.21122825 -0.13553494 -0.19272543 0.094473615 0.12690446
0.065680824 -0.17707483 0.115654975 0.08464725 -0.1732298 -0.11866328 0.024073314 0.14168598
0.13950309 0.10493251 -0.031183304 -0.08131079 0.06966854 -0.18557185 0.00757909 -0.06696556
0.040681455 0.09629898 0.13493189 0.12843154 0.06575265 -0.022611788 0.0681422 -0.07818678
-0.00961869 0.0195115 0.08152886 -0.18805902 -0.001183974 -0.02691679 0.160966 0.049544673
0.05999271 -0.10907087 0.0013729167 0.06772613 -0.016671866 0.06112097 -0.16809084 0.16094723
-0.21909632 0.08272678 0.12719147 0.007508416 0.043299768 -0.19981863 0.067098655 -0.0363547
0.09137678 0.15551127 -0.032522026 0.0011916723 -0.04094728 -0.13475409 -0.06446499 -0.00790414
0.10809041 -0.013697294 -0.06030169 0.015337587 -0.017866371 -0.0052184677 0.1031367 0.075850576
-0.050098132 -0.022269553 -0.07529649 0.014580345 -0.052961588 0.09254351 0.09919521 -0.06535639
-0.015786665 -0.06646554 -0.09950312 -0.03234088 0.10227287 -0.07496433 0.0041055786 -0.0013230102
0.075803585 -0.097898535 0.1178391 -0.045154516 -0.15648663 -0.058330726 0.05055105 0.073526025
0.06654391 0.11589225 -0.014965723 0.14265019 0.05523377 0.022981826 0.013258773 -0.17735732
0.09130321 0.04292974 0.031275418 0.08202156 -0.004491655 -0.042055883 0.05702791 0.12175511
-0.05286859 0.012177151 -0.055826034 -0.032528177 0.08804721 0.05208656 0.0042010974 -0.012031373
0.15787144 0.07526555 -0.07775939 0.09701939 -0.10433119 0.052068327 -0.094344705 0.028092775
-0.1058104 -0.007050445 -0.04878187 0.11833295 -0.08687382 -0.009056901 -0.094694994 -0.002274964
-0.03888753 0.10574686 0.061909333 -0.14014155 0.0815937 -0.16774258 0.09669973 -0.05438102
-0.26589715 -0.054134097 0.16725792 -0.012127613 0.11875297 0.04530415 0.08521992 -0.0038192724
0.15944567 -0.015590926 0.009111524 0.019629527 -0.050034545 -0.1880946 -0.024338325 -0.04613128
-0.03971321 -0.077786036 0.0805962 0.17177656 -0.16606364 -0.18106487 0.09906988 -0.05496602
-0.08394033 -0.04306308 -0.050369065 0.1051315 -0.06066651 -0.103490435 0.032976214 0.10347652
0.17164089 -0.1732069 -0.049849145 0.1293995 -0.04509699 -0.11025791 0.023304092 -0.09562671
-0.15803927 0.07886414 0.03051679 -0.00425861 0.0009652561 0.11398547 -0.112637304 0.0115715815
0.0033063297 -0.02632373 0.11993986 -0.032178093 0.07805577 -0.015758337 -0.016920265 0.06638251
-0.07327183 -0.04516322 0.057177104 -0.038840238 -0.059911035 0.13948496 0.06952068 -0.020115543
-0.016321035 0.016345508 -0.10984931 -0.1894722 0.08657826 -0.087394446 -0.05087425 0.01443227

conv3.4.bias f4 [20]
00000000: e047 8bbc e46f bebd 0ba3 d6bd 1417 7abc
00000010: afb1 c0bd a461 cfbd 1951 0a3d 0fe4 e9bb
00000020: f021 ba3c 5686 d33d 5078 cfbd 7d02 15bc
00000030: f073 85bc f6e0 0fbe cd26 75bd 253b 373d
00000040: 4f7f 2d3d 4bfe a13d 3bd5 83bd c5b5 46bd
-0.017002046 -0.09298685 -0.10480317 -0.015264291 -0.094088905 -0.10126045 0.033768747 -0.0071377824
0.02272126 0.10328357 -0.1013037 -0.0090948315 -0.016290635 -0.1405066 -0.059851456 0.04473414
0.04235774 0.07909831 -0.06437155 -0.048513193

conv3.5.weight f4 [20]
00000000: 8daa 883f 7bdd 873f 2706 893f 1a51 843f
00000010: 2185 873f 2375 813f 1307 873f 06ab 863f
00000020: ef48 8f3f f269 833f 21a4 7d3f 9255 8b3f
00000030: b103 793f 988c 803f f0e3 893f 9e07 8d3f
00000040: d496 903f 1aed 853f 92f1 823f ae63 8d3f
1.0677048 1.0614465 1.0705003 1.033725 1.0587503 1.0113872 1.0549034 1.0520942
1.1194133 1.0266707 0.99078566 1.0885489 0.9727126 1.0042906 1.0772686 1.101795
1.1296029 1.0462983 1.0229971 1.1046045

conv3.5.bias f4 [20]
00000000: 0e34 c13a d002 58bc 671c 54bc 9b3b 10bb
00000010: 6aea 153a 1c0c d1bc 9a0a 6cbb 8a5c 45bc
00000020: 96dd 9cbb 9ebf 80bb 9003 d8b9 a714 f23b
00000030: d441 0abc 9663 08bd f7ad 37bc d605 7c3c
00000040: 03ae 7b3b 6b8f 8dbb 4cba 15b7 22d6 03bc
0.0014740245 -0.013184264 -0.012946225 -0.0022008184 0.00057188293 -0.02551847 -0.0036017061 -0.012045989
-0.0047871573 -0.0039290925 -0.00041201385 0.007387716 -0.008438546 -0.033298098 -0.01121091 0.015382251
0.003840328 -0.0043200753 -8.924468e-06 -0.008046659

conv3.5.running_mean f4 [20]
00000000: 2ca0 89be 7c87 423c 0134 4fbe 1ee3 2d3e
00000010: 7ce3 e53d 6e08 aebe 432e b73e efaa ac3d
00000020: 7042 823d 7475 0b3e 3ae7 05bf 1bbf 5c3e
00000030: 2856 213f 075a a0be fe8a e03c 558b 5d3d
00000040: ec13 f73d 2835 8fbc ca86 6abe b6fe cbbd
-0.26880014 0.011873122 -0.20234682 0.1698117 0.1122503 -0.33990806 0.35777482 0.084310405
0.06360328 0.13619024 -0.5230595 0.21557276 0.6302209 -0.31318685 0.027410027 0.054087956
0.12064347 -0.017481402 -0.2290298 -0.09960692

conv3.5.running_var f4 [20]
00000000: ee91 413e 4e1a 0c3e 463f 403e b8e2 793e
00000010: 8f95 4e3e f866 333e fc60 293e 241b 1f3e
00000020: 8f14 5b3e fd8e 373e 336f 063e 2334 893e
00000030: b05f 723e 2d61 443e 3ea6 f03d 0561 2a3e
00000040: 48ff 143e 8c02 353e c175 2a3e 9d54 383e
0.18903324 0.1368191 0.18774137 0.24402893 0.2017424 0.17519748 0.16540903 0.15537697
0.21394561 0.1792564 0.13128357 0.2679759 0.23669314 0.19177695 0.11750458 0.16638573
0.14550507 0.17676753 0.16646482 0.18001027

mlp.1.weight f4 [64, 60]
00000000: a2ec 9fbb 7130 cf3d 07aa 1b3c f040 4f3c
00000010: 76bc 89bd 9a1e 10be 67c3 3fbc 758a 39be
00000020: a4b0 2ebd 41e3 a1bd 35af dabd 4a14 8f3c
00000030: 361d fabd 3d1e a8bd b506 1cbd 5ae4 e83d
00000040: 8480 deb9 da02 03be 0d31 da3d 87ac b9bd
00000050: 1a9d b9bd 72e9 a73c 6855 22bd b2dd 1a3e
00000060: 5a93 743d b6f4 093e 7281 9e3d ac0b 06be
00000070: a6b7 b53d e51a 05bd 353f 1e3d 0152 e93c
00000080: 1d81 37bd 3838 b13d 877e 6d3d 997a 233e
00000090: de65 7fbd 0f46 abbc 5fbf 9c3d dced cf3d
000000a0: f8f1 5ebb 33e8 f4bd 52af 5d3d db61 c13d
000000b0: 9ca6 68bd a461 0fbe 32a5 143d 04e0 06be
000000c0: ca9c 3c3e fe44 003c 0b69 153e 5d12 50be
000000d0: d85c d93d feb8 37bb d0c7 26bc 81e6 423e
000000e0: 8fc6 5f3e f61f ecbc 5c24 073e b075 3abe
000000f0: 208a 23bb a2f1 afbd 5f21 9b3d d849 dd3d
00000100: 8880 46bd da75 273d 0c80 b73c 3c78 003d
00000110: 3001 d3bd 85d2 a53d 98d6 ef3d e9fc f13b
00000120: 2500 b0bc 8a94 77bd addf fcbd 5a3a 31bd
00000130: 6c58 d03d 10f2 03be 955b fd3b 5f74 2cbd
00000140: cd8c cabd 7f99 a4bd 5711 603d f16e 09bd
00000150: fa8a af3d 1f5d 9d3d bbcc 753d 0508 f6bb
00000160: 5177 cdbd d8ff 07bb a23c b13d 9e9b cfbd
00000170: 3eec d0bb 3648 2d3d 0c9c 7bbd 2513 18bd
00000180: 0563 dd3d 932e 983d b06d 663d a4a7 063e
00000190: fe0e 103c e157 613d 990a d83d 1e8a 973d
000001a0: 111e 45bd 4a78 37bd b665 f43d 3785 b9bd
000001b0: b6c5 a83d 880e dd3d 0aeb 0fbd 0dc2 cdbd
000001c0: 2de2 763b 2262 1fbc ee73 35bd 4ec8 983c
000001d0: e9f9 2f3e 6a6e 1abe 00f6 093e 01d2 9dbd
000001e0: d078 d2bd 71c2 9cbd 429b 5abc 53b9 c1bd
000001f0: 3304 683d dd68 0bbc 2d66 8e3d 2d8f cabd
00000200: 0525 03bd 55aa a43d 7f59 e33d b8d7 2c3d
00000210: fa13 973d f90b 57bc b7dc 07bd 14f4 803d
00000220: b16b 613c 037d d83d ce69 56bb 2fd1 c3bc
00000230: 892a ee3d 82f3 a33d 532e a83d d140 e23d
00000240: 8787 5d3d 126a 02be c908 153d 5fe1 903d
00000250: 371f 15bd b049 e13d 02ca aa3d 8e6c e53d
00000260: 5b89 93bd 0ee5 ccbc b63c 243a ecb7 123d
00000270: 3d5f 883d 2fa5 b2bd 6830 45bd b650 083d
00000280: b4e2 e3bc 7341 aebd eb6a 8b3d 813f de3c
00000290: af57 8a3d 24a8 b13d 5705 c7bd 5962 e73d
000002a0: 0153 65bd 6a7d 2c3d 0403 7cbd 5592 033e
000002b0: e0f2 e0bc 8db0 2dbc 6938 6f3d 4241 b23d
000002c0: 1f43 b13d 1cee 2a3d f695 3d3d 2c33 2f3d
000002d0: 7fbb 683d 236d 003d 3c38 123d 4361 5cbd
000002e0: 0c2d 55bd a391 d03d e8ca b43d 459c 0a3e
000002f0: 6c88 96bd d0eb adbc 2e89 abbc 8568 d73d
00000300: 7ce2 0e3d 4e8b 7f3c 4fee 91bb 9a46 80bd
00000310: d601 903d 21e2 0a3e 6bdc 573d 8328 7f3d
00000320: ce97 833c 8b1a ddbc 4ebe 16be 0320 bc3c
00000330: 0fd6 21bc 89b7 3ebd df48 ce3c 7214 ec3d
00000340: 6da3 1d3d 2bbb 40bd eb51 2b3c 4498 bcbd
00000350: fb66 fcbd c7fe 8c3d 9250 c13d 8d98 4b3d
00000360: f46c cd3c 6b3d 323d b0f8 ad3d ca82 3bbd
00000370: f869 3d3c 8701 3bbd 8162 98bd 4f27 91bd
00000380: d26e f33d 579f b1bd 77fe d1bd 86b1 073e
00000390: f086 3c3d 0da6 813c 72c8 893d 9aed ae3c
000003a0: b555 dc3c a427 e13d 1ac5 21bd 3d49 033c
000003b0: a6e4 cabd cef8 64bd 4064 34bd 203f e93d
000003c0: 87d2 ff3d e977 84ba 03b3 afbd edfc 3dbd
000003d0: fe1a b93d c9a5 30bc a7e3 79bd 240d e03d
000003e0: 05d5 84bd a6d5 2ebd 0d39 483d 4be1 f63d
000003f0: ee1c b63d fdf8 6a3d a250 4cba 9582 b2bd
-0.0048805038 0.10116661 0.009500987 0.01264976 -0.06725399 -0.14074174 -0.011704302 -0.18119223
-0.042648926 -0.07904673 -0.10677949 0.01746573 -0.12212603 -0.082088925 -0.038092334 0.113716796
-0.0004243889 -0.12794057 0.10653887 -0.0906611 -0.09063168 0.020497058 -0.03963223 0.15123633
0.059710838 0.13472256 0.077395335 -0.1309039 0.08872919 -0.03249635 0.038634498 0.028481485
-0.044800866 0.08653301 0.057981994 0.15964736 -0.062353007 -0.02090743 0.07653689 0.1015279
-0.0034018736 -0.11958351 0.054122277 0.094424926 -0.056799516 -0.1400209 0.036290355 -0.13171393
0.18419185 0.007828949 0.14590852 -0.20319505 0.10613412 -0.0028033848 -0.010179475 0.19033243
0.21853088 -0.028823834 0.13197464 -0.18208957 -0.0024954155 -0.0859101 0.075747244 0.108051
-0.04846242 0.040883876 0.022399925 0.031364664 -0.10302961 0.08096794 0.117108524 0.0073848856
-0.021484444 -0.060444392 -0.1234735 -0.04326854 0.10173115 -0.12885308 0.0077318647 -0.042103168
-0.09890137 -0.080370896 0.054704037 -0.033553068 0.085714296 0.07683777 0.0600097 -0.00750828
-0.100325234 -0.002075186 0.08654143 -0.101371035 -0.0063758185 0.042305194 -0.061428115 -0.037127633
0.10809902 0.07430758 0.05625695 0.13149887 0.008792637 0.05501545 0.10548896 0.07399391
-0.048124377 -0.04479245 0.11933462 -0.09058612 0.08240835 0.10793787 -0.03513626 -0.10046778
0.0037671432 -0.0097279865 -0.044300012 0.0186502 0.17185177 -0.15081182 0.13472748 -0.07706071
-0.102769494 -0.07654274 -0.01334268 -0.09459176 0.05664463 -0.008508888 0.06953082 -0.0989059
-0.032017726 0.08040301 0.111010544 0.042197913 0.07376857 -0.013125413 -0.033169474 0.06296554
0.013758586 0.10570719 -0.0032716873 -0.023903457 0.11629207 0.0800543 0.08211961 0.11047519
0.054084327 -0.12735775 0.03638533 0.07074236 -0.036406722 0.11000383 0.08339311 0.11202346
-0.07203933 -0.025011566 0.000626515 0.035819933 0.0665879 -0.087229125 -0.048141867 0.033280097
-0.027818061 -0.08508577 0.06807502 0.02712989 0.067550056 0.086746484 -0.09717815 0.11298055
-0.05598736 0.04211179 -0.061526313 0.1284879 -0.027459562 -0.010601175 0.058403406 0.08703853
0.086553805 0.041730985 0.046285592 0.04277341 0.056819435 0.03135408 0.03569816 -0.053803694
-0.052044913 0.10184028 0.08827764 0.13536175 -0.07350239 -0.021230608 -0.020939436 0.105179824
0.03488396 0.015597178 -0.0044534574 -0.06263466 0.070316 0.13562824 0.05270044 0.062294494
0.016063597 -0.026990196 -0.14721033 0.022964483 -0.009877696 -0.04656175 0.025181232 0.11527337
0.038485933 -0.047053497 0.0104565425 -0.0920873 -0.123243295 0.068845324 0.09439196 0.04970603
0.025076367 0.043515604 0.08494699 -0.045779027 0.011560909 -0.045655753 -0.07440663 -0.07087576
0.11886372 -0.0867297 -0.102536134 0.13251314 0.046027124 0.01582625 0.06727685 0.021353532
0.026896337 0.10993889 -0.03949461 0.008013067 -0.099068925 -0.05590134 -0.04404092 0.11388993
0.12491327 -0.0010106537 -0.08579066 -0.046383787 0.090383515 -0.010781714 -0.06100812 0.109400064
-0.06485943 -0.04268422 0.048882533 0.1205469 0.08892237 0.05736636 -0.00077939976 -0.08716313

mlp.1.bias f4 [64]
00000000: 7c63 113e 9858 773d e585 ddbd aeb2 bdbd
00000010: 18ad efba 9b69 13bb 3b15 af3d e18a 87bd
00000020: bd6d 12be f08a 13be 13a2 413d 6277 dc3c
00000030: 89f6 353a 940e fb3d 5c2a a93d 0e3c f83d
00000040: 190e a43d 512f be3d b01b fabd 67cc c33d
00000050: 23e3 de3c c564 8fbd b120 77bd 5a0d a93d
00000060: 9e09 90bd 5e61 1c3d 03a9 a23d 2141 c63d
00000070: 5cc3 51bd cd07 c3bd d302 9cbd 01ae e93d
00000080: 79d3 a23d 88fe c63c f9bf ce3d 1ebc 8bbd
00000090: 3676 dc3c 559f 98bd 62c2 d33d 1375 803c
000000a0: b0e3 cd3d 37d5 dcbd 4bf5 b23d 4b06 e13d
000000b0: bbd8 1c3d fde9 a93d 57ad 0e3e 33e5 ea3c
000000c0: 5ca9 c73d 74ed 89bb 79c2 78bb ccb4 36bc
000000d0: 689b 3c3d a8e0 bbbc 6bc9 223e 1eeb b7bd
000000e0: 514a c3bd 40f9 8b3d 2bfa 003d 2e0e 1a3e
000000f0: 86a9 0dbd 7f95 43bd f83d 63bd 2cbb c7bd
0.14198107 0.060387224 -0.10816554 -0.09262596 -0.0018285839 -0.0022493366 0.08548971 -0.06618286
-0.14299674 -0.14408469 0.047273707 0.026912395 0.00069413387 0.1225864 0.082600325 0.121208295
0.080105014 0.09286369 -0.12212312 0.09560471 0.027207917 -0.07001642 -0.06033391 0.082545
-0.07033084 0.038178794 0.07942393 0.09680391 -0.0512117 -0.09522972 -0.07617726 0.11410142
0.079504915 0.024291292 0.1009521 -0.0682299 0.026911836 -0.07452265 0.1033981 0.015680825
0.100531936 -0.10782855 0.08738192 0.109875284 0.038292628 0.08296583 0.13933311 0.028673744
0.097490996 -0.004209215 -0.0037957712 -0.011151504 0.046046644 -0.022934273 0.15897147 -0.08980392
-0.09535659 0.0683465 0.03148858 0.15044472 -0.0345855 -0.047749992 -0.05547902 -0.09752497

mlp.4.weight f4 [2, 64]
00000000: 0262 9dbe 5c5c 8cbc 2490 bb3d 7dc5 5d3c
00000010: ab11 f13d 9831 ebbd 6c95 5bbe 46df 303c
00000020: edf7 fa3d 0823 2e3d 5246 eabd 900e 96bc
00000030: 060f 3abe b504 77bd c6ef 47bd 4ce8 be3e
00000040: 3fbf a8bd 7d36 9dbe cb80 873d 2310 71be
00000050: 5bcb 90bd 8406 a13d acdc 243d f5b6 a63b
00000060: fc00 93bd 9fdb e3bd 8cdf 77bd 232f a4bd
00000070: 602d 56bd ce7a b93d e31e 763d afe2 a7be
00000080: d35e b5bd 27a9 bbbd b527 033e 20ef 16be
00000090: 3288 bbbc 9222 753e 2c94 78be 7678 513e
000000a0: cadd 0e3e b8e7 443d 1e8e eb3d 61ee eabc
000000b0: d6b7 32be ec37 963e 456c 94be d79e 643e
000000c0: 2a09 47be ebff 8dbc d9db 3b3e 2749 a1bd
000000d0: 0552 e8bd be8a 53bd e4a6 5c3e 4dc3 5b3d
000000e0: d6e2 d33d 9b6f 1ebe 45b8 96bb ab22 65be
000000f0: a2c5 34be fde9 a83d c0ea 113d becd a3bd
00000100: 72a3 833e 20f6 063e 1b67 a33d 54aa 80bd
00000110: 5a97 00bd d3bf bb3d b648 8d3d c757 873d
00000120: d685 ff3c a615 94bd c951 043e 8f58 9e3d
00000130: 74f9 113e fb40 9d3d f9b3 a43b 07f2 77be
00000140: e03a adbd fdcb 8b3e 404a f13d cfb0 613e
00000150: 5a7f a03c 49c2 2fbe f78d bdbd ef6b 283e
00000160: 9291 8bbc 78da 92bc 45fc 943e c6d1 743e
00000170: 6700 e9bd 85f7 d4bd 36db 89bc 971e 8c3e
00000180: 62d8 d9bd 8401 aebd c00b f5bd c510 e83d
00000190: af47 99bd 4bd4 17be b8c4 9a3e 7004 8dbe
000001a0: b22d c6bc 8bcb e03b 36d5 9bbd c282 6c3d
000001b0: 2896 9a3c 93f0 22be f657 153e 7ed0 9fbd
000001c0: 906f ef3d 9758 983d ead5 71bd ad71 263c
000001d0: 1f57 c43c 63d8 4ebd 0698 7bbe b13b cb3c
000001e0: 3fc2 21bd f030 213d 921e b0bd 6a59 9e3e
000001f0: c54b d63d 056c b13d f84b 30be 3de0 4b3d
-0.30738837 -0.017133884 0.09158352 0.013535854 0.11770948 -0.11484069 -0.21443719 0.01079542
0.12254319 0.042513877 -0.11439194 -0.01831749 -0.18169793 -0.060307223 -0.04881265 0.37286603
-0.08239602 -0.30705634 0.06616362 -0.23541312 -0.07070037 0.07862571 0.04024951 0.005087728
-0.07177922 -0.11125874 -0.060515925 -0.08016803 -0.052289367 0.09056626 0.06008805 -0.32790133
-0.08855977 -0.091631226 0.12808116 -0.14739656 -0.022892091 0.23938969 -0.24275273 0.20456108
0.13951793 0.048072547 0.11501716 -0.028678121 -0.1745294 0.2933954 -0.28988853 0.22326218
-0.1943709 -0.017333945 0.18345584 -0.07875281 -0.11343769 -0.051645987 0.21548039 0.05365305
0.10346 -0.15472262 -0.0045996034 -0.22376506 -0.17653516 0.08247755 0.035624266 -0.079982266
0.25710636 0.13179827 0.0797865 -0.062824875 -0.03139434 0.09167447 0.06898634 0.06608539
0.031191748 -0.072306916 0.12921824 0.07731735 0.14255315 0.0767841 0.005026337 -0.2421342
-0.08458495 0.27304068 0.1178174 0.22040103 0.019591976 -0.17163958 -0.09255593 0.16447423
-0.017037187 -0.01792644 0.29098716 0.23908147 -0.1137703 -0.10398773 -0.01682816 0.27367088
-0.10636975 -0.08496383 -0.11965132 0.113313235 -0.07484376 -0.14827077 0.3022821 -0.27542448
-0.024191711 0.0068602017 -0.07609026 0.057741888 0.018870428 -0.15912084 0.14584336 -0.078034386
0.11691201 0.07438772 -0.059041895 0.010158938 0.023967324 -0.05049933 -0.24569711 0.024808737
-0.039491888 0.03935331 -0.08599581 0.30927593 0.10463671 0.08663181 -0.1721648 0.049774397

mlp.4.bias f4 [2]
00000000: d31b e8bc cd31 91bc
-0.02833358 -0.017723942
