model/aadp_pssm_k2_model.ckpt (torch, 665947 bytes, 40 tensors)

conv1.0.weight f4 [10, 1, 3]
0.46216592 -0.35194433 0.1475325 -0.18554726 -0.4477424 0.06905811 -0.20377065 0.5473616
0.028352562 0.13885453 0.46791846 -0.05480431 -0.39212006 -0.16150692 0.32209373 0.28433323
0.38006184 -0.33619842 0.30036804 0.19830696 0.43109572 -0.2693296 0.53589046 0.37071392
0.09110151 0.3006509 0.31385761 -0.11242955 0.2500419 0.5333243
00000000: 03a1 ec3e 0c32 b4be c212 173e 1a00 3ebe
00000010: 7e3e e5be 576e 8d3d 41a9 50be e41f 0c3f
00000020: a243 e83c e22f 0e3e 0293 ef3e 7c7a 60bd
00000030: f6c3 c8be 1262 25be 78e9 a43e 2094 913e
00000040: 7797 c23e 3322 acbe d7c9 993e fb10 4b3e
00000050: 94b8 dc3e 92e5 89be 1e30 093f 37ce bd3e
00000060: 6e93 ba3d eaee 993e f2b1 a03e 7741 e6bd
00000070: 7e05 803e f187 083f

conv1.0.bias f4 [10]
-0.570609 0.25533244 -0.55091447 0.5773231 0.38522905 -0.47795677 -0.38958213 -0.4932792
-0.2109782 -0.08674519
00000000: 6e13 12bf efba 823e bb08 0dbf 72cb 133f
00000010: be3c c53e c0b6 f4be 4f77 c7be 178f fcbe
00000020: ab0a 58be 76a7 b1bd

conv1.1.weight f4 [10]
0.9823462 0.94456744 0.95449334 0.9623046 0.9660054 0.95841545 0.95132536 0.93029517
0.9553044 0.97135013
00000000: 0a7b 7b3f 2ccf 713f ad59 743f 9859 763f
00000010: 214c 773f b75a 753f 0f8a 733f d327 6e3f
00000020: d48e 743f 67aa 783f

conv1.1.bias f4 [10]
-0.0077164387 -0.013420174 -0.0023958774 0.023318522 -0.023298351 0.034776773 0.032373995 -0.017012656
0.023814518 -0.003284565
00000000: 2eda fcbb 4ae0 5bbc 2704 1dbb 7c06 bf3c
00000010: 2fdc bebc 1772 0e3d 989a 043d 205e 8bbc
00000020: aa16 c33c db41 57bb

conv1.1.running_mean f4 [10]
0.5932428 -1.9986883 0.9556305 2.604683 -0.44059297 0.787934 3.1099339 1.9891448
2.636418 2.519686
00000000: c3de 173f 05d5 ffbf 33a4 743f 20b3 2640
00000010: 6795 e1be 0bb6 493f 2809 4740 4c9c fe3f
00000020: 13bb 2840 8942 2140

conv1.1.running_var f4 [10]
2.05986 5.3455205 3.131797 4.539451 1.880131 2.8782148 11.475785 7.282032
7.7115016 7.188011
00000000: bfd4 0340 810e ab40 5d6f 4840 2f43 9140
00000010: 22a8 f03f ac34 3840 d19c 3741 6806 e940
00000020: 9fc4 f640 3004 e640

conv1.4.weight f4 [420, 10, 3]
-0.17220892 -0.09327517 -0.17853695 0.10863335 0.072112195 -0.10518249 -0.059283186 0.16822435
0.17976539 0.08809438 -0.05703161 0.16373871 -0.16750781 -0.14401618 -0.13691908 -0.13275118
0.061812162 -0.08763076 -0.16571987 0.12568411 -0.030606547 0.09520288 0.07393139 0.060474988
-0.13391279 -0.02097997 0.007491758 -0.07414385 -0.069960155 -0.07981454 0.07119654 0.0523991
-0.0231867 0.12212935 -0.00028877688 0.05816935 0.036632992 -0.022037996 0.15682338 -0.11600813
0.08025209 -0.07462662 0.06349965 0.044288702 0.004077391 -0.014503692 0.052872453 0.04956634
-0.06833717 -0.067631066 -0.16129656 -0.15252365 0.049638413 0.022901647 -0.044911016 0.050593197
0.0033617779 0.015424285 0.029323692 -0.13222776 -0.024661478 0.038194478 0.13925262 -0.10460942
-0.06365946 -0.1817165 0.029784461 0.09448085 0.13020194 -0.16124386 0.116979204 0.09668538
-0.11402625 -0.18930793 -0.04846643 -0.06256274 -0.18872541 0.13271055 -0.14547119 -0.17835152
-0.13629752 0.007984505 -0.14270325 -1.2213518e-05 -0.017383432 -0.16538858 -0.10806725 -0.13720587
-0.11489814 0.041474637 -0.050419815 -0.07397114 0.0218515 0.053816397 -0.08680692 -0.04723401
0.11033663 -0.07139161 0.06281012 -0.09299353 0.038447965 0.022382978 -0.02341714 0.027171839
0.14581785 -0.116359144 -0.010983139 -0.17729169 0.119609654 0.059434526 -0.17594202 -0.13958289
0.12536415 -0.07708865 0.042889565 -0.002235575 -0.0470952 0.12906183 -0.11261708 -0.13692224
0.13470493 0.07732052 0.14740571 -0.06561928 0.1420041 0.11301865 0.078303374 0.14102349
0.07285481 -0.01697933 -0.078338765 -0.07803116 0.059965093 -0.10313569 -0.105469555 -0.13369521
0.16754603 0.07754743 -0.13046351 0.019666798 -0.19957858 0.12607549 -0.13141616 -0.021779522
0.16870502 -0.09971727 -0.21696287 -0.13065127 -0.20380782 0.07884391 -0.021598037 0.01291532
-0.11815356 -0.1398591 -0.1190459 -0.106498234 0.09093316 -0.11643406 -0.00052980497 -0.022306075
-0.008474515 -0.07977707 0.16737337 -0.18208061 0.040600806 0.13441783 0.09915449 -0.14766815
0.004876123 -0.12767296 -0.039203256 -0.15325984 0.0933204 0.1214664 -0.15490383 -0.07298518
-0.099144354 0.106297515 0.14149687 -0.05245756 0.03918618 0.009477641 0.05307068 0.09767862
-0.007682144 -0.19117935 -0.17139924 -0.12516898 -0.16697459 -0.16816086 0.14736013 0.0034299293
0.081638955 0.09318962 0.10148481 0.08652121 -0.02863506 -0.051258367 0.1353623 0.15962805
-0.04649721 -0.021308474 0.15239628 -0.18851417 -0.17131302 -0.07085901 -0.18890208 -0.06433112
0.07524089 -0.025301866 0.14277138 0.1370206 0.11234755 -0.09449054 0.10694402 0.17771569
-0.069381475 -0.1316267 -0.00041134423 -0.081570394 0.06297108 -0.017298939 0.0070728892 -0.16737857
0.17840353 -0.041605093 0.050534498 -0.028895786 0.114059635 -0.05465479 -0.108443834 0.043431062
0.024445029 -0.097203255 -0.06348769 -0.17453176 0.14983194 0.07046656 -0.10012885 -0.02125685
0.106499776 0.102668986 0.03461682 -0.050410252 -0.09232816 -0.0017530248 0.08976666 0.029262029
-0.19128503 -0.22167024 0.037848882 0.032873966 0.0676181 -0.1622054 0.01978782 -0.11294262
00000000: 8957 30be 0d07 bfbd 64d2 36be 297b de3d
00000010: 8faf 933d eb69 d7bd edd2 72bd 0143 2c3e
00000020: 6b14 383e d46a b43d fa99 69bd 1fab 273e
00000030: 2b87 2bbe fa78 13be 8434 0cbe edef 07be
00000040: c02e 7d3d c277 b3bd 78b2 29be 56b3 003e
00000050: 95ba fabc baf9 c23d 5769 973d 9fb4 773d
00000060: 6f20 09be 30de abbc 6c7d f53b bbd8 97bd
00000070: 4547 8fbd ce75 a3bd 7ecf 913d 70a0 563d
00000080: 09f2 bdbc f41e fa3d fa66 97b9 fc42 6e3d
00000090: 7a0c 163d 0789 b4bc 4f96 203e ac95 edbd
000000a0: 355b a43d d7d5 98bd 1b0c 823d 1268 353d
000000b0: a29b 853b e5a0 6dbc c990 583d 1306 4b3d
000000c0: 5cf4 8bbd 2882 8abd ed2a 25be 292f 1cbe
000000d0: a651 4b3d 3c9c bb3c 9df4 37bd d03a 4f3d
000000e0: 4651 5c3b 24b6 7c3c 3d38 f03c b766 07be
000000f0: de06 cabc d071 1c3d 3d98 0e3e 773d d6bd
00000100: e45f 82bd e413 3abe 8bfe f33c 2d7f c13d
00000110: a853 053e 1c1d 25be cb92 ef3d fc02 c63d
00000120: 9886 e9bd f0d9 41be bc84 46bd e520 80bd
00000130: 3c41 41be 46e5 073e 66f6 14be c8a1 36be
00000140: 9491 0bbe 71d1 023c cd20 12be a9e8 4cb7
00000150: b367 8ebc a05b 29be 5d52 ddbd b27f 0cbe
00000160: b74f ebbd 4fe1 293d 0285 4ebd 2e7e 97bd
00000170: eb01 b33c 956e 5c3d d4c7 b1bd 7378 41bd
00000180: 2cf8 e13d c435 92bd 98a2 803d 6473 bebd
00000190: 9d7b 1d3d 825c b73c 4dd5 bfbc 7a97 de3c
000001a0: 4651 153e b44d eebd a0f2 33bc f48b 35be
000001b0: e8f5 f43d 9e71 733d 252a 34be d1ee 0ebe
000001c0: 765f 003e a7e0 9dbd f8ac 2f3d ba82 12bb
000001d0: e5e6 40bd c928 043e c9a3 e6bd 5835 0cbe
000001e0: 17f0 093e 395a 9e3d 86f1 163e 6763 86bd
000001f0: 8669 113e 5276 e73d 855d a03d 7668 103e
00000200: e734 953d 3c18 8bbc 1370 a0bd cdce 9fbd
00000210: f59d 753d ce38 d3bd 6c00 d8bd 66e7 08be
00000220: 3091 2b3e 30d1 9e3d 3a98 05be 441c a13c
00000230: 545e 4cbe ef19 013e f591 06be f86a b2bc
00000240: 02c1 2c3e 9138 ccbd 842b 5ebe 72c9 05be
00000250: ffb2 50be ea78 a13d 5eee b0bc c79a 533c
00000260: 7efa f1bd 3937 0fbe 56ce f3bd bf1b dabd
00000270: 2a3b ba3d fb74 eebd 9ce2 0aba 3bbb b6bc
00000280: b1d8 0abc 2962 a3bd ed63 2b3e 5773 3abe
00000290: 084d 263d d4a4 093e 8211 cb3d 5236 17be
000002a0: e2c7 9f3b b3bc 02be 9893 20bd 26f0 1cbe
000002b0: c41e bf3d 60c3 f83d 1c9f 1ebe 4179 95bd
000002c0: 320c cbbd 83b2 d93d 8ee4 103e bddd 56bd
000002d0: b081 203d 1c48 1b3c a460 593d ba0b c83d
000002e0: 7fba fbbb 85c4 43be 4883 2fbe 4c2c 00be
000002f0: 63fb 2abe 5c32 2cbe 93e5 163e aac8 603b
00000300: 5332 a73d 33da be3d 45d7 cf3d 0832 b13d
00000310: 1394 eabc 4bf4 51bd 6a9c 0a3e 8975 233e
00000320: dc73 3ebd 1c8f aebc c50d 1c3e dc09 41be
00000330: ae6c 2fbe 871e 91bd 8c6f 41be 09c0 83bd
00000340: e517 9a3d dc45 cfbc a932 123e 214f 0c3e
00000350: 7916 e63d 4284 c1bd 7705 db3d 1afb 353e
00000360: e017 8ebd 26c9 06be b0a9 d7b9 610e a7bd
00000370: fbf6 803d 81b6 8dbc b2c3 e73b 4a65 2bbe
00000380: 6aaf 363e 1a6a 2abd 43fd 4e3d dbb6 ecbc
00000390: 1998 e93d b3dd 5fbd cd17 debd c5e4 313d
000003a0: f140 c83c 8012 c7bd d605 82bd 74b8 32be
000003b0: 8b6d 193e c650 903d 5b10 cdbd d822 aebc
000003c0: 8e1c da3d 1e44 d23d 5eca 0d3d fb7a 4ebd
000003d0: 8c16 bdbd c0c5 e5ba 95d7 b73d ecb6 ef3c
000003e0: 39e0 43be 86fd 62be 6e07 1b3d daa6 063d
000003f0: 5c7b 8a3d 2c19 26be 111a a23c 764e e7bd

conv1.4.bias f4 [420]
0.06482323 -0.06857831 -0.1394902 -0.12071208 0.028564438 0.082175665 0.08015947 0.043195248
-0.046796486 -0.120612584 0.049153097 -0.12614354 -0.04217573 -0.09669722 0.10405159 -0.12709509
-0.06296822 0.13398927 0.12425676 0.15890878 0.16777217 -0.053681128 0.09301062 0.121360466
-0.024196362 0.045279782 0.022846598 -0.20372267 -0.20102683 0.1196776 -0.051201142 -0.08531738
-0.045450397 0.10631293 -0.021463366 -0.017277656 -0.05738188 -0.1642334 0.055324487 0.14632376
0.11573004 -0.12446708 -0.14644338 0.006417757 -0.011076385 -0.06462188 -0.05987615 0.09831677
-0.117493026 0.09137758 -0.012017177 -0.1760919 -0.0635152 0.0015315382 0.14501822 0.044783205
-0.033660375 -0.15916099 -0.038266912 -0.14062323 -0.108166195 -0.15527599 -0.13619694 -0.044376507
0.116822496 0.048086632 -0.10839166 0.026674641 -0.06585319 0.021434108 0.15236625 0.13910998
-0.15265107 0.07653266 -0.15886557 0.15135765 -0.13447547 0.04714904 0.174399 -0.07707714
0.0946997 -0.2033992 -0.049433686 0.17475416 -0.059953086 0.028138936 -0.016086277 0.049721517
-0.14933538 0.0030048261 -0.045681372 0.013250139 -0.14107439 0.03662319 0.099279806 -0.18540247
0.08666597 0.049824204 -0.13292214 0.11155239 -0.18742947 -0.13460149 -0.12075905 0.12919146
0.1785872 -0.011862934 -0.098862335 0.036490515 0.05069292 -0.012741051 -0.03702104 0.1399835
0.016000904 0.14989348 -0.100064375 -0.017236575 -0.15717655 -0.15403886 0.12213999 0.052001495
0.14400825 -0.23069721 0.12251736 -0.02995398 -0.13135633 0.0026229995 0.0023798689 0.12315444
-0.11576323 0.15604343 0.11673336 0.14479965 0.039818894 -0.013678225 -0.08757823 0.014733887
0.15585122 0.016201477 0.09974354 -0.11360145 -0.22317263 0.04658672 0.029689105 0.010726868
0.13281587 -0.13156594 0.010917453 0.05740766 0.1371335 -0.19025296 -0.09369407 -0.02363534
-0.19550906 -0.00072611996 0.03620581 -0.14670879 -0.13240695 0.07669956 -0.032017127 -0.15081625
0.051705092 -0.045687884 0.08906337 0.040647577 -0.06294599 0.0060866647 0.05699017 0.060523137
-0.009988045 -0.1515507 0.1466745 0.031395294 0.14648862 0.032433208 0.017369604 0.022533564
-0.16374153 0.11281393 -0.11759109 0.03165248 0.007846938 -0.013689944 -0.08513529 0.10097106
0.097421885 -0.13216324 0.015003017 0.025252275 -0.044812184 -0.18119104 -0.18368898 -0.16216424
-0.1171509 0.09056495 -0.082111925 0.09291828 -0.09747573 -0.13188449 -0.12987395 0.0731095
-0.18776499 0.077364095 0.031785656 -0.08389611 0.026033267 0.10192459 0.17494771 0.0030079938
0.10732787 0.036219977 -0.1727926 -0.1190247 -0.093946755 -0.17857227 0.004346634 -0.1822563
-0.07181945 -0.06813777 0.05263618 -0.04993158 0.13113989 0.09021671 0.12504394 -0.09928582
0.047985338 -0.06940038 -0.05786929 -0.088846155 0.11332642 0.16799338 -0.114720985 -0.13457137
0.0136230625 -0.041098755 0.14141317 -0.095223114 -0.12307551 -0.14423929 -0.10163958 -0.07968775
0.14099833 -0.09155323 0.15011692 -0.13553308 -0.028534783 -0.15400942 -0.058107503 0.029370777
-0.15015346 -0.10135211 0.006568651 0.05157501 0.022892643 -0.08519788 -0.028116127 -0.10107114
00000000: 0bc2 843d c972 8cbd 85d6 0ebe e537 f7bd
00000010: f8ff e93c b74b a83d a62a a43d 80ed 303d
00000020: acad 3fbd bb03 f7bd c254 493d c62b 01be
00000030: 75c0 2cbd 3109 c6bd 0019 d53d 3725 02be
00000040: 7bf5 80bd 7c34 093e 547a fe3d fcb8 223e
00000050: 78cc 2b3e bee0 5bbd 5a7c be3d d68b f83d
00000060: 7337 c6bc 4b77 393d ca28 bb3c ad9c 50be
00000070: fad9 4dbe 8819 f53d 4ab8 51bd e1ba aebd
00000080: 322a 3abd 98ba d93d f1d3 afbc df89 8dbc
00000090: 4309 6bbd cd2c 28be ee9b 623d e5d5 153e
000000a0: df03 ed3d 99e8 febd 41f5 15be 0c4c d23b
000000b0: ba79 35bc 7a58 84bd b240 75bd 4d5a c93d
000000c0: 2fa0 f0bd 2b24 bb3d b2e3 44bc 6f51 34be
000000d0: 4214 82bd e5bd c83a a87f 143e 986e 373d
000000e0: 76df 09bd 19fb 22be c4bd 1cbd 89ff 0fbe
000000f0: 3d86 ddbd ab00 1fbe 3677 0bbe 24c4 35bd
00000100: a240 ef3d 7df6 443d 72fc ddbd c784 da3c
00000110: 0ade 86bd 9596 af3c e605 1c3e d972 0e3e
00000120: 9050 1cbe 28bd 9c3d a8ad 22be 80fd 1a3e
00000130: f0b3 09be 5a1f 413d a795 323e 9fda 9dbd
00000140: ebf1 c13d e147 50be fa7a 4abd c1f2 323e
00000150: 5e91 75bd a083 e63c 5ec7 83bc caa8 4b3d
00000160: 60eb 18be 9eec 443b 641c 3bbd 1c17 593c
00000170: ce75 10be 3302 163d 3653 cb3d 25da 3dbe
00000180: ee7d b13d 7714 4c3d be1c 08be 9475 e43d
00000190: 83ed 3fbe f9d4 09be 8550 f7bd c44a 043e
000001a0: 90df 363e c05c 42bc 5678 cabd 1477 153d
000001b0: 61a3 4f3d d7bf 50bc 60a3 17bd d657 0f3e
000001c0: 5414 833c ad7d 193e 8dee ccbd b833 8dbc
000001d0: e4f2 20be 5dbc 1dbe 8824 fa3d 85ff 543d
000001e0: e676 133e e43b 6cbe 62ea fa3d 0d62 f5bc
000001f0: 4682 06be a1e6 2b3b 93f7 1b3b 6538 fc3d
00000200: 4615 edbd d9c9 1f3e e611 ef3d 5c46 143e
00000210: 2319 233d a21a 60bc 375c b3bd 6766 713c
00000220: 7697 1f3e f6b8 843c 5746 cc3d e1a7 e8bd
00000230: 5e87 64be b7d1 3e3d 9136 f33c bfbf 2f3c
00000240: e200 083e 39b9 06be 1edf 323c 4b24 6b3d
00000250: b96c 0c3e acd1 42be ade2 bfbd e79e c1bc
00000260: 8733 48be 1659 3eba 8b4c 143d d43a 16be
00000270: b095 07be a914 9d3d 6424 03bd 936f 1abe
00000280: b8c8 533d 3823 3bbd db66 b63d 137e 263d
00000290: d4e9 80bd a572 c73b 866e 693d 1ce7 773d
000002a0: e6a4 23bc 1b30 1bbe d731 163e 5a98 003d
000002b0: 1d01 163e afd8 043d b34a 8e3c 4f98 b83c
000002c0: dcab 27be fd0a e73d 99d3 f0bd 08a6 013d
000002d0: 7290 003c c94b 60bc 695b aebd eac9 ce3d
000002e0: 2085 c73d cd55 07be 37cf 753c dcdd ce3c
000002f0: fb8c 37bd 258a 39be f718 3cbe 620e 26be
00000300: d0ec efbd 1e7a b93d 4c2a a8bd f04b be3d
00000310: 5ba1 c7bd ba0c 07be adfd 04be 6fba 953d
00000320: 7745 40be 1171 9e3d ad31 023d b9d1 abbd
00000330: b843 d53c d7bd d03d 7e25 333e c321 453b
00000340: b7ce db3d 665b 143d 8bf0 30be 39c3 f3bd
00000350: 2867 c0bd a6db 36be 356e 8e3b 65a1 3abe
00000360: 1316 93bd d18b 8bbd 0999 573d 0e85 4cbd
00000370: 8949 063e 8ac3 b83d 850b 003e 5d56 cbbd
00000380: 468c 443d c921 8ebd 5908 6dbd f9f4 b5bd
00000390: af17 e83d 7506 2c3e d6f2 eabd 14cd 09be
000003a0: 4433 5f3c 2b57 28bd 9dce 103e 5604 c3bd
000003b0: 030f fcbd 77b3 13be 6a28 d0bd 5533 a3bd
000003c0: de61 103e 4380 bbbd 40b8 193e 2fc9 0abe
000003d0: c7c1 e9bc a5b4 1dbe 2202 6ebd fc9a f03c
000003e0: d4c1 19be b291 cfbd d73d d73b 5140 533d
000003f0: 5a89 bb3c 3a7c aebd cb53 e6bc 63fe cebd

conv1.5.weight f4 [420]
0.9798079 0.9625028 0.95600593 0.95150256 0.990631 0.9502181 0.95746523 0.9805961
0.9572501 0.96783125 0.96617585 0.96564525 0.9783691 0.9634197 0.9642731 0.9654332
0.9712498 0.9699357 0.963667 0.970302 0.9851427 0.9773121 0.9656442 0.9985622
0.95295686 0.97765076 0.9594212 0.92667043 0.97153753 0.9893411 0.96462625 0.9672834
0.97041637 0.98313206 0.97227585 0.97904 0.9468067 0.9573736 0.98260087 0.9849373
0.9595904 0.9525603 0.98061466 0.9770469 0.95923287 0.9596142 0.96596676 0.9673466
0.9634053 0.9700987 0.9842224 0.94563717 0.97825813 0.9698527 0.96852815 0.9595249
0.94394004 0.9767114 0.9635648 1.0049816 0.96869 0.95399266 0.9601204 0.9776932
0.9803742 0.97473353 0.9853589 0.96286553 0.9582611 0.96697795 0.97198534 0.97391474
0.97698325 0.96815556 0.9589984 0.9770831 0.98670214 0.95555687 0.9791761 0.9697072
0.95038813 0.9702513 0.9857005 0.9755597 0.9521088 0.9661424 0.94914114 0.9748638
0.97701967 0.9466086 0.9755099 0.9609311 0.9680731 0.9696181 0.94591886 0.944094
0.97482705 0.9894304 0.9741106 0.9656506 0.9644105 0.96931404 0.9641663 0.96337885
0.9629419 0.9538307 0.94069284 0.992605 0.967447 0.97942656 0.9456393 0.9691475
0.96645975 0.976659 0.94945765 0.97028863 0.9841519 0.95521146 0.9949602 0.9814891
0.96601415 0.9151156 0.97109646 0.9695202 0.9633686 0.9772125 0.96145606 0.9556936
0.9662286 0.9826829 0.9579333 0.97243255 0.9472257 0.9590224 0.97734874 0.976707
0.9794728 0.9572646 0.9580381 0.94797134 0.960662 0.95979613 0.97838354 0.9532329
0.94459414 0.9397391 0.91525346 0.9845874 0.97398436 0.9218209 0.96208614 0.96134114
0.9702373 0.9704577 0.9850588 0.9859148 0.9676938 0.97402906 0.9184132 0.95598257
0.9680169 0.9596515 0.9796541 0.9552086 0.9525869 0.9823888 0.9696465 0.9679762
0.9671006 0.96692926 0.9770432 0.97654074 0.9706102 0.96209073 0.9815688 0.9634925
0.95261526 0.9701827 0.9516215 0.94481325 0.97157675 0.96836317 0.9691508 0.95530885
0.97360146 0.9614007 0.9499141 0.9503176 0.9496893 0.9706283 0.9641074 1.0095592
0.9618348 0.96935207 0.96517104 0.9853868 0.9446555 0.9775757 0.9690042 0.9509964
0.9822633 0.9650835 0.9673143 0.95658296 0.9693249 0.94726753 0.976601 0.9653412
0.96641916 0.9540042 0.9756575 0.95916134 0.97288984 0.93624914 0.98200357 0.98959017
0.9519259 0.9960648 0.9763962 0.9591405 0.9789995 0.970961 0.95664024 0.96120256
0.96809715 0.9751551 0.96373624 0.9758091 0.9698244 0.981749 0.9879078 0.9549057
0.9848515 0.9679693 0.98570997 0.96989185 0.9438641 0.9582757 0.95075786 0.95570624
0.99156547 0.96845496 0.9776165 0.9672593 0.982964 0.94600713 0.96675175 0.9675332
0.9748695 0.98243076 0.9619178 0.97227347 0.95583856 0.95416796 0.98262197 0.9733742
00000000: b1d4 7a3f 9566 763f cebc 743f ac95 733f
00000010: fe99 7d3f 7e41 733f 711c 753f 5908 7b3f
00000020: 580e 753f cac3 773f 4d57 773f 8734 773f
00000030: 6676 7a3f aca2 763f 9ada 763f a126 773f
00000040: d4a3 783f b54d 783f e1b2 763f b665 783f
00000050: 5032 7c3f 2031 7a3f 7534 773f c6a1 7f3f
00000060: fbf4 733f 5247 7a3f a19c 753f 463a 6d3f
00000070: afb6 783f 7545 7d3f bff1 763f e39f 773f
00000080: 356d 783f 8bae 7b3f 12e7 783f 5ea2 7a3f
00000090: ed61 723f 7016 753f bb8b 7b3f da24 7c3f
000000a0: b7a7 753f feda 733f 9009 7b3f bf1f 7a3f
000000b0: 4990 753f 47a9 753f 9949 773f 07a4 773f
000000c0: bba1 763f 6358 783f 00f6 7b3f 4715 723f
000000d0: 206f 7a3f 4448 783f 76f1 773f 6da3 753f
000000e0: 0ea6 713f c209 7a3f 2fac 763f 3da3 803f
000000f0: 11fc 773f dd38 743f 73ca 753f 1a4a 7a3f
00000100: cef9 7a3f 2388 793f 7b40 7c3f 5b7e 763f
00000110: 9950 753f de8b 773f 08d4 783f 7a52 793f
00000120: 931b 7a3f 0bd9 773f eb80 753f 1e22 7a3f
00000130: 8398 7c3f 609f 743f 49ab 7a3f bb3e 783f
00000140: a34c 733f 6462 783f de56 7c3f 48be 793f
00000150: 67bd 733f 1c55 773f eafa 723f ad90 793f
00000160: f61d 7a3f f154 723f 04bb 793f 95ff 753f
00000170: a4d3 773f e438 783f bd27 723f 25b0 713f
00000180: 448e 793f 504b 7d3f 505f 793f e134 773f
00000190: 9be3 763f f724 783f 9ad3 763f ff9f 763f
000001a0: 5c83 763f 402e 743f 3fd1 703f 5c1b 7e3f
000001b0: 9baa 773f b3bb 7a3f 6b15 723f 0d1a 783f
000001c0: e869 773f 5306 7a3f a80f 733f d664 783f
000001d0: 61f1 7b3f bd88 743f b6b5 7e3f df42 7b3f
000001e0: b44c 773f 0445 6a3f c799 783f 7a32 783f
000001f0: 539f 763f 992a 7a3f fc21 763f 56a8 743f
00000200: c25a 773f 1b91 7b3f 1e3b 753f 57f1 783f
00000210: 627d 723f 7e82 753f 8733 7a3f 7809 7a3f
00000220: bbbe 7a3f 4b0f 753f fc41 753f 40ae 723f
00000230: f2ed 753f 33b5 753f 5877 7a3f 1207 743f
00000240: ecd0 713f be92 703f 0d4e 6a3f eb0d 7c3f
00000250: 0a57 793f 74fc 6b3f 474b 763f 741a 763f
00000260: 7961 783f ea6f 783f d02c 7c3f ea64 7c3f
00000270: c8ba 773f f859 793f 211d 6b3f 46bb 743f
00000280: f5cf 773f b9ab 753f 9cca 7a3f 8d88 743f
00000290: bcdc 733f d57d 7b3f c13a 783f 4acd 773f
000002a0: e893 773f ad88 773f 811f 7a3f 93fe 793f
000002b0: e979 783f 944b 763f 1848 7b3f 72a7 763f
000002c0: 98de 733f e55d 783f 779d 733f 48df 713f
000002d0: 41b9 783f a6e6 773f 441a 783f 1f8f 743f
000002e0: f23d 793f 5b1e 763f 922d 733f 0448 733f
000002f0: d71e 733f 197b 783f becf 763f 3c39 813f
00000300: ce3a 763f 7527 783f 7315 773f 4f42 7c3f
00000310: f1d4 713f 6742 7a3f a910 783f 8074 733f
00000320: 9c75 7b3f b60f 773f e9a1 773f 9fe2 743f
00000330: ad25 783f 2080 723f 8602 7a3f 9a20 773f
00000340: 3f67 773f 9f39 743f b1c4 793f 998b 753f
00000350: 4f0f 793f 06ae 6f3f 9664 7b3f c855 7d3f
00000360: 6ab1 733f 1afe 7e3f 1af5 793f 3b8a 753f
00000370: b69f 7a3f e690 783f 60e6 743f 5f11 763f
00000380: 37d5 773f c4a3 793f 6bb7 763f a0ce 793f
00000390: 6946 783f e753 7b3f 87e7 7c3f b374 743f
000003a0: 3a1f 7c3f d6cc 773f 7d57 7c3f d54a 783f
000003b0: 14a1 713f 8e51 753f de64 733f 2aa9 743f
000003c0: 3cd7 7d3f aaec 773f 1345 7a3f 4e9e 773f
000003d0: 87a3 7b3f 862d 723f 0b7d 773f 41b0 773f
000003e0: 0c91 793f 9580 7b3f 3f40 763f eae6 783f
000003f0: d6b1 743f 5a44 743f 1d8d 7b3f 0d2f 793f

conv1.5.bias f4 [420]
-0.007860278 -0.019735161 -0.04657998 -0.032080077 0.0008795825 -0.033930734 -0.028634284 -0.026965655
-0.017689543 -0.0056674955 -0.028126711 -0.00821229 -0.022461466 -0.015480448 -0.0037005565 -0.027099252
-0.011886761 -0.019212976 -0.016597478 -0.009722338 -0.003537239 -0.0025372615 -0.01085261 -0.0041292286
-0.04240068 -0.009450379 -0.028142586 -0.064189814 -0.019947095 0.0033577462 -0.045861423 -0.02984366
0.021182137 -0.00036819428 -0.013246858 0.0013636679 -0.041894075 -0.0131396605 0.00095425267 -0.010989165
-0.041062262 0.003548344 -0.01207273 -0.015783949 -0.028332144 -0.02556082 -0.013568569 -0.012998719
-0.021861333 -0.021574045 -0.0031188456 -0.03321952 -0.011437787 -0.012538915 -0.014451089 -0.029701488
-0.060662623 -0.008162094 0.011548598 -0.004337412 -0.008483536 -0.03640391 -0.024016494 -0.012095959
-0.015580065 0.000120960176 -0.00084238587 -0.0037510549 -0.048545714 -0.02752659 -0.005239677 0.003704205
-0.007514711 -0.028954227 -0.01062872 -0.011249263 -0.013908146 -0.017839007 -0.006311235 -0.020994842
-0.03232543 -0.016975107 -0.012699078 0.0060234917 -0.017980056 -0.011321044 -0.03888942 -0.013484917
-0.011242677 -0.036718223 -0.00669874 -0.016942201 -0.0168583 0.0058024456 -0.036970872 -0.046360876
-0.009631508 -0.0144171445 -0.019415947 -0.013321506 -0.014244111 -0.015213564 -0.005100581 -0.0003222476
0.036292687 -0.026197389 -0.049582213 -0.0012932406 -0.0060794055 -0.012194732 -0.064076245 -0.010135155
-0.01391932 -0.016589535 -0.008332756 0.008028958 -0.0067797783 -0.025485542 0.00014684098 -0.01124541
-0.017794719 -0.08830455 -0.012073406 -0.001954094 -0.027289595 -0.016701492 -0.013552602 -0.0089078015
0.006059285 0.0010926486 -0.035922885 -0.018567413 -0.03564093 -0.028884681 0.013193982 -0.009490131
-0.010329901 0.0025282584 -0.024393696 -0.0099183675 -0.024400646 -0.0071007595 -0.026297228 -0.0021899927
-0.049003337 -0.073115915 -0.07064606 -0.023793822 -0.0058481446 -0.08444755 -0.003754335 -0.01600007
-0.03015921 -0.019788077 0.0019519174 -0.0050483476 0.0015925559 -0.015815469 -0.06644813 0.017173102
-0.024273269 -0.02961126 -0.010100231 -0.027907766 -0.0037838558 -0.008951723 0.007882701 -0.015516701
0.0042449567 -0.010414255 -0.015338787 -0.0071049603 -0.008742396 -0.020657925 0.0031278823 -0.032521162
-0.03486196 -0.011807141 -0.0063290154 -0.025649816 -0.012456114 -0.0032591138 -0.03035878 -0.004434788
-0.026122058 -0.0052582454 -0.012144567 -0.027024103 -0.03906362 -0.026497964 -0.024158768 -0.010593605
-0.018441506 -0.010187494 -0.00043940314 -0.005923101 -0.07764212 -0.0052100536 -0.0076245633 -0.042344395
-0.017158551 0.03495372 -0.019624695 -0.03124826 -0.005177067 -0.032216404 -0.004400431 -0.014261088
-0.012597238 -0.042184304 -0.0047416217 -0.0029152415 -0.008015312 -0.075991474 -0.015876576 -0.013525053
-0.028261133 0.0024880061 -0.0107041 -0.011158003 -0.008772951 -0.006902234 -0.018146625 -0.030312067
-0.013904139 -0.015471192 -0.013251977 -0.012447695 -0.0044018854 -0.007384649 -0.0011563966 -0.025529837
-0.0027950238 -0.01711255 -0.018326294 -0.008379512 -0.059071947 -0.023037432 -0.031190015 -0.017988095
-0.011373876 -0.026531324 -0.004245742 -0.0044879327 0.004884826 -0.0134312725 -0.018063284 0.0094793495
-0.014988059 -0.012539702 -0.017294604 -0.0021182362 -0.013728098 -0.016058523 -0.022008272 -0.011536977
00000000: 65c8 00bc a2ab a1bc a6ca 3ebd 6666 03bd
00000010: c893 663a f4fa 0abd 7292 eabc 14e7 dcbc
00000020: a9e9 90bc 66b6 b9bb fd69 e6bc d78c 06bc
00000030: 1c01 b8bc b4a1 7dbc 0985 72bb 40ff ddbc
00000040: b0c0 42bc 8864 9dbc 6ff7 87bc 714a 1fbc
00000050: 06d1 67bb 2f48 26bb 25cf 31bc 7b4e 87bb
00000060: 56ac 2dbd c3d5 1abc 488b e6bc f375 83bd
00000070: 1768 a3bc a20d 5c3b 30d9 3bbd b17a f4bc
00000080: 2986 ad3c 330a c1b9 5909 59bc 1abd b23a
00000090: 1f99 2bbd bb47 57bc d026 7a3a e60b 34bc
000000a0: e730 28bd 558b 683b b3cc 45bc 574d 81bc
000000b0: d018 e8bc ed64 d1bc b44e 5ebc 94f8 54bc
000000c0: 8a16 b3bc 0dbc b0bc 8c65 4cbb 3111 08bd
000000d0: 8e65 3bbc 0570 4dbc 43c4 6cbc 8950 f3bc
000000e0: 5f79 78bd 4eba 05bc 5536 3d3c d920 8ebb
000000f0: 87fe 0abc 441c 15bd 3dbe c4bc 212e 46bc
00000100: 8743 7fbc 00ac fd38 8fd3 5cba 42d4 75bb
00000110: dfd7 46bd 717f e1bc 99b1 abbb 3fc2 723b
00000120: f73d f6bb 6a31 edbc 1524 2ebc d44e 38bc
00000130: fede 63bc 1c23 92bc 7ace cebb 60fd abbc
00000140: ac67 04bd 610f 8bbc cb0f 50bc b660 c53b
00000150: e94a 93bc e67b 39bc 834a 1fbd d7ef 5cbc
00000160: 3533 38bc d965 16bd 1b81 dbbb 5fca 8abc
00000170: 6b1a 8abc 7122 be3b c56e 17bd e7e4 3dbd
00000180: 79cd 1dbc e335 6cbc 310e 9fbc 7242 5abc
00000190: 2260 69bc 5042 79bc c622 a7bb 57f3 a8b9
000001a0: a4a7 143d e89b d6bc b816 4bbd f481 a9ba
000001b0: c035 c7bb 6acc 47bc 683a 83bd ec0d 26bc
000001c0: dc0d 64bc c7e6 87bc 1d86 08bc e48b 033c
000001d0: e728 debb 0ec7 d0bc 53f9 1939 ab3e 38bc
000001e0: 3bc6 91bc 04d9 b4bd 89cf 45bc 4210 00bb
000001f0: 6e8e dfbc 91d1 88bc bc0b 5ebc 07f2 11bc
00000200: f78c c63b 3437 8f3a e023 13bd b01a 98bc
00000210: 39fc 11bd 919f ecbc 922b 583c 7f7c 1bbc
00000220: bf3e 29bc 23b1 253b 4ad5 c7bc a680 22bc
00000230: dde3 c7bc 7dad e8bb 496d d7bc fb85 0fbb
00000240: b9b7 48bd ccbd 95bd e2ae 90bd 43eb c2bc
00000250: cba1 bfbb d6f2 acbd 4a0b 76bb 9412 83bc
00000260: 7310 f7bc 9b1a a2bc 7bd7 ff3a 9c6c a5bb
00000270: 4fbd d03a 718f 81bc f515 88bd 9bae 8c3c
00000280: bcd8 c6bc 5093 f2bc 707b 25bc d49e e4bc
00000290: 91fa 77bb 3faa 12bc 7226 013c c339 7ebc
000002a0: 4719 8b3b 8da0 2abc 894f 7bbc bad0 e8bb
000002b0: 443c 0fbc cf3a a9bc 28fd 4c3b e934 05bd
000002c0: 6acb 0ebd bd72 41bc a163 cfbb 901f d2bc
000002d0: bb14 4cbc db96 55bb fab2 f8bc b351 91bb
000002e0: edfd d5bc 5c4d acbb 02fa 46bc a761 ddbc
000002f0: 2d01 20bd 4212 d9bc 9ce8 c5bc cd90 2dbc
00000300: a412 97bc 72e9 26bc b15f e6b9 9316 c2bb
00000310: d502 9fbd 19b9 aabb 79d7 f9bb 5171 2dbd
00000320: 1790 8cbc a22b 0f3d f8c3 a0bc 5afc ffbc
00000330: 63a4 a9bb 59f5 03bd 7e31 90bb 57a7 69bc
00000340: a564 4ebc 73c9 2cbd 9b5f 9bbb a30d 3fbb
00000350: a852 03bc 6ba1 9bbd 980f 82bc 2f98 5dbc
00000360: e483 e7bc d10d 233b 4060 2fbc 0ed0 36bc
00000370: 6cbc 0fbc 232c e2bb 3ba8 94bc 0351 f8bc
00000380: 30ce 63bc e27a 7dbc d21e 59bc 6bf1 4bbc
00000390: b13d 90bb edfa f1bb 3b92 97ba f323 d1bc
000003a0: b82c 37bb 9e2f 8cbc 0621 96bc 384a 09bc
000003b0: 6df5 71bd ffb8 bcbc 3482 ffbc c55b 93bc
000003c0: 7e59 3abc 3858 d9bc de1f 8bbb 820f 93bb
000003d0: e410 a03b d70e 5cbc 74f9 93bc 464f 1b3c
000003e0: 7a90 75bc 5273 4dbc 6aad 8dbc 1bd2 0abb
000003f0: d1eb 60bc 2a8d 83bc b14a b4bc 9705 3dbc

conv1.5.running_mean f4 [420]
-0.08720404 0.07248389 -0.38094258 -0.19675563 0.099767245 0.021471845 0.13935915 0.13152212
-0.009764588 -0.25698012 0.12600574 -0.06000927 -0.14928061 -0.07116269 0.17063951 0.06311158
-0.2149421 -0.09657448 -0.048416536 0.070850775 0.07014296 -0.1558312 0.34251872 -0.2897845
-0.29605195 0.2368747 0.085567996 -0.6761051 -0.16596295 -0.16661893 0.11221328 -0.32032222
0.48034918 0.21995294 0.25258583 -0.057315808 -0.20902885 -0.010846756 -0.09460569 0.111277945
0.12995006 0.09626962 -0.058325537 -0.076485656 -0.08203593 0.16755137 -0.027013695 0.36125174
-0.33447617 0.15480624 -0.08751873 0.07987086 -0.15164606 0.13365301 0.18799447 0.03647999
-0.09191234 -0.42522436 0.06762936 -0.34293574 0.23735034 -0.109299496 0.22924246 -0.18597946
0.17354162 0.13522683 -0.09892189 0.17092703 0.36470595 -0.14865588 0.3565719 0.6280777
-0.37100458 -0.01657977 -0.24878745 0.15016781 -0.15175249 -0.015614451 -0.071452014 0.050751485
-0.31175432 -0.48654652 -0.13498037 -0.033232834 0.061007496 0.27579683 -0.18239093 0.23988497
-0.24857788 0.26222166 -0.5039634 -0.058026373 -0.57998645 -0.0047361236 -0.3353219 -0.20176591
0.041672133 0.16536637 -0.033812817 0.31319255 -0.14885847 -0.2024394 -0.13624714 0.44043913
0.733961 -0.44529817 -0.5318247 -0.39361298 -0.04337136 0.0005867928 -0.09102938 0.01439519
0.1803686 0.10522355 -0.14196137 0.32287917 -0.20687969 -0.111068316 0.12269863 -0.08110663
0.41730356 -0.5330078 0.025978852 -0.027091164 -0.07946418 -0.021765424 -0.22894001 0.26921898
-0.009504325 0.059388246 0.15734072 -0.027541496 0.1689996 -0.15371042 -0.060327057 -0.5518928
0.16154708 0.16654226 -0.083142556 0.3450703 0.050664112 0.24795014 0.021985156 0.49611193
-0.008635583 -0.22367758 -0.39035305 -0.18004794 0.16475403 -0.15443575 0.1945904 -0.2432458
-0.10012144 -0.12067473 -0.11109421 -0.030939134 0.4176678 0.04793228 -0.53769344 0.3470426
0.13002259 -0.36919937 0.024276547 -0.16805948 0.08849613 0.019033534 0.3931679 -0.13651878
0.38169006 0.2701027 0.2616634 0.114698954 -0.08749062 -0.016480012 0.1761139 -0.112278365
0.020557208 -0.025777897 0.14916675 0.08634107 -0.09896853 0.09853402 -0.3186277 0.2826329
-0.0969108 0.09029117 0.16385956 0.34368324 -0.10454624 -0.047018107 -0.0811703 -0.27440852
0.082203835 -0.027281059 -0.17242953 -0.107792035 -0.2802696 -0.33480832 -0.22063218 -0.019237334
0.10488562 0.35838884 0.28459173 -0.22548063 -0.048823632 -0.27618825 -0.119771294 -0.15065786
-0.10607361 0.19117664 -0.06254537 0.053173594 -0.21067831 -0.29529604 -0.16454902 -0.2437649
-0.0068634255 -0.05406282 -0.32165042 0.18663225 0.19360448 -0.212904 0.19633695 0.018164193
-0.11706486 -0.10750203 0.11777644 -0.17594087 0.1930521 -0.16497953 -0.2554394 -0.32129246
-0.030314647 0.34758756 0.19910751 -0.17559323 -0.18758287 0.0016209527 -0.18689631 0.0014511903
0.051567707 -0.071429305 -0.093276955 -0.23784953 0.057981316 0.28579876 -0.6393441 0.19215281
-0.22630392 -0.23670311 0.2799909 0.116172574 0.01819648 0.072495155 0.036969937 -0.19439225
00000000: 0898 b2bd 6f72 943d e80a c3be 4f7a 49be
00000010: c552 cc3d b9e5 af3c 2ab4 0e3e bcad 063e
00000020: a7fb 1fbc e692 83be a607 013e 48cc 75bd
00000030: 04dd 18be bfbd 91bd 20bc 2e3e a540 813d
00000040: c819 5cbe d7c8 c5bd 6b50 46bd 361a 913d
00000050: 1da7 8f3d 3792 1fbe 9d5e af3e a25e 94be
00000060: 1f94 97be 488f 723e 463e af3d 3915 2dbf
00000070: 31f2 29be 279e 2abe 13d0 e53d 4601 a4be
00000080: 54f0 f53e 583b 613e ee52 813e fbc3 6abd
00000090: a90b 56be 98b6 31bc a1c0 c1bd b1e5 e33d
000000a0: a111 053e 0229 c53d c2e6 6ebd 83a4 9cbd
000000b0: 7402 a8bd 9692 2b3e d34b ddbc fdf5 b83e
000000c0: 7640 abbe 8785 1e3e 053d b3bd 5593 a33d
000000d0: 1b49 1bbe 56dc 083e 9f81 403e 0b6c 153d
000000e0: 893c bcbd 02b7 d9be 4381 8a3d 4695 afbe
000000f0: f80b 733e 6ad8 dfbd 89be 6a3e 6671 3ebe
00000100: e5b4 313e e778 0a3e 8f97 cabd 7f07 2f3e
00000110: bdba ba3e 3f39 18be 9890 b63e b3c9 203f
00000120: 50f4 bdbe 4cd2 87bc 23c2 7ebe 97c5 193e
00000130: 0165 1bbe c1d3 7fbc 6f55 92bd cae0 4f3d
00000140: 439e 9fbe a01c f9be 4b38 0abe 271f 08bd
00000150: ffe2 793d 3e35 8d3e b0c4 3abe 68a4 753e
00000160: 338b 7ebe eb41 863e bf03 01bf 10ad 6dbd
00000170: fe79 14bf 7c31 9bbb 50af abbe b99b 4ebe
00000180: 66b0 2a3d cd55 293e 4f7f 0abd c65a a03e
00000190: 5b6e 18be 464c 4fbe 5f84 0bbe 3d81 e13e
000001a0: dee4 3b3f 1ffe e3be aa25 08bf a487 c9be
000001b0: 2ba6 31bd 00d3 193a 9d6d babd ced9 6b3c
000001c0: 8cb2 383e 727f d73d 525e 11be 6b50 a53e
000001d0: 45d8 53be c977 e3bd 6b49 fb3d 3c1b a6bd
000001e0: d0a8 d53e 3373 08bf 9ad1 d43c 4aee ddbc
000001f0: 1ebe a2bd 674d b2bc 406f 6abe 12d7 893e
00000200: 07b8 1bbc 1741 733d ed1d 213e b49e e1bc
00000210: 3b0e 2d3e 4466 1dbe 8119 77bd d948 0dbf
00000220: 996c 253e 0e8a 2a3e a546 aabd 0ead b03e
00000230: 2c85 4f3d a4e6 7d3e 371a b43c 6202 fe3e
00000240: 437c 0dbc bc0b 65be 5bdc c7be 7d5e 38be
00000250: 48b5 283e 6824 1ebe b542 473e 6d15 79be
00000260: 780c cdbd 5024 f7bd 5c85 e3bd 1174 fdbc
00000270: 8ed8 d53e a354 443d 47a6 09bf 91af b13e
00000280: a424 053e b307 bdbe 9cdf c63c c917 2cbe
00000290: 763d b53d 37ec 9b3c 4e4d c93e 94cb 0bbe
000002a0: e16c c33e e74a 8a3e bff8 853e 49e7 ea3d
000002b0: 482e b3bd 1701 87bc 3457 343e 33f2 e5bd
000002c0: 9767 a83c 2b2c d3bc 2bbf 183e 96d3 b03d
000002d0: 03b0 cabd 34cc c93d 2b23 a3be 42b5 903e
000002e0: 2b79 c6bd 94ea b83d cdca 273e 40f7 af3e
000002f0: 571c d6bd 0f96 40bd 9d3c a6bd 467f 8cbe
00000300: 7c5a a83d 877c dfbc 5e91 30be 12c2 dcbd
00000310: 7f7f 8fbe ff6b abbe 67ed 61be 9d97 9dbc
00000320: 46ce d63d be7e b73e 02b6 913e 65e4 66be
00000330: 4afb 47bd 8c68 8dbe a74a f5bd 0e46 1abe
00000340: 1f3d d9bd cfc3 433e c917 80bd 8ecc 593d
00000350: 0ebc 57be 0b31 97be 8a7f 28be 829d 79be
00000360: 96e6 e0bb fa70 5dbd 5daf a4be 861c 3f3e
00000370: 4140 463e 8203 5abe 8e0c 493e 13cd 943c
00000380: b4bf efbd 062a dcbd c634 f13d d829 34be
00000390: 73af 453e 65f0 28be f4c8 82be 7280 a4be
000003a0: 6c56 f8bc fff6 b13e d7e2 4b3e b6ce 33be
000003b0: b915 40be 2676 d43a bf61 3fbe de35 be3a
000003c0: a938 533d 8749 92bd fd07 bfbd d48e 73be
000003d0: d17d 6d3d 3754 923e 0eac 23bf b5c3 443e
000003e0: 37bc 67be 4d62 72be f85a 8f3e e3eb ed3d
000003f0: c910 953c 5778 943d ca6d 173d c30e 47be

conv1.5.running_var f4 [420]
0.14827786 0.14039777 0.18937881 0.18260567 0.16587247 0.14748134 0.21104372 0.16276544
0.19263476 0.20205636 0.11558934 0.13532193 0.12964888 0.14749 0.1596417 0.23399635
0.13030183 0.2292133 0.46171904 0.13849655 0.16067624 0.20134296 0.21895087 0.22468525
0.28141767 0.2619784 0.15638462 0.30793664 0.18501808 0.26419303 0.279801 0.18200836
0.5614813 0.25169447 0.17142473 0.28382862 0.28296483 0.3225538 0.26365796 0.18450561
0.12725355 0.28553015 0.15974079 0.14503224 0.1390021 0.3240656 0.14216809 0.25267345
0.4775887 0.12841745 0.16083692 0.3196611 0.1693604 0.21110071 0.18305974 0.11925128
0.13433982 0.13134845 0.22437753 0.14160323 0.19632193 0.20520388 0.2246193 0.22688599
0.12282522 0.24491924 0.14725377 0.1691507 0.4203837 0.09397139 0.16091056 0.7913063
0.3002794 0.1250554 0.14760712 0.13754022 0.09853244 0.20259258 0.15919372 0.14410004
0.3650884 0.21992628 0.19474982 0.14910503 0.3339946 0.34756038 0.14532177 0.1484091
0.15738368 0.31477872 0.3587411 0.1365548 0.34540576 0.30033004 0.86846024 0.27013698
0.21562015 0.14671242 0.11498367 0.11384684 0.12713398 0.20914128 0.21091989 0.20709097
0.9444104 0.63335544 0.74195164 0.31248242 0.15677518 0.22134715 0.37005985 0.25571167
0.158466 0.11643947 0.22849661 0.37808916 0.124646544 0.14153264 0.1579397 0.14868079
0.5908166 0.6073108 0.12831524 0.108146995 0.17713208 0.15036704 0.3466181 0.36894038
0.22301415 0.17318186 0.12712778 0.18520302 0.21050783 0.16257234 0.18396455 0.47868508
0.1537318 0.18249384 0.18690889 0.38788345 0.233652 0.2811144 0.20261633 0.56311435
0.22225644 0.2914344 0.50000566 0.23934719 0.12872903 0.30107445 0.3862062 0.14774245
0.40090838 0.29886365 0.1531755 0.10482368 0.48272672 0.18484539 1.2155551 0.52807677
0.15203089 0.22228386 0.1724541 0.28222302 0.18794994 0.18614654 0.5777741 0.38083017
0.2701644 0.188234 0.19573362 0.21406732 0.16035025 0.15916096 0.2689144 0.16925927
0.19393735 0.16555361 0.2777509 0.20376593 0.1680018 0.19960803 0.1497636 0.15395457
0.36769634 0.22647038 0.34498787 0.26080492 0.18377198 0.12280778 0.14354563 0.14386424
0.14345908 0.2534727 0.137089 0.14290279 0.37105238 0.13715965 0.11783423 0.25091144
0.23196548 0.30822042 0.19334048 0.11840237 0.1363742 0.35521176 0.2299087 0.25808033
0.27629152 0.14823198 0.23805486 0.2627311 0.14949396 0.20482938 0.3014508 0.27376688
0.13728297 0.15570533 0.29130068 0.161379 0.2446155 0.6348919 0.14623131 0.17394905
0.176538 0.21684508 0.35614547 0.11764527 0.10745523 0.44133955 0.3398508 0.37546787
0.15976815 0.17435741 0.16036235 0.1627081 0.18610395 0.12892863 0.25548708 0.18843275
0.17249529 0.113895364 0.16915528 0.1016739 0.19692388 0.3488068 0.83895624 0.46798563
0.23032245 0.1523304 0.16409622 0.16540134 0.13398641 0.19951576 0.2176635 0.2556074
00000000: 27d6 173e 6fc4 0f3e 85ec 413e fbfc 3a3e
00000010: 79da 293e 5905 173e d81b 583e fcab 263e
00000020: 0c42 453e dde7 4e3e 1bba ec3d d591 0a3e
00000030: adc2 043e 9e07 173e 1d79 233e bd9c 6f3e
00000040: d86d 053e e4b6 6a3e 7066 ec3e 0ad2 0d3e
00000050: 5088 243e d92c 4e3e a834 603e e413 663e
00000060: fa15 903e 0822 863e 4a23 203e dfa9 9d3e
00000070: 6175 3d3e 4f44 873e 1442 8f3e 6660 3a3e
00000080: 3dbd 0f3f 19de 803e f789 2f3e fc51 913e
00000090: c4e0 903e c625 a53e 2dfe 863e 0aef 3c3e
000000a0: c14e 023e 0231 923e 1793 233e 5583 143e
000000b0: 9156 0e3e edeb a53e 8394 113e 6a5e 813e
000000c0: 8286 f43e dd7f 033e 6fb2 243e 9faa a33e
000000d0: d06c 2d3e c92a 583e 0374 3b3e 043a f43d
000000e0: 6190 093e 3580 063e 39c3 653e 7000 113e
000000f0: 9e08 493e f720 523e 9a02 663e cd54 683e
00000100: ca8b fb3d 1ccc 7a3e b1c9 163e d735 2d3e
00000110: 883c d73e 1274 c03d bdc5 243e 0d93 4a3f
00000120: 39be 993e 860e 003e 5226 173e 58d7 0c3e
00000130: 60cb c93d 6e74 4f3e ae03 233e f68e 133e
00000140: deec ba3e 5b34 613e 7f6c 473e fdae 183e
00000150: 5701 ab3e 6ff3 b13e 3bcf 143e 8ef8 173e
00000160: 3029 213e ad2a a13e eaac b73e 06d5 0b3e
00000170: 06d9 b03e dcc4 993e 6953 5e3f 654f 8a3e
00000180: 87cb 5c3e c83b 163e 8f7c eb3d 8828 e93d
00000190: 692f 023e 2229 563e 62fb 573e a80f 543e
000001a0: e1c4 713f 9523 223f 8bf0 3d3f b2fd 9f3e
000001b0: ac89 203e d4a8 623e 7c78 bd3e a4ec 823e
000001c0: e944 223e d177 ee3d 04fb 693e e794 c13e
000001d0: b046 ff3d efed 103e f2ba 213e c73f 183e
000001e0: c23f 173f b878 1b3f 1265 033e 2c7c dd3d
000001f0: 1d62 353e d1f9 193e ed77 b13e c1e5 bc3e
00000200: d25d 643e 9656 313e c92d 023e dca5 3d3e
00000210: 5d8f 573e 5d79 263e 3461 3c3e 3616 f53e
00000220: de6b 1d3e aadf 3a3e 0b65 3f3e a998 c63e
00000230: 7842 6f3e 3aee 8f3e a87a 4f3e 4328 103f
00000240: 3197 633e e436 953e 5f00 003f 6e17 753e
00000250: 8bd1 033e 6e26 9a3e d2bc c53e cc49 173e
00000260: dd43 cd3e a804 993e 0ada 1c3e ccad d63d
00000270: f527 f73e 1c48 3d3e 4f97 9b3f 0a30 073f
00000280: fcad 1b3e 619e 633e cf97 303e 897f 903e
00000290: f375 403e 339d 3e3e 01e9 133f 2cfc c23e
000002a0: fd52 8a3e 6ac0 403e 656e 483e 7734 5b3e
000002b0: db32 243e 17fb 223e 26af 893e 4d52 2d3e
000002c0: 8397 463e e386 293e 5e35 8e3e 04a8 503e
000002d0: aa08 2c3e 0c66 4c3e a15b 193e 44a6 1d3e
000002e0: b242 bc3e dae7 673e 40a2 b03e 3988 853e
000002f0: b92e 3c3e a582 fb3d a0fd 123e 2651 133e
00000300: f0e6 123e 2cc7 813e 0f61 0c3e 1c55 123e
00000310: 94fa bd3e 9473 0c3e 1353 f13d 7777 803e
00000320: 5c88 6d3e 11cf 9d3e 0cfb 453e f17c f23d
00000330: aea5 0b3e 51de b53e 306d 6b3e 1b23 843e
00000340: 1576 8d3e 20ca 173e a7c4 733e b184 863e
00000350: f214 193e cbbe 513e c257 9a3e 2c2b 8c3e
00000360: e893 0c3e 3871 1f3e 5d25 953e 8940 253e
00000370: 7c7c 7a3e 4788 223f a9bd 153e b31f 323e
00000380: 61c6 343e a30c 5e3e b358 b63e 01f0 f03d
00000390: 7d11 dc3d 42f7 e13e ed00 ae3e 533d c03e
000003a0: 439a 233e c08a 323e 0736 243e f49c 263e
000003b0: 0992 3e3e de05 043e 34cf 823e 84f4 403e
000003c0: 9ba2 303e f941 e93d 0b37 2d3e 683a d03d
000003d0: 6aa6 493e ce96 b23e d6c5 563f d09b ef3e
000003e0: a6d9 6b3e 80fc 1b3e d708 283e f85e 293e
000003f0: bc33 093e dc4d 4c3e 2ee3 5e3e f9de 823e

conv2.0.weight f4 [10, 1, 6]
-0.1872693 0.3452435 -0.29620266 -0.09010735 -0.14701815 0.21267039 -0.14051273 0.018781304
0.025960278 -0.20835005 0.28199926 0.38047007 0.03095225 -0.23923057 0.30170715 0.3887052
-0.37918982 -0.32507795 0.42618388 0.30647284 0.16606559 -0.30190644 -0.21013445 0.04870722
0.04200997 -0.32534784 -0.42700902 -0.03324305 0.32117513 0.16644879 0.22540446 -0.23504536
0.039607476 -0.23324965 -0.19469735 -0.28948113 -0.48558584 0.23292792 0.012278651 0.30099437
0.1249298 -0.43132302 0.31499475 -0.116222344 -0.23199157 0.31017706 0.24900727 0.33232358
0.041359987 -0.07921546 -0.14139427 -0.063488625 -0.41620192 -0.09088252 -0.3588759 0.38685265
0.42779577 0.10221797 -0.23373225 0.11734783
00000000: 86c3 3fbe c2c3 b03e e0a7 97be 348a b8bd
00000010: ed8b 16be 44c6 593e 92e2 0fbe 40db 993c
00000020: a6aa d43c b759 55be 3562 903e f9cc c23e
00000030: 938f fd3c dcf8 74be 5c79 9a3e 5e04 c73e
00000040: 2b25 c2be 9e70 a6be c634 da3e 02ea 9c3e
00000050: 190d 2a3e 7b93 9abe 7c2d 57be 3981 473d
00000060: a512 2c3d fe93 a6be eda0 dabe dd29 08bd
00000070: 1171 a43e 8d71 2a3e 6dd0 663e bbaf 70be
00000080: 733b 223d ffd8 6ebe be5e 47be df36 94be
00000090: b59e f8be a884 6e3e 652c 493c ef1b 9a3e
000000a0: 32db ff3d 5fd6 dcbe fe46 a13e fb05 eebd
000000b0: 338f 6dbe 87cf 9e3e c3fb 7e3e 5126 aa3e
000000c0: 1769 293d b73b a2bd a9c9 10be 5306 82bd
000000d0: 6b18 d5be 9d20 babd 95be b7be 8d11 c63e
000000e0: 0c08 db3e a857 d13d 8257 6fbe 0f54 f03d

conv2.0.bias f4 [10]
0.44557938 0.024020247 -0.13681771 -0.25863338 -0.21155462 -0.16744247 0.16576521 0.10532352
0.006279102 0.14230384
00000000: fb22 e43e 1cc6 c43c f119 0cbe 986b 84be
00000010: c6a1 58be 0a76 2bbe 5bbe 293e dcb3 d73d
00000020: edc0 cd3b 19b8 113e

conv2.1.weight f4 [10]
1.3320339 1.0320305 1.1337919 1.0369139 1.1979527 1.0050762 1.2349625 1.0011077
0.99138415 1.056633
00000000: 1680 aa3f 9319 843f 1820 913f 98b9 843f
00000010: 8456 993f 56a6 803f 4013 9e3f 4c24 803f
00000020: 5acb 7d3f c03f 873f

conv2.1.bias f4 [10]
0.03474105 0.043069642 0.062207874 0.01746475 0.034363456 0.0018176687 0.04070905 0.019637043
-0.004780171 0.040495023
00000000: a24c 0e3d cb69 303d afcd 7e3d 3c12 8f3c
00000010: b2c0 0c3d d73e ee3a 88be 263d dddd a03c
00000020: fba2 9cbb 1cde 253d

conv2.1.running_mean f4 [10]
-0.08009257 1.1839908 -1.0720048 1.2623997 -1.0752574 -2.4327745 -0.67073977 3.2481253
-2.1960073 1.7405235
00000000: 9307 a4bd 038d 973f 7437 89bf 5096 a13f
00000010: 09a2 89bf 94b2 1bc0 9ab5 2bbf 49e1 4f40
00000020: 628b 0cc0 79c9 de3f

conv2.1.running_var f4 [10]
0.8830447 2.283428 2.5177817 3.585997 2.1107907 4.877777 1.9059173 9.966162
4.509215 4.14669
00000000: 380f 623f af23 1240 5623 2140 fa80 6540
00000010: 3217 0740 c016 9c40 19f5 f33f 6675 1f41
00000020: 7d4b 9040 afb1 8440

conv2.4.weight f4 [420, 10, 6]
0.021319693 0.064293295 0.106846444 -0.022233367 -0.06129752 0.18778622 0.13576286 0.08249238
-0.015477372 -0.010985077 -0.16582064 -0.039157905 -0.069686495 0.044257645 0.004236564 -0.011421403
0.043482147 -0.034873188 0.05601479 0.08795965 -0.12568256 0.039955754 0.07264516 0.008796318
-0.18436722 -0.13371962 -0.118920825 0.010694319 -0.08708588 -0.17032291 -0.012929445 0.03931931
-0.06456193 0.096787214 0.020271037 0.072344884 0.09991648 -0.11930005 0.13670598 -0.098189324
0.12433614 0.038188066 0.027924884 -0.08048099 -0.034954287 -0.077058986 -0.107487485 0.07590248
-0.03960933 -0.13315155 0.05886882 -0.023532057 -0.023290163 0.12970456 -0.051814582 0.06582285
-0.13332814 0.10800859 -0.0053131115 0.07305577 0.043299854 -0.009384889 -0.013414408 -0.024318527
0.04195388 0.05054402 0.04469816 -0.014491173 0.08723885 -0.14614125 -0.118757404 -0.05256692
-0.1321099 0.11140317 -0.05910481 0.021991597 -0.13185127 -0.059956573 -0.051845446 0.056828387
-0.0713224 -0.09004585 -0.01548404 -0.032440677 -0.049872756 0.0013636912 0.009176463 -0.01024156
0.08529861 0.025269125 0.010558292 -0.094744325 0.0660299 -0.09184682 -0.12475849 -0.036026124
0.0048915204 -0.14790751 -0.10981336 0.034321327 -0.014260761 0.061625853 -0.072784625 -0.03461186
-0.12442642 0.116745315 0.09840485 -0.11358641 0.08512642 -0.094632454 0.054479565 0.10654243
0.11483047 -0.011827024 0.023958402 0.043303575 -0.04835865 -0.10491978 -0.039661743 0.088835135
-0.2598559 -0.03253325 0.014063277 0.1355693 0.11663187 -0.09597681 -0.026167713 -0.09705862
0.08098767 -0.028334871 -0.11655067 0.067660056 -0.072216354 -0.08595392 -0.019579485 0.03194889
-0.035565764 0.015336872 -0.10260401 0.006843086 -0.044135407 -0.022056151 0.01788189 -0.008505786
-0.09425656 -0.17566127 -0.13935202 0.13756673 -0.029914005 0.10000166 0.087969065 -0.15549923
-0.0057673724 -0.12959592 -0.037084416 0.0016441083 0.06909773 -0.04958927 -0.022079987 0.05131739
-0.017539069 0.08233167 -0.048105087 -0.06581162 0.0518371 0.038461406 -0.10920819 -0.026949555
-0.113024585 0.09295656 -0.07992865 -0.14556432 0.05687406 0.0058948654 -0.07109585 0.054287717
-0.04426921 0.1006634 0.12573542 0.115386926 0.103734486 -0.018439068 0.023853969 -0.008450293
0.022448204 0.049325846 0.0876602 0.05070298 -0.043133337 0.086936325 0.027818091 -0.11276365
-0.017324276 -0.010021194 -0.059862375 0.075001225 -0.066940315 -0.09193556 -0.07438837 0.08166144
-0.094502255 0.026855268 -0.05657879 0.09027043 -0.13294432 0.06652118 -0.0042248364 -0.0077380133
-0.028179923 -0.1363605 0.003777247 0.10514087 0.121642694 0.009445754 0.043808565 -0.11593068
-0.09135582 0.05158036 0.08919369 0.04103401 -0.054199453 0.12560998 -0.10823755 0.09144097
0.07778093 -0.08509993 -0.08655711 0.12103344 -0.057833996 -0.08922977 0.08851528 -0.022270076
-0.025140632 -0.14483617 -0.0036427912 0.07107716 -0.106669776 -0.054784227 -0.07023397 0.0390513
-0.0066520656 -0.12667313 0.14400958 -0.16442128 -0.030393662 0.031538997 -0.12620604 0.12686703
-0.12736185 -0.005136905 -0.07551688 0.11597225 -0.103811644 -0.0041105966 0.013281171 0.060907822
00000000: a3a6 ae3c 34ac 833d 4fd2 da3d c022 b6bc
00000010: 1c13 7bbd 084b 403e 6b05 0b3e c4f1 a83d
00000020: ce94 7dbc c1fa 33bc e3cc 29be 0a64 20bd
00000030: cbb7 8ebd 8147 353d e0d2 8a3b d620 3bbc
00000040: 561a 323d 30d7 0ebd c46f 653d 3024 b43d
00000050: eeb2 00be a5a8 233d fcc6 943d 6f1e 103c
00000060: c3ca 3cbe cced 08be c38c f3bd 3a37 2f3c
00000070: 155a b2bd 2169 2ebe 06d6 53bc 490d 213d
00000080: 0c39 84bd 6038 c63d 720f a63c 8e29 943d
00000090: 03a1 cc3d 9653 f4bd a7fc 0b3e 7c17 c9bd
000000a0: f2a3 fe3d 176b 1c3d bac2 e43c 38d3 a4bd
000000b0: 3a2c 0fbd 1ad1 9dbd 6622 dcbd c272 9b3d
000000c0: 653d 22bd e158 08be 6f20 713d 4dc6 c0bc
000000d0: 03cb bebc 46d1 043e 873b 54bd 21ce 863d
000000e0: 2c87 08be 9c33 dd3d 9c19 aebb 439e 953d
000000f0: 305b 313d 14c3 19bc 1bc8 5bbc a637 c7bc
00000100: d5d7 2b3d 3f07 4f3d 6b15 373d 636c 6dbc
00000110: 48aa b23d 0da6 15be 1537 f3bd 6950 57bd
00000120: d147 07be 5827 e43d e317 72bd b927 b43c
00000130: 0504 07be 0695 75bd e45b 54bd e2c4 683d
00000140: 7a11 92bd f569 b8bd c5b0 7dbc 84e0 04bd
00000150: 6047 4cbd e2bd b23a e058 163c 37cc 27bc
00000160: 0ab1 ae3d 3201 cf3c b0fc 2c3c 5009 c2bd
00000170: af3a 873d 301a bcbd 6181 ffbd 2190 13bd
00000180: 0c49 a03b 1175 17be d4e5 e0bd 8594 0c3d
00000190: f8a5 69bc 646b 7c3d 1b10 95bd 2ac5 0dbd
000001a0: 47d3 febd 2b18 ef3d 7b88 c93d fe9f e8bd
000001b0: c356 ae3d a9ce c1bd f725 5f3d eb32 da3d
000001c0: 3d2c eb3d 22c6 41bc 6944 c43c 175f 313d
000001d0: b813 46bd 2ee0 d6bd 5a74 22bd 32ef b53d
000001e0: d50b 85be 9641 05bd a969 663c aed2 0a3e
000001f0: b1dc ee3d 7d8f c4bd ac5d d6bc abc6 c6bd
00000200: dddc a53d 881e e8bc 1eb2 eebd 5b91 8a3d
00000210: 2be6 93bd 9c08 b0bd 2865 a0bc d7dc 023d
00000220: 68ad 11bd 8147 7b3c 0d22 d2bd f73b e03b
00000230: 54c7 34bd 1aaf b4bc 0b7d 923c da5b 0bbc
00000240: 9509 c1bd 8ce0 33be 4cb2 0ebe 4bde 0c3e
00000250: 370e f5bc accd cc3d 2029 b43d 313b 1fbe
00000260: 3afc bcbb cbb4 04be d4e5 17bd 1f7f d73a
00000270: 1c83 8d3d 1e1e 4bbd 17e1 b4bc 2f32 523d
00000280: 18ae 8fbc 829d a83d d709 45bd 3ec8 86bd
00000290: 2453 543d b589 1d3d 8ba8 dfbd 50c5 dcbc
000002a0: 6f79 e7bd 0260 be3d a2b1 a3bd d00e 15be
000002b0: c6f4 683d b729 c13b b39a 91bd cc5c 5e3d
000002c0: a253 35bd 9d28 ce3d c9c0 003e fb4f ec3d
000002d0: bf72 d43d 870d 97bc 6669 c33c 1973 0abc
000002e0: 4ce5 b73c e609 4a3d 3187 b33d eead 4f3d
000002f0: 95ac 30bd ac0b b23d c4e2 e33c a1f0 e6bd
00000300: a4eb 8dbc ef2f 24bc 4032 75bd 3e9a 993d
00000310: 0118 89bd b648 bcbd ee58 98bd 1d3e a73d
00000320: 668a c1bd 94ff db3c 29bf 67bd b4df b83d
00000330: 8e22 08be 423c 883d 7f70 8abb 298f fdbb
00000340: 95d9 e6bc 16a2 0bbe b08b 773b 1954 d73d
00000350: ce1f f93d 5dc2 1a3c 9c70 333d 106d edbd
00000360: c318 bbbd ed45 533d 2eab b63d 4713 283d
00000370: 3f00 5ebd e79f 003e a6ab ddbd 6745 bb3d
00000380: 9c4b 9f3d df48 aebd db44 b1bd 61e0 f73d
00000390: 57e3 6cbd 19be b6bd 8047 b53d bc6f b6bc
000003a0: baf3 cdbc ef4f 14be e5bb 6ebb e790 913d
000003b0: af75 dabd 6d65 60bd d4d6 8fbd 42f4 1f3d
000003c0: 92f9 d9bb 9ab6 01be 3f77 133e 0d5e 28be
000003d0: 21fc f8bc 092f 013d 283c 01be 6ee9 013e
000003e0: 256b 02be 7b53 a8bb 98a8 9abd dc82 ed3d
000003f0: 339b d4bd 2fb2 86bb 4599 593c 7b7a 793d
