model/aatp_k4_model.ckpt (torch, 665947 bytes, 40 tensors)

conv1.0.weight f4 [10, 1, 3]
000000 86 c8 83 3e 93 af ec be c9 93 9a 3e 38 f1 aa be
       0.25738925 -0.46227702 0.30190876 -0.3338716
000010 3c 36 f0 be 68 2b 8d bd 6e 07 98 3e f2 59 8c 3e
       -0.46916378 -0.06893045 0.29693168 0.27412373
000020 ea 72 ca 3e 21 a4 9b bd b7 18 e2 be 42 9b 04 be
       0.39540797 -0.075996645 -0.4415948 -0.12949851
000030 eb 6e 57 be 30 6e 02 bf 51 75 4e 3e 83 67 e4 3e
       -0.21038406 -0.5094938 0.2016194 0.44610223
000040 98 0b 02 bf 22 68 de 3e db 2f 01 bf f2 73 9a 3e
       -0.5079894 0.43438822 -0.50463647 0.30166584
000050 76 e1 38 3e ae 1e ef 3e 85 25 db 3e e0 b5 86 3d
       0.18054757 0.46703094 0.42802063 0.06577659
000060 84 9e 5b 3d c7 93 8f be 11 92 bb 3e 99 13 ea be
       0.05361797 -0.28042433 0.36634877 -0.45718077
000070 4a 0d ed be 0d f5 f8 bd
       -0.462992 -0.12156115

conv1.0.bias f4 [10]
000000 3d 99 63 be 78 e7 4e 3e bf 23 eb 3d b4 25 67 3e
       -0.22226425 0.20205486 0.114814274 0.22572976
000010 42 23 c3 3e 0b 54 a2 3e 52 cb c7 be 75 a5 fc 3e
       0.38112837 0.31704745 -0.3902231 0.49344984
000020 41 07 18 be 30 3d 9a 3d
       -0.14846517 0.07531202

conv1.1.weight f4 [10]
000000 8c 10 7a 3f aa 5d 74 3f aa e0 7a 3f a8 59 71 3f
       0.976815 0.9545542 0.9799906 0.9427743
000010 d1 dc 71 3f 91 60 7c 3f 56 6f 7a 3f 0b 8e 77 3f
       0.94477564 0.9858485 0.97826135 0.96701115
000020 15 62 79 3f 03 d6 72 3f
       0.97415286 0.94857806

conv1.1.bias f4 [10]
000000 61 d8 18 3c 4b 26 08 bd e1 85 2b bd d0 c5 38 3d
       0.0093289325 -0.033239644 -0.041875724 0.045110524
000010 6f 8f 2e bd 7b 3a a3 bd a9 ee 83 bd 33 35 ff 3c
       -0.042617258 -0.07970139 -0.06442005 0.031153297
000020 87 60 71 bb fb f7 35 bd
       -0.0036831216 -0.044425946

conv1.1.running_mean f4 [10]
000000 20 d8 87 be 36 59 94 3e 04 37 0a 3e 4b d8 46 3e
       -0.26532078 0.28974313 0.1349755 0.19418447
000010 9c e6 db 3e a8 14 d8 3e a1 66 a0 be 37 3c b3 3e
       0.42949378 0.4220326 -0.313283 0.35006878
000020 d4 06 37 be c3 d8 36 3e
       -0.17873698 0.17856126

conv1.1.running_var f4 [10]
000000 39 43 78 3f 99 28 8e 3f 93 f0 74 3f 93 cf 3f 3f
       0.96977574 1.110614 0.9567959 0.7492611
000010 f0 53 88 3f fe de d4 3f 4f 00 80 3f 6d 67 ac 3f
       1.0650616 1.6630552 1.0000094 1.3469063
000020 f7 6a 11 3f 74 50 b9 3f
       0.5680384 1.4477677

conv1.4.weight f4 [420, 10, 3]
000000 88 4c 90 bd 9f 75 0f 3c ac e6 ea 3d 00 18 e2 3d
       -0.07045847 0.00875607 0.114697784 0.11039734
000010 90 54 fd 3d cf b9 71 bd 4e 95 a8 bd 36 28 b9 3d
       0.12369645 -0.05901509 -0.082316026 0.09040873
000020 1c 8a e8 3c ac 67 76 3d e4 7a 34 bd 05 77 6a 3c
       0.028386168 0.060157463 -0.04406251 0.014310603
000030 0f 36 8b 3d 5d c6 52 3d f1 33 96 bd e1 f7 98 bd
       0.0679742 0.051458705 -0.07334126 -0.07469154
000040 0b be fa bd 2a 34 f5 bd 9b 36 80 bd 7d 8e a0 bd
       -0.12243279 -0.1197284 -0.06260415 -0.078396775
000050 1e 75 7a bc 94 70 1f 3e cc ac 92 bd df 36 a9 3d
       -0.015286712 0.15570289 -0.07161865 0.08262419
000060 64 27 9f bd ca 4b 48 be 65 44 9b 3d 40 3e 16 3d
       -0.07771185 -0.19560161 0.075814046 0.03668046
000070 cb ca 3e bc 83 1e ab 3d 88 7a 68 3c 4c 83 80 3d
       -0.011645029 0.08355429 0.01418937 0.06275043
000080 61 4d 05 bd 11 45 2b 3e 98 3d 9c 3d cb d3 05 be
       -0.032544497 0.16725565 0.076289356 -0.13069074
000090 2f c5 13 be 7e 1f a7 3d 08 da 80 be 9e 25 33 be
       -0.14430688 0.081603035 -0.25166345 -0.17494819
0000a0 89 aa ef 3d 20 2a aa 3d 54 90 50 bd 25 76 11 be
       0.11702449 0.08308816 -0.050918892 -0.14205225
0000b0 79 6e bb 3d 70 91 0c be dc 62 db 3d 77 7e 3c 3e
       0.0915193 -0.13727355 0.10712215 0.18407618
0000c0 ef e3 8d 3d c9 16 57 be 6c 4e 34 3e ba 4f 89 3c
       0.069282405 -0.21004786 0.1760804 0.01676165
0000d0 50 4f 47 be a6 c2 08 be 86 95 04 bd ee 23 bc bc
       -0.19463849 -0.13355502 -0.03236916 -0.022966351
0000e0 e5 e5 b9 3c 43 8c 56 3d 38 57 36 be 90 3b d7 bd
       0.02269263 0.052379858 -0.17806709 -0.105094075
0000f0 82 ec bd 3d 38 34 03 bd 2f da 22 3e db 41 18 be
       0.09273626 -0.03203222 0.15903543 -0.14868872
000100 b9 4b 79 3d 0f af ef bd 31 ba 12 be 6f 7d af 3d
       0.06086323 -0.11703312 -0.14328839 0.085688464
000110 3a 93 01 3e d3 c7 c7 3c f5 a0 23 be 29 3a 2a be
       0.12653819 0.024387276 -0.15979369 -0.16623749
000120 61 1a 1b 3e 50 e5 93 3d ba 67 11 3d cf b0 e8 3d
       0.15146782 0.07221472 0.035499312 0.113618486
000130 41 5f dd bd d5 25 f8 bc c8 a3 fb bd 68 d3 0a 3d
       -0.10809184 -0.030291477 -0.12287098 0.03389302
000140 9d ad 0e 3e 2c d5 25 3d a5 c1 16 be fd d9 24 3e
       0.13933416 0.0404865 -0.14722307 0.16098781
000150 6b 1e 11 bd 50 b6 90 3d ef f0 e2 bc 19 6c e1 3d
       -0.0354294 0.07066023 -0.027702777 0.11006946
000160 33 1c 28 3d 16 65 3b 3d 44 f4 fc 3c 94 a6 3b bd
       0.041042518 0.0457507 0.030878194 -0.04581316
000170 7e 58 1b 3e c6 29 af 3d c8 59 df bd a7 ff c1 bd
       0.15170476 0.085528895 -0.10905796 -0.0947259
000180 6b b2 53 bd 98 ca 30 3e 98 2b 20 3e 36 06 23 bd
       -0.051683825 0.17264783 0.1564163 -0.039800845
000190 e9 b9 ba bd 3b 60 12 be 6e 04 12 3d 40 c2 19 be
       -0.09117491 -0.14294522 0.035648756 -0.15015507
0001a0 3d ef 24 3e d1 ab 07 3c 34 cb 1e 3e 3c b1 ba bd
       0.16106887 0.00828071 0.15507203 -0.09115836
0001b0 b9 7e d4 3d e6 a5 1f be cb 92 f2 3b 01 8b 80 be
       0.10375733 -0.15590629 0.007402753 -0.25106052
0001c0 42 15 89 3d 61 95 0d be b4 7d 17 be 73 11 0c 3e
       0.06693508 -0.13826515 -0.14794046 0.13678531
0001d0 b9 26 2a be f6 d3 14 be c7 58 ba bd 33 30 ad 3d
       -0.16616334 -0.14533982 -0.09098964 0.08456459
0001e0 db ad 7c bd 27 e0 10 bc ba 54 13 be 11 2c 96 3d
       -0.06168924 -0.008842505 -0.1438779 0.07332624
0001f0 81 73 65 bd 2d ec b3 bd 24 ac 2f be ec 76 37 be
       -0.056018356 -0.08785281 -0.1715551 -0.17916459
000200 ec 98 21 be 89 87 d9 3d 93 8e 93 3b 82 fe dc bd
       -0.15780991 0.106215544 0.00450308 -0.10790731
000210 98 15 cf 3d 2a c8 ba bd af b7 8e 3d 2a e9 18 3e
       0.101115406 -0.091202095 0.069686286 0.14932695
000220 85 55 da bc 0f 63 10 be 48 c8 2c 3e d7 f2 30 be
       -0.026652107 -0.14100288 0.16873276 -0.17280136
000230 27 57 e5 bd 2e 49 c0 3d 35 dd 50 be 44 da cb bd
       -0.111982636 0.09388958 -0.20396884 -0.0995374
000240 fc 2b 48 3d a0 c9 fe 3d 84 17 1b 3c 29 f5 8a bc
       0.04887007 0.12440801 0.009466056 -0.016962605
000250 05 20 90 bd 76 74 93 bd cd 1d 49 bd 5b aa 81 bd
       -0.07037357 -0.071999475 -0.049100686 -0.06331321
000260 3f 25 07 bd da b5 bb bc 5c 8c 0a bd 93 35 83 bd
       -0.032994505 -0.022913862 -0.033825263 -0.06406703
000270 74 c0 10 be ff 4d b3 3d a6 81 13 3b 10 4e 27 be
       -0.14135915 0.08755111 0.0022507696 -0.16338372
000280 2b ef 29 be ae 52 0d 3d a6 4a 78 3d 22 d5 9e bb
       -0.16595142 0.034502678 0.060618065 -0.0048471848
000290 f5 03 66 3d f2 b7 ac bd c6 4a dc 3d 20 7f d8 bd
       0.056156117 -0.08433522 0.107564494 -0.10571122
0002a0 db 95 89 3d c7 88 34 be 5a ce 27 bd ba 0a e4 3d
       0.06718036 -0.17630301 -0.040968277 0.111348584
0002b0 b0 51 f9 3d 58 8c cd bd 08 95 05 bd 0c 99 19 be
       0.12173784 -0.10036534 -0.03261283 -0.14999789
0002c0 9b aa 1b be 31 ce 8a 3d 46 79 b3 bc 49 48 10 3e
       -0.152018 0.06777609 -0.021908414 0.14090075
0002d0 76 54 85 3d bf c7 2e bd 34 7a 4a be 33 84 64 bc
       0.0651025 -0.04267096 -0.1977318 -0.013947534
0002e0 5a 9b f9 3d 54 f3 49 3e f9 c8 1f 3d bb 5b ab bd
       0.12187834 0.19721729 0.03901002 -0.083671056
0002f0 30 e1 25 3e 86 2b 90 3b 99 53 b7 3d 80 f1 df 3c
       0.16199183 0.0043997196 0.08951492 0.027336836
000300 c7 08 0c be 68 3b 8e 3d 69 5e ab bc 9a f7 7b bb
       -0.13675223 0.069449246 -0.020919042 -0.0038447143
000310 5c df f0 bc 7f b8 bb 3b e0 2c 7a 3d 6b cf 19 be
       -0.029403381 0.0057287808 0.061077952 -0.1502053
000320 d1 64 c2 bd 74 ad f6 3d 59 d4 b8 3c e6 ff cc bd
       -0.094918855 0.12044802 0.022562193 -0.10009746
000330 9d 3e 56 3d 7e d7 89 3d e1 e1 d1 bd 16 c1 00 3e
       0.052305806 0.06730555 -0.10248161 0.12573656
000340 66 ec 1a be dd 0c 8f bd 0b e0 e6 bd d2 d5 28 3d
       -0.15129241 -0.06984875 -0.112732016 0.04121954
000350 1f de e1 bb 0d 88 70 bc 12 2e 0d 3e 44 70 7f 3d
       -0.006892934 -0.0146808745 0.13787106 0.062362924
000360 21 c1 5e bd 48 43 9f 3c 10 ca a4 bd b0 0f 89 3d
       -0.0543834 0.019441262 -0.08046353 0.06692445
000370 6d a0 84 3d fb a2 23 bd 37 8b 10 bd 56 5b 04 be
       0.06475911 -0.039950352 -0.035289016 -0.12925467
000380 0f 9e cc bd 95 6a f8 3d 3b 03 30 3d dc 4a 0a be
       -0.09991085 0.12129704 0.04297183 -0.13505119
000390 69 c7 c7 bd c8 39 f7 3c 7f 00 98 bd b1 a0 19 3d
       -0.09754831 0.03017892 -0.074219696 0.037506763
0003a0 ae cb d9 3c 24 53 ed bb 4c ba fb bd 56 44 a3 3d
       0.02658638 -0.007242577 -0.12291393 0.079720184
0003b0 1a dc 53 3d 67 ac a2 3d 2e 15 11 3e 14 2a 59 bd
       0.051723577 0.079430394 0.14168236 -0.053018644
0003c0 ad 48 85 3d 30 ef 78 bd de 85 ca 3d f9 60 45 bd
       0.065080024 -0.060774982 0.098888144 -0.048188183
0003d0 05 4b 17 be d0 87 fa bc d8 c5 c5 3d 1b 5a 5c bb
       -0.14774711 -0.030582339 0.09656876 -0.0033623043
0003e0 3b ab 27 bc e1 d4 6e bd d3 c4 da 3d 01 87 af 3c
       -0.010233696 -0.058308486 0.106820725 0.02142668
0003f0 67 c0 24 3e 31 63 19 3e 28 40 0d be d7 24 1a be
       0.1608902 0.14979245 -0.13794005 -0.15053116

conv1.4.bias f4 [420]
000000 d2 7e 0d bd 1a 5e 22 bc 49 9b 42 3e e7 17 89 3c
       -0.034544773 -0.009910131 0.19004549 0.01673503
000010 4f 0f b8 bd 68 84 1d be 93 21 44 be de da 09 3c
       -0.08987295 -0.1538254 -0.19153433 0.008413998
000020 c4 a4 33 3c d4 2d 08 3c e8 c4 77 3d cf 7b 83 3d
       0.010964576 0.0083117075 0.06049052 0.06420099
000030 f4 c1 06 3e 24 9e 80 3d 82 4f 07 be 47 e9 46 bd
       0.13159925 0.06280163 -0.13213924 -0.048562314
000040 f9 f8 88 be 19 e6 f7 3d 3f 69 34 3e 50 e8 a5 3e
       -0.2675245 0.121044345 0.17618273 0.32403803
000050 74 eb aa bd cf 14 f2 3d 07 a9 7f bc 4f ec 97 bd
       -0.0834569 0.11820375 -0.015604264 -0.07418119
000060 26 eb 29 be 17 28 40 bd be dd 69 bc 59 47 29 be
       -0.16593608 -0.046913233 -0.014274059 -0.16531123
000070 1e 12 ce bd 11 94 af bc e9 a3 88 be 59 66 db bd
       -0.10062049 -0.021432908 -0.26687554 -0.10712881
000080 d9 7a ea bd e8 ee 60 be 6c 77 19 3e 35 40 1c be
       -0.114492126 -0.21966136 0.14986962 -0.15258868
000090 97 f7 6d bd 91 e5 10 be a8 96 73 bd 35 13 ad 3d
       -0.05809745 -0.14150073 -0.05946985 0.08450929
0000a0 02 6e 51 bd b1 70 7c bd f8 1c 97 3d 50 e4 78 bd
       -0.051130302 -0.06163091 0.07378572 -0.06076461
0000b0 f3 65 5e be f0 d5 5b 3d 9f 6e 3a be 7e 22 ca bd
       -0.21718578 0.053670824 -0.18206261 -0.0986986
0000c0 eb 38 fa 3c 44 fe 85 be b8 0f 12 be 94 15 2c be
       0.030544719 -0.26170552 -0.14263809 -0.16805106
0000d0 0e 51 64 3d c8 33 a9 be f6 e4 59 3b c4 5f 13 be
       0.055741362 -0.33047318 0.0033248044 -0.14392
0000e0 42 2a a5 be 58 1a c3 3c 6c 66 99 3e b2 1d fe bb
       -0.32258803 0.023816273 0.29960954 -0.007755005
0000f0 cf 79 31 3e 87 60 72 be 0f 39 4f 3d 0f 95 30 be
       0.17331623 -0.23669635 0.050591525 -0.17244361
000100 1d 1a 59 3e db fa 3b bd f0 75 01 bd 50 af 02 3e
       0.21201368 -0.04589353 -0.031606615 0.12762189
000110 a0 88 47 be 80 7b 87 be 33 a4 25 be 44 df 1e 3e
       -0.19485712 -0.2646141 -0.16175918 0.15514857
000120 17 6f 12 be e7 33 fe bc 43 4e 64 bd d5 99 03 3e
       -0.1430019 -0.031030608 -0.0557387 0.12851651
000130 7c 1a 79 3d 51 a0 fe bd 9c c7 05 be 0a d8 7b 3d
       0.060816273 -0.12432922 -0.13064426 0.061485328
000140 f5 e5 a2 3d e4 c0 b4 bd 6d 25 84 be 84 0a 36 3d
       0.07954017 -0.088258535 -0.25809804 0.044443622
000150 e2 f9 32 3e 9f 23 34 be 6d c3 1b 3e 85 b9 ba 3d
       0.17478135 -0.17591713 0.15211268 0.09117416
000160 35 20 78 be 6f 04 1d be 4b 6b 22 be fa e5 01 3c
       -0.24231036 -0.15333723 -0.15861242 0.007928366
000170 b0 03 06 3c 05 fd 62 3d f6 49 d4 3d 1f 67 55 3e
       0.00817959 0.05541708 0.103656694 0.20840119
000180 01 b2 18 3e bb ed 89 be be 06 2a be a8 9f 59 3c
       0.14911653 -0.26939186 -0.16604134 0.013282694
000190 6b 61 79 3d 35 87 f0 3d 6a be 38 3e 67 4c 9c 3d
       0.06088392 0.11744539 0.18041387 0.0763176
0001a0 0a 09 dc bd d3 a2 99 be 83 f6 30 be 26 ec e4 3b
       -0.107439116 -0.30007038 -0.17281537 0.006986159
0001b0 1b c0 c9 3d 5a 03 0f 3c 94 62 93 be 2f 36 d1 bd
       0.09851094 0.008728826 -0.28786147 -0.10215413
0001c0 a7 b3 9a 3c 3c 05 6c bd 32 29 31 be 02 e9 9f bd
       0.018884493 -0.05762218 -0.17300871 -0.078081146
0001d0 94 ae 0f bd 2a d3 17 bd 21 43 ab bd 57 8d 36 3e
       -0.0350786 -0.037066616 -0.08362413 0.17827354
0001e0 59 d5 2c bd eb 37 bc bd 0a 4d 88 be 36 2f 48 be
       -0.04219565 -0.09190353 -0.26621276 -0.1954926
0001f0 a8 41 42 be fa f5 08 be 7f db 9f bb dd 75 06 3e
       -0.18970358 -0.13375083 -0.004878461 0.13130899
000200 aa 39 70 bd 4f d6 b9 bd c8 1e a1 3c 0e b0 89 3d
       -0.058648743 -0.09074079 0.019667998 0.06723033
000210 09 33 27 be 79 54 e3 3d 87 c4 7e be 33 a2 91 3d
       -0.16328062 0.11100096 -0.24879657 0.07111015
000220 5b 24 6f 3d 59 10 c0 bd 4e 99 47 be bf 0b 73 bc
       0.05838428 -0.09378118 -0.19492075 -0.014834343
000230 e8 2b 98 3d e0 2a aa bd 7e 83 e0 3d 1f 18 ff bc
       0.074302495 -0.08308959 0.1096258 -0.031139432
000240 3c 2f 03 be c3 80 7e bb 83 cf 04 3e 7f 73 20 be
       -0.12810987 -0.0038834072 0.12969784 -0.15669058
000250 28 8e 15 bd 11 a9 04 3e 3b 6e ee bd 05 c8 1b 3e
       -0.036512524 0.12955119 -0.116421185 0.1521302
000260 0e fd af b9 03 de 44 be 56 03 c7 3d c4 c6 4e 3d
       -0.00033567142 -0.19225316 0.09717433 0.050482526
000270 0e ba e2 3d 16 60 4b bd 3a 63 1e 3e c9 e1 62 3c
       0.11070643 -0.04965218 0.1546754 0.013847777
000280 93 9f 08 be ce 0e 92 bd a6 6d 53 3e 7e 28 06 be
       -0.13342123 -0.0713173 0.20647296 -0.13101384
000290 81 ed 1a be d2 66 a7 3d db f7 02 be 37 0f ab 3b
       -0.15129663 0.08173908 -0.12789862 0.0052203196
0002a0 89 7a 15 3e 30 b7 ea bb 01 4e e6 bd 0f 2f 05 bb
       0.14597525 -0.007162951 -0.11245347 -0.0020322239
0002b0 f4 65 b4 3d f2 28 6b 3e cd 73 49 be 1d ac a8 3d
       0.088085085 0.22964838 -0.1967308 0.08235953
0002c0 41 62 d0 bd 89 ca b0 bd 77 2b 2d bd 2f 65 33 be
       -0.101749904 -0.086323805 -0.04227778 -0.17519067
0002d0 98 b7 c3 3d 8c b7 b2 bd 4c b5 c2 3d 9f 1c 4c bd
       0.09556502 -0.08726415 0.09507236 -0.049831983
0002e0 d5 39 2d bc 25 76 9e 3e 50 34 ea 3d 8f 2d 35 3e
       -0.01057287 0.30949512 0.11435759 0.1769316
0002f0 10 9b ec 3d 69 4d cb 3d 49 89 17 3d 9e 1d bd 3c
       0.11553013 0.09926874 0.03699616 0.023085412
000300 9d a3 d8 bd cb 24 1c 3c ed e2 04 be 3f 70 2f 3e
       -0.10578082 0.0095302565 -0.1297719 0.17132662
000310 2e ac e8 bc f2 e6 03 3c 4d bd 4a 3d 22 fd 02 bd
       -0.028402414 0.008050667 0.049496938 -0.031979688
000320 23 de a9 3d 6e 34 63 3d 1e 2c c4 bc 13 70 15 be
       0.08294322 0.055469923 -0.023946818 -0.14593534
000330 16 55 12 bd be c5 10 bd c2 82 40 3e a8 44 60 3d
       -0.035725676 -0.03534483 0.1879988 0.054752976
000340 7b 41 08 3d 55 73 1a be fd 8b bd 3d c2 a6 30 be
       0.033265572 -0.15083058 0.09255216 -0.17251113
000350 b2 e7 a5 3d 31 28 29 3e ab 69 69 3d 7e 8e 33 bd
       0.08100833 0.16519238 0.05698554 -0.043837063
000360 24 6d aa 3c 85 ac 01 be ae 70 08 3e 3a 7b a1 bd
       0.020803995 -0.12663467 0.13324234 -0.07884832
000370 cc bf fe bd b1 0c 41 3d fb eb 60 3d 8c 3c 15 3e
       -0.12438926 0.047131244 0.05491255 0.14573878
000380 84 98 a2 3d 32 ce 82 be 17 78 8e 3d 5b 80 23 be
       0.07939246 -0.2554794 0.06956499 -0.15966932
000390 e7 14 ba bd 96 42 35 be 33 ae c0 bc da ed da 3d
       -0.09086018 -0.17701182 -0.023520565 0.10689898
0003a0 47 93 4d be 1b 26 52 3d a4 3a 23 be 41 6f 9d 3e
       -0.20075713 0.05130587 -0.15940338 0.30748942
0003b0 91 4a ce 3d 52 e6 71 3e f5 43 30 3d a7 aa 01 3e
       0.10072816 0.23623016 0.04303356 0.12662755
0003c0 e6 39 a5 3c f3 9b 2f be 8c 80 d5 bd f9 dd 8d 3d
       0.02016921 -0.17149334 -0.10424909 0.069271035
0003d0 e6 3c 52 3e 12 60 33 3d dc 33 4f be c8 cb e7 bd
       0.20531043 0.04379279 -0.20234627 -0.11318165
0003e0 bd 36 f2 3d 31 12 2d be 6f 15 6c bd 53 fe 3c be
       0.11826847 -0.1690147 -0.05763763 -0.18456392
0003f0 75 df 31 be b4 e1 37 3e b3 87 17 bd 4e 39 a0 3d
       -0.17370398 0.17957193 -0.036994647 0.0782343

conv1.5.weight f4 [420]
000000 3c cd 73 3f 84 02 7b 3f 9a 27 74 3f df 1a 7c 3f
       0.9523504 0.98050714 0.9537293 0.984785
000010 c6 62 78 3f 06 2c 76 3f a4 e4 76 3f 60 d7 73 3f
       0.97025716 0.96160924 0.9644263 0.9525051
000020 df 6f 79 3f 37 ac 77 3f 14 7d 77 3f 96 f6 73 3f
       0.97436327 0.96747154 0.9667523 0.95298135
000030 5b 16 7f 3f 77 4e 7a 3f 71 6e 78 3f b7 39 79 3f
       0.99643487 0.9777598 0.9704352 0.9735369
000040 68 79 75 3f ed 7f 75 3f a4 0b 7d 3f fe b3 75 3f
       0.95888376 0.95898324 0.9884589 0.9597777
000050 18 5e 7a 3f b5 73 80 3f 15 c9 7b 3f f1 eb 76 3f
       0.97799826 1.0035311 0.983537 0.9645377
000060 25 b8 78 3f 27 11 7f 3f 8e 04 78 3f d4 8d 73 3f
       0.9715598 0.9963555 0.9688195 0.9513829
000070 63 fb 79 3f 47 d7 75 3f a9 01 78 3f 66 b5 74 3f
       0.9764921 0.9603161 0.96877533 0.9558929
000080 23 10 7b 3f b4 ae 79 3f ac 78 8c 3f e7 f9 78 3f
       0.980715 0.975322 1.0974326 0.9725632
000090 92 c9 75 3f 92 22 76 3f 48 5e 79 3f 45 01 74 3f
       0.96010697 0.961465 0.97409487 0.9531444
0000a0 e1 27 7f 3f 7f 60 79 3f 74 96 74 3f a8 05 7b 3f
       0.99670225 0.97412866 0.95542073 0.98055506
0000b0 01 ab 76 3f 58 6b 73 3f 14 b8 75 3f b8 c1 7d 3f
       0.9635468 0.9508567 0.95984006 0.99123716
0000c0 2b 68 7a 3f ec 5c 82 3f 32 c1 77 3f 35 e3 7f 3f
       0.978152 1.0184608 0.9677917 0.99956065
0000d0 65 3e 7a 3f ea b7 80 3f aa 97 77 3f b7 31 7e 3f
       0.97751456 1.0056126 0.96715796 0.9929461
0000e0 d4 34 80 3f 7b 79 7a 3f 74 14 76 3f a2 a2 81 3f
       1.0016122 0.97841614 0.9612496 1.0127757
0000f0 6c f3 75 3f b7 26 81 3f 3e 4d 76 3f 4f 57 79 3f
       0.9607456 1.008994 0.9621161 0.9739885
000100 0f 0d 75 3f 09 5a 76 3f 18 a6 7c 3f 13 63 72 3f
       0.9572305 0.9623113 0.9869094 0.94682425
000110 6b 24 76 3f ec 7b 81 3f 4c 45 7d 3f 9c 97 75 3f
       0.9614932 1.0115943 0.98933864 0.9593446
000120 57 21 7d 3f bc 4a 76 3f ec d1 77 3f ef 14 79 3f
       0.98879 0.96207786 0.9680469 0.9729757
000130 cf 98 7f 3f 04 80 74 3f 0c 7f 75 3f e5 03 7c 3f
       0.9984254 0.95507836 0.95896983 0.9844344
000140 51 18 76 3f 29 69 77 3f 24 1c 81 3f eb 3a 82 3f
       0.96130854 0.96644837 1.0086713 1.017423
000150 93 bb 84 3f df 47 82 3f 73 b6 79 3f c0 8f 78 3f
       1.0369743 1.0178183 0.9754402 0.97094345
000160 a6 6e 75 3f 48 08 76 3f dc ec 75 3f de 73 77 3f
       0.9587196 0.96106386 0.96064544 0.96661174
000170 a5 67 7d 3f de 7a 78 3f 8c 52 81 3f 3a 04 74 3f
       0.98986274 0.9706248 1.0103316 0.9531895
000180 17 69 7a 3f 22 e4 7b 3f 58 ab 73 3f 57 9b 75 3f
       0.97816604 0.9839498 0.95183325 0.95940155
000190 73 31 76 3f 57 57 82 3f 50 f7 77 3f e2 d6 73 3f
       0.96169204 1.0182904 0.96861744 0.9524976
0001a0 9c be 77 3f d8 09 80 3f 84 0e 79 3f 15 34 78 3f
       0.9677522 1.0003004 0.97287774 0.9695447
0001b0 75 90 75 3f 71 3a 75 3f 72 d4 7e 3f 23 9f 82 3f
       0.9592355 0.957923 0.99542916 1.0204815
0001c0 ac 43 74 3f 39 e9 75 3f e0 40 7d 3f c4 71 77 3f
       0.9541576 0.96058995 0.98927116 0.9665797
0001d0 b3 13 76 3f 16 d6 75 3f b7 e1 80 3f f2 f8 84 3f
       0.9612381 0.96029794 1.0068883 1.0388472
0001e0 68 81 76 3f aa 52 78 3f e5 9a 79 3f 44 42 82 3f
       0.9629121 0.97001135 0.97501975 1.0176473
0001f0 4a e5 7e 3f 0f 4a 79 3f ed 7b 81 3f 72 51 7e 3f
       0.9956862 0.9737863 1.0115944 0.99343026
000200 8a 96 7c 3f 13 01 7c 3f f3 38 78 3f 83 5c 74 3f
       0.98667204 0.9843914 0.969619 0.9545366
000210 ae 51 76 3f 99 56 74 3f f0 83 80 3f 25 55 79 3f
       0.96218383 0.9544464 1.0040264 0.97395545
000220 c9 83 7c 3f 5e 39 74 3f 6a 3f 75 3f e5 67 7c 3f
       0.9863859 0.95400035 0.9579989 0.9859603
000230 c8 2b 75 3f f6 d0 79 3f d9 6d 79 3f d2 70 77 3f
       0.9576993 0.97584474 0.9743324 0.96656525
000240 1b 40 78 3f 56 cc 74 3f 39 f8 76 3f 68 8a 80 3f
       0.9697282 0.9562429 0.9647251 1.0042238
000250 b9 cd 7c 3f 6d 9a 7a 3f 11 4d 79 3f 22 17 7b 3f
       0.9875141 0.97891885 0.9738322 0.9808217
000260 37 60 7a 3f 62 01 81 3f df 51 7e 3f 71 84 80 3f
       0.9780306 1.0078547 0.99343675 1.0040418
000270 82 8b 82 3f 03 6a 72 3f 6d c9 76 3f 4e ab 78 3f
       1.0198824 0.9469301 0.964011 0.9713639
000280 ca 9a 77 3f 00 3a 75 3f d3 c1 74 3f 75 da 7c 3f
       0.96720564 0.95791626 0.9560825 0.9877084
000290 c2 f1 78 3f 13 2f 7a 3f 75 4a 77 3f 50 db 77 3f
       0.97243893 0.9772808 0.9659799 0.9681902
0002a0 a3 aa 78 3f 0f 4f 78 3f d2 9d 76 3f f5 48 7a 3f
       0.9713537 0.96995634 0.96334565 0.97767574
0002b0 f1 18 77 3f 7c f7 74 3f 66 20 76 3f 81 27 7b 3f
       0.9652243 0.9569013 0.96143186 0.98107153
0002c0 04 fa 79 3f 8e 9c 74 3f 45 83 87 3f e6 11 77 3f
       0.9764712 0.95551383 1.0586935 0.96511686
0002d0 7f 9c 76 3f 85 02 7c 3f 00 61 77 3f ba ac 74 3f
       0.96332544 0.98441344 0.96632385 0.9557606
0002e0 a9 34 7c 3f fd b5 77 3f 5d de 75 3f 10 83 72 3f
       0.98517853 0.9676207 0.96042424 0.94731236
0002f0 17 08 76 3f d0 5f 75 3f 82 99 75 3f 85 e0 7a 3f
       0.96106094 0.95849323 0.9593736 0.9799884
000300 0d da 80 3f 55 d9 75 3f 2d e3 80 3f 8d db 74 3f
       1.0066544 0.9603475 1.0069329 0.9564751
000310 84 c8 7c 3f 8d 70 7a 3f 4c 29 77 3f 65 1f 74 3f
       0.9874346 0.9782799 0.9654739 0.95360404
000320 1c 63 7d 3f e4 e7 7e 3f 29 28 73 3f a4 ee 78 3f
       0.98979354 0.99572587 0.94983155 0.97239137
000330 8c 74 76 3f cb 06 75 3f 3e eb 79 3f 24 fb 76 3f
       0.96271586 0.9571349 0.97624576 0.9647696
000340 66 d3 72 3f 00 2d 77 3f 63 c3 76 3f 51 a9 7a 3f
       0.9485382 0.9655304 0.96391886 0.97914606
000350 0b fb 77 3f 60 dc 7b 3f 9b 35 7f 3f a2 65 7b 3f
       0.96867436 0.9838314 0.9969117 0.98201954
000360 0f ae 76 3f b2 7e 78 3f f5 35 73 3f a6 fa 7e 3f
       0.9635934 0.9706832 0.95004207 0.9960121
000370 f7 36 7c 3f 76 2e 74 3f a8 27 71 3f 50 e3 76 3f
       0.9852137 0.95383394 0.94201136 0.964406
000380 02 4d 7e 3f 92 65 77 3f 55 8b 79 3f 4d 57 78 3f
       0.99336255 0.9663936 0.9747823 0.9700821
000390 1b be 77 3f b7 79 81 3f d3 d2 77 3f 22 88 76 3f
       0.9677445 1.011527 0.9680607 0.9630147
0003a0 5c fd 77 3f 7f c4 79 3f f8 43 75 3f 65 45 78 3f
       0.9687097 0.97565454 0.9580684 0.9698089
0003b0 33 c8 76 3f 4b 6e 75 3f 85 6e 74 3f 93 58 75 3f
       0.9639923 0.9587142 0.9548114 0.9583828
0003c0 7b b9 7c 3f b2 de 77 3f 44 8c 76 3f f7 54 77 3f
       0.9872052 0.9682418 0.9630778 0.9661402
0003d0 dd 79 86 3f 33 84 76 3f cd 72 7a 3f 0b dd 7c 3f
       1.050594 0.9629547 0.9783142 0.98774785
0003e0 96 4b 81 3f 01 b2 80 3f 21 35 7c 3f c1 55 7a 3f
       1.0101192 1.0054322 0.9851857 0.977871
0003f0 f0 e8 7c 3f ef a6 76 3f 25 0d 79 3f 34 e6 76 3f
       0.98792934 0.9634847 0.9728568 0.9644501

conv1.5.bias f4 [420]
000000 ca 39 b9 3c 62 1a aa 3c 79 de 18 3d ac ac 01 bd
       0.022610564 0.020764533 0.03732154 -0.031658813
000010 1c 90 95 bd 2e 75 b9 bd 49 ff 93 3c 40 0e 10 3c
       -0.07302877 -0.090555534 0.018066065 0.00879246
000020 e2 7d be 3b 2a e9 c9 bc 71 f4 2f 3c 4d 60 29 3d
       0.0058133462 -0.024647314 0.010739432 0.041351605
000030 69 08 f3 bc d1 0a 8e 3c 9b 6a 34 bd 17 5b bf bc
       -0.029667096 0.017339142 -0.04404698 -0.023358865
000040 31 02 6c bd 59 65 83 bc 4a d0 7f bc 24 65 01 3e
       -0.057619277 -0.016039537 -0.015613625 0.12636238
000050 7f 8b 5a bc 3b 0e 89 bc be a2 bb bd 9f 4b e0 3c
       -0.0133389225 -0.016730418 -0.091619 0.027379809
000060 db 0d c0 bc 4c 6f 08 be a2 5e 6c bd 6c d8 2e bc
       -0.023444107 -0.13323706 -0.057707436 -0.010671716
000070 40 7f dc bd 9b 59 1d bd 42 dd a2 bd 34 cc 9d 3c
       -0.107664585 -0.038415533 -0.07952358 0.01926241
000080 9b da db bc aa 4d a4 bd 0b 63 08 3e a1 ca 5a bd
       -0.026837638 -0.08022626 0.13319032 -0.0534159
000090 70 87 74 bc a8 d7 ef bc 1a f3 7e bd 49 9b ca bc
       -0.014924869 -0.029277638 -0.06224356 -0.024732249
0000a0 1a e3 43 bd c4 25 f6 3b c8 b0 be b9 64 96 94 3a
       -0.047824003 0.007511826 -0.00036371336 0.0011336324
0000b0 27 65 3c bd 68 19 02 bb 11 23 73 bd 66 00 e2 bc
       -0.045994904 -0.001985157 -0.059359614 -0.02758808
0000c0 70 f1 e7 3a 43 49 30 bd 97 b9 75 3c 0c b3 da bd
       0.0017695855 -0.043038618 0.014997861 -0.10678682
0000d0 cd 20 36 bc 04 d3 e6 bd f2 3c 29 bd b7 8a c9 bd
       -0.011116219 -0.11270717 -0.041317888 -0.09840911
0000e0 c3 ac 89 be c4 a4 c9 bd 0d 55 05 3e 8f b7 a6 3d
       -0.2688962 -0.0984588 0.13020726 0.0814048
0000f0 87 20 ce 3c b1 26 ec bd d5 8e e2 3c 03 aa 55 bc
       0.025161995 -0.11530817 0.027655998 -0.013041022
000100 d6 83 ea 3c 15 cd bf bc 9d 28 be bd fc a9 e5 3c
       0.028627317 -0.02341322 -0.0928509 0.028035156
000110 ed d5 de bc 05 a2 c4 bd cc 51 5a bd 95 a4 04 3d
       -0.027201617 -0.09601215 -0.053300664 0.03238352
000120 77 d9 1a bd b5 a3 e5 bc 76 83 d1 bc 4d 9f 0f bd
       -0.037805047 -0.028032163 -0.02557538 -0.03506403
000130 83 68 2b bd 3b fe 2b bd 9a 68 3b bb 79 8e 95 3d
       -0.041847717 -0.0419905 -0.0028596283 0.07302565
000140 df 75 71 3d f9 cd e4 bb f1 d0 52 bd 9d 8f 21 3d
       0.0589503 -0.0069825617 -0.051468793 0.0394436
000150 2c 9f 74 3d 1e d6 9e bd a4 b3 ba 3b 27 be 18 3c
       0.05972211 -0.07755683 0.0056976844 0.00932268
000160 d1 fb 62 bd 03 d4 8a bd d6 cb 8e bc 6d 5f 84 bd
       -0.055415932 -0.06778719 -0.01743118 -0.064635135
000170 9e 6c 8d bd be a8 39 3d b0 ec 3c 3d 78 ac 95 ba
       -0.06905483 0.04532694 0.04612416 -0.0011419198
000180 56 7a 37 3d d8 7e 02 bd fe 91 81 3c 5f e2 9b 3b
       0.044794403 -0.03185925 0.015816685 0.00475721
000190 6c a9 22 3d 2d 51 ca 3d 53 2e 8c bb dd 4c 46 bc
       0.039712355 0.09878764 -0.004277983 -0.012103287
0001a0 ba f6 5a bd 1b 91 2e be 11 71 6d bd cd d5 26 bd
       -0.053457953 -0.17047541 -0.057969157 -0.04073124
0001b0 38 4a 5b 3b f6 73 a5 3d ec b7 f4 bd 21 e3 08 3d
       0.0033460986 0.080787584 -0.11949143 0.033419732
0001c0 8f 5e fe 3c 98 87 cd bc b3 ba c8 bd 35 35 da 3c
       0.031050948 -0.02508907 -0.09801235 0.0266367
0001d0 b4 99 7c 3b 34 34 07 bb 8c a6 b2 bd 07 79 07 3e
       0.0038543763 -0.002063048 -0.087231725 0.13229762
0001e0 9e 1d 87 bd 7d 3f 56 bd 1a 43 83 bd af 4c b2 bd
       -0.06597446 -0.05230664 -0.06409283 -0.087060325
0001f0 e5 0c a1 bd 57 51 c8 bc 74 20 84 bd 35 da 1a 3d
       -0.078637876 -0.024452848 -0.064515024 0.037805755
000200 aa ae 92 bd c8 85 a3 bd 4c b3 a9 bc 2c 5c e1 bb
       -0.07162221 -0.07984501 -0.020715378 -0.006877443
000210 d7 46 14 bd c4 37 55 3d 9e 4d d4 bd c9 43 81 3b
       -0.03620037 0.052055135 -0.10366367 0.003944848
000220 0d a5 66 bd 0f 0e 15 bc 7c da a6 bc bc 03 cd 3c
       -0.05630975 -0.00909759 -0.020367853 0.025026195
000230 93 70 87 bc 61 5f a1 bd 0e 0c 3f bd d4 5f 13 bc
       -0.016533172 -0.0787952 -0.046642356 -0.008995015
000240 27 b9 a0 3c 13 7f 61 3b e9 04 30 3c dc a2 b4 bd
       0.019619538 0.0034408018 0.010743358 -0.088201255
000250 7f c3 c2 3d ac 48 21 bd 98 6c 14 bd 32 4d 9b bb
       0.09509944 -0.039375946 -0.036236376 -0.004739427
000260 c4 79 3d 3c ee 8d be bd 74 da 28 bc fe e0 3b bd
       0.011564676 -0.09304415 -0.0103059895 -0.045868866
000270 0d c8 76 bc 20 f3 dc 3c 53 e1 37 3d e0 b8 c8 bd
       -0.015062344 0.0269714 0.04489262 -0.09800887
000280 4c 58 3a bc 34 66 06 bd e7 e0 95 3d ff b0 47 be
       -0.011373591 -0.032812312 0.07318287 -0.19501112
000290 b0 04 a8 bd f0 8b 37 bd e2 d9 b8 3b 60 59 b8 bc
       -0.08204019 -0.04481119 0.005641208 -0.022503555
0002a0 4e b3 d9 bc 0d 2f 11 be 34 98 c0 3c e3 3b 22 3b
       -0.026574757 -0.14178105 0.023510076 0.0024754934
0002b0 0e c9 c8 3c 4d 82 4a 3d 0e be 30 bd 0d ea 0d bc
       0.024509933 0.04944067 -0.04315 -0.008661759
0002c0 18 cf cb bc 50 ed 19 3c d3 de 99 3d 7d 5b c3 ba
       -0.024879023 0.009394959 0.075132035 -0.0014904585
0002d0 00 e8 1a bc 4b 7d eb bd fe 16 8d 3d d5 52 0b 38
       -0.009454727 -0.11498507 0.06889151 3.3217326e-05
0002e0 1b df 4b bd 5e e9 5d 3d 2d 40 4f 3c b5 a2 9e 3c
       -0.049773317 0.054177634 0.012649578 0.019364694
0002f0 85 96 e0 3d 70 04 4a 3d b4 46 20 bc f9 93 ba bb
       0.10966209 0.04932064 -0.009782482 -0.0056939092
000300 9c bf ee bd 33 1c f1 bc 37 c4 cf bd 1e 24 8a 3d
       -0.1165764 -0.029432392 -0.10144847 0.0674517
000310 5a 95 0a bd ed f0 d7 bd db 28 0f bd 32 93 c9 bc
       -0.03383384 -0.10544 -0.034951072 -0.024606321
000320 84 3e ce bc 24 a8 f4 3b af 99 45 3d 43 a0 f5 bc
       -0.025176294 0.007466333 0.048242267 -0.029983645
000330 8b 3b 82 3d a9 b1 82 bd 83 48 e2 3b b7 88 bb bc
       0.06359013 -0.06381542 0.0069056167 -0.02289234
000340 20 f6 22 3c 5d 74 19 bd a2 6a 1a bd 3c 36 37 bc
       0.009946376 -0.03746449 -0.03769935 -0.011182364
000350 48 67 d5 bc 5d 05 9d 3d 62 aa f8 bc 98 b5 e5 bc
       -0.026050225 0.076670386 -0.030354682 -0.028040692
000360 77 02 ad bd 91 42 0e 3c 6a bb 3b 3d cf f8 05 bd
       -0.08447736 0.008682863 0.04583303 -0.032707985
000370 6c cc 5b bc 9a ef 5a 3d ef 92 dd bc ef e2 8e 3b
       -0.013415437 0.053451158 -0.027047602 0.0043605487
000380 66 77 61 bc af ad 81 bd b9 7b 93 bd 77 a7 23 3c
       -0.013761377 -0.06331956 -0.072013326 0.009988657
000390 d2 43 ad bc 58 e4 89 bd 5c 6b 1b 3d 69 0a 30 bc
       -0.021150503 -0.06733006 0.037944183 -0.0107446695
0003a0 0a d4 93 bd 03 f8 a8 3c a9 3f b1 bc aa 18 b7 3d
       -0.072181776 0.020626074 -0.0216368 0.08940251
0003b0 7c a7 ca bc da 7a b7 3c 17 b8 c2 3b db 2a ad bb
       -0.024738066 0.022397447 0.0059423554 -0.00528465
0003c0 6f 15 29 bd 18 10 9f 3c d0 6d 05 bc be 45 5f 3c
       -0.041280206 0.019416854 -0.008143857 0.013627468
0003d0 ff d3 9f 3d f3 c6 97 bc 0b 91 81 bd 41 6c 8a bc
       0.07804107 -0.018527484 -0.06326493 -0.016897323
0003e0 36 51 53 bc 3e b1 7e bd 89 a1 38 3c 97 94 45 3c
       -0.01289778 -0.06218075 0.011268982 0.012059352
0003f0 e7 24 3b be 44 ff 1f 3d c1 b8 d1 3c 12 d2 d6 bb
       -0.18275796 0.0390618 0.025600793 -0.006555804

conv1.5.running_mean f4 [420]
000000 f2 d5 80 3c 20 19 00 be bf a9 28 3e c3 6c e6 bc
       0.015727017 -0.12509584 0.16471003 -0.028128034
000010 21 a1 ca bd 78 4b 4e bd 0e 09 1f be 2b d4 94 3c
       -0.09894014 -0.05036494 -0.15530798 0.018167576
000020 8e b3 2d bd 40 26 ec 3d 62 36 b4 bd cd 8f 1d 3d
       -0.042407565 0.11530733 -0.08799435 0.038467217
000030 53 89 3b 3e 7d 4d ce bd e5 15 1e be 3a 5a 77 bc
       0.18314104 -0.100733735 -0.1543804 -0.015097195
000040 e6 72 59 be 57 fe 4c 3e 37 14 63 3d 6e 65 1f 3e
       -0.21235237 0.20018898 0.0554392 0.15566036
000050 3e 48 09 3d f7 df ca 3d d0 60 5a 3d 4e 10 54 bd
       0.03351616 0.09905999 0.053314984 -0.05177336
000060 29 4c 40 be 58 03 6f 3e 0c 1b af bd d1 6a e7 bb
       -0.18779053 0.2334112 -0.08550081 -0.007062294
000070 ff b1 96 bb 5b 91 26 bd 1a e6 0d bd 97 17 b9 bd
       -0.0045988555 -0.040665966 -0.03464327 -0.090377025
000080 01 98 b6 bd 41 f4 5c bd 85 6d 61 be 74 0f 0c be
       -0.08915711 -0.053943876 -0.22014435 -0.1367777
000090 42 c7 2a bd d0 0e dd bd 16 a0 af 3c c6 f9 56 3e
       -0.041693933 -0.10793841 0.02143864 0.20993719
0000a0 09 77 fa b8 d2 cf 55 be 4d 91 c1 bc 16 0a 1b be
       -0.00011943101 -0.20880058 -0.023628855 -0.15140566
0000b0 1e 8f af bd ee b5 30 bd 1f 5f e6 bd 2e dc b3 3c
       -0.08572219 -0.04314225 -0.11248612 0.021955576
0000c0 88 28 41 bd d5 73 6f 3d d7 2b 8a bd 08 f4 b3 3a
       -0.047157794 0.058460075 -0.06746643 0.0013729343
0000d0 87 c6 94 3d 6c 16 67 be dd 3d 98 3d 1d 90 69 3d
       0.072644286 -0.22567147 0.074336745 0.057022203
0000e0 07 e7 be bd 83 b5 62 3d 65 25 09 3e d2 2f 76 be
       -0.09321409 0.055348884 0.13393171 -0.2404168
0000f0 90 26 09 3e c6 9c 10 be 92 0c 92 bc 8b e8 6d bd
       0.13393617 -0.14122304 -0.01782826 -0.0580831
000100 3b 26 02 bc f9 e8 59 3d f0 f1 4f 3e 14 20 0f 3e
       -0.007943685 0.053200696 0.20307136 0.1397708
000110 32 9c 9e 3c 5b ec 72 bd 8e 8e 74 bd 04 04 ed 3d
       0.01936159 -0.059307437 -0.059706263 0.115730315
000120 38 41 b9 bd f2 ac 90 bd e6 55 7c bb d8 6b ed 3d
       -0.090456426 -0.07064237 -0.0038503348 0.11592835
000130 25 40 eb 3d 0b 64 46 be 57 fd 17 3d 51 dc a4 bd
       0.11486844 -0.19374101 0.037106838 -0.080498345
000140 26 ca 70 3c 59 25 60 be 07 fb 63 3c eb 4e c0 bd
       0.014696633 -0.21889247 0.01391483 -0.093900524
000150 f9 64 06 be 38 aa 81 3c d4 fe 4f bc 52 40 9e bd
       -0.13124456 0.015828237 -0.012695033 -0.07727112
000160 d3 4d ef bd 4a e2 1a 3c 56 2a 5a be 5d 73 ac 3d
       -0.11684766 0.009453366 -0.21305212 0.08420441
000170 11 0c f1 3d 0b 2a 17 bd 58 e4 bf bd 39 2a 7d 3c
       0.117698796 -0.03690533 -0.09369725 0.015451961
000180 fd 01 a6 bc 22 f6 c1 bd 39 f1 83 bd 80 6d 2e bd
       -0.02026462 -0.09470774 -0.06442494 -0.042584896
000190 5b ab fc bd 14 27 2f be 6f 96 05 3e fb f2 91 3e
       -0.12337371 -0.17104751 0.13045667 0.28505692
0001a0 19 68 08 be a1 da 55 be db 72 bd bd 0e 05 de 3d
       -0.1332096 -0.20884182 -0.092504226 0.10840808
0001b0 38 18 57 3e b4 50 0e be 75 dc 35 bc 32 96 66 be
       0.21005332 -0.13897973 -0.011099924 -0.22518232
0001c0 b6 88 ee bb ef 72 6c 3d bf d2 24 bd 32 ec 15 be
       -0.007279481 0.057726797 -0.040240046 -0.14640883
0001d0 ff 44 1d 3d 7f 6b d6 3d c0 73 23 3d f3 fc 4c be
       0.038395878 0.10469722 0.03990531 -0.20018367
0001e0 48 3b 13 3e 44 4e 42 be f5 b4 e0 bd 0e 8d ee bd
       0.14378083 -0.18975168 -0.10972015 -0.11647998
0001f0 2f 6a 8b 3d 72 80 72 be aa 69 83 3d c9 06 4d bd
       0.06807362 -0.2368181 0.06416638 -0.0500553
000200 b0 9a 28 3d 82 16 3d bc 5f 97 54 3d f5 44 bd 3d
       0.041163146 -0.011541011 0.05190217 0.09241668
000210 fb c1 22 be 81 49 7f 3d eb 44 bb bd f9 bb 4c bd
       -0.1589431 0.06232596 -0.091440044 -0.049983952
000220 5f a5 68 3e 9b 74 29 be 01 9a 7f 3d 66 dd 89 be
       0.22719334 -0.16548388 0.06240273 -0.26926726
000230 1e 75 71 3e aa 12 42 bd bc be 17 3e b4 ef 7f bd
       0.23579833 -0.04738108 0.14818853 -0.062484458
000240 64 90 23 be e8 3d b3 3c 6b ce 35 3e ef 9a 35 3d
       -0.1597305 0.021880105 0.17754523 0.04433721
000250 55 d7 5f be a8 d0 2a 3e fc 1a 87 bd 8e 24 14 3d
       -0.21859486 0.16681159 -0.06596944 0.036167674
000260 3a 09 18 bd 43 2a 20 bd ed 0a c5 3d ba bd 97 3d
       -0.037118174 -0.039102804 0.096212246 0.07409234
000270 20 67 dc 3d 98 5d 14 bd 2a d7 3d 3e 2e f9 2a 3e
       0.10761857 -0.03622207 0.1853911 0.16696617
000280 e1 26 99 3c e7 b7 54 3d 30 d5 ac 3d 81 b2 4e 3d
       0.018695297 0.051933195 0.084391 0.050463203
000290 e6 0d be bc dc 53 fc 3d a9 41 09 bd 15 1c 73 3c
       -0.023199987 0.123206824 -0.033509884 0.014838238
0002a0 d9 46 0d 3e 61 eb 3e 3e d0 68 0c be 4b 52 50 be
       0.13796557 0.18644477 -0.13711858 -0.20343892
0002b0 23 e1 a5 3b c1 62 39 3e 32 e5 58 bd 8e 52 7e ba
       0.005062239 0.18104078 -0.052952953 -0.00097016327
0002c0 91 8a fc bd ff 6a e8 bd 2b d9 8f be d8 92 bd 3d
       -0.12331117 -0.11348533 -0.28095374 0.09256524
0002d0 90 b9 8c 3e e4 25 23 3d 96 c9 4e be 53 90 02 be
       0.27485323 0.039831057 -0.20194086 -0.12750368
0002e0 e3 85 94 bd 01 d0 09 3e 8d e3 33 3e f1 1f 8b 3e
       -0.07252099 0.13458253 0.17567272 0.27172807
0002f0 c7 a5 a0 3b 7a 16 ae 3d 29 87 2c 3e 63 8b 8c bb
       0.0049025747 0.08500381 0.16848435 -0.004289077
000300 3b 2b 05 bc 54 ad 9f 3d 65 b7 cd 3d ff 93 9e bc
       -0.008127983 0.077967316 0.10044745 -0.01935768
000310 83 03 e6 3d aa d9 17 3e a5 aa 0c bd 44 bd df 3c
       0.112311386 0.14829126 -0.034342427 0.027311929
000320 9d b8 9d 3d 38 ca e3 bc 6b 23 09 bd 65 cd 5e bd
       0.07701228 -0.027806386 -0.033481043 -0.0543951
000330 25 e0 3b bd 6d e9 df ba 6f 47 83 3e 49 59 b2 3b
       -0.045868058 -0.0017083116 0.25640437 0.0054427725
000340 a6 83 eb 3d d5 99 f9 bd 4c f4 49 3d 63 73 46 be
       0.11499719 -0.12187544 0.049305245 -0.19379954
000350 79 7a 94 3c d5 45 f1 37 16 fa bc 3d aa eb 42 bd
       0.018124806 2.8761957e-05 0.092273876 -0.047588028
000360 d5 5a 34 bc 95 9d 9e bd 47 2c 56 3d 2c 44 ed bd
       -0.011007984 -0.077449 0.05228832 -0.115852684
000370 5c d9 1a be c4 55 09 bd 30 5c 14 ba 82 0e 43 3d
       -0.15121979 -0.033529058 -0.0005659489 0.047621258
000380 44 eb 3e 3d 6e d4 3b be 19 f1 54 3e 81 b3 2d be
       0.046611086 -0.18342754 0.20795096 -0.16963007
000390 82 2c 01 3d 48 2f ca 3b cb ba da bd fd 4c 07 3e
       0.031536587 0.006170187 -0.10680159 0.13212962
0003a0 4d e5 98 3c 6c df 11 be 57 39 14 be 82 a3 be 3c
       0.018664027 -0.14245385 -0.14474998 0.023271326
0003b0 8b a3 54 3e 0d 36 86 3e 1f 70 38 bc 91 65 95 3e
       0.20765512 0.26213112 -0.0112572005 0.29179052
0003c0 33 b8 b7 3d 93 ae 27 bd 3d 3e 45 bd 0a 86 01 bd
       0.0897068 -0.04093797 -0.04815506 -0.03162197
0003d0 09 7d 4d bd c5 0b ac 3d 97 b8 20 bd 4a a7 0e bd
       -0.05016807 0.08400682 -0.03923854 -0.034827508
0003e0 a8 aa 22 3e c5 4c 6c bd e0 3e 50 be 6a ae 91 be
       0.15885413 -0.0576904 -0.20336485 -0.2845338
0003f0 f5 9a 9b 3d 80 91 5f 3d 19 76 0f be 23 91 0b bc
       0.07597915 0.05458212 -0.14009894 -0.00851849

conv1.5.running_var f4 [420]
000000 24 50 79 3e e7 26 34 3e c5 21 4b 3e 62 1d ad 3e
       0.24346977 0.17592965 0.19837101 0.3381148
000010 68 a7 2e 3e 37 11 20 3e 2f 4d f9 3d 32 14 08 3e
       0.17056048 0.15631567 0.12172925 0.13288954
000020 89 54 e5 3d b1 35 9f 3e e7 3c 45 3e 07 95 1b 3e
       0.111977644 0.3109565 0.19261514 0.15193568
000030 fc 59 09 3e 86 72 33 3e 95 cd 00 3e 62 29 0c 3e
       0.13413233 0.17524156 0.12578423 0.13687661
000040 b3 2c 80 3e f7 2f cf 3e 34 75 09 3f 0a a2 23 3e
       0.25034103 0.40466282 0.5369446 0.15979782
000050 6f 13 3c 3e a6 57 b9 3e 6d fe 68 3e b3 d0 89 3e
       0.18366788 0.36199683 0.22753306 0.26917037
000060 a2 56 fc 3d da ea 0c 3e da 7d f8 3e 36 04 82 3e
       0.123212114 0.13761464 0.48533517 0.25393838
000070 8e 4a 5d 3e 32 7e 72 3e 89 f8 90 3e fc 57 68 3e
       0.21610472 0.23680952 0.28314617 0.22689813
000080 71 3b c9 3e 85 54 52 3e 01 7b 74 3f d1 8a 6a 3e
       0.39303163 0.20540054 0.9550019 0.22904517
000090 b2 e7 c7 3d e4 c6 f1 3d 18 04 af 3d 5a 4e dc 3e
       0.09760989 0.118055135 0.08545703 0.43028527
0000a0 09 f6 e5 3d 88 63 d0 3e 67 f7 2b 3e 74 a5 fb 3d
       0.11228568 0.40700936 0.16793595 0.12287417
0000b0 77 ce 3c 3e 79 e2 1d 3e 7a b4 34 3e ba a0 33 3e
       0.18438135 0.15418424 0.17646971 0.17541781
0000c0 f1 3c 42 3e c4 82 54 3e 46 2a 0f 3e b9 ed 74 3e
       0.1896856 0.20753008 0.1398097 0.23918809
0000d0 77 03 34 3e 7d 8e 88 3e fb 2e 1d 3e c3 15 69 3e
       0.17579447 0.2667121 0.15349953 0.22762208
0000e0 49 83 9c 3e 45 bc 7c 3e d9 73 37 3e 30 ae e2 3e
       0.30568913 0.24681194 0.17915286 0.4427352
0000f0 83 bf ad 3e 95 80 33 3e 60 6a 72 3e d3 16 91 3e
       0.33935174 0.17529519 0.23673391 0.28337726
000100 34 95 8a 3e cb aa f6 3d ac 7c 0b 3e a2 49 0b 3f
       0.27066958 0.12044295 0.13621777 0.5440923
000110 2e 8a 83 3e 15 af e4 3d 13 88 04 3e 67 a7 19 3e
       0.2569136 0.11166207 0.12942533 0.15005265
000120 96 2c 47 3e 82 74 f1 3e 2a 2d 68 3e 74 a1 68 3e
       0.19450602 0.471592 0.22673479 0.2271784
000130 de 88 44 3e 39 82 a1 3e 35 1a b2 3e 83 4d 80 3e
       0.19192836 0.31544665 0.3478562 0.25059137
000140 38 0c f7 3d 7f 0b 1f 3e 18 7b 6a 3e 85 6e 11 3e
       0.120628774 0.15531729 0.22898519 0.14202316
000150 38 8a a4 3e ec f2 49 3e 75 61 8c 3e fc ac 35 3e
       0.32136703 0.19721574 0.27418104 0.1774177
000160 c6 d1 3a 3e 21 e7 24 3f e7 fa fb 3d 66 f2 3f 3e
       0.18244085 0.64415175 0.12303715 0.18744811
000170 d6 3d a3 3e 9f 54 f6 3d e1 44 70 3e 19 2f 12 3f
       0.31883115 0.12027859 0.23463775 0.57103115
000180 a0 20 9c 3e 1b 4a 58 3e d7 a8 db 3e c8 55 f1 3d
       0.3049364 0.21122019 0.42902252 0.117839396
000190 48 d1 91 3e 1b 68 9b 3e 40 3b 14 3e 11 1c 4c 3f
       0.2847998 0.30352864 0.14475727 0.79730326
0001a0 be 8d 1a 3e 09 33 c4 3e 0c ae 5a 3e 97 7d 37 3e
       0.15093133 0.38320187 0.21355456 0.17919002
0001b0 2a 49 98 3e b3 91 45 3e 2b ee 60 3e aa 83 6a 3e
       0.2974332 0.19293861 0.21965854 0.22901788
0001c0 f8 d8 8c 3e f7 f3 16 3e a3 9e 0f 3e 17 cf f7 3d
       0.27509284 0.14741503 0.14025359 0.12100046
0001d0 1b 7d e9 3d c3 e7 3a 3e ce aa 85 3e fc e8 40 3f
       0.11400815 0.18252473 0.26106876 0.75355506
0001e0 5b 54 93 3e 58 49 57 3e d6 6f 06 3e cd f0 17 3e
       0.28775296 0.21024072 0.131286 0.14837952
0001f0 3e 40 35 3e da b3 b3 3e 80 cc 86 3e 3f 18 3f 3e
       0.17700288 0.35098153 0.26327896 0.18661593
000200 b1 65 42 3e cd c5 1d 3e 8a 97 0d 3e f6 17 85 3e
       0.18984105 0.15407486 0.13827339 0.25994843
000210 5b 6f b8 3e 00 3e c0 3e 7d a5 4d 3e 8b 30 4d 3e
       0.36022457 0.37547302 0.2008266 0.20038049
000220 98 70 18 3e 5b 36 62 3e 63 09 02 3f ee 14 3b 3f
       0.14886701 0.22091047 0.50795573 0.7307881
000230 32 91 18 3e a4 f2 fe 3e 42 f2 f9 3d be e5 13 3e
       0.14899138 0.49794495 0.1220441 0.14443108
000240 00 41 b4 3e 0a a5 0e 3e f8 6f 0d 3e 2e 38 61 3e
       0.3520584 0.13930145 0.13812244 0.21994087
000250 77 d8 38 3e 4b aa 1e 3e 88 e0 9d 3e 9d 94 a9 3e
       0.18051325 0.15494649 0.30835366 0.33121195
000260 4f 13 0d 3e 5d 1f ff 3d 9c 63 22 3e f6 44 e7 3e
       0.13776897 0.12457154 0.1585831 0.451698
000270 ba a5 b5 3e 9c 56 2a 3e e3 26 6a 3f 7b a3 ca 3d
       0.35478002 0.16634601 0.91465586 0.09894463
000280 96 6f 81 3e ca dc ed 3d e3 94 2c 3e ff 19 32 3e
       0.25280446 0.11614378 0.16853671 0.17392729
000290 01 47 7b 3e 30 29 73 3e 76 89 f3 3e c5 6c 3c 3e
       0.24538805 0.2374618 0.47565812 0.18400867
0002a0 82 c6 0b 3e 6a fb df 3e 4d d5 02 3e 31 c2 37 3f
       0.13649943 0.437465 0.1277668 0.7178069
0002b0 91 67 69 3e e1 a5 8f 3e 5d 7c 1c 3e 6e e0 2a 3e
       0.22793414 0.28056243 0.15281816 0.16687176
0002c0 f2 71 51 3e 4b d9 43 3e 72 3b 40 3f e0 bf ea 3e
       0.20453623 0.1912586 0.75090706 0.45849514
0002d0 5a 2c d4 3e 8f 31 1a 3e 29 8d 26 3e 24 20 81 3e
       0.41440088 0.15057968 0.16264786 0.25219834
0002e0 f8 31 44 3e f3 89 37 3e e8 e0 84 3e 5f 41 85 3e
       0.19159687 0.17923717 0.2595284 0.26026437
0002f0 c0 12 2a 3e 64 f0 cd 3e 41 38 3f 3f 5d 5d 40 3e
       0.16608715 0.40222466 0.7469521 0.18785615
000300 2a 4b 11 3e ba a7 e5 3d 33 70 2c 3e 91 8b 25 3e
       0.14188829 0.11213632 0.16839676 0.16166522
000310 72 51 05 3e d9 1e 4a 3e 02 6f 39 3e 7b 0a 7a 3e
       0.1301935 0.1973833 0.18108752 0.2441806
000320 50 a0 d0 3e 9c e6 eb 3d 87 2b 36 3e f8 45 10 3e
       0.4074731 0.115185946 0.17790042 0.14089191
000330 6c cb 28 3e a1 35 3e 3e dd 09 4a 3e 32 97 f7 3d
       0.1648385 0.18575145 0.19730325 0.12089385
000340 ca d3 a6 3e 30 7e 8e 3e 04 50 c7 3e 61 c0 f1 3d
       0.32583457 0.27830648 0.38928235 0.118042715
000350 ca 0c 76 3e f8 5e 19 3e 83 a2 f6 3d fa 68 29 3e
       0.24028316 0.14977634 0.120427154 0.16543952
000360 5d 1a 31 3e e0 65 30 3e 5c e1 34 3e b8 69 15 3e
       0.17295213 0.17226362 0.17664093 0.1459111
000370 93 c5 19 3e ee 12 bf 3e 3c 4b 10 3f 0d 2e 55 3e
       0.15016775 0.3731913 0.563648 0.20818348
000380 da ba 53 3e 88 a3 05 3e 64 90 14 3e b7 0a 45 3e
       0.20676747 0.13050663 0.14508206 0.19242369
000390 a1 7a 3c 3e 17 cf 0c 3e 21 9f 42 3e 2d 01 ee 3d
       0.18406154 0.13750874 0.19006015 0.11621318
0003a0 69 2c 5b 3e f4 f9 9f 3e 1d 0f 71 3e d3 eb 1a 3e
       0.2140366 0.31245387 0.23540922 0.15129022
0003b0 e4 42 29 3e 5d 4c 4c 3e 9d c1 37 3e a5 8d 88 3e
       0.16529423 0.19951005 0.17944951 0.26670566
0003c0 ea 26 a5 3e 6a 1f c5 3e 50 c8 06 3e c0 41 70 3e
       0.32256252 0.3850053 0.1316235 0.23462582
0003d0 4b b3 a1 3e ba 54 a6 3e 8f 1e b1 3e dd 0b 34 3e
       0.31582102 0.32486516 0.34593627 0.1758265
0003e0 44 6e 6d 3e 4b f2 4d 3e 07 a9 19 3e a9 ea 48 3e
       0.23186594 0.20111959 0.15005885 0.19620766
0003f0 4c dc 4e 3e c5 27 93 3e ce e9 a5 3e b7 3c b6 3e
       0.20201224 0.2874128 0.3240494 0.35593197

conv2.0.weight f4 [10, 1, 6]
000000 4f 28 0e bd cd 86 ea bd 68 fd a9 3e f8 3d 73 3d
       -0.03470641 -0.114514925 0.33201146 0.05938527
000010 81 ac de 3e 1b ba 9a be ae 53 53 3e 65 45 e3 be
       0.43490985 -0.30220112 0.2063739 -0.4438888
000020 75 e1 16 3e b0 3c 4b 3e ae c2 9b be 30 25 be 3e
       0.14734443 0.19847369 -0.30421966 0.37137747
000030 c1 64 9a 3e e8 a6 ad 3e fe db d0 be 8d c9 31 3e
       0.30154994 0.33916402 -0.4079284 0.17362042
000040 41 bd b7 3e 52 13 a7 3e bc 86 67 3d e5 69 c8 3e
       0.35886577 0.32631928 0.056524977 0.3914329
000050 2b 8d 97 be 06 14 31 3e 11 65 a8 bc 6e 4f d8 be
       -0.2959989 0.17292795 -0.020556005 -0.422481
000060 35 88 40 be b6 d3 52 3e ed f2 4d bd 71 4e 85 3e
       -0.18801959 0.20588574 -0.0502805 0.2603641
000070 20 7c 82 be 69 7e 17 bc 71 c8 06 be aa 9e b9 3e
       -0.25485325 -0.009246447 -0.131624 0.36253864
000080 b8 a7 63 be 35 a0 48 3e e3 fd d1 be 72 fa 96 3e
       -0.22231948 0.19592364 -0.41014013 0.2948795
000090 08 88 b9 be 40 69 d0 be 6e 49 81 be de 01 03 be
       -0.36236596 -0.407053 -0.25251335 -0.12793681
0000a0 91 00 d3 3e 2e 28 61 be 9a f9 bf 3e cb f5 00 bd
       0.4121137 -0.21987984 0.37495118 -0.031484406
0000b0 00 10 e7 3d ab 60 5c be 18 f8 6b be 42 27 02 3e
       0.11282349 -0.21521251 -0.23043859 0.12710288
0000c0 2e 36 45 bd 05 d1 fd 3c 3b 85 82 3e 2c 43 3a 3e
       -0.048147373 0.030983457 0.25492272 0.18189687
0000d0 03 76 90 be f0 bf f0 3d c2 84 e2 3e 3d 5d da be
       -0.28215036 0.11755359 0.4424191 -0.4264926
0000e0 8d 7d bb be a3 6d 8a 3e 5c 76 58 be 79 2c c2 be
       -0.36619225 0.2703677 -0.211389 -0.37924555

conv2.0.bias f4 [10]
000000 16 91 70 be 22 83 2b 3e 22 f2 b0 3e 71 0e c8 3e
       -0.23492846 0.16749242 0.34559733 0.39073518
000010 e2 d3 a9 3e 7e f1 d6 3e fd 9f 29 bd b4 f2 cf bd
       0.33169466 0.4198112 -0.041412342 -0.10153714
000020 44 95 1e 3d ba dc 2c be
       0.03871657 -0.16881076

conv2.1.weight f4 [10]
000000 b1 fd 85 3f 88 36 8c 3f 14 6a 81 3f f6 e8 87 3f
       1.0468045 1.0954142 1.0110497 1.0617969
000010 aa 8d 92 3f 7a 83 96 3f 54 51 86 3f 25 c5 8a 3f
       1.1449482 1.1758873 1.0493569 1.0841414
000020 0b 29 8f 3f 4e df 84 3f
       1.11844 1.0380647

conv2.1.bias f4 [10]
000000 5d a2 64 3d 0c 93 b9 bc 14 a3 33 3d 13 b2 c3 3d
       0.055818904 -0.022653125 0.043856695 0.09555449
000010 d4 2d a9 3d 4e d5 52 3d 4c 02 d3 bc d1 1d 64 3c
       0.08260694 0.051472954 -0.025757931 0.013923124
000020 ad 2e 16 3d 77 4e 9c 3c
       0.036665607 0.019080384

conv2.1.running_mean f4 [10]
000000 84 dc 8e be a0 f6 1d 3e ef 03 8c 3e 5d 2f 7a 3e
       -0.27902615 0.15426111 0.2734675 0.2443213
000010 15 09 45 3e 64 ab a2 3e 72 b4 24 3d 2c f6 c2 bd
       0.19241746 0.31771386 0.04021115 -0.0951961
000020 97 6c b2 bd 19 71 23 be
       -0.08712118 -0.15961112

conv2.1.running_var f4 [10]
000000 ed d8 54 3f aa c0 85 3f 16 e0 c3 3f f9 c9 83 3f
       0.831435 1.0449421 1.5302761 1.0296012
000010 a7 b1 c5 3e a0 d7 7a 3f a5 bf a3 3f 4c 1b 14 3f
       0.386121 0.9798527 1.279286 0.5785415
000020 ba 07 dc 3e 2c 53 c6 3f
       0.42974645 1.5494132
