model/ab_pssm_k2_model.ckpt (torch, 635099 bytes, 40 tensors)

conv1.0.weight f4 [10, 1, 3]
0	0xbe35f66c	-0.17769784
1	0xbf01db1e	-0.5072497
2	0xbee9b5af	-0.45646426
3	0x3dd28ad5	0.10280386
4	0xbea7007e	-0.32617563
5	0x3f0de285	0.55423766
6	0xbe821d41	-0.25412944
7	0x3f16c894	0.5889981
8	0xbdbb260f	-0.091381185
9	0xbf02c5b0	-0.510829
10	0x3ef3846f	0.47561976
11	0x3f15e16a	0.5854708
12	0xbdeb73db	-0.11496707
13	0x3e867dda	0.26267892
14	0xbdd8391b	-0.10557767
15	0xbf0ff8bc	-0.56238914
16	0xbd0233ee	-0.031787805
17	0x3de97b15	0.11400429
18	0x3e1ed27b	0.1550998
19	0x3eb7d5b4	0.3590523
20	0xbe932440	-0.28738594
21	0x3e42dedb	0.19030325
22	0xbf00a3df	-0.5025005
23	0xbe699b90	-0.22813249
24	0x3e7e0e0a	0.24810043
25	0x3f08e0e6	0.5346817
26	0x3d598123	0.05310167
27	0x3e9b741b	0.3036202
28	0x3be1eb64	0.006894516
29	0x3f14c41a	0.5811173

conv1.0.bias f4 [10]
0	0x3e5783fe	0.21046445
1	0x3f10d84c	0.5658004
2	0xbe94eb63	-0.29085836
3	0x3ec09231	0.37611535
4	0x3e885af7	0.266319
5	0x3ec0a6d5	0.37627283
6	0x3e0e6666	0.1390625
7	0xbe0c1deb	-0.13683288
8	0x3e9f9890	0.31171083
9	0xbec3ae46	-0.38218898

conv1.1.weight f4 [10]
0	0x3f798b46	0.9747814
1	0x3f7d963c	0.99057364
2	0x3f83abe4	1.0286832
3	0x3f81c836	1.0139225
4	0x3f810e4f	1.0082492
5	0x3f7f1cbe	0.9965323
6	0x3f7d7ec1	0.99021536
7	0x3f80c381	1.0059663
8	0x3f7f9bb0	0.99846935
9	0x3f812480	1.0089264

conv1.1.bias f4 [10]
0	0xbb79e227	-0.0038129182
1	0x396ce360	0.00022591418
2	0x3b02b22b	0.0019942622
3	0x3c191b9e	0.009344963
4	0xbc2ab6b3	-0.010419535
5	0x3b755194	0.0037432658
6	0x3c278bdd	0.010226217
7	0xbc92a8b3	-0.017902708
8	0x3c6f788b	0.014616142
9	0x3c9d56bf	0.019206403

conv1.1.running_mean f4 [10]
0	0x4000c3b8	2.0119457
1	0xbb930c30	-0.004487537
2	0xbf2ede78	-0.6830821
3	0xbee4f121	-0.44715217
4	0x3e49ba6b	0.19700019
5	0x3f964f8c	1.1743026
6	0xbe4b39b9	-0.19846238
7	0x3f308dab	0.6896617
8	0xbf76a4da	-0.96345294
9	0xbfdd6b74	-1.7298417

conv1.1.running_var f4 [10]
0	0x3ffb5b8a	1.963731
1	0x3f149764	0.58043504
2	0x3f04494b	0.51674336
3	0x3fa8845d	1.3165394
4	0x3df40f1a	0.11916943
5	0x3f3624c9	0.7114988
6	0x3eb84b88	0.35995126
7	0x3f373c68	0.7157655
8	0x3f8d1200	1.1021118
9	0x3f95ea97	1.1712216

conv1.4.weight f4 [400, 10, 3]
0	0x3d390f4a	0.045180596
1	0x3de61f51	0.11236442
2	0x3e181b09	0.14854063
3	0x3dc8f70f	0.09812748
4	0xbd661e3c	-0.056181177
5	0xbe159aa4	-0.14609772
6	0xbd3facc8	-0.046795636
7	0xbd7ad820	-0.06124127
8	0xbe11d78c	-0.14242381
9	0x3e090078	0.13379085
10	0xbe66c732	-0.22536924
11	0xbd0b6e98	-0.034041017
12	0xbe2fa82d	-0.17153998
13	0x3db703e8	0.08936292
14	0xbe4b3756	-0.19845328
15	0xbe12faa8	-0.1435343
16	0x3e301012	0.1719363
17	0xbe0d2ecc	-0.13787383
18	0x3d9cf163	0.07663228
19	0xbd8345d4	-0.06409803
20	0xbe59235e	-0.21204898
21	0x3ceac9c6	0.028660666
22	0xbd0c6e56	-0.034284912
23	0x3cb3d394	0.021951474
24	0xbc742cff	-0.014903306
25	0x3e1f8bde	0.15580699
26	0xbd7cdcc0	-0.06173396
27	0xbdaa6ae4	-0.08321169
28	0xbd145081	-0.036209587
29	0xbd88ebe0	-0.066856146
30	0xbdd14ea1	-0.102200754
31	0xbd83909d	-0.06424067
32	0xbd038b00	-0.032114983
33	0x3dc78794	0.09742656
34	0xbe29c5b7	-0.16579328
35	0xbdc3c7e1	-0.09559608
36	0xbde3ab00	-0.111166
37	0xbc0f07dd	-0.008729902
38	0xbd36af7a	-0.04460094
39	0xbdab7c7a	-0.083733514
40	0x3c25cbdd	0.010119406
41	0x3d85d6fd	0.065351464
42	0x3dcda7e0	0.10041785
43	0xbd29b073	-0.04142804
44	0x3e18ad40	0.1490984
45	0xbc227fba	-0.009918148
46	0x3de2937a	0.11063285
47	0x3e206b12	0.15665844
48	0xbcd9c054	-0.026580967
49	0xbde0205b	-0.10943671
50	0x3d613a0a	0.05498699
51	0xbe424b62	-0.18974069
52	0x3dcd8dbd	0.100368
53	0xbdbb11bf	-0.09134244
54	0x3d8a098e	0.06740104
55	0xbe11da07	-0.14243327
56	0x3df3ff46	0.11913924
57	0xbe25e796	-0.16201624
58	0xbdf2643c	-0.118355244
59	0xbbdb9e8c	-0.00670225
60	0xbbb0cc2f	-0.0053954343
61	0xbda92c44	-0.08260396
62	0xbb665c93	-0.0035150393
63	0xbbd23a92	-0.0064156735
64	0xbdc2567f	-0.09489154
65	0x3dad0b23	0.0844939
66	0x3d6bee6f	0.057600435
67	0x3e34cede	0.17657039
68	0x3d22e4c9	0.039768968
69	0xbc8dbf9a	-0.017303277
70	0x3de0fae0	0.109853506
71	0xbd3d95db	-0.04628549
72	0xbd047df4	-0.03234668
73	0x3b0b5c2d	0.0021264658
74	0x3dc3796f	0.09544646
75	0x3d82a8d1	0.063798554
76	0x3e32cf1f	0.17461823
77	0x3da35472	0.07975091
78	0xbde7cc6c	-0.11318287
79	0x3e19ef1a	0.15032616
80	0xbdeaee0a	-0.114711836
81	0x3d159799	0.036521528
82	0x3d969daf	0.073542945
83	0x3d8ec614	0.06971374
84	0xbe2bc158	-0.16772974
85	0x3d61baad	0.05510967
86	0x3daa0bd9	0.08303041
87	0xbc45c7de	-0.012071578
88	0x3e374ca7	0.17900334
89	0xbc511b8e	-0.012762917
90	0xbe25756c	-0.16158074
91	0x3dfcfe17	0.12353151
92	0xbd879a72	-0.06621255
93	0xbd38f6d6	-0.045157276
94	0xbc995a4d	-0.018719817
95	0xbd0a4eab	-0.03376643
96	0xbd59aad4	-0.05314143
97	0x3e3eaccb	0.18620603
98	0x3e1da6f7	0.15395723
99	0xbd20ca6f	-0.039255556
100	0x3e0df91f	0.13864563
101	0xbe5f8339	-0.21827401
102	0x3ddb90fc	0.10721013
103	0x3c9005ba	0.017580856
104	0x3e056a5a	0.13028851
105	0x3e05d84a	0.13070789
106	0x3dad80b2	0.08471812
107	0xbdf3c557	-0.11902874
108	0xbd5d3bd4	-0.054012135
109	0x3da85d31	0.082209
110	0x3db5cb78	0.08876699
111	0x3bae2cb6	0.0053153886
112	0xbe019b70	-0.12656951
113	0x3dd1c5f3	0.10242834
114	0x3d315d0a	0.04330162
115	0x3d54ed66	0.051984213
116	0x3dcbc254	0.099491745
117	0xbaa329a4	-0.0012448323
118	0xbc8b6f34	-0.0170208
119	0xbe0a524d	-0.13507958
120	0x3ddd3f54	0.108030945
121	0xbe1155eb	-0.14192931
122	0xbdbfe6f0	-0.0937022
123	0xbcab1712	-0.020885024
124	0x3dfc0de4	0.12307337
125	0xbdb57820	-0.08860803
126	0xbe158f74	-0.14605504
127	0x3d9500f8	0.072755754
128	0xbd8c1f8c	-0.068419546
129	0x3d655e5f	0.055998202
130	0x3c27a982	0.010233285
131	0x3dc9b33c	0.09848639
132	0xbe0af271	-0.13569047
133	0xbdfce8be	-0.123490795
134	0xbd92cf47	-0.07168441
135	0x3ce2dce6	0.027693223
136	0xbe284227	-0.16431485
137	0xbdff4ee3	-0.12466218
138	0x3dea05ce	0.114268884
139	0x3c41450e	0.011796249
140	0xbe35a5d7	-0.17739044
141	0x3dc3e410	0.09564984
142	0xbe241ad0	-0.16025853
143	0xbdc6932e	-0.09696041
144	0xbe12009f	-0.1425805
145	0x3d841d5d	0.06450913
146	0x3dcbe414	0.09955612
147	0x3dd4b159	0.10385389
148	0x3d1d9598	0.03847274
149	0x3df93266	0.12167816
150	0x3e17ce55	0.14824803
151	0x3d533f83	0.05157424
152	0x3ce30b4d	0.02771535
153	0x3e0f66df	0.14004086
154	0x3c7a5080	0.015277982
155	0xbdc25d56	-0.09490459
156	0x3d08e857	0.0334247
157	0x3ca06263	0.019578164
158	0xbd628d21	-0.055310372
159	0xbe12a871	-0.14322068
160	0xbb8bed54	-0.004270235
161	0xbd3b16b1	-0.045675937
162	0xbe11b040	-0.1422739
163	0xbdac71cc	-0.084201425
164	0xbe13910b	-0.14410798
165	0x3df7d484	0.12101081
166	0xbcbb395b	-0.022854498
167	0xbd83c749	-0.06434495
168	0x3e00dd58	0.12584436
169	0xbc9f4050	-0.019439846
170	0xbdf13c80	-0.117791176
171	0x3d763bb8	0.060115546
172	0xbdc7adde	-0.097499594
173	0xbd18c68f	-0.037298735
174	0x3da16368	0.07880288
175	0xbe1c9d87	-0.15294467
176	0x3dd43b6c	0.10362896
177	0x3cbdde40	0.023177266
178	0x3cd107ee	0.025516476
179	0x3d0fe7c6	0.035133146
180	0x3dc53740	0.09629679
181	0xbd0d9e45	-0.034574766
182	0x3cd048d1	0.025425347
183	0xbbebd17a	-0.0071966024
184	0xbdd51e75	-0.104062
185	0x3bf5fdfd	0.0075070844
186	0xbe2233c6	-0.15840062
187	0x3df00237	0.117191724
188	0xbd067002	-0.032821663
189	0xbd50f998	-0.05101928
190	0x3d4ce0aa	0.050018944
191	0xbd379939	-0.04482386
192	0x3e411380	0.18855095
193	0x3d98150b	0.07425889
194	0xbcaaf1ce	-0.020867255
195	0x3b713f1e	0.0036811302
196	0x3b9ab5c4	0.004721375
197	0x3e02b60d	0.1276476
198	0xbd01957d	-0.031636704
199	0x3d4250fe	0.04744052
200	0x3de2518c	0.1105071
201	0xb9763587	-0.00023480329
202	0x3db3517e	0.08755778
203	0x3e0829a4	0.13297135
204	0x3dcd40da	0.10022135
205	0xbd5dc563	-0.05414332
206	0xbe19f6bf	-0.15035532
207	0x3dbd99e5	0.09257869
208	0x3d9b9402	0.075965896
209	0x3db37312	0.08762182
210	0x3dce3e8c	0.100705236
211	0xbe1fab10	-0.15592599
212	0x3d693c78	0.056942433
213	0x3d9a8918	0.0754568
214	0xbdee327e	-0.11630724
215	0x3d9ebe1d	0.07751105
216	0x3e1d232e	0.15345451
217	0x3e2f43fd	0.17115779
218	0x3c961377	0.018319828
219	0xbcde2ca4	-0.027120896
220	0x3e11e9e4	0.14249378
221	0xbd9f758e	-0.07786094
222	0x3dbe6843	0.0929723
223	0xbd56a924	-0.0524074
224	0xbd1e9e49	-0.03872517
225	0xbdf5dce8	-0.12005025
226	0xbc44d3fa	-0.01201343
227	0x3e117d45	0.14207943
228	0xbd8fc203	-0.07019427
229	0x3e319d2a	0.1734511
230	0xbe05824c	-0.13037986
231	0xbd172c9a	-0.03690777
232	0x3c8f6ab3	0.017506933
233	0x3d9c29b6	0.07625143
234	0xbcf4d81e	-0.029888209
235	0xbdc0b9bd	-0.09410427
236	0x3e3b8fae	0.18316528
237	0xbd2340e8	-0.03985682
238	0xbe1b7106	-0.15179834
239	0xbe048212	-0.12940243
240	0x3e023ef3	0.12719326
241	0x3dd677e1	0.10472084
242	0xbbce5e8b	-0.0062978915
243	0x3e170960	0.1474967
244	0xba090e60	-0.00052282773
245	0x3d770333	0.060305785
246	0xbc7b88bb	-0.015352423
247	0x3d91166e	0.07084356
248	0xbde4fea7	-0.111813836
249	0xbdb86f3f	-0.090055935
250	0xbd2e7e9b	-0.04260121
251	0x3c3b2b64	0.011423919
252	0xbe42ab51	-0.19010665
253	0xbe13aedb	-0.14422171
254	0xbe14e198	-0.14539182
255	0x3e266463	0.16249232

conv1.4.bias f4 [400]
0	0xbe016c71	-0.12639023
1	0xbe5bd1b3	-0.21466713
2	0xbcba8ade	-0.022771295
3	0x3da7c5cc	0.08192024
4	0xbc6111ea	-0.013737181
5	0xbde3f139	-0.11129994
6	0x3de99aad	0.11406455
7	0xbdfdb58c	-0.12388143
8	0xbe084ef2	-0.13311365
9	0xbd68d912	-0.05684764
10	0x3c90328e	0.017602231
11	0x3cb8de95	0.022567073
12	0x3df8789c	0.121323794
13	0xbd46df4e	-0.048552804
14	0x3cb5505d	0.022133047
15	0xbd303b65	-0.043025393
16	0x3d1fe285	0.039034385
17	0xbcf5d2cf	-0.030007748
18	0xbca21199	-0.019783782
19	0x3d8c0f09	0.06838805
20	0xbe044adb	-0.1291918
21	0x3d938a2c	0.072040886
22	0xbe28648b	-0.16444604
23	0xbe064833	-0.1311348
24	0x3e026f6c	0.12737817
25	0xbe38fa9a	-0.18064347
26	0x3b7ec7f7	0.0038876513
27	0xbcec8e5a	-0.028876472
28	0xbd53c8e7	-0.051705267
29	0xbdfb3c00	-0.122673035
30	0xbd9fa024	-0.07794216
31	0xbdd54c9a	-0.10415001
32	0x3d143044	0.036178842
33	0x3d875989	0.06608874
34	0x3e0f91af	0.14020418
35	0x3cd83efa	0.026397217
36	0x3da416c9	0.080121584
37	0x3dd67bbd	0.1047282
38	0x3d4a4d8b	0.049390357
39	0xbde4d9c1	-0.11174346
40	0xbe17c46b	-0.14821021
41	0x3d1beb2d	0.038066078
42	0x3d4bd721	0.04976571
43	0x3e277b27	0.16355573
44	0xbd70bef3	-0.058775853
45	0x3df0a041	0.11749316
46	0xbd8b9856	-0.06816165
47	0x3cbd6224	0.023118086
48	0x3c48abd0	0.012247995
49	0x3ce3e93b	0.027821174
50	0xbe23b36c	-0.15986413
51	0xbbd94dd8	-0.006631594
52	0x3db347cb	0.08753928
53	0xbde7d9e9	-0.1132086
54	0xbcf02b4d	-0.029317522
55	0x3e1bd1b6	0.15216717
56	0x3d4fed90	0.050763667
57	0xbe18c53a	-0.14918986
58	0xbd5fb9db	-0.054620605
59	0xbd8bbb43	-0.06822827
60	0x3e2b479a	0.16726533
61	0xbca71109	-0.020393865
62	0x3d6b51c9	0.057451043
63	0x3d532271	0.051546518
64	0x3da297b6	0.07939093
65	0xbdc661b8	-0.09686607
66	0x3d8c46b9	0.06849427
67	0xbe09df74	-0.13464147
68	0x3e160cb5	0.14653285
69	0x3e22fced	0.15916796
70	0xbda5eb2e	-0.081014976
71	0x3dd2933e	0.102819905
72	0x3c0b6e98	0.008510254
73	0x3cc42156	0.023941677
74	0x3d17b198	0.0370346
75	0xbc08794c	-0.008329701
76	0x3d13ba97	0.036066618
77	0xbe2c7967	-0.16843186
78	0x3e00bae8	0.12571299
79	0x3d0a95c1	0.033834223
80	0xbddc2b07	-0.10750394
81	0xbb758e8e	-0.0037469002
82	0x3e00517d	0.12531085
83	0x3d5cd985	0.05391838
84	0xbe38cab2	-0.18046072
85	0xbdf05e7f	-0.11736774
86	0xbcea583e	-0.02860653
87	0xbe13d4a4	-0.14436585
88	0x3d3f5d71	0.046719972
89	0x3db048a4	0.08607605
90	0x3db4a1bd	0.08819912
91	0x3e2b0209	0.16699995
92	0x3b1c4f86	0.002385111
93	0x3d6449f3	0.055734586
94	0xbe2c8813	-0.16848783
95	0xbdc1349f	-0.09433865
96	0x3e0f51a0	0.13995981
97	0xbe253b85	-0.16135986
98	0xbdc21fd3	-0.09478726
99	0xbdaf2e19	-0.08553714
100	0xbdab4ef4	-0.083646685
101	0xbd848ee8	-0.0647257
102	0x3dc98b60	0.09841037
103	0xbda1794f	-0.07884466
104	0xbce2e6fd	-0.027698034
105	0xbe43c191	-0.19116808
106	0x3df067cf	0.1173855
107	0x3ca04b9e	0.019567307
108	0x3d3ec7de	0.046577327
109	0xbe39fd51	-0.18163039
110	0xbc3ce5d5	-0.011529406
111	0xbdf88821	-0.121353395
112	0xbe4fd727	-0.20296918
113	0xbe4246e4	-0.18972355
114	0xbdf402c4	-0.1191459
115	0x3e1174ee	0.14204761
116	0xbdd88cbe	-0.105737194
117	0x3c8af2d4	0.016961493
118	0xbd5f7a21	-0.05455983
119	0x3dd60c56	0.10451572
120	0x3d64f6df	0.055899497
121	0x3dbc3782	0.09190275
122	0xbe221188	-0.15827
123	0xbdc8d0f1	-0.098054774
124	0x3da30df0	0.07961643
125	0x3d978a67	0.07399445
126	0x3d553a45	0.052057523
127	0x3e189c46	0.14903364
128	0xbd958a34	-0.07301751
129	0x3de57f3c	0.11205909
130	0x3deb7ba3	0.11498191
131	0xbe008203	-0.12549596
132	0x3bff331b	0.0077880747
133	0xbe0532e3	-0.13007693
134	0xbc699f9a	-0.014259243
135	0x3c1166d3	0.008874613
136	0x3e09590d	0.13412876
137	0xbe26664b	-0.16249959
138	0x3d640429	0.05566803
139	0x3e090d2f	0.13383935
140	0xbe1bd7a1	-0.15218975
141	0x3d407b73	0.04699273
142	0xbe3cfe8c	-0.18456477
143	0xbd9a8683	-0.07545187
144	0xbe255ea9	-0.16149391
145	0xbe1230db	-0.1427645
146	0x3e2db71f	0.16964386
147	0x3d1d6e61	0.038435344
148	0x3ce3aaca	0.0277914
149	0xbe3a5bf3	-0.18199138
150	0xbd6077ba	-0.05480168
151	0x3dc1b4e1	0.09458328
152	0x3d3d379e	0.04619562
153	0x3d17ddc4	0.037076727
154	0x3da52754	0.08064142
155	0x3de72074	0.11285487
156	0xbd149665	-0.03627624
157	0xbe0e96d8	-0.1392473
158	0x3dac635d	0.084173895
159	0x3d5a98cb	0.05336837
160	0xbe36df87	-0.17858706
161	0x3b2b8ce7	0.0026176514
162	0xbe315ac1	-0.17319776
163	0x3cb46845	0.022022376
164	0x3e205e46	0.15660962
165	0x3e101dde	0.14073893
166	0xbe036bda	-0.12834111
167	0x3d643ee4	0.05572404
168	0x3c5f1ceb	0.013617734
169	0xbd9664db	-0.073434554
170	0x3de53fe9	0.111938305
171	0xbe10f5a3	-0.14156203
172	0x3d602ab8	0.05472824
173	0x3e203b61	0.15647651
174	0xbd72f422	-0.059314854
175	0x3e094d3e	0.13408372
176	0x3d24ef95	0.040267546
177	0xbe390af2	-0.18070582
178	0xbb4d687e	-0.00313428
179	0x3e14837a	0.1450328
180	0xbe344bb3	-0.17607002
181	0xbd6a345c	-0.05717884
182	0x3e134454	0.14381534
183	0xbdfc01c6	-0.12305026
184	0xbe2fc244	-0.1716395
185	0x3d8d5dbe	0.069026455
186	0x3e0e7a74	0.139139
187	0x3e16ca2d	0.14725561
188	0x3e1a3ade	0.15061519
189	0x3e093110	0.13397622
190	0xbe33fcc0	-0.17576885
191	0xbe14b3d4	-0.14521724
192	0xbe06f118	-0.13177907
193	0xbdf076fe	-0.11741446
194	0xbdcdd33a	-0.10050054
195	0xbd8f67c7	-0.07002216
196	0x3d300cf5	0.042981107
197	0x3dfe3bb3	0.124137305
198	0xbd68b9be	-0.056817763
199	0x3de69e7b	0.112606965
200	0x3e060655	0.13088353
201	0x3e1e412f	0.15454553
202	0xbe2ce201	-0.16883089
203	0x3e260845	0.16214092
204	0x3c9d2cf2	0.01918647
205	0xbe256f39	-0.1615571
206	0xbe23a966	-0.15982589
207	0xbe49f64b	-0.1972286
208	0x3d10952e	0.03529852
209	0x3e168221	0.14698078
210	0x3cfe566d	0.03104707
211	0xbdf2d8f2	-0.11857785
212	0xbcda75b2	-0.02666745
213	0x3e1a9e7a	0.15099517
214	0xbddb1633	-0.106975935
215	0xbd8715cd	-0.06595955
216	0x3dd0f9a9	0.10203869
217	0xbd185971	-0.037194673
218	0xbdd9c07e	-0.10632418
219	0x3d62f295	0.055407126
220	0x3d5329ca	0.051553525
221	0xbd8d094a	-0.068865374
222	0xbd69e00a	-0.057098426
223	0x3d60b175	0.054856736
224	0xbe38f4d1	-0.1806214
225	0xbe0ab5ea	-0.13545957
226	0xbe4547ca	-0.19265667
227	0xbdee9a2c	-0.116505
228	0xbd905d92	-0.07049097
229	0xbbd1581f	-0.0063886787
230	0xbd8098a8	-0.06279117
231	0xbd838667	-0.064221196
232	0xbe00e157	-0.1258596
233	0x3d4ec002	0.05047608
234	0xbe01fa9f	-0.1269326
235	0xbd262097	-0.040558424
236	0xbdfffdff	-0.12499618
237	0x3de6d88f	0.11271774
238	0x3e350b7d	0.17680164
239	0xbd771a87	-0.060328033
240	0xbd8822ad	-0.06647239
241	0x3dd87c9b	0.105706416
242	0x3e1bb2c0	0.15204906
243	0xbd72d7f9	-0.059288
244	0x3c94f574	0.018183447
245	0x3db53813	0.08848586
246	0xbdd14915	-0.102190174
247	0xbe191a31	-0.14951397
248	0x3d847b8b	0.064688765
249	0x3e25c386	0.16187868
250	0x3e0ea374	0.1392954
251	0x3c7cd107	0.015430695
252	0xbd752072	-0.059845395
253	0x3e205c82	0.15660289
254	0xbe1499e3	-0.14511828
255	0xbd3e6107	-0.04647925

conv1.5.weight f4 [400]
0	0x3f7edf2f	0.995593
1	0x3f7b669c	0.98203444
2	0x3f7d948e	0.990548
3	0x3f7d2fdb	0.98901147
4	0x3f7b8491	0.98249155
5	0x3f7c9e15	0.98678714
6	0x3f7e3996	0.9930662
7	0x3f7c4468	0.9854188
8	0x3f7d0302	0.98832715
9	0x3f79aaaa	0.9752604
10	0x3f7c9787	0.9866871
11	0x3f7c6280	0.985878
12	0x3f79fb11	0.9764872
13	0x3f7dee9d	0.9919222
14	0x3f7c8bf2	0.9865104
15	0x3f7a36d0	0.9773989
16	0x3f7d9d10	0.99067783
17	0x3f7ae8bd	0.9801138
18	0x3f7c46d0	0.9854555
19	0x3f7bfc17	0.98431534
20	0x3f7e1744	0.9925425
21	0x3f7c01fb	0.9844052
22	0x3f7aef1d	0.9802111
23	0x3f7b861b	0.98251504
24	0x3f7bdc53	0.98383063
25	0x3f7cfe3f	0.9882545
26	0x3f7ea2b5	0.9946702
27	0x3f7b3892	0.98133194
28	0x3f7ab0f7	0.97926277
29	0x3f7b286d	0.9810856
30	0x3f7e0c3e	0.9923743
31	0x3f7ca51a	0.98689425
32	0x3f7ac5c2	0.97958004
33	0x3f7df25a	0.99197924
34	0x3f7b43cc	0.98150325
35	0x3f7c6794	0.9859555
36	0x3f80399e	1.0017583
37	0x3f7b3ae0	0.9813671
38	0x3f7ecbcc	0.9952972
39	0x3f7f98f2	0.9984275
40	0x3f7b2e25	0.98117286
41	0x3f7c2d85	0.9850696
42	0x3f7c058a	0.9844595
43	0x3f7d76d1	0.99009424
44	0x3f7a7ff9	0.9785152
45	0x3f7baad8	0.9830756
46	0x3f7d3de6	0.98922575
47	0x3f7d97c4	0.990597
48	0x3f812387	1.0088967
49	0x3f7cf7cb	0.988156
50	0x3f7db428	0.9910302
51	0x3f7d92d1	0.9905215
52	0x3f7bce3d	0.9836157
53	0x3f7be57b	0.98397034
54	0x3f7e2fd1	0.9929171
55	0x3f7d0163	0.9883024
56	0x3f7e52bf	0.9934501
57	0x3f7ca915	0.986955
58	0x3f7bd9dc	0.983793
59	0x3f7d5e03	0.98971575
60	0x3f7e1cb9	0.9926258
61	0x3f7ca936	0.98695695
62	0x3f7e115a	0.99245226
63	0x3f7d188d	0.98865587
64	0x3f7f81e6	0.99807584
65	0x3f7e5d1b	0.9936082
66	0x3f803aca	1.0017941
67	0x3f800d88	1.000413
68	0x3f7c1805	0.9847415
69	0x3f7ca5b2	0.9869033
70	0x3f7c85e0	0.9864178
71	0x3f7bf2ee	0.98417556
72	0x3f7dbf8a	0.9912039
73	0x3f7b567b	0.98178834
74	0x3f7bacee	0.98310745
75	0x3f7cf03d	0.98804075
76	0x3f79b12b	0.9753596
77	0x3f7e2c38	0.9928622
78	0x3f79c910	0.9757242
79	0x3f7c31ed	0.9851368
80	0x3f7ed57f	0.9954452
81	0x3f7d0546	0.9883617
82	0x3f7b2762	0.9810697
83	0x3f7e4bca	0.99334395
84	0x3f7b1c3b	0.9808995
85	0x3f7c1179	0.9846416
86	0x3f7da437	0.99078697
87	0x3f7ea39f	0.99468416
88	0x3f7e0fcd	0.9924286
89	0x3f7aeeb0	0.9802046
90	0x3f7cbb64	0.98723435
91	0x3f7eb216	0.9949049
92	0x3f7d07b3	0.98839873
93	0x3f7d89e6	0.9903854
94	0x3f7c6417	0.98590225
95	0x3f7b69de	0.98208416
96	0x3f7c74eb	0.986159
97	0x3f7d8df7	0.99044746
98	0x3f7bc454	0.9834645
99	0x3f8081bc	1.0039592
100	0x3f7abbb5	0.9794267
101	0x3f7c4a77	0.98551124
102	0x3f7ffab8	0.9999194
103	0x3f7b4684	0.98154473
104	0x3f7d382e	0.9891385
105	0x3f7beb76	0.9840616
106	0x3f7c46f9	0.98545796
107	0x3f7ddcc5	0.9916499
108	0x3f7f2f51	0.99681574
109	0x3f7dbf99	0.9912048
110	0x3f7c7222	0.9861165
111	0x3f7b192a	0.9808527
112	0x3f7e4094	0.9931729
113	0x3f7c301e	0.9851092
114	0x3f7c3406	0.9851688
115	0x3f7d12fc	0.9885709
116	0x3f79f461	0.9763852
117	0x3f7de274	0.99173665
118	0x3f797658	0.97446203
119	0x3f7d03b0	0.9883375
120	0x3f7b8f38	0.9826541
121	0x3f7b874c	0.9825332
122	0x3f7c6d2d	0.9860409
123	0x3f7ec10a	0.99513304
124	0x3f7c94f9	0.98664814
125	0x3f7e3fbf	0.9931602
126	0x3f7c637c	0.985893
127	0x3f7c5eda	0.9858223
128	0x3f80df97	1.0068234
129	0x3f7f73af	0.99785894
130	0x3f7c7ded	0.9862965
131	0x3f80b4be	1.0055158
132	0x3f7c08e1	0.9845105
133	0x3f8006c3	1.0002064
134	0x3f7a10dd	0.9768198
135	0x3f7f165a	0.9964348
136	0x3f7eb42c	0.9949367
137	0x3f7d4d65	0.9894622
138	0x3f7cb4f5	0.9871362
139	0x3f7b0a1d	0.98062307
140	0x3f7da2dd	0.99076635
141	0x3f7b5158	0.98170996
142	0x3f7c254e	0.9849442
143	0x3f7d9df3	0.99069136
144	0x3f7bc17e	0.9834212
145	0x3f7b8174	0.98244405
146	0x3f7d5466	0.98956907
147	0x3f7ca88f	0.986947
148	0x3f80268b	1.0011762
149	0x3f805e39	1.0028754
150	0x3f7e93a2	0.9944402
151	0x3f7cc082	0.98731244
152	0x3f7de9e7	0.9918503
153	0x3f7b4d81	0.98165137
154	0x3f7b9af3	0.9828331
155	0x3f7df4de	0.9920176
156	0x3f7ef54c	0.99593043
157	0x3f7ed734	0.99547124
158	0x3f7ea0e3	0.99464244
159	0x3f7b20b6	0.9809679
160	0x3f7de052	0.9917041
161	0x3f7cbb7c	0.9872358
162	0x3f7d9b90	0.99065495
163	0x3f7d4ae0	0.98942375
164	0x3f7e68c3	0.99378604
165	0x3f7c7aa5	0.9862464
166	0x3f7f9a35	0.99844676
167	0x3f7f08f9	0.99623066
168	0x3f7f200d	0.9965828
169	0x3f7dae2b	0.99093884
170	0x3f7ae78a	0.9800955
171	0x3f7f791c	0.99794173
172	0x3f7c89a6	0.98647535
173	0x3f7dac7e	0.9909133
174	0x3f7e81e6	0.9941696
175	0x3f7f48da	0.9972054
176	0x3f7eb0ca	0.9948851
177	0x3f80fab0	1.0076504
178	0x3f80c108	1.0058908
179	0x3f7b5c7f	0.9818801
180	0x3f7fb958	0.9989219
181	0x3f80f119	1.0073577
182	0x3f7dd981	0.9916001
183	0x3f8140c7	1.0097893
184	0x3f7f1c8b	0.9965293
185	0x3f7d3c5d	0.9892023
186	0x3f7c7220	0.9861164
187	0x3f7d8e00	0.990448
188	0x3f7a62f0	0.97807217
189	0x3f7ead25	0.9948295
190	0x3f7bfdf6	0.9843439
191	0x3f7dbba9	0.9911447
192	0x3f7e22fe	0.99272144
193	0x3f79fdae	0.9765271
194	0x3f7a2cb7	0.9772448
195	0x3f813da4	1.0096936
196	0x3f7cd3c3	0.9876062
197	0x3f7b4558	0.98152685
198	0x3f7d6c93	0.98993796
199	0x3f7c6639	0.9859348
200	0x3f7c74a2	0.9861547
201	0x3f7be507	0.98396343
202	0x3f7e62e8	0.9936967
203	0x3f7b21e3	0.9809858
204	0x3f7bb766	0.9832672
205	0x3f7c9f8e	0.9868096
206	0x3f7d7abd	0.9901541
207	0x3f79a295	0.97513705
208	0x3f7e50e1	0.9934216
209	0x3f7d816c	0.9902561
210	0x3f7c72d0	0.9861269
211	0x3f7b5372	0.981742
212	0x3f7c1954	0.9847615
213	0x3f7af8f3	0.98036116
214	0x3f7f0d50	0.9962969
215	0x3f7cd824	0.98767304
216	0x3f80b167	1.0054139
217	0x3f7ba620	0.9830036
218	0x3f7de160	0.9917202
219	0x3f7be366	0.9839386
220	0x3f7cd8c4	0.9876826
221	0x3f7e0a83	0.9923479
222	0x3f7cfb91	0.9882136
223	0x3f7e0872	0.99231637
224	0x3f7af2ad	0.98026544
225	0x3f7c484d	0.9854782
226	0x3f7cea78	0.9879527
227	0x3f7ca865	0.9869445
228	0x3f7ece4d	0.9953354
229	0x3f7e76cc	0.9940002
230	0x3f7daf7d	0.990959
231	0x3f7c1aac	0.984782
232	0x3f7b64d7	0.98200744
233	0x3f7e5ae0	0.99357414
234	0x3f7ba32c	0.98295856
235	0x3f7c4ce4	0.98554826
236	0x3f7c6fee	0.9860829
237	0x3f7d304f	0.9890184
238	0x3f7bef1b	0.9841172
239	0x3f7aaca6	0.9791969
240	0x3f7dd3a6	0.99151075
241	0x3f7de1a2	0.99172413
242	0x3f7fb443	0.9988443
243	0x3f7b84c2	0.9824945
244	0x3f7e3714	0.9930279
245	0x3f7bed90	0.98409367
246	0x3f7f0af8	0.9962611
247	0x3f803275	1.0015398
248	0x3f7d2492	0.98883927
249	0x3f7bb48e	0.9832238
250	0x3f7cbf2e	0.9872922
251	0x3f7cf905	0.98817474
252	0x3f7c62bb	0.9858815
253	0x3f7b19c0	0.98086166
254	0x3f79fb51	0.97649103
255	0x3f7df46f	0.992011

conv1.5.bias f4 [400]
0	0xbbe9d9fb	-0.007136581
1	0xbc82b973	-0.01595757
2	0x3a86c0d2	0.0010280854
3	0xbc845a9f	-0.016156493
4	0xbbf80dfe	-0.0075700274
5	0xbc494594	-0.012284655
6	0xbcb14352	-0.021638546
7	0xbc2bb2fb	-0.010479684
8	0xbb85b66b	-0.004080584
9	0xbcb45aba	-0.022015918
10	0xbc45cbf5	-0.012072553
11	0x39275a4c	0.0001596
12	0xbd04c9da	-0.032419063
13	0x3b0cb638	0.0021470916
14	0xbbc0307d	-0.0058651553
15	0xbc79aa0f	-0.015238299
16	0xbb12bdd0	-0.002239097
17	0xbc8d1d63	-0.017225927
18	0xbc02cf9d	-0.007984069
19	0xbbd59495	-0.0065179565
20	0xbc8b1e48	-0.016982213
21	0xbb55ec05	-0.00326419
22	0xbcee2f49	-0.029075282
23	0xbc423010	-0.011852279
24	0xbc70763b	-0.014676626
25	0xbc4d3931	-0.0125258425
26	0xbc15c3e4	-0.009140942
27	0xbcaf4fc2	-0.021400336
28	0xbc085a14	-0.008322258
29	0xbc0ee8c9	-0.0087224925
30	0xbbfff2bb	-0.007810918
31	0xbbad8fa0	-0.0052966624
32	0xbc87306a	-0.016502578
33	0xbc003256	-0.007824501
34	0xbc92bc59	-0.017912077
35	0xbc02a664	-0.007974241
36	0xbc633eb9	-0.013869935
37	0xbcba76a3	-0.022761649
38	0xbbf40206	-0.0074465303
39	0xbca14e01	-0.019690515
40	0xbc9148c9	-0.017734902
41	0x3b12d802	0.0022406583
42	0x3aa5a9ec	0.0012639142
43	0xba326c6e	-0.00068063184
44	0xbbbf117e	-0.0058309427
45	0xbc38a607	-0.011270053
46	0xba217bde	-0.000616012
47	0xbab1872a	-0.001354431
48	0xbc529ed1	-0.012855248
49	0xbbc0b2c2	-0.0058806846
50	0xbcafa008	-0.021438614
51	0xbc555917	-0.013021729
52	0xbc7eed7d	-0.015559551
53	0x3a8e3cd1	0.0010851865
54	0xbc2b3014	-0.010448474
55	0xbaf728ed	-0.0018856801
56	0xbbc300a5	-0.0059510046
57	0xbc167dde	-0.0091852825
58	0xbc5e2fc2	-0.013561191
59	0xbbc7c415	-0.006096373
60	0xbadfffb2	-0.0017089753
61	0xbc2ada93	-0.010428089
62	0xb9b6fc2e	-0.00034901634
63	0xbbd04184	-0.0063554663
64	0x3b8e8644	0.004349502
65	0xbc4817e0	-0.0122127235
66	0x3b1c64a7	0.0023863704
67	0xb9a158e3	-0.0003077454
68	0xbca324e1	-0.019915046
69	0xbb9b4251	-0.00473813
70	0xbc7766ab	-0.015100162
71	0xbc618a88	-0.013765939
72	0xbc91a6ff	-0.017779825
73	0xbbef8cd8	-0.007310491
74	0xbb9709c9	-0.004609321
75	0xbbd4be71	-0.006492429
76	0xbc8958eb	-0.016766032
77	0xbc633eae	-0.0138699245
78	0xbc41a85f	-0.011819928
79	0xbad906b4	-0.0016557784
80	0xbbd40924	-0.006470816
81	0x3a9f424c	0.0012150495
82	0xbbe12541	-0.006870896
83	0xbc368e18	-0.011142276
84	0xbca02033	-0.019546604
85	0x39335eb8	0.00017106056
86	0xbc00a7a1	-0.007852466
87	0x3b757ccf	0.0037458425
88	0xbc11aad6	-0.008890828
89	0xbbc99c91	-0.0061526974
90	0xbc16931c	-0.009190347
91	0x3baa87ef	0.005204193
92	0xbbd9b50f	-0.0066438983
93	0xbc073fe3	-0.008254978
94	0xbc27bd0e	-0.010237945
95	0xbb7d0d8d	-0.0038612813
96	0xbc748875	-0.014925112
97	0xbb4dca6a	-0.0031401166
98	0xbbeeb926	-0.007285255
99	0x3bcffe32	0.006347441
100	0xbb68459b	-0.0035441879
101	0xbc8dfc03	-0.017332083
102	0x3b53e1c7	0.0032330619
103	0xbbfab562	-0.007651017
104	0xbb704fc4	-0.0036668638
105	0xbc975781	-0.018474342
106	0xba0cb65f	-0.00053677516
107	0xbbd5214b	-0.006504213
108	0x3b693cae	0.0035589146
109	0xb9960fdb	-0.00028622043
110	0xbc7c2897	-0.015390537
111	0xbca50b9b	-0.020147135
112	0xbbdb4557	-0.0066916156
113	0xbc1af029	-0.009456673
114	0xbb87d9de	-0.004145845
115	0xbbfa6cb8	-0.007642355
116	0xbc6ccb6e	-0.014452798
117	0xbc6d3304	-0.014477495
118	0xbc25c14c	-0.010116886
119	0xbb84c3c0	-0.0040516555
120	0xbc1d1e96	-0.009589812
121	0xbad5323b	-0.001626558
122	0xbbb256d7	-0.005442481
123	0xbc909ec2	-0.017653827
124	0xbc225826	-0.009908712
125	0x3b482fa4	0.0030545974
126	0xbbc47e42	-0.0059964964
127	0xbc9d3796	-0.019191545
128	0xbc41a298	-0.0118185505
129	0xbc610c85	-0.013735895
130	0xbc358709	-0.011079558
131	0xbbfedb5b	-0.007777614
132	0xbb1e0b35	-0.0024115567
133	0xbc0e585e	-0.008688061
134	0xbbcd192b	-0.006259104
135	0xbbfc79b5	-0.0077049383
136	0x3baf9b68	0.005359102
137	0xbc4c1d4b	-0.012458156
138	0x3a760cda	0.00093860703
139	0xbc908626	-0.017642092
140	0xbb0f1872	-0.002183464
141	0xbbbb568e	-0.005717105
142	0xba86c9ad	-0.0010283493
143	0xbb857708	-0.0040730275
144	0xbc0f8c99	-0.008761548
145	0x3a94001e	0.0011291539
146	0x3b5b75ec	0.0033487035
147	0xbb7acba2	-0.0038268347
148	0xbbcc7400	-0.006239414
149	0x3b8e64b4	0.004345501
150	0xbbd75a59	-0.0065720496
151	0xbac423bd	-0.0014964264
152	0xbc9e5138	-0.019325837
153	0xbb8061a4	-0.0039178897
154	0xbca19ab8	-0.019727096
155	0x391dca99	0.0001504816
156	0x3bd32c95	0.0064445236
157	0xbc3a3e44	-0.011367384
158	0xbc3bf132	-0.01147108
159	0xbcc9c212	-0.024628673
160	0xbb086562	-0.0020812382
161	0xbc832f2b	-0.016013702
162	0xb9d3340b	-0.0004028383
163	0xbb80b789	-0.003928129
164	0x3aef622a	0.0018263508
165	0xbb756297	-0.0037442797
166	0xbc263dbc	-0.010146555
167	0xbc624264	-0.013809774
168	0xbbdb00f5	-0.0066834637
169	0x3ac2336a	0.0014816348
170	0xbc07d718	-0.008291028
171	0xbc4a857f	-0.0123609295
172	0xbb56877b	-0.0032734561
173	0xbc4a599c	-0.012350466
174	0xbb84f01e	-0.0040569445
175	0x3b6960f3	0.0035610765
176	0xbc85f3e8	-0.016351655
177	0x3be5651b	0.007000578
178	0xbc3423e2	-0.010994883
179	0xbc246f38	-0.010036282
180	0xbbb2d404	-0.005457403
181	0xbc06752e	-0.008206649
182	0xbc3b7a6c	-0.011442762
183	0x3b842155	0.004032294
184	0xbbb82dcb	-0.0056206933
185	0xbc586216	-0.013206979
186	0xbc77471b	-0.015092636
187	0xbc89b90b	-0.016811868
188	0xbba18cce	-0.0049301153
189	0xbc205cf5	-0.009787788
190	0xbc38c766	-0.011278009
191	0xbc1fa638	-0.0097442195
192	0xbc26b294	-0.010174412
193	0xbc08af02	-0.008342506
194	0xbc54fcc5	-0.012999718
195	0xbc86086a	-0.016361434
196	0x37c6acc9	2.3683899e-05
197	0xbc50f58c	-0.012753855
198	0xbbfe6d41	-0.007764489
199	0xbc0116f1	-0.007879005
200	0xbc098203	-0.008392814
201	0xbc15426c	-0.0091100745
202	0x3b9da974	0.00481146
203	0xbbf14f20	-0.0073641688
204	0xbb3007bd	-0.002686008
205	0xbbae4c50	-0.0053191558
206	0xba16947e	-0.0005744173
207	0xbc9ae083	-0.018905884
208	0x3b9a06ee	0.004700533
209	0xba839ee6	-0.0010041862
210	0xbc2e76fe	-0.010648487
211	0xbb9c6643	-0.0047729327
212	0xbb9d01e0	-0.0047914833
213	0xbbe92303	-0.0071147694
214	0xbc46f9db	-0.012144531
215	0xba3dab7b	-0.00072353304
216	0xbc4083a7	-0.011750138
217	0xbc593a4f	-0.013258531
218	0xbc3f2e4e	-0.011668755
219	0xbbad72b0	-0.005293213
220	0xba5dfcf5	-0.00084681745
221	0xbc11eb5d	-0.008906213
222	0x39267158	0.00015873217
223	0xbc272b22	-0.010203155
224	0xbc18857a	-0.009309167
225	0xbc01e653	-0.007928449
226	0xbbd3f75b	-0.006468696
227	0xbbe61e20	-0.007022634
228	0xbc03ac15	-0.008036633
229	0xbc5d80dd	-0.013519493
230	0x3b185429	0.0023243523
231	0xbc053e98	-0.008132599
232	0xbc3304c1	-0.010926426
233	0x3a1d7333	0.0006006241
234	0xbc005c52	-0.007834511
235	0xbb5a77cf	-0.0033335572
236	0xbc2b2a10	-0.01044704
237	0xba1fbcd2	-0.0006093505
238	0xbbbc07e3	-0.005738245
239	0xbc0351c7	-0.008015103
240	0xbb30892d	-0.0026937232
241	0xbc34bf0b	-0.011031876
242	0x3ba7e8ad	0.0051241727
243	0xbbe2b820	-0.006918922
244	0xbc877c4a	-0.016538758
245	0xbc08b153	-0.008343059
246	0x3b52f956	0.0032192073
247	0xbc791406	-0.015202528
248	0xba90ae69	-0.0011038306
249	0xbbfad79e	-0.007655098
250	0xbc95dc65	-0.018293569
251	0xbc9b7121	-0.018974843
252	0xbc2718c5	-0.010198777
253	0xbb856548	-0.0040709116
254	0xbc0ebcbf	-0.008711993
255	0xbc3ccc45	-0.011523311

conv1.5.running_mean f4 [400]
0	0xbeb5cfc9	-0.3551009
1	0xbe9eb562	-0.3099776
2	0x3e7016c8	0.2344619
3	0x3ee19f75	0.4406697
4	0xbe6687ed	-0.22512789
5	0xbe086c77	-0.13322626
6	0x3f0d60f3	0.5522606
7	0xbd8ce189	-0.06878955
8	0x3d8304ff	0.06397437
9	0x3d86c2d2	0.06580128
10	0xbc543f00	-0.0129544735
11	0x3d97e20b	0.07416161
12	0x3eb44537	0.35209057
13	0xbe04220f	-0.12903617
14	0xba0aef40	-0.0005299933
15	0xbecf97a7	-0.4054539
16	0x3eb9c5bc	0.36283672
17	0x3df814f8	0.121133745
18	0x3ea657cd	0.32488862
19	0x3e58bf5c	0.21166748
20	0x3eb23cc8	0.34811997
21	0xbe16f544	-0.14741999
22	0x3e79ba43	0.2438746
23	0xbefd6da4	-0.49497712
24	0x3e3acdea	0.18242612
25	0x3e19fa4e	0.1503689
26	0xbdfbe6a9	-0.12299854
27	0xbda93622	-0.08262278
28	0xbebdd50f	-0.37076613
29	0xbee02823	-0.43780622
30	0x3e920cb2	0.2852531
31	0x3eb63828	0.3558972
32	0x3c7d524e	0.0154615175
33	0x3d292506	0.041295074
34	0x3c749348	0.014927693
35	0x3dbbe6c8	0.091748774
36	0x3dd3905a	0.10330267
37	0xbd82987d	-0.06376741
38	0xbd806f42	-0.06271221
39	0x3d874097	0.066041164
40	0xbdc3f022	-0.09567286
41	0xbe367dbf	-0.17821406
42	0x3eaf187d	0.3419837
43	0x3f44d842	0.76892483
44	0xbeee5825	-0.46551624
45	0x3e5019c9	0.20322336
46	0x3e27d625	0.16390283
47	0x3e147050	0.14495969
48	0x3e106601	0.14101411
49	0x3eaba888	0.33527017
50	0xbdf2bd3a	-0.11852498
51	0x3c0650a1	0.008197934
52	0xbe25e5b3	-0.16200905
53	0xbd9d319c	-0.07675478
54	0xbe5934f7	-0.2121161
55	0x3d94d470	0.07267082
56	0x3d5a7795	0.0533367
57	0xbeb4d2ab	-0.35316977
58	0xbe167728	-0.14693892
59	0xbe3ffb8f	-0.18748306
60	0xbd37b5e6	-0.044851206
61	0x3c93b621	0.018031182
62	0x3dd211dc	0.10257313
63	0xbdfa17a9	-0.12211544
64	0x3da0de84	0.078549415
65	0x3d903d55	0.07042948
66	0x3e6a96f6	0.2290915
67	0xbf0178f9	-0.50575215
68	0x3eaaa317	0.33327553
69	0x3eab0259	0.3340023
70	0x3e114322	0.14185765
71	0x3e788b3f	0.24271868
72	0x3d5f6af1	0.054545347
73	0xbeb8fda6	-0.36131018
74	0xbe798439	-0.24366845
75	0xbe917984	-0.28413022
76	0x3e45aa95	0.19303353
77	0xbd695ca1	-0.056973103
78	0x3e57dc47	0.21080123
79	0xbe0fe7b9	-0.14053239
80	0x3dc6da2d	0.097095825
81	0x3cc55787	0.024089588
82	0x3b7e2e9a	0.00387851
83	0x3f4cc428	0.7998681
84	0xbd60d76d	-0.054892946
85	0xbe80031b	-0.2500237
86	0xbd00e23b	-0.03146575
87	0x3e159bda	0.14610234
88	0xbe92cfeb	-0.28674254
89	0xbd25f531	-0.040517036
90	0xbdd27138	-0.10275501
91	0x3ea218f4	0.31659663
92	0x3e69a69d	0.22817464
93	0x3e67ab11	0.2262385
94	0xbec2cd79	-0.38047388
95	0xbd8b17a9	-0.06791622
96	0x3ebeb383	0.37246332
97	0x3d951959	0.07280225
98	0xbe1de7f5	-0.15420516
99	0x3ed02c2e	0.40658706
100	0x3cb98683	0.022647148
101	0xbda67e89	-0.081296034
102	0xbbebca80	-0.0071957707
103	0x3e5bc1bb	0.21460621
104	0xbdbebf98	-0.09313887
105	0xbd3e92d8	-0.04652676
106	0x3f1ce618	0.61288595
107	0xbe83420e	-0.25636333
108	0xbad068e5	-0.0015900402
109	0xbdd13d87	-0.102168135
110	0x3e494091	0.19653536
111	0xbe01bacd	-0.12668915
112	0xbd43f961	-0.047845248
113	0x3e10ca3c	0.14139646
114	0xbe867d62	-0.26267534
115	0x3dd6e8b6	0.10493605
116	0xbda41c6b	-0.08013233
117	0x3e867d67	0.2626755
118	0xbe43004f	-0.19043086
119	0xbe5bd605	-0.2146836
120	0x3de6f8db	0.11277934
121	0x3df16cea	0.11788352
122	0xbe81f3f8	-0.25381446
123	0xbc940646	-0.018069398
124	0x3d461295	0.048357565
125	0x3e82ad72	0.25522953
126	0x3d242010	0.04006964
127	0x3eb70217	0.35743782
128	0x3e388670	0.18020034
129	0x3e572d1e	0.21013305
130	0x3edb37fd	0.42816153
131	0x3d726ea9	0.059187565
132	0xbe449e8a	-0.19201103
133	0x3e0aab28	0.13541853
134	0x3ebb28fa	0.365547
135	0xbe477993	-0.1947997
136	0xbde86449	-0.11347253
137	0x3e7fb5b8	0.24971664
138	0x3d9dca39	0.077045865
139	0xbe1437bf	-0.1447439
140	0xbe942ae9	-0.28938988
141	0x3d956ffa	0.072967485
142	0xbe83d59a	-0.25748903
143	0x3c19e8a6	0.009393847
144	0x3c9e7153	0.019341147
145	0x3e40450f	0.18776344
146	0x3e4c89eb	0.19974487
147	0xbbd01f06	-0.0063513545
148	0x3bc250b7	0.005930032
149	0xbe0a0392	-0.13477924
150	0xbebdae4b	-0.37047037
151	0x3f008a5e	0.5021113
152	0x3f1155c7	0.5677151
153	0x3e11c791	0.14236285
154	0x3e7a8557	0.24464928
155	0x3e6a3a17	0.22873722
156	0xbd581375	-0.05275293
157	0xbe12f3df	-0.14350842
158	0xbebd6641	-0.36992076
159	0x3ed9e15a	0.42554742
160	0x3e65c674	0.22438985
161	0x3e8c567d	0.27409735
162	0xbe03eaef	-0.12882589
163	0xbef9ac5b	-0.4876431
164	0x3d3dc9d9	0.046335075
165	0x3e16fc32	0.14744642
166	0xbdc01f2c	-0.093809456
167	0x3bedd541	0.007258088
168	0xbc61f3e7	-0.013791061
169	0xbcbf6f6d	-0.023368562
170	0xbd21a4ff	-0.039463993
171	0x3d805daa	0.06267865
172	0x3d9a77b3	0.07542362
173	0x3deb9fca	0.11505087
174	0x3d807fb5	0.06274358
175	0x3e4c978a	0.19979683
176	0x3e7717cd	0.24130173
177	0xbe3a94a5	-0.18220766
178	0x3ec660fc	0.38745868
179	0xbda05128	-0.07827979
180	0xbe4f49c9	-0.2024299
181	0x3e294673	0.1653078
182	0x3ec4e36a	0.38454753
183	0xbe8a0d18	-0.26963115
184	0xbec50587	-0.3848078
185	0x3e041095	0.1289695
186	0x3d1897fa	0.03725431
187	0x3dac715e	0.084200606
188	0x3eebf8ab	0.46088156
189	0x3e90a137	0.28247997
190	0xbe630dce	-0.22173235
191	0xbeead75c	-0.4586743
192	0x3e0a1b6d	0.13487025
193	0x3ea5685b	0.3230618
194	0x3e5dcbdc	0.21659797
195	0x3ebe92b2	0.37221295
196	0x3ca84d2c	0.02054461
197	0x3d80041f	0.06250786
198	0xbe64f3d1	-0.22358634
199	0x3d8b3d69	0.067988224
200	0x3effd6f7	0.49968693
201	0x3ebb55e0	0.36588955
202	0xbe1fdb7c	-0.1561107
203	0x3e8bcddf	0.27305505
204	0x3dcb25f4	0.09919348
205	0xbdd7a229	-0.105289765
206	0xbee04eb3	-0.43810043
207	0xbcb7f3c3	-0.022455102
208	0xbe08a149	-0.13342775
209	0x3e85d782	0.26140982
210	0xbead1d9b	-0.3381165
211	0x3e1fce5a	0.1560606
212	0xbe17b71e	-0.14815947
213	0x3e444aba	0.19169131
214	0x3e49b981	0.1969967
215	0xbdc5fd92	-0.09667505
216	0x3de4c983	0.11171248
217	0x3d2bb2ab	0.041918438
218	0xbe0e309d	-0.13885732
219	0x3e1fa7d0	0.15591359
220	0x3e067899	0.13131942
221	0xbe4640bc	-0.19360632
222	0x3c36fb5e	0.011168329
223	0xbdabdc83	-0.08391669
224	0x3d9f8c35	0.07790414
225	0xbead6f78	-0.33874106
226	0xbc7e91ff	-0.015537738
227	0xbeafa772	-0.34307438
228	0xbe2602f0	-0.16212058
229	0xbe25b21e	-0.16181228
230	0x3d5674d4	0.05235751
231	0xbcdb6f9a	-0.026786614
232	0xbf01cfa1	-0.5070744
233	0xbe04aa74	-0.12955648
234	0xbe95ede4	-0.2928306
235	0xbe062143	-0.13098626
236	0xbe6c7c32	-0.23094252
237	0x3dc304a4	0.095223695
238	0xbe995b7c	-0.2995261
239	0xbd7f2f18	-0.06230077
240	0x3e740357	0.23829399
241	0x3de214e5	0.110391416
242	0x3da61a62	0.08110501
243	0x3e8b202e	0.2717299
244	0xbde4bea5	-0.11169175
245	0xbe4fc7f7	-0.20291124
246	0xbeb58ca9	-0.35458878
247	0xbd304d12	-0.04304225
248	0x3e204154	0.1564992
249	0x3dbfa793	0.09358134
250	0x3dcae1d5	0.09906355
251	0x3e75fc2b	0.24021976
252	0xbde2e294	-0.110783726
253	0x3e8cb79f	0.27483842
254	0xbeaa4197	-0.33253166
255	0xbd3bf0ef	-0.04588407

conv1.5.running_var f4 [400]
0	0x3e8517c3	0.2599469
1	0x3e23fa8d	0.16013546
2	0x3e15362b	0.14571445
3	0x3e5b2d5e	0.21404025
4	0x3e881cb2	0.26584393
5	0x3e0c3a63	0.13694148
6	0x3e02f0d5	0.12787183
7	0x3e111f08	0.14171994
8	0x3e3577af	0.17721437
9	0x3e5788f7	0.21048342
10	0x3de9d36d	0.114172794
11	0x3e67b21e	0.2262654
12	0x3e432e70	0.19060683
13	0x3e0c19a9	0.13681664
14	0x3e1d0912	0.15335491
15	0x3e3833a1	0.17988445
16	0x3e2f0949	0.17093386
17	0x3e15cbbb	0.14628498
18	0x3e35f97f	0.17770956
19	0x3e88918a	0.26673537
20	0x3e54f768	0.20797503
21	0x3e341830	0.17587352
22	0x3e26445c	0.16237015
23	0x3e07c74d	0.13259621
24	0x3e211844	0.15731913
25	0x3e1b09bc	0.15140432
26	0x3e5af61c	0.21382946
27	0x3e2b17f9	0.16708364
28	0x3e33739c	0.1752457
29	0x3e16cb09	0.1472589
30	0x3e4bf787	0.19918643
31	0x3e280fe6	0.16412315
32	0x3e48ef13	0.1962245
33	0x3e304653	0.17214327
34	0x3e71c6ce	0.23610994
35	0x3e7832a1	0.24238063
36	0x3e2e816d	0.1704156
37	0x3df583cb	0.11988028
38	0x3e1ab6b8	0.15108764
39	0x3e1d14ab	0.15339915
40	0x3e415498	0.18879926
41	0x3e7028ad	0.23453017
42	0x3e69eeda	0.22845021
43	0x3ea421b8	0.32056975
44	0x3e70622a	0.23474947
45	0x3e62a1ae	0.22131988
46	0x3e6d4da3	0.23174147
47	0x3e2fa348	0.1715213
48	0x3e1936c3	0.14962296
49	0x3e7a4515	0.24440415
50	0x3e2f8a2c	0.17142552
51	0x3e562b5d	0.2091498
52	0x3e2cdb46	0.16880521
53	0x3e1daa55	0.15397008
54	0x3e08c09a	0.13354722
55	0x3de1b456	0.110207245
56	0x3e4afba3	0.19822554
57	0x3e0349f9	0.12821187
58	0x3e6dfbbc	0.2324056
59	0x3e348320	0.17628145
60	0x3e3c40c7	0.18384086
61	0x3dfe8ba8	0.12428981
62	0x3e2dad20	0.16960573
63	0x3dec90b7	0.1155104
64	0x3de47cdf	0.1115663
65	0x3e1619c9	0.14658274
66	0x3e0916ce	0.13387606
67	0x3e531295	0.20612557
68	0x3e1713b1	0.14753605
69	0x3e4416a5	0.19149263
70	0x3e1f1b45	0.15537746
71	0x3df4f934	0.11961594
72	0x3e229a7d	0.15879245
73	0x3e876c7e	0.2644996
74	0x3e6f3cfc	0.23363107
75	0x3e5adc8f	0.21373199
76	0x3e161125	0.14654978
77	0x3e35ca3b	0.17752926
78	0x3e5b0324	0.21387917
79	0x3e38f23e	0.18061158
80	0x3e8ec7ab	0.2788671
81	0x3e4f11b7	0.20221601
82	0x3e358de4	0.17729908
83	0x3e8713fd	0.26382437
84	0x3e44b7d4	0.1921075
85	0x3e45f36b	0.19331138
86	0x3e996027	0.2995617
87	0x3e2e3f5d	0.17016359
88	0x3e14b426	0.14521846
89	0x3e494e71	0.1965883
90	0x3e558d3b	0.20854656
91	0x3e59644f	0.21229671
92	0x3e282ede	0.16424128
93	0x3e2c29ef	0.16812871
94	0x3e52f606	0.20601663
95	0x3e571a5d	0.2100615
96	0x3e754565	0.23952253
97	0x3df5bec8	0.11999279
98	0x3e16764a	0.14693561
99	0x3e8869a5	0.266431
100	0x3e335e5e	0.17516467
101	0x3e28714c	0.1644947
102	0x3e2b5b58	0.16734064
103	0x3e0a1647	0.1348506
104	0x3e400a95	0.18754037
105	0x3e1158ea	0.14194074
106	0x3e64ace5	0.22331579
107	0x3e28f79e	0.16500708
108	0x3df27684	0.11839011
109	0x3e629060	0.22125387
110	0x3e0255f0	0.12728095
111	0x3e2048b8	0.1565274
112	0x3de09ec0	0.10967779
113	0x3e06e10e	0.13171789
114	0x3e874dad	0.2642645
115	0x3df3c04a	0.119019106
116	0x3e415243	0.18879037
117	0x3e285c07	0.16441356
118	0x3e4ec30d	0.20191593
119	0x3e1fcca5	0.1560541
120	0x3e03c9a6	0.12869892
121	0x3ea15f5c	0.31518066
122	0x3df1c8fe	0.11805914
123	0x3e060d63	0.13091044
124	0x3e727356	0.2367681
125	0x3e70cb5a	0.23515072
126	0x3e6a88ed	0.22903796
127	0x3e2a24ce	0.16615602
128	0x3e0ba34d	0.13636513
129	0x3e2dab15	0.16959794
130	0x3e419e6c	0.1890809
131	0x3e84406c	0.258304
132	0x3e39ce54	0.18145114
133	0x3e3651a1	0.17804576
134	0x3e53b10b	0.20673005
135	0x3e926739	0.28594378
136	0x3e522a7e	0.20524022
137	0x3e4fce20	0.20293474
138	0x3e54c78f	0.2077925
139	0x3e0b960c	0.13631457
140	0x3e8abde7	0.2709801
141	0x3ed44ed4	0.4146639
142	0x3e206723	0.15664344
143	0x3e1a86bc	0.1509046
144	0x3e44e8c4	0.19229418
145	0x3e29715c	0.1654715
146	0x3e206c8f	0.15666412
147	0x3e071472	0.13191393
148	0x3e218c3a	0.15776148
149	0x3e184436	0.1486977
150	0x3e932da9	0.28745773
151	0x3e30404a	0.17212024
152	0x3e54751d	0.207478
153	0x3e1d3e47	0.15355788
154	0x3e177ea8	0.1479441
155	0x3e47990e	0.1949198
156	0x3e45f7a3	0.19332747
157	0x3e31cfa8	0.17364371
158	0x3e32c5f6	0.17458329
159	0x3e34ef93	0.17669515
160	0x3e469439	0.1939248
161	0x3e80f3fb	0.25186142
162	0x3e91ce03	0.28477487
163	0x3e6af942	0.22946647
164	0x3e19e81c	0.15029949
165	0x3e1492db	0.14509146
166	0x3e04dde7	0.12975274
167	0x3dcef519	0.101053424
168	0x3de68665	0.112561025
169	0x3e4fbb78	0.20286357
170	0x3e35d114	0.17755538
171	0x3e2eefed	0.17083712
172	0x3ea97284	0.3309518
173	0x3e42e1b8	0.19031417
174	0x3e223e49	0.15844072
175	0x3df8b623	0.12144115
176	0x3e2f7a6d	0.17136545
177	0x3e888210	0.2666173
178	0x3e0b1dc7	0.13585578
179	0x3e55e1ff	0.20886992
180	0x3de951db	0.11392566
181	0x3e219839	0.15780725
182	0x3e2e91d6	0.1704782
183	0x3e3c6d0d	0.18400975
184	0x3e90d885	0.2829019
185	0x3e15f4ee	0.14644215
186	0x3e898a72	0.26863438
187	0x3df8ca8a	0.12148006
188	0x3e873098	0.26404262
189	0x3e744338	0.23853767
190	0x3e37c3d9	0.17945804
191	0x3e68f725	0.22750528
192	0x3e239f4c	0.15978736
193	0x3e8f770b	0.2802051
194	0x3e40ab34	0.18815309
195	0x3e72746b	0.23677222
196	0x3e77df9e	0.24206397
197	0x3e621909	0.22079863
198	0x3dc03c01	0.09386445
199	0x3e6dfecb	0.23241727
200	0x3e641a98	0.2227577
201	0x3e62cd19	0.22148551
202	0x3dd54137	0.10412829
203	0x3e02e514	0.12782699
204	0x3e69ac90	0.22819734
205	0x3e4ed6e8	0.20199168
206	0x3e506e4b	0.20354573
207	0x3e2e7862	0.1703811
208	0x3e692793	0.22769003
209	0x3e1e3bc9	0.15452494
210	0x3e729c3b	0.2369241
211	0x3e86cbdf	0.26327416
212	0x3e05ac1f	0.1305394
213	0x3e71f78f	0.23629592
214	0x3e323e0b	0.1740648
215	0x3e53f0ad	0.2069728
216	0x3e5f87e2	0.21829179
217	0x3e0393a9	0.12849297
218	0x3e346f80	0.17620659
219	0x3e157a46	0.14597425
220	0x3e71b361	0.23603584
221	0x3e13fb3b	0.14451306
222	0x3e2b0c52	0.16703919
223	0x3dbcc392	0.092169896
224	0x3e70ab88	0.23502934
225	0x3e2525b2	0.16127661
226	0x3e3c4844	0.18386942
227	0x3e0dd47e	0.1385059
228	0x3e1dca9b	0.15409319
229	0x3e02ad41	0.12761404
230	0x3e8f8182	0.28028494
231	0x3e91ca29	0.28474548
232	0x3e1fe3be	0.1561422
233	0x3dde7bc9	0.10863454
234	0x3e102815	0.1407779
235	0x3e110506	0.14162073
236	0x3e5a769e	0.21334311
237	0x3e1fa81d	0.15591474
238	0x3e23fe49	0.16014971
239	0x3e647809	0.22311415
240	0x3e1c36a8	0.15255225
241	0x3e31883e	0.17337129
242	0x3e851af0	0.25997114
243	0x3e965795	0.29363695
244	0x3e91281b	0.2835091
245	0x3e060bb0	0.13090396
246	0x3e8a4ad7	0.27010223
247	0x3e164ffa	0.14678946
248	0x3e1e9ce9	0.15489544
249	0x3e7cdc04	0.24693304
250	0x3df1d3c2	0.11807968
251	0x3e10876c	0.1411416
252	0x3e458f69	0.19292988
253	0x3e8b7b34	0.27242434
254	0x3e1e7664	0.1547485
255	0x3e9b4298	0.30324244

conv2.0.weight f4 [10, 1, 6]
0	0xbe46844d	-0.19386406
1	0x3e69e2f0	0.22840476
2	0xbdd1c60a	-0.10242851
3	0xbe40093e	-0.18753526
4	0xbea46329	-0.32106903
5	0xbeda43c9	-0.4262984
6	0xbecfdf4c	-0.4060005
7	0x3ea45a7e	0.3210029
8	0xbe8165ae	-0.25272888
9	0x3ab65ca3	0.0013913106
10	0xbe6f011b	-0.23340265
11	0x3dbc1be6	0.09185009
12	0x3e789746	0.24276456
13	0xbebbe9fa	-0.36701947
14	0x3ce4c513	0.027926004
15	0x3ea40168	0.32032323
16	0xbd05d9b3	-0.032678317
17	0x3ebd1900	0.36933136
18	0xbe05b274	-0.13056356
19	0x3cb8f235	0.02257643
20	0xbcb62f7a	-0.022239435
21	0xbe9de3a7	-0.30837747
22	0x3ec0cde0	0.3765707
23	0xbebef35b	-0.3729504
24	0x3eea2a1d	0.45735255
25	0xbd0f1381	-0.03493071
26	0x3d8c3e4f	0.06847822
27	0xbe5c6fdf	-0.2152705
28	0x3ddd96ee	0.10819803
29	0xbeaefe19	-0.34178236
30	0x3ee6fea8	0.45116162
31	0xbebd19de	-0.36933798
32	0x3d986b7a	0.074423745
33	0x3e68a1f6	0.22718033
34	0x3e066f56	0.13128409
35	0xbeb1b45e	-0.34707922
36	0x3d10a1ee	0.03531068
37	0x3e2c8721	0.16848423
38	0xbc8d06cf	-0.01721516
39	0xbba0d5c4	-0.0049082953
40	0x3d4febe0	0.050762057
41	0x3ef2b491	0.47403386
42	0xbdca4ea9	-0.098782845
43	0xbeb140c7	-0.34619734
44	0x3e3053f0	0.1721952
45	0x3e823876	0.254337
46	0xbe883495	-0.26602617
47	0xbcd478f2	-0.025936577
48	0xbe95f4d3	-0.2928835
49	0xbe581771	-0.21102692
50	0x3de0af7e	0.109709725
51	0xbe39cb0d	-0.18143864
52	0xbe4c445e	-0.19947955
53	0xbea1c10e	-0.31592602
54	0x3ece6f10	0.4031911
55	0xbec0f41f	-0.3768625
56	0xbdf1db1b	-0.11809369
57	0xbdd8f93b	-0.10594412
58	0xbc102c40	-0.0087996125
59	0xbe3c7af2	-0.18406275

conv2.0.bias f4 [10]
0	0x3ebc950b	0.3683246
1	0xbe1b3507	-0.15156947
2	0xbe44eafe	-0.19230267
3	0xbdc1b1a7	-0.094577126
4	0x3ae5c283	0.0017529282
5	0x3ea47984	0.3212396
6	0x3dacf340	0.08444834
7	0xbeb3ef56	-0.35143536
8	0xbea84a06	-0.32868975
9	0x3e4f923c	0.20270628

conv2.1.weight f4 [10]
0	0x3f85705a	1.0424912
1	0x3f86cc4d	1.0531098
2	0x3f85c0b8	1.0449438
3	0x3f88a4ba	1.067527
4	0x3f86dab7	1.0535496
5	0x3f8ab088	1.0835123
6	0x3f834914	1.0256677
7	0x3f867c28	1.050664
8	0x3f840945	1.0315329
9	0x3f879540	1.0592422

conv2.1.bias f4 [10]
0	0xbb89a49b	-0.0042005307
1	0x3c8a7a42	0.016904
2	0x3c8ccd92	0.017187867
3	0xbbe00f3c	-0.0068377536
4	0x3c3c2a5d	0.01148471
5	0x3ba1a009	0.0049324078
6	0x3c80b690	0.015712053
7	0x3ba32746	0.004979047
8	0xbc977d0a	-0.01849224
9	0xbb2fbbbd	-0.0026814782

conv2.1.running_mean f4 [10]
0	0x3fef4b13	1.8694786
1	0x3f048ec9	0.5178037
2	0xbf84ef7b	-1.0385584
3	0x3f1d5af9	0.6146694
4	0xbd9e2220	-0.077213526
5	0x3d9519f1	0.072803386
6	0xbf84e1d6	-1.038142
7	0x3cdebc42	0.027189378
8	0x3fa84963	1.3147396
9	0x3f36a6e4	0.71348405

conv2.1.running_var f4 [10]
0	0x3fb0c7d9	1.3810989
1	0x3f04a8fc	0.5182035
2	0x3f2ff5a2	0.6873418
3	0x3f0cb539	0.54964024
4	0x3eb1809d	0.34668437
5	0x3f1875aa	0.5955454
6	0x3f407abb	0.7518727
7	0x3ed5b7e9	0.41741875
8	0x3fb94cdb	1.447658
9	0x3ee2d244	0.44301045
