model/ab_pssm_k4_model.ckpt (torch, 635099 bytes, 40 tensors)

conv1.0.weight f4 [10, 1, 3]
0.15144633 0.55180967 -0.078005165 0.45828855 0.5454698 0.04019479 0.12126369 -0.33467185
0.17176704 0.15361632 -0.36989093 0.4201153 0.31065452 -0.23741673 0.37559965 0.095215045
0.5160177 -0.10321436 0.56637293 0.442539 0.54030186 -0.392229 -0.4592625 -0.26799107
-0.36685956 0.1775371 -0.39500603 -0.012724385 -0.06169745 -0.12054496
00000000: bf14 1b3e 6643 0d3f 2cc1 9fbd cca4 ea3e
00000010: e9a3 0b3f 4ba3 243d 1959 f83d 1c5a abbe
00000020: b3e3 2f3e 994d 1d3e 5862 bdbe 5a19 d73e
00000030: 1c0e 9f3e 5f1d 73be 994e c03e 1b00 c33d
00000040: bc19 043f 0d62 d3bd d1fd 103f 7994 e23e
00000050: 3951 0a3f 3dd2 c8be 7424 ebbe 2036 89be
00000060: 04d5 bbbe 49cc 353e 3b3e cabe f079 50bc
00000070: 77b6 7cbd 47e0 f6bd

conv1.0.bias f4 [10]
-0.28515232 -0.42440835 -0.061379503 -0.36460152 0.42128038 0.0091056 0.13752311 0.33033162
0.44094038 -0.21881945
00000000: 7cff 91be 0d4c d9be 1369 7bbd 0dad babe
00000010: 10b2 d73e a82f 153c dcd2 0c3e 3a21 a93e
00000020: f0c2 e13e 3512 60be

conv1.1.weight f4 [10]
0.99482054 0.99258703 0.98256 0.9809086 0.99096787 0.9866641 0.99034286 0.99462885
1.007679 0.9860167
00000000: 8fac 7e3f 2f1a 7e3f 0d89 7b3f d31c 7b3f
00000010: 12b0 7d3f 0596 7c3f 1c87 7d3f ff9f 7e3f
00000020: a0fb 803f 976b 7c3f

conv1.1.bias f4 [10]
-0.0011654482 -0.017275246 -0.004165324 0.006357173 0.0072322013 0.02478743 -0.0062450543 -3.1595948e-05
-0.017344126 0.0068801944
00000000: f4c1 98ba d184 8dbc 457d 88bb d54f d03b
00000010: 1afc ec3b 020f cb3c 50a3 ccbb e485 04b8
00000020: 4515 8ebc 4173 e13b

conv1.1.running_mean f4 [10]
-1.2571738 -1.9424764 0.07575756 -0.64979476 -0.2810106 -0.8372693 -2.2444336 2.0714269
1.3679179 0.116252676
00000000: 12eb a0bf 11a3 f8bf c826 9b3d f358 26bf
00000010: 9fe0 8fbe 4857 56bf cda4 0fc0 4292 0440
00000020: ef17 af3f e215 ee3d

conv1.1.running_var f4 [10]
0.8406232 1.6232822 0.20644052 0.4162023 0.5054327 0.67825526 3.3349342 1.8553659
0.69518167 0.104794264
00000000: 1533 573f b6c7 cf3f 2565 533e 7818 d53e
00000010: 0a64 013f 23a2 2d3f 906f 5540 a17c ed3f
00000020: 6df7 313f 609e d63d

conv1.4.weight f4 [400, 10, 3]
0.015436582 -0.104448415 -0.06414279 0.043527678 0.068849 -0.16256891 -0.09165693 0.06321145
0.002895546 0.086582944 0.015304347 -0.09324962 -0.08245702 0.05644362 -0.15499687 -0.12558593
0.16727856 -0.05342109 0.10033264 0.1575248 0.14442971 -0.12873378 -0.06648276 -0.096514754
0.15228835 0.14888638 0.09834315 -0.09732818 0.16198047 0.072953835 0.025300622 -0.034676783
-0.09289309 0.10732492 -0.13368407 0.010473461 0.096158296 0.14194599 0.142512 -0.03801332
0.06847158 -0.07338811 -0.097015314 -0.071952105 -0.16487014 -0.17543937 0.065977275 -0.034976713
-0.15527785 -0.08529303 -0.006077193 -0.09972157 0.09136603 -0.0910769 0.056015547 0.0015320046
-0.12524919 -0.0899807 -0.18153213 -0.14311793 -0.1338593 0.07380775 0.16370948 0.09577978
-0.09026996 -0.114714354 0.10378998 -0.14432669 0.17435052 -0.1629934 -0.16719116 -0.14279884
-0.0067216144 0.002643055 0.114786506 -0.19517267 -0.09372081 -0.06891979 0.09353985 0.10460458
0.13934736 -0.1701659 -0.1895844 0.11058154 0.1647309 -0.18002129 -0.12123345 0.12660721
-0.048398387 -0.09451339 -0.056841306 -0.106773846 -0.020627744 0.06930095 0.12189144 0.13317297
0.12538342 -0.023466704 -0.09186902 -0.13352929 -0.10383646 -0.20766437 -0.10142632 -0.14420722
0.10193748 0.036971588 -0.043234605 -0.015177838 0.15243648 -0.045026194 0.08257063 -0.064532146
-0.013164371 -0.06524912 -0.052867427 -0.05987112 0.05938365 0.08649233 0.090162635 0.07604711
-0.13396204 0.16533248 -0.07335672 0.007168852 -0.042461023 0.13207296 0.050634164 0.1298503
0.029799549 -0.07237255 0.16416019 -0.0017841157 -0.11556151 0.15231872 -0.07065264 0.08857161
-0.14295286 0.12596224 0.048410065 0.041649926 0.17702498 -0.12951536 0.06443198 0.008903984
-0.14209077 -0.030775974 0.12594947 0.14361326 0.14859775 -0.014811794 -0.047907345 -0.21617782
-0.11660757 -0.0769369 -0.1350903 0.16470666 0.07243798 -0.19019178 0.097497344 -0.06204783
-0.14284983 0.039218612 -0.04011716 -0.060151756 0.0483904 -0.16934031 -0.19174008 0.0110676065
-0.029459346 -0.05186197 -0.08507353 -0.0108927945 -0.100868426 0.1709918 -0.19837868 -0.07419591
-0.16368975 0.09415972 0.17348233 -0.14113256 -0.054188214 0.15423298 -0.049271427 0.015882568
-0.120265834 -0.11403034 0.08459392 0.12069851 0.028887523 -0.04507632 0.12556893 -0.13960062
-0.046759624 -0.12939663 -0.07478256 -0.14982109 -0.17297107 0.14681882 -0.028782785 0.07572568
0.022910202 0.0724476 -0.1522007 0.0031406372 0.17191382 0.029361473 0.12626599 -0.04223526
-0.064966306 0.11289566 -0.16036135 0.12981376 0.044700336 0.02499025 -0.059240203 0.16111197
0.05248023 -0.12416052 -0.06832146 0.022912439 -0.04150302 -0.008282394 -0.13680117 0.010896805
-0.11363864 -0.033458874 -0.09432759 -0.031949375 0.028227847 0.13096091 -0.0059053805 0.10280341
0.1370935 -0.07183955 -0.15171242 -0.040382814 -0.16739865 -0.17674616 0.14436188 0.020358734
0.01784274 -0.15168671 0.15914162 -0.05942433 0.16187893 -0.16719443 -0.1369022 -0.0064247935
0.0033917055 -0.014138921 0.11070591 -0.000105471285 -0.021530507 0.079188764 -0.04244043 -0.09866442
00000000: b8e9 7c3c 0de9 d5bd 4c5d 83bd 144a 323d
00000010: b400 8d3d 7778 26be a1b6 bbbd 0175 813d
00000020: 33c3 3d3b 6652 b13d 15bf 7a3c a8f9 bebd
00000030: 3adf a8bd 6d31 673d 80b7 1ebe 9999 00be
00000040: 124b 2b3e 13d0 5abd 337b cd3d 2e4e 213e
00000050: 62e5 133e cad2 03be 1d28 88bd 87a9 c5bd
00000060: 7af1 1b3e ac75 183e 2268 c93d ff53 c7bd
00000070: 35de 253e d268 953d 4043 cf3c 3e09 0ebd
00000080: bb3e bebd 2bcd db3d 7ae4 08be e198 2b3c
00000090: a4ee c43d 4a5a 113e aaee 113e dbb3 1bbd
000000a0: d43a 8c3d 814c 96bd f7af c6bd a05b 93bd
000000b0: b8d3 28be 61a6 33be 181f 873d be43 0fbd
000000c0: 2801 1fbe 1dae aebd 3123 c7bb d33a ccbd
000000d0: 1d1e bb3d 8786 babd 8f70 653d 8bcd c83a
000000e0: 5341 00be cd47 b8bd 8fe3 39be 828d 12be
000000f0: 6a12 09be 8528 973d 75a3 273e 3028 c43d
00000100: 75df b8bd 5cef eabd d78f d43d 60ca 13be
00000110: f188 323e bee7 26be 2934 2bbe dc39 12be
00000120: fd40 dcbb 1b37 2d3b 3015 eb3d 58db 47be
00000130: b2f0 bfbd d225 8dbd d291 bf3d ed3a d63d
00000140: 13b1 0e3e f83f 2ebe 6a22 42be 9378 e23d
00000150: 38af 283e 8057 38be 3e49 f8bd 52a5 013e
00000160: 633d 46bd 3c90 c1bd 6ed2 68bd 3fac dabd
00000170: 84fb a8bc a8ed 8d3d 38a2 f93d 7f5e 083e
00000180: 8364 003e 3f3d c0bc d325 bcbd e7bb 08be
00000190: 36a8 d4bd f8a5 54be 9ab8 cfbd 0fab 13be
000001a0: 99c4 d03d 856f 173d c516 31bd 77ac 78bc
000001b0: 4f18 1c3e 636d 38bd ca1a a93d 6e29 84bd
000001c0: 60af 57bc 55a1 85bd 848b 58bd 6b3b 75bd
000001d0: 453c 733d e422 b13d 30a7 b83d 96be 9b3d
000001e0: 582d 09be eb4c 293e 0c3c 96bd b0e8 ea3b
000001f0: 9ceb 2dbd 223e 073e c565 4f3d 7af7 043e
00000200: 2f1e f43c 0f38 94bd 9c19 283e fdd8 e9ba
00000210: 83ab ecbd 70f9 1b3e 55b2 90bd 0865 b53d
00000220: 3c62 12be 3ffc 003e a249 463d 1d99 2a3d
00000230: 0946 353e ad9f 04be eaf4 833d 04e2 113c
00000240: 3e80 11be e51d fcbc e6f8 003e 5b0f 133e
00000250: 022a 183e 2bad 72bc 7e3a 44bd b85d 5dbe
00000260: f3cf eebd 1891 9dbd 1d55 0abe dda8 283e
00000270: 5d5a 943d a2c1 42be b0ac c73d de25 7ebd
00000280: 3a47 12be b2a3 203d e451 24bd b061 76bd
00000290: 0335 463d 8c67 2dbe 8357 44be e854 353c
000002a0: ba54 f1bc 386d 54bd 083b aebd b177 32bc
000002b0: 1b94 cebd 7918 2f3e c823 4bbe 06f4 97bd
000002c0: 499e 27be d0d6 c03d 5aa5 313e 0e85 10be
000002d0: 76f4 5dbd 40ef 1d3e d6d0 49bd 291c 823c
000002e0: ef4d f6bd bd88 e9bd 943f ad3d c830 f73d
000002f0: 87a5 ec3c f3a1 38bd 2495 003e 77f3 0ebe
00000300: 0587 3fbd 8d80 04be 9927 99bd b36a 19be
00000310: 541f 31be ac57 163e e0c9 ebbc 1116 9b3d
00000320: 2dae bb3c 685f 943d 80da 1bbe 26d3 4d3b
00000330: 2d0a 303e 7987 f03c df4b 013e e1fe 2cbd
00000340: 0e0d 85bd d735 e73d c435 24be e6ed 043e
00000350: b317 373d 5ab8 cc3c dba5 72bd 89fa 243e
00000360: 82f5 563d df47 febd 1fec 8bbd deb2 bb3c
00000370: 12ff 29bd e1b2 07bc 9b15 0cbe 8388 323c
00000380: 60bb e8bd 2c0c 09bd d32e c1bd 59dd 02bd
00000390: 163e e73c 9e1a 063e ec81 c1bb 988a d23d
000003a0: 3d62 0c3e 9d20 93bd 805a 1bbe 7368 25bd
000003b0: 8d6a 2bbe f2fc 34be 9ad3 133e 5cc7 a63c
000003c0: f02a 923c c353 1bbe 05f6 223e ed66 73bd
000003d0: 97c3 253e 0435 2bbe 1730 0cbe 1387 d2bb
000003e0: 6047 5e3b efa6 67bc c8b9 e23d 7730 ddb8
000003f0: bf60 b0bc b82d a23d 04d6 2dbd 9210 cabd

conv1.4.bias f4 [400]
0.08120493 0.12624943 -0.095821396 0.09572935 -0.18535219 -0.16747342 0.07768299 0.14564382
0.17239931 -0.10279735 0.009960807 -0.10952394 -0.17237145 -0.05659468 -0.008357396 -0.04762869
0.11124999 0.05758434 -0.12721986 -0.08528357 -0.0646088 -0.0203862 -0.039293844 -0.030269304
0.023779847 -0.12130506 -0.12324704 -0.08931698 -0.06522058 0.14995341 0.17105918 0.12459905
-0.07214186 0.025544336 -0.19241938 0.107170746 0.04529545 0.029734896 -0.06871692 0.114960335
-0.063543156 -0.11341427 0.02781157 0.14483525 0.0025376966 -0.09891075 0.136594 -0.19137335
-0.13571289 -0.015687525 -0.037395556 0.09584556 0.09111129 0.08837271 -0.1044045 0.10777046
0.09223432 0.029136226 0.05945977 -0.13439423 -0.13372652 0.11827893 -0.077848986 0.098502964
0.0014100677 -0.123280965 -0.09995932 0.15833198 0.050889835 -0.09829705 0.044375986 0.125296
0.013109397 0.07629938 -0.025615562 -0.15298072 0.13788113 -0.15376393 0.068093106 -0.14730626
-0.09061771 0.14247733 -0.107194506 -0.09893 -0.1327577 0.10118249 -0.13200612 -0.015644802
0.10953423 -0.17034534 -0.17327324 -0.06398533 -0.018019652 -0.08602144 0.100819744 0.12649053
-0.10865873 -0.119709 0.12049928 0.036603693 -0.1434604 -0.086303174 0.13530219 0.16127272
0.15427068 0.02522932 -0.03549716 -0.027918555 -0.13086952 0.07083714 0.16148445 -0.087213375
-0.17723303 0.15497842 0.16190623 -0.029197343 0.16947037 0.054693192 -0.028394783 -0.15954034
0.11908391 0.13654798 -0.122523 -0.046380084 -0.017909195 -0.15628317 -0.016958905 -0.011330692
-0.09681023 -0.17141864 -0.096172124 -0.10096315 0.09668562 0.116804585 0.00063445535 -0.15875776
0.019618485 -0.101066984 -0.12669653 -0.029038481 0.060449578 -0.13418457 0.1693941 0.16955096
0.067633055 0.0122538265 -0.001554729 -0.033061836 0.017923975 0.08305546 0.040295254 -0.0040828874
0.045503225 -0.09145172 -0.029054541 -0.051474683 -0.09506541 0.08821774 0.06530722 0.11962949
0.13516341 -0.14001504 0.051821653 -0.039105646 0.01981373 0.088438265 0.03502797 0.0345823
-0.15540314 0.05416466 0.041746985 -0.15617874 -0.094300635 -0.13628305 0.017783053 -0.16129638
0.013870731 0.014198857 -0.15047148 0.11575651 0.09099333 -0.12395793 0.052181393 0.05302131
-0.10548575 0.118146546 -0.090133086 -0.009215138 0.10568471 -0.02480458 0.039029624 0.047061108
0.07719204 0.06793109 0.14791791 0.04508078 -0.18170878 0.05913669 -0.043585904 0.088168174
-0.033973634 0.018059766 0.06743583 0.13504253 -0.020437768 -0.07403167 -0.13025834 -0.18575744
-0.07523462 -0.19732237 0.058979474 0.12885933 -0.16581899 -0.018162463 -0.11300324 -0.12887876
-0.1689408 0.025612049 -0.090695284 -0.024194555 -0.046161298 -0.036076948 -0.008629557 0.12910356
-0.06334186 -0.14911653 0.07356264 0.15461144 0.14322384 0.012001119 -0.07917335 0.09119255
0.123026185 -0.1536231 0.13561139 -0.0865615 -0.051812276 -0.16988836 0.10425926 -0.12657058
-0.1459592 0.038230423 0.025287354 -0.038650274 -0.08762559 -0.08963612 -0.12262885 0.101455405
-0.15885128 0.057264127 -0.119269155 0.14647894 0.114934556 0.08308359 -0.15653303 -0.12594514
00000000: c54e a63d 8847 013e 023e c4bd c00d c43d
00000010: f7cc 3dbe 277e 2bbe 4218 9f3d a723 153e
00000020: 7289 303e 6b87 d2bd a732 233c 164e e0bd
00000030: 2482 30be d3cf 67bd 76ed 08bc 4d16 43bd
00000040: 09d7 e33d 8fdd 6b3d ec45 02be 27a9 aebd
00000050: 9e51 84bd f600 a7bc 95f2 20bd 55f7 f7bc
00000060: f4cd c23c ca6e f8bd f268 fcbd d2eb b6bd
00000070: 5e92 85bd 638d 193e 232a 2f3e c92d ff3d
00000080: 1dbf 93bd 5b42 d13c 9609 45be 567c db3d
00000090: b987 393d 9996 f33c 75bb 8cbd 5370 eb3d
000000a0: ea22 82bd be45 e8bd 17d5 e33c b14f 143e
000000b0: 7c4f 263b b891 cabd 4cdf 0b3e 60f7 43be
000000c0: 52f8 0abe 2083 80bc 152c 19bd ad4a c43d
000000d0: 8e98 ba3d c0fc b43d 07d2 d5bd c2b6 dc3d
000000e0: 59e5 bc3d 18af ee3c 168c 733d a49e 09be
000000f0: 9bef 08be 393c f23d 4a6f 9fbd ecbb c93d
00000100: 05d2 b83a bb7a fcbd 79b7 ccbd c721 223e
00000110: dc71 503d f74f c9bd 98c3 353d 984d 003e
00000120: ccc8 563c d942 9c3d bad7 d1bc faa6 1cbe
00000130: b630 0d3e 4b74 1dbe 6674 8b3d 74d7 16be
00000140: c795 b9bd 94e5 113e cb88 dbbd d09b cabd
00000150: a2f1 07be c438 cf3d 9d2c 07be 8729 80bc
00000160: 7b53 e03d 026f 2ebe 8a6e 31be be0a 83bd
00000170: f39d 93bc 022c b0bd 957a ce3d bc86 013e
00000180: 7888 debd fe29 f5bd 54c8 f63d c1ed 153d
00000190: 48e7 12be b8bf b0bd a88c 0a3e ad24 253e
000001a0: 22f9 1d3e b8ad ce3c 7865 11bd 74b5 e4bc
000001b0: a902 06be 1013 913d 2e5c 253e ed9c b2bd
000001c0: 937c 35be aab2 1e3e bfca 253e 442f efbc
000001d0: a489 2d3e f805 603d 2d9c e8bc 8b5e 23be
000001e0: 44e2 f33d 3cd3 0b3e 57ed fabd 0bf9 3dbd
000001f0: 4eb6 92bc b208 20be 67ed 8abc 5ea4 39bc
00000200: 7144 c6bd 5e88 2fbe e4f5 c4bd c5c5 cebd
00000210: 1c03 c63d 3e37 ef3d 9451 263a 6591 22be
00000220: f2b6 a03c 35fc cebd bcbc 01be 1ce2 edbc
00000230: fa99 773d ae67 09be a675 2d3e c49e 2d3e
00000240: 3383 8a3d 46c4 483c 0cc8 cbba d96b 07bd
00000250: 4dd5 923c fb18 aa3d a30c 253d bec9 85bb
00000260: 9761 3a3d 0a4b bbbd ca03 eebc 1ed7 52bd
00000270: a7b1 c2bd 81ab b43d cbbf 853d 4e00 f53d
00000280: 4768 0a3e 1a60 0fbe f142 543d 3e2d 20bd
00000290: 6750 a23c 1f1f b53d 7d79 0f3d 2ba6 0d3d
000002a0: 0022 1fbe c3db 5d3d e3fe 2a3d 52ed 1fbe
000002b0: b120 c1bd c98d 0bbe c4ad 913c e12a 25be
000002c0: 1042 633c 53a2 683c 3215 1abe c011 ed3d
000002d0: b65a ba3d a8dd fdbd 28bc 553d e02c 593d
000002e0: ea08 d8bd d1f6 f13d b297 b8bd 17fb 16bc
000002f0: 3a71 d83d f932 cbbc 87dd 1f3d 26c3 403d
00000300: dc16 9e3d 751f 8b3d cb77 173e a0a6 383d
00000310: de11 3abe 5039 723d 2287 32bd 8491 b43d
00000320: f027 0bbd 13f2 933c cc1b 8a3d 9748 0a3e
00000330: 1b6d a7bc eb9d 97bd 7162 05be 3337 3ebe
00000340: 9c14 9abd e00e 4abe 7694 713d b3f3 033e
00000350: 74cc 29be 72c9 94bc 3e6e e7bd cbf8 03be
00000360: d1fe 2cbe 5cd0 d13c 73be b9bd a933 c6bc
00000370: a113 3dbd 6cc5 13bd fc62 0dbc b933 043e
00000380: 61b9 81bd 01b2 18be 02a8 963d 7652 1e3e
00000390: 45a9 123e 57a0 443c a325 a2bd 29c3 ba3d
000003a0: 27f5 fb3d 604f 1dbe b6dd 0a3e 2847 b1bd
000003b0: 1c39 54bd 37f7 2dbe e185 d53d b89b 01be
000003c0: 5476 15be 8197 1c3d 6d27 cf3c c04f 1ebd
000003d0: 0c75 b3bd 2493 b7bd d624 fbbd dac7 cf3d
000003e0: e9a9 22be ca8d 6a3d 6343 f4bd 93fe 153e
000003f0: cf62 eb3d bb27 aa3d 324a 20be c3f7 00be

conv1.5.weight f4 [400]
0.99442077 0.9823529 0.99404037 0.98721737 0.98541296 0.9901816 0.9886564 0.9918707
0.98574173 0.9891195 0.9833478 0.9908255 0.9908923 0.9880237 0.98663795 0.99154097
0.9896838 0.9911226 0.98728323 0.9855908 0.9939616 0.98871905 1.0017581 0.9851607
0.9866793 0.98176795 0.9893531 0.9970464 0.98445606 0.99605316 0.9870412 0.99279654
0.9911856 0.98775977 0.98994666 0.9889748 0.98730296 0.996461 0.9800209 0.98419076
0.99671555 0.99294144 0.982644 0.9913086 0.99352324 1.0006447 0.99766266 0.97829044
0.99274296 0.9889687 0.9982954 0.9841494 0.98681515 0.98890805 0.99082834 0.98860246
0.98994 0.98344344 0.98940897 0.991209 0.9886538 0.98221856 0.98008996 0.9803332
0.98866206 0.98295194 0.987735 0.9916288 0.9870162 0.991243 0.9866943 0.9877959
0.98677915 0.978094 0.98803437 1.004481 0.99020404 0.9917044 0.980579 0.9914963
0.98965544 0.98475677 0.990928 0.9928278 0.9821477 0.9908316 0.9891486 0.9946157
0.9866596 0.9865081 0.9913616 1.0002147 0.9852568 1.0024604 0.99108166 0.9964122
0.9996279 0.9858546 0.98822993 0.9823878 0.9916748 0.982427 0.99590135 0.994037
0.9811767 0.98682785 0.98782635 0.98575336 0.98630285 0.9910665 0.9813164 0.991886
0.9853448 0.9947068 0.98421276 0.99023527 0.98623765 0.98098934 0.9898742 0.98316574
0.99026555 0.986134 0.9961379 0.99254954 0.9963382 0.99899566 0.98254883 0.99711436
0.9923953 0.9858619 0.9865184 0.9848787 0.989608 0.988047 0.98986816 0.984772
0.9850035 0.984701 0.9832649 0.98338675 0.98518074 0.99064946 0.99299854 0.98608714
0.9858391 0.9954106 1.000396 0.99608827 0.98482347 0.9974355 1.0074766 0.9852281
0.9902175 0.9926725 0.9860999 0.9899594 0.9889353 0.98568785 0.978182 0.9928778
0.9885951 0.98421806 0.9854458 0.9880861 0.98675466 0.9931552 0.9899484 1.0041438
0.9873066 0.9899178 0.9907866 0.9853918 0.98589814 0.98750365 0.98446125 0.9856636
0.98689145 0.9863814 0.9948547 0.98760325 0.98636144 0.9895733 0.9867344 0.98262054
0.9825858 0.9886488 0.9836647 0.9841352 0.9970644 0.97984856 0.99640256 0.9890424
0.9949355 0.99670947 0.9828861 0.98599994 0.99904794 0.9834489 0.98674667 0.98320997
0.99323803 0.99027 0.98891896 0.9834829 0.9912847 0.98829776 0.98843515 1.0021299
0.98880416 0.98486024 0.9839868 0.9871003 0.9836966 0.9850753 0.9918503 0.9870914
0.9928091 0.98157287 0.9919514 0.9890095 0.9882009 0.9959303 0.99398583 0.9851527
0.9804538 0.9886763 0.99305737 0.9891626 0.9872133 0.9867499 0.98494655 0.98209846
0.98758274 0.98449945 0.9816181 0.9881759 0.9867736 0.98796856 0.98818123 0.98576736
0.9896047 0.98452514 0.9824307 0.9873947 0.9877242 0.9865832 1.0030326 0.98709625
0.98671585 0.98842 0.9819189 0.99061394 1.0014985 0.9852174 0.98444235 0.98920316
00000000: 5c92 7e3f 7b7b 7b3f 6e79 7e3f 47ba 7c3f
00000010: 0644 7c3f 8b7c 7d3f 9618 7d3f 3deb 7d3f
00000020: 9259 7c3f f036 7d3f aebc 7b3f bda6 7d3f
00000030: 1eab 7d3f 1fef 7c3f 4e94 7c3f a1d5 7d3f
00000040: eb5b 7d3f 36ba 7d3f 98be 7c3f ae4f 7c3f
00000050: 4474 7e3f b11c 7d3f 9c39 803f 7e33 7c3f
00000060: 0497 7c3f 2555 7b3f 3f46 7d3f 6f3e 7f3f
00000070: 5005 7c3f 57fd 7e3f bbae 7c3f ea27 7e3f
00000080: 57be 7d3f d3dd 7c3f 256d 7d3f 742d 7d3f
00000090: e3bf 7c3f 1118 7f3f a6e2 7a3f edf3 7b3f
000000a0: c028 7f3f 6931 7e3f 8f8e 7b3f 67c6 7d3f
000000b0: 8a57 7e3f 2015 803f d266 7f3f 3e71 7a3f
000000c0: 6724 7e3f 0d2d 7d3f 4a90 7f3f 37f1 7b3f
000000d0: eb9f 7c3f 1429 7d3f eda6 7d3f 0d15 7d3f
000000e0: b56c 7d3f f3c2 7b3f e849 7d3f dfbf 7d3f
000000f0: 6a18 7d3f ad72 7b3f 2de7 7a3f 1ef7 7a3f
00000100: f518 7d3f bda2 7b3f 33dc 7c3f 63db 7d3f
00000110: 18ad 7c3f 1ac2 7d3f ff97 7c3f 31e0 7c3f
00000120: 8f9d 7c3f 5e64 7a3f d2ef 7c3f d592 803f
00000130: 037e 7d3f 57e0 7d3f 3a07 7b3f b4d2 7d3f
00000140: 0f5a 7d3f 0519 7c3f 75ad 7d3f f629 7e3f
00000150: 086e 7b3f 24a7 7d3f d838 7d3f 229f 7e3f
00000160: b995 7c3f cb8b 7c3f e0c9 7d3f 0907 803f
00000170: ca39 7c3f 9f50 803f 87b7 7d3f df14 7f3f
00000180: 9de7 7f3f f860 7c3f a3fc 7c3f c47d 7b3f
00000190: 66de 7d3f 5680 7b3f 64f3 7e3f 3579 7e3f
000001a0: 652e 7b3f c0a0 7c3f 30e2 7c3f 555a 7c3f
000001b0: 587e 7c3f 89b6 7d3f 8d37 7b3f 3eec 7d3f
000001c0: 8f3f 7c3f 1ba5 7e3f 5ef5 7b3f 0f80 7d3f
000001d0: 127a 7c3f 1e22 7b3f 6568 7d3f c0b0 7b3f
000001e0: 0b82 7d3f 4773 7c3f e502 7f3f ba17 7e3f
000001f0: 0510 7f3f 2ebe 7f3f 5288 7b3f e342 7f3f
00000200: 9e0d 7e3f 7261 7c3f 788c 7c3f 0321 7c3f
00000210: f356 7d3f a6f0 7c3f 0068 7d3f 051a 7c3f
00000220: 3029 7c3f 5d15 7c3f 40b7 7b3f 3cbf 7b3f
00000230: ce34 7c3f 349b 7d3f 2735 7e3f 3570 7c3f
00000240: f45f 7c3f 3bd3 7e3f fa0c 803f a4ff 7e3f
00000250: 641d 7c3f ef57 7f3f fef4 803f e937 7c3f
00000260: e57e 7d3f c91f 7e3f 0b71 7c3f fb6d 7d3f
00000270: dd2a 7d3f 0a56 7c3f 236a 7a3f 3d2d 7e3f
00000280: 9214 7d3f b7f5 7b3f 2d46 7c3f 36f3 7c3f
00000290: f49b 7c3f 6b3f 7e3f 426d 7d3f c987 803f
000002a0: 20c0 7c3f 416b 7d3f 31a4 7d3f a342 7c3f
000002b0: d263 7c3f 0acd 7c3f a705 7c3f 7354 7c3f
000002c0: eba4 7c3f 7e83 7c3f ccae 7e3f 91d3 7c3f
000002d0: 2f82 7c3f ad54 7d3f a09a 7c3f 058d 7b3f
000002e0: be8a 7b3f 1618 7d3f 73d1 7b3f 49f0 7b3f
000002f0: 9d3f 7f3f 5bd7 7a3f 3d14 7f3f e231 7d3f
00000300: 18b4 7e3f 5a28 7f3f 6c9e 7b3f 7e6a 7c3f
00000310: 9bc1 7f3f 4fc3 7b3f 6e9b 7c3f a6b3 7b3f
00000320: d944 7e3f 5682 7d3f cb29 7d3f 89c5 7b3f
00000330: d6c4 7d3f 1501 7d3f 160a 7d3f cb45 803f
00000340: 4522 7d3f cd1f 7c3f 8fe6 7b3f 9bb2 7c3f
00000350: 8ad3 7b3f e52d 7c3f e7e9 7d3f 06b2 7c3f
00000360: bd28 7e3f 5c48 7b3f 87f0 7d3f ba2f 7d3f
00000370: bcfa 7c3f 4af5 7e3f db75 7e3f f832 7c3f
00000380: 05ff 7a3f e419 7d3f 0239 7e3f c339 7d3f
00000390: 03ba 7c3f a49b 7c3f 7525 7c3f ce6a 7b3f
000003a0: 39d2 7c3f 2808 7c3f 534b 7b3f 19f9 7c3f
000003b0: 329d 7c3f 82eb 7c3f 72f9 7c3f 405b 7c3f
000003c0: bc56 7d3f d709 7c3f 9480 7b3f e6c5 7c3f
000003d0: 7edb 7c3f b790 7c3f 5f63 803f 57b2 7c3f
000003e0: 6999 7c3f 1809 7d3f 095f 7b3f e098 7d3f
000003f0: 1a31 803f 3537 7c3f 6a04 7c3f 6b3c 7d3f

conv1.5.bias f4 [400]
-0.010550929 -0.008086252 -0.00348722 -0.0011917353 -0.006860665 -0.0010329247 -0.014909441 -0.003057718
-0.0037710185 -0.005903854 -0.007454703 -0.005664957 -0.005930381 -0.005651303 -0.013665375 -0.007238819
-0.002539288 -0.0029534542 -0.012074907 -0.004954306 -0.0034357253 -0.010900872 -0.00018061913 -0.0023065065
-0.008805426 -0.013171218 -0.0062423283 -0.0005277749 -0.013996436 0.0011562462 -0.012431692 0.0015552685
-0.012012372 -0.0011165309 -0.0060708947 -0.00715759 -0.0070677847 -0.002953742 -0.02026252 -0.0030948308
-0.0010028832 -0.007293683 -0.010186767 -0.0046040695 -0.0022908868 -0.005427899 -0.004721299 -0.018134153
-0.0049963268 -0.0069404473 -0.00457843 -0.004746135 -0.007650776 -0.0067102783 -0.0031347617 -0.0027848955
-0.0040778313 -0.01688625 -0.007378067 -0.0012445372 -0.007275663 -0.009653459 -0.008275191 -0.01838752
-0.0018652146 -0.0097503755 -0.011682996 -0.0046088747 -0.0018678404 -0.00069643813 -0.0040903217 -0.014594809
-0.007558269 -0.012027144 -0.0045910873 0.00015346977 -0.004159105 -0.0017756012 -0.010678496 -0.0051362226
-0.0027240864 -0.0051007783 -0.0030838677 -0.002034841 -0.008600592 -0.0062901806 -0.0040374673 -0.01113903
-0.005747582 -0.007579534 -0.0067882226 -0.0033428066 -0.0054430063 0.0007927736 0.0020094344 -0.007204743
-0.0017794779 -0.006600558 -0.007631412 -0.003593299 -0.004436514 -0.0029857398 0.00024946532 -0.009893499
-0.010604347 -0.0086222505 -0.0041351668 -0.0057725916 -0.009074381 -0.005838078 -0.013553426 -0.0054025617
-0.005523481 -0.0008178446 -0.005914199 -0.004135724 -0.0062632943 -0.013844388 -0.0031795602 -0.012084032
-0.001992053 -0.0027573172 -0.0013088415 -0.0015369685 -0.0034233038 0.00036506332 -0.007496722 -0.0032829482
-0.0060568466 -0.0043334872 -0.0074447603 -0.007439644 -0.0095071625 -0.007779455 -0.0040027574 -0.0056101307
-0.009340383 -0.011253388 -0.008179965 -0.013920605 -0.0051853773 -0.0050064805 -0.008970297 -0.0046421126
-0.006603118 -0.00850082 -0.003407039 -0.0036510203 -0.0045465617 -0.002743026 0.0022031597 -0.00900958
-0.0039963475 0.002405709 -0.0044349288 -0.0014953138 -0.007202355 -0.0069261016 -0.0061916895 -0.0044580502
-0.0018640178 -0.012407269 -0.0047227666 -0.008021225 -0.005276596 -0.0032715164 -0.007138995 0.0006214282
-0.0061664768 -0.0048794528 -0.005846101 -0.011269278 -0.0038031854 -0.0046865097 -0.00831345 -0.002779661
-0.002542988 -0.006092025 -0.007176479 -0.010195314 -0.011564288 -0.0029523377 -0.0064335647 -0.008119629
-0.012121007 -0.009343825 -0.0070808334 -0.012417065 -0.010988578 -0.010831877 -0.00081420015 -0.0036642472
-0.003492869 -0.0051730755 -0.0099195335 -0.0045588785 -0.004811865 -0.012455655 -0.0065731765 -0.014810177
0.0001865648 -0.003355649 -0.004409233 -0.010519461 0.0012688917 -0.010160047 -0.0048429226 -0.0035736593
-0.008294456 -0.014151838 -0.010066144 -0.008360278 -0.01173308 -0.012982119 -0.010742997 -0.014223041
-0.0011337285 -0.0076638213 -0.0012236941 -0.0063980087 -0.009269357 -0.0037592594 -0.0006770681 -0.009178561
-0.0042916876 -0.003935731 -0.012538851 -0.0030804283 -0.0065846904 -0.0042907433 -0.0033956973 -0.007140099
-0.0016646978 -0.004762823 -0.008832755 -0.0032658922 -0.007951879 -0.0051406403 -0.0065880376 -0.003230773
-0.009227099 -0.008767414 -0.0062396247 -0.013411294 -0.0012023672 -0.008512874 -0.0094159255 -0.006205238
-0.012099974 -0.01028654 -0.009457299 -0.012168025 -0.0015127221 -0.0054155514 -0.012163278 -0.0038736698
00000000: cedd 2cbc 337c 04bc d889 64bb 0034 9cba
00000010: 6ecf e0bb 3463 87ba ba46 74bc ff63 48bb
00000020: 3123 77bb 1e75 c1bb 9546 f4bb 1ba1 b9bb
00000030: a453 c2bb 912e b9bb bde4 5fbc 9d33 edbb
00000040: 2f6a 26bb bd8e 41bb d5d5 45bc bb57 a2bb
00000050: e829 61bb 9299 32bc 9464 3db9 c228 17bb
00000060: a244 10bc 18cc 57bc 728c ccbb 605a 0aba
00000070: 4f51 65bc 2f8d 973a 4cae 4bbc 27da cb3a
00000080: 8acf 44bc 8f58 92ba 5bee c6bb 378a eabb
00000090: e098 e7bb 9193 41bb 96fd a5bc a5d2 4abb
000000a0: 2d73 83ba d9ff eebb 66e6 26bc bcdd 96bb
000000b0: b422 16bb 84dc b1bb 20b5 9abb 138e 94bc
000000c0: 3ab8 a3bb b16c e3bb a806 96bb 7785 9bbb
000000d0: 5cb3 fabb e5e1 dbbb 9370 4dbb cb82 36bb
000000e0: 549f 85bb 0855 8abc b6c3 f1bb bd1f a3ba
000000f0: af68 eebb 8b29 1ebc ab94 07bc 6da1 96bc
00000100: 377a f4ba 0ac0 1fbc 096a 3fbc 0b06 97bb
00000110: 53d2 f4ba 2c91 36ba 1b08 86bb 111f 6fbc
00000120: 5bab f7bb 800d 45bc d570 96bb baec 2039
00000130: 1a49 88bb 4abb e8ba dcf4 2ebc c24d a8bb
00000140: 9686 32bb 6e24 a7bb b71a 4abb f85a 05bb
00000150: 7fe9 0cbc dc1d cebb bb4c 84bb 7a80 36bc
00000160: 3656 bcbb bd5d f8bb bd6f debb fd12 5bbb
00000170: 3f5b b2bb 23d2 4f3a b7b0 033b c415 ecbb
00000180: 5f3d e9ba 7e49 d8bb ec10 fabb 8e7d 6bbb
00000190: 2d60 91bb 67ac 43bb abca 8239 5818 22bc
000001a0: dbbd 2dbc 5744 0dbc 4b80 87bb 0228 bdbb
000001b0: b6ac 14bc 594d bfbb 300f 5ebc f907 b1bb
000001c0: 51fe b4bb 9f64 56ba e6cb c1bb f884 87bb
000001d0: 523c cdbb 92d3 62bc 2b60 50bb 1bfc 45bc
000001e0: 1a8d 02bb 1bb4 34bb 6f8d abba 1b74 c9ba
000001f0: 8259 60bb f865 bf39 10a7 f5bb bb26 57bb
00000200: 8378 c6bb edff 8dbb 2df3 f3bb 42c8 f3bb
00000210: eec3 1bbc ccea febb 9029 83bb 30d5 b7bb
00000220: 6808 19bc 2160 38bc 4305 06bc 4013 64bc
00000230: 19ea a9bb 670d a4bb 27f8 12bc dd1c 98bb
00000240: f85e d8bb 0647 0bbc a148 5fbb f545 6fbb
00000250: 53fb 94bb 57c4 33bb e362 103b eb9c 13bc
00000260: cbf3 82bb 19a9 1d3b e152 91bb 68fe c3ba
00000270: bc01 ecbb 5af4 e2bb a8e3 cabb d614 92bb
00000280: 0f52 f4ba dc47 4bbc 70c1 9abb 756b 03bc
00000290: 4ce7 acbb f066 56bb 3bee e9bb 57e7 223a
000002a0: 2810 cabb d1e3 9fbb a690 bfbb c7a2 38bc
000002b0: dd3e 79bb 4b91 99bb 2335 08bc f92a 36bb
000002c0: 42a8 26bb 9c9f c7bb ab28 ebbb 3f0a 27bc
000002d0: 2478 3dbc 027c 41bb a7d0 d2bb 3108 05bc
000002e0: 3097 46bc d816 19bc 5606 e8bb f270 4bbc
000002f0: 7009 34bc 2f78 31bc 0c70 55ba de23 70bb
00000300: 9ee8 64bb e782 a9bb 8a85 22bc a562 95bb
00000310: d9ac 9dbb ce12 4cbc cd63 d7bb 62a6 72bc
00000320: 9ba0 4339 73ea 5bbb 547b 90bb d159 2cbc
00000330: f150 a63a 5376 26bc 61b1 9ebb 0e34 6abb
00000340: 78e5 07bc 1cdd 67bc 78ec 24bc 8cf9 08bc
00000350: 1b3c 40bc f4b2 54bc 6503 30bc c207 69bc
00000360: 9e99 94ba cb20 fbbb 5c64 a0ba 63a6 d1bb
00000370: 80de 17bc e85d 76bb 457d 31ba ad61 16bc
00000380: 49a1 8cbb 4ef7 80bb c16f 4dbc 03e1 49bb
00000390: 63c4 d7bb 5d99 8cbb 598a 5ebb 7ef7 e9bb
000003a0: fd31 daba 7511 9cbb 42b7 10bc 9408 56bb
000003b0: 9948 02bc d172 a8bb 77e0 d7bb 60bb 53bb
000003c0: 422d 17bc 33a5 0fbc c475 ccbb 0bbb 5bbc
000003d0: c098 9dba 9579 0bbc 4145 1abc 4f55 cbbb
000003e0: f83e 46bc e088 28bc c9f2 1abc 655c 47bc
000003f0: 8846 c6ba f074 b1bb 7c48 47bc 65dd 7dbb

conv1.5.running_mean f4 [400]
0.17097653 -0.2616524 -0.35004905 0.04303453 0.1439349 -0.6545892 0.1490389 -0.024944624
0.5824737 0.007890297 -0.23801798 -0.10128407 -0.31059358 0.13808766 0.04569658 -0.08235319
-0.14271405 0.16687934 -0.55436003 -0.11233214 -0.28653175 0.065347746 0.0044366494 0.113753274
0.2049286 0.108988285 -0.057040397 -0.34778193 -0.09028778 0.21932384 0.27561468 -0.040669005
0.016319674 -0.020818619 -0.07485215 0.1638135 -0.31869105 -0.08968383 -0.033105765 -0.0110039245
-0.37119925 -0.22190318 -0.11676224 0.22267352 -0.11522948 -0.11140736 0.09426459 -0.2352206
-0.030445537 0.052142836 0.5141539 0.06144363 0.47764814 -0.22545709 -0.18831247 0.27898452
0.2643365 0.2505321 -0.08133435 -0.12116632 0.04656757 -0.09881553 0.13017808 0.19660513
-0.10611737 -0.19667765 -0.0042020674 0.026901014 0.32034665 -0.1871317 0.31045827 -0.117935665
0.045501363 0.16882253 -0.10568911 -0.38648155 0.61624503 0.19289985 0.24349184 -0.13437156
-0.42961136 0.22546199 -0.15144654 -0.042455234 -0.27669206 0.37217295 0.35130584 0.06881948
0.28119066 -0.1260607 -0.083686404 0.019122811 -0.14056373 -0.13479343 0.28293875 0.25336877
-0.16354732 -0.2650547 0.23538855 0.3299955 -0.14632343 -0.012054273 0.16702895 0.21873695
-0.053367626 -0.08864865 -0.026387587 0.25552148 0.16346368 -0.21256994 -0.0692481 -0.38154286
-0.061753154 -0.12816451 0.041519675 -0.32552034 0.21787998 0.11894286 0.39006725 -0.016771013
0.31803152 0.058429446 0.20954745 0.012897004 0.38486892 -0.16225883 0.27411258 0.18410504
-0.025132576 -0.22637051 0.09719195 0.24327554 0.34282035 0.12114638 0.084570564 -0.59158987
0.12661104 0.1745318 -0.22490054 -0.083118044 -0.36887643 -0.25474247 -0.27757075 0.16213855
0.39622387 -0.10562989 -0.10122365 -0.30628642 0.07547037 0.24663344 0.21037169 -0.22120449
-0.12344904 -0.39509585 -0.18768694 -0.11048086 -0.16044882 0.08008121 0.68514454 -0.01782738
-0.105432846 0.26664343 0.01653102 0.16054085 -0.100162335 -0.03649063 0.066678114 -0.12103598
-0.2088317 0.05069552 0.10882688 0.2775896 -0.22588283 0.1304925 0.15247878 0.026464514
0.082802065 -0.026756648 -0.19208097 0.21358167 -0.15049657 0.03758686 -0.104711816 0.08660204
-0.05610906 0.05511219 -0.21375586 -0.10112052 0.08006931 0.013342827 -0.04230847 0.3714908
-0.08727819 0.20411737 0.4188436 -0.0653528 -0.14651833 0.20619226 -0.29129738 0.0016152505
0.023106145 0.011170747 0.012842674 0.05690023 -0.26189208 0.33293763 0.20815417 -0.31180248
0.015830629 -0.13665964 -0.076913655 0.23094517 -0.6201374 -0.48641855 0.028749097 -0.3082678
0.08280267 0.1727319 -0.17656174 0.20526224 -0.00023919069 0.20226015 -0.17106248 0.02393905
0.11816714 -0.121025816 0.20823523 0.17591183 -0.081144795 0.018757034 -0.031338193 0.060077466
0.6872399 0.19517502 -0.15719813 -0.15488377 -0.31202716 -0.30450776 0.23194504 -0.3494203
0.12610564 0.1140102 0.080412 -0.21470311 -0.029000752 -0.024046354 -0.3045084 -0.12038542
-0.21498378 0.42618302 -0.5576845 0.15284695 0.11158731 -0.28216377 -0.3210458 -0.35516077
00000000: 7914 2f3e 4ef7 85be a139 b3be fa44 303d
00000010: ac63 133e 2893 27bf a79d 183e ab58 ccbc
00000020: ff1c 153f 4e46 013c fcba 73be 066e cfbd
00000030: 1f06 9fbe da66 0d3e 562c 3b3d caa8 a8bd
00000040: a223 12be 6be2 2a3e 8aea 0dbf 650e e6bd
00000050: 4ab4 92be 0ad5 853d 5061 913b 7af7 e83d
00000060: ced8 513e 4035 df3d 31a3 69bd 7910 b2be
00000070: cde8 b8bd 6e96 603e 5e1d 8d3e 8b94 26bd
00000080: d6b0 853c cf8b aabc 164c 99bd babe 273e
00000090: 792b a3be 28ac b7bd e999 07bd ce49 34bc
000000a0: d40d bebe 963a 63be 0b21 efbd 8704 643e
000000b0: 6ffd ebbd 8b29 e4bd cb0d c13d abdd 70be
000000c0: eb68 f9bc ba93 553d 979f 033f 51ac 7b3d
000000d0: 4c8e f43e 39de 66be fcd4 40be 0fd7 8e3e
000000e0: 1d57 873e be45 803e a092 a6bd 0c26 f8bd
000000f0: a3bd 3e3d cc5f cabd 674d 053e db52 493e
00000100: 1054 d9bd de65 49be 7fb1 89bb 845f dc3c
00000110: 7a04 a43e 749f 3fbe 63f4 9e3e 4188 f1bd
00000120: a35f 3a3d d0df 2c3e 8873 d8bd e9e0 c5be
00000130: 3cc2 1d3f 8a87 453e ed55 793e b398 09be
00000140: 05f6 dbbe 82df 663e cd14 1bbe 8ae5 2dbd
00000150: 95aa 8dbe 748d be3e 5cde b33e 3af1 8c3d
00000160: 39f8 8f3e 0e16 01be c763 abbd 71a7 9c3c
00000170: f0ef 0fbe 4a07 0abe 59dd 903e 8db9 813e
00000180: f378 27be 40b5 87be b209 713e 2cf5 a83e
00000190: cfd5 15be 497f 45bc a309 2b3e 94fc 5f3e
000001a0: 0398 5abd 6c8d b5bd c82a d8bc b6d3 823e
000001b0: 0663 273e efab 59be f3d1 8dbd 9659 c3be
000001c0: e0f0 7cbd 8f3d 03be 8910 2a3d 9aaa a6be
000001d0: ee1b 5f3e 5098 f33d e5b6 c73e 5d63 89bc
000001e0: 07d5 a23e b753 6f3d 9b93 563e f54d 533c
000001f0: 8a0d c53e 2e27 26be 7c58 8c3e 0886 3c3e
00000200: d5e2 cdbc accd 67be 930c c73d 391d 793e
00000210: 2686 af3e 981b f83d 5533 ad3d 6f72 17bf
00000220: 53a6 013e 77b8 323e 544c 66be cb39 aabd
00000230: 5fdd bcbe 9b6d 82be c11d 8ebe a607 263e
00000240: dbdd ca3e 7c54 d8bd 584e cfbd 93d1 9cbe
00000250: 3690 9a3d 7a8d 7c3e ad6b 573e 6e83 62be
00000260: dad2 fcbd 014a cabe 0131 40be ca43 e2bd
00000270: b24c 24be 9e01 a43d a265 2f3f ba0a 92bc
00000280: 2ded d7bd 7d85 883e 106c 873c d264 243e
00000290: e921 cdbd 3377 15bd 898e 883d b6e1 f7bd
000002a0: fad7 55be 1ba6 4f3d a1e0 de3d 3920 8e3e
000002b0: d44d 67be d39f 053e 6623 1c3e 1ccc d83c
000002c0: 2194 a93d c230 dbbc e0b0 44be 27b5 5a3e
000002d0: c61b 1abe aef4 193d 2673 d6bd 695c b13d
000002e0: 9dd2 65bd 52bd 613d d1e2 5abe 4618 cfbd
000002f0: 61fb a33d df9b 5a3c a54b 2dbd 0b34 be3e
00000300: e8be b2bd 2504 513e ab72 d63e b0d7 85bd
00000310: e708 16be 1024 533e ee24 95be d0b6 d33a
00000320: 1949 bd3c 8205 373c 146a 523c 3710 693d
00000330: b816 86be cd76 aa3e 5e26 553e 93a4 9fbe
00000340: 3caf 813c 81f0 0bbe e884 9dbd e47c 6c3e
00000350: 53c1 1ebf da0b f9be 3a83 eb3c 47d5 9dbe
00000360: 7294 a93d a2e0 303e 9acc 34be 4430 523e
00000370: 43cf 7ab9 491d 4f3e 012b 2fbe d41b c43c
00000380: 9d01 f23d 62dc f7bd 9e3b 553e 3b22 343e
00000390: 3e2f a6bd 5aa8 993c 7a5c 00bd ca13 763d
000003a0: f4ee 2f3f f6db 473e 8cf8 20be da99 1ebe
000003b0: 06c2 9fbe 71e8 9bbe 0083 6d3e 38e7 b2be
000003c0: d621 013e 2e7e e93d 0caf a43d 22db 5bbe
000003d0: fc92 edbc dcfc c4bc 86e8 9bbe a28c f6bd
000003e0: b524 5cbe a934 da3e 69c4 0ebf e983 1c3e
000003f0: e387 e43d c577 90be 1d60 a4be a2d7 b5be

conv1.5.running_var f4 [400]
0.112020925 0.16823865 0.16550566 0.10105782 0.23100166 0.2540459 0.25928542 0.13692023
0.21641387 0.22152612 0.22197868 0.25950643 0.16487376 0.15584788 0.12830977 0.5627991
0.16022487 0.25427982 0.24157812 0.16324453 0.15288682 0.109590545 0.11805455 0.20774814
0.16793652 0.17031243 0.23534097 0.20517348 0.3088117 0.14361726 0.130554 0.12087774
0.15692304 0.13222153 0.27106208 0.36026922 0.18079083 0.1077175 0.17958814 0.26998287
0.13939159 0.16910042 0.19175833 0.18742447 0.13293116 0.12076931 0.07547336 0.46688053
0.17600796 0.16710927 0.20090157 0.5499677 0.2278433 0.15242489 0.14709307 0.23947936
0.154277 0.17315562 0.12460158 0.13550612 0.25581935 0.21189599 0.18024324 0.38143674
0.12515451 0.37013507 0.14132713 0.17557284 0.1421751 0.15474737 0.20899221 0.14434783
0.15047899 0.13469514 0.1807153 0.16752869 0.21687926 0.18779776 0.19402729 0.17599566
0.15241963 0.22092584 0.14737813 0.17093673 0.2224229 0.17113036 0.22210665 0.17946751
0.22964981 0.17592533 0.15168093 0.15198922 0.19818768 0.12331982 0.1741075 0.12207518
0.15724385 0.34935212 0.15575148 0.14344643 0.119721785 0.21937408 0.18586065 0.17618653
0.10286752 0.42842993 0.10574174 0.17213179 0.29032555 0.16263917 0.15231435 0.21375455
0.16966124 0.13200547 0.22688298 0.1430102 0.12339024 0.13234738 0.25245667 0.2101392
0.15094253 0.11520378 0.1626674 0.18856078 0.16932571 0.1271435 0.24116792 0.13241693
0.11738831 0.30121797 0.18028238 0.18559198 0.20245633 0.11278889 0.14829981 0.20231749
0.23004681 0.14282358 0.19612098 0.19263886 0.1870621 0.15406615 0.2039762 0.13065387
0.20597306 0.14746849 0.112974115 0.346632 0.114465006 0.1133408 0.14655745 0.13847262
0.48106256 0.18651712 0.2504349 0.16840284 0.11661748 0.27868044 0.2824514 0.20925528
0.14539668 0.31386623 0.11830674 0.15831874 0.3207142 0.1770187 0.17786114 0.13476412
0.241946 0.2949942 0.13175097 0.19550493 0.12598073 0.56316423 0.22988221 0.13804601
0.15521556 0.16256528 0.23467137 0.12083292 0.21274462 0.21764909 0.13870662 0.2606166
0.15078208 0.15978687 0.154883 0.14009225 0.10837029 0.27525622 0.25245985 0.17054412
0.15294556 0.13962848 0.2581555 0.3732165 0.18653885 0.20594533 0.39144757 0.3444236
0.15848888 0.2669998 0.2145546 0.13898252 0.17274077 0.18546274 0.3709903 0.13995625
0.10658738 0.22896585 0.19809015 0.14700586 0.18552904 0.19402653 0.2411645 0.14517939
0.448017 0.1567461 0.17843051 0.1861173 0.16768596 0.166599 0.23864596 0.28344914
0.1420342 0.14230962 0.15911411 0.24951173 0.12455082 0.14855379 0.20783655 0.14452729
0.31622267 0.1260197 0.15919895 0.13954404 0.34108877 0.17246614 0.1272255 0.417847
0.14210296 0.17227422 0.16382538 0.15577404 0.16583219 0.13450605 0.20833194 0.1448203
0.12253817 0.17283909 0.14669745 0.15413451 0.12870671 0.20368354 0.2132825 0.1255385
00000000: 3a6b e53d c146 2c3e 517a 293e 67f7 ce3d
00000010: b38b 6c3e 4e12 823e 0fc1 843e d134 0c3e
00000020: 999b 5d3e bed7 623e 614e 633e 07de 843e
00000030: abd4 283e 9696 1f3e a363 033e 9a13 103f
00000040: fd11 243e f730 823e 4160 773e 9329 273e
00000050: 5d8e 1c3e 0271 e03d 95c6 f13d eebb 543e
00000060: 8df7 2b3e 6266 2e3e 39fd 703e ff18 523e
00000070: 911c 9e3e 6710 133e f3af 053e c08e f73d
00000080: 6fb0 203e 1565 073e a6c8 8a3e 3575 b83e
00000090: 3b21 393e fe9a dc3d f4e5 373e 323b 8a3e
000000a0: abbc 0e3e a928 2d3e 4c5c 443e 33ec 3f3e
000000b0: 1b1f 083e e655 f73d c791 9a3d f70a ef3e
000000c0: 6e3b 343e b11e 2b3e 24b9 4d3e afca 0c3f
000000d0: c14f 693e 4515 1c3e 919f 163e 143a 753e
000000e0: cafa 1d3e b54f 313e 1d2f ff3d 1ec2 0a3e
000000f0: c1fa 823e 43fb 583e af91 383e ad4b c33e
00000100: 8128 003e 5882 bd3e 0fb8 103e 5ec9 333e
00000110: 5996 113e 1876 1e3e 0e02 563e ebcf 133e
00000120: 2a17 1a3e 86ed 093e 6e0d 393e a48c 2b3e
00000130: 9915 5e3e 0e4e 403e 17af 463e 3538 343e
00000140: e413 1c3e 623a 623e 4bea 163e 0a0a 2f3e
00000150: d4c2 633e cc3c 2f3e ed6f 633e 55c6 373e
00000160: 5229 6b3e c525 343e 3f52 1b3e 10a3 1b3e
00000170: b6f1 4a3e 1a8f fc3d 3d49 323e 8d02 fa3d
00000180: 8804 213e 48de b23e 517d 1f3e 9fe3 123e
00000190: b230 f53d 99a3 603e 4152 3e3e 3e6a 343e
000001a0: 35ac d23d 2b5b db3e 208f d83d 5143 303e
000001b0: 8da5 943e e28a 263e 4bf8 1b3e 79e2 5a3e
000001c0: adbb 2d3e 712c 073e 0354 683e 4471 123e
000001d0: 06b4 fc3d 1286 073e 0042 813e bb2e 573e
000001e0: ae90 1a3e f6ef eb3d 4892 263e 1416 413e
000001f0: b863 2d3e e831 023e b9f4 763e 4e98 073e
00000200: 4869 f03d 3e39 9a3e f29b 383e d30b 3e3e
00000210: b650 4f3e ddfd e63d e8db 173e 512c 4f3e
00000220: 6491 6b3e 5840 123e f0d3 483e 1f43 453e
00000230: 358d 3f3e 84c3 1d3e 23df 503e 21ca 053e
00000240: 9aea 523e fb01 173e f95e e73d c079 b13e
00000250: a16c ea3d 391f e83d 2813 163e c4cb 0d3e
00000260: d54d f63e 58fe 3e3e 0139 803e cb71 2c3e
00000270: 25d5 ee3d 34af 8e3e 789d 903e 0447 563e
00000280: dee2 143e 13b3 a03e ce4a f23d 4f1e 223e
00000290: a734 a43e 6444 353e 3b21 363e 9bff 093e
000002a0: b1c0 773e 7b09 973e bae9 063e 7232 483e
000002b0: 1801 013e 882b 103f 3e66 6b3e ef5b 0d3e
000002c0: d4f0 1e3e 8377 263e b14d 703e 4077 f73d
000002d0: bad9 593e 67df 5e3e 1c09 0e3e 8a6f 853e
000002e0: 9e66 1a3e 2b9f 233e a699 1e3e 5874 0f3e
000002f0: 3ef1 dd3d 62ee 8c3e 6b42 813e 1ea3 2e3e
00000300: c39d 1c3e c5fa 0e3e f52c 843e 3c16 bf3e
00000310: 0a04 3f3e 55e3 523e d16b c83e 4a58 b03e
00000320: e94a 223e 33b4 883e 33b4 5b3e 6f51 0e3e
00000330: f5e2 303e f2e9 3d3e 71f2 bd3e b150 0f3e
00000340: 7c4a da3d 0676 6a3e 25d8 4a3e b488 163e
00000350: 53fb 3d3e e4ae 463e d4f3 763e e8a9 143e
00000360: 7c62 e53e 0d82 203e 7db6 363e 8995 3e3e
00000370: deb5 2b3e ee98 2a3e 9b5f 743e 3f20 913e
00000380: 6a71 113e 9db9 113e cfee 223e 0180 7f3e
00000390: 8014 ff3d 7c1e 183e 1bd3 543e f6fe 133e
000003a0: f0e7 a13e 4f0b 013e 0d05 233e a2e4 0e3e
000003b0: 30a3 ae3e f79a 303e 6747 023e 0bf0 d53e
000003c0: 7083 113e a768 303e d7c1 273e 3b83 1f3e
000003d0: eacf 293e f4bb 093e f854 553e c64b 143e
000003e0: 4bf5 fa3d bbfc 303e db37 163e 70d5 1d3e
000003f0: b1cb 033e 6b92 503e ba66 5a3e 2a8d 003e

conv2.0.weight f4 [10, 1, 6]
-0.23307896 0.2514615 -0.054699 0.2845097 -0.06376989 -0.2926283 -0.19551972 -0.123428695
-0.37036318 -0.40398216 -0.115250945 0.14681387 0.33741108 0.40616098 0.089059405 0.22642297
0.26715335 0.20692217 0.3112851 0.1520801 -0.22630787 0.3458086 -0.41746652 0.13311884
-0.06754637 0.13936019 0.067753844 0.36812437 0.33804744 -0.18006766 0.39572933 -0.18916167
0.20938528 -0.2339429 -0.12940525 -0.2891238 -0.16185051 0.35133365 0.43844885 -0.34397048
0.3787609 -0.020821521 0.3728427 0.40371206 0.38532096 -0.33466852 -0.3499974 -0.15118895
-0.4379041 0.4480367 -0.21037081 0.027431536 0.33559075 0.10298193 0.062376086 -0.09995191
0.44513923 -0.21908481 -0.26664966 0.06625184
00000000: 40ac 6ebe 90bf 803e 0f0c 60bd 41ab 913e
00000010: ca99 82bd 60d3 95be 5236 48be 2fc8 fcbd
00000020: 3ea0 bdbe c0d6 cebe b008 ecbd 6056 163e
00000030: 25c1 ac3e 55f4 cf3e c764 b63d 6cdb 673e
00000040: 53c8 883e 68e3 533e c360 9f3e e3ba 1b3e
00000050: 40bd 67be d30d b13e 2cbe d5be 4e50 083e
00000060: c055 8abd 70b4 0e3e 87c2 8a3d cc7a bc3e
00000070: 8e14 ad3e a863 38be 099d ca3e 99b3 41be
00000080: 1869 563e ba8e 6fbe cf82 04be 0908 94be
00000090: 24bc 25be 01e2 b33e 5e7c e03e e61c b0be
000000a0: f3ec c13e e591 aabc 3de5 be3e 59b3 ce3e
000000b0: ca48 c53e ac59 abbe dc32 b3be 47d1 1abe
000000c0: f734 e0be 1165 e53e 726b 57be 1ab8 e03c
000000d0: 8dd2 ab3e 31e8 d23d 117e 7f3d 96b3 ccbd
000000e0: 4ae9 e33e c557 60be 4e86 88be 0baf 873d

conv2.0.bias f4 [10]
-0.30094233 -0.14821051 0.41880366 0.19737788 0.027827142 -0.29893914 -0.3357216 -0.17839673
0.0569088 0.27599978
00000000: 1d15 9abe 7fc4 17be 6f6d d63e 6d1d 4a3e
00000010: bff5 e33c 8d0e 99be b4e3 abbe a2ad 36be
00000020: 3419 693d d84f 8d3e

conv2.1.weight f4 [10]
1.0868224 1.0401745 1.0253596 1.0923935 1.0341494 1.0439582 1.063236 1.1286227
1.1015663 1.1398879
00000000: ff1c 8b3f 7024 853f fc3e 833f 8dd3 8b3f
00000010: 025f 843f 6ca0 853f 1e18 883f b576 903f
00000020: 2000 8d3f d9e7 913f

conv2.1.bias f4 [10]
0.023424031 -0.0065349573 0.01407643 0.0626762 0.019628635 -0.00022543715 0.05689267 0.03159454
0.06165183 0.005905947
00000000: c1e3 bf3c 3223 d6bb d4a0 663c 615c 803d
00000010: 3bcc a03c 5363 6cb9 4a08 693d 4769 013d
00000020: a186 7c3d ad86 c13b

conv2.1.running_mean f4 [10]
-0.2056489 1.4308748 -1.8601424 -0.42944026 -0.9089975 -0.0036034628 -1.2650508 -0.8410756
-0.4460354 0.24138306
00000000: a095 52be e826 b73f 2519 eebf 98df dbbe
00000010: 0fb4 68bf 1328 6cbb 2fed a1bf bb50 57bf
00000020: c05e e4be 1f2d 773e

conv2.1.running_var f4 [10]
0.2658951 1.4927301 2.640999 0.5266343 0.6593361 0.39896294 0.8819921 1.0335412
0.56927204 0.34600958
00000000: 6723 883e c811 bf3f 2106 2940 81d1 063f
00000010: 40ca 283f df44 cc3e 3cca 613f 144b 843f
00000020: d0bb 113f 2b28 b13e

conv2.4.weight f4 [400, 10, 6]
-0.13293071 0.036649283 0.012406827 0.04504499 0.13227105 0.092330284 -0.06584079 -0.10461527
-0.11991067 -0.11213554 -0.015570316 -0.09164456 0.13556677 0.10038806 0.07702712 0.1416738
0.0027332734 0.083101876 -0.026948925 -0.07930733 -0.03378253 -0.07312944 -0.0650504 0.066908866
-0.014450281 0.053945698 0.00727645 -0.14111136 0.047387548 0.09163968 0.09038357 -0.08979274
0.03569296 -0.06938799 -0.08164695 0.11991048 -0.018504497 0.12560731 -0.037412386 -0.12756513
-0.09700794 -0.039979678 -0.12266219 -0.068055674 -0.0020754638 -0.02007911 -0.09066681 0.015714437
-0.081858456 -0.057478514 -0.041582357 0.05099508 -0.056198396 0.029189691 0.052777056 0.022160359
0.084118456 -0.055633873 0.035671387 0.026453318 -0.030132588 -0.14030074 -0.067941956 -0.0413723
-0.037658762 0.13077797 -0.14888968 0.008051474 0.052957788 -0.0050313715 0.08150812 0.004356543
0.037015293 0.072780885 0.15019652 -0.10665795 -0.10504078 -0.121026665 0.1168556 -0.009801011
0.10374878 0.036221053 -0.07689868 -0.022510791 0.108713925 -0.15314838 0.09319686 0.05071888
0.10970015 -0.024360048 -0.08169829 0.071291156 -0.102364704 0.073153265 -0.04542522 -0.072564565
-0.051343653 0.045238532 0.11496581 0.001999894 -0.059188332 0.15090072 0.017552253 -0.003072098
-0.094427414 0.074048504 0.08653258 -0.052410323 -0.032751005 -0.042050827 0.087994546 -0.0629355
-0.066942215 -0.06684094 -0.08019833 0.14352064 -0.00018500783 -0.067231946 -0.078331135 -0.093967505
-0.061708044 0.05381686 0.107274875 0.07266981 -0.11612861 0.06845346 -0.14553992 0.020832421
-0.10032759 0.11213729 0.10061732 0.09806532 0.06041101 0.04035261 0.114524245 -0.06926599
0.019738441 -0.0019456635 0.12882517 0.0009778306 -0.023092136 -0.0049886554 -0.0703494 0.01371997
-0.09675648 -0.03286092 0.05834086 -0.11257735 0.06471982 -0.09744504 -0.036735985 0.038471665
-0.088598736 0.0024658523 0.10188224 -0.12833074 -0.18159105 -0.12035482 0.09981658 0.0012631873
0.03646629 -0.044600442 0.024745515 -0.05286903 0.094985805 -0.038818594 -0.0958319 0.06490013
-0.03506481 -0.10378466 -0.0032808161 0.057278432 0.025817003 -0.10013958 -0.15161301 -0.06882472
0.0144655015 -0.01955279 -0.16538899 -0.15013586 -0.071789294 -0.059861243 -0.13715905 -0.075749904
-0.04987561 0.031615917 -0.010894276 -0.08009274 0.0052058036 0.004173414 -0.02000711 -0.12778471
0.0017626295 0.0989502 -0.16043954 0.050172307 -0.15946898 -0.017151002 0.04793146 0.020344997
-0.06762718 -0.13787536 -0.06624679 -0.0031008087 -0.05862628 -0.014296239 -0.13465305 -0.042333055
-0.08609095 0.11246739 -0.12598696 0.14359187 0.06665355 -0.1149779 -0.04694193 -0.10202177
0.02725078 -0.15137038 -0.01020686 -0.1720668 0.12109245 -0.14318632 0.09169416 -0.02443908
-0.13883264 -0.03706832 -0.022462564 0.013192475 0.028018882 -0.11646344 -0.013115539 -0.10279902
0.118919306 0.049537864 0.10972347 -0.10419419 -0.077173546 -0.11618184 0.07903975 -0.0673763
0.0035357887 0.08775544 -0.03029575 -0.13076845 -0.013980028 -0.072905704 -0.07707941 -0.1170112
0.11478605 0.028634556 -0.07581451 0.0100980075 0.13735719 -0.06734302 0.01000796 -0.046643816
00000000: fd1e 08be 8f1d 163d 0146 4b3c 1881 383d
00000010: 1072 073e a917 bd3d 89d7 86bd 8840 d6bd
00000020: ba93 f5bd 51a7 e5bd a41a 7fbc 25b0 bbbd
00000030: 04d2 0a3e 4198 cd3d 65c0 9d3d f012 113e
00000040: b820 333b 5131 aa3d fec3 dcbc e26b a2bd
00000050: 8d5f 0abd e3c4 95bd 2539 85bd 8407 893d
00000060: dfc0 6cbc 2af6 5c3d 496f ee3b 7f7f 10be
00000070: 7219 423d 96ad bb3d 051b b93d 42e5 b7bd
00000080: c832 123d 4a1b 8ebd 8436 a7bd a093 f53d
00000090: be96 97bc 349f 003e bb3d 19bd 6fa0 02be
000000a0: 19ac c6bd bbc1 23bd 5036 fbbd c660 8bbd
000000b0: 8104 08bb f27c a4bc 85af b9bd 90bb 803c
000000c0: 68a5 a7bd 976e 6bbd 4352 2abd 38e0 503d
000000d0: 4a30 66bd 381f ef3c c12c 583d a489 b53c
000000e0: 4c46 ac3d 58e0 63bd 291c 123d a1b4 d83c
000000f0: 9ed8 f6bc ffaa 0fbe 2725 8bbd 0076 29bd
00000100: 1340 1abd a9ea 053e 8976 18be 54ea 033c
00000110: 44ea 583d 34de a4bb bbed a63d 55c1 8e3b
00000120: 599d 173d 250e 953d 1ecd 193e 7c6f dabd
00000130: 9f1f d7bd d4dc f7bd fd51 ef3d 6b94 20bc
00000140: 3e7a d43d 875c 143d 0e7d 9dbd 8d68 b8bc
00000150: 68a5 de3d eed2 1cbe ffdd be3d 9abe 4f3d
00000160: 79aa e03d b98e c7bc 6f51 a7bd 1901 923d
00000170: 96a4 d1bd 61d1 953d cc0f 3abd bb9c 94bd
00000180: b94d 52bd 0a4c 393d 3273 eb3d a710 033b
00000190: 776f 72bd b885 1a3e bec9 8f3c 4055 49bb
000001a0: 2963 c1bd bea6 973d fe37 b13d 35ac 56bd
000001b0: eb25 06bd 7d3d 2cbd 7c36 b43d 54e4 80bd
000001c0: 0019 89bd e7e3 88bd 063f a4bd 13f7 123e
000001d0: a9fe 41b9 e7b0 89bd 136c a0bd 0972 c0bd
000001e0: 93c1 7cbd 116f 5c3d eeb2 db3d e9d3 943d
000001f0: d6d4 edbd 5431 8c3d 6b08 15be c1a8 aa3c
00000200: 8d78 cdbd 3ca8 e53d 7410 ce3d 78d6 c83d
00000210: 8971 773d c748 253d b08b ea3d 54db 8dbd
00000220: 83b2 a13c a205 ffba bfea 033e 8d2a 803a
00000230: b82b bdbc e077 a3bb 5913 90bd bac9 603c
00000240: 4328 c6bd 2c99 06bd d3f6 6e3d f48e e6bd
00000250: d38b 843d 4491 c7bd 7978 16bd 7794 1d3d
00000260: 4173 b5bd 239a 213b a3a7 d03d 2269 03be
00000270: 01f3 39be 967c f6bd a36c cc3d 8891 a53a
00000280: ad5d 153d f4ae 36bd 1bb7 ca3c 328d 58bd
00000290: eb87 c23d 3f00 1fbd 8443 c4bd 5cea 843d
000002a0: 1ea0 0fbd 0d8d d4bd f602 57bb ca9c 6a3d
000002b0: 2e7e d33c fb15 cdbd 7140 1bbe faf3 8cbd
000002c0: b600 6d3c 2c2d a0bc bb5b 29be 37bd 19be
000002d0: 4406 93bd 1031 75bd 6c73 0cbe c422 9bbd
000002e0: 5e4a 4cbd b17f 013d e87d 32bc aa07 a4bd
000002f0: 7295 aa3b 22c1 883b f3e5 a3bc ffd9 02be
00000300: 0808 e73a 67a6 ca3d 434a 24be 7a81 4d3d
00000310: d64b 23be 4280 8cbc c753 443d 8daa a63c
00000320: 1e80 8abd 332f 0dbe 66ac 87bd f036 4bbb
00000330: 1c22 70bd c63a 6abc 7de2 09be 6d65 2dbd
00000340: 7450 b0bd 4e55 e63d ba02 01be bf09 133e
00000350: a881 883d 8979 ebbd 2e46 40bd caf0 d0bd
00000360: 073d df3c d600 1bbe ac3a 27bc 4732 30be
00000370: 52ff f73d 6f9f 12be 26ca bb3d 7734 c8bc
00000380: 252a 0ebe f3d4 17bd 6903 b8bc 4025 583c
00000390: db87 e53c 6284 eebd 8fe2 56bc 4b88 d2bd
000003a0: f78b f33d 37e8 4a3d b3b6 e03d c363 d5bd
000003b0: 2a0d 9ebd bff0 edbd 98df a13d 96fc 89bd
000003c0: b1b8 673b 20b9 b33d cb2e f8bc 2ae8 05be
000003d0: 7d0c 65bc 964f 95bd cfdb 9dbd 91a3 efbd
000003e0: f314 eb3d 0493 ea3c a344 9bbd 1d72 253c
000003f0: 5da7 0c3e 23eb 89bd 6df8 233c 960d 3fbd
