model/dp_pssm_k1_model.ckpt (torch, 387355 bytes, 40 tensors)

conv1.0.weight f4 [10, 1, 3]
-0.21796818 -0.32115567 -0.6466487 0.25237632 0.036071237 -0.21301998 0.4204846 -0.30025342
0.4713243 -0.24563861 -0.5331541 -0.46641126 0.3565171 0.2618051 -0.46282932 0.4711389
-0.1624563 -0.19326487 0.12051418 0.33191377 0.31349206 -0.12278217 0.30906552 -0.54566634
0.23982279 -0.29308704 0.03467559 0.09298592 0.115988314 0.15841183
00000000: 0d33 5fbe 846e a4be c58a 25bf 7837 813e
00000010: 6fbf 133d e921 5abe c249 d73e d1ba 99be
00000020: 6b51 f13e b088 7bbe c97c 08bf 75cd eebe
00000030: 6989 b63e 510b 863e f7f7 ecbe 1e39 f13e
00000040: f25a 26be 3ae7 45be 23d0 f63d 9af0 a93e
00000050: 0882 a03e 3875 fbbd d63d 9e3e cab0 0bbf
00000060: 1b94 753e 810f 96be fe07 0e3d 676f be3d
00000070: 488b ed3d b636 223e

conv1.0.bias f4 [10]
0.19056447 -0.09769482 0.34946084 -0.48349422 -0.1657511 0.10305522 -0.53583324 0.08190439
-0.3122342 0.31073934
00000000: 5523 433e 3914 c8bd 88ec b23e 8e8c f7be
00000010: a8ba 29be 9d0e d33d 5e2c 09bf 7dbd a73d
00000020: 29dd 9fbe 3a19 9f3e

conv1.1.weight f4 [10]
1.0260503 0.9976639 1.0199455 0.97079426 0.9906305 1.031395 0.97926784 0.97031456
0.98630947 0.9677579
00000000: 9e55 833f e766 7f3f 938d 823f f985 783f
00000010: f699 7d3f c004 843f 4cb1 7a3f 8966 783f
00000020: c77e 7c3f fbbe 773f

conv1.1.bias f4 [10]
-0.023042122 -0.0076547535 0.007996756 -0.0355182 -0.024390116 -0.014386044 -0.0059134997 0.012635725
-0.0094717555 0.011111462
00000000: d5c2 bcbc bad4 fabb d304 033c 887b 11bd
00000010: c8cd c7bc 71b3 6bbc 08c6 c1bb 1206 4f3c
00000020: 6c2f 1bbc d90c 363c

conv1.1.running_mean f4 [10]
-1.2270122 0.05379086 1.095836 -2.1156602 0.09200046 0.2139023 0.6020917 -0.5194116
-0.3410302 0.81326747
00000000: bc0e 9dbf ce53 5c3d 5b44 8c3f fa66 07c0
00000010: bd6a bc3d 3409 5b3e af22 1a3f 29f8 04bf
00000020: 839b aebe 4c32 503f

conv1.1.running_var f4 [10]
0.8455022 0.056267235 0.4066627 1.086981 0.12493682 0.08824619 0.50637376 0.2970543
0.07678443 0.13570563
00000000: d572 583f 7978 663d 1836 d03e 3222 8b3f
00000010: e0de ff3d 6bba b43d b6a1 013f 8017 983e
00000020: 2841 9d3d 6bf6 0a3e

conv1.4.weight f4 [240, 10, 3]
-0.09976088 0.031417716 0.04034818 -0.027125234 -0.08557448 0.06722041 0.050587393 -0.15653904
0.10618339 -0.010699659 -0.15154111 -0.013873507 -0.013748544 0.03659002 0.066342875 -0.044709593
0.057851158 0.08943345 -0.07077964 -0.054942157 -0.05590476 0.13409878 -0.20047046 -0.09534417
0.058615245 -0.080587186 0.06306067 0.009080196 0.051246613 -0.046900325 0.085227884 -0.061900813
-0.049411356 0.19627757 0.17743514 -0.043234393 -0.08170674 0.03420574 0.106562115 0.09990777
-0.10642066 0.06485303 -0.045233738 -0.13184398 -0.158783 -0.114472374 0.021352815 0.14424425
0.025688428 0.07116947 -0.039591417 -0.15508775 -0.066246584 -0.026936606 0.052058306 -0.12158085
0.073222145 -0.14639963 0.15309016 0.11081346 -0.104696244 -0.007890041 0.1498987 0.16581579
0.11955672 0.14568183 0.024907514 -0.16016515 -0.22324242 0.040085744 0.08998818 0.04668009
0.08939027 -0.08478895 -0.09273221 -0.040747207 0.07997757 0.0540453 0.08411431 0.17159086
0.023719048 -0.051758513 -0.012383394 -0.13531443 -0.05701186 0.028324455 -0.021701902 -0.07031501
-0.095855646 0.17214684 -0.023943378 -0.10577655 -0.12096102 0.0767618 -0.15935062 -0.063947506
-0.039872076 -0.03418338 -0.15687123 -0.008733146 0.13905224 -0.041717026 -0.14008102 0.03735792
-0.08269998 -0.10366909 0.024656018 0.029222531 -0.012620985 0.14757566 0.10705225 0.095006496
0.018999118 0.16149049 -0.098959625 0.13372272 0.12201348 -0.04819545 0.0136121325 -0.086688325
0.14884129 -0.19164082 0.03600224 -0.123113096 0.047343567 -0.14485815 0.14276473 0.046960685
0.13156402 -0.07787459 0.009073205 -0.20667954 -0.018753218 0.17165488 0.004120467 0.040663023
0.06204334 -0.17177181 0.107166 -0.0661064 0.089167655 -0.12758276 0.16034986 0.14715761
-0.073435724 -0.04730028 0.017280353 0.07545487 -0.074866034 0.013427566 -0.09908029 -0.107507646
-0.0026648098 0.05151723 -0.045466274 -0.01269269 0.040911075 -0.033301465 -0.00057068374 0.13440016
-0.17057124 0.12871987 -0.11493273 -0.08504784 0.07870679 0.010958543 0.14133635 0.06603647
-0.070669584 -0.07205531 -0.16541572 -0.09177803 -0.01652218 0.055265486 -0.14508788 0.17477304
-0.14710587 -0.15673628 0.12468684 0.16227333 -0.06487151 -0.13581413 -0.01769983 -0.12551513
0.109008625 0.040671855 -0.04070026 0.015895486 -0.12904996 -0.031684298 0.054517396 -0.11035775
0.1268205 0.11130739 0.17643248 -0.103654176 -0.10839514 0.12296188 0.10795257 0.04059091
0.13218041 0.008784878 -0.11876704 -0.0020362816 -0.105629 0.23119086 0.09362221 -0.17530425
-0.023159012 0.15314154 -0.09276814 -0.041121103 0.06620918 -0.18770844 0.15019758 0.09615025
-0.12770699 0.07656518 -0.13961779 0.052109525 0.005807997 0.14599273 -0.14772025 0.17018957
0.13378042 -0.10034983 -0.09642042 -0.021032948 -0.068612695 0.15719764 -0.0628017 -0.08483037
-0.19540231 -0.094030306 0.039044794 0.110039726 0.055745 0.093495585 0.13883632 -0.00016290105
0.046929464 -0.019559951 -0.21345298 0.101835094 -0.15570429 0.08002201 0.053386856 0.07280501
-0.06802678 -0.026758084 -0.11541215 -0.1247755 -0.06345259 0.02173955 -0.043791957 -0.04011735
00000000: 6f4f ccbd ddaf 003d 2244 253d bd35 debc
00000010: ac41 afbd dbaa 893d ba34 4f3d c54b 20be
00000020: ad76 d93d 9f4d 2fbc 982d 1bbe b54d 63bc
00000030: 9341 61bc 6bdf 153d c6de 873d 6821 37bd
00000040: 56f5 6c3d e228 b73d eaf4 90bd 070b 61bd
00000050: 64fc 64bd 3151 093e 2148 4dbe ce43 c3bd
00000060: 8a16 703d e50a a5bd f425 813d 1ac5 143c
00000070: f8e7 513d 8e1a 40bd f58b ae3d b58b 7dbd
00000080: 9063 4abd fdfc 483e 8fb1 353e 8c16 31bd
00000090: dd55 a7bd 511b 0c3d 3d3d da3d 729c cc3d
000000a0: 13f3 d9bd aad1 843d 0347 39bd 1c02 07be
000000b0: 0398 22be 7e70 eabd 19ec ae3c c4b4 133e
000000c0: 8a70 d23c 4dc1 913d 9c2a 22bd 53cf 1ebe
000000d0: 4aac 87bd 28aa dcbc 173b 553d 61ff f8bd
000000e0: 7ef5 953d c9e9 15be abc3 1c3e 2bf2 e23d
000000f0: fc6a d6bd 3b45 01bc 0b7f 193e 9dcb 293e
00000100: 27da f43d 9e2d 153e d80a cc3c 5502 24be
00000110: a999 64be f330 243d b94b b83d 9f33 3f3d
00000120: 3f12 b73d d4a5 adbd 63ea bdbd 8be6 26bd
00000130: 48cb a33d 9b5e 5d3d 2044 ac3d 84b5 2f3e
00000140: 734e c23c bc00 54bd b8e3 4abc de8f 0abe
00000150: 4585 69bd b008 e83c 30c8 b1bc 5101 90bd
00000160: f74f c4bd 4347 303e e724 c4bc 60a1 d8bd
00000170: 69ba f7bd 4a35 9d3d cf2c 23be e9f6 82bd
00000180: e750 23bd df03 0cbd daa2 20be 7815 0fbc
00000190: b663 0e3e 79df 2abd 6671 0fbe 9e04 193d
000001a0: 9b5e a9bd 7650 d4bd 6bfb c93c 1764 ef3c
000001b0: 3fc8 4ebc 131e 173e 363e db3d c492 c23d
000001c0: 0aa4 9b3c c35d 253e 58ab cabd 9cee 083e
000001d0: 34e2 f93d 9868 45bd 6c05 5f3c a689 b1bd
000001e0: da69 183e 7e3d 44be 1677 133d b822 fcbd
000001f0: 54eb 413d b255 14be eb30 123e d959 403d
00000200: b8b8 063e b77c 9fbd c8a7 143c cda3 53be
00000210: 59a0 99bc 4cc6 2f3e fc04 873b 458e 263d
00000220: 2821 7e3d f3e4 2fbe d979 db3d cb62 87bd
00000230: 889d b63d 0ea5 02be c132 243e 7cb0 163e
00000240: 7865 96bd f0bd 41bd 878f 8d3c 1588 9a3d
00000250: 5d53 99bd 4bff 5b3c 9bea cabd f82c dcbd
00000260: 17a4 2ebb bb03 533d d83a 3abd 00f5 4fbc
00000270: 5f92 273d 1e67 08bd f099 15ba 32a0 093e
00000280: 3aaa 2ebe 24cf 033e da61 ebbd 902d aebd
00000290: 0731 a13d 768b 333c 7aba 103e 213e 873d
000002a0: 37bb 90bd bc91 93bd bd62 29be 1ff6 bbbd
000002b0: 8659 87bc 105e 623d eb91 14be b4f7 323e
000002c0: eca2 16be 7a7f 20be d05b ff3d fb2a 263e
000002d0: 5bdb 84bd dc12 0bbe 3cff 90bc 0a87 00be
000002e0: ea3f df3d 8897 263d 51b5 26bd 4037 823c
000002f0: ac25 04be 65c7 01bd a24d 5f3d 3e03 e2bd
00000300: 3cdd 013e 21f5 e33d b7aa 343e a448 d4bd
00000310: 45fe ddbd 70d3 fb3d 3d16 dd3d a742 263d
00000320: 4d5a 073e 73ee 0f3c 223c f3bd 2373 05bb
00000330: 0454 d8bd 4cbd 6c3e 00bd bf3d f582 33be
00000340: f8b7 bdbc 23d1 1c3e 39fd bdbd 9a6e 28bd
00000350: ae98 873d a436 40be 65cd 193e 6cea c43d
00000360: 9fc5 02be 35ce 9c3d f7f7 0ebe cc70 553d
00000370: 0351 be3b 1e7f 153e fa43 17be 2d46 2e3e
00000380: bcfd 083e 3684 cdbd 1278 c5bd 4a4d acbc
00000390: d084 8cbd 6bf8 203e 2d9e 80bd 8cbb adbd
000003a0: 8b17 48be f692 c0bd 6fed 1f3d 825c e13d
000003b0: de54 643d 9d7a bf3d 1c2b 0e3e 6bd0 2ab9
000003c0: 1c39 403d 313c a0bc 6b93 5abe eb8e d03d
000003d0: f270 1fbe 94e2 a33d 2dac 5a3d cb1a 953d
000003e0: a051 8bbd c533 dbbc 355d ecbd 4c8a ffbd
000003f0: 6ef3 81bd 2417 b23c 325f 33bd 1752 24bd

conv1.4.bias f4 [240]
0.09058283 -0.16080606 -0.059482116 0.082278974 0.018727684 -0.20143217 0.073571205 -0.010640815
-0.10876998 0.18103358 -0.10400433 -0.08362597 -0.15057136 -0.0066497894 -0.052995138 0.107879266
-0.16594534 -0.12077667 0.115013346 -0.13023427 0.0692173 -0.10821942 -0.04257781 0.042404722
0.14959256 -0.01607394 0.14694227 0.15149318 0.013932439 0.15296037 -0.103063636 -0.072826274
-0.15469259 -0.18175264 -0.18136413 0.069463894 -0.17273954 0.07486885 -0.13041215 0.13202262
-0.005493106 0.032685664 -0.16098827 -0.12032166 -0.12895969 -0.006471041 0.04971787 0.036533706
-0.17000642 -0.1411867 -0.105921134 0.14320976 -0.08041704 -0.16361049 0.059176017 -0.004036305
-0.15923558 0.016806817 0.104795724 -0.021241559 -0.188038 -0.087685645 0.033641502 0.054717246
0.044166446 -0.039708357 0.051414 -0.20053183 -0.072112806 0.05627307 -0.009621263 -0.05466222
-0.096628495 -0.069842175 -0.03006666 -0.051130056 0.062723845 -0.19292487 -0.08479419 -0.14782041
-0.043821134 -0.11514719 -0.09588386 0.019246629 -0.10663274 0.10098804 0.057242393 -0.052823592
-0.15247221 0.12119246 -0.14577538 -0.20121069 0.051575594 -0.15821145 0.011936353 0.09386111
-0.061702326 -0.13593052 -0.1266429 -0.12683776 -0.027411517 -0.13416877 0.11956661 -0.011372412
-0.1853786 0.119715236 0.15248168 0.041356385 -0.027216943 0.020931527 -0.07063961 -0.14779875
-0.019537013 -0.17314993 0.039508726 -0.12325941 -0.11005071 0.13612688 0.025303332 -0.022798248
-0.16531783 -0.1476561 0.13959056 -0.021147648 0.07710152 0.021274233 0.13999796 0.16203423
-0.18822113 -0.06200602 -0.095473066 -0.056235854 0.1424739 -0.140381 0.081679344 -0.007570625
-0.1308558 0.02380648 0.14732774 -0.11795373 -0.061101913 0.057675518 -0.050949723 0.09670053
-0.000104596584 0.011290372 -0.13026352 0.0077403993 -0.14051582 -0.00092774385 -0.029166274 0.16983706
0.032940216 0.07675364 -0.051043678 0.044839773 0.025365712 0.13837814 -0.037969716 0.12525207
-0.020103801 -0.1290537 -0.14023778 0.08935033 -0.09218238 0.03793805 -0.04836231 0.15365212
0.06816142 0.11269491 0.15393206 0.004447107 -0.033968773 0.10231277 -0.045933034 -0.158675
-0.043883234 -0.016771631 -0.019495577 -0.07998412 -0.1924991 -0.16015607 -0.06498017 -0.13745084
-0.0187782 -0.08411568 -0.16678526 -0.19953354 -0.13284156 -0.112721786 -0.15156317 0.07597127
0.13385747 -0.14887698 -0.18204045 -0.04763273 0.007650462 -0.14138238 -0.042349316 -0.08901683
-0.034551363 0.087235235 -0.05912706 -0.13467465 0.06965271 -0.020787949 -0.11499375 -0.031043878
0.011300411 -0.15271263 0.07471429 -0.12926514 -0.040420555 -0.147056 -0.03415052 -0.013441622
0.09610713 -0.11999953 0.1017075 -0.07512104 0.105357185 0.10151563 -0.10327583 0.03800215
-0.08600542 -0.094422124 0.012337609 -0.12777428 0.039672505 -0.0331855 0.042812772 0.09299649
0.16765048 0.040346418 0.02535609 0.13919295 -0.12896988 0.14657116 -0.0038298476 0.059629973
00000000: 7e83 b93d 58aa 24be 85a3 73bd e181 a83d
00000010: cd6a 993c 3c44 4ebe 80ac 963d d056 2ebc
00000020: ccc2 debd de60 393e 3900 d5bd 1844 abbd
00000030: 612f 1abe 7ae6 d9bb 6e11 59bd ceef dc3d
00000040: 93ed 29be c259 f7bd 1e8c eb3d 225c 05be
00000050: cdc1 8d3d 25a2 ddbd 1266 2ebd 93b0 2d3d
00000060: cb2e 193e 7fad 83bc 0978 163e 0721 1b3e
00000070: e244 643c a5a1 1c3e 0713 d3bd f125 95bd
00000080: bc67 1ebe 5d1d 3abe 85b7 39be 1643 8e3d
00000090: a2e2 30be d754 993d c38a 05be f030 073e
000000a0: 83ff b3bb 67e1 053d 1cda 24be 346b f6bd
000000b0: 020e 04be 070b d4bb f7a4 4b3d 5ea4 153d
000000c0: 2a16 2ebe 3f93 10be 2eed d8bd 94a5 123e
000000d0: b0b1 a4bd 8289 27be 8d62 723d fb42 84bb
000000e0: a70e 23be 73ae 893c 249f d63d c702 aebc
000000f0: 098d 40be 8894 b3bd accb 093d 311f 603d
00000100: e0e7 343d 3ba5 22bd 7d97 523d 3758 4dbe
00000110: e1af 93bd 977e 663d 80a2 1dbc 7ee5 5fbd
00000120: 29e5 c5bd 6a09 8fbd 5b4e f6bc c06d 51bd
00000130: 5c75 803d 198e 45be 94a8 adbd 3c5e 17be
00000140: ca7d 33bd 4ad2 ebbd c25e c4bd 1bab 9d3c
00000150: 4462 dabd d1d2 ce3d 0077 6a3d 8d5d 58bd
00000160: ad21 1cbe c133 f83d 2446 15be 2d0a 4ebe
00000170: ee40 533d 2f02 22be b190 433c 413a c03d
00000180: 94bb 7cbd 5f31 0bbe adae 01be c2e1 01be
00000190: 1e8e e0bc 8a63 09be 57df f43d 5a53 3abc
000001a0: e3d3 3dbe 432d f53d 2824 1c3e 5065 293d
000001b0: 11f6 debc 9878 ab3c 80ab 90bd 8e58 17be
000001c0: 160c a0bc 374e 31be e7d3 213d 6e6f fcbd
000001d0: 4462 e1bd d864 0b3e ef48 cf3c 64c3 babc
000001e0: 1449 29be 2933 17be d4f0 0e3e d53d adbc
000001f0: 67e7 9d3d 4d47 ae3c a05b 0f3e 4dec 253e
00000200: 0abd 40be 06fa 7dbd 6287 c3bd 9157 66bd
00000210: aee4 113e 09c0 0fbe 8047 a73d 0113 f8bb
00000220: 10ff 05be cf05 c33c 15dd 163e ba91 f1bd
00000230: 0046 7abd 2a3d 6c3d a8b0 50bd ed0a c63d
00000240: dd5a dbb8 41fb 383c cd63 05be 2da3 fd3b
00000250: 61e3 0fbe d633 73ba 1cee eebc c4e9 2d3e
00000260: 52ec 063d 0331 9d3d 2d13 51bd e9a9 373d
00000270: c1cb cf3c 00b3 0d3e 2286 1bbd 1442 003e
00000280: bab0 a4bc a726 04be 7e9a 0fbe 4efd b63d
00000290: 1eca bcbd ee64 1b3d 8f17 46bd fb56 1d3e
000002a0: 3798 8b3d 97cc e63d 5ea0 1d3e 0ab9 913b
000002b0: d722 0bbd 5c89 d13d 4724 3cbd b37b 22be
000002c0: e8be 33bd a964 89bc 30b5 9fbc b7ce a3bd
000002d0: 7c1e 45be f4ff 23be 5314 85bd eabf 0cbe
000002e0: bdd4 99bc d744 acbd c1c9 2abe 8552 4cbe
000002f0: 9e07 08be aeda e6bd 6033 1bbe d396 9b3d
00000300: ef11 093e 3573 18be d068 3abe 8a1a 43bd
00000310: bab0 fa3b 8bc6 10be 7a76 2dbd 754e b6bd
00000320: bb85 0dbd 63a8 b23d 372f 72bd 27e8 09be
00000330: 14a6 8e3d 7d4b aabc d881 ebbd bb4f febc
00000340: 5c25 393c b360 1cbe ce03 993d 155e 04be
00000350: 0690 25bd d995 16be 6ae1 0bbd 403a 5cbc
00000360: d1d3 c43d 50c2 f5bd 064c d03d 0fd9 99bd
00000370: 82c5 d73d 6de7 cf3d 4782 d3bd 24a8 1b3d
00000380: 9c23 b0bd 6360 c1bd af23 4a3c 43d7 02be
00000390: a37f 223d 85ed 07bd 725c 2f3d f274 be3d
000003a0: 91ac 2b3e 4942 253d 93b7 cf3c 9988 0e3e
000003b0: ae10 04be c016 163e 2efe 7abb 8f3e 743d

conv1.5.weight f4 [240]
0.93673044 0.97101563 0.97495234 0.9577666 0.98504376 0.94311047 0.97469604 0.98066354
0.9704039 0.99868727 0.97491205 0.9879654 0.9430458 0.992509 0.9977685 0.97846454
0.9635214 0.9700208 0.9937869 0.9852483 0.9649247 0.9582705 0.98660004 0.98111707
0.9787491 0.97873783 0.9773764 0.9662126 0.98702455 0.97337586 0.9873322 0.95251197
0.9466205 0.96111345 0.9632299 0.97879696 0.96959186 0.9843825 0.9807047 0.97022814
0.9751951 0.9623512 0.9777992 0.98059547 0.93334943 0.96904546 0.9953427 0.9698849
0.96226096 0.9771866 0.9786154 0.9851509 0.98707193 0.9655095 1.0261064 0.95944965
0.97541493 0.9609292 0.97841275 0.97163093 0.95175475 0.97078586 0.9806292 0.9699658
0.9618663 1.0127387 0.9683061 0.9654471 0.9743261 0.994172 0.97461784 1.0007168
0.9495959 0.9927195 0.93655425 0.97203034 0.9555063 0.9583489 0.9539566 0.9751512
0.97287136 0.99596035 0.9746789 0.9602668 0.9849885 0.9714228 0.9666214 0.97016364
0.97529733 0.969326 0.98895586 0.9698295 0.98337466 0.9826512 0.97499 0.9677969
0.99533284 0.94168943 0.9797984 0.9858454 0.98560596 0.9545949 0.9577906 0.9688456
0.9643341 0.98076856 0.9775305 1.0057255 0.9533837 0.9928965 0.9485586 0.9715567
0.9652827 0.96165806 0.9833964 0.9692257 0.97958076 0.9581261 0.9647885 0.97689444
0.9670536 0.9833597 0.9753712 0.9718421 0.9779995 0.96608174 0.976374 0.972664
0.96821773 0.9709584 0.9858594 0.95876473 0.98034656 0.9498481 0.9869512 0.98241055
0.9943405 0.9616076 0.97279054 0.96495587 0.959233 0.96646893 0.96234024 0.95594496
0.9675889 0.983945 0.9503215 0.969423 0.97713643 0.9703397 0.9676702 0.9753355
0.95090353 0.97062653 0.9464006 0.9989483 0.97185624 1.0539845 0.9859668 1.0160221
0.9744501 0.9881601 0.96918553 0.9596413 0.9768416 0.99030966 0.9752933 0.97235304
0.9544383 0.94932467 0.97952044 0.9747402 0.9858307 0.9918101 0.9730695 0.9729233
0.97078216 0.9719582 0.9725942 0.9650413 0.9646676 0.9564497 0.97650635 0.9582019
0.9566998 0.98588115 0.96972495 0.9523119 0.96743387 0.9419537 0.9991493 0.9875956
0.96934927 0.9816151 1.0051333 0.980267 0.97147876 0.9798962 0.9675243 0.967304
0.95934683 0.9613146 0.96742755 1.0013127 0.98670125 0.9539965 0.9683798 0.9666328
0.9937548 0.9771657 0.9714815 0.9805323 0.95187545 0.949769 0.97702676 0.96060354
0.97368157 0.9734541 0.98428357 0.98094803 0.95840245 0.9927596 0.9589087 0.97072977
0.9648841 0.9860331 0.9756737 0.96915805 0.9785382 1.0191624 0.9652453 0.978567
0.9761713 0.9675544 0.97048926 0.9686008 0.9451938 0.9766318 0.97375894 0.96853095
00000000: 91cd 6f3f 7b94 783f 7a96 793f 3130 753f
00000010: d42b 7c3f b06f 713f ae85 793f c40c 7b3f
00000020: 646c 783f f8a9 7f3f d693 793f 4deb 7c3f
00000030: 736b 713f 1215 7e3f c26d 7f3f a77c 7a3f
00000040: 57a9 763f 4853 783f d168 7e3f 3c39 7c3f
00000050: 4e05 773f 3751 753f d291 7c3f 7d2a 7b3f
00000060: 4d8f 7a3f 908e 7a3f 5735 7a3f b559 773f
00000070: a4ad 7c3f 292f 793f cec1 7c3f d3d7 733f
00000080: b955 723f 880b 763f 3c96 763f 7092 7a3f
00000090: 2c37 783f 7e00 7c3f 770f 7b3f df60 783f
000000a0: 63a6 793f a65c 763f 0c51 7a3f 4e08 7b3f
000000b0: fdef 6e3f 5d13 783f c7ce 7e3f 604a 783f
000000c0: bc56 763f e728 7a3f 8a86 7a3f d932 7c3f
000000d0: bfb0 7c3f a12b 773f 7457 833f 7e9e 753f
000000e0: cbb4 793f 75ff 753f 4279 7a3f cebc 783f
000000f0: 33a6 733f 6c85 783f 840a 7b3f ae4f 783f
00000100: df3c 763f 6ca1 813f e9e2 773f 8b27 773f
00000110: 6f6d 793f 0e82 7e3f 8e80 793f 7d17 803f
00000120: b818 733f dd22 7e3f 05c2 6f3f fbd6 783f
00000130: 109c 743f 5a56 753f 8036 743f 82a3 793f
00000140: 190e 793f 42f7 7e3f 8e84 793f 0cd4 753f
00000150: 3528 7c3f 2aaf 783f 8074 773f a55c 783f
00000160: 16ad 793f c025 783f 362c 7d3f bf46 783f
00000170: 71be 7b3f 078f 7b3f f298 793f 8ac1 773f
00000180: 22ce 7e3f 8f12 713f 11d4 7a3f 5d60 7c3f
00000190: ac50 7c3f 5560 743f c431 753f 4406 783f
000001a0: 99de 763f a613 7b3f 703f 7a3f 9dbb 803f
000001b0: f410 743f 772e 7e3f bdd4 723f f1b7 783f
000001c0: c41c 773f 392f 763f debf 7b3f 2d1f 783f
000001d0: cec5 7a3f c147 753f 61fc 763f c115 7a3f
000001e0: d390 773f 76bd 7b3f edb1 793f a5ca 783f
000001f0: 2d5e 7a3f 2251 773f a5f3 793f 8200 793f
00000200: 1edd 773f bb90 783f 4861 7c3f 9b71 753f
00000210: fef7 7a3f 3f29 733f d5a8 7c3f 427f 7b3f
00000220: 198d 7e3f ea2b 763f cd08 793f 5907 773f
00000230: 4b90 753f 826a 773f ee5b 763f cfb8 743f
00000240: e8b3 773f d2e3 7b3f 4548 733f 1b2c 783f
00000250: 9d25 7a3f 2f68 783f 3cb9 773f 96af 793f
00000260: 6a6e 733f fb7a 783f 4f47 723f 13bb 7f3f
00000270: 92cb 783f f7e8 863f 5268 7c3f 030d 823f
00000280: 9075 793f 0ff8 7c3f 8b1c 783f 0dab 753f
00000290: 4b12 7a3f ef84 7d3f d2ac 793f 21ec 783f
000002a0: 1256 743f f106 733f dac1 7a3f 9388 793f
000002b0: 675f 7c3f 44e7 7d3f 151b 793f 8011 793f
000002c0: 2e85 783f 41d2 783f effb 783f f20c 773f
000002d0: 75f4 763f e3d9 743f 52fc 793f b84c 753f
000002e0: 47ea 743f b562 7c3f e53f 783f b6ca 733f
000002f0: bfa9 773f e123 713f 40c8 7f3f 11d3 7c3f
00000300: 4627 783f 214b 7b3f 35a8 803f c7f2 7a3f
00000310: d5b2 783f 7ada 7a3f acaf 773f 3ca1 773f
00000320: c197 753f b718 763f 55a9 773f 042b 803f
00000330: 7498 7c3f 1d39 743f bde7 773f 3f75 773f
00000340: b766 7e3f 8827 7a3f 03b3 783f 2a04 7b3f
00000350: 1cae 733f 1024 733f 6d1e 7a3f 1dea 753f
00000360: 3243 793f 4a34 793f 02fa 7b3f 691f 7b3f
00000370: dd59 753f 7e25 7e3f 0a7b 753f bf81 783f
00000380: a502 773f aa6c 7c3f c0c5 793f be1a 783f
00000390: 7b81 7a3f ea73 823f 511a 773f 5e83 7a3f
000003a0: 5de6 793f a5b1 773f fc71 783f 39f6 773f
000003b0: 39f8 713f 8b04 7a3f 4448 793f a5f1 773f

conv1.5.bias f4 [240]
-0.053011697 -0.009716399 -0.013190574 -0.014313359 -0.013737749 -0.05147779 -0.010682812 -0.01885388
-0.011333764 -0.0068034898 -0.015432673 -0.008101795 -0.02854927 -0.0053459518 -0.0104972245 -0.008112897
-0.021082329 -0.012148596 -0.00249959 -0.0088870535 -0.008804819 -0.033716835 -0.018768834 -0.014436399
-0.008251768 -0.008191541 -0.011106105 -0.014128623 -0.0010987077 -0.010007112 -0.008925546 -0.028889313
-0.056828316 -0.017233662 -0.015506025 -0.008117477 -0.013071675 -0.013943969 -0.0062909615 -0.013550358
-0.015691647 -0.011716121 -0.016945504 -0.015147407 -0.058201928 -0.015958061 -0.025054086 -0.023093645
-0.023010155 -0.006646112 -0.004535253 -0.0054941494 -0.012325335 -0.01105194 -0.008348291 -0.025602724
-0.011241491 -0.019705355 -0.011482421 -0.023989368 -0.019703712 -0.013211563 -0.008849648 -0.009581393
-0.021529166 -0.005197827 -0.009752447 -0.029096523 -0.0014554381 -0.008255541 -0.019795742 -0.015372137
-0.03267145 -0.007059263 -0.046991613 -0.0073452117 -0.016120333 -0.018715031 -0.024008155 -0.0035875437
-0.00754231 -0.009424122 -0.011917181 -0.023588754 -0.008562411 -0.024017638 -0.0050340677 -0.016749667
-0.012650859 -0.008100469 -0.0058108154 -0.021839593 -0.012378687 -0.0093717035 -0.017866291 -0.021183928
-0.008668153 -0.032700732 -0.009165725 -0.001783869 -0.0022595497 -0.036371402 -0.03568338 -0.013135719
-0.023529481 -0.010661135 -0.0069179456 -0.011806549 -0.03836203 -0.011715348 -0.057867754 -0.012065151
-0.011385202 -0.008041816 -0.014650806 -0.02814623 -0.010590513 -0.022433802 -0.030474525 -0.009603734
-0.011745175 -0.006419031 -0.0045740483 -0.020267889 -0.00073650596 -0.005986388 -0.006154027 -0.006705251
-0.015150225 -0.014660011 -0.01635468 -0.03499555 -0.008995913 -0.024888754 -0.0044807727 -0.002364234
-0.012258999 -0.019165145 -0.019310063 -0.015978739 -0.015449381 -0.02279209 -0.013827182 -0.02170908
-0.016826784 -0.0059340033 -0.019728957 -0.01235297 -0.013684521 -0.01579022 -0.012388498 -0.0077008395
-0.022970276 -0.014011506 -0.025417665 -0.010965133 -0.017950099 -0.0016207831 -0.01144722 -0.013169315
-0.011060525 -0.0124028325 -0.021367151 -0.026488608 -0.00850572 -0.009916236 -0.009037001 -0.0060423794
-0.028802244 -0.028061494 -0.014290393 -0.006206095 -0.022892024 -0.012242854 -0.013506961 -0.004974472
-0.012418799 -0.016334662 -0.015642526 -0.018509934 -0.0154268835 -0.010859073 -0.016491205 -0.01843147
-0.015592934 -0.0117585445 -0.018911587 -0.042755116 -0.0063964976 -0.04339703 -0.007398324 -0.0073016738
-0.01790763 -0.0042040646 -0.008311234 -0.0044622053 -0.01401605 -0.007153749 -0.009178721 -0.012569273
-0.022175848 -0.006491277 -0.025900684 -0.003967249 -0.003359432 -0.023980517 -0.007958401 -0.008232274
-0.007018357 -0.009977689 -0.027513789 -0.0088546155 -0.021092733 -0.029657848 -0.014922843 -0.014432259
-0.012972119 -0.0061531668 -0.009676313 -0.029398637 -0.023716843 -0.013398945 -0.024337847 -0.016532328
-0.011727761 -0.0041799094 -0.006903782 -0.027606575 -0.022336995 -0.003929182 -0.019202359 -0.008508795
-0.007895235 -0.00783507 -0.012711729 -0.0074757054 -0.06001211 -0.009134041 -0.006497882 -0.0092784595
00000000: cb22 59bd 8831 1fbc 471d 58bc 9482 6abc
00000010: 4c14 61bc 60da 52bd f606 2fbc 7473 9abc
00000020: 40b1 39bc cfef debb 52d9 7cbc 64bd 04bc
00000030: 29e0 e9bc 182d afbb 8dfc 2bbc f5eb 04bc
00000040: d9b4 acbc e80a 47bc 29d0 23bb 019b 11bc
00000050: 1642 10bc aa1a 0abd 19c1 99bc a586 6cbc
00000060: 6c32 07bc d035 06bc 61f6 35bc bd7b 67bc
00000070: 8302 90ba dff4 23bc 743c 12bc 48a9 ecbc
00000080: cfc4 68bd 9c2d 8dbc fc0c 7ebc 2bff 04bc
00000090: 942a 56bc 3f75 64bc 6924 cebb 5202 5ebc
000000a0: c58b 80bc f9f4 3fbc 4cd1 8abc d42c 78bc
000000b0: 2565 6ebd 7bba 82bc 3a3e cdbc e22e bdbc
000000c0: cb7f bcbc a1c7 d9bb 769c 94bb 4408 b4bb
000000d0: 34f0 49bc 3213 35bc 45c7 08bc cebc d1bc
000000e0: 3b2e 38bc 206d a1bc c420 3cbc 5a85 c4bc
000000f0: ae69 a1bc 5075 58bc 1dfe 10bc 46fb 1cbc
00000100: ef5d b0bc 8852 aabb bac8 1fbc d55b eebc
00000110: 66c4 beba 4042 07bc ae2a a2bc 6adb 7bbc
00000120: 80d2 05bd 6451 e7bb 477a 40bd 1ab0 f0bb
00000130: ca0e 84bc 4450 99bc c0ac c4bc ff1c 6bbb
00000140: 7b25 f7bb a267 1abc 4840 43bc 343d c1bc
00000150: 5b49 0cbc a3c0 c4bc d2f4 a4bb 9936 89bc
00000160: 8c45 4fbc d4b7 04bc a768 bebb f2e8 b2bc
00000170: facf 4abc c68b 19bc 545c 92bc eb89 adbc
00000180: de04 0ebc 34f1 05bd d62b 16bc b6d0 e9ba
00000190: f414 14bb 2efa 14bd bc28 12bd 3337 57bc
000001a0: e6c0 c0bc 0bac 2ebc efaf e2bb 4170 41bc
000001b0: 8121 1dbd bbf1 3fbc bd06 6dbd e9ac 45bc
000001c0: 0089 3abc d2c1 03bc ef09 70bc ec92 e6bc
000001d0: d583 2dbc 18c7 b7bc b6a5 f9bc fb58 1dbc
000001e0: d66e 40bc bc56 d2bb e6e1 95bb d808 a6bc
000001f0: 1412 41ba 7629 c4bb b8a7 c9bb b9b7 dbbb
00000200: a638 78bc 8b30 70bc 40fa 85bc 7e57 0fbd
00000210: 9863 13bc 80e3 cbbc 72d3 92bb 44f1 1abb
00000220: f8d9 48bc 3900 9dbc 2330 9ebc d8e5 82bc
00000230: 671f 7dbc 7ab6 babc 688b 62bc 3ed7 b1bc
00000240: 53d8 89bc 0772 c2bb 9f9e a1bc 1d64 4abc
00000250: 0b35 60bc 7e5a 81bc 20f9 4abc 5357 fcbb
00000260: 292c bcbc 8490 65bc b538 d0bc 1aa7 33bc
00000270: 160c 93bc 7570 d4ba 1f8d 3bbc 1cc4 57bc
00000280: 3437 35bc 4035 4bbc 2a0a afbc a3fe d8bc
00000290: 935b 0bbc b577 22bc ee0f 14bc 27ff c5bb
000002a0: aff2 ebbc 38e1 e5bc 4122 6abc 805c cbbb
000002b0: 0e88 bbbc 4096 48bc 4d4c 5dbc e500 a3bb
000002c0: 3878 4bbc 45d0 85bc c124 80bc 25a2 97bc
000002d0: 0ac1 7cbc 41ea 31bc 9018 87bc 98fd 96bc
000002e0: 8179 7fbc e9a6 40bc 79ec 9abc fd1f 2fbd
000002f0: b699 d1bb 16c1 31bd a46d f2bb e142 efbb
00000300: 06b3 92bc 40c2 89bb d82b 08bc b137 92bb
00000310: 93a3 65bc ff69 eabb 5962 16bc 5aef 4dbc
00000320: 20aa b5bc c7b4 d4bb ac2d d4bc b2ff 81bb
00000330: eb29 5cbb ca72 c4bc f463 02bc a9e0 06bc
00000340: 3ffa e5bb 7679 23bc 9964 e1bc f312 11bc
00000350: abca acbc 04f5 f2bc f17e 74bc 4875 6cbc
00000360: 0389 54bc 81a0 c9bb 6689 1ebc 69d5 f0bc
00000370: d349 c2bc 4087 5bbc 2a60 c7bc ce6e 87bc
00000380: cb25 40bc 9ff7 88bb 1f39 e2bb 2f27 e2bc
00000390: 13fc b6bc 5ec0 80bb 444e 9dbc 7968 0bbc
000003a0: 045b 01bc aa5e 00bc db44 50bc c3f6 f4bb
000003b0: 42cf 75bd f2a6 15bc 2fec d4bb ae04 18bc

conv1.5.running_mean f4 [240]
0.3571799 -0.06600094 0.079814635 0.15735295 0.34251326 -0.12396962 0.19186933 0.0016086141
-0.17111497 0.020523172 0.06872409 -0.10268991 0.19320658 0.33609688 -0.064266525 0.15566185
-0.24844658 -0.06989644 0.13346945 -0.513746 0.41316032 -0.22440447 -0.34783643 -0.18744324
-0.07467021 -0.31508204 0.079599865 0.24043994 -0.026142176 -0.2367174 -0.1315571 -0.19778669
0.118374854 0.102005735 -0.30749363 0.09975451 -0.28066096 0.13558555 -0.41790342 0.17288075
-0.16855523 0.256589 -0.0068426654 0.123347074 0.18574488 -0.26555765 -0.10889731 0.37786147
-0.058643125 -0.15333879 -0.12050175 -0.11043235 0.3024314 -0.26745185 0.054988682 0.14476518
-0.096954785 0.31596935 -0.2596054 0.013283101 -0.49963093 -0.37730634 0.2859386 0.07972853
-0.15622188 -0.077858 0.4817101 0.13972113 -0.0983171 0.04906419 -0.25366133 -0.32161528
-0.16810565 -0.35091448 -0.04566596 -0.33730257 0.1305708 -0.24905014 -0.15295902 -0.20948464
-0.118042424 0.07248801 -0.08517893 0.06392965 -0.5465977 0.41829464 0.21519509 0.06295382
-0.18978432 0.43797782 -0.29430562 -0.008492712 -0.1058283 -0.17259854 0.16868795 -0.20079184
-0.24740522 -0.1339624 -0.12530749 -0.12023477 -0.05513776 0.116650894 0.21021855 0.09552183
-0.13991128 -0.11002274 0.34923527 -0.065276325 0.110559136 0.024248846 -0.21280596 -0.15917365
-0.08001217 -0.11756211 -0.030406049 0.010729381 -0.5032995 0.27415785 0.19078207 -0.042027384
-0.5994003 -0.19888785 -0.0381583 -0.1397057 -0.04251398 -0.03295794 0.17806193 -0.29213104
-0.3319462 -0.38027507 -0.050482873 0.28170758 -0.22539441 0.34972423 -0.047744557 0.016355101
0.12589781 -0.077273384 0.011667424 -0.074022494 -0.26689282 -0.16214886 -0.2906017 0.27591136
0.13503379 -0.17620604 0.27175924 -0.10626184 0.06836481 0.453991 -0.2779706 0.17539577
-0.30614242 -0.30704555 0.017365217 -0.03459373 0.29841235 0.089780875 -0.08589639 0.06610923
0.08547144 -0.23098049 -0.05304018 0.15006664 0.017043678 -0.27896583 -0.042598248 0.045758173
0.16187015 -0.14377056 0.5572529 0.025731623 0.07607398 -0.010219265 -0.18145795 -0.14216873
-0.022414617 0.12001786 -0.25815058 0.09792111 -0.2937333 -0.1741812 0.01527575 -0.53415877
0.03552267 -0.178332 -0.1532018 0.19904701 -0.0102328705 -0.013237315 -0.2112518 0.2927176
0.121101364 -0.2109806 -0.45005977 -0.25957268 0.07903728 -0.19736008 -0.2052311 0.11829494
0.10166558 0.64809644 -0.3296178 -0.15202771 0.29303107 0.13731277 -0.3543261 -0.2682629
-0.121517584 -0.10119198 0.16803999 -0.048208542 0.16436443 0.1721804 0.10995663 0.09802382
0.49153385 -0.12740119 -0.16728337 -0.00710969 0.10132904 0.1762789 -0.20210509 0.19113995
0.12564988 0.1866911 -0.1511896 -0.28949434 0.0061055836 -0.20127185 -0.03993412 0.16635922
-0.24790722 -0.21592937 0.2862274 0.28207827 0.0040241275 0.25577822 0.24988766 0.22326814
00000000: 49e0 b63e 802b 87bd db75 a33d 2221 213e
00000010: e65d af3e c9e3 fdbd 6579 443e 22d8 d23a
00000020: c338 2fbe 3620 a83c 37bf 8c3d 164f d2bd
00000030: f2d7 453e e414 ac3e 2b9e 83bd d265 1f3e
00000040: c868 7ebe dd25 8fbd 37ac 083e dc84 03bf
00000050: c089 d33e 49ca 65be 9e17 b2be 1ff1 3fbe
00000060: b2ec 98bd 6f52 a1be 4105 a33d e335 763e
00000070: 1e28 d6bc 0c66 72be e8b6 06be 9888 4abe
00000080: 846e f23d 62e8 d03d ce6f 9dbe 184c cc3d
00000090: cbb2 8fbe f0d6 0a3e 70f7 d5be a707 313e
000000a0: be99 2cbe a25f 833e 7038 e0bb 649d fc3d
000000b0: e833 3e3e 2cf7 87be 8e05 dfbd 0f77 c13e
000000c0: c633 70bd d804 1dbe 9fc9 f6bd 5b2a e2bd
000000d0: 4ad8 9a3e 73ef 88be d03b 613d 533d 143e
000000e0: 3b90 c6bd bcc6 a13e 00eb 84be 5da1 593c
000000f0: a0cf ffbe 4c2e c1be 8b66 923e b648 a33d
00000100: a1f8 1fbe 0474 9fbd b5a2 f63e 0e13 0f3e
00000110: 7a5a c9bd 88f7 483d e6df 81be c2aa a4be
00000120: e323 2cbe 10ab b3be 3b0c 3bbd ecb2 acbe
00000130: 5ab4 053e 0007 7fbe 4aa1 1cbe 2483 56be
00000140: 3ac0 f1bd 9874 943d 4a72 aebd 8ced 823d
00000150: d4ed 0bbf b72a d63e 1a5c 5c3e efed 803d
00000160: d256 42be a13e e03e 3aaf 96be 0425 0bbc
00000170: 82bc d8bd acbd 30be 89bc 2c3e 609c 4dbe
00000180: cb57 7dbe 702d 09be 9b50 00be a63d f6bd
00000190: 22d8 61bd aae6 ee3d 8843 573e f3a0 c33d
000001a0: e744 0fbe 9a53 e1bd f7ce b23e 98af 85bd
000001b0: d46c e23d 84a5 c63c cee9 59be 6bfe 22be
000001c0: 6cdd a3bd 67c4 f0bd 1b16 f9bc 49ca 2f3c
000001d0: 3cd8 00bf 6b5e 8c3e 605c 433e e824 2cbd
000001e0: 4c72 19bf 42a9 4bbe e14b 1cbd 030f 0fbe
000001f0: 2423 2ebd e8fe 06bd de55 363e 3392 95be
00000200: daf4 a9be 6ab3 c2be 21c7 4ebd fa3b 903e
00000210: cbcd 66be 0e0f b33e cc8f 43bd 22fb 853c
00000220: 5beb 003e 8241 9ebd b928 3f3c 1b99 97bd
00000230: 2da6 88be 5a0a 26be bfc9 94be 4144 8d3e
00000240: 4c46 0a3e 5b6f 34be 0724 8b3e cf9f d9bd
00000250: d902 8c3d 8271 e83e 2a52 8ebe f39a 333e
00000260: b3be 9cbe 1335 9dbe 8041 8e3c 28b2 0dbd
00000270: 81c9 983e 09df b73d 72ea afbd 4764 873d
00000280: a60b af3d 2686 6cbe a940 59bd 12ab 193e
00000290: 2f9f 8b3c 9cd4 8ebe 807b 2ebd ec6c 3b3d
000002a0: 4ac1 253e 9738 13be 20a8 0e3f 20cb d23c
000002b0: adcc 9b3d b46e 27bc 1dd0 39be ae94 11be
000002c0: dc9e b7bc eccb f53d 502c 84be dd8a c83d
000002d0: 3664 96be 8e5c 32be 2447 7a3c a1be 08bf
000002e0: 3880 113d aa9c 36be efe0 1cbe fbd2 4b3e
000002f0: c5a7 27bc 53e1 58bc 6452 58be 15df 953e
00000300: fe03 f83d 4c0b 58be 3c6e e6be b6e6 84be
00000310: 4cde a13d c318 4abe 1a28 52be 9e44 f23d
00000320: 0b36 d03d a6e9 253f aac3 a8be 27ad 1bbe
00000330: 2b08 963e b89b 0c3e 3b6a b5be c159 89be
00000340: 36de f8bd be3d cfbd ad12 2c3e 5276 45bd
00000350: 264f 283e 0f50 303e f130 e13d b6c0 c83d
00000360: 53aa fb3e 7575 02be 554c 2bbe 67f8 e8bb
00000370: 9a85 cf3d 7582 343e a3f4 4ebe 31ba 433e
00000380: 5daa 003e f42b 3f3e 72d1 1abe 9a38 94be
00000390: 5911 c83b 351a 4ebe f691 23bd 125a 2a3e
000003a0: 64db 7dbe 971c 5dbe 668c 923e 906c 903e
000003b0: d4dc 833b 5df5 823e 8de2 7f3e 67a0 643e

conv1.5.running_var f4 [240]
0.2598182 0.19715184 0.15967305 0.14400366 0.17406297 0.19133139 0.24454619 0.28954
0.14193214 0.19137833 0.17733146 0.21386738 0.7791495 0.18616912 0.19864248 0.2920734
0.13257353 0.105569474 0.17177597 0.24412546 0.1819297 0.16093035 0.35835943 0.23759334
0.22343428 0.27259585 0.15455061 0.12154923 0.29194662 0.23237947 0.12069559 0.18203597
0.17325853 0.4686274 0.1808036 0.13013671 0.47054425 0.2243099 0.21376687 0.17807578
0.15967506 0.4729306 0.19506629 0.7041426 0.23089215 0.20267984 0.23745298 0.24553911
0.14893858 0.09467632 0.14427295 0.16985807 0.25527635 0.21870357 0.12965524 0.13821079
0.14932777 0.27532366 0.21811396 0.09351204 0.25343788 0.23860793 0.27185306 0.13693151
0.20246309 0.17668425 0.4031195 0.1915017 0.13266824 0.19703381 0.1870452 0.2275031
0.21749637 0.21280187 0.2170737 0.22337478 0.20822263 0.4981768 0.24449362 0.2691595
0.119981445 0.13204078 0.13900162 0.29181886 0.3110235 0.16851485 0.17725348 0.1412025
0.12950166 0.22858013 0.22584806 0.39548612 0.31854087 0.17392786 0.18670644 0.21332523
0.25630486 0.16901432 0.16836055 0.17937605 0.14550234 0.18052094 0.31866992 0.18826437
0.14154203 0.23979615 0.37714043 0.12037265 0.2363841 0.13677448 0.22828102 0.1369597
0.14739294 0.2537712 0.19467351 0.11713768 0.23123209 0.44303972 0.11884363 0.12628551
0.27081618 0.7397111 0.20652084 0.41297573 0.15313113 0.36249512 0.19756818 0.25998968
0.10980985 0.21772785 0.09023564 0.6005952 0.27989224 0.38368487 0.13266586 0.155225
0.14168672 0.1273657 0.2001001 0.13201797 0.18593559 0.17920299 0.250801 0.16633962
0.27270114 0.20716645 0.2783871 0.1448812 0.16860488 0.28145158 0.25677884 0.14056571
0.1972724 0.31966835 0.21594979 0.13015491 0.19573398 0.10857333 0.100809716 0.15104097
0.11531265 0.17330205 0.15632193 0.23750389 0.19215202 0.36813575 0.13485248 0.16373412
0.18371008 0.2575675 0.2704403 0.13093282 0.16791753 0.13748772 0.21020092 0.213021
0.21941578 0.136347 0.26433808 0.26455197 0.28428122 0.12156165 0.24358761 0.30953425
0.22306702 0.13986886 0.17252944 0.26082912 0.24601652 0.2015234 0.15882832 0.20334132
0.23081896 0.18005602 0.23845927 0.13967448 0.18439607 0.22837205 0.24090968 0.20881718
0.2183307 0.40508655 0.17457569 0.08870599 0.20528056 0.1873908 0.20693384 0.17771569
0.20140077 0.13682468 0.16604644 0.37276834 0.20542927 0.3026783 0.1444754 0.17951328
0.25119975 0.18233915 0.26441216 0.14254704 0.35568845 0.21295537 0.23307234 0.25421765
0.3581361 0.1727295 0.22706924 0.13842328 0.1703443 0.199826 0.24483982 0.15247399
0.24895233 0.17440188 0.22906029 0.11275975 0.11747675 0.169201 0.16207665 0.2324794
00000000: e406 853e 2ce2 493e 5581 233e b275 133e
00000010: 903d 323e 60ec 433e 516a 7a3e 963e 943e
00000020: a956 113e aef8 433e 6196 353e 0d00 5b3e
00000030: 5776 473f 1ea3 3e3e ef68 4b3e a58a 953e
00000040: 5bc1 073e cf34 d83d 0ae6 2f3e 06fc 793e
00000050: c74b 3a3e edca 243e e37a b73e ab4b 733e
00000060: f5cb 643e af91 8b3e 8442 1e3e cdee f83d
00000070: 077a 953e e2f4 6d3e 402f f73d a367 3a3e
00000080: af6a 313e eeef ef3e 9424 393e 8f42 053e
00000090: 2deb f03e 7fb1 653e b4e5 5a3e 7f59 363e
000000a0: dc81 233e f623 f23e 75bf 473e b042 343f
000000b0: fe6e 6c3e 4e8b 4f3e e026 733e 9b6e 7b3e
000000c0: 5b83 183e a9e5 c13d 4abc 133e 46ef 2d3e
000000d0: 95b3 823e d4f3 5f3e 58c4 043e 2187 0d3e
000000e0: 61e9 183e 39f7 8c3e 4459 5f3e 3e83 bf3d
000000f0: 9cc2 813e a355 743e 5330 8b3e c637 0c3e
00000100: 7c52 4f3e b7ec 343e ae65 ce3e 0619 443e
00000110: 2fda 073e 3bc3 493e c788 3f3e 93f6 683e
00000120: 5eb7 5e3e bce8 593e 9148 5e3e 5cbc 643e
00000130: 5038 553e 0811 ff3e 895c 7a3e 46cf 893e
00000140: d5b8 f53d b335 073e 7156 0e3e 4869 953e
00000150: 793e 9f3e 288f 2c3e f081 353e 6397 103e
00000160: 159c 043e e910 6a3e b744 673e 287d ca3e
00000170: ca17 a33e 251a 323e f92f 3f3e ee71 5a3e
00000180: 643a 833e 1712 2d3e b566 2c3e 5bae 373e
00000190: 91fe 143e 7bda 383e b428 a33e 60c8 403e
000001a0: 65f0 103e 1f8d 753e 8d18 c13e f085 f63d
000001b0: ac0e 723e 9c0e 0c3e 80c2 693e 2a3f 0c3e
000001c0: 2dee 163e 4cee 813e 7e58 473e e1e5 ef3d
000001d0: 1bc8 6c3e 1ad6 e23e 4a64 f33d fd50 013e
000001e0: 6ba8 8a3e b55d 3d3f 337a 533e 8e71 d33e
000001f0: 68ce 1c3e f698 b93e 504f 4a3e 5e1d 853e
00000200: fde3 e03d 0df4 5e3e 77cd b83d 9bc0 193f
00000210: 094e 8f3e 5872 c43e 8fd9 073e 4df3 1e3e
00000220: 5316 113e 276c 023e 0ae7 4c3e b82f 073e
00000230: e665 3e3e fd80 373e fd68 803e ef54 2a3e
00000240: 7c9f 8b3e 7123 543e c188 8e3e bd5b 143e
00000250: c2a6 2c3e 6c1a 903e 8478 833e 75f0 0f3e
00000260: c701 4a3e 92ab a33e f121 5d3e 5447 053e
00000270: 7d6e 483e b25b de3d 5375 ce3d 7caa 1a3e
00000280: 0a29 ec3d 1876 313e db12 203e 3834 733e
00000290: 80c3 443e 4a7c bc3e c516 0a3e eba9 273e
000002a0: 7f1e 3c3e e3df 833e 2777 8a3e 4113 063e
000002b0: 93f2 2b3e 95c9 0c3e e93e 573e 2d22 5a3e
000002c0: 88ae 603e 8c9e 0b3e 5257 873e 5b73 873e
000002d0: 4f8d 913e 50f5 f83d 086f 793e 467b 9e3e
000002e0: ae6b 643e c839 0f3e 8fab 303e 658b 853e
000002f0: c1eb 7b3e 265c 4e3e e4a3 223e b538 503e
00000300: ce5b 6c3e 9b60 383e ab2e 743e d406 0f3e
00000310: 53d2 3c3e 5dda 693e 07b1 763e 2cd4 553e
00000320: 1592 5f3e 8167 cf3e f8c3 323e 7cab b53d
00000330: 1135 523e 60e3 3f3e 77e6 533e 1afb 353e
00000340: 013c 4e3e c51b 0c3e 1408 2a3e 7edb be3e
00000350: 0d5c 523e a6f8 9a3e 5cf1 133e 54d2 373e
00000360: 419d 803e 1db7 3a3e 0861 873e daf7 113e
00000370: cc1c b63e f910 5a3e 84aa 6e3e d128 823e
00000380: 9d5d b73e 01e0 303e d784 683e d5be 0d3e
00000390: bc6e 2e3e 309f 4c3e 4ab7 7a3e 2422 1c3e
000003a0: 5ced 7e3e 6896 323e c88e 6a3e 95ee e63d
000003b0: a697 f03d 0743 2d3e 6cf7 253e 140f 6e3e

conv2.0.weight f4 [10, 1, 6]
0.3231262 0.2789234 0.3414048 -0.088478215 0.33378077 0.17028008 -0.1472268 0.41790944
0.17051381 0.22322033 0.33184332 6.986814e-05 -0.21806853 0.13551827 0.0870037 0.23661812
0.43334574 -0.3194078 -0.3401995 -0.17171755 0.3505092 0.028781692 -0.22747497 -0.22987165
0.1592565 -0.3536198 -0.017656293 -0.25571865 -0.28538147 -0.42090806 0.04232781 -0.31465307
0.35093108 0.24986687 0.038021423 0.051049106 -0.0075767953 0.13207224 0.38326216 0.26601204
0.03632672 -0.28622586 -0.0424102 -0.2551477 0.38189322 0.081735276 0.24908839 -0.102927856
-0.19313124 0.29106688 0.07233877 0.36917424 -0.024865754 0.40515316 -0.22966534 0.31969526
-0.0140636545 -0.32751924 -0.14259045 -0.035703555
00000000: cc70 a53e 0ccf 8e3e 9ccc ae3e 1134 b5bd
00000010: 50e5 aa3e e75d 2e3e 9fc2 16be 3af8 d53e
00000020: 2c9b 2e3e df93 643e 5ee7 a93e 2c86 9238
00000030: 5b4d 5fbe 4dc5 0a3e ff2e b23d 054c 723e
00000040: 7edf dd3e 6b89 a3be a12e aebe bad6 2fbe
00000050: f175 b33e 95c7 eb3c 33ef 68be 7963 6bbe
00000060: 2314 233e a80d b5be eea3 90bc 8eed 82be
00000070: 851d 92be 4381 d7be ed5f 2d3d 351a a1be
00000080: 3dad b33e 1add 7f3e 5abc 1b3d de18 513d
00000090: c446 f8bb f23d 073e f03a c43e bb32 883e
000000a0: 54cb 143d 328c 92be 51b6 2dbd b8a2 82be
000000b0: 8287 c33e d364 a73d 0711 7f3e d7cb d2bd
000000c0: 32c4 45be b806 953e 5926 943d 6804 bd3e
000000d0: 44b3 cbbc 3c70 cf3e 642d 6bbe 19af a33e
000000e0: 3e6b 66bc 9ab0 a7be 3b03 12be e43d 12bd

conv2.0.bias f4 [10]
0.19411351 0.07086387 -0.12641983 -0.24578741 0.22105174 -0.07273016 0.4465681 0.30732206
0.14749922 0.19625618
00000000: b1c5 463e 1421 913d 3374 01be b2af 7bbe
00000010: 635b 623e 8df3 94bd 93a4 e43e 5159 9d3e
00000020: 090a 173e 61f7 483e

conv2.1.weight f4 [10]
0.9787202 0.94821036 1.116481 1.1463348 1.0222002 1.0042734 0.97703975 1.0832747
0.99079835 1.1641155
00000000: 688d 7a3f eabd 723f d9e8 8e3f 19bb 923f
00000010: 75d7 823f 088c 803f 471f 7a3f bfa8 8a3f
00000020: f6a4 7d3f bd01 953f

conv2.1.bias f4 [10]
-0.013340154 0.012365928 0.037656564 0.007024124 0.014625394 0.038105555 0.06743436 0.0017163537
0.022926513 0.026059505
00000000: a990 5abc 769a 4a3c c53d 1a3d 9f2a e63b
00000010: 599f 6f3c 9214 1c3d 071b 8a3d 46f7 e03a
00000020: 62d0 bb3c be7a d53c

conv2.1.running_mean f4 [10]
2.2998571 1.6615161 0.4987094 -1.0849669 -1.385766 0.5651599 1.2115434 0.8476372
1.4921646 -0.56232446
00000000: dc30 1340 8fac d43f d756 ff3e 32e0 8abf
00000010: c860 b1bf 52ae 103f db13 9b3f c0fe 583f
00000020: 40ff be3f 7ff4 0fbf

conv2.1.running_var f4 [10]
1.5711627 0.9862003 0.24116471 0.2862805 0.99363613 0.2314384 0.3479443 0.21830855
0.8288017 0.24591233
00000000: dc1b c93f 9f77 7c3f e2f3 763e 5c93 923e
00000010: f05e 7e3f 30fe 6c3e c125 b23e 478c 5f3e
00000020: 592c 543f 71d0 7b3e

conv2.4.weight f4 [240, 10, 6]
-0.071394406 -0.046571176 0.05311046 0.073881224 0.083099395 -0.04588201 -0.06703113 0.06936225
0.061265096 0.06074186 -0.107901104 -0.028726615 0.016327173 -0.061977558 0.034938868 -0.10031088
0.07587941 0.04698274 -0.0836599 0.13760403 -0.14060393 -0.12919386 -0.04715306 0.06841854
-0.08549143 -0.16058704 0.02965795 0.0061879386 -0.0069773006 0.047061764 -0.090152435 0.09139167
0.09049373 0.117860705 -0.037550144 0.1012386 0.03773697 -0.028891962 -0.04777717 -0.048994984
0.114337884 -0.08024797 -0.11229036 -0.045417603 -0.11210164 -0.0757054 0.058279946 -0.075847946
-0.0070313383 0.05438906 0.01251574 -0.11275208 -0.018549208 0.11210865 0.042302124 0.05765655
0.053439744 0.05422 0.10596276 0.035225995 -0.039111286 -0.13654292 0.048972037 0.010883717
0.0056600645 -0.1281672 0.09077414 0.021854267 -0.1080873 -0.078722455 -0.044173945 -0.00084498944
-0.11236624 -0.031775355 0.06659626 0.07288861 0.056705933 -0.0763504 -0.21471098 0.049664985
0.12534364 0.04418502 -0.006787001 0.10573893 -0.07691497 0.006654508 -0.072440885 -0.008344323
-0.023585863 -0.020808257 -0.053791773 0.11486351 -0.057448532 -0.115376264 -0.22177458 -0.070304
-0.13022576 0.0883833 0.058310665 -0.027560957 -0.1876473 0.0058811856 0.07009388 -0.022984914
0.073133156 -0.026361298 0.05593547 0.10982067 -0.006138592 -0.10817014 0.10740985 -0.074075505
0.03750439 0.14624129 0.066584356 -0.19717534 0.008818391 0.06592335 -0.10065094 -0.14141767
-0.059783775 -0.11012043 -0.0037402897 -0.021484885 -0.076283075 -0.12522635 0.00998209 0.012035237
0.08572722 0.0656002 0.053406566 -0.025938086 -0.06319605 0.023014717 0.023336727 -0.08025843
0.10812814 0.03670722 0.030118873 0.0610263 0.124146305 -0.04554258 0.07522464 -0.11236515
0.038737565 -0.054489166 -0.011378871 -0.11628608 -0.08246427 -0.13578294 -0.06544147 0.04092617
-0.039144583 0.0477058 0.01293442 -0.0733987 0.110577196 0.026951803 -0.14527053 0.0170152
-0.04692052 0.0049819257 -0.044068485 -0.02991521 0.010895185 0.07673722 0.113402165 0.046492886
0.10926025 0.015525194 0.10365607 0.055683468 -0.048474595 -0.074100934 -0.007576516 -0.19734414
-0.121481724 0.032785088 -0.07676287 0.0067146244 -0.010816593 0.06741346 0.015242536 -0.02148155
0.068546444 -0.07337668 -0.047633454 -0.010447688 0.08320241 -0.010600673 0.05031336 0.020031627
-0.039228328 0.0004813815 0.09295179 -0.08332099 0.011783721 0.008391755 -0.10681468 0.0012875858
-0.17948289 -0.14282456 0.1258656 -0.015621932 -0.1053776 0.10086281 0.01903318 -0.08259966
-0.051173743 -0.10353642 0.13447537 0.11978914 -0.09162063 0.13553816 -0.0019689885 0.07942909
0.025552548 -0.07239958 0.059380848 0.034886982 0.13796301 -0.023060083 -0.08232431 0.10892612
-0.090827875 -0.068388335 0.045600325 0.024417311 -0.010827341 -0.005969707 0.057546664 -0.033091858
-0.086083986 0.03899674 0.024456501 0.0635978 -0.13510156 -0.118077464 -0.069699585 0.06338472
-0.04982407 0.050827272 0.10513204 -0.068977445 -0.12252372 -0.105283596 -0.12024791 0.058948793
0.056744043 -0.14213963 0.062370606 0.011855364 0.04904127 -0.10582937 0.09950982 0.003197505
00000000: 3b37 92bd 6bc1 3ebd 5b8a 593d 0a4f 973d
00000010: 0430 aa3d c6ee 3bbd 9e47 89bd cc0d 8e3d
00000020: 1cf1 7a3d 75cc 783d 41fb dcbd 1454 ebbc
00000030: 90c0 853c 2edc 7dbd 0f1c 0f3d ca6f cdbd
00000040: aa66 9b3d f970 403d e255 abbd 12e8 0c3e
00000050: 7afa 0fbe 654b 04be 9123 41bd 051f 8c3d
00000060: 2116 afbd ee70 24be 3bf5 f23c 31c4 ca3b
00000070: d7a1 e4bb d6c3 403d d7a1 b8bd 8e2b bb3d
00000080: c754 b93d f460 f13d 2ece 19bd 2f56 cf3d
00000090: 1592 1a3d d6ae ecbc feb1 43bd f7ae 48bd
000000a0: fb29 ea3d 0c59 a4bd 7df8 e5bd cf07 3abd
000000b0: 8b95 e5bd 6f0b 9bbd f4b6 6e3d 2b56 9bbd
000000c0: 2467 e6bb 10c7 5e3d d10e 4d3c 90ea e6bd
000000d0: 82f4 97bc 3899 e53d fe44 2d3d 4629 6c3d
000000e0: a2e3 5a3d ca15 5e3d 0103 d93d 2249 103d
000000f0: 2833 20bd e8d1 0bbe e796 483d 9e51 323c
00000100: 1078 b93b 433e 03be cbe7 b93d b807 b33c
00000110: e05c ddbd 3d39 a1bd bdef 34bd 4882 5dba
00000120: 4520 e6bd e026 02bd 9f63 883d a046 953d
00000130: 7b44 683d 995d 9cbd 32dd 5bbe 836d 4b3d
00000140: 155a 003e 5afb 343d 7e65 debb a78d d83d
00000150: 9985 9dbd 0f0e da3b e35b 94bd a1b6 08bc
00000160: 2437 c1bc 1476 aabc c354 5cbd 8f3d eb3d
00000170: 274f 6bbd 644a ecbd e018 63be 8bfb 8fbd
00000180: e759 05be 4e02 b53d 2ad7 6e3d 84c7 e1bc
00000190: 9d26 40be f6b6 c03b 618d 8f3d dc4a bcbc
000001a0: d6c6 953d a6f3 d7bc 971c 653d a9e9 e03d
000001b0: 3e26 c9bb 4e88 ddbd b2f9 db3d e6b4 97bd
000001c0: 349e 193d 47c0 153e 615d 883d 55e8 49be
000001d0: 037b 103c d202 873d 1422 cebd cbcf 10be
000001e0: d5df 74bd d286 e1bd a61f 75bb 1201 b0bc
000001f0: 4d3a 9cbd 563b 00be ec8b 233c 712f 453c
00000200: c191 af3d 6659 863d d8c0 5a3d 1c7c d4bc
00000210: ee6c 81bd 5c89 bc3c aa2c bf3c 885e a4bd
00000220: 4972 dd3d 4f5a 163d dbbb f63c b7f6 793d
00000230: 6b40 fe3d db8a 3abd 600f 9a3d b31f e6bd
00000240: 48ab 1e3d 0830 5fbd 726e 3abc 6527 eebd
00000250: 07e3 a8bd af0a 0bbe 2d06 86bd 33a2 273d
00000260: 1256 20bd 2867 433d e4ea 533c 0f52 96bd
00000270: 4c76 e23d 07ca dc3c ccc1 14be 7663 8b3c
00000280: bb2f 40bd 6c3f a33b 2881 34bd be10 f5bc
00000290: b881 323c 6728 9d3d 653f e83d 536f 3e3d
000002a0: d7c3 df3d 625d 7e3c a249 d43d 5914 643d
000002b0: 4c8d 46bd 3bc2 97bd 6c44 f8bb 9514 4abe
000002c0: 69cb f8bd a849 063d da35 9dbd 5a06 dc3b
000002d0: 1438 31bc 1110 8a3d d4bb 793c 13fa afbc
000002e0: 1462 8c3d 8346 96bd 4c1b 43bd c82c 2bbc
000002f0: 0666 aa3d 72ae 2dbc 6215 4e3d 5e19 a43c
00000300: e2ad 20bd ee61 fc39 825d be3d 32a4 aabd
00000310: 8210 413c 927d 093c a8c1 dabd 36c4 a83a
00000320: 5dca 37be 9a40 12be e9e2 003e 22f3 7fbc
00000330: 36d0 d7bd 2991 ce3d 79eb 9b3c 032a a9bd
00000340: 8f9b 51bd e70a d4bd e9b3 093e 0254 f53d
00000350: 99a3 bbbd 84ca 0a3e 250a 01bb b8ab a23d
00000360: 9453 d13c 3b46 94bd 5539 733d a7e5 0e3d
00000370: 2d46 0d3e 80e8 bcbc a699 a8bd a814 df3d
00000380: f703 babd 2f0f 8cbd 68c7 3a3d d006 c83c
00000390: 2965 31bc 889d c3bb 0db6 6b3d 548b 07bd
000003a0: cd4c b0bd 0cbb 1f3d 0059 c83c 903f 823d
000003b0: 1058 0abe 99d2 f1bd a8be 8ebd d9cf 813d
000003c0: 5314 4cbd 4230 503d 784f d73d 0c44 8dbd
000003d0: b7ed fabd ed9e d7bd 8944 f6bd 4a74 713d
000003e0: 716c 683d 0d8d 11be 5278 7f3d 003d 423c
000003f0: 80df 483d 12bd d8bd cecb cb3d 3b8d 513b
