model/dpc_pssm_k3_model.ckpt (torch, 635099 bytes, 40 tensors)

conv1.0.weight f4 [10, 1, 3]
0.53983855 -0.08014017 0.119628765 0.24200542 -0.4371361 0.5153621 -0.24792573 0.5028355
0.4636385 -0.2162891 0.27099752 -0.079222515 -0.2826991 -0.08472021 0.34867382 0.48403224
-0.011287062 -0.4926062 0.27778664 0.3677979 -0.4471653 -0.16248311 0.36597735 0.12547842
0.051649097 -0.14720371 -0.45822188 0.2950401 -0.5615338 0.46553397
00000000: dc32 0a3f 8820 a4bd edff f43d 45d0 773e
00000010: 4ed0 dfbe c5ee 033f 3ee0 7dbe d4b9 003f
00000020: 0762 ed3e e47a 5dbe 30c0 8a3e 6a3f a2bd
00000030: f0bd 90be ca81 adbd 6085 b23e 13d3 f73e
00000040: 5fed 38bc e136 fcbe 0d3a 8e3e 0250 bc3e
00000050: daf2 e4be f961 26be 6261 bb3e 6a7d 003e
00000060: 018e 533d 92bc 16be 0f9c eabe 7f0f 973e
00000070: aec0 0fbf 785a ee3e

conv1.0.bias f4 [10]
0.5387712 -0.04085659 0.49993116 -0.11456054 -0.109133296 0.17575437 -0.35525364 -0.06553909
-0.27219602 -0.10417195
00000000: e9ec 093f 3d59 27bd faf6 ff3e b79e eabd
00000010: 4781 dfbd f4f8 333e cee3 b5be 5c39 86bd
00000020: 475d 8bbe 1a58 d5bd

conv1.1.weight f4 [10]
0.98386276 0.9727902 0.9570153 0.9409156 0.95787567 0.94341844 0.9725044 0.9480179
0.9949109 0.9844311
00000000: 6ede 7b3f c708 793f f4fe 743f d8df 703f
00000010: 5737 753f df83 713f 0cf6 783f 4db1 723f
00000020: 7bb2 7e3f ad03 7c3f

conv1.1.bias f4 [10]
-0.012210357 -0.012805693 0.02682896 0.023023268 -0.035069615 -0.00434979 0.022961555 0.003011043
-0.020979604 0.0056374534
00000000: f30d 48bc f8ce 51bc 68c8 db3c 4b9b bc3c
00000010: 28a5 0fbd af88 8ebb df19 bc3c eb54 453b
00000020: 6bdd abbc 63ba b83b

conv1.1.running_mean f4 [10]
2.6318529 1.255086 3.1746619 -0.11517632 0.1454803 0.23737758 0.30337253 1.3752683
-1.9711109 0.8651588
00000000: 4770 2840 a8a6 a03f a92d 4b40 90e1 ebbd
00000010: caf8 143e 1c13 733e a553 9b3e cb08 b03f
00000020: 5d4d fcbf 0c7b 5d3f

conv1.1.running_var f4 [10]
4.2281027 2.4876425 7.6382465 0.38829166 0.9190756 2.1583529 1.977105 2.2720585
2.9803727 2.1479979
00000000: 9e4c 8740 8935 1f40 846c f440 2ace c63e
00000010: 8a48 6b3f 7422 0a40 c711 fd3f 6869 1140
00000020: 6dbe 3e40 cc78 0940

conv1.4.weight f4 [400, 10, 3]
0.124490306 -0.17479888 0.120009296 0.13734399 0.017597744 0.019021068 -0.13296145 -0.18884303
-0.19731422 0.10296454 0.094146915 -0.012705288 0.06542071 -0.082607076 -0.16221943 -0.059873264
-0.12167101 -0.13762115 0.055394728 -0.15782885 -0.17430747 -0.039490707 0.09224402 -0.12546138
-0.02294072 -0.18725117 -0.06803547 0.05580233 -0.112025596 0.107691534 0.044571575 -0.020108355
0.021139337 -0.14228182 -0.17674835 -0.01889202 -0.037446305 -0.16457643 0.076999456 -0.17138669
-0.06258368 0.14364907 -0.054016307 -0.09900129 0.13363332 0.034869358 -0.1386467 0.0107111195
-0.18610564 -0.031836614 -0.014781322 -0.1190713 -0.06966899 0.14747523 -0.012804457 -0.13379948
-0.070245035 -0.005577084 0.11320107 0.12775375 0.01714862 0.0482333 0.03668761 -0.013304639
-0.04991938 -0.09361883 -0.035726264 0.1250904 -0.10705726 0.1669775 -0.14175847 0.15333539
-0.13765216 -0.16327626 0.11657409 0.025831323 0.035923067 -0.18799682 0.049235094 0.04701884
0.15339795 0.019414004 0.12589921 0.1244025 0.020741384 0.119168654 0.01980109 -0.06484018
0.18500678 -0.24519305 -0.15985383 -0.023370301 -0.095410995 -0.052834425 0.114125565 -0.13396288
0.038271617 -0.13076414 -0.19668539 -0.22988835 -0.11686316 0.1610142 0.05862758 -0.046276797
-0.035757963 -0.14403625 0.099320315 -0.17032692 0.071656875 0.07713002 0.14326102 0.0089956075
0.010389741 0.01487412 0.1443305 -0.1963238 0.17401671 0.0331642 0.13847286 0.026021317
-0.09185788 0.023583451 0.00044403004 -0.13034263 -0.14592315 0.021010872 0.049763713 -0.06950739
-0.1506763 0.13204816 -0.12397555 0.1206619 -0.0132980235 0.09486537 -0.20149103 0.036808204
0.15211685 -0.14238848 -0.08050454 0.014125718 0.14322488 -0.018585319 -0.12947847 0.12255478
-0.055062156 0.029977817 -0.03455762 0.11754805 0.023103382 0.100557104 -0.18953288 0.06461369
-0.06469311 0.15695986 -0.06780271 -0.17824146 0.02652408 0.059532437 -0.10889268 0.11881243
0.14311244 -0.02039417 0.13734578 0.06985931 0.093490764 -0.051423747 -0.13985144 0.016477648
-0.078034185 0.05077162 -0.017190587 0.10048634 -0.13658826 -0.06802081 0.10822558 0.096147045
-0.05564508 -0.19953191 -0.15112427 -0.120679595 -0.008007743 0.07153165 -0.16714981 -0.078127526
-0.100200124 0.15999937 0.11215093 -0.09275954 0.008178491 -0.039510164 -0.013864654 0.1533525
0.02094366 -0.004481217 -0.10027316 -0.0999356 -0.05821109 -0.18130621 0.09110525 0.04429446
0.0125486525 0.066402316 -0.13607617 0.14969836 0.134353 -0.059236217 -0.013873951 0.032636207
-0.053078167 0.07317148 0.13848609 -0.120998666 0.17006923 -0.103775896 0.061091002 0.06592047
0.15710913 0.026584538 0.07015 -0.15871695 -0.1439979 -0.1338674 0.022852624 0.04407687
0.060649976 -0.04043053 -0.17226037 0.117068864 -0.07089897 -0.17374593 -0.01591553 0.062365472
-0.16372167 0.079156235 -0.14182878 -0.023545634 0.00073249324 -0.0101059 0.055724613 -0.10756821
-0.1123766 0.08114607 0.028869983 0.06075825 -0.0998935 0.01466525 0.113662384 0.011661435
0.1544613 -0.13340516 0.048853856 -0.04167998 0.0051957234 -0.08428188 -0.058010127 -0.10654606
00000000: c6f4 fe3d 7afe 32be 6fc7 f53d e7a3 0c3e
00000010: 2529 903c 12d2 9b3c 0c27 08be 1160 41be
00000020: bd0c 4abe 13df d23d 19d0 c03d d729 50bc
00000030: 4bfb 853d e62d a9bd da1c 26be ab3d 75bd
00000040: a72e f9bd 8fec 0cbe 95e5 623d e39d 21be
00000050: a87d 32be 02c1 21bd 6fea bc3d f378 00be
00000060: 2dee bbbc c5be 3fbe 2e56 8bbd fc90 643d
00000070: ad6d e5bd 618d dc3d af90 363d 47ba a4bc
00000080: 672c ad3c 53b2 11be 85fd 34be 70c3 9abc
00000090: 4c61 19bd b986 28be e4b1 9d3d fe7f 2fbe
000000a0: df2b 80bd be18 133e 3440 5dbd 30c1 cabd
000000b0: 2cd7 083e 2cd3 0e3d 67f9 0dbe b17d 2f3c
000000c0: 7a92 3ebe 1c67 02bd 5c2d 72bc a7db f3bd
000000d0: 9eae 8ebd bf03 173e c9c9 51bc bb02 09be
000000e0: a1dc 8fbd f9bf b6bb f6d5 e73d e1d1 023e
000000f0: 437b 8c3c 4890 453d bf45 163d b3fb 59bc
00000100: 4478 4cbd 3bbb bfbd b455 12bd b317 003e
00000110: d640 dbbd 26fc 2a3e 2229 11be f403 1d3e
00000120: b0f4 0cbe e431 27be 66be ee3d 369c d33c
00000130: 1124 133d 3d82 40be bdaa 493d d496 403d
00000140: 5a14 1d3e 1e0a 9f3c b9eb 003e bdc6 fe3d
00000150: d6e9 a93c b20e f43d e535 a23c eeca 84bd
00000160: 6b72 3d3e e313 7bbe b9b0 23be 1373 bfbc
00000170: d766 c3bd e968 58bd aaba e93d 912d 09be
00000180: b3c2 1c3d 09e7 05be e567 49be da67 6bbe
00000190: f455 efbd e8e0 243e 7923 703d bd8c 3dbd
000001a0: f176 12bd 3d7e 13be 7368 cb3d 2e6a 2ebe
000001b0: d7c0 923d 58f6 9d3d 04b3 123e 5062 133c
000001c0: bb39 2a3c 95b2 733c 60cb 133e 1b09 49be
000001d0: 7031 323e 2fd7 073d d4cb 0d3e a82a d53c
000001e0: fc1f bcbd 1532 c13c b4cc e839 8a78 05be
000001f0: e16c 15be fe1e ac3c 09d5 4b3d e459 8ebd
00000200: e34a 1abe a237 073e e5e6 fdbd 961d f73d
00000210: f4df 59bc c648 c23d aa53 4ebe 33c4 163d
00000220: 85c4 1b3e 49ce 11be 90df a4bd 8e6f 673c
00000230: 8ba9 123e 3d40 98bc 0196 04be 00fe fa3d
00000240: db88 61bd 0a94 f53c 4a8c 0dbd 08bd f03d
00000250: 4e43 bd3c e2f0 cd3d e814 42be 2f54 843d
00000260: d27d 84bd 16ba 203e 26dc 8abd ee84 36be
00000270: 0749 d93c 49d8 733d 2003 dfbd ee53 f33d
00000280: 118c 123e ad11 a7bc 5fa4 0c3e 6612 8f3d
00000290: 1678 bf3d b5a1 52bd 3735 0fbe 22fc 863c
000002a0: 63d0 9fbd e7f5 4f3d 46d3 8cbc c8cb cd3d
000002b0: cbdd 0bbe 7f4e 8bbd 5fa5 dd3d bee8 c43d
000002c0: 18ec 63bd 1852 4cbe 52c0 1abe dd26 f7bd
000002d0: e932 03bc 307f 923d 5229 2bbe 5301 a0bd
000002e0: b935 cdbd e0d6 233e 63af e53d b7f8 bdbd
000002f0: 14ff 053c 69d5 21bd 9328 63bc 7008 1d3e
00000300: 0a92 ab3c 2cd7 92bb 045c cdbd 09ab ccbd
00000310: c06e 6ebd 56a8 39be 6495 ba3d 1c6e 353d
00000320: dd98 4d3c f0fd 873d 8d57 0bbe 874a 193e
00000330: d593 093e ada1 72bd 914f 63bc 8bad 053d
00000340: 7e68 59bd eeda 953d 4ccf 0d3e 26ce f7bd
00000350: a126 2e3e 7588 d4bd 8f3a 7a3d 5001 873d
00000360: 37e1 203e d1c7 d93c ceaa 8f3d b286 22be
00000370: 2f74 13be 8914 09be 6d35 bb3c f389 343d
00000380: 1c6c 783d 7c9a 25bd 0665 30be cdc1 ef3d
00000390: 7b33 91bd 74ea 31be 4961 82bc f072 7f3d
000003a0: a7a6 27be aa1c a23d 903b 11be c6e2 c0bc
000003b0: ca04 403a 3793 25bc 7e3f 643d b94c dcbd
000003c0: b425 e6bd e92f a63d be80 ec3c a5dd 783d
000003d0: f794 ccbd 8446 703c d3c7 e83d 9a0f 3f3c
000003e0: 1a2b 1e3e 5d9b 08be fb1a 483d a0b8 2abd
000003f0: e340 aa3b fa9b acbd 079c 6dbd d234 dabd

conv1.4.bias f4 [400]
0.08490688 0.13056168 -0.04491481 0.110130094 -0.034038153 0.068436824 0.08573742 -0.15269138
0.14238083 0.06638188 -0.19598223 -0.0007023035 0.16830482 0.13092303 -0.03198154 0.07989637
-0.15692815 -0.17863584 0.0051137176 -0.046961613 0.06878216 -0.12867871 0.044897813 -0.00031805754
0.08903414 0.050518554 -0.18305717 -0.19505629 0.12692927 -0.19534047 -0.14709699 -0.13667929
-0.17706962 -0.07371315 0.040896434 -0.18199286 0.14548814 0.1430802 -0.17083421 -0.09577103
0.056797117 -0.088448726 -0.05645118 0.075302064 0.01933442 0.13059543 -0.09056222 0.07652711
0.1280298 0.12920777 -0.08985929 -0.034182087 -0.17703094 -0.0852846 -0.086716376 0.09820537
-0.013256538 -0.16593167 0.020060055 0.11150477 -0.20347747 -0.06410187 0.060866073 0.01641293
-0.15417144 -0.092550874 -0.050221723 0.07237546 0.07369979 -0.04189263 -0.01754461 -0.15518136
0.056371216 0.060894452 -0.038721003 -0.147789 -0.031056631 -0.12198976 0.061250158 0.06993581
-0.15780018 -0.10469336 0.0022016848 0.15763244 -0.09413122 -0.17341065 0.058277898 -0.044677775
-0.17807946 -0.050499253 0.09528135 -0.031094603 -0.13595247 -0.13950028 0.16080232 -0.0368595
-0.14960676 -0.1805159 0.08793317 0.051701266 0.056860037 0.16729511 -0.05220004 0.05304487
0.052181028 0.12320697 0.03994839 -0.09592706 0.17187154 -0.0443199 -0.010208411 -0.021132309
-0.06420373 -0.0183722 0.10589015 0.104614206 0.058838252 -0.112049624 -0.017965568 -0.043137547
-0.016246995 -0.11573658 -0.03909216 -0.1423824 -0.10464404 -0.12641835 -0.025858337 0.09196908
-0.047576558 0.07733484 -0.08229712 0.009179032 0.1457136 0.046165556 -0.12357002 -0.015397631
0.05250217 0.0054688985 -0.012077718 0.11131836 -0.1501131 -0.08798021 -0.03741392 -0.059062466
-0.05521548 0.079284094 -0.18028404 -0.047529735 0.019589571 0.08068728 0.026595052 0.04595148
0.054785047 -0.057559837 -0.18401018 -0.18828349 0.0052559 -0.096117064 0.116126314 -0.159432
-0.08536279 -0.1243289 -0.04420038 0.13401139 -0.1517091 -0.17504443 0.06783833 0.095137835
0.027158136 0.15629393 0.12626775 0.11861636 -0.12869307 0.024408132 0.07164006 -0.08814551
0.071211405 0.17531636 0.13774681 -0.17599383 0.01714725 0.15167594 0.10188356 0.1212255
0.111223005 -0.074765265 -0.16850452 -0.137396 0.13703586 0.06938695 0.023167651 0.10706804
-0.016868504 -0.11184505 0.12235976 -0.2004527 -0.0020410034 0.07171436 -0.12924434 0.13959329
-0.13019668 -0.093352444 -0.14697981 0.03566596 0.024609886 -0.08397393 -0.066622555 0.06229211
0.10087591 -0.18310277 -0.15579215 -0.120893665 0.0035111567 -0.1483755 -0.18246955 0.01685172
-0.006773317 0.10834562 -0.18347408 0.08253909 0.014394805 -0.19055359 -0.08366616 0.07115247
-0.011169241 0.13894983 0.15272565 -0.03912531 0.010950754 -0.07994413 -0.017004125 -0.069206074
-0.13526696 -0.06207977 -0.1407187 -0.19525747 -0.051214367 0.046914283 0.17035915 0.109295465
0.10333841 0.011766176 -0.041423224 -0.08816188 0.13421868 0.12430527 0.048434988 -0.034802925
0.041198466 -0.07876392 -0.1795664 0.006616466 -0.08150555 -0.068910934 -0.132329 0.11743623
00000000: a9e3 ad3d f6b1 053e 98f8 37bd e38b e13d
00000010: 976b 0bbd 9b28 8c3d 1a97 af3d 215b 1cbe
00000020: 48cc 113e 39f3 873d 91af 48be ca1a 38ba
00000030: 1958 2c3e b010 063e 13ff 02bd b5a0 a33d
00000040: c6b1 20be 50ec 36be f990 a73b d25a 40bd
00000050: a9dd 8c3d 5ac4 03be c5e6 373d f6c0 a6b9
00000060: 8857 b63d 8bec 4e3d 5773 3bbe d6bc 47be
00000070: bff9 013e 5507 48be 98a0 16be a8f5 0bbe
00000080: bd51 35be ecf6 96bd 0583 273d 565c 3abe
00000090: d8fa 143e 9e83 123e 2aef 2ebe 9a23 c4bd
000000a0: 18a4 683d 9b24 b5bd 5a39 67bd f837 9a3d
000000b0: 3863 9e3c cfba 053e af78 b9bd 3fba 9c3d
000000c0: 3e1a 033e 0b4f 043e 2608 b8bd 8402 0cbd
000000d0: 9947 35be b1a9 aebd 5b98 b1bd e61f c93d
000000e0: f331 59bc fee9 29be fc54 a43c 9d5c e43d
000000f0: 665c 50be d747 83bd b44e 793d 6974 863c
00000100: 1edf 1dbe 508b bdbd 4bb5 4dbd 9639 943d
00000110: eaef 963d 9b97 2bbd b7b9 8fbc dde7 1ebe
00000120: 81e5 663d 766c 793d ea99 1ebd 0056 17be
00000130: 7a6a febc c4d5 f9bd 72e1 7a3d 823a 8f3d
00000140: 5f96 21be 7969 d6bd 244a 103b 666a 213e
00000150: dec7 c0bd 9092 31be ceb4 6e3d 0b00 37bd
00000160: 765a 36be 4ed8 4ebd de22 c33d 1cba febc
00000170: 2037 0bbe 29d9 0ebe 5da9 243e fdf9 16bd
00000180: 8432 19be 29d9 38be 4e16 b43d b5c4 533d
00000190: 12e6 683d 694f 2b3e b6cf 55bd 9445 593d
000001a0: c6bb 553d f053 fc3d eca0 233d 6875 c4bd
000001b0: 18ff 2f3e c988 35bd 2e41 27bc aa1d adbc
000001c0: 3f7d 83bd 4c81 96bc efdc d83d f93f d63d
000001d0: 6100 713d 467a e5bd 872c 93bc ffb0 30bd
000001e0: 6b18 85bc 4d07 edbd 1a1f 20bd b1cc 11be
000001f0: 9d4f d6bd d073 01be ddd4 d3bc 495a bc3d
00000200: a3df 42bd bb61 9e3d 648b a8bd a763 163c
00000210: f235 153e 1818 3d3d 4712 fdbd 5846 7cbc
00000220: 840c 573d 7234 b33b 9fe1 45bc e1fa e33d
00000230: 40b7 19be f82e b4bd 573f 19bd 7ceb 71bd
00000240: a129 62bd b35f a23d 619c 38be 8aae 42bd
00000250: 4f7a a03c 5f3f a53d dedd d93c 9e37 3c3d
00000260: 4966 603d ddc3 6bbd 2a6d 3cbe 63cd 40be
00000270: af39 ac3b 06d9 c4bd a2d3 ed3d 2442 23be
00000280: b0d2 aebd 26a0 febd 750b 35bd 483a 093e
00000290: a159 1bbe d93e 33be d3ee 8a3d a0d7 c23d
000002a0: bd7a de3c 840b 203e 554c 013e 22ed f23d
000002b0: 1ec8 03be 90f3 c73c 06b8 923d a285 b4bd
000002c0: 49d7 913d 2286 333e 800d 0d3e ba37 34be
000002d0: 6478 8c3c f050 1b3e 54a8 d03d 1345 f83d
000002e0: e3c8 e33d 881e 99bd 738c 2cbe 89b1 0cbe
000002f0: 2153 0c3e bf1a 8e3d 16ca bd3c 7d46 db3d
00000300: d12f 8abc 040f e5bd c197 fa3d 7943 4dbe
00000310: 5bc2 05bb fade 923d a158 04be 8bf1 0e3e
00000320: 4752 05be 912f bfbd e081 16be 7816 123d
00000330: ac9a c93c 86fa abbd 6871 88bd 0326 7f3d
00000340: 0798 ce3d 4b7f 3bbe fa87 1fbe 1997 f7bd
00000350: 6f1b 663b bfef 17be 4cd9 3abe 9e0c 8a3c
00000360: b4f2 ddbb 4fe4 dd3d a1e0 3bbe 410a a93d
00000370: 30d8 6b3c 7b20 43be 2a59 abbd 63b8 913d
00000380: 31ff 36bc dd48 0e3e 1d64 1c3e dc41 20bd
00000390: cb6a 333c bfb9 a3bd 3c4c 8bbc eabb 8dbd
000003a0: 6c83 0abe 5b47 7ebd 9018 10be 93f1 47be
000003b0: 28c6 51bd 3129 403d a172 2e3e 4dd6 df3d
000003c0: 17a3 d33d ebc6 403c 66ab 29bd 378e b4bd
000003d0: 9f70 093e c393 fe3d c463 463d 838d 0ebd
000003e0: b9bf 283d fa4e a1bd 41e0 37be f1ce d83b
000003f0: 62ec a6bd 2d21 8dbd 4181 07be 6882 f03d

conv1.5.weight f4 [400]
0.94835615 0.96551335 0.9845302 0.99151516 0.9720284 0.9775576 0.95679986 0.98167133
0.9673859 0.96233 0.96654105 0.97066295 0.984322 0.9712574 0.97372955 0.9661846
0.97559047 0.9577234 0.9659984 0.98905736 0.95730364 0.9693257 0.9693928 0.97985226
0.96763074 0.97665644 0.96841085 0.9732115 0.9607679 0.9793532 0.979763 1.0020859
0.95342827 0.9740588 0.97589904 0.94563234 0.9671499 0.96943486 0.96211094 0.97933084
0.97281826 0.9630733 0.96145004 0.9694384 0.95525014 0.9569253 0.9533332 0.9964511
0.974999 0.98459756 0.9616923 0.9583847 0.9901216 0.9713401 0.9751926 0.9784485
0.9892434 0.97203803 0.9922074 0.97160923 0.9910107 0.9711941 0.97068816 0.9696259
0.9987765 0.98757493 0.9780924 0.9791061 0.96682477 0.9692797 0.98885167 0.95406145
0.95275444 0.992264 0.96711797 0.96082425 0.97606915 0.97310776 0.97115535 0.9794777
0.9593672 0.9659818 0.96622074 0.98357594 0.97294503 0.9864755 0.9639373 0.9825169
0.97426873 0.9947035 0.9758989 0.97402894 0.97326285 0.9607149 0.97821844 0.969686
0.98162794 0.9816143 0.97783333 0.9718896 0.96604997 0.9776212 0.98616534 0.9674153
0.9819051 0.95867306 0.9692186 0.98389 0.9962645 0.9671004 0.9801006 0.95890415
0.9758959 0.95708805 0.97528857 0.98137355 0.96172845 0.9775617 0.97146046 0.97679025
0.9887427 0.939292 0.97736305 0.98464334 0.9972973 0.9688712 0.9674753 0.9664862
0.96474975 0.97238976 0.96362144 0.96437395 0.97719973 0.9854525 0.9822818 0.96571773
0.99735105 0.9904226 0.98937035 0.96675915 0.9739688 0.99745923 0.96358526 0.96937925
0.9573578 0.9734505 0.96333754 0.97020847 0.96142745 0.9953869 0.97925377 0.9608289
0.96961874 0.9797349 0.97953475 0.98998 0.9768925 0.9586715 0.9636632 0.9616051
0.97223926 0.9813668 0.98270017 0.95714355 0.982456 0.9970143 0.97499764 0.9846215
0.9632773 0.9892466 0.9703749 0.97514904 0.97074485 0.98677677 0.9695642 0.9768342
0.97873145 0.9889737 0.9604164 0.9796711 0.96640176 0.9794901 0.97852325 0.9701114
0.9869889 0.972506 0.97166705 0.9533093 0.97561693 0.9737234 0.98352474 0.9705267
0.98005134 0.9674164 0.9818407 0.973213 0.9708249 0.9698986 0.9506892 0.9658042
0.98406875 0.96421635 0.9747768 0.9734777 0.97131246 0.9792765 0.97122955 0.9651022
0.9785893 0.9796339 0.968075 0.9621858 0.97341424 0.9608578 0.96099156 0.9731137
0.981195 0.9971587 0.9769349 0.9496842 0.967256 0.9770641 0.97674227 0.95479715
0.9738648 0.97506505 0.9684658 0.96785134 0.98878 0.95430905 0.9856225 0.9613518
0.9694983 0.9703372 0.9775731 0.9546603 0.9495977 0.99674964 0.9867648 0.9618641
0.96468866 0.9593284 0.9704659 0.9618756 0.9772903 0.9777955 0.99609965 0.98422974
0.98932534 0.9908675 0.9854078 0.9744549 0.95233697 0.97707725 0.96416616 0.9823962
00000000: 78c7 723f e22b 773f 2c0a 7c3f f0d3 7d3f
00000010: dad6 783f 3741 7a3f d6f0 743f d04e 7b3f
00000020: 9aa6 773f 425b 763f 3c6f 773f 5e7d 783f
00000030: 87fc 7b3f 53a4 783f 5746 793f e057 773f
00000040: 4cc0 793f 5c2d 753f ac4b 773f dd32 7d3f
00000050: da11 753f bb25 783f 202a 783f 99d7 7a3f
00000060: a6b6 773f 2806 7a3f c6e9 773f 6424 793f
00000070: e3f4 753f e4b6 7a3f bfd1 7a3f 5a44 803f
00000080: e013 743f eb5b 793f 85d4 793f f614 723f
00000090: 2397 773f e22c 783f e74c 763f 6db5 7a3f
000000a0: 9e0a 793f f98b 763f 9721 763f 1d2d 783f
000000b0: 468b 743f 0ef9 743f a50d 743f 6b17 7f3f
000000c0: 8999 793f 960e 7c3f 7731 763f b358 753f
000000d0: 9c78 7d3f bfa9 783f 39a6 793f 9a7b 7a3f
000000e0: 0e3f 7d3f 7cd7 783f 4e01 7e3f 62bb 783f
000000f0: e1b2 7d3f 2da0 783f 057f 783f 6739 783f
00000100: d1af 7f3f b6d1 7c3f 4364 7a3f b3a6 7a3f
00000110: d481 773f b722 783f 6225 7d3f 5f3d 743f
00000120: b7e7 733f 0305 7e3f 0b95 773f 94f8 753f
00000130: abdf 793f 971d 793f a39d 783f 0dbf 7a3f
00000140: 1799 753f 954a 773f 3e5a 773f a2cb 7b3f
00000150: ed12 793f a989 7c3f 98c4 763f 3a86 7b3f
00000160: ad69 793f e3a4 7e3f 83d4 793f f659 793f
00000170: c127 793f 69f1 753f 866c 7a3f 573d 783f
00000180: f84b 7b3f 134b 7b3f 4953 7a3f c2cd 783f
00000190: 0d4f 773f 6245 7a3f 5575 7c3f 87a8 773f
000001a0: 225e 7b3f 996b 753f b61e 783f 37e0 7b3f
000001b0: 310b 7f3f e493 773f dfe7 7a3f be7a 753f
000001c0: 50d4 793f b903 753f 83ac 793f 4c3b 7b3f
000001d0: d633 763f 7c41 7a3f a2b1 783f ed0e 7a3f
000001e0: 3e1e 7d3f 7175 703f 7734 7a3f 9611 7c3f
000001f0: e04e 7f3f f107 783f 76ac 773f a46b 773f
00000200: d7f9 763f 89ee 783f e5af 763f 36e1 763f
00000210: c329 7a3f 9d46 7c3f d276 7b3f 4739 773f
00000220: 6652 7f3f 568c 7d3f 6047 7d3f 877d 773f
00000230: 0556 793f 7d59 7f3f 86ad 763f 3d29 783f
00000240: 6715 753f 0d34 793f 4a9d 763f 955f 783f
00000250: 1c20 763f add1 7e3f 60b0 7a3f e2f8 753f
00000260: ef38 783f e8cf 7a3f cac2 7a3f 546f 7d3f
00000270: a015 7a3f 7f6b 753f a2b2 763f c02b 763f
00000280: ace4 783f db3a 7b3f 3d92 7b3f 5c07 753f
00000290: 3d82 7b3f 543c 7f3f 7299 793f 2810 7c3f
000002a0: 5799 763f 443f 7d3f 7d6a 783f 5ea3 793f
000002b0: bc82 783f 679d 7c3f 5c35 783f ce11 7a3f
000002c0: 258e 7a3f 612d 7d3f d9dd 753f bacb 7a3f
000002d0: 1b66 773f ddbf 7a3f 8080 7a3f 3959 783f
000002e0: 4eab 7c3f 27f6 783f 2cbf 783f 140c 743f
000002f0: 08c2 793f f045 793f 47c8 7b3f 7074 783f
00000300: a5e4 7a3f 9aa8 773f ea59 7b3f 7d24 793f
00000310: fb87 783f 464b 783f 5e60 733f f23e 773f
00000320: eeeb 7b3f e2d6 763f f98a 793f d635 793f
00000330: efa7 783f ddb1 7a3f 80a2 783f f010 773f
00000340: d484 7a3f 4ac9 7a3f c3d3 773f cf51 763f
00000350: ad31 793f c7fa 753f 8b03 763f fb1d 793f
00000360: 982f 7b3f cb45 7f3f 6818 7a3f 811e 733f
00000370: 179e 773f df20 7a3f c80b 7a3f 966d 743f
00000380: 344f 793f dd9d 793f 60ed 773f 1bc5 773f
00000390: b020 7d3f 994d 743f c251 7c3f 271b 763f
000003a0: 0a31 783f 0568 783f 3b42 7a3f 9e64 743f
000003b0: d618 733f fc2a 7f3f 9e9c 7c3f ba3c 763f
000003c0: d6f5 763f 8c96 753f 7470 783f 7b3d 763f
000003d0: b22f 7a3f ce50 7a3f 6300 7f3f 7bf6 7b3f
000003e0: 6d44 7d3f 7ea9 7d3f b043 7c3f e075 793f
000003f0: 5bcc 733f bc21 7a3f 98d3 763f 517e 7b3f

conv1.5.bias f4 [400]
-0.037150633 -0.018499194 -0.002611835 -0.012069154 -0.004984853 -0.02540841 -0.010106053 -0.0117562795
-0.018839167 -0.020999063 -0.020384802 -0.0032459886 -0.007515912 -0.009381222 -0.007341091 -0.019022964
-0.021120066 -0.029964196 -0.015613768 -0.001936695 -0.01400762 -0.02801455 -0.013313547 -0.017197903
-0.0052882996 -0.003921279 -0.014840824 -0.02256597 -0.0259143 -0.022190921 -0.0018626676 -0.0061296006
-0.04873633 -0.0037683563 -0.013001428 -0.06140912 -0.006670828 -0.00968209 -0.03248045 -0.005067879
0.002760111 -0.02328955 -0.030160025 -0.016164318 -0.024523942 -0.026687713 -0.053727835 -0.009932546
-0.019359859 -0.009386785 -0.02896472 -0.022866663 -0.0022219587 -0.028762057 -0.010541499 0.008999251
-0.018594738 -0.026514981 -0.011757107 -0.017454688 -0.018299518 -0.014132438 -0.016974218 -0.019764103
-0.0034653286 0.0053484165 -0.012016253 -0.018582664 -0.040530547 -0.020991426 0.00032719318 -0.034893863
-0.03751333 -0.009914745 -0.014239991 -0.00770854 -0.016006725 -1.6248674e-05 -0.008561143 -0.009838744
-0.01556049 -0.018861227 -0.013574262 -0.010007496 -0.015402954 -0.014906555 -0.030704094 0.0016737629
-0.013074697 0.0019144684 -0.021469517 0.0007117455 -0.0043531447 -0.025342388 -0.013511354 -0.028265573
-0.00041746275 -0.0069678035 -0.0106778275 -0.029575083 -0.015116952 0.00396239 -0.009588376 0.00031787629
-0.012331951 -0.010888933 -0.016756745 -0.0134774605 -0.00015363484 -0.01624263 -0.011788817 -0.03279813
-0.022564515 -0.022877607 -0.0022647982 -0.003856589 -0.012502794 -0.011917153 -0.014528053 -0.022359025
-0.015813606 -0.05518611 -0.008736801 -0.0038331198 -0.0010789455 0.008077151 -0.022384664 -0.013441188
-0.017977413 -0.0117265945 -0.022434441 -0.021445692 -0.011920465 -0.0045222947 -0.007847367 -0.018661764
-0.0019843513 1.619493e-05 -0.0014785138 4.142699e-05 -0.0030047526 -0.0064069475 -0.031672098 -0.025348531
-0.035119943 -0.023685107 -0.026498336 -0.018793024 -0.017680278 -0.0034112146 -0.004610365 -0.020923479
-0.012245379 -0.005787635 -0.011725302 -0.010476744 -0.015097925 -0.021452041 -0.01814077 -0.026454622
-0.013994629 -0.005460315 -0.012138569 -0.028069397 -0.0152159035 0.0029479146 -0.008912165 -0.0017579616
0.011860938 0.00047704222 -0.015365261 -0.036095053 -0.0055994727 -0.006039922 -0.0066944505 -0.01403023
-0.0074759 -0.0033714902 -0.02207825 -0.008684929 -0.017330058 -0.010986404 -0.0027438388 -0.011756691
-0.0014475577 -0.033594757 -0.024869056 -0.053722296 -0.013649322 -0.0146879 -0.0049365894 -0.0024602856
-0.011998471 -0.018941363 -0.0020606886 -0.025608255 0.00032224008 -0.019428954 -0.03874876 -0.018038638
0.0167761 -0.0061860443 -0.029596655 -0.0010691453 0.020561876 -0.025073346 -0.009803851 -0.02486715
-0.00869438 -0.00062243134 -0.0059158015 -0.037668876 -0.017579317 -0.023705864 -0.03895048 -0.040694978
-0.0058236136 -0.000133448 -0.007018363 -0.053874023 -0.0021674111 -0.01154189 -0.0059511606 -0.040811844
-0.0045175087 -0.010858396 -0.0027529418 -0.03737809 -0.011376023 -0.02008852 -0.0007350705 -0.0066030496
-0.02149057 -0.0033639637 -0.021449171 -0.050214306 -0.04058717 -0.008495231 0.0006773013 -0.029184522
-0.016690329 -0.029941345 -0.0314763 -0.02226406 -0.01887389 -0.0131833255 -0.01092721 -0.003443099
-0.008256026 -0.016294137 -0.00088136405 -0.007880611 -0.04781431 -0.01126796 -0.021773696 -0.012575763
00000000: 432b 18bd 9f8b 97bc 522b 2bbb b3bd 45bc
00000010: fa57 a3bb 4c25 d0bc dc93 25bc 699d 40bc
00000020: 9954 9abc 3a06 acbc 07fe a6bc a7ba 54bb
00000030: 0a48 f6bb b2b3 19bc 898d f0bb 0cd6 9bbc
00000040: fd03 adbc 7977 f5bc e4d0 7fbc b3d8 fdba
00000050: 3780 65bc c57e e5bc 1021 5abc 9ee2 8cbc
00000060: 7949 adbb 137e 80bb ed26 73bc 45dc b8bc
00000070: 3a4a d4bc bcc9 b5bc c124 f4ba d1da c8bb
00000080: bf9f 47bd 87f6 76bb f103 55bc 2188 7bbd
00000090: f696 dabb a1a1 1ebc 380a 05bd 7310 a6bb
000000a0: fae2 343b bac9 bebc 2812 f7bc 086b 84bc
000000b0: 6fe6 c8bc 31a0 dabc b811 5cbd 1ebc 22bc
000000c0: 9198 9ebc 08cb 19bc 6c47 edbc de52 bbbc
000000d0: 489e 11bb 689e ebbc 40b6 2cbc 9871 133c
000000e0: fe53 98bc f235 d9bc e2a0 40bc 22fd 8ebc
000000f0: dfe8 95bc be8b 67bc 840d 8bbc 54e8 a1bc
00000100: 911a 63bb c541 af3b d1df 44bc ac3a 98bc
00000110: 5c03 26bd 36f6 abbc 208b ab39 deec 0ebd
00000120: 94a7 19bd 7471 22bc da4e 69bc ec97 fcbb
00000130: 8920 83bc c34d 88b7 0944 0cbc af32 21bc
00000140: 6df1 7ebc dc82 9abc 9566 5ebc 7bf6 23bc
00000150: ac5c 7cbc a03a 74bc 2787 fbbc 2a62 db3a
00000160: 4137 56bc e6ee fa3a d7e0 afbc 6f94 3a3a
00000170: d3a4 8ebb d79a cfbc ba5e 5dbc 348d e7bc
00000180: e7de dab9 2c52 e4bb 0ef2 2ebc 7247 f2bc
00000190: 18ad 77bc f0d6 813b 9018 1dbc a2a8 a639
000001a0: f40b 4abc 7f67 32bc 7145 89bc 91d0 5cbc
000001b0: 0a19 21b9 440f 85bc e225 41bc 5557 06bd
000001c0: 38d9 b8bc d269 bbbc 026d 14bb d4be 7cbb
000001d0: 85d8 4cbc 2a40 43bc 1207 6ebc 462a b7bc
000001e0: 898b 81bc d50a 62bd cd24 0fbc 1435 7bbb
000001f0: 676b 8dba 0756 043c 0b60 b7bc 6e38 5cbc
00000200: 5e45 93bc e720 40bc 6fc8 b7bc e0ae afbc
00000210: 0e4e 43bc c22f 94bb 3e92 00bc 8ee0 98bc
00000220: e40b 02bb 59da 8737 b1ca c1ba e4c1 2d38
00000230: 62eb 44bb 5ff1 d1bb 9aba 01bd b9a7 cfbc
00000240: eed9 0fbd 4507 c2bc 0a13 d9bc d4f3 99bc
00000250: 3bd6 90bc af8e 5fbb 8b12 97bb b767 abbc
00000260: d8a0 48bc 34a6 bdbb 7b1b 40bc a6a6 2bbc
00000270: 4a5d 77bc 31bc afbc f49b 94bc 5db7 d8bc
00000280: ba49 65bc 71ec b2bb d9e0 46bc cbf1 e5bc
00000290: 204c 79bc cd31 413b 5404 12bc 676b e6ba
000002a0: 6154 423c 861b fa39 93be 7bbc 68d8 13bd
000002b0: c87b b7bb 8aea c5bb 1f5d dbbb 0ddf 65bc
000002c0: 65f8 f4bb 38f4 5cbb 72dd b4bc 3c4b 0ebc
000002d0: c4f7 8dbc 5100 34bc fad1 33bb 239f 40bc
000002e0: fabb bdba a89a 09bd 31ba cbbc e90b 5cbd
000002f0: 68a1 5fbc 85a5 70bc 1dc3 a1bb be3c 21bb
00000300: 3c95 44bc eb2a 9bbc 9e0c 07bb 67c8 d1bc
00000310: 55f2 a839 7829 9fbc 05b7 1ebd c4c5 93bc
00000320: 086e 893c 4db4 cabb af74 f2bc 9022 8cba
00000330: 6171 a83c 9e66 cdbc 55a0 20bc 31b6 cbbc
00000340: df72 0ebc a92a 23ba 57d9 c1bb ae4a 1abd
00000350: 8002 90bc cd32 c2bc 8a8a 1fbd c7af 26bd
00000360: 03d4 bebb 2dee 0bb9 4cfa e5bb 02ab 5cbd
00000370: 200b 0ebb 321a 3dbc f401 c3bb 522a 27bd
00000380: 9c07 94bb 6ae7 31bc b36a 34bb c519 19bd
00000390: 8062 3abc ae90 a4bc bfb1 40ba 655e d8bb
000003a0: fe0c b0bc f275 5cbb 2cb6 afbc 84ad 4dbd
000003b0: bb3e 26bd 952f 0bbc ec8c 313a 6114 efbc
000003c0: 28ba 88bc 8d47 f5bc 4bed 00bd 1e63 b6bc
000003d0: 6b9d 9abc e0fe 57bc 0a08 33bc 9ea5 61bb
000003e0: 4844 07bc 487b 85bc 570b 67ba ae1d 01bc
000003f0: f0d8 43bd 409d 38bc c05e b2bc 930a 4ebc

conv1.5.running_mean f4 [400]
-0.050472 -0.032222945 0.11307649 0.16292624 -0.08547413 0.13237031 0.328937 -0.19672708
0.031027371 -0.3555001 -0.54157835 0.3408774 0.3596252 -0.013012997 0.16123924 -0.22172318
-0.26583564 -0.6567813 0.2744048 0.2341677 0.15149586 -0.16501182 -0.33881724 0.11232883
0.1287209 0.048672553 -0.20946673 -0.40825528 0.24214622 -0.043938316 0.17539446 -0.055011988
-0.11406617 -0.011049955 -0.20677416 -0.5526911 0.21086538 0.004669221 -0.20368156 0.09031352
0.26138738 0.0066101416 -0.11082736 0.17748602 0.10806991 0.45535848 -0.12678638 0.19120608
0.5007328 -0.046424657 0.2629812 0.36026213 -0.33935532 -0.018237328 -0.187503 0.051476624
0.28735757 -0.035336483 0.21960643 0.112815656 -0.30247885 -0.3930777 0.12740532 -0.3496187
-0.2266802 -0.27489102 -0.31988022 0.35016742 0.3243407 0.30203995 0.23850398 -0.25792855
-0.10528602 0.106137045 -0.018453991 0.047848158 0.18448134 0.15007322 0.1117222 0.13495891
0.1273937 0.018176721 -0.04075272 -0.32459676 -0.26893353 -0.032139692 0.03185639 0.45430008
-0.3992929 0.04278128 0.180932 0.36475548 -0.09085412 -0.30726227 0.2016555 -0.051109537
0.09690211 -0.055855524 -0.32019618 -0.12668493 -0.06052425 0.44912985 -0.4574414 0.12813863
0.2298679 0.56708753 0.19775191 -0.03390609 -0.14762998 0.32788572 -0.28817722 0.03069303
0.15157765 -0.06311511 -0.04543644 0.089494005 0.13838507 -0.030385 -0.16642056 -0.008591388
-0.39363885 -0.4114156 -0.22931136 -0.33043036 -0.26613718 0.10292064 -0.4041195 0.16172713
0.0122087095 -0.040403012 0.06060643 -0.28512543 -0.089206815 -0.1120319 -0.2218276 0.07746093
-0.06861036 -0.033911668 0.13493234 0.22039759 0.043608874 -0.11226319 0.27922928 0.17279682
-0.13480766 0.30908355 -0.051729545 -0.16605307 0.06934788 -0.047945242 0.19309215 -0.3052415
0.32246152 -0.558463 -0.25332668 0.04407017 -0.18909487 -0.25859264 -0.17094797 -0.3803007
-0.21304576 -0.0984987 -0.07053036 0.10116132 -0.041195963 0.019590931 0.3242788 0.3419295
0.22573984 0.13617659 -0.15044534 0.21681708 0.16628055 -0.06767169 0.12523952 -0.09718817
0.009108575 -0.24297509 0.2181686 0.14941667 0.31702942 -0.21373302 0.29826757 0.13416886
0.22619323 0.2677171 -0.05039023 -0.38720483 -0.05479427 0.011815127 0.098018125 0.25366658
-0.37990245 -0.32375896 0.27560747 -0.2259731 0.2279997 -0.014633517 -0.28859705 0.015776398
0.087984525 0.09392065 -0.1500261 0.32281187 0.27435702 0.27989742 0.013586616 -0.13288401
-0.16804053 -0.39345452 -0.09255758 -0.039666068 -0.22515017 -0.08277614 -0.44232455 0.17328344
0.05834731 0.38761225 -0.35713112 0.076516286 0.11209453 -0.41832834 -0.0680298 0.0005606142
0.08440892 0.24725981 0.24223782 0.17638484 -0.09372871 -0.0020879172 0.09275691 -0.1373936
-0.033696633 -0.03472654 -0.24587174 0.15202437 0.45767373 -0.007434764 0.21451275 -0.04888334
0.32055578 -0.11592074 0.1901923 -0.36251813 0.4319484 -0.01596127 0.06392415 0.12158158
0.15259029 -0.17173304 -0.12677664 0.43054655 -0.38694727 -0.2518385 -0.08329433 0.2305365
00000000: babb 4ebd 35fc 03bd a694 e73d 23d6 263e
00000010: 100d afbd 158c 073e 6e6a a83e d372 49be
00000020: 1d2d fe3c 1c04 b6be e1a4 0abf 7c87 ae3e
00000030: cb20 b83e 7734 55bc e61b 253e 670b 63be
00000040: 9c1b 88be d222 28bf c97e 8c3e a8c9 6f3e
00000050: bb21 1b3e dcf8 28be 7479 adbe a80c e63d
00000060: 69cf 033e df5c 473d 727e 56be d606 d1be
00000070: 2ef5 773e aaf8 33bd 9b9a 333e 4054 61bd
00000080: 869b e9bd df0a 35bc 9bbc 53be 2a7d 0dbf
00000090: 18ed 573e 4400 993b e691 50be 4bf6 b83d
000000a0: 91d4 853e e399 d83b 74f9 e2bd e5be 353e
000000b0: c253 dd3d bf24 e93e 4ad4 01be 87cb 433e
000000c0: 0630 003f c827 3ebd 79a5 863e 4774 b83e
000000d0: fbbf adbe 7366 95bc c900 40be 27d9 523d
000000e0: 8820 933e fdbc 10bd 82e0 603e e50b e73d
000000f0: 82de 9abe 7b41 c9be 8a76 023e 3901 b3be
00000100: db1e 68be 84be 8cbe 57c7 a3be 2549 b33e
00000110: fc0f a63e fba4 9a3e 633a 743e 360f 84be
00000120: 32a0 d7bd 615e d93d d32c 97bc 6efc 433d
00000130: ade8 3c3e cbac 193e 9cce e43d ab32 0a3e
00000140: 7e73 023e 59e7 943c 53ec 26bd 8c31 a6be
00000150: a8b1 89be e9a4 03bd d97b 023d 059a e83e
00000160: 1e70 ccbe 6c3b 2f3d 3d46 393e 3bc1 ba3e
00000170: ba11 babd 7b51 9dbe c87e 4e3e 3c58 51bd
00000180: 9d74 c63d c3c8 64bd c1f0 a3be b2b9 01be
00000190: 47e8 77bd 59f4 e53e c235 eabe c636 033e
000001a0: 7e62 6b3e a62c 113f 7a7f 4a3e 1de1 0abd
000001b0: 502c 17be a3e0 a73e f78b 93be f36f fb3c
000001c0: 2c37 1b3e 7f42 81bd 8f1b 3abd a248 b73d
000001d0: d1b4 0d3e f7e9 f8bc 276a 2abe e5c2 0cbc
000001e0: 088b c9be 11a5 d2be 99d0 6abe 2b2e a9be
000001f0: 2243 88be 0ec8 d23d c0e8 cebe cc9b 253e
00000200: 0a07 483c a17d 25bd 733e 783d f6fb 91be
00000210: 10b2 b6bd fb70 e5bd c626 63be d6a3 9e3d
00000220: 9783 8cbd f6e6 0abd b42b 0a3e e8af 613e
00000230: 389f 323d 3eea e5bd 24f7 8e3e a6f1 303e
00000240: 050b 0abe 3340 9e3e 5ce2 53bd d109 2abe
00000250: 4306 8e3d 3b62 44bd f3b9 453e 9d48 9cbe
00000260: ad19 a53e 6ef7 0ebf 09b4 81be ec82 343d
00000270: 16a2 41be 4166 84be fc0c 2fbe c6b6 c2be
00000280: ab28 5abe b0b9 c9bd 3972 90bd ab2d cf3d
00000290: 19bd 28bd 297d a03c df07 a63e 6211 af3e
000002a0: 5828 673e e071 0b3e 580e 1abe 4c05 5e3e
000002b0: 7345 2a3e 7497 8abd ca3e 003e 970a c7bd
000002c0: 223c 153c 76ce 78be 9767 5f3e af00 193e
000002d0: ae51 a23e d4dc 5abe 87b6 983e 9063 093e
000002e0: 339f 673e 3712 893e fc65 4ebd b63f c6be
000002f0: f56f 60bd 3c94 413c babd c83d 96e0 813e
00000300: 9382 c2be bcc3 a5be 6c1c 8d3e 7e65 67be
00000310: c178 693e 6bc1 6fbc fec2 93be 813d 813c
00000320: 3b31 b43d 7859 c03d 71a0 19be 9947 a53e
00000330: 8678 8c3e b74e 8f3e 669a 5e3c bf12 08be
00000340: d112 2cbe df72 c9be d48e bdbd e378 22bd
00000350: c48d 66be 8986 a9bd 5d78 e2be 3771 313e
00000360: 97fd 6e3d 1d75 c63e e4d9 b6be 92b4 9c3d
00000370: d191 e53d 222f d6be 3553 8bbd 2ff6 123a
00000380: 95de ac3d ad31 7d3e 310d 783e 3a9e 343e
00000390: d7f4 bfbd 70d5 08bb 56f7 bd3d e8b0 0cbe
000003a0: 7b05 0abd 6b3d 0ebd cdc5 7bbe 47ac 1b3e
000003b0: 3654 ea3e 529f f3bb 3ba9 5b3e e639 48bd
000003c0: e31f a43e da67 edbd c5c1 423e fa9b b9be
000003d0: 5728 dd3e 36c1 82bc aaea 823d c3ff f83d
000003e0: a140 1c3e c9da 2fbe bcd1 01be 9970 dc3e
000003f0: f41d c6be faf0 80be 3896 aabd c311 6c3e

conv1.5.running_var f4 [400]
0.26636046 0.24172717 0.22918682 0.18695612 0.16253696 0.25945187 0.19775093 0.14527567
0.17838079 0.32573277 0.6603264 0.444393 0.22413345 0.27422708 0.32070476 0.4130253
0.13440861 0.77155644 0.2595684 0.13709088 0.20450729 0.25995347 0.5349107 0.120331004
0.20260362 0.16973585 0.16639787 0.25524214 0.28736752 0.16541906 0.31505358 0.11413999
0.13700743 0.29489902 0.18154149 0.37635335 0.1291652 0.26571882 0.15937136 0.26632628
0.20746678 0.29621154 0.19735149 0.20211652 0.3785914 0.26728404 0.22665945 0.12692747
0.19377148 0.16383643 0.19880868 0.3443649 0.14861321 0.21130459 0.15317069 0.27559894
0.24949363 0.24489892 0.2511525 0.22497474 0.22155266 0.51204616 0.18755536 0.40067926
0.15498058 0.25524446 0.34957772 0.49908662 0.29482618 0.5354657 0.29797468 0.35684606
0.26783508 0.13798673 0.13131745 0.28506842 0.15811329 0.1509909 0.28538695 0.21143822
0.23701175 0.194023 0.12319304 0.5270432 0.20816208 0.14076039 0.21985237 0.4113453
0.36026493 0.11781668 0.18723 0.17112848 0.23064795 0.39907533 0.16745006 0.1300491
0.29947698 0.14719453 0.61269766 0.37847003 0.19541028 0.3832819 0.4713105 0.28991982
0.16550706 0.21615314 0.2284159 0.20771423 0.28984484 0.33864188 0.7064332 0.21535505
0.34334576 0.20320366 0.27805936 0.24350522 0.18440099 0.2998242 0.38035578 0.15888712
0.21543875 0.515851 0.2141473 0.40883383 0.15069443 0.2962384 0.22192328 0.19257402
0.20051548 0.26243782 0.16451488 0.39830285 0.15673727 0.15262677 0.16052975 0.13783514
0.11931442 0.2491375 0.1439469 0.20642269 0.54609627 0.1744728 0.25479457 0.21152401
0.17588376 0.18268403 0.21194813 0.18535231 0.28640383 0.2078587 0.22716138 0.802757
0.17669368 0.4097853 0.15898755 0.27244756 0.22753109 0.35698566 0.3896969 0.21955825
0.25940323 0.16215256 0.22460955 0.19747463 0.19197047 0.24314898 0.18306625 0.16635579
0.37514195 0.1305121 0.2001307 0.26116067 0.6104632 0.26282376 0.27482393 0.109964736
0.3954836 0.31707236 0.1459977 0.15433112 0.503888 0.40750444 0.30379596 0.23046748
0.12364743 0.21828903 0.13811351 0.17354272 0.17950705 0.10073046 0.2572199 0.23478465
0.3883194 0.33588344 0.14496936 0.29942214 0.27922162 0.485365 0.2539389 0.2581016
0.18782647 0.3559899 0.24416348 0.15192614 0.24614093 0.18437855 0.1752888 0.32431763
0.2493391 0.23888598 0.14283419 0.27223867 0.22043338 0.39819303 0.24432594 0.20665918
0.1446307 0.30453214 0.19353415 0.2998923 0.2060893 0.2391587 0.25848785 0.2502609
0.2630028 0.15369068 0.14334373 0.28373685 0.24230082 0.20236737 0.34703153 0.19044648
0.1854864 0.25292927 0.17461272 0.18879241 0.47918734 0.18130499 0.23227331 0.28186724
0.17027731 0.24442111 0.17749944 0.22958486 0.27154097 0.15567061 0.18097441 0.1579684
0.16656259 0.18397047 0.1808077 0.34117195 0.34304437 0.17054215 0.22567342 0.13655797
00000000: 6660 883e 5487 773e f3af 6a3e 6d71 3f3e
00000010: 1770 263e e0d6 843e 387f 4a3e 25c3 143e
00000020: 74a9 363e 72c6 a63e 270b 293f 7b87 e33e
00000030: 3d83 653e 7e67 8c3e 6a33 a43e 0d78 d33e
00000040: 69a2 093e b984 453f 26e6 843e 8d61 0c3e
00000050: 5c6a 513e 9f18 853e e8ef 083f 1a70 f63d
00000060: 5377 4f3e 3ccf 2d3e 3464 2a3e 19af 823e
00000070: d621 933e 9d63 293e b44e a13e 3ac2 e93d
00000080: ad4b 0c3e 01fd 963e 03e6 393e 63b1 c03e
00000090: e243 043e 4c0c 883e 3f32 233e eb5b 883e
000000a0: 2c72 543e 0aa9 973e 8216 4a3e a2f7 4e3e
000000b0: bbd6 c13e 74d9 883e 6a19 683e 46f9 013e
000000c0: 086c 463e bdc4 273e 8194 4b3e 9950 b03e
000000d0: 102e 183e 3b60 583e c7d8 1c3e 4e1b 8d3e
000000e0: 427b 7f3e c8c6 7a3e 0f97 803e c75f 663e
000000f0: b3de 623e 7515 033f 830e 403e d525 cd3e
00000100: 3bb3 1e3e 67af 823e dafb b23e 4888 ff3e
00000110: 75f3 963e 4814 093f 2390 983e 87b4 b63e
00000120: ae21 893e 654c 0d3e 1578 063e 7df4 913e
00000130: 73e8 213e 5c9d 1a3e 3d1e 923e 4383 583e
00000140: 35b3 723e f7ad 463e a24c fc3d 4eec 063f
00000150: 7128 553e 7e23 103e fb20 613e da9b d23e
00000160: a574 b83e df49 f13d 39b9 3f3e 4e3c 2f3e
00000170: fa2e 6c3e 9a53 cc3e 0778 2b3e 972b 053e
00000180: 0c55 993e 2aba 163e c1d9 1c3f d3c6 c13e
00000190: a219 483e 863d c43e 9c4f f13e 5f70 943e
000001a0: af7a 293e 4057 5d3e dce5 693e 0ab3 543e
000001b0: 8b66 943e 7862 ad3e ced8 343f 0986 5c3e
000001c0: 04cb af3e 9f14 503e cc5d 8e3e 6f59 793e
000001d0: 9dd3 3c3e 8f82 993e febd c23e 4eb3 223e
000001e0: fa9b 5c3e d00e 043f 6e49 5b3e ab52 d13e
000001f0: a44f 1a3e 8fac 973e db3f 633e 2032 453e
00000200: ee53 4d3e 405e 863e 9776 283e 5aee cb3e
00000210: bc7f 203e 314a 1c3e e961 243e a824 0d3e
00000220: 1e5b f43d e71d 7f3e d166 133e 7860 533e
00000230: f7cc 0b3f ffa8 323e 6f74 823e c099 583e
00000240: df1a 343e 8611 3b3e ee08 593e ffcc 3d3e
00000250: 86a3 923e e9d8 543e fe9c 683e 7c81 4d3f
00000260: 30ef 343e 61cf d13e a2cd 223e 3f7e 8b3e
00000270: e9fd 683e d3c6 b63e 5a86 c73e e1d3 603e
00000280: 80d0 843e 520b 263e 0c00 663e ca36 4a3e
00000290: e893 443e 0cfc 783e b875 3b3e 2c59 2a3e
000002a0: 9b12 c03e f7a4 053e 10ef 4c3e dab6 853e
000002b0: 5147 1c3f d690 863e b9b5 8c3e 3135 e13d
000002c0: d47c ca3e 4f57 a23e 6c80 153e fa08 1e3e
000002d0: cefe 003f 6ca4 d03e 258b 9b3e abff 6b3e
000002e0: dd3a fd3d 2987 5f3e a16d 0d3e 2fb5 313e
000002f0: b2d0 373e c54b ce3d 54b2 833e 636b 703e
00000300: cdd1 c63e eaf8 ab3e d972 143e dc4d 993e
00000310: 23f6 8e3e c381 f83e 4804 823e e525 843e
00000320: 9555 403e 4f44 b63e fe05 7a3e 8792 1b3e
00000330: 5e0c 7c3e bbcd 3c3e e87e 333e f60c a63e
00000340: c052 7f3e 879e 743e 2043 123e de62 8b3e
00000350: 4ab9 613e f5df cb3e 9430 7a3e 779e 533e
00000360: 121a 143e a3eb 9b3e d12d 463e 7c8b 993e
00000370: 1309 533e 05e6 743e 8558 843e 3222 803e
00000380: 4ea8 863e 1761 1d3e b3c8 123e f545 913e
00000390: b51d 783e 6439 4f3e 1eae b13e 6704 433e
000003a0: 26f0 3d3e f27f 813e adcd 323e cc52 413e
000003b0: 0b58 f53e 04a8 393e 0ed9 6d3e e750 903e
000003c0: 2d5d 2e3e 8749 7a3e 6ac2 353e 4b18 6b3e
000003d0: 6b07 8b3e 1e68 1f3e 5b51 393e 78c2 213e
000003e0: 628f 2a3e c162 3c3e a725 393e 17ae ae3e
000003f0: 83a3 af3e 9aa2 2e3e ef16 673e dad5 0b3e

conv2.0.weight f4 [10, 1, 6]
-0.39508665 0.16848458 -0.09612429 -0.027848076 0.08877907 -0.20284331 -0.027580714 0.3249211
-0.06365157 -0.41030902 -0.3704903 0.29271412 0.044451833 0.19842821 0.37905556 0.0069659413
-0.36322236 0.2222177 0.36511466 0.09565891 0.35492685 -0.30196455 -0.446551 -0.09538358
-0.41605 0.16795509 -0.20414977 -0.45588538 -0.2937057 0.399389 -0.48840195 -0.34556794
0.067226745 -0.1714642 0.21455927 0.20730844 -0.027121263 -0.37109688 0.10699219 0.40142992
0.05418718 -0.20747064 -0.27511713 0.24228667 0.044369314 -0.24305516 0.3566389 -0.29795334
-0.2622311 -0.02962561 -0.4460415 -0.21471271 -0.1576295 0.43052095 0.07610014 -0.2177433
0.22525361 0.1917169 0.22008173 0.06930136
00000000: cc48 cabe 3987 2c3e d0dc c4bd a621 e4bc
00000010: cdd1 b53d 28b6 4fbe f3f0 e1bc 0f5c a63e
00000020: c15b 82bd 0614 d2be e8b0 bdbe a0de 953e
00000030: 2013 363d c430 4b3e 9213 c23e 8d42 e43b
00000040: 48f8 b9be 098d 633e 4ff0 ba3e d2e8 c33d
00000050: f9b8 b53e 199b 9abe 55a2 e4be 7758 c3bd
00000060: 8104 d5be 6bfc 2b3e a30c 51be cf69 e9be
00000070: 9860 96be b77c cc3e d20f fabe 48ee b0be
00000080: 2dae 893d 5094 2fbe 6db5 5b3e aa48 543e
00000090: 692d debc 6900 bebe b91e db3d 3988 cd3e
000000a0: 60f3 5d3d 2f73 54be 27dc 8cbe ff19 783e
000000b0: 99bc 353d 74e3 78be 6099 b63e 578d 98be
000000c0: 2843 86be 68b1 f2bc 8d5f e4be a6dd 5bbe
000000d0: a169 21be 3e6d dc3e 64da 9b3d 1af8 5ebe
000000e0: e2a8 663e 6f51 443e 1b5d 613e dfed 8d3d

conv2.0.bias f4 [10]
-0.13140222 -0.10661524 -0.29371426 -0.26509026 0.15563358 0.028245067 0.15213844 0.3492436
-0.38282615 -0.14326744
00000000: 4e8e 06be 1759 dabd b761 96be e9b9 87be
00000010: 695e 1f3e 3362 e73c 2eca 1b3e 0fd0 b23e
00000020: ca01 c4be b3b4 12be

conv2.1.weight f4 [10]
1.0816379 1.1899512 0.98963076 1.0833467 1.1435671 1.0854053 1.0527922 1.1556008
1.0836765 1.0132084
00000000: 1c73 8a3f 5250 983f 7158 7d3f 1bab 8a3f
00000010: 6860 923f 90ee 8a3f e5c1 863f baea 933f
00000020: e9b5 8a3f d0b0 813f

conv2.1.bias f4 [10]
0.021652069 0.030581525 -0.0002971086 0.031923395 0.0040415707 -0.0034414197 0.016903458 0.02158801
-0.026603157 0.017225547
00000000: ae5f b13c 1b86 fa3c 3ec5 9bb9 1bc2 023d
00000010: 276f 843b 7189 61bb 1f79 8a3c 57d9 b03c
00000020: ddee d9bc 971c 8d3c

conv2.1.running_mean f4 [10]
-1.7800134 -0.788202 1.6025974 -0.20790944 -2.4748306 -1.8586181 0.2639697 -0.27506897
-2.9638348 2.0700521
00000000: 7bd7 e3bf 9bc7 49bf e921 cd3f 36e6 54be
00000010: a063 1ec0 33e7 edbf 0927 873e d7d5 8cbe
00000020: 78af 3dc0 bc7b 0440

conv2.1.running_var f4 [10]
2.4558566 2.0797632 4.1236587 1.8264006 7.246635 4.0370607 1.4051925 1.1924306
6.4082355 4.304844
00000000: c12c 1d40 d71a 0540 03f5 8340 7fc7 e93f
00000010: 6fe4 e740 9a2f 8140 59dd b33f 91a1 983f
00000020: 4410 cd40 48c1 8940

conv2.4.weight f4 [400, 10, 6]
-0.11977632 -0.061570834 0.11563372 0.008503035 -0.098895214 0.04440569 0.10734818 -0.01759672
-0.13280493 0.0014977687 0.04346007 0.008793065 0.049669858 -0.12175329 0.06408095 0.08937197
-0.080831625 0.04799866 0.06665427 0.15603901 -0.08951056 0.056083813 0.009032692 -0.0173188
0.11260962 -0.058128715 -0.10787639 -0.043939497 0.095405154 -0.010054307 0.075131185 -0.113881975
0.02307822 0.0041190414 0.029488582 0.07572233 0.10272756 -0.0888042 0.08358838 -0.075796
-0.15220253 0.090681754 -0.18441536 0.025133608 0.07936161 0.09255611 0.08299521 0.0014316144
-0.03917982 -0.06289821 0.16014427 -0.09036934 0.08227926 -0.07889201 -0.08198217 0.088506855
0.09116084 -0.12319611 -0.13310742 -0.07671651 0.08500729 -0.11650839 -0.08554317 -0.0703432
0.019684976 0.07102291 0.0837232 0.030755697 0.08167683 0.0012970974 -0.17503907 -0.05244245
-0.09552505 -0.09644831 -0.070335805 -0.03688738 -0.012994171 -0.051126614 -0.18606925 -0.00044023475
-0.051774785 0.03380418 -0.07229257 -0.096052974 0.02822348 0.10101281 0.095176876 -0.04418336
-0.02289735 -0.09195771 0.124160744 -0.014296455 -0.06012817 0.07732366 0.09814814 -0.08528407
0.04805899 0.066612214 0.045128755 -0.16814832 0.061599918 -0.024713734 0.024175184 0.09424625
-0.015038517 0.06269086 0.007607902 -0.03809369 -0.10186159 0.06496642 -0.09762333 0.032245036
-0.09427795 0.11289089 0.077805206 0.069892235 -0.0065993904 0.06456597 -0.1328916 0.08494065
0.11236389 -0.009729302 0.11541432 -0.065172836 0.11367788 -0.0056558033 0.039023105 0.12144992
0.10993857 -0.121601686 -0.036363572 0.023047995 -0.030427283 -0.10971812 0.13336864 0.05950931
0.036031798 -0.10592952 0.08341267 -0.08288936 0.06292636 0.10038412 0.07477274 -0.02269124
0.11143362 -0.03609673 -0.06622966 -0.04195691 0.022991667 -0.087115176 0.012898896 -0.05452809
0.122428164 0.04403371 -0.010092618 -0.10887279 -0.01054831 -0.08914104 0.08329247 0.045615774
0.10556843 0.053769376 0.117796205 -0.07930275 -0.07400559 0.06311962 -0.09181552 -0.08267231
0.090697475 -0.09202463 0.08062484 0.104936965 0.09680528 0.08486354 0.041073374 0.041687332
-0.06734814 0.039302334 -0.03842758 -0.04852281 -0.18199855 0.07591393 -0.019927612 0.1413536
0.055778526 0.057487052 -0.06261453 -0.020903796 0.08737915 -0.10054576 -0.08654066 0.14343557
0.06456883 -0.0015638709 -0.13605149 0.12400755 0.0227516 -0.03764549 0.015939916 -0.07143596
-0.079905406 -0.0001372486 0.0052624037 0.048094768 -0.009661722 -0.12045392 -0.002107428 -0.0543729
-0.042343352 0.0502895 -0.04181124 -0.06152107 -0.04572563 0.017175928 -0.025258705 -0.099682234
-0.14271274 -0.048540935 0.091629155 -0.11730278 0.037839677 -0.13230965 0.027374536 -0.047193374
-0.030543167 -0.11278133 0.004530437 -0.016823981 -0.049118396 -0.0017103425 -0.09889735 0.11100958
0.03326097 -0.028510593 -0.03813319 0.09013977 0.068481706 -0.08339436 -0.018033762 -0.124221265
-0.029329393 0.019858973 -0.054785416 -0.12019153 0.015307482 -0.11308854 -0.13498704 -0.028340746
0.01670781 -0.114746876 -0.08337637 -0.13934076 0.002182526 0.097595856 0.009860531 0.058417328
00000000: 4a4d f5bd b331 7cbd 5fd1 ec3d 5050 0b3c
00000010: 9389 cabd bee2 353d 5dd9 db3d ff26 90bc
00000020: 04fe 07be c750 c43a 3003 323d ca10 103c
00000030: 9f72 4b3d ca59 f9bd e03c 833d a708 b73d
00000040: 0d8b a5bd 3e9a 443d 0982 883d b1c8 1f3e
00000050: 5051 b7bd 24b8 653d dbfd 133c 28e0 8dbc
00000060: df9f e63d 6018 6ebd 4cee dcbd e7f9 33bd
00000070: c763 c33d d2ba 24bc 61de 993d f43a e9bd
00000080: 890e bd3c 06f9 863b 0a92 f13c 4f14 9b3d
00000090: d462 d23d fade b5bd 6230 ab3d ef3a 9bbd
000000a0: fbda 1bbe 5bb7 b93d 61d7 3cbe ffe4 cd3c
000000b0: 5788 a23d 0f8e bd3d 65f9 a93d 02a5 bb3a
000000c0: 057b 20bd c7d0 80bd dcfc 233e 8f13 b9bd
000000d0: 0782 a83d 2292 a1bd 45e6 a7bd 1543 b53d
000000e0: 89b2 ba3d 3e4e fcbd 504d 08be 8c1d 9dbd
000000f0: 4d18 ae3d f39b eebd 4231 afbd 1810 90bd
00000100: 6342 a13c 7674 913d 1277 ab3d 5ff3 fb3c
00000110: 2f46 a73d 5e03 aa3a 713d 33be e5cd 56bd
00000120: a3a2 c3bd b186 c5bd 380c 90bd 3917 17bd
00000130: 81e5 54bc 246a 51bd f088 3ebe 4fcf e6b9
00000140: cc11 54bd 4076 0a3d 200e 94bd 6cb7 c4bd
00000150: ed34 e73c cedf ce3d 18ec c23d 9cf9 34bd
00000160: 3993 bbbc 5354 bcbd fd47 fe3d ae3b 6abc
00000170: f548 76bd de5b 9e3d e401 c93d 6aa9 aebd
00000180: 81d9 443d fc6b 883d eed8 383d 132f 2cbe
00000190: 3250 7c3d 7574 cabc 090b c63c 2e04 c13d
000001a0: 1d64 76bc 1164 803d b54b f93b 2108 1cbd
000001b0: cf9c d0bd 1d0d 853d beee c7bd 5f13 043d
000001c0: cc14 c1bd 5733 e73d 5658 9f3d a923 8f3d
000001d0: b33f d8bb 2a3b 843d bc14 08be 5df5 ad3d
000001e0: 0a1f e63d a667 1fbc 585e ec3d 5679 85bd
000001f0: f3cf e83d 5154 b9bb b1d6 1f3d bcba f83d
00000200: 7927 e13d 4e0a f9bd f8f1 14bd 26cf bc3c
00000210: a342 f9bc e5b3 e0bd ca91 083e 09c0 733d
00000220: 1496 133d 94f1 d8bd 43d4 aa3d e6c1 a9bd
00000230: 89df 803d 3196 cd3d 7322 993d fbe2 b9bc
00000240: 4f37 e43d 2ada 13bd 6aa3 87bd 02db 2bbd
00000250: 0559 bc3c 7169 b2bd e455 533c d958 5fbd
00000260: 9ebb fa3d b15c 343d 825b 25bc b3f8 debd
00000270: d2d2 2cbc 948f b6bd 3e95 aa3d 9bd7 3a3d
00000280: 4334 d83d 473d 5c3d 233f f13d 7b69 a2bd
00000290: 3e90 97bd dc44 813d c609 bcbd 1a50 a9bd
000002a0: 99bf b93d 6977 bcbd a31e a53d 31e9 d63d
000002b0: d941 c63d f0cc ad3d 8e3c 283d 56c0 2a3d
000002c0: d2ed 89bd 7cfb 203d 3d66 1dbd dbbf 46bd
000002d0: d45d 3abe c378 9b3d 3b3f a3bc 00bf 103e
000002e0: 0678 643d 8b77 6b3d 0c3c 80bd 703e abbc
000002f0: d7f3 b23d efea cdbd 3b3c b1bd c6e0 123e
00000300: aa3c 843d cdfa ccba 1551 0bbe acf7 fd3d
00000310: 9061 ba3c 2832 1abd 6d94 823c 044d 92bd
00000320: 72a5 a3bd 64ea 0fb9 3e70 ac3b 05ff 443d
00000330: 334c 1ebc 8bb0 f6bd c61c 0abb 1eb6 5ebd
00000340: 3970 2dbd 5dfc 4d3d 4342 2bbd 84fd 7bbd
00000350: cc4a 3bbd 88b4 8c3c 58eb cebc 3326 ccbd
00000360: 4a23 12be dcd2 46bd 11a8 bb3d 713c f0bd
00000370: c7fd 1a3d 2e7c 07be 9040 e03c d74d 41bd
00000380: aa35 fabc e6f9 e6bd 0f74 943b 72d2 89bc
00000390: 5f30 49bd 922d e0ba b28a cabd fe58 e33d
000003a0: a83c 083d 0c8f e9bc 8c31 1cbd 339b b83d
000003b0: 2340 8c3d aaca aabd 8abb 93bc b867 febd
000003c0: 3244 f0bc 49af a23c ac66 60bd fa26 f6bd
000003d0: 3ccc 7a3c f79a e7bd 0b3a 0abe da2a e8bc
000003e0: d1de 883c 6900 ebbd 3bc1 aabd 58af 0ebe
000003f0: b608 0f3b 56e0 c73d 118e 213c 0247 6f3d
