model/dpc_pssm_k2_model.ckpt (torch, 635099 bytes, 40 tensors)

conv1.0.weight f4 [10, 1, 3]
0	0x3dbc0b74	0.09181872
1	0x3f126a70	0.5719366
2	0xbd292760	-0.041297317
3	0x3e9cd04a	0.30627662
4	0x3e4b3135	0.1984299
5	0xbf0fd213	-0.5617992
6	0x3e41aa08	0.18912518
7	0xbed17bed	-0.4091486
8	0x3e6422f8	0.22278965
9	0x3f01fef1	0.50779635
10	0xbe5c4f66	-0.21514663
11	0xbe98532b	-0.29750952
12	0x3f04e5f2	0.5191337
13	0xbe893679	-0.26799372
14	0xbeea89ac	-0.4580816
15	0xbe5060ee	-0.20349476
16	0xbeecd3eb	-0.4625543
17	0x3e73bf08	0.23803341
18	0xbee59771	-0.44842103
19	0xbe810455	-0.25198618
20	0xbed664fd	-0.41873923
21	0x3ebaafbd	0.36462203
22	0xbe8405fa	-0.2578581
23	0x3d6867af	0.056739505
24	0x3e08c939	0.1335801
25	0x3e2ba5c3	0.16762452
26	0xbd76e411	-0.060276095
27	0xbf1060e0	-0.5639782
28	0xbeb68f57	-0.35656235
29	0xbe8c524e	-0.27406543

conv1.0.bias f4 [10]
0	0xbe36df4b	-0.17858617
1	0xbed71a6b	-0.42012343
2	0x3f0633fb	0.52423066
3	0x3dfb2d4b	0.12264498
4	0x3e9eb71c	0.30999076
5	0x3e1f9582	0.15584376
6	0x3de495b4	0.11161366
7	0xbefc627b	-0.49293885
8	0x3dce9a24	0.10087994
9	0x3cffe138	0.031235322

conv1.1.weight f4 [10]
0	0x3f77c286	0.96781194
1	0x3f8acc8a	1.084367
2	0x3f8a45b2	1.0802519
3	0x3f7b4d9c	0.981653
4	0x3f78b006	0.9714359
5	0x3f8412c6	1.0318229
6	0x3f80af1e	1.0053442
7	0x3f7d488f	0.9893884
8	0x3f7e612c	0.9936702
9	0x3f80a154	1.0049233

conv1.1.bias f4 [10]
0	0x3cfba4f6	0.030718308
1	0xbb6841c3	-0.0035439588
2	0xbb78b48d	-0.0037949414
3	0x3b89a1c2	0.0042001912
4	0x3d13b8ce	0.036064915
5	0x3c87e6ab	0.016589483
6	0xbb862cd8	-0.0040947013
7	0x3d220a46	0.03956058
8	0x3cf711e3	0.030159896
9	0x3c1297ff	0.0089473715

conv1.1.running_mean f4 [10]
0	0x4013fe07	2.3123796
1	0xbf03dd3a	-0.5150944
2	0x3f01e001	0.5073243
3	0x3c3746c8	0.011186309
4	0xbf0e6d84	-0.5563586
5	0xbfa354e2	-1.2760279
6	0xc07ae371	-3.920132
7	0x3d54313e	0.051804774
8	0x3f88fa9b	1.0701479
9	0xc08f7aac	-4.4837246

conv1.1.running_var f4 [10]
0	0x40bca041	5.8945622
1	0x3fddd0c9	1.7329341
2	0x3f1a48ba	0.6026722
3	0x3fd8c1dd	1.6934162
4	0x403d1585	2.9544384
5	0x4021f007	2.530275
6	0x4151cf76	13.11315
7	0x3f5a675e	0.85313976
8	0x3f70ce93	0.9406521
9	0x41840654	16.50309

conv1.4.weight f4 [400, 10, 3]
0	0xbe6e79fe	-0.23288724
1	0xbd2da1c3	-0.042390596
2	0x3e1d78d0	0.15378118
3	0x3da5cba1	0.0809548
4	0xbde3fe09	-0.11132438
5	0x3c463096	0.012096545
6	0xbc92dea5	-0.01792843
7	0xbd9bcea8	-0.07607776
8	0xbd1ea57f	-0.038732048
9	0xbd1a514e	-0.037675194
10	0xbd857717	-0.06516855
11	0xbe3061d8	-0.17224824
12	0x3df87f8f	0.12133705
13	0x3c527f8d	0.012847793
14	0x3e0f323f	0.13984011
15	0xbe017381	-0.12641717
16	0xbe236ae2	-0.15958741
17	0xbd683c1a	-0.056697942
18	0xbe30ab04	-0.17252737
19	0xbd56e462	-0.052463897
20	0xbdc99229	-0.09842331
21	0x3c956955	0.018238703
22	0xbe46c3b0	-0.19410586
23	0xbe2e6884	-0.17032057
24	0xbe22d25e	-0.15900561
25	0xbe33a944	-0.17545038
26	0xbe0b2a62	-0.13590387
27	0xbe276354	-0.16346484
28	0xbde1231f	-0.10993027
29	0xbdd440a5	-0.103638925
30	0xbc111bf0	-0.0088567585
31	0xbd8a4fe7	-0.067535214
32	0xbc9d4551	-0.019198092
33	0x3dfbabe1	0.12288643
34	0xbdca77ce	-0.09886132
35	0xbc3f7183	-0.011684778
36	0xbd879c80	-0.06621647
37	0xbd906dee	-0.070522174
38	0x3da23bec	0.079215854
39	0xbe06b99c	-0.13156742
40	0xbe2ab48d	-0.16670437
41	0x3dd2fe65	0.10302428
42	0xbe11aafb	-0.1422538
43	0x3e01a497	0.12660442
44	0x3e3d8e11	0.18511225
45	0x3ddd32d2	0.10800709
46	0xbe05c030	-0.13061595
47	0xbd460a44	-0.048349634
48	0x3de6f06b	0.11276325
49	0x3e20e81b	0.15713541
50	0x3db8530f	0.09000217
51	0x3e1a0c4d	0.15043755
52	0xbe056563	-0.13026957
53	0xbc819114	-0.015816249
54	0xbda102b8	-0.07861847
55	0xbdf30bef	-0.118675105
56	0xbdf69cfc	-0.12041661
57	0xba3105e4	-0.0006752892
58	0x3e044475	0.1291674
59	0xbd9dab53	-0.07698693
60	0xbda7fe65	-0.08202819
61	0xbd651005	-0.05592348
62	0xbd7b9190	-0.061418116
63	0x3d670a35	0.05640622
64	0xbe7231fe	-0.23651883
65	0x3dc4c649	0.096081324
66	0xbd55b240	-0.052171946
67	0xbe48a82f	-0.19595407
68	0xbe1352b3	-0.14387016
69	0x3e2899ce	0.16464922
70	0xbe3b6611	-0.18300654
71	0x3ba39b6d	0.0049928934
72	0xbdc676e0	-0.09690642
73	0x3dba51d8	0.09097642
74	0xbe6ffd2d	-0.23436423
75	0xbde6f7d9	-0.11277742
76	0xbd4dc702	-0.050238617
77	0xbd452b59	-0.048137043
78	0xbe22105b	-0.15826552
79	0x3d5932f7	0.05302712
80	0xbe1eb03c	-0.15496916
81	0x3daed30d	0.085363485
82	0xbe035567	-0.12825547
83	0x3d041ab7	0.03225204
84	0x3d456c7a	0.048199154
85	0xbd03758d	-0.032094527
86	0x3ce350b9	0.027748452
87	0xbdbde7f1	-0.09272755
88	0xbd87bac1	-0.06627417
89	0x3e18e5e0	0.1493144
90	0xbe00e3ff	-0.12586974
91	0xbe019917	-0.12656055
92	0xbdb9cf47	-0.09072738
93	0x3b548672	0.0032428768
94	0xbe2fa9e5	-0.17154653
95	0xbdbdec23	-0.09273555
96	0xbb7edde2	-0.0038889577
97	0x3db2a309	0.08722503
98	0xbe4dc6c3	-0.20095353
99	0x3d36bc38	0.044613093
100	0xbd97f057	-0.07418888
101	0x3d15a32a	0.03653256
102	0x3de8142a	0.11331971
103	0x3d26b5a2	0.040700562
104	0xbd92663d	-0.07148407
105	0x3d9ecfff	0.07754516
106	0xbceffa50	-0.029294163
107	0x3bf7894b	0.0075542084
108	0x3d9693f1	0.07352436
109	0x3d160395	0.03662451
110	0xbd7183c4	-0.058963552
111	0xbe031dd1	-0.12804343
112	0x3e1d0706	0.1533471
113	0xbdfe1705	-0.124067344
114	0x3d723b56	0.05913862
115	0xbc3e34b6	-0.011609247
116	0xbc3323a9	-0.010933795
117	0xbb5b85a9	-0.0033496416
118	0x3e053e83	0.13012128
119	0xbd554668	-0.052069098
120	0x3c9b7509	0.018976705
121	0xbc8a1d8e	-0.016859796
122	0x3e2f281d	0.17105146
123	0xbdf9ba54	-0.121937424
124	0xbe059746	-0.13045987
125	0x3dd0ab7f	0.1018896
126	0x3d1c8ba2	0.0382191
127	0xbe170a4b	-0.1475002
128	0x3d323c5d	0.0435146
129	0x3df1e1ad	0.11810622
130	0xbe194546	-0.14967832
131	0xbda27277	-0.07931989
132	0x3c48715e	0.01223406
133	0x3d398d22	0.04530061
134	0x3e3a2d8f	0.18181442
135	0xbdcfe1f7	-0.10150521
136	0xbdf80f66	-0.12112312
137	0xbe21c768	-0.15798724
138	0x3d568774	0.052375272
139	0x3e15c003	0.14624028
140	0xbd8fb45c	-0.07016823
141	0x3ccc1288	0.02491118
142	0xbd7a238e	-0.061069064
143	0x3d668a9c	0.056284532
144	0x3e1587c9	0.14602579
145	0x3da18748	0.07887131
146	0xbe21abff	-0.15788268
147	0xbe34056f	-0.17580198
148	0x3e00cdf2	0.12578562
149	0xbe190559	-0.14943446
150	0x3dbc2cd2	0.09188236
151	0x3e3123c7	0.17298804
152	0xbd43539c	-0.047687158
153	0x3e1c5625	0.15267237
154	0x3d680613	0.056646418
155	0xbe2371eb	-0.15961425
156	0xbe0f5750	-0.13998151
157	0x3da4afcb	0.08041342
158	0x3e323c00	0.174057
159	0x3e1a4d6f	0.15068601
160	0x3d46813c	0.04846309
161	0xbe405e48	-0.18785965
162	0xbdaa6ac1	-0.08321143
163	0x3cda3f68	0.026641563
164	0xbe518209	-0.2045976
165	0xbd91a9de	-0.07112478
166	0xbe089bae	-0.13340637
167	0x3da2daa8	0.079518616
168	0xbd895b74	-0.067068964
169	0x3de6d3f2	0.11270894
170	0x3db6a22e	0.08917652
171	0xbe3bea43	-0.18351083
172	0x3dd1e96d	0.102496006
173	0x3e229bf4	0.15879804
174	0xbde031ef	-0.10947024
175	0x3dd307ef	0.103042476
176	0xbe26610a	-0.16247955
177	0xbdafc55d	-0.08582566
178	0x3de0735a	0.109595016
179	0x3d813a82	0.063099876
180	0xbd958cdd	-0.07302258
181	0x3d98e5d0	0.07465708
182	0xbd8bc0e0	-0.06823897
183	0xbd6caa47	-0.057779577
184	0xbd1395d5	-0.036031563
185	0x3d869ff2	0.06573476
186	0xbddfb010	-0.10922253
187	0xbdd65088	-0.10464579
188	0xbe24056e	-0.16017696
189	0x3dd7bab0	0.10533655
190	0xbc27df38	-0.010246091
191	0x3e32f509	0.17476286
192	0xbe7d05a5	-0.24709184
193	0xbd382b9d	-0.044963468
194	0x3cd69e30	0.026198477
195	0x3e24b8e8	0.16086161
196	0x3dc75f04	0.0973492
197	0xbdda8eab	-0.10671743
198	0xbdc28a85	-0.09499077
199	0x3ca15a0f	0.019696264
200	0x3d885674	0.066571146
201	0xbd6f2b7b	-0.058391076
202	0x3d8aae97	0.067715816
203	0xbe0bf63a	-0.13668147
204	0xbe30fee9	-0.1728474
205	0xbddd8610	-0.10816586
206	0xbe25ed6b	-0.16203849
207	0xbd02d333	-0.031939697
208	0x3dccc583	0.0999861
209	0xbe5bd367	-0.21467362
210	0xbdc977b8	-0.09837288
211	0x3e01c99d	0.12674566
212	0xbd712b90	-0.058879435
213	0x3e066b78	0.13126934
214	0x3bc77cf0	0.0060878918
215	0xbcf658ef	-0.030071704
216	0x3e00a6d5	0.12563641
217	0xbdf2cb30	-0.11855161
218	0xbe03180c	-0.12802142
219	0xbe22ed17	-0.15910755
220	0xbd0230af	-0.03178471
221	0x3c91b46b	0.017786225
222	0x3db9ea65	0.0907791
223	0x3beacb2b	0.007165333
224	0x3e285e7e	0.16442296
225	0x3e11f3dd	0.14253183
226	0xbd173e5a	-0.036924697
227	0xbe15b909	-0.14621367
228	0x3c7e6695	0.015527387
229	0xbe24737b	-0.16059677
230	0x3e111fbb	0.1417226
231	0x3c59e0f3	0.013298261
232	0x3d82f2c8	0.06393963
233	0x3e14bd7c	0.14525408
234	0x3e319e24	0.17345482
235	0x3d07c6a6	0.03314843
236	0x3e2d735e	0.1693854
237	0xbe384317	-0.17994343
238	0x3d9f61d1	0.07782329
239	0xbe20f69b	-0.15719073
240	0x3e1629c4	0.1466437
241	0xbd9eb5af	-0.07749497
242	0xbe3089a5	-0.17240007
243	0x3e31c994	0.17362052
244	0xbdfbcbd1	-0.12294734
245	0xbe29734c	-0.16547889
246	0x3ce3b7a3	0.027797526
247	0xbb850a2d	-0.004060051
248	0x3e26a582	0.16274074
249	0xbe14ad2c	-0.14519185
250	0x3e1e58f7	0.15463625
251	0xbc104fd1	-0.008808092
252	0xbdc42576	-0.095774576
253	0xbca3bd92	-0.019987855
254	0xbd820835	-0.063492216
255	0x3e38ee01	0.18059541

conv1.4.bias f4 [400]
0	0xbdd5a3d6	-0.1043164
1	0x3c08f76b	0.00835977
2	0x3dab1180	0.08352947
3	0x3c9f63a3	0.01945669
4	0xbc8e7bd4	-0.01739303
5	0xbd8a96fc	-0.06767079
6	0xbc4300b5	-0.011902024
7	0xbd64e55c	-0.055882797
8	0x3e1e7453	0.15474062
9	0xbdd4a07d	-0.10382173
10	0xbd9a0697	-0.07520788
11	0x3cfa76f2	0.030574296
12	0xbe19680c	-0.14981097
13	0x3e2ee5c8	0.17079842
14	0xbd983104	-0.07431224
15	0x3e2585b0	0.16164279
16	0xbdb43df4	-0.08800879
17	0xbb69d301	-0.0035678747
18	0x3b19e741	0.0023483785
19	0x3b464ff3	0.0030260056
20	0x3dbd22a4	0.09235123
21	0x3de317ea	0.110885456
22	0xbdc58c85	-0.096459426
23	0x3c80665a	0.015673805
24	0xbd609f69	-0.054839525
25	0x3e0dec3a	0.13859645
26	0x3cab42af	0.02090582
27	0x3c912d89	0.017721908
28	0x3e02bae0	0.127666
29	0xbdd480f8	-0.10376161
30	0x3e248751	0.16067244
31	0x3cb9f842	0.022701386
32	0x3e13a183	0.1441708
33	0xbdd2cd3d	-0.10293052
34	0x3d7fc4ed	0.062443662
35	0xbe4261e7	-0.1898266
36	0x3e1f9f79	0.15588178
37	0xbe29bace	-0.16575167
38	0x39b5b70d	0.00034659394
39	0x3da1909d	0.07888911
40	0xbaeb4627	-0.0017949984
41	0x3d42ce81	0.04756022
42	0x3db82b4a	0.08992632
43	0x3e3477da	0.17623845
44	0xbc7f2009	-0.015571603
45	0x3b48c704	0.00306362
46	0x3e2edd29	0.17076553
47	0x3d4bc47e	0.049747936
48	0xbe4ac315	-0.1980098
49	0x3d96b747	0.07359176
50	0xbc835f37	-0.016036613
51	0x3ddf1f88	0.10894686
52	0xbe105e0b	-0.14098375
53	0xbd4f582e	-0.050621204
54	0x3da05e4e	0.07830487
55	0x3e024636	0.12722096
56	0xbd25527a	-0.04036186
57	0xbe21ece0	-0.15813017
58	0x3cbb3ec0	0.02285707
59	0xbe08eb34	-0.13370973
60	0x3d8e5260	0.069493055
61	0x3de63078	0.112397134
62	0xbe235d28	-0.15953505
63	0x3c18868e	0.009309424
64	0xbcb69e01	-0.022292139
65	0x3e21804b	0.15771596
66	0xbd47d314	-0.048785284
67	0x3d7c2f85	0.061568756
68	0xbc993275	-0.018700818
69	0x3ddb2032	0.106995
70	0xbcc04d2a	-0.023474295
71	0x3d86c57f	0.06580638
72	0x3e0db6dd	0.13839288
73	0x3e10ff9c	0.14160007
74	0x3d4be13a	0.04977534
75	0xbe0e0813	-0.13870268
76	0x3e2e6932	0.17032316
77	0x3c2ac5bf	0.010423123
78	0x3e1d19f3	0.1534193
79	0xbd033d9c	-0.032041177
80	0x3e0f7a4a	0.14011493
81	0xbde3bb46	-0.11119704
82	0x3e06c553	0.1316121
83	0x3d490bd6	0.049083553
84	0x3e16b126	0.14716014
85	0x3df5160e	0.11967097
86	0x3e1f6d36	0.15569004
87	0xbe50f293	-0.20405035
88	0x3e2612af	0.16218065
89	0xbda9f82e	-0.0829929
90	0x3dd1dd46	0.10247283
91	0xbe19b44c	-0.15010184
92	0x3bc7a928	0.006093163
93	0x3bfef409	0.007780556
94	0xbc6c8bf9	-0.014437669
95	0x3c4f9e85	0.012672071
96	0x3e19a9de	0.15006205
97	0xbdcd5918	-0.10026759
98	0x3c8fe10f	0.017563371
99	0x3b580c99	0.0032966493
100	0x3dd368c8	0.1032272
101	0xbd7ef9fb	-0.06225012
102	0xbdbf2c06	-0.09334569
103	0x3d12c1e8	0.035829455
104	0x3d927a23	0.07152202
105	0xbe095deb	-0.13414733
106	0x3dc2bec4	0.09509042
107	0xbe53f63e	-0.20699403
108	0x3d9f7dd5	0.077876724
109	0x3dc15619	0.0944025
110	0xbd2b9112	-0.041886397
111	0x3dcbce91	0.09951509
112	0xbdbc2c02	-0.09188081
113	0xbd8b051b	-0.06788083
114	0xbd8e038e	-0.06934272
115	0x3c8a284a	0.016864914
116	0xbe4d18a1	-0.20028926
117	0x3d9c0402	0.07617952
118	0xbd6ead46	-0.058270715
119	0x3d93ba68	0.072132885
120	0xbe07faca	-0.13279262
121	0xbd3ba711	-0.045813624
122	0xbdec8a04	-0.11549762
123	0x3dda7836	0.1066746
124	0x3ca71c07	0.020399107
125	0x3d8f7877	0.07005399
126	0xbe34686f	-0.17617963
127	0xbe5c9407	-0.21540843
128	0xbe2ba125	-0.1676069
129	0x3defacb2	0.11702861
130	0xbd4fe1f0	-0.05075258
131	0x3d95062c	0.07276568
132	0xbdb5ede3	-0.08883264
133	0x3e20e081	0.15710641
134	0x3ceb4dc6	0.028723609
135	0xbe1fe9f1	-0.15616585
136	0xbe74fea9	-0.2392527
137	0xbe120ed5	-0.1426347
138	0xbe10a2a8	-0.14124548
139	0x3dfc495e	0.12318681
140	0xbcb456fd	-0.022014135
141	0x3d13eeb9	0.036116336
142	0x3e21d4b4	0.15803796
143	0x3e0120a6	0.1261011
144	0x3df3db26	0.119070336
145	0xbdd24aa8	-0.10268146
146	0xbdee6b36	-0.116415426
147	0xbe2758b8	-0.16342437
148	0x3dba6685	0.09101585
149	0xbd21abe5	-0.039470572
150	0x3e0dabfb	0.13835137
151	0xbe01e044	-0.12683207
152	0xbd8d1db4	-0.06890431
153	0xbd858deb	-0.06521209
154	0x3d936cbd	0.071984746
155	0xbe0b0551	-0.13576247
156	0x3d78a9cf	0.060708817
157	0xbde66175	-0.11249057
158	0x3d64bb8e	0.05584293
159	0xbe32dbac	-0.1746661
160	0xbd9b5c4b	-0.07585963
161	0xbcd62c43	-0.026144153
162	0x3dba8e73	0.09109201
163	0x3df3834e	0.11890279
164	0x3e09f6e5	0.13473089
165	0xbdbae2c2	-0.09125282
166	0xbdd9a64c	-0.10627422
167	0x3df9c286	0.121953055
168	0x3cba8584	0.022768743
169	0xbdddbfb1	-0.10827578
170	0x3bc95394	0.0061439965
171	0x3ddd076e	0.10792433
172	0x3c271197	0.010197065
173	0xbdf0a786	-0.117507026
174	0xbdf95a5d	-0.121754386
175	0x3e2e4662	0.17019036
176	0xbe060969	-0.13089527
177	0xbe292af2	-0.16520289
178	0x3db09dd5	0.08623854
179	0xbd3d5cf9	-0.046231244
180	0x3c559c01	0.0130376825
181	0x3dc6168c	0.09672269
182	0x3d49695e	0.04917275
183	0xbdd0c876	-0.10194485
184	0xbe03274e	-0.12807962
185	0x3e22655c	0.15858978
186	0x3e32a00f	0.1744387
187	0xbe32cab0	-0.17460132
188	0x3e42b9b7	0.19016157
189	0x3d4d7392	0.050159045
190	0x3daa4064	0.08313063
191	0x3cf0c12f	0.029388992
192	0x3e0987fd	0.13430782
193	0x3cf237d1	0.029567631
194	0xbe0b627e	-0.1361179
195	0xbd2bc392	-0.041934557
196	0xbe21255c	-0.15736908
197	0xbda523d0	-0.08063471
198	0xbccfb13c	-0.025353067
199	0xbde7bc67	-0.11315232
200	0x3dec0abe	0.115254864
201	0x3d3a6e1c	0.045515165
202	0x3d680b2e	0.056651287
203	0x3dce0385	0.10059265
204	0x3d9c0cf7	0.0761966
205	0x3dc59799	0.096480556
206	0x3d0edf31	0.03488082
207	0xbe359be7	-0.17735253
208	0xbe47b923	-0.19504218
209	0xbd9ef29e	-0.07761119
210	0x3e1c6d9e	0.1527619
211	0x3c81524d	0.015786314
212	0xbdb103f6	-0.086433336
213	0x3e23d968	0.16000903
214	0x3e0029da	0.12515965
215	0x3e021790	0.12704301
216	0x3dce0ea0	0.10061383
217	0xbc7abd51	-0.015303926
218	0xbc01e4ee	-0.007928116
219	0xbe149b14	-0.14512283
220	0x3e24ce55	0.16094334
221	0xbd452745	-0.048133153
222	0x3dcab734	0.098982245
223	0xbe0ff2ab	-0.14057414
224	0xbe51e706	-0.20498285
225	0xbbe40a51	-0.0069592376
226	0xbe2dc6f1	-0.16970421
227	0x3dc705b1	0.097178824
228	0xbe4d70dc	-0.20062584
229	0xbe021f73	-0.1270731
230	0x3df9c7c9	0.12196309
231	0xbe2214fc	-0.15828317
232	0x3d5d9974	0.054101422
233	0x3e19dd4b	0.15025823
234	0xbe1e9d46	-0.15489683
235	0x3d921269	0.07132418
236	0xbe243cc9	-0.16038813
237	0x3dcd311a	0.10019131
238	0xbcef62e1	-0.029221954
239	0x3d0401b8	0.0322282
240	0xbce91cc7	-0.028456105
241	0x3d92155c	0.0713298
242	0xbd354530	-0.044255435
243	0xbd758ca2	-0.05994857
244	0xbe23c1d0	-0.15991902
245	0x3cad2387	0.021135105
246	0x3e1fbd35	0.1559952
247	0xbd0afc84	-0.033932224
248	0x3e20b43d	0.15693755
249	0x3d2d6597	0.04233321
250	0xbe3a8818	-0.18215978
251	0xbe05ff78	-0.13085735
252	0xbdd2c2ed	-0.102910854
253	0xbe15bb56	-0.14622244
254	0xbe43c9df	-0.19119976
255	0x3de1d16f	0.110262744

conv1.5.weight f4 [400]
0	0x3f7eb439	0.9949375
1	0x3f7b25c7	0.9810452
2	0x3f806f8f	1.0034045
3	0x3f7b077e	0.9805831
4	0x3f7c93c2	0.9866296
5	0x3f7d092f	0.9884214
6	0x3f7cabeb	0.98699826
7	0x3f78e5a2	0.9722539
8	0x3f7c2dd6	0.9850744
9	0x3f7d9152	0.99049866
10	0x3f7b4970	0.9815893
11	0x3f7d714e	0.99001014
12	0x3f7c5acd	0.9857605
13	0x3f796f96	0.9743589
14	0x3f7a0ebc	0.9767873
15	0x3f7ec7ca	0.99523604
16	0x3f7b4937	0.9815859
17	0x3f7e0919	0.9923263
18	0x3f80b3ed	1.0054909
19	0x3f7bf9a6	0.9842781
20	0x3f7abe3e	0.97946537
21	0x3f805966	1.0027282
22	0x3f81dffc	1.014648
23	0x3f7a969a	0.9788605
24	0x3f7c2d0a	0.98506224
25	0x3f7ecd0c	0.99531627
26	0x3f7dd51c	0.99153304
27	0x3f7ccba1	0.98748213
28	0x3f7febb6	0.9996904
29	0x3f7a4cdd	0.97773534
30	0x3f7c2235	0.98489696
31	0x3f7cc171	0.9873267
32	0x3f7d2a44	0.9889262
33	0x3f7eb2e6	0.9949173
34	0x3f7a4223	0.97757167
35	0x3f7d9b6d	0.99065286
36	0x3f7f8cdf	0.9982433
37	0x3f8118d6	1.0085704
38	0x3f7e82e4	0.99418473
39	0x3f7c7c6d	0.9862736
40	0x3f7c52cc	0.9856384
41	0x3f7bbaac	0.98331714
42	0x3f80d5d2	1.0065253
43	0x3f7d39b0	0.9891615
44	0x3f798eb0	0.9748335
45	0x3f79a150	0.9751177
46	0x3f7e8970	0.99428463
47	0x3f7f937b	0.9983441
48	0x3f834e7b	1.0258325
49	0x3f7fb827	0.9989037
50	0x3f7dd6cb	0.99155873
51	0x3f75b7c7	0.95983547
52	0x3f7bede8	0.9840989
53	0x3f7c33d0	0.9851656
54	0x3f7b9f9e	0.9829043
55	0x3f7845cf	0.9698152
56	0x3f7be09b	0.98389596
57	0x3f7cd654	0.9876454
58	0x3f7c8e53	0.9865467
59	0x3f7b0417	0.98053116
60	0x3f7b047b	0.9805371
61	0x3f7b8fe0	0.9826641
62	0x3f7b0e14	0.98068357
63	0x3f7bbccd	0.9833496
64	0x3f801c26	1.000859
65	0x3f7db657	0.99106354
66	0x3f7d948e	0.990548
67	0x3f7de442	0.9917642
68	0x3f7e2424	0.99273896
69	0x3f819c01	1.0125734
70	0x3f7bbd93	0.9833614
71	0x3f7abe61	0.97946745
72	0x3f7e2e56	0.99289453
73	0x3f7fc882	0.99915326
74	0x3f7c48ce	0.9854859
75	0x3f7d0ee0	0.9885082
76	0x3f795506	0.9739536
77	0x3f7deac5	0.99186355
78	0x3f7c57a3	0.98571223
79	0x3f7c4a90	0.98551273
80	0x3f7eb5e6	0.99496305
81	0x3f7b6958	0.98207617
82	0x3f7ff7b0	0.99987316
83	0x3f7bd0f0	0.9836569
84	0x3f7d394b	0.9891555
85	0x3f77316f	0.96559805
86	0x3f7b366c	0.98129916
87	0x3f7954e3	0.9739515
88	0x3f7d8032	0.99023736
89	0x3f784d24	0.9699271
90	0x3f7d5fd2	0.98974335
91	0x3f80a7cb	1.0051206
92	0x3f80b492	1.0055106
93	0x3f7ee11a	0.9956223
94	0x3f7b44a6	0.98151624
95	0x3f7b2512	0.9810344
96	0x3f7c56b7	0.98569816
97	0x3f80a3ae	1.0049951
98	0x3f7d98ba	0.9906117
99	0x3f7a84d4	0.9785893
100	0x3f77caf7	0.96794075
101	0x3f7a7be1	0.97845274
102	0x3f7d7b40	0.9901619
103	0x3f7a950e	0.9788369
104	0x3f7b4eed	0.98167306
105	0x3f7bc6e6	0.9835037
106	0x3f7a7892	0.97840226
107	0x3f7d919d	0.99050313
108	0x3f7dff36	0.99217546
109	0x3f7c9d12	0.9867717
110	0x3f7d1406	0.9885868
111	0x3f7bfb5c	0.9843042
112	0x3f7c7a26	0.98623884
113	0x3f7f16b7	0.99644035
114	0x3f7e43e8	0.99322367
115	0x3f7b1ab3	0.98087615
116	0x3f79bace	0.97550666
117	0x3f7cf8f9	0.988174
118	0x3f79adce	0.9753083
119	0x3f7f1aee	0.99650466
120	0x3f7b3adb	0.9813668
121	0x3f7ef87f	0.99597925
122	0x3f7d8a76	0.990394
123	0x3f7ae196	0.98000467
124	0x3f7b6886	0.98206365
125	0x3f78a9b0	0.9713392
126	0x3f7adbf7	0.9799189
127	0x3f7a421a	0.9775711
128	0x3f7b4f4c	0.9816787
129	0x3f7cb39d	0.9871157
130	0x3f79f729	0.9764276
131	0x3f7c7b7b	0.98625916
132	0x3f7ba825	0.98303443
133	0x3f7d4a68	0.9894166
134	0x3f7a5fc6	0.9780239
135	0x3f7c1818	0.98474264
136	0x3f78e841	0.9722939
137	0x3f7cf0b6	0.98804796
138	0x3f7daa0f	0.99087614
139	0x3f7a4b20	0.9777088
140	0x3f7b1281	0.9807511
141	0x3f7fe82b	0.99963635
142	0x3f78443f	0.96979135
143	0x3f7a17de	0.9769267
144	0x3f7cefcf	0.9880342
145	0x3f7a0d09	0.9767614
146	0x3f7cff16	0.9882673
147	0x3f7e2454	0.9927418
148	0x3f7aa4af	0.9790754
149	0x3f7877ed	0.9705799
150	0x3f7ac2fc	0.9795377
151	0x3f7b70c8	0.98218966
152	0x3f81e135	1.0146853
153	0x3f7cc9c5	0.98745376
154	0x3f7adde7	0.97994846
155	0x3f7d2db3	0.98897856
156	0x3f7e1bcb	0.9926116
157	0x3f78f520	0.9724903
158	0x3f7bc2e2	0.9834424
159	0x3f7d8172	0.9902564
160	0x3f7c503d	0.98559934
161	0x3f7b8679	0.98252064
162	0x3f7c2310	0.98491
163	0x3f7d1ce7	0.98872226
164	0x3f7b146b	0.9807803
165	0x3f80ea3d	1.0071484
166	0x3f7bacf5	0.98310786
167	0x3f7e6699	0.993753
168	0x3f7e0679	0.99228626
169	0x3f78bdff	0.9716491
170	0x3f7aff6e	0.98046005
171	0x3f8084c3	1.0040516
172	0x3f7b2c08	0.9811406
173	0x3f7d0d54	0.9884846
174	0x3f7c6fa8	0.98607874
175	0x3f7fed4b	0.99971455
176	0x3f7ae60a	0.9800726
177	0x3f7a2c28	0.9772363
178	0x3f7d205b	0.98877496
179	0x3f7945e6	0.9737228
180	0x3f7a0678	0.9766612
181	0x3f7bc7e4	0.98351884
182	0x3f7dbb4c	0.9911392
183	0x3f7f6c41	0.9977456
184	0x3f7e19dd	0.99258214
185	0x3f7bfada	0.98429644
186	0x3f7d3fd2	0.9892551
187	0x3f79d26c	0.97586703
188	0x3f7b54cf	0.9817628
189	0x3f79ef66	0.9763092
190	0x3f7b719e	0.9822024
191	0x3f80634c	1.0030303
192	0x3f7a8485	0.9785846
193	0x3f7bbd56	0.9833578
194	0x3f7b183a	0.9808384
195	0x3f7a21d7	0.97707886
196	0x3f7b870f	0.9825296
197	0x3f7b77a5	0.9822944
198	0x3f7b298a	0.9811026
199	0x3f7c3000	0.9851074
200	0x3f7e831d	0.99418813
201	0x3f7bbceb	0.9833514
202	0x3f7fabd0	0.9987154
203	0x3f797d9b	0.97457284
204	0x3f78f6e6	0.9725174
205	0x3f7e58a3	0.99354
206	0x3f7c66ac	0.98594165
207	0x3f7907b0	0.97277355
208	0x3f7d2efc	0.9889982
209	0x3f7ff64f	0.9998521
210	0x3f7b9d41	0.98286825
211	0x3f7ac209	0.97952324
212	0x3f79b22a	0.9753748
213	0x3f799359	0.9749046
214	0x3f7c0874	0.984504
215	0x3f7e7b71	0.99407107
216	0x3f808744	1.004128
217	0x3f78c034	0.9716828
218	0x3f7c77e7	0.98620456
219	0x3f7966b4	0.9742234
220	0x3f7b1694	0.98081326
221	0x3f7c1ce4	0.98481584
222	0x3f7beff1	0.98412997
223	0x3f7c7efe	0.98631275
224	0x3f7d0f28	0.9885125
225	0x3f7da165	0.99074394
226	0x3f7a439e	0.97759426
227	0x3f7c1d80	0.98482513
228	0x3f7f853b	0.9981267
229	0x3f803635	1.0016543
230	0x3f7ac8ad	0.97962457
231	0x3f7ae829	0.980105
232	0x3f7b6639	0.98202854
233	0x3f8059a6	1.0027359
234	0x3f7cf7e9	0.9881578
235	0x3f7d5a1a	0.9896561
236	0x3f8127a9	1.0090228
237	0x3f801c31	1.0008603
238	0x3f7dac53	0.9909107
239	0x3f7ae6ea	0.98008597
240	0x3f7e6ed7	0.9938788
241	0x3f8036c7	1.0016717
242	0x3f7db549	0.99104744
243	0x3f7ab7e6	0.97936857
244	0x3f7f993b	0.99843186
245	0x3f7df985	0.9920886
246	0x3f7bc963	0.98354167
247	0x3f787e28	0.970675
248	0x3f7fca03	0.9991762
249	0x3f7b411e	0.98146236
250	0x3f7d341b	0.9890763
251	0x3f804306	1.0020454
252	0x3f791f73	0.9731361
253	0x3f7e6373	0.993705
254	0x3f7ad413	0.9797985
255	0x3f79f06e	0.9763249

conv1.5.bias f4 [400]
0	0xbbe4db82	-0.006984175
1	0xbc752e56	-0.014964661
2	0xbbbf8996	-0.005845259
3	0xbbfb9ce5	-0.0076786154
4	0x3a9bd795	0.001188981
5	0xbc09e4f3	-0.008416402
6	0x39de2238	0.00042368635
7	0xbc13feaa	-0.009032885
8	0xbb91d25e	-0.0044501266
9	0xbb61df02	-0.0034465198
10	0xbc723814	-0.014783878
11	0xbc8c2176	-0.0171058
12	0xba86ead0	-0.0010293368
13	0xbb02b95b	-0.0019946906
14	0xbc856732	-0.016284559
15	0xbc146fd2	-0.009059863
16	0xbc3602a5	-0.011109029
17	0xbc8270c6	-0.015922915
18	0x3aae5070	0.0013299119
19	0xb9938b4a	-0.00028141803
20	0xbbd9c121	-0.006645337
21	0xbc443889	-0.01197637
22	0xbb028899	-0.0019917844
23	0xbb9d5c18	-0.004802238
24	0xbb1bcbea	-0.0023772665
25	0xbcb140c9	-0.021637337
26	0xbc769257	-0.015049539
27	0xbb73716c	-0.0037146462
28	0x3c493ef4	0.012283076
29	0xbba45925	-0.0050155097
30	0xbad4c7e2	-0.0016233886
31	0xbc2cc112	-0.010544078
32	0xbbaf8637	-0.005356576
33	0xbc49f4ce	-0.012326432
34	0xbc80d2aa	-0.015725452
35	0xbc478a19	-0.012178921
36	0xbb3cd93b	-0.0028816003
37	0x3a0d95ef	0.0005401065
38	0xba84a00f	-0.0010118502
39	0xba3f2106	-0.00072909927
40	0xbc04589f	-0.00807777
41	0xbc5d7214	-0.013515968
42	0xbb68f717	-0.0035547668
43	0xbc3a38ae	-0.011366053
44	0xbc84f6dd	-0.016230995
45	0xbbb087d8	-0.0053872876
46	0xbb2e704d	-0.002661723
47	0xbb381b92	-0.0028092605
48	0xbc0c1c10	-0.0085516125
49	0xbc7d80fa	-0.015472645
50	0xbbbdc088	-0.005790774
51	0xbcfc4dd5	-0.030798832
52	0xbcc2a412	-0.023759875
53	0xbc29e6b2	-0.010369943
54	0xbbc4f7fe	-0.0060110083
55	0xbc10e608	-0.008843906
56	0xbb9fb925	-0.004874366
57	0xbc84d016	-0.016212504
58	0xbc69cf73	-0.014270651
59	0xbc313862	-0.010816665
60	0xba9cae1c	-0.0011953744
61	0xbc6d7abf	-0.014494597
62	0xbc2239fb	-0.009901519
63	0xbc80cbd9	-0.015722202
64	0x3bb66b6a	0.005567004
65	0xb9f13bce	-0.0004601166
66	0xbca343ce	-0.019929793
67	0xbc17856e	-0.009248121
68	0x39bced7b	0.0003603509
69	0xb99c72f2	-0.0002984028
70	0xbc10e44d	-0.008843494
71	0xbbfb9c5a	-0.0076785507
72	0x3b67478e	0.0035290453
73	0x3b8be8e3	0.0042697056
74	0xbc2ebdad	-0.010665339
75	0x3abc6af2	0.0014375134
76	0xbb7800fd	-0.0037842386
77	0x3a73252a	0.0009275252
78	0xbcb6ebec	-0.022329293
79	0x3abc554c	0.0014368682
80	0xbc3a7952	-0.011381464
81	0xbc8c618c	-0.017136358
82	0xbc521aee	-0.012823803
83	0xbca9365a	-0.0206558
84	0xbc4cc43d	-0.012497959
85	0xbcd64f80	-0.026160955
86	0xbc1291cb	-0.008945893
87	0xbca7a538	-0.020464525
88	0xbb9cc016	-0.0047836406
89	0xbcbb1bf9	-0.022840487
90	0xbbb9d6b2	-0.0056713456
91	0xbb095565	-0.002095544
92	0xbc14e037	-0.00908666
93	0xbb0a7a72	-0.0021130112
94	0xbb74121f	-0.0037242246
95	0xbcdd6b14	-0.027028598
96	0xbc3fd90e	-0.011709465
97	0xbaa4ebe1	-0.0012582504
98	0xba9dac12	-0.001202943
99	0xbbd48e17	-0.006486665
100	0xbce665d9	-0.028124737
101	0xbc42d0b8	-0.011890583
102	0xbbf90202	-0.0075991163
103	0xbbb2ba13	-0.0054543107
104	0xbbabfab4	-0.005248392
105	0xbc0ae485	-0.008477335
106	0xbbbf2145	-0.0058328235
107	0xbcc8f7e0	-0.024532259
108	0x3c18a122	0.009315761
109	0x3bc8ebb4	0.0061316136
110	0xbc9069f3	-0.017628646
111	0xbc7f2e0b	-0.015574942
112	0xbc4fb3ac	-0.012677114
113	0xbb4d079a	-0.0031285048
114	0xbb21c62a	-0.0024684765
115	0xbc7622ec	-0.015022974
116	0xbccbebd7	-0.02489273
117	0xbc3a2937	-0.011362365
118	0xbc502ccb	-0.012705992
119	0xbbd84d17	-0.0066009867
120	0xbc766fbd	-0.015041289
121	0xba0164fc	-0.00049360073
122	0xbcd0cbe3	-0.025487846
123	0xbc6d55a6	-0.014485752
124	0xbcda2dbc	-0.026633136
125	0x3b3edba7	0.0029122622
126	0xbbd775b8	-0.0065753125
127	0xbcf3c27e	-0.029755827
128	0xbc2efd5d	-0.010680524
129	0xbb277a32	-0.0025555012
130	0xbcc46dd8	-0.023978159
131	0xbb74aa95	-0.003733312
132	0x3ade8012	0.0016975424
133	0xbc4611d7	-0.012089214
134	0xbc4df7d4	-0.012571294
135	0xbc1b1f8a	-0.009467969
136	0xbcebdb4c	-0.028791092
137	0x3a3a1645	0.00070986553
138	0x39cb8e0a	0.00038825005
139	0xbc6891fe	-0.0141949635
140	0xbad22be8	-0.0016034814
141	0xbbdd9a45	-0.006762775
142	0xbc94def0	-0.018172711
143	0xbd04991b	-0.032372575
144	0xbc953c99	-0.018217372
145	0xbc8d60bf	-0.017258046
146	0xbbeaa627	-0.00716092
147	0x3be1f077	0.0068951207
148	0xbc147365	-0.009060715
149	0xbc411cc0	-0.01178664
150	0xbcbfa6f8	-0.023395047
151	0x3bb63acb	0.005561208
152	0x3b8ce17e	0.0042993417
153	0xbc18241e	-0.009285955
154	0x3cd6bfcc	0.026214503
155	0xbc255fdf	-0.010093658
156	0xbbe28522	-0.0069128433
157	0xbc8c3495	-0.017114917
158	0xbcd072b2	-0.025445316
159	0xbc927b43	-0.017881041
160	0x3c2c54a9	0.010518231
161	0xbc2a868b	-0.010408054
162	0xbc05e31d	-0.008171824
163	0x39304d70	0.00016813516
164	0xbc11da9a	-0.008902216
165	0xbc5eac05	-0.013590817
166	0xbc7c4430	-0.015397117
167	0xbc76b147	-0.015056915
168	0xbb806ae9	-0.0039189947
169	0xbbb9b075	-0.0056667873
170	0xbc2d789f	-0.01058784
171	0xbb1e83c3	-0.0024187423
172	0x3a8da2a3	0.0010805916
173	0xbb9be8bd	-0.004757969
174	0x3b954877	0.0045557576
175	0xba9e6c5d	-0.0012086738
176	0xbc31d232	-0.010853337
177	0x3b8d1724	0.004305737
178	0xbc855d24	-0.016279764
179	0xbc495cfd	-0.012290237
180	0xbc794abe	-0.015215574
181	0xbbb5ff08	-0.0055540837
182	0x3c32cbef	0.010912879
183	0xbcbdc11c	-0.02316337
184	0xba907df3	-0.0011023864
185	0xbc324563	-0.010880801
186	0x3c3168ae	0.01082818
187	0xbc886f80	-0.01665473
188	0x3b4a1bdd	0.0030839362
189	0xbbdcd205	-0.0067389035
190	0xbc6deb38	-0.014521413
191	0x3b1c2fca	0.0023832195
192	0xbc5cacbe	-0.013468919
193	0x3b051b33	0.0020310401
194	0xbce5bb8b	-0.028043529
195	0xbcedc3eb	-0.029024085
196	0xbc290791	-0.010316745
197	0xbbbfb6d9	-0.0058506546
198	0xbb1e4b8b	-0.0024153914
199	0x3ae7346f	0.0017639528
200	0x3b8f116d	0.004366091
201	0xbaa92cb3	-0.0012906998
202	0xbc13f340	-0.009030163
203	0xbc808b8b	-0.01569154
204	0xbce0f4a1	-0.027460398
205	0x3b20dde8	0.002454633
206	0xbc3547ac	-0.011064451
207	0xbd069568	-0.03285733
208	0xbc89e2d3	-0.016831791
209	0xbcdb0306	-0.02673484
210	0xbc67477a	-0.014116162
211	0xbb58ea3c	-0.00330986
212	0xbb927891	-0.004469939
213	0xbbfb3920	-0.007666722
214	0xbbceedcf	-0.00631497
215	0xbb42cb62	-0.0029723276
216	0xba26a76a	-0.0006357344
217	0xbcb02fa8	-0.0215071
218	0xbc09f077	-0.008419148
219	0xbc6922a9	-0.014229455
220	0xbc26bdd4	-0.0101770945
221	0xbb6e5105	-0.003636421
222	0xbc298d43	-0.010348621
223	0xbc725eee	-0.014793141
224	0xbc965206	-0.018349659
225	0xbc2b035e	-0.0104378145
226	0xbc68e9e6	-0.014215922
227	0x3c6b327f	0.014355301
228	0xbbc823b3	-0.0061077713
229	0xbccf3747	-0.025294913
230	0xbb9ee89a	-0.0048495056
231	0xbc137f24	-0.009002481
232	0xbce58373	-0.028016781
233	0x3b4962fb	0.0030729163
234	0xbc9bafad	-0.019004667
235	0x397dd61d	0.00024207724
236	0xbb1e8a55	-0.002419134
237	0xbbccb4b3	-0.006247127
238	0xbb9892d2	-0.004656174
239	0xbc07e6f6	-0.0082948115
240	0xbc103db1	-0.008803771
241	0x3af5286f	0.0018704067
242	0xbbed3ae8	-0.007239688
243	0xbccec6a4	-0.025241204
244	0xbc3bc713	-0.011461037
245	0xbc318275	-0.010834326
246	0xbb2e9c1c	-0.0026643341
247	0x3a9d2500	0.0011989176
248	0xbc3cdb59	-0.011526906
249	0xbc5811ce	-0.013187839
250	0xbc872c38	-0.016500577
251	0xbc870f4d	-0.016486788
252	0xbcafe870	-0.02147314
253	0xbbc0f0cf	-0.0058880816
254	0xbca84431	-0.020540329
255	0xbc607968	-0.0137008205

conv1.5.running_mean f4 [400]
0	0xbf2c3c52	-0.6727954
1	0xbc30549f	-0.010762363
2	0xbe99878e	-0.29986233
3	0xbe2285e1	-0.15871383
4	0xbe24a7d7	-0.16079651
5	0x3d51af16	0.051192366
6	0xbe8365a1	-0.25663474
7	0x3dcea0db	0.100892745
8	0xbd073897	-0.033012953
9	0xbe14c65c	-0.14528793
10	0xbe087126	-0.13324413
11	0xbd740caf	-0.05958241
12	0xbe823d9d	-0.25437632
13	0x3e9b6b32	0.3035522
14	0xbe78ae6b	-0.24285285
15	0x3d9731ba	0.073825315
16	0xbe5b7d41	-0.214345
17	0x3d968c31	0.07350958
18	0x3dbcbefc	0.09216115
19	0xbc9785c5	-0.018496403
20	0xbc205293	-0.009785312
21	0xbe70e9a7	-0.23526631
22	0xbe5e4d84	-0.21709257
23	0xbdf9e8dd	-0.12202618
24	0xbecc29b0	-0.39875555
25	0x3cb38ce2	0.021917764
26	0xbd5a07af	-0.053229984
27	0x3e0de4a5	0.13856752
28	0x3ecdbd03	0.40183267
29	0x3e92704d	0.28601304
30	0x3e9084a5	0.282262
31	0xbe97af27	-0.29625818
32	0x3ec6874e	0.38775104
33	0x3c75a7c2	0.01499361
34	0xbe4ee743	-0.20205407
35	0xbf1c3761	-0.61022
36	0x3e7bd463	0.24592738
37	0xbd608b05	-0.05482008
38	0x3d329acc	0.043604657
39	0x3e474b76	0.1946238
40	0xbdb79799	-0.08964462
41	0xbe80c380	-0.25149155
42	0xbda4d28f	-0.08047973
43	0xbdc42f3c	-0.09579322
44	0xbeafd526	-0.34342307
45	0x3ea1f31f	0.316308
46	0xbecf46aa	-0.404836
47	0xbea9750f	-0.3309712
48	0xbe9ff655	-0.31242624
49	0x3e008f14	0.1255458
50	0x3d5cd574	0.053914502
51	0xbdbe79ce	-0.09300576
52	0xbe64c505	-0.22340782
53	0x3db3d6c2	0.08781196
54	0x3e29d14d	0.16583748
55	0x3ee37253	0.4442316
56	0x3e4ce5c8	0.2000953
57	0x3e3a3b96	0.18186793
58	0xbd7e05bb	-0.062017184
59	0xbe5ecf5a	-0.21758786
60	0xbe4917f0	-0.19638038
61	0xbd0d2520	-0.034459233
62	0xbe7d80dc	-0.24756187
63	0x3e3312a4	0.1748758
64	0xbeee88e7	-0.46588823
65	0x3e93eff8	0.2889402
66	0x3e3f8fbe	0.18707177
67	0xbdbe1812	-0.09281935
68	0xbf2c98bb	-0.6742055
69	0x3e43bbf9	0.19114675
70	0x3dc2019a	0.09472962
71	0x3ea948d1	0.33063367
72	0x3dcb134f	0.09915792
73	0x3db89ede	0.090146765
74	0x3db507b4	0.0883936
75	0xbe1f66cd	-0.15566559
76	0x3f006522	0.50154316
77	0xbd3af7f3	-0.04564662
78	0x3f0aaa3d	0.54166013
79	0x3d99a93c	0.07502982
80	0x3f1075e5	0.5642989
81	0xbd460063	-0.048340213
82	0x3e592e62	0.212091
83	0x3e18761c	0.14888805
84	0x3ebccd48	0.36875367
85	0xbd5062a9	-0.05087534
86	0xbdee5252	-0.11636795
87	0xbeb24757	-0.34820053
88	0xbd5cca1c	-0.053903684
89	0xbd5d6b10	-0.05405718
90	0x3e1a4b45	0.15067776
91	0xbd8b6227	-0.068058304
92	0xbe0455d1	-0.12923361
93	0x3db220e6	0.08697681
94	0x3e3953f1	0.18098427
95	0x3e5eed18	0.21770132
96	0x3e6482f6	0.22315583
97	0xbe4c92b4	-0.19977838
98	0xbe23cc0b	-0.15995805
99	0xbe209608	-0.15682232
100	0xbca72a53	-0.020405924
101	0x3dbd0fe1	0.09231544
102	0xbe659e7b	-0.22423737
103	0x3e714794	0.23562461
104	0xbe3a57e6	-0.18197593
105	0xbd226544	-0.039647356
106	0x3cc901c8	0.024536982
107	0xbd231d6f	-0.039822992
108	0xbe04123c	-0.12897581
109	0xbed1ce83	-0.40977868
110	0x3d66f607	0.056386974
111	0x3e8abe34	0.27098238
112	0xbeb012e0	-0.343894
113	0xbe19960f	-0.14998649
114	0x3e2b6c09	0.16740431
115	0x3e6bc762	0.23025277
116	0x3e4ab1fb	0.19794457
117	0xbdd344b6	-0.1031584
118	0xbe86409e	-0.26221174
119	0x3dedd84f	0.11613523
120	0x3d7f9df5	0.0624065
121	0x3db31d00	0.08745766
122	0x3dcbbb77	0.099478655
123	0x3e4cd9ab	0.20004909
124	0xbcbef0fa	-0.023308266
125	0x3f13cb1a	0.57731783
126	0xbe2ca3c2	-0.16859344
127	0xbe41767b	-0.18892853
128	0xbdbc1148	-0.09182984
129	0x3e8e37f0	0.27777052
130	0x3e29e490	0.16591096
131	0xbe8d8bda	-0.2764576
132	0x3d503028	0.050827175
133	0x3e6b7597	0.22994076
134	0x3e60f2ba	0.21967593
135	0xbdbe1a76	-0.09282391
136	0x3d71dd0c	0.059048697
137	0xbe00fb78	-0.12595928
138	0x3e5211b5	0.20514567
139	0x3ea784d4	0.32718527
140	0x3e4edd16	0.20201525
141	0x3e9d7206	0.30751055
142	0xbb6fd91f	-0.003659792
143	0xbd890ebd	-0.06692264
144	0x3e71de32	0.23619917
145	0xbd84915c	-0.064730376
146	0xbe5b1688	-0.21395314
147	0x3e63c17a	0.22241774
148	0x3e5689d3	0.20951013
149	0x3e30fadd	0.17283197
150	0x3e2f7537	0.17134558
151	0xbec7ce49	-0.3902457
152	0xbe8b4e3e	-0.27208132
153	0xbf05a457	-0.5220389
154	0x3e424ab8	0.18973815
155	0x3edc040d	0.4297184
156	0x3ece42d5	0.40285364
157	0xbe6b4a92	-0.22977665
158	0x3e1a7102	0.15082172
159	0xbca6496f	-0.020298688
160	0xbe8b401a	-0.27197343
161	0xbe5b437d	-0.21412463
162	0x3d8e86a7	0.06959277
163	0xbcb1a108	-0.021683231
164	0xbd1c548c	-0.038166568
165	0xbd3a5aa3	-0.045496594
166	0xbec567c3	-0.38555726
167	0x3eae147f	0.34000012
168	0x3e989a1c	0.29805076
169	0xbcae3d21	-0.021269383
170	0xbed17713	-0.4091116
171	0xbcb1b3b1	-0.021692129
172	0xbd90536e	-0.07047163
173	0xbdae48ae	-0.08509956
174	0xbe13ead4	-0.14445049
175	0x3eaca468	0.33719182
176	0xbe1c0af4	-0.15238553
177	0xbdbea9dd	-0.093097426
178	0x3ef11097	0.4708297
179	0xbe5ebdc1	-0.21752073
180	0xbd801f54	-0.06255975
181	0x3e2f083d	0.17092986
182	0x3ede3a7c	0.43403995
183	0xbcfccf87	-0.030860675
184	0xbe2594bd	-0.1617002
185	0x3e902cda	0.2815922
186	0x3e2abc34	0.16673356
187	0xbee8bb71	-0.45455506
188	0x3f111436	0.56671464
189	0xbe1e1977	-0.15439402
190	0xbe0d10cd	-0.1377594
191	0xbf1143b3	-0.56743926
192	0x3f0092bd	0.50223905
193	0xba8ab614	-0.0010582828
194	0xbcbd2f06	-0.023093712
195	0x3dc74d59	0.0973155
196	0xbea33d49	-0.31882694
197	0xbdb6abad	-0.08919463
198	0xbd800431	-0.062507994
199	0x3e802aed	0.2503275
200	0xbd8e8501	-0.06958962
201	0x3e22d6c3	0.15902238
202	0xbe795a4e	-0.24350855
203	0x3e2e28f6	0.17007813
204	0xbd3a98d8	-0.04555592
205	0x3eb88532	0.3603912
206	0x3e389f21	0.18029453
207	0xbf0f7ab5	-0.5604661
208	0xbef65b4c	-0.4811653
209	0xbe649357	-0.2232183
210	0xbd9760a2	-0.07391478
211	0x3e3d1531	0.18465115
212	0x3dfb6e64	0.12276915
213	0x3d38883a	0.04505179
214	0x3e8e58a0	0.2780199
215	0x3e57f438	0.21089256
216	0xbef1c3a2	-0.47219568
217	0xbe8c36cf	-0.27385566
218	0x3e8653cb	0.26235804
219	0x3e63660f	0.22206901
220	0xbddde954	-0.108355194
221	0xbee22f9b	-0.44176945
222	0x3d2bc199	0.041932676
223	0x3e35a698	0.17739332
224	0xbd4d0458	-0.05005297
225	0x3d292b6f	0.041301187
226	0xbecae487	-0.39627478
227	0xbe431bf1	-0.19053628
228	0x3e103244	0.14081675
229	0x3dbe31bd	0.092868306
230	0xbc944d12	-0.018103156
231	0x3d9ff8b2	0.07811107
232	0x3db4aebb	0.0882239
233	0x3e39c78e	0.1814253
234	0xbe29cc3d	-0.16581817
235	0xbdad50a3	-0.08462646
236	0xbe8b9ebf	-0.2726955
237	0x3d94baa9	0.07262165
238	0x3ec2ccd3	0.38046893
239	0xbe7505f3	-0.2392805
240	0xbe4bb4c5	-0.19893177
241	0x3d661b19	0.056178186
242	0x3d1bac23	0.03800596
243	0x3e216cce	0.15764162
244	0xbe8e38e7	-0.27777788
245	0xbe9c6a20	-0.30549717
246	0x3e67f6f7	0.22652803
247	0x3eaac047	0.3334982
248	0x3f12c3ee	0.57330215
249	0x3c98ce8a	0.018653173
250	0xbeb1de6f	-0.34740016
251	0x3e438f46	0.19097623
252	0xbeb678e1	-0.35639098
253	0xbe9fcfc2	-0.31213194
254	0xbdbbf7f6	-0.09178154
255	0x3e71625c	0.23572677

conv1.5.running_var f4 [400]
0	0x3e89046c	0.26761186
1	0x3eaf51d6	0.34242123
2	0x3e162e23	0.14666037
3	0x3e7c32ac	0.24628705
4	0x3e33add1	0.17546774
5	0x3e9dd718	0.30828166
6	0x3eace6c3	0.33769807
7	0x3eb28bdf	0.34872338
8	0x3e6bff3a	0.2304658
9	0x3e43aaa5	0.19108064
10	0x3de80844	0.113297015
11	0x3e8f5ba6	0.2799961
12	0x3e672e57	0.22576271
13	0x3e0c2ea3	0.13689665
14	0x3e1540c9	0.14575495
15	0x3e17fc10	0.14842248
16	0x3e59fb0c	0.21287173
17	0x3e37f702	0.1796532
18	0x3de17953	0.11009469
19	0x3e171d07	0.14757167
20	0x3ea30d92	0.3184629
21	0x3e340ced	0.17583056
22	0x3dcac01b	0.098999225
23	0x3e0f09c9	0.13968576
24	0x3e2b387f	0.1672077
25	0x3e153f9a	0.14575043
26	0x3e44ab56	0.19205984
27	0x3e5d6cd3	0.21623544
28	0x3e39d494	0.18147498
29	0x3e68d37d	0.22736926
30	0x3e0754b3	0.13215904
31	0x3e961b51	0.29317716
32	0x3e0f256a	0.13979116
33	0x3e9ab8e8	0.30219197
34	0x3e830aba	0.2559412
35	0x3e31fb9c	0.17381138
36	0x3e00fda1	0.12596752
37	0x3de8a021	0.11358667
38	0x3e368bb5	0.17826732
39	0x3e3c58ad	0.18393202
40	0x3e1936e2	0.14962342
41	0x3e15e39b	0.14637606
42	0x3e357973	0.1772211
43	0x3e9caecd	0.30602112
44	0x3eba5240	0.36390877
45	0x3e4e89ff	0.20169829
46	0x3e805068	0.25061345
47	0x3e4f9e7a	0.20275298
48	0x3e2c361d	0.16817518
49	0x3e5059b1	0.20346715
50	0x3de6b9f2	0.11265935
51	0x3e590af2	0.21195582
52	0x3e339018	0.17535436
53	0x3e0c9d05	0.13731773
54	0x3e67e4f5	0.22645934
55	0x3e450210	0.19239068
56	0x3e912b07	0.2835314
57	0x3ec9eb23	0.39437208
58	0x3e2faa40	0.17154789
59	0x3e01b395	0.12666161
60	0x3e4941cb	0.19654004
61	0x3e1b6508	0.15175259
62	0x3e0c9754	0.13729602
63	0x3dfd9e34	0.123836905
64	0x3e32fc8b	0.1747915
65	0x3de3b2e3	0.11118104
66	0x3e604b0f	0.21903633
67	0x3e7c8000	0.24658203
68	0x3e93072e	0.28716415
69	0x3ddc76fb	0.10764881
70	0x3e879383	0.2647973
71	0x3e5802ed	0.21094866
72	0x3e36550f	0.17805885
73	0x3e2a1e5a	0.1661314
74	0x3e59ecc0	0.21281719
75	0x3e2433e2	0.16035417
76	0x3dfbfbcd	0.123038866
77	0x3e1224d8	0.14271867
78	0x3e29482e	0.1653144
79	0x3e12fa22	0.1435323
80	0x3e3df3df	0.1855006
81	0x3e1ad82e	0.15121529
82	0x3ea98589	0.33109692
83	0x3e31197c	0.17294878
84	0x3e807a14	0.25093138
85	0x3e729a1f	0.23691605
86	0x3e96bbfd	0.294403
87	0x3e66c67c	0.22536653
88	0x3e09ad28	0.1344496
89	0x3ddf0e46	0.10891394
90	0x3dffde37	0.12493556
91	0x3e271242	0.16315559
92	0x3e00b20e	0.12567922
93	0x3dce6ed4	0.100797325
94	0x3e0dce7d	0.138483
95	0x3e065959	0.13120021
96	0x3e5830c5	0.21112354
97	0x3e15014d	0.14551277
98	0x3e217262	0.1576629
99	0x3e3d6fbc	0.18499655
100	0x3ed213ec	0.41030824
101	0x3ed4bae7	0.41548845
102	0x3e5f35b2	0.21797827
103	0x3e8388d6	0.25690335
104	0x3e298594	0.16554862
105	0x3e1b412a	0.15161577
106	0x3e3c35c6	0.18379888
107	0x3e71b3d0	0.2360375
108	0x3e9e9b49	0.30977848
109	0x3e688e0c	0.22710437
110	0x3e2958b5	0.16537745
111	0x3e2458c9	0.16049494
112	0x3e371e1b	0.17882578
113	0x3e08f0f6	0.1337317
114	0x3e34ad7a	0.17644301
115	0x3dd84240	0.10559511
116	0x3e11270b	0.1417505
117	0x3e436b34	0.19083863
118	0x3e44b4bf	0.19209574
119	0x3eb4ba92	0.35298592
120	0x3e37cfcb	0.1795036
121	0x3e13513d	0.14386459
122	0x3e9953a4	0.29946625
123	0x3e2e62a2	0.17029813
124	0x3dd71f07	0.10503965
125	0x3e9134b4	0.28360522
126	0x3e42c474	0.19020253
127	0x3eaa3cd0	0.3324952
128	0x3e8f5179	0.27991846
129	0x3e2c11ae	0.1680362
130	0x3e5e5fcf	0.21716236
131	0x3e2ee93f	0.17081164
132	0x3e2187a8	0.15774405
133	0x3e25cf27	0.16192304
134	0x3e482a24	0.19547325
135	0x3ebc1572	0.3673511
136	0x3f0ab8cd	0.54188234
137	0x3e2dc44d	0.16969414
138	0x3f580392	0.8438045
139	0x3e0050c5	0.12530811
140	0x3e461830	0.19345164
141	0x3e3972dc	0.18110222
142	0x3e714a54	0.2356351
143	0x3e1c89a9	0.15286888
144	0x3e0c7895	0.13717873
145	0x3e8a66e1	0.27031615
146	0x3e10a94b	0.1412708
147	0x3e0c0cd9	0.13676776
148	0x3e2298e1	0.15878631
149	0x3e90de66	0.28294677
150	0x3de5b03d	0.112152554
151	0x3e825cf9	0.25461558
152	0x3e01511a	0.12628594
153	0x3e6a774d	0.22897072
154	0x3ea22d51	0.316752
155	0x3e519be6	0.20469627
156	0x3e72ee84	0.23723799
157	0x3e26d152	0.16290787
158	0x3e31c148	0.17358887
159	0x3ea5b679	0.32365778
160	0x3e10774b	0.14108007
161	0x3e2007c7	0.15627967
162	0x3dd51232	0.10403861
163	0x3e3b0fee	0.18267795
164	0x3deb9e6a	0.115048245
165	0x3e07a180	0.13245201
166	0x3e397598	0.18111265
167	0x3e600056	0.21875128
168	0x3e22462e	0.15847084
169	0x3e241920	0.1602521
170	0x3e7ec6fd	0.24880596
171	0x3df26f0f	0.11837589
172	0x3e215b6a	0.15757528
173	0x3e80797c	0.25092685
174	0x3e157b9c	0.14597934
175	0x3dee97de	0.1165006
176	0x3e61186c	0.21981972
177	0x3e0ae7d9	0.13565005
178	0x3ebe45d9	0.37162665
179	0x3e884f01	0.26622775
180	0x3ea41acc	0.32051694
181	0x3e79edbc	0.24407095
182	0x3ea28a76	0.31746262
183	0x3e1cf426	0.1532751
184	0x3df44b5a	0.11928435
185	0x3dec12b2	0.11527003
186	0x3e36d218	0.17853582
187	0x3e678786	0.22610292
188	0x3ea403b7	0.32034084
189	0x3e46580c	0.19369525
190	0x3e229eb3	0.15880851
191	0x3e71ef98	0.23626554
192	0x3e833e5a	0.25633508
193	0x3e25605c	0.1615004
194	0x3e1229f8	0.14273822
195	0x3e2fb074	0.17157155
196	0x3eab09ce	0.33405918
197	0x3e4c6270	0.19959426
198	0x3e2091e6	0.15680656
199	0x3e32860f	0.17433952
200	0x3dd04774	0.101698786
201	0x3e05f533	0.13081817
202	0x3e1f2dad	0.15544768
203	0x3e4b622e	0.19861671
204	0x3e019dee	0.12657902
205	0x3e22820b	0.1586992
206	0x3e51553e	0.20442674
207	0x3e59d76f	0.21273588
208	0x3e969667	0.29411623
209	0x3dc681e0	0.096927404
210	0x3e3faa49	0.18717302
211	0x3e8ded85	0.27720276
212	0x3e714598	0.23561704
213	0x3e1223b3	0.1427143
214	0x3e3f3e4e	0.18676111
215	0x3e3dfc84	0.18553358
216	0x3e7bf380	0.24604607
217	0x3e2552c0	0.16144848
218	0x3e1279b2	0.14304236
219	0x3eab0763	0.33404073
220	0x3e251982	0.16123012
221	0x3ecbbb11	0.39791158
222	0x3e14c411	0.14527918
223	0x3e78a83f	0.24282931
224	0x3e58f810	0.21188378
225	0x3dca4657	0.098766975
226	0x3df801d0	0.12109721
227	0x3e0f6a0c	0.14005297
228	0x3e3c5508	0.18391812
229	0x3e90d4af	0.28287265
230	0x3dcb2fc0	0.09921217
231	0x3de85b66	0.11345558
232	0x3dd0f33a	0.10202642
233	0x3e46755b	0.19380705
234	0x3e4e815e	0.20166537
235	0x3df941e0	0.12170768
236	0x3dcc0862	0.099625364
237	0x3e3ec3c5	0.18629368
238	0x3e40f9da	0.18845311
239	0x3e02e46b	0.12782447
240	0x3e02ec67	0.12785493
241	0x3eab0f8c	0.334103
242	0x3e0cc5ce	0.13747332
243	0x3e3b5137	0.182927
244	0x3dfbe144	0.122988254
245	0x3eb0c612	0.34526116
246	0x3e815d4c	0.25266492
247	0x3e7f25a0	0.24916697
248	0x3e122729	0.14272751
249	0x3e48b34c	0.19599646
250	0x3e7587f2	0.2397764
251	0x3e2036bf	0.15645884
252	0x3e69cc7d	0.22831912
253	0x3e794f66	0.24346694
254	0x3e27420d	0.1633379
255	0x3e0d59ad	0.1380374

conv2.0.weight f4 [10, 1, 6]
0	0x3e2433ff	0.1603546
1	0xbdf6c944	-0.12050107
2	0x3e8c4db7	0.27403042
3	0xbe9d886c	-0.30768144
4	0xbdf21deb	-0.11822113
5	0x3edfc5ab	0.43705496
6	0x3ea15037	0.31506512
7	0xbe3c8b29	-0.1841246
8	0x3d6b3253	0.05742104
9	0xbea8629e	-0.3288774
10	0x3e91c3fb	0.28469834
11	0x3c4f4e36	0.012652924
12	0xbeb10d6f	-0.34580562
13	0xbd31d1ad	-0.043412853
14	0xbe53119a	-0.20612183
15	0xbe1df4ee	-0.15425465
16	0xbd2f1e78	-0.042753667
17	0x3eadc717	0.33940956
18	0xbe8572bd	-0.260641
19	0xbba5a5d5	-0.005055169
20	0xbdb19766	-0.08671455
21	0x3ed80f57	0.42199203
22	0x3d2ea270	0.04263538
23	0xbe2e4f7f	-0.17022513
24	0xbcf36d31	-0.029715152
25	0x3e9159f2	0.28388935
26	0x3d6720e2	0.056427844
27	0x3e5fcf42	0.21856406
28	0x3d984589	0.07435138
29	0xbe330ecf	-0.17486118
30	0x3ea51761	0.322444
31	0x3ebcff0d	0.36913338
32	0x3ba74d05	0.005105617
33	0xbe932592	-0.287396
34	0x3eaadd0b	0.33371767
35	0x3edb803a	0.42871267
36	0xbd4c6941	-0.049905065
37	0x3dd204be	0.10254811
38	0xbea288bc	-0.31744945
39	0x3e0b2f51	0.13592269
40	0x3dedd85b	0.11613532
41	0xbed6d5d8	-0.41960025
42	0x3e85ed12	0.26157433
43	0xbe909e01	-0.28245547
44	0x3dbe395f	0.092882864
45	0x3ed02b57	0.40658066
46	0x3ec55869	0.38544014
47	0xbd917d1c	-0.07103941
48	0x3e7837a5	0.24239977
49	0x3dacf0b3	0.08444347
50	0xbe8444cf	-0.25833747
51	0x3ec60c4d	0.3868126
52	0x3ea49242	0.32142836
53	0xbea2ee50	-0.31822443
54	0xbe92e5d8	-0.28690982
55	0xbea89e7a	-0.32933408
56	0xbed4793b	-0.41498742
57	0xbd7dde5b	-0.061979633
58	0x3ed3076d	0.41216603
59	0x3ebeebdd	0.37289324

conv2.0.bias f4 [10]
0	0x3e8c9efc	0.27465045
1	0x3e503036	0.20330891
2	0x3dd2a9f7	0.102863245
3	0x3e211646	0.15731153
4	0xbe54c1a6	-0.20776996
5	0xbebbee83	-0.36705408
6	0xbccbc776	-0.024875384
7	0x3e8ffde9	0.28123406
8	0x3e142933	0.14468841
9	0xbebae118	-0.36499858

conv2.1.weight f4 [10]
0	0x3f83e9b1	1.0305692
1	0x3f8e88e2	1.1135523
2	0x3f8bf49b	1.0934023
3	0x3f908d48	1.1293116
4	0x3f811480	1.0084381
5	0x3f81bf6a	1.013654
6	0x3f93bb15	1.1541468
7	0x3f7e086b	0.99231595
8	0x3f7f6908	0.9976964
9	0x3f8b9e37	1.0907658

conv2.1.bias f4 [10]
0	0x3d32c354	0.04364331
1	0x3d1638eb	0.036675375
2	0x3c64c454	0.013962824
3	0x3d7ca019	0.06167612
4	0x3d27b813	0.04094703
5	0x3c218dd5	0.009860476
6	0x3d18df65	0.03732242
7	0x3d0c8494	0.034306124
8	0x3cf4605d	0.029831106
9	0x3b1d7d40	0.0024030954

conv2.1.running_mean f4 [10]
0	0x3f9f54ee	1.2447793
1	0x3f50add5	0.81515247
2	0xbfe5b6d0	-1.7946415
3	0xbe662c7a	-0.22477904
4	0x3facc1f3	1.3496689
5	0x408001f8	4.0002403
6	0xbfea6201	-1.8311158
7	0x404451f0	3.067501
8	0x3fdc7412	1.7222922
9	0xbfdf82ea	-1.7461827

conv2.1.running_var f4 [10]
0	0x4003e622	2.0609212
1	0x3f847609	1.0348521
2	0x405a520f	3.4112585
3	0x3f6ee790	0.93322086
4	0x401836c0	2.3783417
5	0x4183466a	16.409382
6	0x40481973	3.1265533
7	0x40f44a5b	7.6340766
8	0x407a303a	3.9091935
9	0x40798c93	3.899205
