model/edp_k2_model.ckpt (torch, 46683 bytes, 40 tensors)

conv1.0.weight f4 [10, 1, 3]
000000 04 f4 c3 be 72 8a f5 3c 93 84 f3 3c 77 33 da 3e
       -0.38272107 0.029973242 0.029726302 0.4261739
000010 b0 e8 ca 3e 81 af ea 3d 65 9e 0b 3f ee c5 b4 be
       0.3963065 0.11459256 0.54538566 -0.35307258
000020 8f f8 e5 be 78 d0 cf 3e e3 77 ac 3e f5 a1 a7 3e
       -0.44916198 0.40588737 0.33685216 0.3274075
000030 bc 85 c7 be 7d 83 85 3e 55 8c f9 3d 68 16 01 3e
       -0.3896922 0.2607688 0.12184969 0.12606204
000040 36 e0 16 bf 85 2b 2d be 00 03 4f 3d 08 8a 3a 3e
       -0.5893587 -0.16911133 0.05053997 0.18216717
000050 c4 e3 8a bd 47 59 96 be 37 b9 fb be 48 4a d6 3e
       -0.06781724 -0.29364988 -0.49164745 0.41853547
000060 3d 26 a0 3e 35 71 a6 3e 89 ee 9a be 3f 8a 5f be
       0.31279173 0.32508245 -0.30260113 -0.2183008
000070 53 f5 cf be a3 44 e6 be
       -0.40616855 -0.4497424

conv1.0.bias f4 [10]
000000 d2 6c 77 3e 0d 77 d6 3e 72 21 9e 3e a7 57 f3 3e
       0.24162605 0.41887704 0.30884892 0.4752781
000010 ab 27 bf be cd 7a 49 3d c5 41 d4 3e de dd b6 be
       -0.37334952 0.049189378 0.41456428 -0.35716146
000020 17 d2 88 be b3 15 d7 3e
       -0.26722786 0.42008743

conv1.1.weight f4 [10]
000000 ca 6c 8b 3f f6 9f 78 3f f5 e5 80 3f cd 61 7e 3f
       1.0892575 0.9711908 1.0070177 0.9936798
000010 67 9b 81 3f 0d ed 90 3f 80 48 82 3f 59 37 84 3f
       1.012555 1.1322342 1.0178375 1.0329391
000020 3f e8 83 3f 75 63 81 3f
       1.0305251 1.0108477

conv1.1.bias f4 [10]
000000 73 30 90 3c cc b5 90 3c ff 7a 51 bc 70 dd 81 bc
       0.017601227 0.017664813 -0.012785672 -0.01585266
000010 ac f9 dc 3b 1a a3 8b 3b 21 20 12 3c 36 61 88 3c
       0.0067436304 0.0042613866 0.008918793 0.016647916
000020 40 e0 10 bb ac df ac 3a
       -0.002210632 0.0013189218

conv1.1.running_mean f4 [10]
000000 5b 97 90 bf e2 7e 84 40 a4 89 9a bf 21 77 9a 40
       -1.129619 4.1404886 -1.2073255 4.827042
000010 e4 dd 88 be 22 f1 0d c0 46 78 5b 3f 5d 93 e4 bf
       -0.2673179 -2.2178426 0.857304 -1.7857472
000020 ab 4c 85 3f 38 96 69 c0
       1.0414022 -3.6497936

conv1.1.running_var f4 [10]
000000 13 d9 f1 3e ae 8b 29 40 e0 36 8b 3f 01 ab 60 40
       0.47235927 2.6491504 1.0876122 3.5104373
000010 a1 3f 84 3e e9 48 80 3f ec 60 c0 3d dd 17 61 3f
       0.25829795 1.002225 0.093934864 0.8792704
000020 75 28 1e 3f 7a 52 44 40
       0.6178048 3.067534

conv1.4.weight f4 [20, 10, 3]
000000 c8 06 11 bd bc 85 4e bd cb 19 a9 bd 44 ea 20 be
       -0.035406858 -0.050420508 -0.08256873 -0.15714365
000010 1b c1 3a 3e f5 20 58 3d a3 53 fe bc 7f 24 07 3d
       0.18237726 0.052765805 -0.03104574 0.03299379
000020 ff 7a 3c be 09 95 5e bc 7d 77 52 3d e2 30 bd 3d
       -0.18406294 -0.013585337 0.051383484 0.09237839
000030 ca a1 ed 3d 74 57 ce 3c dc 8d 0d 3e fe 45 7d 3d
       0.116031244 0.025188185 0.13823646 0.061834328
000040 cd cc 03 3e b0 b3 83 3b 71 14 85 3c 0f 5c aa bd
       0.12871094 0.004019223 0.016245099 -0.0831834
000050 b0 a2 62 bd 96 c2 9f 3c 9b f6 5d 3d 09 a5 17 bd
       -0.055330932 0.019501965 0.05419026 -0.037022624
000060 17 a2 42 3e 99 c7 6b 3e a7 77 00 be 6f 64 e8 3b
       0.19007145 0.23025359 -0.12545644 0.0070920507
000070 7b a0 4c bd d7 08 16 3e 96 ae 2e 3e 90 81 e3 bd
       -0.049957734 0.1465181 0.17058787 -0.111086965
000080 d2 d8 36 3e 89 a8 21 3e 76 c5 6f bd 84 e3 e4 bd
       0.17856148 0.15786947 -0.058537923 -0.11176208
000090 3d a5 23 3e e4 04 31 be 3c 87 19 be 62 24 88 3d
       0.15981002 -0.17287022 -0.14992994 0.066475645
0000a0 f5 5e f2 3d 8e 6e 86 bd da 3d e9 3c da 06 62 be
       0.11834518 -0.065640554 0.028471876 -0.22072926
0000b0 c5 f7 9c bd bb e7 b6 bd 52 91 49 3d 9a a6 07 be
       -0.07664446 -0.08930918 0.049210854 -0.13247147
0000c0 7b 5a 93 3d 77 a0 ad 3d 20 e0 18 be b1 13 a1 3d
       0.07194992 0.08477872 -0.14929247 0.07865084
0000d0 35 49 4a 3e d1 0d da 3d 18 a4 4b be fd f3 4b 3d
       0.19754489 0.106471665 -0.19886816 0.049793232
0000e0 21 b1 66 3d 12 26 22 3e af ee 1a 3e 03 ad e5 3c
       0.056321267 0.15834835 0.15130113 0.0280366
0000f0 e0 a5 a9 bc 65 0e 0d 3e 1c e8 8a 3d a6 25 3a bc
       -0.020708978 0.13775022 0.067825526 -0.011361515
000100 d6 17 21 3e 20 cb 05 be 6f 6e c7 3c 7c 04 d2 bd
       0.15731749 -0.13065767 0.024344651 -0.102547616
000110 c7 de 0a be 36 bf db 3a 39 9a ec 3d 77 fb a6 bb
       -0.13561545 0.0016765359 0.11552853 -0.005095895
000120 71 30 2f 3e 42 32 7b bc 40 19 53 bd d9 a8 87 3d
       0.17108323 -0.015331807 -0.051537752 0.06624002
000130 b8 72 26 3e b2 89 34 3d 89 c9 19 3e 9a f0 44 be
       0.16254699 0.04407663 0.15018286 -0.19232407
000140 7c 02 43 be 6c 08 2a be 41 d5 a9 3d a9 c2 05 3e
       -0.19043916 -0.16604775 0.08292628 0.13062538
000150 dc 15 9b bd 8f e9 2a 3e 77 50 f7 3d f8 63 98 bc
       -0.07572529 0.16690658 0.12075894 -0.018602356
000160 2f ac f3 bd 45 21 77 3d 4b 0d d0 3d 1a 76 e9 bd
       -0.11898076 0.060334463 0.101587854 -0.11399479
000170 e8 3c 42 3e 11 c9 19 bd 1e 98 22 be cb 06 1d bd
       0.18968546 -0.037545267 -0.1587834 -0.038336556
000180 6a 96 86 bd 6e f3 17 bd 7b 96 99 bc 34 c9 20 3e
       -0.06571658 -0.037097387 -0.018748512 0.15701753
000190 0a 74 88 bd 66 a6 c9 bd 2b 60 5c 3d 35 38 55 bd
       -0.06662758 -0.09846191 0.05380265 -0.052055556
0001a0 1f f8 ee bd df 00 4e 3d f8 33 bf bc e7 ef 9b 3d
       -0.11668419 0.0502938 -0.02334021 0.07614117
0001b0 aa 39 c8 bc 9a 98 b4 3c ad f4 72 bb ce 0c 6c 3d
       -0.024441559 0.022045422 -0.0037072108 0.0576294
0001c0 e6 2a bf bd f6 50 62 bd ad e7 25 be 37 c9 2d bd
       -0.09334354 -0.05525299 -0.16201659 -0.04242822
0001d0 38 9f 11 bd 2a 27 06 3e 0b 92 5b 3d e9 fb b5 bd
       -0.035552233 0.13100877 0.053606074 -0.08885939
0001e0 68 ea 5f 3c 19 52 c7 3d 6e cf df bd 8b c9 d4 bd
       0.013666727 0.09732456 -0.10928236 -0.10390004
0001f0 3d 38 d8 3d 77 0e f9 bd 75 20 f6 3c b0 e0 0d be
       0.105576016 -0.12160962 0.030044774 -0.13855243
000200 36 c1 f4 3d ba 3e fe 3d 07 a0 3d 3e 60 5c 60 3c
       0.119509146 0.12414308 0.18518077 0.013693899
000210 ea 2c 1c be 67 e2 3b bd 3e 4b 0a 3e 1d 97 06 bd
       -0.15251508 -0.04587021 0.13505265 -0.032858957
000220 78 7e f6 bc ed 92 3b 3e 3c dd 9e bd fd c9 0c 3e
       -0.030089602 0.18317766 -0.07757041 0.13748927
000230 be c0 2d bd d7 4c 27 3e b8 3b 6c bd 4a 4f 4a bd
       -0.04242014 0.16337906 -0.05767414 -0.049392022
000240 b1 60 9c 3d bc 92 ca bd 49 6d d1 bd 68 9b 70 3d
       0.0763563 -0.098912686 -0.102259226 0.058741957
000250 c3 fe dc bd ea e3 50 3e b6 90 96 3b 29 b2 26 bd
       -0.107907794 0.20399442 0.0045948876 -0.04069725
000260 98 32 09 3e ce 54 22 bc 07 c3 1a be e2 99 dc bd
       0.13398206 -0.009907914 -0.1511346 -0.10771538
000270 81 2e 49 be 65 8a 1f be b6 8a be bd 0f 86 41 3d
       -0.19646646 -0.15580137 -0.09303801 0.04724699
000280 ce 8b 24 3e b5 4d a1 bd 1e 7b 0f 3e 58 9b 60 be
       0.16068956 -0.078761496 0.14011809 -0.21934259
000290 76 47 1a be 46 b0 71 3d a2 f9 7c 3d c3 fc f4 bc
       -0.15066323 0.059005998 0.061761506 -0.029905682
0002a0 12 c3 04 3e 24 8a 05 3e 18 32 a4 3d c9 48 d0 bc
       0.12965038 0.13040978 0.08017367 -0.025425332
0002b0 d0 8a 0c 3e 2f cd 2c bd b1 7c 3a 3b 2a 46 87 bd
       0.13724828 -0.042187866 0.002845567 -0.066051796
0002c0 9f 69 39 3c c7 77 25 3e 72 72 d2 3d 8b d7 0c 3e
       0.011316686 0.16158973 0.10275735 0.13754098
0002d0 9e 90 fe 3d dd c7 33 bd d7 95 f8 bc 14 d9 d3 3d
       0.12429927 -0.043891776 -0.030344887 0.10344139
0002e0 98 a4 bb bd cf c8 b6 bc e7 d9 12 3e ca c9 4c 3d
       -0.09162253 -0.02231255 0.14340936 0.04999713
0002f0 78 d2 a7 3c 96 0c d1 bd de 2d 1b 3d cb 1a 8f bc
       0.020486102 -0.10207479 0.03788554 -0.01746883
000300 4d 23 36 be bb 1b 0d 3e 76 aa f1 bc 17 58 50 be
       -0.17786904 0.1378011 -0.029500227 -0.20346104
000310 67 43 3d 3e 54 7b f8 bd 69 4b c7 3d c2 0f 6f 3c
       0.18482743 -0.12132898 0.0973118 0.014591159
000320 22 1c 12 be 8a e0 d2 bd 16 2f 64 3d 3e ad 36 ba
       -0.14268544 -0.10296734 0.055708967 -0.0006968564
000330 33 71 52 3e 1e 91 35 3e 45 9b 02 be 6d 24 84 bd
       0.20550995 0.17731139 -0.12754543 -0.0645226
000340 ef 1d c6 3c bf 25 62 be ea a8 3d be 03 8c 05 3e
       0.024184195 -0.22084711 -0.18521467 0.13041691
000350 10 c6 a8 bd 5c 67 86 3b 08 e1 9b bc b7 e0 93 3d
       -0.082409024 0.004101677 -0.019028202 0.07220595
000360 d6 71 7a bd 18 79 1d 3e 74 ec 8b bd 7f 20 1a 3e
       -0.06114372 0.15378225 -0.06832209 0.15051459
000370 3d 00 01 3e 4f 7f 12 3e 85 2e bc bc 1d 6f 46 be
       0.12597747 0.14306377 -0.022971401 -0.19378324
000380 ff 2e 06 be e6 6b fb bc fd 37 ad 3c 22 3c 79 3d
       -0.13103865 -0.030691098 0.021144861 0.060848363
000390 b4 26 f6 3d 6d 6b 1c be dd 87 31 3d 1a a6 06 3e
       0.12019101 -0.15275355 0.04334246 0.131493
0003a0 c5 96 a2 3c 7d 3d 50 3d 1b 3e aa 3c bd 53 39 bd
       0.019847283 0.05083989 0.020781567 -0.045245875
0003b0 f6 6a 12 bc 7a a7 b1 bd e1 04 f1 bc c1 a7 48 3c
       -0.008936634 -0.08674522 -0.029421272 0.012247027
0003c0 73 84 fb 3d f2 46 bf bd b8 71 23 3d 2f ad 1d be
       0.12281122 -0.093397036 0.039903373 -0.15398096
0003d0 e5 86 6b 3d c8 f4 92 bd 1b 73 83 bd 2b c1 2c 3e
       0.057501692 -0.071755946 -0.06418439 0.16870563
0003e0 c2 5b dc bd 9f 3b 57 be 79 99 28 3e 19 93 c4 bd
       -0.10759689 -0.21018837 0.16464795 -0.09598369
0003f0 f9 c0 30 3d 8b 9b 2d 3e d3 0a cd 3d 7e 95 b6 3a
       0.043152783 0.16953866 0.1001183 0.001393005

conv1.4.bias f4 [20]
000000 24 16 44 3e 9c 98 2b be c5 b2 a8 bd b5 7d 97 bc
       0.19149071 -0.16757435 -0.082372226 -0.018492559
000010 c9 c6 3b 3e 91 50 a9 bd 8a 5d f7 bd 72 13 26 be
       0.1833755 -0.0826732 -0.12078388 -0.16218355
000020 60 fb 71 bd b9 5e c7 3d 95 e6 16 3e 43 c0 03 3d
       -0.05907762 0.09734864 0.14736398 0.032165777
000030 ff 93 1d be 70 7c 0a bd fe f5 70 bd 69 50 31 be
       -0.15388487 -0.03381008 -0.058828346 -0.1731583
000040 15 c8 31 be 69 fa 2b be 45 10 2c 3e 83 e5 58 3d
       -0.17361481 -0.16794743 0.16803081 0.052953254

conv1.5.weight f4 [20]
000000 95 dc 82 3f d8 7c 82 3f 31 d8 80 3f 72 17 80 3f
       1.0223566 1.0194349 1.0065976 1.0007155
000010 2c f7 84 3f 40 06 81 3f a2 06 86 3f dd df 7a 3f
       1.0387931 1.0080032 1.0470774 0.9799784
000020 ac 37 81 3f 8c 37 7d 3f 05 80 80 3f 0b 5c 82 3f
       1.0095115 0.9891288 1.0039068 1.0184339
000030 f6 cf 82 3f 00 25 81 3f e2 7a 7e 3f db b8 80 3f
       1.0219715 1.0089417 0.99406254 1.0056413
000040 9b fd 83 3f c3 f1 81 3f c6 11 7a 3f 80 8f 7f 3f
       1.0311769 1.0151905 0.9768337 0.9982834

conv1.5.bias f4 [20]
000000 dc 16 4b 3b 5f ec c1 bb 4f 3b 9e bc d6 01 4e 3c
       0.0030988967 -0.00591807 -0.01931539 0.01257368
000010 fd ae 35 3b a9 68 16 bb 9b 4b 02 ba 21 12 53 bc
       0.002772271 -0.0022950566 -0.00049703725 -0.01288274
000020 a2 07 04 bc 63 94 21 bc 38 27 91 bb d2 76 66 3c
       -0.00805846 -0.009862038 -0.004429724 0.014066415
000030 28 73 40 3c 9e 64 61 bb df 52 6c bb c0 48 ac bb
       0.011746205 -0.0034392248 -0.0036060137 -0.005257696
000040 a2 dd ef bb 15 67 03 3c d0 72 73 bc 87 1b ff ba
       -0.007320122 0.008020182 -0.014858916 -0.001946316

conv1.5.running_mean f4 [20]
000000 70 52 b0 3e ef 90 a8 bc fb e4 2e 3e 12 d0 60 be
       0.34437895 -0.020576922 0.17079537 -0.21954373
000010 3e 81 4e 3e 3c fb 6f bd f0 e0 c9 3c cd db 51 3d
       0.2016649 -0.058589205 0.024643391 0.05123501
000020 3f 5c 5c be 70 dd af 3b 7a da 0a be a5 6b a5 be
       -0.21519564 0.0053669736 -0.13559905 -0.3230869
000030 20 c5 19 bf 28 0d 34 be c1 8d 8a bd d7 e9 ca be
       -0.60066414 -0.17583144 -0.06765319 -0.3963153
000040 59 97 f1 3d f1 e2 87 be d6 f9 5b bb 9b 4b ca 3e
       0.117964454 -0.2654033 -0.0033565662 0.39510807

conv1.5.running_var f4 [20]
000000 6f c0 df 3d 39 c8 31 3e 9e 98 1b 3e 06 49 4b 3e
       0.10925376 0.17361535 0.15194938 0.19852075
000010 df 5e e4 3d bb 21 10 3e af 42 d8 3d 89 79 49 3e
       0.11150908 0.14075367 0.10559594 0.19675268
000020 5c c0 05 3e 61 e1 df 3d 4d ba 7d 3e 0f 66 1a 3e
       0.1306166 0.109316595 0.247781 0.15077995
000030 46 01 41 3e 51 32 ff 3d 72 0a 96 3e f3 0b 15 3e
       0.18848142 0.12460769 0.29304844 0.1455534
000040 1b e9 18 3e 6c 39 2a 3e 14 aa 5f 3e b0 a1 24 3e
       0.14932673 0.16623467 0.21842223 0.16077304

conv2.0.weight f4 [10, 1, 6]
000000 77 b1 a6 be 3f 9a 9e be ac 6b 04 3e 00 6b 35 3e
       -0.3255727 -0.30977055 0.12931699 0.17716599
000010 fe c0 47 3e 0a 03 c1 3e 30 0e d3 bd 0b eb 9c be
       0.19507214 0.3769763 -0.103054404 -0.30648074
000020 10 94 b8 be 43 20 9b 3e 5d 68 5c be 86 1f df be
       -0.36050463 0.3029805 -0.21524186 -0.43578738
000030 fd 82 58 be 11 30 5a 3d 8d 01 14 be 62 24 a2 3d
       -0.21143718 0.053268496 -0.14453717 0.07917096
000040 6c a0 b2 3d d0 d1 fe 3d 47 22 d1 3e 4c cc c2 3e
       0.08722004 0.12442362 0.40846464 0.3804649
000050 6d a2 ba 3e 83 a2 22 be 7b fa 91 bd 91 17 36 3b
       0.36452046 -0.15882306 -0.071278535 0.0027785043
000060 b5 f9 9f 3e f3 35 13 bb d3 a2 13 be 88 42 c9 be
       0.312452 -0.0022462576 -0.14417581 -0.39308572
000070 d2 2b b8 be 30 29 b6 be c4 e5 f0 bc ce cc 85 be
       -0.35970932 -0.355783 -0.029406436 -0.26132816
000080 b2 e9 6e be 90 ac a6 3e 46 4e 92 3e 26 43 ae be
       -0.23331335 0.3255353 0.28575343 -0.34035605
000090 56 a9 66 be e0 32 a2 3e 70 96 14 3e 28 18 2e 3d
       -0.22525534 0.3167944 0.14510512 0.042503506
0000a0 6f a4 2f bd ae 77 2a 3e 96 50 11 be 43 ab b6 3e
       -0.042881425 0.16647217 -0.14190897 0.35677537
0000b0 5f be a9 bd 5e 34 21 3e bc 21 6c 3e 78 94 59 3e
       -0.082882635 0.15742633 0.23059744 0.21248043
0000c0 55 88 92 3d 2c 2d e8 bd e5 c5 db bd e9 aa a8 be
       0.071549095 -0.11336741 -0.10731105 -0.32942894
0000d0 5b f7 88 3e ae 6d af 3e 75 d5 86 be 6e 5e 98 bd
       0.26751217 0.34263366 -0.2633473 -0.07439886
0000e0 63 2b 84 3e 75 44 89 3e 6a 9d 15 3e 15 3f 28 be
       0.2581435 0.2681004 0.1461083 -0.16430314

conv2.0.bias f4 [10]
000000 93 f5 e2 3d 68 1f 01 bd 99 f7 35 3e 68 65 8e 3c
       0.11081996 -0.031524092 0.17770232 0.017382339
000010 09 d4 28 be 57 50 cb 3c 3b 49 ac be 6c 3d 4a be
       -0.16487135 0.024818582 -0.3364962 -0.19749993
000020 f2 61 55 3c f6 35 8f be
       0.01302384 -0.27970856

conv2.1.weight f4 [10]
000000 d9 9a 80 3f 49 d8 85 3f 7c a5 81 3f b1 10 84 3f
       1.0047256 1.045663 1.0128627 1.0317594
000010 a0 d3 7a 3f be 7d 8a 3f 9e 70 80 3f 4a c7 81 3f
       0.97979164 1.0819623 1.0034368 1.0138943
000020 24 fd 86 3f fe 79 84 3f
       1.0546002 1.0349729

conv2.1.bias f4 [10]
000000 02 52 bc ba 66 0f bb bc 17 31 06 bc cb 74 8c 3c
       -0.0014367702 -0.022834491 -0.008190415 0.017145535
000010 2d 54 64 bc 00 e0 47 3c b6 fd c2 bc e1 9e fa bb
       -0.013936085 0.012199402 -0.02380262 -0.0076483344
000020 76 97 28 3c f3 47 0c 3c
       0.010290017 0.008562076

conv2.1.running_mean f4 [10]
000000 13 de 95 3f ac 42 48 c0 69 eb 60 be 7e 82 3e 40
       1.1708397 -3.1290693 -0.21964802 2.9767146
000010 d7 30 5c c0 1d a3 a2 bf 65 eb d6 3f de ef 39 40
       -3.440481 -1.2706028 1.6790587 2.9052653
000020 06 54 66 3e a9 5c 91 3e
       0.2249299 0.28391007

conv2.1.running_var f4 [10]
000000 19 05 fa 3f b0 64 20 40 ef 19 b6 3e fc 5a 55 40
       1.9532806 2.5061455 0.3556666 3.3336782
000010 a4 3c 7c 40 03 ee 7a 3f c6 e5 79 3f 73 dd 11 40
       3.9412012 0.9801943 0.9761623 2.2791412
000020 91 fa 23 3f 4c 56 e0 3e
       0.6405421 0.4381584

conv2.4.weight f4 [20, 10, 6]
000000 8d 6f d1 bd 65 62 5e 3d 44 18 90 3c 08 32 88 bc
       -0.10226355 0.054293055 0.017589696 -0.01662542
000010 01 2a 79 bd 04 08 90 bb 3e c3 ea bd a4 a2 e6 3d
       -0.060831074 -0.004395487 -0.11463021 0.1126149
000020 80 c0 91 3c d9 aa 85 3d 09 85 87 ba d3 b6 d2 3d
       0.017791986 0.06526727 -0.001033933 0.10288777
000030 3e b0 74 bd 6e 0a 24 3d f6 4b 3b 3c 1c 2c e3 3d
       -0.05973839 0.04004901 0.011431685 0.110923976
000040 13 95 eb 3d 24 9b 1c bc f3 0f b2 3d 32 4c 8c bd
       0.11503043 -0.009558473 0.08694448 -0.068504706
000050 e5 55 d4 3d 0c 56 81 3c 72 29 ab bc bf 80 41 bd
       0.103679456 0.0157881 -0.020893786 -0.047241922
000060 02 46 e6 bc ad 73 6e bd ee b0 0b bd 27 ad e2 3d
       -0.028109554 -0.058215786 -0.03410428 0.110681824
000070 08 c8 86 3d 07 8c a5 3d ed 58 04 be 13 64 be bd
       0.06581122 0.08083349 -0.12924547 -0.092964314
000080 de cd f3 3d 05 4e 87 bc bb ce 03 3d 4c 26 36 be
       0.119045004 -0.016516695 0.032179575 -0.17788047
000090 70 05 cb 3d 7e ad 94 3c 22 ab 0b be 3e d6 a6 3d
       0.099131465 0.018149134 -0.136395 0.08146332
0000a0 a2 f6 b7 bd 43 00 24 bd e1 b3 a0 3d c0 28 b1 bd
       -0.08982588 -0.040039312 0.07846809 -0.086503506
0000b0 3f 68 f6 3c 94 6b 84 bb 68 9e de 3d 5a 10 2f bd
       0.030079005 -0.0040411446 0.10870057 -0.042740203
0000c0 87 b5 ac bc 3a 9c a8 3d 2b 5a f0 3c cc fb 49 3d
       -0.021082653 0.08232923 0.02933987 0.049312398
0000d0 4a 8e d1 bb d8 9b 14 be dd 44 6b ba 82 78 df 3c
       -0.006395136 -0.14512575 -0.00089748 0.027279142
0000e0 dd 2b bb bd 98 6b a8 3d a9 ee 8c 3d 5c 5e 81 3d
       -0.09139226 0.08223647 0.06881458 0.06316826
0000f0 cf 52 f6 bc dd 3b cc 3d 71 62 c9 3d 57 d4 cc 3c
       -0.030068783 0.099723555 0.09833229 0.025003595
000100 66 78 27 3a 75 a3 e7 bc 2a 13 ea 3d 10 3a 0d 3d
       0.0006388485 -0.028276185 0.114294365 0.0344792
000110 b3 7b e9 3d 2f 6c 14 be 44 c2 b2 bd 40 27 89 3b
       0.11400547 -0.14494394 -0.087284595 0.004185587
000120 c9 5d b7 3d 9c 41 f5 3d 2b 23 06 3d de 85 13 3d
       0.08953435 0.119754046 0.032748383 0.036016338
000130 c6 07 90 3d 26 b5 74 3d c8 ae ae bd 2a e3 b9 bc
       0.07032733 0.05974307 -0.08529431 -0.022691328
000140 7c de f6 bd 91 3d ec bd 4c 3c 1a bd 72 bb f0 3d
       -0.12054154 -0.1153518 -0.03765516 0.11754502
000150 57 4f c9 3d 22 d5 82 bc 83 ea 0a be ae dc 89 3d
       0.09829586 -0.01597077 -0.13566022 0.067315444
000160 d5 20 bb bd 02 75 ba 3c 73 9b fb bd cf 98 84 3d
       -0.091371216 0.022760872 -0.12285509 0.064744584
000170 ae de a3 bd e0 9e 18 bb 44 d9 c1 bd 11 5c 25 bd
       -0.08001457 -0.0023288056 -0.09465268 -0.040371004
000180 a9 f6 18 3d 13 42 6e 3d bf ab 37 3c b3 62 2a bd
       0.03734461 0.058168482 0.011210381 -0.041598033
000190 40 62 e8 3d 0e ed 6f 3d ca d9 54 3d 80 aa b9 bd
       0.11346865 0.058575682 0.051965512 -0.090657234
0001a0 72 4c 1c bc 47 0a ff 3c 60 69 a8 3d 41 4a 92 bd
       -0.00953971 0.03113283 0.08223224 -0.07143069
0001b0 dc 06 6b bd 2a dd 9e 3d 62 e9 ec bc 04 26 84 3d
       -0.05737959 0.077570274 -0.02891988 0.064525634
0001c0 4d c7 f3 bc c1 c6 2b 3c 71 ab 97 3c fc 7e bd b9
       -0.02975812 0.010484398 0.018514367 -0.000361435
0001d0 7c c6 78 3d 51 c6 ea 3d ba a8 fd 3d 82 03 86 3a
       0.060736164 0.11463607 0.12385698 0.0010224434
0001e0 1e a3 00 bd 03 bd ba 3d 17 cc 06 be aa 51 cf 3d
       -0.03140556 0.091180824 -0.13163792 0.10122998
0001f0 2c d8 ac 3c 8f 32 4b 3d e8 45 2b bd 36 fc 18 bd
       0.021099173 0.049608763 -0.041814715 -0.037349902
000200 aa e2 74 3c ac f9 28 bd 31 55 d5 bd f3 b4 e5 3d
       0.014946619 -0.04125373 -0.104166396 0.11216154
000210 f0 1d 26 3e c2 8f 69 bd 9c 04 29 be a7 58 0f bd
       0.16222358 -0.057021864 -0.16505665 -0.034996655
000220 e7 b4 49 be 2d db b2 bd 60 8a 75 3c 69 26 a5 bd
       -0.19697915 -0.08733211 0.014986604 -0.08063967
000230 d5 56 8c 3d 15 b2 f0 3d e8 8c f9 3d 5e 3f f2 bd
       0.068524994 0.117527165 0.12185079 -0.118284926
000240 63 3c 92 bd 87 08 be bc 4b ff 6e 3d 6a cc 95 bd
       -0.07140424 -0.023197426 0.058348935 -0.073143795
000250 04 38 6a bb b3 57 5c bd ee ff 95 bd 10 7d c7 3d
       -0.0035738954 -0.053794574 -0.07324205 0.09740651
000260 a8 f1 90 3d 01 f8 17 be ff 2e 84 bd fe e3 ca bd
       0.07077342 -0.148407 -0.06454276 -0.09906767
000270 c4 81 1c bc 1e f3 cb bc 55 de 86 3d c0 d6 c9 bd
       -0.009552423 -0.0248962 0.06585375 -0.098554134
000280 e6 04 c3 bd b5 96 77 bd 66 f0 e6 3d da 31 12 3d
       -0.09522419 -0.06044646 0.11276321 0.035692073
000290 29 5e 9a ba 4d d4 c9 bd de 7f d8 bd 18 98 dd bd
       -0.001177733 -0.09854946 -0.10571264 -0.10820025
0002a0 66 b9 02 3e b1 0d bf bd fd 3b dd 3b 94 11 37 be
       0.12766036 -0.09328783 0.006751536 -0.178778
0002b0 49 0d 4f bd 31 7a ba 3d ac 6c 19 be 96 05 aa 3d
       -0.05054978 0.091053374 -0.14982861 0.08301847
0002c0 2a de 20 3e 08 23 32 bd f9 54 62 3d 96 e7 04 be
       0.15709749 -0.04349044 0.055256817 -0.12978968
0002d0 08 06 d5 bd 23 f4 2d bd 1a 3d fa 3d 02 87 d3 3b
       -0.10401541 -0.042469155 0.122186854 0.006455303
0002e0 6f 64 b4 3c 48 e0 8e bd 11 52 0f bd 4f 7a 00 3d
       0.022020547 -0.06976372 -0.034990374 0.031366643
0002f0 87 9a 97 3c 0f 25 0b 3e 63 04 df 3d b4 c4 79 bd
       0.018506302 0.13588355 0.108895086 -0.060978606
000300 00 19 ea bd 30 7b 55 bd cc b6 8f bd 59 d4 d1 3d
       -0.114305496 -0.052119434 -0.070172876 0.1024558
000310 ea 19 bf bd 7d f2 97 bc f9 56 74 3d 2b 68 b8 3d
       -0.093311146 -0.018548245 0.059653256 0.090042435
000320 06 7b 6a 3d ba e0 fa 3c f9 58 1e be 72 2b 7a 3d
       0.05724623 0.030624736 -0.15463628 0.06107659
000330 5b d8 54 3d 88 62 df 3d 1c 4a 0b 3e d6 3a 04 3e
       0.051964145 0.10907465 0.13602489 0.12913069
000340 68 66 fd bc 66 c2 32 bd 41 e1 ea 3d f8 dd 3a ba
       -0.03093262 -0.043642424 0.11468745 -0.0007128413
000350 6d 4e 90 ba 40 50 9a bd 9f db 67 bd c1 d5 a3 bd
       -0.0011009701 -0.07534838 -0.05660593 -0.07999755
000360 ee cc 36 3d a7 f9 8e 3d 31 6b c7 bd e3 5d 6c bd
       0.04462903 0.06981211 -0.09737242 -0.057706725
000370 6d df 30 38 c4 dd b2 3d 32 0d ea bd 3e 38 17 3b
       4.216975e-05 0.08733705 -0.11428298 0.0023074294
000380 6f 6b 15 3d 4f be 17 bd 71 c9 0a bd ca 40 93 bd
       0.03647941 -0.037046727 -0.033883516 -0.07190092
000390 a3 e3 9f bd 2e f5 fd bd b1 ad 7f 3d 4a 9c dc 3b
       -0.0780709 -0.1240028 0.062421504 0.0067324983
0003a0 53 49 53 3c 78 97 dc bc 31 de 5c 3d 30 e1 d4 bd
       0.0128959 -0.026927695 0.053922836 -0.103945136
0003b0 3e e3 c3 3b 56 27 f9 3d a0 16 ea bd 02 7e ac 3d
       0.005978017 0.12165706 -0.114300966 0.084224716
0003c0 85 ac d3 3b 35 86 87 3c 6d 4f 25 3d 84 f3 b7 3d
       0.006459775 0.016543487 0.04035895 0.08981994
0003d0 b5 82 90 bc 1a 56 dd bd 62 5d 5e bc 64 a8 0f 3d
       -0.017640451 -0.10807438 -0.013572069 0.0350727
0003e0 e6 45 15 3e a4 1c 93 bd a4 ef ea bd ae 6a 20 bc
       0.14577445 -0.07183197 -0.11471489 -0.009791059
0003f0 8e 89 d4 3d 92 26 25 bd 2c 00 03 3e f7 e0 cd bd
       0.10377799 -0.040319987 0.12793034 -0.10052674

conv2.4.bias f4 [20]
000000 0d 1d 9d bd 2a 7d 31 bd 30 21 a1 bc 2f 52 ba bd
       -0.076715566 -0.043332256 -0.019669145 -0.090977065
000010 a4 e2 c4 3b 8b ff 07 3e f0 e2 49 bd 04 1c 87 3d
       0.006008463 0.13281076 -0.04928869 0.065971404
000020 83 9c 51 3d 7b ee 01 be 89 36 ab bd 8e 12 db 3d
       0.05117465 -0.1268863 -0.08360011 0.106968984
000030 49 c1 68 3d 38 6c 3f bd 66 55 81 bb 83 62 5f 3d
       0.056824956 -0.046734065 -0.003946948 0.054537307
000040 ff 57 a1 3c 05 67 ad 3d be 74 89 bd 80 1d fc bc
       0.01969528 0.08466915 -0.0671172 -0.030775785

conv2.5.weight f4 [20]
000000 58 1b 7e 3f 99 f6 7f 3f 50 4c 86 3f 11 ac 80 3f
       0.99260473 0.99985653 1.0492039 1.005251
000010 de 34 83 3f 64 db 82 3f f2 22 86 3f 4b 5b 7e 3f
       1.0250509 1.0223203 1.0479414 0.9935805
000020 a6 14 80 3f 66 bc 7d 3f f0 72 82 3f 87 86 7d 3f
       1.0006301 0.991156 1.0191326 0.990334
000030 e3 2b 80 3f 1d b6 80 3f d8 a9 81 3f 13 42 82 3f
       1.0013393 1.0055577 1.0129957 1.0176414
000040 a6 ad 80 3f a0 e3 82 3f cd 27 7e 3f 45 aa 7f 3f
       1.0052993 1.0225716 0.9927948 0.99869186

conv2.5.bias f4 [20]
000000 d1 37 d3 bb d0 11 04 3b ca 00 a3 3b ac 63 94 3b
       -0.006445863 0.0020152219 0.0049744593 0.0045284834
000010 17 ca 39 3b a7 ca 34 3c a3 7f 1b bc a5 ce 83 bb
       0.0028349215 0.011034644 -0.00949088 -0.0040224367
000020 06 91 1c 3a 43 f0 24 bb 96 cd c3 3b b7 21 28 3b
       0.0005972538 -0.0025167621 0.0059754355 0.0025654861
000030 9e 9a 25 3b 9b 2d 2c 3c 4a 55 84 bb 8b ec 89 ba
       0.002526916 0.01050892 -0.0040384876 -0.0010522766
000040 13 42 fb bb 3a 83 17 3c 43 30 95 bb 1f 1a ad 3b
       -0.007667789 0.009247595 -0.0045528724 0.005282655

conv2.5.running_mean f4 [20]
000000 c9 4d 01 3e a8 2e f6 3d 30 4a 8d be 73 20 d3 bd
       0.12627329 0.12020618 -0.27595663 -0.103089236
000010 d2 db b6 3d 80 13 de 3d e0 0f 3d 3e 6b a2 1b be
       0.08928646 0.10843563 0.18463087 -0.15198676
000020 5e e6 10 be d9 87 16 bc f2 6d f0 be 5d 5b a0 3c
       -0.14150378 -0.009187662 -0.46958882 0.019574815
000030 3e 57 38 3d ae ab 8c bd c1 9b 1e 3e 10 f4 9b be
       0.045005076 -0.06868683 0.15489103 -0.30459642
000040 a7 2c 0e be 48 df 28 3e 3d 9c b6 3c e6 e6 43 bd
       -0.13884221 0.16491425 0.022291297 -0.047827624

conv2.5.running_var f4 [20]
000000 96 1d 58 3e 4b 20 85 3e 25 27 27 3e 62 92 3e 3e
       0.21105036 0.260012 0.16323526 0.18610528
000010 b8 b2 0b 3e dc 13 78 3e 79 e8 e2 3d 49 71 5f 3e
       0.13642395 0.24226326 0.11079497 0.21820559
000020 a2 cf 31 3e aa 59 0b 3e 3d 31 27 3e d7 95 8a 3e
       0.17364362 0.13608423 0.16327377 0.27067444
000030 9c a0 23 3e ee d0 09 3e 0c c7 dd 3d d7 a2 4e 3e
       0.15979236 0.13458607 0.10828981 0.20179306
000040 03 aa e7 3d 15 c2 1a 3e 54 cb 18 3e 56 a6 55 3e
       0.11311724 0.15113099 0.14921314 0.20864233

conv3.0.weight f4 [10, 1, 9]
000000 2c b4 4a 3e 48 e7 26 be c7 42 0f be a5 7b 5c be
       0.19795293 -0.16299164 -0.13990317 -0.21531542
000010 59 06 96 be 14 cb 97 bd 81 b8 8a bd ca 55 a9 be
       -0.29301718 -0.07411781 -0.067734726 -0.33073264
000020 3f a3 50 3c 5e 2f b1 3c 3f 24 ed 3d 89 db 8e be
       0.012734233 0.021629032 0.11579179 -0.27901867
000030 2c b2 8d 3e 6b c3 86 3e 31 a9 b5 3d 49 6d 8b be
       0.27674997 0.26320967 0.08870161 -0.27231815
000040 73 b3 0b bd 5e d4 87 be 38 a2 c9 bd 25 64 6e be
       -0.034106683 -0.2652921 -0.09845394 -0.2328039
000050 5e 7e f2 3d d5 d6 bf bd a2 60 9c bd 56 53 90 3e
       0.11840509 -0.09367148 -0.07635619 0.2818858
000060 8e a6 fe 3b 1c a5 62 be ed 36 39 3e cf 4d 47 be
       0.0077713197 -0.22133297 0.18087359 -0.19463275
000070 52 b3 71 be 39 76 14 be 5d ee 83 be 47 aa 80 be
       -0.23603562 -0.14498223 -0.25767794 -0.2512991
000080 c3 f8 9c be 43 55 26 3e 50 4d 16 be 47 ce ee bd
       -0.3065854 0.16243462 -0.1467793 -0.11660438
000090 bf 58 09 3d a6 67 e2 3d 6b c8 52 3e 63 6d c3 3d
       0.0335319 0.110549256 0.20584266 0.09542348
0000a0 93 11 7a bd eb be a0 3e 9b 01 6d be 1c 3b 90 be
       -0.061051916 0.3139566 -0.23145144 -0.28170097
0000b0 50 eb 59 be f4 41 3a 3e d1 78 8b 3e 6d e3 96 bc
       -0.21281171 0.18189222 0.27240613 -0.018418992
0000c0 cd 37 4f bb ac da f6 3d bf b0 41 3e ba 1b be 3d
       -0.0031618953 0.12053427 0.1891508 0.09282632
0000d0 12 d2 39 3e d5 ad 45 3b 13 7c 6c be d4 73 a6 be
       0.18146542 0.0030163426 -0.23094206 -0.32510245
0000e0 d0 ff b6 3e 01 ee b4 3e fc a8 00 3e 2f c6 29 3d
       0.35742044 0.35337833 0.12564462 0.04144877
0000f0 64 4f 54 3d 64 0c 89 3e 92 46 63 3d 6b 37 48 3e
       0.051833525 0.26767266 0.055487223 0.1955239
000100 89 59 12 be 63 61 24 be c1 7b d6 3e 42 1c a2 be
       -0.14291967 -0.16052775 0.41891292 -0.31662184
000110 69 32 f1 bb 99 bb d0 3c 5b e4 9b be 38 24 7a bd
       -0.0073607457 0.025480079 -0.3044766 -0.061069697
000120 3a 31 d9 bd 0a ef 99 3e 74 28 0e 3d 2b b7 cf bb
       -0.10605092 0.30065185 0.034706548 -0.006338974
000130 32 05 2d 3c 5e 7b b0 be 8b c6 d0 bd 69 77 fc bd
       0.010560321 -0.34469122 -0.10194119 -0.12327463
000140 ec 0a 60 3e dc 51 83 be b1 05 c0 bd 26 66 ca bc
       0.21879166 -0.2564839 -0.093760855 -0.024706911
000150 2a d7 6f be f8 d4 0e be c3 35 86 be e6 d1 0e be
       -0.23421922 -0.13948429 -0.26212892 -0.13947257
000160 56 1b 47 be 11 68 0f 3e
       -0.19444022 0.14004542

conv3.0.bias f4 [10]
000000 d6 38 60 be 06 2e e2 3b 71 1e ee bb ff 63 22 bd
       -0.21896681 0.006902459 -0.0072668125 -0.039646145
000010 8a 2a 37 3e b5 cd 77 3e 9b 70 77 3e 66 44 94 3e
       0.17887321 0.24199565 0.2416405 0.28958434
000020 8e 65 0a be 0f 59 80 be
       -0.13515303 -0.25067946

conv3.1.weight f4 [10]
000000 e6 07 85 3f dd da 85 3f e6 90 87 3f 7a bc 83 3f
       1.0393035 1.0457417 1.0591094 1.0291893
000010 11 be 86 3f 91 e6 7e 3f e9 8f 8a 3f c6 1a 8e 3f
       1.0526754 0.99570566 1.0825168 1.1101921
000020 72 4a 93 3f 2e ae 7d 3f
       1.1507094 0.990939

conv3.1.bias f4 [10]
000000 62 a3 13 3b f8 40 d6 bc 56 21 05 3c a7 b8 67 ba
       0.0022527804 -0.026154026 0.008125624 -0.0008839466
000010 15 fe 90 bc f6 c6 9c 3c 6f 3d ad bc a0 b3 69 3c
       -0.01769928 0.01913784 -0.021147458 0.014264017
000020 43 44 05 3c 40 ed 09 bc
       0.008133951 -0.008418381

conv3.1.running_mean f4 [10]
000000 1c 61 76 c0 ca aa 23 bf e8 6c 56 bf 02 65 aa c0
       -3.849677 -0.6393248 -0.8375993 -5.32483
000010 ab 00 f2 bd 3d 47 6a 40 33 35 3c 40 f5 c6 de bf
       -0.11816534 3.660598 2.940747 -1.7404467
000020 27 9f a0 bf d4 b8 8b c0
       -1.254857 -4.366312

conv3.1.running_var f4 [10]
000000 f6 7d 2c 40 ba cb 36 3f 61 09 04 3f bf cc b8 40
       2.695188 0.7140461 0.5157681 5.7749934
000010 4f 52 90 3f 12 93 29 40 76 52 01 40 a6 db a0 3f
       1.1275119 2.6496015 2.020658 1.2567031
000020 4d 7f 0a 3f fa 50 63 40
       0.54100496 3.5518174

conv3.4.weight f4 [20, 10, 9]
000000 9b 54 f1 bd 8c 86 94 3d c6 b5 bb bd c7 81 ba 3d
       -0.11783715 0.07252225 -0.0916553 0.09106784
000010 80 39 69 3d 00 92 52 bd 75 80 af 3d ec 42 34 3d
       0.056939602 -0.051408768 0.08569423 0.044009134
000020 ad c3 96 3d 31 e5 ae 3d 04 72 50 bd e6 83 87 bd
       0.07361541 0.085398085 -0.050889984 -0.066169545
000030 bd fc 4f bd 4e 86 37 bd ab 86 5f b9 d0 e8 90 bd
       -0.05077814 -0.044805817 -0.00021317105 -0.070756555
000040 86 3a f6 3c 15 28 ca 3d a5 a2 d1 bd 46 2c ca 3d
       0.030057203 0.09870926 -0.102361 0.09871726
000050 4b aa 73 bd 01 56 f8 bd 7c 13 a7 bd b2 de d2 3c
       -0.059488576 -0.12125779 -0.08158013 0.025740955
000060 96 e4 ed bd 98 09 4c 3b 7f f9 30 3d 05 62 8c 3d
       -0.11615865 0.0031133648 0.043206688 0.06854633
000070 a0 f3 f0 bd 8b b7 d9 bd 10 76 c6 bd 1d 63 5e 3d
       -0.11765218 -0.10630711 -0.096904874 0.05429374
000080 4b 0d 1a 3d a4 55 c6 3d 1f 90 c8 bd a5 0c c1 bd
       0.037610333 0.096843034 -0.09793114 -0.0942624
000090 1b ee a4 3d dc 2c a1 3c 45 0a e6 3c b4 4a 6a bd
       0.080532275 0.01967471 0.028081069 -0.05720015
0000a0 6a 44 bf 3c ae d2 77 3d 5f c9 43 bd 0b cd ad 3d
       0.023348052 0.060503654 -0.047799464 0.084863745
0000b0 75 0a 76 3a 6f 18 25 3d 78 7e 89 3d 6d 38 c4 bd
       0.00093857135 0.040306505 0.06713575 -0.09581075
0000c0 22 d2 c6 bd d6 65 e8 3c 42 78 a5 bd ae 09 de 3c
       -0.097080484 0.028368872 -0.08079578 0.027104225
0000d0 3e e2 a7 bd 2b 13 84 bd a9 fa f5 3d fb a0 83 3d
       -0.08197449 -0.064489685 0.120107 0.06427189
0000e0 4c 8b ac bc 34 a9 b3 3c cb 15 11 bc 7e 54 e3 bd
       -0.021062516 0.021931268 -0.0088552935 -0.111001
0000f0 87 47 68 3d 48 1a 02 be e4 ce c2 bd 2b ab 8f 3d
       0.05670884 -0.12705338 -0.095121175 0.070150696
000100 ad 40 95 bd 73 51 17 be b5 bf b3 3d 1a 61 b3 bd
       -0.072877266 -0.14777164 0.087767996 -0.08758755
000110 06 8e cc bd 4d f1 af 3d 4b 57 a8 3d 85 61 b4 bd
       -0.09988026 0.08590946 0.08219775 -0.08807663
000120 97 e1 b8 bd f3 de bf 3d cc 6e 60 bd 9c 24 cb bd
       -0.09027403 0.09368696 -0.054793164 -0.09919092
000130 28 e7 22 bc 87 8c 6b 3d 1a 68 d9 3c e2 b6 2e bc
       -0.009942807 0.057507064 0.026538897 -0.01066372
000140 b9 27 e7 bd f7 f6 c8 3c 16 2b 2a 3b 1e 93 5f 3d
       -0.11286873 0.024531825 0.0025965623 0.05458366
000150 9b c3 7b bd 1f 70 8c bd 86 1b 42 3d dd aa 63 3c
       -0.06146584 -0.06857323 0.04738953 0.013895717
000160 a7 f1 87 3d 0a a3 a8 bd 61 da 39 bd c8 b3 10 3d
       0.066378884 -0.08234222 -0.045374278 0.035327703
000170 b7 1e 0f bd 81 67 89 bc 57 eb b4 3d 8e 3a af 3d
       -0.0349414 -0.016772987 0.0883395 0.0855609
000180 b1 55 25 3d c0 4e 51 bd f9 41 b2 3d b7 c4 89 bd
       0.040364925 -0.051100492 0.087039895 -0.067269735
000190 da b8 0a bc 2c 05 8b 3c 14 d8 16 be 8d 51 7f bd
       -0.008466924 0.01697024 -0.14730865 -0.062333632
0001a0 44 c3 2f 3b bc e7 32 bc 4c 57 2e 3d 8a 8a 67 bd
       0.0026819268 -0.010919508 0.04256372 -0.056528606
0001b0 50 3c 8e bd 4e 81 ab bd 0f f4 97 bd 2c 41 51 bd
       -0.069450974 -0.08374272 -0.07419597 -0.051087543
0001c0 bc f6 de bb 20 5c ce 3d 2d 0e e4 bd c9 a1 55 3d
       -0.0068043154 0.10076165 -0.11135516 0.052156243
0001d0 33 65 34 3e df 95 0f be 1e ff ee 3c 87 09 94 bd
       0.1761673 -0.14022015 0.029174384 -0.0722838
0001e0 68 6c 93 bd fb a8 9b 3d df 55 af bd d8 5d fd 3c
       -0.07198411 0.0760059 -0.085613005 0.030928537
0001f0 9c b3 21 bc 8e a9 56 bd b4 1e 3b bd 28 dc 0d be
       -0.009869482 -0.052407794 -0.045683578 -0.13853514
000200 ae c9 dd bd f6 c9 95 3d c2 e3 29 bd ad e3 9c bc
       -0.10829483 0.073139116 -0.041476972 -0.019151533
000210 cc 88 1b 3d 6e 90 6b 3d cc 2b 93 bd 9e 06 23 bb
       0.037972257 0.057510786 -0.07186088 -0.002487577
000220 92 bd 79 bd f1 eb 9d bd de 16 0e bd 49 66 ab bc
       -0.060971804 -0.07711018 -0.034689777 -0.020922797
000230 95 ad 88 3d c5 4f 8c 3d 13 e9 9b 3d a0 21 1e bd
       0.06673733 0.06851152 0.07612815 -0.038606286
000240 ce 2b 63 bd 42 d4 6a 3d dd 4f d3 3d c9 c7 0b 3e
       -0.055461697 0.05733133 0.10317967 0.1365043
000250 95 cf 62 3d 52 23 b0 bd 80 f5 75 3d 9b 4f b4 bd
       0.055373747 -0.08600487 0.06004858 -0.08804246
000260 aa 53 a2 3d 19 17 85 bd 0a 9e b4 bb 53 ca 48 3c
       0.07926114 -0.06498546 -0.005512004 0.012255269
000270 d7 3a a5 bb 12 86 ef bd d4 31 e3 3d 1f 58 94 bd
       -0.0050424146 -0.11695494 0.11093488 -0.0724337
000280 07 e5 20 3e 82 5b b6 bc d9 36 e6 bb f0 f3 1f bd
       0.15712367 -0.022260431 -0.0070255813 -0.039050996
000290 15 cd 93 bd 5f f1 2a be 18 a9 51 3c 63 b9 5c bd
       -0.07216851 -0.16693638 0.012796663 -0.053887736
0002a0 0e f4 d4 3c 83 c5 e2 3d ca 6a ca bd 2b a1 5c 3d
       0.02599528 0.110728286 -0.0988365 0.05386464
0002b0 56 90 52 3b 73 06 16 be e1 32 0e be 2b 32 85 bc
       0.0032129488 -0.14650898 -0.13886596 -0.016259274
0002c0 58 07 94 3d 74 56 b3 3d 0f 6e 7c 3d dc dd fe bc
       0.07227963 0.08756724 0.061628398 -0.03111165
0002d0 a7 e8 39 3d 84 e5 2a 3d 84 08 93 3c 46 30 62 bd
       0.04538789 0.04172279 0.017948397 -0.05522182
0002e0 9f 3f 48 3c 9a df 29 3d bc 75 51 bd 3c b2 da bd
       0.0122222 0.04147301 -0.05113767 -0.10678527
0002f0 18 12 3f 3b be fc 8a bd 33 d4 62 bd b7 3d 21 be
       0.0029155072 -0.06786488 -0.05537815 -0.15746199
000300 69 c1 42 3c 63 77 e3 bd 87 82 a6 3d 94 79 e0 3d
       0.011886933 -0.111067556 0.08130365 0.10960689
000310 bd fc 89 3d 62 b7 1f 3d 01 f1 2c 3d 36 8a 57 3d
       0.06737659 0.038993247 0.042222027 0.052622043
000320 5f 7c 4b bd 7d 16 35 bd 12 32 44 bb ec b0 e3 3d
       -0.049679156 -0.0442109 -0.002993707 0.111177295
000330 98 78 82 3d 3a 85 1c bd 35 90 a6 bd 7f e9 01 3e
       0.06370658 -0.038212992 -0.08132974 0.12686728
000340 8d b2 af ba 5c 92 a4 3d aa f8 3d bc db 94 b5 bd
       -0.0013404653 0.08035728 -0.011594931 -0.088662826
000350 31 e4 64 bc 32 54 d3 bd 49 4a 8c bd f0 12 f6 bd
       -0.013970421 -0.10318793 -0.06850106 -0.12015331
000360 7d 56 15 be ba f0 b7 bd 11 53 66 bd 6a 02 00 3d
       -0.14583774 -0.08981462 -0.056231562 0.031252302
000370 98 a2 d5 bb f7 bc 96 3d 28 95 51 bc 41 13 26 3d
       -0.006519627 0.07360261 -0.012791909 0.040545706
000380 50 7c a4 bd fb be fb bc 9f e5 d3 bc d4 ea a1 bb
       -0.08031523 -0.030730715 -0.025866328 -0.004941324
000390 fe dd b9 bd ec 47 8e 3d a1 7d 95 3c b8 82 e3 bd
       -0.09075545 0.06947312 0.018248381 -0.11108917
0003a0 95 2e 2b bd 72 a0 95 bd d9 5e 0c be 20 6b 52 3d
       -0.04179247 -0.07305993 -0.13708057 0.051371694
0003b0 16 3e 0f 3b ee 73 dd 3d 2f 9a e2 bc 18 9d e3 bd
       0.0021857074 0.108131275 -0.027661411 -0.11113948
0003c0 ae dd 52 bd 56 07 1d bd 99 f4 19 bd 27 a7 cf bc
       -0.05148094 -0.038337074 -0.037586782 -0.02534826
0003d0 8d f0 15 bb fa 18 a4 3d 93 e1 e7 bd c8 ba 42 bd
       -0.0022878975 0.080125764 -0.11322322 -0.04754141
0003e0 e2 ac 22 bd e4 81 91 3b eb 1c 01 3e 3c 5d cb bb
       -0.039715655 0.004440533 0.12608688 -0.0062061828
0003f0 bf 0f 15 bd a8 b7 40 3d f6 d4 a7 3d ae fd 0d be
       -0.03639197 0.04705015 0.08194916 -0.13866302

conv3.4.bias f4 [20]
000000 c8 0f df bd 4f 34 af bb 93 54 9e bd 6a 2c d0 3d
       -0.10891682 -0.005346812 -0.07730975 0.10164721
000010 07 73 5a 3d 41 c5 3a bb 32 90 b9 bd ea 0e b7 3d
       0.053332355 -0.002849892 -0.09060706 0.089383915
000020 ef 63 f9 bb 43 eb da 3b e4 a8 84 bd e5 19 bd 3c
       -0.00761079 0.0066808774 -0.06477526 0.023083637
000030 bf 08 b7 3c ae 1d 66 bd 71 25 a5 bc 7a d9 b6 bc
       0.022343038 -0.05618065 -0.020159455 -0.022320498
000040 7e 14 90 bd 0e d7 12 3d cf bc 2d 3d b3 9b 1f 3d
       -0.070351586 0.035849623 0.04241639 0.038966846

conv3.5.weight f4 [20]
000000 9b a3 82 3f af f2 86 3f 94 1f 85 3f 41 77 80 3f
       1.0206178 1.0542811 1.0400262 1.0036393
000010 9d 08 84 3f 99 b8 86 3f 18 64 7f 3f 41 1d 7b 3f
       1.0315129 1.0525085 0.99762106 0.9809151
000020 73 64 81 3f b5 22 86 3f f9 a3 83 3f 86 6d 80 3f
       1.010878 1.0479342 1.0284415 1.0033424
000030 50 ac 7f 3f e4 57 85 3f fa df 80 3f 16 69 84 3f
       0.99872303 1.0417447 1.0068352 1.034457
000040 a2 ad 82 3f 97 9f 83 3f b7 41 82 3f 63 d7 81 3f
       1.0209239 1.0283078 1.0176305 1.0143856

conv3.5.bias f4 [20]
000000 f4 66 3a bc ce 80 08 bc 9b 53 6c bb 46 a5 28 ba
       -0.011377085 -0.008331491 -0.0036060575 -0.0006433319
000010 65 d8 95 bb a0 1a 35 bc b9 cd 00 bc fc 32 11 bc
       -0.0045729154 -0.011053711 -0.007861548 -0.008862253
000020 ea f9 25 bc a4 9c 93 3b 26 ba 0a bb 36 a0 76 bb
       -0.010130385 0.004504757 -0.0021168082 -0.0037632114
000030 e3 82 20 bc df ba 2f 39 88 9d 25 bc f5 81 d0 bb
       -0.009796831 0.00016758915 -0.010108359 -0.0063631483
000040 f2 52 b3 ba d6 ed cb 3b 43 82 74 3b f6 8d e8 bb
       -0.0013681336 0.0062234206 0.0037309087 -0.007097001

conv3.5.running_mean f4 [20]
000000 8b c4 3d be 68 0d cd bd 5e 12 9f be 05 47 3b bd
       -0.18532006 -0.10012323 -0.310687 -0.045722026
000010 9c ec 96 3d 4d 25 f6 bd fb 0d 8e 3e 54 5c b4 bd
       0.073693484 -0.12018833 0.2774504 -0.08806673
000020 a1 ba bd 3d e5 f4 70 3e b1 42 eb 3d 8f 26 8e 3d
       0.09264112 0.2353092 0.1148733 0.06940948
000030 c7 b3 5a bc 47 91 7d be c0 82 9b be 73 a0 a3 bd
       -0.013348526 -0.2476245 -0.30373192 -0.07989588
000040 cc 50 30 be b8 37 de bd e4 8d 9d 3d 89 ed a2 3b
       -0.17218322 -0.10850471 0.07693079 0.004972164

conv3.5.running_var f4 [20]
000000 8b 49 2e 3e 22 4b 01 3e 1a c7 0b 3e 66 62 14 3e
       0.17020242 0.12626317 0.1365017 0.14490661
000010 60 0b 50 3e f1 86 08 3e e9 3e 4d 3e 3b 36 33 3e
       0.20316839 0.13332726 0.2004353 0.17501156
000020 8d d4 47 3e dc bc 20 3e ef ec ff 3d 02 34 47 3e
       0.19514675 0.15697044 0.12496363 0.19453433
000030 23 0d 05 3e 8b 89 2b 3e aa 38 38 3e 5b 42 e3 3d
       0.12993293 0.16751687 0.17990366 0.11096641
000040 8c de 13 3e 22 b7 0e 3e 95 94 f2 3d 71 b9 37 3e
       0.14440364 0.13937047 0.11844746 0.17941834

mlp.1.weight f4 [64, 60]
000000 99 05 b0 bc bd 76 67 bd 45 a4 a5 3d 8d 12 bc bd
       -0.021487044 -0.056509722 0.080879726 -0.09183226
000010 fc 9b ee bc 1a e4 9b bd d7 bb 04 be 76 b4 f5 3d
       -0.029127114 -0.07611866 -0.1296228 0.11997311
000020 10 87 d9 3d ca eb eb bd 43 d9 f5 3d ec 3c 30 3d
       0.10621464 -0.115195826 0.1200433 0.04302685
000030 0f 54 88 3c c9 49 1b 3b e8 cc 7a 3d 3e c8 8a bd
       0.016641645 0.0023695102 0.06123057 -0.067764744
000040 45 48 18 bd ac 35 db bd 5e ed a6 3c f4 b0 05 be
       -0.037178297 -0.107035965 0.020376857 -0.13055784
000050 d5 22 c4 bd e0 d8 8d bd 74 eb d4 bd 3a b6 dd bd
       -0.09576956 -0.06926131 -0.103964716 -0.108257726
000060 36 1c 3f bd 83 5d b5 3d fb b7 e8 3d 62 71 6f 3d
       -0.046657763 0.088557266 0.113632165 0.05845774
000070 4b 8e 0a bc ef 93 f0 3d dc c4 be 3d f2 85 72 bd
       -0.008456777 0.11746966 0.09314892 -0.05920977
000080 a5 f3 f6 bd 31 b9 2f 3c 53 d9 5b bb 05 dd 99 bd
       -0.1205819 0.010725305 -0.0033546283 -0.07512859
000090 8f 8f 84 bd 8d 82 cc bd 83 80 58 3d 24 4f ee bd
       -0.06472694 -0.09985838 0.052856933 -0.116361886
0000a0 ad be a1 3d 2a 77 61 3d fd e7 e3 bd 1f 86 a0 ba
       0.07897697 0.055045284 -0.11128233 -0.0012247002
0000b0 2f 9f c9 3d c4 14 48 3d 12 a3 f7 bd c8 a7 7a bd
       0.09844815 0.04884793 -0.1209165 -0.061195165
0000c0 98 40 aa 3d 14 e6 c6 3d c3 75 7d bd b0 62 50 3d
       0.083131015 0.09711853 -0.061879884 0.050875366
0000d0 51 e9 84 bc 27 6c f8 3d 0b d4 bd bd 6b a4 63 3d
       -0.016224535 0.121300034 -0.092689596 0.055576723
0000e0 bd 49 37 3d cd 83 06 3d 79 22 23 bd df 94 c2 bd
       0.044748057 0.03284054 -0.039827798 -0.09501051
0000f0 16 84 33 3c 65 f6 4e 3c ab 65 11 3c 7d 88 d9 3d
       0.010956785 0.012631987 0.008874337 0.10621736
000100 0b cc a6 3c e2 b8 53 3c 4e 3e 0e 3e 53 ea 71 3d
       0.020360967 0.0129224975 0.13890955 0.05906136
000110 6b 79 0a be c6 f9 80 bd f8 28 f8 3d f9 6d 85 bd
       -0.1352288 -0.062976405 0.12117189 -0.06515116
000120 93 89 d0 bd 88 53 46 3d d0 66 80 bc 5a 7f a6 3d
       -0.1018249 0.048419505 -0.015674025 0.08129759
000130 a8 30 34 3e 7a 3b cc 3d 7a 12 d1 bc 47 51 65 bb
       0.17596686 0.09972282 -0.025521506 -0.0034991072
000140 f0 9a c1 bd 86 d1 61 bd 25 a6 23 3e d8 c7 1f 3d
       -0.0945338 -0.055131458 0.15981348 0.039008945
000150 a8 a3 1d be 8a 59 a9 bd f4 ca 24 be 71 69 52 3c
       -0.15394461 -0.08269031 -0.16093045 0.012842522
000160 b2 fd b7 bc af 6f 4c bd ae 43 28 3d d0 76 28 3d
       -0.022459839 -0.049911197 0.04108017 0.041128933
000170 bc a7 da bb ba cf 31 bd 5d db 0c 3e 77 78 c8 bd
       -0.0066728275 -0.043410994 0.13755555 -0.09788602
000180 db 71 80 3d f8 0d f9 bd b5 3e 84 bb 53 40 ac 3d
       0.06271716 -0.121608675 -0.0040357956 0.08410706
000190 cf c0 9a 3d 02 fa 4a bc fe 08 40 bd d4 df 03 be
       0.075563066 -0.012388708 -0.046883576 -0.12878352
0001a0 03 83 a9 3d 02 92 2a be 51 06 d4 bc 8a ed 24 bc
       0.082769416 -0.1665726 -0.025881918 -0.010066399
0001b0 d2 8a 20 bd 7d b0 fb 3d 92 89 1e 3e bc db 80 bd
       -0.03919489 0.12289522 0.15482166 -0.06291911
0001c0 3d 40 05 3e e7 66 59 3b 8f 4d 34 bd e4 fe db bd
       0.13012786 0.0033172907 -0.04401928 -0.10741976
0001d0 da 85 81 bd 85 2f 03 3d 14 be 22 bd 32 78 29 3e
       -0.06324358 0.03202774 -0.039732054 0.16549757
0001e0 a7 d6 f7 bd f4 08 5b bd e5 47 62 bd 5c 91 c9 3b
       -0.121014886 -0.053475335 -0.055244345 0.0061513614
0001f0 8c 79 a4 3c f8 e9 17 bd 7c 67 63 bc b6 28 6d bc
       0.02007749 -0.037088364 -0.013879653 -0.014475038
000200 c7 63 f5 3c 12 5d 0f 3d 98 77 cc 3d 5e 8c 00 be
       0.029954804 0.03500087 0.09983748 -0.12553546
000210 f6 a4 ce bd e2 71 af 3d 4d b8 be 3d e0 b9 e7 bc
       -0.100900576 0.08566643 0.09312496 -0.028286874
000220 44 b6 cb bd 54 ea 0b 3e 72 a4 db 3d 02 bd 0d 3d
       -0.09946874 0.13663608 0.10724725 0.03460408
000230 04 cd d6 3d 81 59 52 3d d8 8a 09 be f5 04 c5 bc
       0.104883224 0.05135489 -0.13431871 -0.024050215
000240 40 70 ac 3d f8 fc fd 3c 98 5e b6 bd ee 44 09 3d
       0.084198475 0.031004414 -0.08904761 0.033513002
000250 b8 8f 88 bd 8c 0d b4 bd 0f 5c 04 be cd 1c da 3c
       -0.06668037 -0.08791646 -0.12925743 0.026625061
000260 d3 7d e0 3d 50 ba 4b 3d 96 ec e5 3d 23 00 56 bd
       0.10961499 0.04973823 0.11226766 -0.052246224
000270 29 88 cd 3d 43 eb 2a 3d ce 4a 87 bd 04 af 87 3b
       0.10035736 0.04172827 -0.06606065 0.0041407365
000280 b2 d8 97 bc 36 59 5b bd e3 4b 81 3d a3 3c b3 bb
       -0.018535946 -0.053551875 0.06313302 -0.005469875
000290 5b 96 a9 bd 38 b7 b4 bd 6b 57 3a bc 82 bf 81 3d
       -0.08280631 -0.08824009 -0.011373381 0.06335355
0002a0 39 d9 81 bd d8 2f 88 3c d0 d9 1f 3d 83 55 6f bc
       -0.0634026 0.016624376 0.03902608 -0.01460779
0002b0 7b 90 36 bd 48 da dc bd f4 43 b7 bd e0 b6 1c bd
       -0.04457138 -0.10783821 -0.08948508 -0.03826034
0002c0 88 80 00 bd d9 6f 23 3c 69 68 05 3e f1 db 52 3d
       -0.031372577 0.009975397 0.1302811 0.051479284
0002d0 7c 77 b1 3c fa 55 b0 3d cf b6 0f be 5c 2c f3 3d
       0.02166342 0.08610149 -0.1403458 0.11873695
0002e0 27 ab 11 3d 7c 55 f7 bc 7a 6e a0 bc 74 82 0b 3e
       0.035563614 -0.03019213 -0.01958393 0.13623983
0002f0 03 49 91 bd 6a b3 76 bc aa 5b 86 bd c5 e5 f1 3d
       -0.07094004 -0.015057424 -0.06560452 0.11811403
000300 06 3b de bc a6 4e d4 3d 32 64 a0 3c 02 91 8f 3d
       -0.027127754 0.103665635 0.019579027 0.0701008
000310 66 a2 ba bd 21 d9 b2 bd 66 2b d7 3d 66 da 93 3d
       -0.09113006 -0.0873282 0.105063245 0.072193906
000320 8b d8 ca 3d b7 40 cf 3d 0d 86 f7 bd 29 9c c0 3d
       0.099045835 0.10119765 -0.12086115 0.09404785
000330 8d 01 bc 3c 61 a1 e2 bb 27 81 a6 3d 44 b2 53 bb
       0.022949958 -0.0069162105 0.081301026 -0.00323023
000340 36 e3 eb 3d d4 91 07 3e d3 20 54 3d c2 32 04 3e
       0.115179464 0.13239223 0.051789116 0.12909988
000350 61 74 bf 3d eb 37 f0 bc 05 9e ed bd 29 4f 08 be
       0.093483694 -0.029323539 -0.116024055 -0.13311447
000360 cb 38 08 be f9 92 c1 3d 0a 3c 01 3e 82 39 86 bd
       -0.13302915 0.09451861 0.1262056 -0.065539375
000370 7c c5 71 bd 0b 95 86 3d 5d 09 23 be 77 9a 9a bd
       -0.059026226 0.065713964 -0.1592154 -0.07548993
000380 08 17 33 bc 56 02 35 3c 22 39 06 3d 20 92 b5 3d
       -0.010930784 0.01104792 0.03276933 0.08865762
000390 df ac 7e bd 5d 40 ce bd 6e 80 b6 3d 64 e4 04 3e
       -0.06217658 -0.1007087 0.08911215 0.12977749
0003a0 23 2b 0f be d9 68 e5 bd cc f1 e1 3c 79 fd 00 3d
       -0.13981299 -0.11201639 0.027581118 0.03149173
0003b0 ef e6 5e 3d a3 3a fa 3c a1 ca 6f 3d 14 5d 8d 3d
       0.054419454 0.030545538 0.05854285 0.06902519
0003c0 f1 4e 18 bd ed c8 ca bd 60 69 72 3d 9a a7 24 bb
       -0.03718466 -0.09901605 0.059182525 -0.0025124312
0003d0 86 ac 25 bd fe 5c 6e 3d c2 98 d0 bd 21 ce 5a 3d
       -0.040447734 0.058194153 -0.10185386 0.053419236
0003e0 b2 1d a1 bd 77 9b 75 3d 32 14 75 bd 58 e4 9a bc
       -0.07866992 0.059962716 -0.059833713 -0.01890771
0003f0 8f 2f c1 ba bc 0f e4 3c 6d bf 49 3d 7b a6 91 3b
       -0.0014738905 0.027839534 0.049254823 0.004444895

mlp.1.bias f4 [64]
000000 fc be be bb e2 3b ce bd fb 22 65 bd 0b cf b2 3d
       -0.005821107 -0.100700155 -0.055941563 0.087308966
000010 fa 3e be 3d 79 e9 09 3d 9d 1c e6 bb a8 d8 57 3b
       0.092893556 0.033669923 -0.007022454 0.0032935534
000020 1a 7b 2f bb 9d 94 87 3d 4e f9 8b bc 73 b8 4b 3d
       -0.0026776255 0.066201426 -0.017086651 0.04973645
000030 be 6a 02 3e b0 1d 23 bd ef a8 e0 3c b7 28 00 3e
       0.12736031 -0.039823234 0.027424304 0.12515531
000040 ef 4b 9b 3d 9e f3 df 3d 52 56 93 3d 74 c2 d5 bd
       0.075828426 0.10935138 0.07194199 -0.104374796
000050 74 3f d6 3d 52 b8 8a 3d 45 29 09 be 07 66 ba bd
       0.104613215 0.067734376 -0.1339465 -0.091014914
000060 70 0f 7e bd be fb c9 bb db da 2a 3b cb c0 a8 3d
       -0.06202644 -0.006164043 0.002607039 0.08239897
000070 67 3d 0a 3d 40 e2 25 3d 1e 76 0a 3c a3 b2 b7 3c
       0.033749964 0.040498972 0.008451013 0.022424048
000080 9e 3e ad 3d c8 f7 97 3c 7a 0a 8c bd 2d ee c5 3d
       0.08459209 0.018550768 -0.06837936 0.09664569
000090 84 b0 7f 3d 2a 76 13 bd eb d6 ae bd 49 aa 01 bd
       0.062424198 -0.036001362 -0.08537086 -0.031656537
0000a0 84 3d 88 bd 0f b5 be 3d d1 e3 c4 3c 84 c0 08 3c
       -0.06652358 0.09311878 0.024034413 0.008346681
0000b0 7b 88 ee 3d 6a 75 4c 3b e6 c2 38 3d 2e 78 ee 3b
       0.11647125 0.0031197914 0.045107745 0.00727751
0000c0 5a 62 b6 bd 42 95 c6 bc 9b b2 b0 3d 90 e8 a3 3c
       -0.08905478 -0.024241094 0.08627816 0.020008355
0000d0 18 3d e9 bd 4b 98 c2 3d 49 93 7a bb 2c 8c 8f bd
       -0.11388606 0.09501704 -0.0038234761 -0.070091575
0000e0 08 77 3f bd 05 11 fb 3b 79 fc 39 bc 65 fc aa 3d
       -0.046744376 0.007661941 -0.011351698 0.08348922
0000f0 ab 6a 60 bd 75 2d 2d 3d 9f 15 f6 3d e5 65 86 bd
       -0.054789227 0.04227968 0.12015843 -0.065624036
