model/edp_k4_model.ckpt (torch, 46683 bytes, 40 tensors)

conv1.0.weight f4 [10, 1, 3]
-0.5347613 -0.40481392 0.40130603 0.11379723 -0.3146284 -0.46290764 0.027639125 -0.5505965
0.35654163 -0.34640968 -0.38939714 0.17607722 -0.10155603 0.08391787 -0.4227778 -0.07905453
0.03258021 -0.31761885 -0.27742624 -0.15964673 0.43259144 0.15724117 -0.2606844 0.2682474
-0.5085715 -0.39319327 -0.47627822 -0.42154345 -0.058257334 0.57584
00000000: 1ee6 08bf c543 cfbe fc77 cd3e 860e e93d
00000010: f916 a1be 3b02 edbe 726b e23c e4f3 0cbf
00000020: a08c b63e 9c5c b1be 105f c7be 964d 343e
00000030: 9cfc cfbd 22dd ab3d 5576 d8be 57e7 a1bd
00000040: d472 053d f09e a2be d00a 8ebe 6f7a 23be
00000050: a07c dd3e d403 213e 6d78 85be b957 893e
00000060: be31 02bf a150 c9be bdda f3be 8bd4 d7be
00000070: 3e9f 6ebd 406a 133f

conv1.0.bias f4 [10]
-0.20002384 -0.08812802 0.10211283 -0.19758259 -0.31505233 -0.55893457 -0.279032 0.49559233
-0.02335958 0.54251033
00000000: 0dd3 4cbe 777c b4bd 8820 d13d 1753 4abe
00000010: 8a4e a1be 5616 0fbf 48dd 8ebe 47be fd3e
00000020: 975c bfbc f5e1 0a3f

conv1.1.weight f4 [10]
0.9765692 1.0163887 1.056772 1.0154214 1.0004673 0.96341336 0.97576994 1.0163481
0.9660167 1.0633572
00000000: 7000 7a3f 0619 823f 4e44 873f 54f9 813f
00000010: 500f 803f 42a2 763f 0fcc 793f b217 823f
00000020: df4c 773f 171c 883f

conv1.1.bias f4 [10]
-0.00082414283 0.0034091 0.015194151 -0.013043609 0.015311876 -0.00995092 -0.034756895 -0.06327521
-0.017940763 0.007268465
00000000: 4a0b 58ba 356b 5f3b e3f0 783c ddb4 55bc
00000010: aade 7a3c 2f09 23bc 3f5d 0ebd 6f96 81bd
00000020: 82f8 92bc 4e2c ee3b

conv1.1.running_mean f4 [10]
-2.425189 -2.35398 -0.9294736 -2.0038412 -1.8182251 -1.9815483 -0.44740626 1.2103839
-5.5173407 0.73871243
00000000: 4c36 1bc0 9ca7 16c0 fbf1 6dbf ef3e 00c0
00000010: 9abb e8bf 60a3 fdbf 6f12 e5be dced 9a3f
00000020: 0e8e b0c0 421c 3d3f

conv1.1.running_var f4 [10]
1.6257594 1.2084341 0.4855185 0.8447541 0.6354518 0.51362145 0.4530736 0.26687038
5.795123 0.7499083
00000000: e218 d03f f8ad 9a3f e195 f83e ce41 583f
00000010: f8ac 223f b27c 033f 43f9 e73e 3ca3 883e
00000020: a671 b940 fef9 3f3f

conv1.4.weight f4 [20, 10, 3]
0.013851391 0.034404237 0.06424668 0.034408942 0.04107356 -0.166095 -0.19711427 -0.14249903
0.011973477 0.0010018467 -0.14727479 0.12310426 0.049729552 -0.039448794 -0.27747083 0.17857131
-0.06906441 -0.1744975 -0.07895639 0.00016051577 0.11676354 -0.023800505 0.15266186 0.0033121775
0.0021047292 0.11712888 -0.011379479 -0.27291346 0.029342785 0.116892226 0.106510445 -0.14189982
-0.07367494 0.01082564 0.14505316 0.0957874 -0.115045056 -0.14596215 -0.10669136 -0.13162139
-0.05809305 0.15353082 -0.09725063 0.15440543 0.10840895 0.06305796 0.011800646 -0.107861824
0.057748195 -0.22196883 -0.16748688 -0.17431752 -0.08892823 0.17873803 -0.13946833 0.11100498
-0.014113434 0.092810795 -0.567934 -0.24377698 -0.15182899 0.047863275 0.016294956 0.04753986
0.15706237 0.13761948 0.0808938 -0.08552021 -0.22829518 -0.121618986 0.16381034 -0.11179128
-0.050384622 0.13746865 -0.07710794 -0.19388978 -0.024814079 -0.17163967 0.11990476 -0.09304274
0.12758769 -0.17865996 0.06535195 -0.15480481 0.14278612 -0.12918665 0.01288703 -0.020320555
0.14531006 0.02236961 0.16513272 -0.12474659 0.038786996 0.0053204847 0.055260632 0.14649686
-0.08768074 -0.051326763 0.07974022 -0.073444724 0.0648593 0.08876245 0.111457355 -0.046991277
0.092585266 -0.019358508 -0.09991478 -0.06275672 -0.2750644 0.10851581 0.029239144 -0.019619426
0.1864012 0.1446555 -0.041047707 -0.039515615 -0.1047414 0.0064265137 -0.22402446 0.09016242
0.040892772 -0.1541966 0.067560144 0.04916639 0.12896086 0.1765342 -0.034498136 -0.044418268
0.03184058 0.15029624 0.019670067 0.025044698 0.12145467 -0.106523804 -0.013464493 0.02851527
-0.17802864 0.12211968 0.089724965 -0.14026845 -0.11698412 0.05874519 0.09265522 -0.08038773
-0.11116071 -0.12420215 -0.17692782 -0.07935961 -0.16824879 -0.023219647 -0.0022430632 -0.07779346
-0.1327725 0.04889899 -0.10167962 -0.1392124 -0.09269467 0.22216447 -0.07097863 -0.19431421
-0.04444009 -0.039848316 -0.15345256 -0.027594022 0.04203852 -0.1303467 -0.088389486 0.1791315
-0.23997232 -0.08393898 0.12256026 -0.052455753 -0.026566504 -0.009680733 0.059125114 0.08359535
0.0039915 -0.20443192 -0.17980458 0.029958101 -0.13127404 0.13783222 -0.09555069 -0.1795219
-0.090388216 0.13361512 -0.14366323 -0.18411683 -0.066112116 -0.054326925 0.043679565 -0.06174825
-0.029887281 0.07833098 0.14714867 0.120423414 0.11722319 0.042692643 -0.14625901 0.074057944
-0.122892395 -0.06336736 0.23668209 -0.05281886 0.14677949 -0.18432692 0.055292875 -0.051490396
-0.0279156 -0.09388702 -0.17580567 0.10026068 -0.108779274 -0.09988361 -0.13108264 0.08034398
-0.15189037 -0.0058311047 0.009240023 0.019583369 0.17142294 0.0461675 -0.067728825 -0.1019749
-0.16315992 0.08743239 0.06027101 -0.10036625 -0.0032177859 0.00036144356 0.01869546 0.018410698
-0.066080235 0.046190847 0.14206076 0.13536522 -0.10183048 0.06453752 0.15970498 -0.1593444
-0.17383498 0.056747273 -0.09713177 0.16690817 -0.09315477 -0.15679093 -0.14929558 0.09204489
-0.10048692 0.089094825 0.19222213 0.029107116 0.17545481 -0.039861422 0.056263525 -0.12511931
00000000: f2f0 623c 75eb 0c3d c393 833d 64f0 0c3d
00000010: c03c 283d cf14 2abe 53d8 49be 44eb 11be
00000020: 672c 443c 6650 833a 34cf 16be 161e fc3d
00000030: 37b1 4b3d 0f95 21bd a810 8ebe 66db 363e
00000040: a471 8dbd 79af 32be e3b3 a1bd 2050 2839
00000050: b921 ef3d 47f9 c2bc 6453 1c3e 1e11 593b
00000060: 7fef 093b 44e1 ef3d ff70 3abc 50bb 8bbe
00000070: 4860 f03c 3165 ef3d 2622 da3d 304e 11be
00000080: e3e2 96bd 065e 313c d188 143e 2f2c c43d
00000090: be9c ebbd 1a77 15be 0081 dabd c2c7 06be
000000a0: faf2 6dbd 2f37 1d3e 572b c7bd 751c 1e3e
000000b0: 8305 de3d 8824 813d 7f57 413c a9e6 dcbd
000000c0: 5f89 6c3d cc4b 63be ae81 2bbe 4b80 32be
000000d0: 0120 b6bd 1a07 373e c9d0 0ebe 9456 e33d
000000e0: 083c 67bc 9613 be3d 1f64 11bf aca0 79be
000000f0: 0f79 1bbe 480c 443d 007d 853c 28b9 423d
00000100: f5d4 203e 1fec 0c3e a6ab a53d 3825 afbd
00000110: 36c6 69be 6013 f9bd e6bd 273e d4f2 e4bd
00000120: 1b60 4ebd 95c4 0c3e c5ea 9dbd 0b8b 46be
00000130: e546 cbbc 4fc2 2fbe a090 f53d 318d bebd
00000140: 59a6 023e a3f2 36be 3ed7 853d 2785 1ebe
00000150: 8636 123e 8149 04be 1f24 533c 4b77 a6bc
00000160: 29cc 143e 7940 b73c 8d18 293e 247b ffbd
00000170: 1ddf 1e3d 7657 ae3b f958 623d 4603 163e
00000180: f691 b3bd 033c 52bd d74e a33d 306a 96bd
00000190: f4d4 843d 16c9 b53d c143 e43d ed79 40bd
000001a0: 589d bd3d bc95 9ebc 1fa0 ccbd 9886 80bd
000001b0: 3ed5 8cbe 893d de3d ee86 ef3c ebb8 a0bc
000001c0: f5df 3e3e 9220 143e a421 28bd 20db 21bd
000001d0: a982 d6bd 8195 d23b ab66 65be 13a7 b83d
000001e0: 2e7f 273d b7e5 1dbe f95c 8a3d b262 493d
000001f0: 510e 043e 62c5 343e eb4d 0dbd eeef 35bd
00000200: 456b 023d 42e7 193e 1f23 a13c 8a2a cd3c
00000210: 3abd f83d 2729 dabd 2d9a 5cbc db98 e93c
00000220: 244d 36be e219 fa3d b9c1 b73d 88a2 0fbe
00000230: 5f95 efbd cc9e 703d 05c2 bd3d 52a2 a4bd
00000240: 3aa8 e3bd b25d febd 912c 35be 4b87 a2bd
00000250: 6949 2cbe 2137 bebc 5b00 13bb 2d52 9fbd
00000260: 84f5 07be 4f4a 483d 683d d0bd b28d 0ebe
00000270: b4d6 bdbd 157f 633e 3e5d 91bd 4efa 46be
00000280: d006 36bd fd37 23bd ab22 1dbe dc0c e2bc
00000290: 9530 2c3d 9b79 05be 8c05 b5bd 3f6e 373e
000002a0: 4ebb 75be 33e8 abbd e000 fb3d d8db 56bd
000002b0: ffa1 d9bc f09b 1ebc 2d2d 723d 0a34 ab3d
000002c0: 21cb 823b 9a56 51be b11e 38be b16a f53c
000002d0: b46c 06be e423 0d3e 15b0 c3bd 97d4 37be
000002e0: 751d b9bd 67d2 083e 741c 13be 1f89 3cbe
000002f0: ca65 87bd e985 5ebd 58e9 323d bceb 7cbd
00000300: 2cd6 f4bc fe6b a03d 24ae 163e 8da0 f63d
00000310: b612 f03d 7bde 2e3d ecc4 15be b1ab 973d
00000320: 02af fbbd bfc6 81bd ca5c 723e 9758 58bd
00000330: 5d4d 163e 32c0 3cbe c87a 623d 98e7 52bd
00000340: 42af e4bc d747 c0bd 6706 34be 7955 cd3d
00000350: abc7 debd c78f ccbd 873a 06be 628b a43d
00000360: 2689 1bbe da12 bfbb 7763 173c 4d6d a03c
00000370: 7f89 2f3e 221a 3d3d 69b5 8abd 37d8 d0bd
00000380: 6513 27be c10f b33d bcde 763d d28c cdbd
00000390: 7de1 52bb 2280 bd39 3927 993c 08d2 963c
000003a0: 1355 87bd 9d32 3d3d 6078 113e 2e9d 0a3e
000003b0: 808c d0bd 3f2c 843d b489 233e 2e2b 23be
000003c0: cc01 32be d46f 683d 05ed c6bd fae9 2a3e
000003d0: eec7 bebd cd8d 20be f1e0 18be 0882 bc3d
000003e0: 16cc cdbd 5977 b63d e1d5 443e 0c72 ee3c
000003f0: 6daa 333e bb45 23bd 9574 663d 471f 00be

conv1.4.bias f4 [20]
-0.063930735 0.05328182 -0.026548639 -0.03113536 -0.11339195 -0.031699754 -0.026757676 -0.075784564
0.0037428117 -0.058564615 -0.03186333 -0.048472036 0.04278759 0.050004557 0.16461352 0.15890247
-0.061245833 0.13186106 0.13600922 -0.027557326
00000000: 1eee 82bd 0a3e 5a3d 887c d9bc 950f ffbc
00000010: 0a3a e8bd 9ad7 01bd ea32 dbbc f034 9bbd
00000020: f649 753b 73e1 6fbd 2083 02bd 9d8a 46bd
00000030: 0a42 2f3d 94d1 4c3d 7290 283e 54b7 223e
00000040: e9dc 7abd 9606 073e 0046 0b3e e7bf e1bc

conv1.5.weight f4 [20]
0.99576867 1.0053818 0.98696876 0.9809197 0.9648825 1.0460513 0.968083 0.97536004
1.0307103 0.9592592 0.9799173 0.9844842 1.0129305 1.0030936 0.985131 0.9968925
0.9996686 1.0056505 1.0219527 0.9877767
00000000: b2ea 7e3f 5ab0 803f fca9 7c3f 8e1d 7b3f
00000010: 8a02 773f 02e5 853f 4ad4 773f 32b1 793f
00000020: 51ee 833f 0392 753f dcdb 7a3f 2807 7c3f
00000030: b5a7 813f 5f65 803f 8c31 7c3f 5934 7f3f
00000040: 48ea 7f3f 28b9 803f 59cf 823f efde 7c3f

conv1.5.bias f4 [20]
-0.009348169 -0.0037183745 -0.007950865 0.00072216726 6.498793e-05 -0.003066756 -0.008881771 -0.004823468
-0.016366186 -0.033321638 -0.023672575 -0.013960625 0.004993743 -0.0135429995 0.009300203 -0.007387826
-0.01175739 0.00472943 -0.015976258 0.0051568043
00000000: 1029 19bc f9af 73bb 5844 02bc d34f 3d3a
00000010: 214a 8838 a1fb 48bb d984 11bc 2f0e 9ebb
00000020: 6112 86bc 457c 08bd fdec c1bc 1bbb 64bc
00000030: 8da2 a33b 75e3 5dbc e15f 183c 9415 f2bb
00000040: 11a2 40bc 56f9 9a3b a4e0 82bc 69fa a83b

conv1.5.running_mean f4 [20]
-0.07223714 -0.025340214 -0.16768761 0.04375128 -0.19160898 -0.31292924 0.07473216 -0.024259934
0.099795766 -0.24133255 -0.055197787 -0.10163445 -0.33870396 -0.08690242 0.26316607 0.1505324
0.2217567 0.24296494 0.052405514 0.21635716
00000000: 11f1 93bd 4896 cfbc 4db6 2bbe 8b34 333d
00000010: 2535 44be 4338 a0be 2d0d 993d c5bc c6bc
00000020: b961 cc3d e11f 77be 1317 62bd b925 d0bd
00000030: 9b6a adbe e5f9 b1bd b4bd 863e 2a25 1a3e
00000040: 3014 633e cdcb 783e 2aa7 563d bb8c 5d3e

conv1.5.running_var f4 [20]
0.14219874 0.25865018 0.11197437 0.11615421 0.17161058 0.14260592 0.20652796 0.12178409
0.1461283 0.16937818 0.16536868 0.16405782 0.19368128 0.11957388 0.14951746 0.14658986
0.20511782 0.11548359 0.13997938 0.1216375
00000000: 8c9c 113e cc6d 843e d252 e53d 42e2 ed3d
00000010: afba 2f3e 4907 123e 117c 533e f069 f93d
00000020: a8a2 153e 7971 2d3e 6856 293e c6fe 273e
00000030: 6354 463e 27e3 f43d 1b1b 193e a71b 163e
00000040: 680a 523e a982 ec3d c156 0f3e 151d f93d

conv2.0.weight f4 [10, 1, 6]
0.3412028 0.30219176 0.06536399 0.0966317 -0.27746838 -0.33038712 -0.15769511 -0.21508546
-0.101409785 0.35104868 0.19107349 -0.35912314 -0.28406247 -0.39585397 -0.05722778 -0.3416095
-0.21883553 -0.05380308 0.20607214 0.41068682 0.2755218 0.3319783 -0.4654209 -0.18178357
0.36121896 0.09403945 0.25394 0.42551374 -0.14433067 -0.29011106 0.23219368 -0.29950497
-0.42319867 0.30028692 0.047463086 -0.2548286 -0.15476052 -0.124287054 0.34241313 -0.2924422
0.21173649 0.30071738 0.21068682 -0.26231113 -0.30137554 0.41350347 0.10344016 0.14552902
-0.31946966 -0.3776999 -0.27563706 -0.33808273 -0.3690991 0.13920742 0.30753282 0.021128293
-0.16118322 0.32341012 -0.33969632 0.34475553
00000000: 22b2 ae3e e1b8 9a3e 8edd 853d d7e6 c53d
00000010: 5610 8ebe 8028 a9be d47a 21be 5d3f 5cbe
00000020: efaf cfbd a7bc b33e c5a8 433e fdde b7be
00000030: a370 91be 5fad cabe ad67 6abd 71e7 aebe
00000040: 6c16 60be 9e60 5cbd 9304 533e 8b45 d23e
00000050: 3211 8d3e 0ff9 a93e a64b eebe 7925 3abe
00000060: b1f1 b83e c197 c03d 6c04 823e f0dc d93e
00000070: 6bcb 13be 7089 94be 2ec4 6d3e b758 99be
00000080: 7fad d8be 35bf 993e a768 423d e578 82be
00000090: 8b79 1ebe 368a febd c650 af3e fcba 95be
000000a0: 73d1 583e a1f7 993e 49be 573e a54d 86be
000000b0: e54d 9abe bab6 d33e 6fd8 d33d 8f05 153e
000000c0: 8791 a3be e261 c1be 4d20 8dbe 2e19 adbe
000000d0: 8ffa bcbe 648c 0e3e f174 9d3e 3e15 ad3c
000000e0: 370d 25be 0396 a53e adec adbe cc83 b03e

conv2.0.bias f4 [10]
0.37258452 -0.11271372 0.09185614 0.33007434 -0.15557106 0.35130608 0.03688483 -0.32757968
0.26199538 0.11292811
00000000: 66c3 be3e 73d6 e6bd 121f bc3d 81ff a83e
00000010: 054e 1fbe 64de b33e 8c14 173d 86b8 a7be
00000020: 4224 863e da46 e73d

conv2.1.weight f4 [10]
1.1280835 1.1004202 0.95583403 1.0827297 1.0642371 1.0278356 1.1539156 1.076252
0.97881216 1.0265872
00000000: 0a65 903f 92da 8c3f 8ab1 743f e396 8a3f
00000010: ec38 883f 1e90 833f 82b3 933f a0c2 893f
00000020: 6f93 7a3f 3667 833f

conv2.1.bias f4 [10]
0.02382684 -0.0063444423 -0.01510388 -0.013558199 0.021360671 -0.0062422305 0.07558634 0.01297685
-0.018510578 0.015977751
00000000: 8130 c33c 0ae5 cfbb 4476 77bc 3523 5ebc
00000010: 93fc ae3c a08b ccbb 03cd 9a3d db9c 543c
00000020: 7fa3 97bc c6e3 823c

conv2.1.running_mean f4 [10]
0.6314526 -1.1747688 -4.6001744 2.5414712 2.8145306 -1.3855122 0.3542546 0.21070799
-5.026122 1.7267148
00000000: e1a6 213f d35e 96bf a134 93c0 77a7 2240
00000010: 4521 3440 7758 b1bf dc60 b53e d6c3 573e
00000020: fed5 a0c0 fe04 dd3f

conv2.1.running_var f4 [10]
1.6475887 0.7470732 4.986821 2.4310467 2.6401546 1.1041676 0.51727283 0.75189024
6.322437 0.9746267
00000000: 30e4 d23f 3040 3f3f 0a94 9f40 4596 1b40
00000010: 4bf8 2840 5d55 8d3f fe6b 043f e17b 403f
00000020: 6751 ca40 2381 793f

conv2.4.weight f4 [20, 10, 6]
-0.24850918 -0.019740578 -0.06815011 -0.031404603 -0.1107594 -0.006369434 -0.035893254 -0.124939725
-0.010939136 -0.008779081 -0.086571425 0.10294483 0.043731514 -0.059342787 -0.11522293 -0.008946392
-0.09352326 0.005334497 0.06514433 -0.07664719 0.063330464 0.16954482 0.10428549 0.030569738
-0.14872125 -0.12544277 0.0872201 -0.018457238 0.06280336 0.02782321 -0.15797623 -0.070195355
0.029349934 0.106473714 -0.086266756 0.08272733 -0.0148135135 0.050749704 -0.029073978 -0.015553923
0.12371532 -0.10435519 0.025140543 -0.0039260085 0.05976791 0.11875763 -0.20309421 -0.024854729
-0.14893216 -0.12420968 -0.01912089 -0.05623685 0.12132619 0.13071287 0.09974752 0.09894674
0.038900115 0.10715062 0.02590318 -0.03033578 -0.071967594 -0.052092962 -0.051550604 -0.15274268
-0.14460704 0.05699814 0.02310229 -0.0721451 -0.120304674 -0.13028166 -0.027076107 0.15432523
0.07241213 0.08628753 0.016024115 -0.0125466725 0.028678484 -0.04912962 -0.21236156 -0.017786322
0.096771024 0.11934237 -0.14622018 0.17059566 -0.099944256 -0.11297182 -0.019031717 -0.122347616
0.09080897 -0.050686948 0.008675116 -0.055811573 0.14029092 -0.041025408 0.13980953 -0.07783382
-0.020951444 0.039580546 0.0754631 0.070218064 0.08055142 -0.042097177 0.026124388 0.03955019
-0.09272934 -0.045451947 -0.065655194 -0.083240725 -0.09280793 0.007821204 0.12542652 0.1452067
-0.09933175 -0.015903393 0.011884416 -0.0077026244 -0.12976895 -0.08866427 0.05447189 0.14865294
-0.039145306 -0.11486839 -0.033861704 0.15715896 0.13260558 0.08015282 -0.1399987 0.14280182
0.032770984 -0.108659506 -0.19580856 0.095863484 -0.0878161 -0.13887659 0.024196448 0.023649732
0.054446943 0.09066851 -0.046347644 -0.11419167 0.18185747 0.13194595 0.08772131 -0.11213873
0.08942889 -0.047018744 0.10140306 0.032123167 -0.11526891 -0.17115878 0.01681707 -0.093469754
-0.09661315 0.037979957 -0.06336316 0.115206905 0.12734994 0.058765586 -0.17284925 -0.1363009
-0.09186952 0.11341086 0.08916459 0.067616105 -0.0011057064 -0.22303216 -0.24430054 0.023329498
0.098211884 -0.057202734 0.021418968 -0.07848455 -0.0752312 -0.07644335 -0.038294706 -0.13453567
0.040674105 0.07219805 0.13724135 -0.05234624 -0.1643166 -0.1832692 -0.2623482 -0.09090206
0.046378683 -0.028314102 0.06871664 -0.10052965 -0.15592898 -0.14231515 0.101993576 0.15967837
0.10404921 -0.041824527 -0.043146748 0.063458085 0.0360849 0.045277502 -0.18420514 0.028157974
-0.059659574 0.084025525 -0.060059384 0.12892157 -0.016729593 -0.038646962 -0.0008536535 0.012780478
0.1072946 0.09642491 0.044578027 0.10224736 0.065325506 0.00080322725 -0.02558082 0.037709836
-0.12806268 -0.017978268 0.08642569 0.13181682 0.13986468 -0.19807768 0.07874445 0.032574978
-0.028524939 0.070195064 0.11933262 0.09089774 0.09512495 0.047004506 0.1027379 -0.097419776
-0.11985094 -0.02450527 -0.15600474 -0.0703486 -0.066242695 -0.03750205 0.02250477 -0.050878804
0.018626656 0.067905694 0.04033896 -0.10853556 0.0634636 0.06061809 0.07642955 0.03187463
0.07094175 -0.021151787 0.028533354 -0.04392644 -0.0061776442 0.10604664 0.019753955 0.095828004
00000000: 3179 7ebe feb6 a1bc 4992 8bbd 1da2 00bd
00000010: d3d5 e2bd afb6 d0bb ce04 13bd 66e0 ffbd
00000020: 103a 33bc 22d6 0fbc 5c4c b1bd bdd4 d23d
00000030: d11f 333d 6c11 73bd 00fa ebbd e393 12bc
00000040: 1f89 bfbd 01cd ae3b 646a 853d 34f9 9cbd
00000050: 67b3 813d 289d 2d3e a293 d53d 636d fa3c
00000060: 624a 18be 1274 00be 74a0 b23d a233 97bc
00000070: 0c9f 803d 80ed e33c 85c4 21be 95c2 8fbd
00000080: 466f f03c e40e da3d a0ac b0bd f26c a93d
00000090: 61b4 72bc ecde 4f3d 8d2c eebc e2d5 7ebc
000000a0: 755e fd3d 2db8 d5bd 8af3 cd3c bfa5 80bb
000000b0: 32cf 743d 3337 f33d eef7 4fbe 259c cbbc
000000c0: ac81 18be a561 febd 6aa3 9cbc 9c58 66bd
000000d0: de79 f83d 98d9 053e 6e48 cc3d 97a4 ca3d
000000e0: ba55 1f3d c971 db3d e832 d43c be82 f8bc
000000f0: bf63 93bd 6e5f 55bd ba26 53bd 9468 1cbe
00000100: de13 14be e276 693d 0441 bd3c cfc0 93bd
00000110: 4c62 f6bd 8e68 05be b6ce ddbc 6f07 1e3e
00000120: d04c 943d 84b7 b03d 0145 833c 8f90 4dbc
00000130: 24ef ea3c 243c 49bd 4f75 59be 9fb4 91bc
00000140: e32f c63d c669 f43d beba 15be a1b0 2e3e
00000150: 93af ccbd c55d e7bd 67e8 9bbc 6391 fabd
00000160: 0efa b93d 1e9d 4fbd 1322 0e3c ad9a 64bd
00000170: 6ca8 0f3e 420a 28bd 3b2a 0f3e 5667 9fbd
00000180: 5da2 abbc 361f 223d 668c 9a3d 7dce 8f3d
00000190: 25f8 a43d 176e 2cbd d002 d63c 61ff 213d
000001a0: e1e8 bdbd d22b 3abd 3b76 86bd 1d7a aabd
000001b0: 1612 bebd 8224 003c cf6f 003e 11b1 143e
000001c0: 726e cbbd d547 82bc dbb6 423c 4c66 fcbb
000001d0: 27e2 04be 9d95 b5bd eb1d 5f3d 7a38 183e
000001e0: d456 20bd 1e40 ebbd 92b2 0abd 47ee 203e
000001f0: c2c9 073e 2927 a43d d25b 0fbe a43a 123e
00000200: de3a 063d e088 debd 0a82 48be 1354 c43d
00000210: edd8 b3bd aa35 0ebe a137 c63c 15bd c13c
00000220: c203 5f3d 69b0 b93d 07d7 3dbd 53dd e9bd
00000230: d838 3a3e d71c 073e 3ba7 b33d fea8 e5bd
00000240: 7e26 b73d ba96 40bd 68ac cf3d 9593 033d
00000250: 1b12 ecbd 3f44 2fbe f4c3 893c 126d bfbd
00000260: 1ddd c5bd df90 1b3d 8bc4 81bd 99f1 eb3d
00000270: 0668 023e 2fb4 703d 65ff 30be 7792 0bbe
00000280: 1626 bcbd f443 e83d ed9b b63d 507a 8a3d
00000290: 5aed 90ba 8b62 64be ec29 7abe 811d bf3c
000002a0: 5023 c93d 6a4d 6abd d576 af3c 82bc a0bd
000002b0: d112 9abd 558e 9cbd e9da 1cbd b8c3 09be
000002c0: e499 263d 92dc 933d ff88 0c3e 0369 56bd
000002d0: 9c42 28be ecaa 3bbe 8152 86be dc2a babd
000002e0: 93f7 3d3d faf2 e7bc 4fbb 8c3d 7de2 cdbd
000002f0: d9ab 1fbe 10bb 11be 02e2 d03d ba82 233e
00000300: c117 d53d 3250 2bbd a5ba 30bd 50f6 813d
00000310: c3cd 133d e774 393d 46a0 3cbe 8dab e63c
00000320: 995d 74bd 9315 ac3d d400 76bd 0404 043e
00000330: 800c 89bc 474c 1ebd b7c7 5fba 3665 513c
00000340: 45bd db3d 6c7a c53d 7397 363d 1067 d13d
00000350: 61c9 853d ab8f 523a de8e d1bc a175 1a3d
00000360: dd22 03be 2947 93bc f4ff b03d fdfa 063e
00000370: b038 0f3e e0d4 4abe c544 a13d 576d 053d
00000380: 22ad e9bc 6ec2 8f3d a964 f43d 9828 ba3d
00000390: dfd0 c23d cc87 403d 4068 d23d 0584 c7bd
000003a0: 6974 f5bd 47bf c8bc b5bf 1fbe ed12 90bd
000003b0: 40aa 87bd c09b 19bd ec5b b83c 4b66 50bd
000003c0: ee96 983c 2412 8b3d 773a 253d e447 debd
000003d0: 34f9 813d ad4a 783d 1987 9c3d f98e 023d
000003e0: e949 913d 8346 adbc c8be e93c 36ec 33bd
000003f0: d66d cabb fb2e d93d 0cd3 a13c 7941 c43d

conv2.4.bias f4 [20]
0.113205835 0.016612118 0.027955813 0.035140604 -0.056355465 -0.0109439185 0.114026286 0.06256698
-0.02173178 -0.03136441 -0.060618334 -0.03353998 -0.037923377 0.013270934 -0.102006406 0.03984967
0.025488835 -0.11058463 0.10228537 -0.029434191
00000000: 76d8 e73d 2316 883c 9703 e53c 98ef 0f3d
00000010: fdd4 66bd 1f4e 33bc 9d86 e93d 1e23 803d
00000020: d906 b2bc f877 00bd ee4a 78bd 3861 09bd
00000030: 8b55 1bbd 556e 593c bce8 d0bd 6839 233d
00000040: f6cd d03c 327a e2bd fe7a d13d f91f f1bc

conv2.5.weight f4 [20]
1.0121511 1.0395921 1.0188562 1.0824062 1.0093979 1.0056472 1.0658714 0.97904384
0.97048646 0.9969708 1.0383258 0.98286426 0.9855304 1.0375212 1.0173948 1.0033596
0.9934014 1.0038238 1.0163076 1.0023526
00000000: 2b8e 813f 5b11 853f e169 823f 498c 8a3f
00000010: f333 813f 0cb9 803f 796e 883f 9ea2 7a3f
00000020: cd71 783f 7a39 7f3f dce7 843f fe9c 7b3f
00000030: b84b 7c3f 7fcd 843f fe39 823f 166e 803f
00000040: 8e4f 7e3f 4c7d 803f 5e16 823f 174d 803f

conv2.5.bias f4 [20]
-0.004761087 -0.004084622 0.016195798 -0.0063198996 -0.018286174 -0.014892746 -0.0034848494 0.0012461605
-0.025327006 -0.0069830758 0.0020384465 -0.023941183 -0.014183636 0.013198772 -0.009820859 -0.002551721
-0.015404691 -0.015299649 0.0035964765 -0.0072688945
00000000: e402 9cbb 4bd8 85bb 0dad 843c 2917 cfbb
00000010: e3cc 95bc b400 74bc 1262 64bb 3556 a33a
00000020: 957a cfbc 49d2 e4bb 7597 053b 4d20 c4bc
00000030: 7b62 68bc aa3f 583c abe7 20bc c63a 27bb
00000040: f563 7cbc 61ab 7abc ddb2 6b3b e82f eebb

conv2.5.running_mean f4 [20]
0.12650329 0.007219195 -0.07069962 0.19420715 0.09305394 -0.23183703 -0.062273923 -0.071715556
-0.104543395 -0.22440721 -0.14632785 -0.112042814 -0.12942436 -0.19205092 0.04968059 0.009572118
0.100829825 0.07737522 0.39999396 0.04291413
00000000: 148a 013e ff8e ec3b f6ca 90bd 3dde 463e
00000010: 1093 be3d b066 6dbe f112 7fbd 9bdf 92bd
00000020: d91a d6bd 01cb 65be f8d6 15be b476 e5bd
00000030: d287 04be ffa8 44be e07d 4b3d 5fd4 1c3c
00000040: de7f ce3d e676 9e3d 02cc cc3e bac6 2f3d

conv2.5.running_var f4 [20]
0.23961899 0.12296212 0.20000918 0.1579262 0.12766004 0.16901901 0.17357157 0.11980844
0.26976845 0.14490533 0.2725412 0.39059204 0.23681535 0.1191578 0.17381746 0.112709455
0.16808167 0.13721873 0.14935121 0.139146
00000000: ae5e 753e 90d3 fb3d 35cf 4c3e 68b7 213e
00000010: 50b9 023e 5213 2d3e bfbc 313e 215e f53d
00000020: 171f 8a3e 1062 143e 858a 8b3e aefb c73e
00000030: b97f 723e 0109 f43d 34fd 313e 37d4 e63d
00000040: 9a1d 2c3e 1183 0c3e 86ef 183e 4a7c 0e3e

conv3.0.weight f4 [10, 1, 9]
-0.33882496 0.007905161 0.3085176 0.16451003 0.17045425 -0.34334186 0.10611927 0.04437567
-0.0042212694 0.022340534 0.30790982 0.0993627 0.3239015 0.12472749 -0.14730552 -0.31287417
0.2103913 0.3094213 0.052949958 0.025967358 -0.117697544 0.34454694 -0.26090038 0.3143571
0.24807668 0.049243245 -0.054250542 -0.19558926 0.17301542 0.33609816 0.24812487 0.21375406
-0.0701135 0.21467657 0.17408426 -0.40758932 -0.0048731095 0.2284966 -0.081497595 0.3360474
-0.06897501 0.116458416 0.055602852 -0.29056337 0.27098536 0.2080391 0.1240355 -0.103138596
0.06970534 -0.008904 0.21691842 0.24249731 0.075165145 -0.05360913 0.1766923 -0.20483068
0.3508378 -0.2833318 0.19332145 0.3535973 -0.32061708 0.33796886 -0.0051937182 0.0063816514
-0.07778633 0.25320858 -0.13268298 -0.21740773 -0.16972505 -0.1069793 -0.07552776 0.39097843
-0.2910351 0.03862458 -0.29068857 0.28777066 0.2271582 0.18757519 -0.04557962 0.07774586
-0.07390062 -0.012091621 0.3190988 -0.3562296 -0.33980703 -0.028171895 -0.27339587 -0.23291801
-0.07882427 0.15686916
00000000: 777a adbe a684 013c 05f6 9d3e 5175 283e
00000010: 8f8b 2e3e 81ca afbe 0f55 d93d 43c3 353d
00000020: 9352 8abb 7f03 b73c 5ba6 9d3e ac7e cb3d
00000030: 6bd6 a53e 2071 ff3d 42d7 16be 0b31 a0be
00000040: d170 573e 786c 9e3e 0ee2 583d 7fb9 d43c
00000050: 690b f1bd 7568 b03e bc94 85be 6af3 a03e
00000060: d007 7e3e 49b3 493d d135 5ebd 8d48 48be
00000070: f42a 313e 0f15 ac3e 7214 7e3e 58e2 5a3e
00000080: ab97 8fbd 2dd4 5b3e 2543 323e 8caf d0be
00000090: 9bae 9fbb 03fb 693e 36e8 a6bd 680e ac3e
000000a0: c542 8dbd c081 ee3d d1bf 633d b9c4 94be
000000b0: 98be 8a3e 3408 553e 5306 fe3d 543a d3bd
000000c0: acc1 8e3d 15e2 11bc dd1f 5e3e 3751 783e
000000d0: 2ff0 993d 3f95 5bbd d4ee 343e 22bf 51be
000000e0: 03a1 b33e de10 91be 0ff6 453e b50a b53e
000000f0: ec27 a4be 410a ad3e 1130 aabb 2c1d d13b
00000100: 704e 9fbd 8ea4 813e 0cde 07be 22a0 5ebe
00000110: 67cc 2dbe f717 dbbd 4cae 9abd 532e c83e
00000120: 8d02 95be cf34 1e3d 22d5 94be ad56 933e
00000130: 299c 683e b613 403e b2b1 3abd 3939 9f3d
00000140: 3559 97bd ef1b 46bc eb60 a33e ba63 b6be
00000150: 30fb adbe bfc8 e6bc 8bfa 8bbe 0f82 6ebe
00000160: 9e6e a1bd 4fa2 203e

conv3.0.bias f4 [10]
-0.18037647 -0.06163687 0.0027514924 -0.26279166 0.16957729 0.12721305 0.020225026 0.15655178
0.0719232 -0.22209638
00000000: 9cb4 38be f176 7cbd 6252 343b a18c 86be
00000010: aba5 2d3e 2344 023e f4ae a53c 1c4f 203e
00000020: 784c 933d 3c6d 63be

conv3.1.weight f4 [10]
1.134923 1.041046 1.0650021 1.1380588 0.94183016 1.1931124 1.0915817 1.1213555
1.0798438 1.1557635
00000000: 2845 913f ff40 853f fd51 883f e9ab 913f
00000010: c81b 713f e8b7 983f f3b8 8b3f 9488 8f3f
00000020: 5238 8a3f 0ff0 933f

conv3.1.bias f4 [10]
-0.010949784 0.003698795 0.034509715 0.030172769 0.043563437 -0.04576297 0.0735788 0.03384534
0.054625377 0.022407554
00000000: b966 33bc 7c67 723b 0f5a 0d3d e22c f73c
00000010: 936f 323d f471 3bbd 7bb0 963d 69a1 0a3d
00000020: dcbe 5f3d 0c90 b73c

conv3.1.running_mean f4 [10]
-0.025184667 3.0472023 1.7710816 2.1655183 2.219436 3.545463 1.2599237 -1.3183001
0.42979014 -3.1493163
00000000: 1350 cebc 5d05 4340 cdb2 e23f da97 0a40
00000010: 3d0b 0e40 dee8 6240 2e45 a13f 0fbe a8bf
00000020: 740d dc3e 668e 49c0

conv3.1.running_var f4 [10]
0.44336858 2.8905363 0.97878915 1.5492318 1.2332299 2.5978062 0.6243301 0.65942127
0.56138504 1.8437762
00000000: 3501 e33e 8cfe 3840 ed91 7a3f 3a4d c63f
00000010: 7ada 9d3f 7542 2640 19d4 1f3f d5cf 283f
00000020: eeb6 0f3f dc00 ec3f

conv3.4.weight f4 [20, 10, 9]
0.0017466691 0.03174399 0.102860175 0.094588205 -0.25525528 0.09061502 0.008942322 -0.04887935
0.07587633 -0.086956754 -0.06243473 0.02308283 0.059698705 0.037075885 -0.005946143 -0.06063467
0.020160912 -0.044326086 -0.10263487 -0.017281171 0.06458111 0.010661348 -0.0077461433 -0.046946626
-0.03079969 0.011646737 0.08852722 0.097134866 0.06546188 0.09946265 -0.074388675 -0.03220424
0.029421864 -0.10703121 -0.15748562 -0.10038576 -0.04422532 0.048660927 -0.0022226265 0.1217581
0.03546651 -0.03926147 0.05840086 0.033979297 -0.04324001 0.00026221038 0.05126271 -0.014878175
-0.036233876 -0.005616461 0.020679824 -0.04873474 0.09009835 0.021691555 -0.091213286 -0.08044834
0.021663649 -0.14692576 0.065745786 0.0631555 -0.15766034 0.16218497 -0.012407928 -0.16128977
0.113328926 0.004459239 0.0689712 0.060861014 0.08573353 -0.025875753 0.03892711 -0.09790306
0.029167343 0.10599159 -0.019370975 -0.016521854 -0.072672285 -0.0897986 0.14456284 -0.09139081
0.1720086 -0.012400154 -0.0048799664 -0.015211702 -0.041317828 -0.08015335 0.05255027 0.08722621
-0.039479565 0.11529875 0.034250632 -0.005243808 0.06313751 0.03321122 -0.18630531 -0.04690488
-0.085214004 -0.07608547 0.013242644 0.043113902 -0.03830968 0.10162572 0.041684434 -0.088906445
-0.048613355 0.10379056 0.019410204 -0.065988265 0.028920026 -0.13922231 0.09707189 -0.028872775
-0.07993101 0.022525799 -0.026131306 -0.007924464 0.10914746 0.03672051 0.13423295 -0.031176558
0.09115183 0.0758301 -0.01397088 -0.058889348 -0.026887078 -0.09214034 -0.0733997 -0.0012057555
-0.06823788 0.030640887 0.011995569 -0.017579047 0.05647014 -0.12537259 -0.030126508 -0.0040576537
0.07209531 0.048725143 -0.07193471 0.041023426 -0.008786775 0.02556991 0.012558917 0.095808394
-0.08678372 -0.02957719 0.028011497 -0.015578808 -0.010923812 0.07019213 -0.03487246 0.08172144
-0.099647954 -0.06743313 0.06408571 -0.06198781 -0.029374365 0.096373096 -0.013077662 0.04154161
0.08842828 -0.0593664 0.05863855 0.09929201 0.015161872 -0.11345903 -0.1303109 -0.22885738
0.0072005447 -0.14020625 0.06612494 -0.031663567 -0.043343987 -0.08987208 -0.020204691 -0.022191785
-0.07553344 0.03112796 -0.02138399 0.09383848 0.124046445 -0.05758649 -0.042748418 -0.08795834
-0.014675167 -0.121492475 -0.10072303 0.052212358 0.03181081 -0.12991752 0.02709469 0.087681584
0.09591823 -0.048424512 0.03697263 -0.04704614 -0.045448396 0.011489465 0.098827615 0.0147973625
0.0607656 0.045612168 0.009488241 0.058484938 0.0845706 0.0069538136 0.029224453 0.068337925
-0.03591069 0.06481102 -0.10836027 -0.058645964 0.0063857455 0.043768484 -0.04625267 0.010091302
-0.098622516 -0.06535551 0.03383622 0.0037072662 -0.0018969001 0.0119166775 0.073429875 -0.036887642
0.118338056 -0.09656557 -0.109315395 0.07379281 0.07087519 0.0692423 -0.043607835 -0.004594888
0.012421024 -0.020176042 0.035354156 0.05458858 0.083480984 -0.10424898 0.059952114 -0.059747707
0.10228295 0.09062561 0.06663238 0.079512134 -0.019600466 -0.013747911 -0.02875381 0.038783535
-0.03317879 -0.011286715 -0.11104722 -0.08457131 -0.06300812 0.039619133 -0.009872042 -0.08334018
00000000: 7df0 e43a fc05 023d 5ba8 d23d 76b7 c13d
00000010: d2b0 82be 5e94 b93d d182 123c b735 48bd
00000020: 0d65 9b3d 6216 b2bd 8fbb 7fbd 3418 bd3c
00000030: a186 743d e2dc 173d ddd7 c2bb 0f5c 78bd
00000040: 7f28 a53c 458f 35bd 3b32 d2bd 3e91 8dbc
00000050: 1a43 843d efac 2e3c 5cd3 fdbb 1b4b 40bd
00000060: a24f fcbc f5d1 3e3c c24d b53d a5ee c63d
00000070: e110 863d 13b3 cb3d 1759 98bd 98e8 03bd
00000080: 1f06 f13c 2e33 dbbd e943 21be 0d97 cdbd
00000090: 9c25 35bd ae50 473d 7ca9 11bb 505c f93d
000000a0: 5545 113d a3d0 20bd bd35 6f3d e02d 0b3d
000000b0: 701c 31bd 4879 8939 d9f8 513d 97c3 73bc
000000c0: f969 14bd 4a0a b8bb bc68 a93c 149e 47bd
000000d0: 7c85 b83d 7db2 b13c 08ce babd 19c2 a4bd
000000e0: f777 b13c b573 16be baa5 863d ac57 813d
000000f0: b671 21be d113 263e 9f4a 4bbc 2529 25be
00000100: ff18 e83d cf1e 923b c640 8d3d 6649 793d
00000110: 1095 af3d 63f9 d3bc 0972 1f3d 6681 c8bd
00000120: 5af0 ee3c 1e12 d93d e1af 9ebc d758 87bc
00000130: 35d5 94bd 54e8 b7bd 4808 143e 1b2b bbbd
00000140: 0623 303e 042a 4bbc 20e8 9fbb 813a 79bc
00000150: e23c 29bd 7127 a4bd f43e 573d a8a3 b23d
00000160: 53b5 21bd c021 ec3d 644a 0c3d 40d4 abbb
00000170: 3d4e 813d 7d08 083d d2c6 3ebe 551f 40bd
00000180: ae84 aebd b3d2 9bbd adf7 583c 3498 303d
00000190: 9cea 1cbd 2521 d03d 4cbd 2a3d 9514 b6bd
000001a0: cc1e 47bd 2590 d43d 2602 9f3c db24 87bd
000001b0: b1e9 ec3c 4b90 0ebe a1cd c63d 9986 ecbc
000001c0: dfb2 a3bd 0688 b83c 5211 d6bc 9cd5 01bc
000001d0: b488 df3d 3f68 163d 5d74 093e fb65 ffbc
000001e0: d0ad ba3d d04c 9b3d 1ee6 64bc f535 71bd
000001f0: 4a42 dcbc 13b4 bcbd 9552 96bd 710a 9eba
00000200: 4dc0 8bbd 9902 fb3c 1089 443c ef01 90bc
00000210: 3c4d 673d ac61 00be decb f6bc 11f6 84bb
00000220: b5a6 933d 0494 473d 8152 93bd 2e08 283d
00000230: 68f6 0fbc fd77 d13c eac3 4d3c 3137 c43d
00000240: aabb b1bd dd4b f2bc 5e78 e53c 423e 7fbc
00000250: caf9 32bc e4c0 8f3d 6dd6 0ebd 925d a73d
00000260: 3a14 ccbd 621a 8abd 5e3f 833d eee6 7dbd
00000270: 82a2 f0bc 425f c53d b143 56bc 8927 2a3d
00000280: e319 b53d 2f2a 73bd fa2e 703d 9c59 cb3d
00000290: 8069 783c 355d e8bd 3870 05be 9759 6abe
000002a0: 8cf2 eb3b 3a92 0fbe 836c 873d a8b1 01bd
000002b0: 7789 31bd da0e b8bd 4f84 a5bc 8ccb b5bc
000002c0: 47b1 9abd 1000 ff3c 7a2d afbc 642e c03d
000002d0: 100c fe3d d0df 6bbd f718 2fbd 8123 b4bd
000002e0: 1d70 70bc 0cd1 f8bd e047 cebd a0dc 553d
000002f0: 0d4c 023d 1909 05be aff5 dd3c 6792 b33d
00000300: c770 c43d c858 46bd 9d70 173d 74b3 40bd
00000310: 1928 3abd 4f3e 3c3c 2266 ca3d a370 723c
00000320: 5ae5 783d d3d3 3a3d 9174 1b3c e78d 6f3d
00000330: 5a33 ad3d d1dc e33b 1f68 ef3c c1f4 8b3d
00000340: 1617 13bd a4bb 843d fdeb ddbd c036 70bd
00000350: 843f d13b 9546 333d 7173 3dbd fd55 253c
00000360: 9afa c9bd 1cd9 85bd d997 0a3d 9bf5 723b
00000370: 68a1 f8ba 2b3e 433c 6762 963d 7f17 17bd
00000380: 395b f23d 2bc4 c5bd c0e0 dfbd af20 973d
00000390: 0327 913d e8ce 8d3d 219e 32bd b790 96bb
000003a0: 8d81 4b3c 3a48 a5bc 85cf 103d 4698 5f3d
000003b0: 14f8 aa3d 7d80 d5bd 5990 753d 03ba 74bd
000003c0: b979 d13d eb99 b93d 8f76 883d 42d7 a23d
000003d0: 2891 a0bc eb3e 61bc 1c8d ebbc 7cdb 1e3d
000003e0: 7ce6 07bd eaeb 38bc ba6c e3bd b933 adbd
000003f0: 670a 81bd ac47 223d 58be 21bc 42ae aabd

conv3.4.bias f4 [20]
0.09347203 -0.03754019 0.012447682 0.0041051325 0.064032204 0.021338692 0.042688318 0.096455835
-0.033247214 0.03280446 0.0061448743 0.042861503 0.008860262 -0.064647235 0.092085004 0.09859787
-0.01661019 -0.019191511 0.11019879 -0.006160479
00000000: 436e bf3d bec3 19bd 5df1 4b3c 5984 863b
00000010: 5123 833d 7bce ae3c f2d9 2e3d a38a c53d
00000020: 3b2e 08bd f85d 063d f15a c93b 8b8f 2f3d
00000030: a22a 113c c565 84bd 1097 bc3d aeed c93d
00000040: 1812 88bc 8437 9dbc e7af e13d d8dd c9bb

conv3.5.weight f4 [20]
1.0557235 1.040318 1.0140091 0.996191 1.0842863 1.0376481 1.0163733 1.0231036
0.9955423 0.9781821 1.0226417 1.0520043 1.0520731 1.0611972 1.0445946 1.0100622
0.9864421 1.031723 1.1681814 0.9972235
00000000: f321 873f 2429 853f 0dcb 813f 6006 7f3f
00000010: e5c9 8a3f a7d1 843f 8518 823f 0ff5 823f
00000020: dcdb 7e3f 246a 7a3f ece5 823f 14a8 863f
00000030: 55aa 863f 4fd5 873f 47b5 853f b849 813f
00000040: 7887 7c3f 800f 843f f886 953f 0a4a 7f3f

conv3.5.bias f4 [20]
0.0040581604 -0.009455821 -0.017973378 -0.0021015794 0.012495658 -0.014567271 -0.0044109207 -0.0003770543
-0.013418218 -0.013303661 -0.0013900955 0.00033096434 -0.006852456 -0.00085137354 0.009083655 0.0021021261
-0.012157866 -0.0062988643 0.0077118436 -0.00090922427
00000000: 51fa 843b 96ec 1abc e83c 93bc a7ba 09bb
00000010: 97ba 4c3c 90ab 6ebc 7c89 90bb 5faf c5b9
00000020: 16d8 5bbc 99f7 59bc dd33 b6ba 4885 ad39
00000030: 918a e0bb b62e 5fba 9cd3 143c d3c3 093b
00000040: c931 47bc b466 cebb a2b3 fc3b 0259 6eba

conv3.5.running_mean f4 [20]
0.44309157 -0.15979196 0.40192944 -0.30292648 0.28055984 0.106384285 0.3675276 0.370252
-0.31397912 -0.108268544 0.32357058 0.24447304 0.050196223 0.11592908 0.041659404 -0.018061765
0.11501445 0.14164712 0.3130538 0.17243059
00000000: e6dc e23e 81a0 23be b2c9 cd3e 2e19 9bbe
00000010: 8aa5 8f3e 01e0 d93d 942c bc3e ac91 bd3e
00000020: dfc1 a0be e6bb ddbd 0bab a53e 2457 7a3e
00000030: 8e9a 4d3d 3a6c ed3d 0da3 2a3d 44f6 93bc
00000040: b28c eb3d f10b 113e 9648 a03e a591 303e

conv3.5.running_var f4 [20]
0.3515554 0.20893253 0.40502602 0.1701264 0.16007128 0.19011529 0.22119121 0.2658218
0.37999073 0.21292618 0.25778484 0.21133436 0.12914526 0.22286314 0.18250412 0.22443578
0.18087041 0.25109246 0.27042115 0.25087374
00000000: 12ff b33e 69f2 553e 925f cf3e 9d35 2e3e
00000010: bae9 233e 95ad 423e f37f 623e cc19 883e
00000020: 258e c23e 5209 5a3e 60fc 833e 0968 583e
00000030: a83e 043e 3c36 643e 5ce2 3a3e 7ed2 653e
00000040: 1836 393e 318f 803e a474 8a3e 8672 803e

mlp.1.weight f4 [64, 60]
0.114485845 -0.10091891 0.019732092 0.024254372 -0.11382269 0.06422725 0.039489232 -0.103919536
-0.083953895 0.110858634 0.025557546 -0.015521753 0.0341726 -0.056846116 0.029176198 0.005792634
-0.12107198 0.034826815 -0.03648791 0.027832702 0.04218733 0.117742114 0.034046773 -0.058802728
0.014185004 -0.019085307 -0.05262777 0.004757935 -0.020429293 -0.11146252 -0.105406374 0.010533091
-0.08765767 0.076570064 0.020336105 -0.05906755 -0.056382533 -0.036695562 -0.08075821 0.043165907
-0.040132515 0.02496165 -0.04067788 0.06323055 0.04156401 -0.022048835 -0.03864915 -0.025074828
0.057534188 -0.029266723 -0.057978183 -0.008709286 0.057657123 0.07330043 -0.06791717 0.0846558
-0.04184228 0.016211474 -0.119048774 0.001801927 0.034621846 -0.0121823475 0.08112265 0.009761495
0.10846196 0.05118511 0.10171471 0.05212066 -0.120150924 -0.11404108 -0.10304695 -0.08067166
-0.042125832 0.024657417 -0.033329207 0.011627201 -0.053839277 -0.019947184 -0.061547626 0.08845394
-0.10480718 0.14203407 0.14987747 0.20033696 0.040127315 -0.124945305 -0.090260155 -0.0197769
0.057705965 0.059269242 -0.021228239 -0.011123526 0.12451137 0.120964594 0.020822046 0.14119418
-0.0012319906 -0.005705849 -0.04820759 -0.052664604 -0.21146508 -0.14730778 0.02356254 0.13110481
0.06342809 -0.03905894 -0.15610778 -0.043584064 -0.123355605 0.0911092 -0.08183725 -0.05113058
-0.16949138 0.13374268 -0.10516266 0.056877263 0.055978056 -0.050892904 -0.31901228 -0.07912323
-0.13071825 0.049316663 0.10023155 0.07524858 0.10491668 0.0672336 -0.04339384 -0.0665992
-0.0093641225 0.100045495 0.10829247 0.09488402 0.10448359 0.08028947 0.09252381 0.013237045
-0.024524983 0.1035333 -0.052134916 0.08771888 -0.08504061 0.11838495 -0.06483643 0.12211878
-0.08571726 -0.042873297 -0.16659416 0.07491212 -0.0023421806 -0.059436865 0.024417667 -0.10432672
-0.05036517 0.1448085 -0.025903806 -0.014269818 -0.0011557835 -0.096124776 0.07987347 -0.007253416
-0.047475424 0.000472328 -0.19939384 0.09857932 0.1155254 -0.014022487 -0.09360951 -0.122088864
-0.016212337 -0.07020277 0.08135775 -0.24997655 0.04157401 0.15371352 -0.062239837 0.09480324
-0.0010909159 -0.09320861 -0.24339285 -0.043826856 -0.017345041 0.12760898 -0.11411007 -0.040647596
0.11663271 -0.10409724 -0.039274555 0.03429057 0.020874815 0.094374865 -0.09743878 -0.076825395
0.04421548 0.0027159492 -0.032615423 0.060181078 -0.048873402 -0.09399139 0.017117161 0.088138096
-0.007566101 0.034078065 -0.1240653 0.15406679 0.06599466 0.09342178 -0.06383638 0.09649764
-0.05781006 -0.04076162 0.006291543 -0.10399721 -0.043507807 0.03781487 -0.13635592 0.117131315
0.017584467 -0.032179784 0.13100904 -0.013808899 -0.08992644 0.0030156232 -0.116898865 -0.05905038
-0.04714527 0.091558896 -0.031368695 -0.062178146 -0.037718654 -0.07792255 -0.0008677316 0.04671596
-0.10782492 0.1578261 0.037284795 0.06862316 -0.11760407 0.02151416 0.026380675 -0.10989421
0.10981289 0.014107215 -0.0042474046 0.037801795 0.09172282 0.080288924 -0.086613014 0.0743233
0.036644086 -0.06286579 0.0015800047 0.0349127 0.06906353 0.13859582 -0.08739398 0.049148507
00000000: 8e77 ea3d 93ae cebd 32a5 a13c 1bb1 c63c
00000010: df1b e9bd 9489 833d 76bf 213d c4d3 d4bd
00000020: 05f0 abbd da09 e33d 0f5e d13c f34e 7ebc
00000030: 91f8 0b3d 79d7 68bd ec02 ef3c 23d0 bd3b
00000040: 96f4 f7bd 90a6 0e3d 5974 15bd 6801 e43c
00000050: 9fcc 2c3d c722 f13d a174 0b3d 21db 70bd
00000060: 3868 683c ca58 9cbc 3790 57bd 74e8 9b3b
00000070: 555b a7bc 7646 e4bd 4cdf d7bd fc92 2c3c
00000080: dd85 b3bd c4d0 9c3d e797 a63c d1f0 71bd
00000090: 5ff1 66bd 164e 16bd 8f64 a5bd bcce 303d
000000a0: fe61 24bd 607c cc3c d99d 26bd 057f 813d
000000b0: 063f 2a3d c29f b4bc 924e 1ebd ba69 cdbc
000000c0: f8a8 6b3d c4c0 efbc 887a 6dbd 65b1 0ebc
000000d0: e029 6c3d 891e 963d 2818 8bbd 0560 ad3d
000000e0: d062 2bbd edcd 843c d8cf f3bd a32e ec3a
000000f0: a3cf 0d3d 7898 47bc a223 a63d adee 1f3c
00000100: 4e21 de3d 7aa7 513d cd4f d03d 797c 553d
00000110: b011 f6bd 5f8e e9bd 480a d3bd 2f37 a5bd
00000120: 238c 2cbd 5afe c93c 3584 08bd 0480 3e3c
00000130: 9386 5cbd 4768 a3bc 5d19 7cbd 5727 b53d
00000140: 26a5 d6bd 6171 113e 7b79 193e 2225 4d3e
00000150: 8a5c 243d 53e3 ffbd 51da b8bd 2a03 a2bc
00000160: 175d 6c3d 4ec4 723d d8e6 adbc 733f 36bc
00000170: d1ff fe3d 49bc f73d ff92 aa3c 3595 103e
00000180: bf7a a1ba 21f8 babb 5275 45bd d7b6 57bd
00000190: 4d8a 58be dad7 16be 3a06 c13c 5740 063e
000001a0: 96e6 813d 44fc 1fbd b8da 1fbe 3485 32bd
000001b0: dda1 fcbd 7697 ba3d 4a9a a7bd 4d6e 51bd
000001c0: 268f 2dbe d7f3 083e 855f d7bd 22f8 683d
000001d0: 3f49 653d 1475 50bd 9455 a3be 5c0b a2bd
000001e0: 01db 05be 4500 4a3d 3346 cd3d ed1b 9a3d
000001f0: 8ede d63d c5b1 893d bdbd 31bd 2965 88bd
00000200: fa6b 19bc a7e4 cc3d 71c8 dd3d 8e52 c23d
00000210: 7efb d53d ce6e a43d 207d bd3d 31e0 583c
00000220: 9ee8 c8bc 4409 d43d 6c8b 55bd f5a5 b33d
00000230: c529 aebd cf73 f23d f6c8 84bd 6919 fa3d
00000240: 888c afbd e99b 2fbd a997 2abe 876b 993d
00000250: 457f 19bb 1274 73bd 8f07 c83c 3fa9 d5bd
00000260: b54b 4ebd ae48 143e 3834 d4bc f4cb 69bc
00000270: a97d 97ba 11dd c4bd b494 a33d 10ae edbb
00000280: 9775 42bd cba2 f739 e62d 4cbe f4e3 c93d
00000290: 9598 ec3d 93be 65bc 58b6 bfbd ba09 fabd
000002a0: bccf 84bc 78c6 8fbd e49e a63d daf9 7fbe
000002b0: 8249 2a3d 1467 1d3e 33ef 7ebd 3328 c23d
000002c0: 10fd 8eba 28e4 bebd fa3b 79be ca83 33bd
000002d0: 3017 8ebc eeab 023e 8ab2 e9bd 187e 26bd
000002e0: 21dd ee3d ef30 d5bd 5bde 20bd 4574 0c3d
000002f0: a901 ab3c 9c47 c13d fc8d c7bd a256 9dbd
00000300: 4b1b 353d 11fe 313b c097 05bd 6f80 763d
00000310: 7a2f 48bd 8f7e c0bd 4a39 8c3c bf81 b43d
00000320: 0eed f7bb 7195 0b3d f315 febd afc3 1d3e
00000330: 3528 873d eb53 bf3d a6bc 82bd 8ea0 c53d
00000340: 3eca 6cbd a8f5 26bd 4a29 ce3b 7dfc d4bd
00000350: 3e35 32bd c4e3 1a3d e3a0 0bbe 8be2 ef3d
00000360: 4d0d 903c f3ce 03bd 3c27 063e b83e 62bc
00000370: 5a2b b8bd c3a1 453b ac68 efbd d0de 71bd
00000380: 661b 41bd 3b83 bb3d 767c 00bd 83ae 7ebd
00000390: e07e 1abd dc95 9fbd 7b78 63ba 3c59 3f3d
000003a0: 50d3 dcbd 2a9d 213e f1b7 183d 4d8a 8c3d
000003b0: 67da f0bd 773e b03c 491c d83c 3710 e1bd
000003c0: 95e5 e03d f321 673c d02d 8bbb 0ed6 1a3d
000003d0: 2dd9 bb3d 856e a43d 2a62 b1bd d036 983d
000003e0: 1c18 163d c8bf 80bd 2918 cf3a 9f00 0f3d
000003f0: 2e71 8d3d 10ec 0d3e 9dfb b2bd f24f 493d

mlp.1.bias f4 [64]
-0.11566418 0.13112219 0.1328954 0.09046223 -0.120549485 -0.13547881 -0.093231514 0.11528786
0.007313555 0.12146505 -0.08458715 0.002360775 0.10750386 -0.060610887 0.06264277 -0.020016761
0.019327138 -0.09333209 0.002274808 -0.09350765 0.052804057 0.08913068 0.027883612 -0.04928734
0.008054298 0.11867247 0.12627298 -0.022229802 0.017634504 0.03541537 -0.041824806 0.13091424
0.11988567 0.059760194 0.098977566 -0.07041487 -0.10056256 -0.04196728 0.013979553 -0.05677462
-0.06984588 0.06188192 0.047236413 -0.014751449 0.12045133 -0.1122432 -0.10121933 0.045962848
-0.0041152244 -0.07028395 0.09448718 0.06620603 -0.005665697 0.078979425 0.04048686 -0.07588564
-0.060677733 0.113217875 0.12474757 -0.058257584 -0.05834401 -0.09730955 -0.09842865 -0.038218055
00000000: 57e1 ecbd e544 063e bb15 083e 4344 b93d
00000010: a6e2 f6bd f5ba 0abe 2af0 bebd 0b1c ec3d
00000020: 8ca6 ef3b abc2 f83d 073c adbd 3bb7 1a3b
00000030: fc2a dc3d 1f43 78bd da4a 803d 31fa a3bc
00000040: f253 9e3c e524 bfbd f214 153b f080 bfbd
00000050: 1149 583d 258a b63d 2c6c e43c 86e1 49bd
00000060: 2df6 033c 8d0a f33d b44d 013e 461b b6bc
00000070: 3c76 903c b50f 113d 7d50 2bbd 620e 063e
00000080: 9e86 f53d 1bc7 743d c0b4 ca3d ac35 90bd
00000090: bef3 cdbd e2e5 2bbd 7f0a 653c 818c 68bd
000000a0: 5b0b 8fbd e577 7d3d f87a 413d 10b0 71bc
000000b0: 30af f63d c3df e5bd 154c cfbd 8a43 3c3d
000000c0: 01d9 86bb 08f1 8fbd 7f82 c13d 0797 873d
000000d0: 50a7 b9bb f7bf a13d 8dd5 253d ee69 9bbd
000000e0: 3789 78bd c6de e73d a77b ff3d 819f 6ebd
000000f0: 21fa 6ebd 3b4a c7bd f694 c9bd 898a 1cbd

mlp.4.weight f4 [2, 64]
0.072557986 -0.3084913 -0.19360405 -0.03254881 -0.024588168 -0.062470093 -0.09003 -0.06387027
-0.28474516 0.15291455 0.034798957 -0.1719893 -0.05139087 0.1178625 -0.1831419 -0.24152678
0.16024853 0.10123134 -0.08800625 0.0313452 0.26398158 0.15874381 -0.107512586 -0.21506307
0.012475124 0.15582831 -0.07675458 0.19200358 0.20628363 0.111817986 0.11447356 -0.20238723
-0.05796291 0.21144576 -0.0016605742 0.03606107 0.026686706 0.34202394 0.122028254 -0.0070877243
0.3075931 0.11336362 -0.044465948 0.07649706 0.07918241 0.03459865 0.03220191 0.17239712
-0.123402774 0.0039179004 0.11482597 0.0012842094 0.09019948 -0.08955314 0.18565665 -0.022390656
0.05912952 0.08294337 0.20088954 0.107120104 0.05500818 0.18377256 0.18773249 -0.290507
-0.097634465 0.26024547 0.12329388 0.103936106 -0.18637724 -0.10566994 0.100178964 -0.014418278
0.283741 0.0076469225 -0.1292251 0.08092551 0.18405649 -0.11972479 0.19884361 0.41787723
-0.058762833 -0.09339631 0.056295116 0.002388976 -0.091925636 -0.112519756 0.15801086 0.2722265
-0.042409923 -0.12384371 0.23410062 -0.1485536 -0.2137492 -0.07108124 -0.09517868 0.3330953
0.023169566 -0.08158067 0.033791844 -0.07671895 0.113704085 -0.31785232 -0.15753236 -0.17863016
-0.14934877 0.033605434 0.032116424 0.093659446 -0.15942946 -0.08704174 -0.14801231 -0.08475675
0.050716557 -0.17997472 -0.06565887 -0.0013440113 0.022738196 0.0049531986 -0.038252827 -0.089599274
-0.13161217 -0.113647535 -0.027598608 -0.15347973 -0.12850712 0.040677264 -0.0510805 0.09591155
00000000: 4899 943d 92f2 9dbe 2440 46be e751 05bd
00000010: 206d c9bc a4e0 7fbd a661 b8bd 6bce 82bd
00000020: 1eca 91be a295 1c3e 5a89 0e3d f71d 30be
00000030: 3c7f 52bd e561 f13d 8d89 3bbe cc52 77be
00000040: 3118 243e 6052 cf3d 9f3c b4bd d363 003d
00000050: 9828 873e bd8d 223e 8f2f dcbd 7e39 5cbe
00000060: 7664 4c3c 7591 1f3e 8131 9dbd 969c 443e
00000070: 043c 533e d400 e53d 1d71 ea3d 993e 4fbe
00000080: 846a 6dbd 3d85 583e a0a7 d9ba c6b4 133d
00000090: 149e da3c c31d af3e f3e9 f93d 2440 e8bb
000000a0: d87c 9d3e 302b e83d ed21 36bd 7eaa 9c3d
000000b0: 632a a23d 50b7 0d3d 26e6 033d df88 303e
000000c0: 98ba fcbd bb61 803b e129 eb3d eb52 a83a
000000d0: 81ba b83d a367 b7bd c71c 3e3e 9c6c b7bc
000000e0: cc31 723d 37de a93d fdb5 4d3e c961 db3d
000000f0: 4250 613d e02e 3c3e f23c 403e 55bd 94be
00000100: 94f4 c7bd e53e 853e 8081 fc3d 74dc d43d
00000110: add9 3ebe 7b69 d8bd a12a cd3d a43a 6cbc
00000120: 8046 913e 0993 fa3b 9653 04be 46bc a53d
00000130: 4e79 3c3e 4532 f5bd a99d 4b3e 01f4 d53e
00000140: 4cb1 70bd 9146 bfbd b595 663d 5e90 1c3b
00000150: 8243 bcbd c270 e6bd 99cd 213e 4661 8b3e
00000160: 07b6 2dbd c5a1 fdbd 13b8 6f3e 6f1e 18be
00000170: 12e1 5abe 0b93 91bd 0aed c2bd 788b aa3e
00000180: 1ace bd3c c413 a7bd 5169 0a3d d31e 9dbd
00000190: b0dd e83d 8abd a2be 2a50 21be d3ea 36be
000001a0: e2ee 18be daa5 093d 838c 033d 86d0 bf3d
000001b0: 7a41 23be f142 b2bd 8a90 17be f294 adbd
000001c0: 2abc 4f3d 4b4b 38be 2878 86bd 8929 b0ba
000001d0: 7445 ba3c 714e a23b ffae 1cbd d37f b7bd
000001e0: 57c5 06be 0ac0 e8bd 7a16 e2bc ca29 1dbe
000001f0: 5f97 03be 349d 263d c939 51bd 466d c43d

mlp.4.bias f4 [2]
-0.03770182 0.05914665
00000000: 396d 1abd c243 723d
