model/eedp_k5_model.ckpt (torch, 635099 bytes, 40 tensors)

conv1.0.weight f4 [10, 1, 3]
00000000: fe12 893e a2dc 5b3d b379 c2be 4817 f3be
00000010: 4ef1 d4bd 23fc 043e 02ab 30be f3f9 8d3d
00000020: 7374 913d 63cf 43be 6e7c d9be 69a4 bebe
00000030: ab2d 20be f5ca d7be be97 663e 2f9d 403c
00000040: 7695 90be f0c6 2c3e 7abf d73c dfdc 8cbd
00000050: 7369 d23c 47dc b1be 1b69 1b3e 5dde d2be
00000060: c5d4 c8bd 66dd 8a3d 74c2 bd3e 4bf5 92be
00000070: 3d77 673e 7dad 1b3d
0.26772302 0.05367721 -0.37983474 -0.474787 -0.10397588 0.12986808 -0.17252734 0.0693244
0.07102289 -0.1912208 -0.42477745 -0.3723481 -0.15642421 -0.4214703 0.22518823 0.0117562255
-0.2823903 0.16872764 0.02633642 -0.06878065 0.025685048 -0.3473837 0.15176813 -0.41185275
-0.098062076 0.0678051 0.37062418 -0.2870277 0.2260408 0.03800725

conv1.0.bias f4 [10]
00000000: 72d2 37be dfd0 05bf 77ea 803e f64e dd3e
00000010: 0860 e43e fdeb bf3e 7926 a1bc d905 8d3e
00000020: 84a1 223e 147f cd3e
-0.17951372 -0.52271837 0.25178882 0.43224305 0.44604516 0.37484732 -0.019671666 0.27543524
0.15881926 0.40136015

conv1.1.weight f4 [10]
00000000: fb4b 793f 6aeb 783f 3950 7b3f 6bfc 793f
00000010: 0bba 7b3f a8ee 7d3f 8e5f 7c3f 3916 7c3f
00000020: 0187 843f 67a9 7b3f
0.9738156 0.97234213 0.98169285 0.97650784 0.98330754 0.99192286 0.98583305 0.9847141
1.03537 0.9830536

conv1.1.bias f4 [10]
00000000: fc64 783c 7e34 52bc 027f b4ba 3db8 6d3a
00000010: c7a1 9fba 59d0 63bb a763 dc3a 8cb9 2dbc
00000020: 3547 d13b 27d4 06bc
0.015160795 -0.012829898 -0.0013770761 0.0009068286 -0.0012178951 -0.0034761636 0.0016814367 -0.01060332
0.0063866624 -0.008229292

conv1.1.running_mean f4 [10]
00000000: 27c0 e2be 4c4a 08c0 09a9 6e3d 6627 6bc0
00000010: 7eb9 82bf 321f 88bc b878 0cbe b397 f7bf
00000020: 252a bf3f d8ed a73e
-0.44287226 -2.1295347 0.058266673 -3.6742797 -1.0212858 -0.016616438 -0.13717926 -1.934317
1.4934736 0.32798648

conv1.1.running_var f4 [10]
00000000: df5b 5a3e 63fc 313f 5877 873d 8a26 5740
00000010: c1b3 163f b115 003e e8c6 233d 2dc9 8c3f
00000020: b8d5 e83e ab2f f43d
0.21324109 0.69525737 0.0661456 3.3617272 0.5886803 0.12508275 0.039984614 1.0998894
0.45475554 0.119231544

conv1.4.weight f4 [400, 10, 3]
00000000: 0609 83bd 91c8 cb3d 760f b3bd 315c 33bd
00000010: 2102 52bd 1d98 3ebe ba16 9ebd 0e7d 9bbd
00000020: 8a40 ff3c 4082 ca3d c7ff 303d e87f 9e3c
00000030: 9f06 283e 0f52 d23d 24c3 263e c768 0a3e
00000040: a6ed 103e 96fa ad3d 6745 a0bd 9a69 0c3e
00000050: e577 103e 7368 823d 177e 10be 2e22 21be
00000060: ebde 643d 7ed2 8a3d 5040 8c3d cb47 e93d
00000070: 7788 c73d aa72 483c 490b 41bd a823 14bd
00000080: 3b56 c53d 903f ae3d a842 833d bc4e 403c
00000090: 3506 793d 4616 b0bd 3ff8 8bbd 192d e1bc
000000a0: 56b4 1cbe 5052 9e3d 45bf f3bd 3af2 0c3e
000000b0: 634b a43d 1be7 06bd e2b1 523d ba6e 973d
000000c0: c869 973b 6e9a e2bd 8a6b ac3b 35c0 51bd
000000d0: 4f49 f13c c4ed d33d 5839 af3d adc5 283c
000000e0: b2f4 993a 05b9 1fbe 49b9 803d 4ccd 8936
000000f0: fe88 46bd 0d85 093e 5465 b4bc 8d37 9d3c
00000100: eea1 383e bf57 fbbc d133 303e 44a9 163d
00000110: 7193 c53d 645f 65bd 207d 09bd effc 2d3e
00000120: 4dff 3abd 4c45 f13d e12f 2e3c ed55 a93d
00000130: 218c 49bc af45 f13a 9418 19be 2cc2 8f3d
00000140: 7023 903d f8e6 c63c 3219 13bd 8418 9bbd
00000150: ca4e bfbd d26e 2a3e 9fce f03d 8f97 313e
00000160: 5956 42bd a103 163e 4538 e1bd e49a de3c
00000170: 0d58 37be 0dca 333e 7aad e4bc fb0b b3bd
00000180: 1222 023e a53c fcbd d517 1bbe b85e bf3a
00000190: 6424 313e 0bbc e2ba 07e7 d23b fc9f ce3d
000001a0: ed21 873b 9b00 153e 96b3 38be 8e17 1d3c
000001b0: d8ff 0c3e 3df0 31bd 58e0 233e fba2 31bc
000001c0: 10df 2c3e 1e2c e5bd 581e 41be 685c 173d
000001d0: fd20 fcbb c816 c03d 0bff cc3d 2046 0bbe
000001e0: 707c 36bd cd41 313e d428 66bd 4ea6 30bb
000001f0: c7a0 3abe d9d9 023e 7388 d7bd a785 cdbd
00000200: 5902 53bd b522 f4bc fa86 14bd 4570 083e
00000210: 7611 8abd fc60 22bd c782 a53d eaf6 e1bd
00000220: 4b51 e7ba 6cdb f33d e4e7 1ebe c866 4abe
00000230: d793 f2bc 1c40 6bbd 1d65 113e c99e e43d
00000240: 3993 8c3d 470e b13d fa83 523d e030 783b
00000250: 0297 86bc 2f1c 0b3c 8f3f 91bc 162b 1ebe
00000260: d6f2 243d 6024 253e 52cc 70bd 39b6 d5bc
00000270: e2ee 11be c3c1 0a3d 89c2 2abe 9c72 f1bd
00000280: 4a80 adbd 260c 3dbe 365b 6f3d 3a4d 00be
00000290: f5dd 29be 6134 0dbe e3c1 0dbe 083c eebd
000002a0: d93c 55ba def1 5b3c 26ec 35be 70f0 923d
000002b0: 2ffa 193e fd6e cbbc 261c dabd 15f1 9bbd
000002c0: 1ad8 803d 1304 e23d a663 3abe ad6c d33d
000002d0: 5088 b33d 7d5d 163e 6133 80bd 5e85 6abd
000002e0: 1658 58be 7550 45be 3a8a 3c3b 36cf ef3d
000002f0: 495a c7bd f92b 02be 6d55 553d 5734 3b3e
00000300: be3b 39be bd4a 003e fd6a febc 1e3d f5bd
00000310: 19d2 bfbd 41af 6b3c 03a1 5b3d 21ed 6fbc
00000320: 443f 94bd e87f aabd 6388 1bbe 7a8d 73bd
00000330: deb3 efbd a0cf c0bd 7afb 99bd 41e6 e4bd
00000340: 10fc 4ebb 4b96 e9bd 34d9 233e 208f 45be
00000350: 91e9 d9bd 398e 953c 2a6c 59bd b722 dd3d
00000360: 6d63 a5bc e387 a43d 8945 343e 191f e9bc
00000370: f647 093e 1e9c ad39 50bd 4dbc 60e2 863c
00000380: 0b9f ecbd 52cc c8bd 876b 14be 8398 07be
00000390: 889d a2bd 077d 363e 2bc8 b1bd ddc0 af3c
000003a0: 3deb 0a3c 3c7b ad3d 2913 18bd 3d45 92bd
000003b0: a42e 25be 3416 e0bd b1f9 c63d 8dd6 a3ba
000003c0: 8b51 0d3c 25f3 08bc 67c7 a13d 2ffd 2a3a
000003d0: 7685 013e 800b 9cbd 313e 07bd e359 dcbc
000003e0: ee13 a73c aec7 23be 5b1a 3f3e 4424 3a3e
000003f0: a0c0 003e c811 f0bd 7c3f 28be c374 e23d
-0.063982055 0.099503644 -0.08743183 -0.043789092 -0.05127156 -0.18612714 -0.077191785 -0.07592212
0.031158704 0.098881245 0.04321268 0.0193481 0.16408776 0.10269558 0.16285378 0.13516532
0.14153156 0.08495061 -0.078257374 0.13712159 0.14108236 0.06367578 -0.141106 -0.15735695
0.055876654 0.067784294 0.06848204 0.113906465 0.097428255 0.012234369 -0.047129903 -0.036166817
0.09635588 0.08508217 0.06409198 0.011737522 0.060796935 -0.08597998 -0.068344586 -0.027487325
-0.15303168 0.077305436 -0.11901716 0.13764277 0.080221914 -0.032935243 0.051439174 0.07394166
0.0046207644 -0.110646114 0.005261843 -0.051208694 0.029453902 0.103480846 0.08555859 0.010301036
0.0011745899 -0.15597923 0.0628534 4.106818e-06 -0.04847049 0.13429661 -0.022020973 0.019191528
0.18030521 -0.030681489 0.17207266 0.036782518 0.09647263 -0.055999175 -0.033566594 0.16991018
-0.04565363 0.117807955 0.010631532 0.08268342 -0.012301476 0.0018407608 -0.14950782 0.07019457
0.07038009 0.024280056 -0.0359127 -0.07573035 -0.093412 0.16643837 0.1175816 0.17342971
-0.04744563 0.14649822 -0.10997061 0.027173467 -0.17904682 0.17557545 -0.027914751 -0.087425195
0.1270831 -0.123162545 -0.1514581 0.0014600372 0.17299038 -0.0017298473 0.006436232 0.10089108
0.0041239173 0.14551012 -0.18037257 0.009588135 0.13769472 -0.043442 0.16003549 -0.01084208
0.16881967 -0.11190055 -0.18859231 0.03695336 -0.007694362 0.09379345 0.10009583 -0.1360097
-0.044552267 0.17310257 -0.05619128 -0.0026954594 -0.18225394 0.12778415 -0.105240725 -0.10035258
-0.05151591 -0.029801706 -0.036261536 0.13324077 -0.06741612 -0.039643273 0.080815844 -0.11033423
-0.0017648129 0.11907086 -0.15518147 -0.1976577 -0.029611511 -0.057434186 0.14198728 0.11163098
0.06864018 0.08645301 0.051395394 0.0037870929 -0.016429428 0.008490606 -0.017730502 -0.15446123
0.04027065 0.16127157 -0.058788605 -0.026087867 -0.14251283 0.03387619 -0.16675772 -0.11789438
-0.08471735 -0.18461666 0.058436595 -0.1252946 -0.16588576 -0.13789512 -0.13843493 -0.11632544
-0.0008134372 0.013424365 -0.17765865 0.07174766 0.15036844 -0.024833197 -0.106499 -0.07614342
0.06291218 0.11035933 -0.18202075 0.10323463 0.08766234 0.146841 -0.062598 -0.057256095
-0.21127352 -0.19268973 0.0028768913 0.11709444 -0.097340174 -0.12712087 0.05208342 0.18281685
-0.18089196 0.1252851 -0.031056875 -0.11974548 -0.09366245 0.0143850455 0.05362035 -0.014643938
-0.072386295 -0.083251774 -0.15188746 -0.059461094 -0.11704229 -0.09414601 -0.075186685 -0.1117673
-0.0031583346 -0.11405619 0.16000825 -0.19292879 -0.106402524 0.018256294 -0.05308167 0.10797637
-0.020189011 0.08033731 0.1760465 -0.028457211 0.13406357 0.00033113448 -0.012557343 0.016465366
-0.115537725 -0.09804596 -0.14494143 -0.13241772 -0.07940203 0.17821132 -0.08680757 0.021454269
0.008478937 0.08470771 -0.037127648 -0.071421124 -0.16131073 -0.10941735 0.097155936 -0.0012499854
0.008625398 -0.008358751 0.07899361 0.00065227126 0.12648568 -0.07619381 -0.033018295 -0.02689833
0.020395245 -0.1599414 0.18662398 0.18177897 0.1257348 -0.117221415 -0.16430467 0.11057427

conv1.4.bias f4 [400]
00000000: f66b 47bd 7cef 33bd b896 763d 9266 a63d
00000010: b744 943d 4025 e1bd 6505 4e3c 2b10 d83d
00000020: b537 f63c 2076 00bc 8d67 b33d 7cbf abbd
00000030: 5e36 1dbe a66e 77bd 6e0e c43d 80e5 de3d
00000040: a886 863d abfb 38be cda7 6e3d c3c1 243e
00000050: 1331 16be bda2 88bd ca8c 233e f1c0 2abe
00000060: d54d 0a3e 7cc4 4d3c 84c3 f5bd 7ecf 9dbc
00000070: 2e01 4cbc a29c fc3d 8733 d9bd e437 8abd
00000080: aa63 edbd 15de 18bd 63af b33d b1f0 55be
00000090: 888d 36be e940 ca3d 053d 363d e35a 853c
000000a0: d3af 30be 1437 b93d ad94 113e 8ab8 2cbe
000000b0: 9388 4b3d 2453 a9bd d77e 39be 25d1 103d
000000c0: 4c5a 3cbd fdd8 6cbd e368 d43d 564c c9bd
000000d0: ae7b 253d 8bbb 33bc d139 b73d be0c 37be
000000e0: 5bf7 f9bd 38aa 0ebe 3c39 283d 1081 c23c
000000f0: 98a1 073e d531 643d 9120 503c bfde ecbd
00000100: 5fa6 a7bc 98f9 0a3e 8719 36be d24b 283e
00000110: 996f 5b3d 39e5 3ebd 5626 c33d 1190 023d
00000120: f525 c6bd 5ac1 8dbd 4d38 03be 6ec6 5f3d
00000130: 63ac acbd 31c8 40be c723 833d a120 803b
00000140: 40db 133c d9b7 a9bb fe67 363d 27d0 03be
00000150: 9487 afbd 1e81 0ebe 5ec6 8ebd 489e 4c3c
00000160: c239 2cbc cfed 3d3c c087 d0bc 2f88 bcbc
00000170: 294e ea3d 12ce e13d 4afd e2bd 23b9 e0bd
00000180: fa4d 133e 3981 3c3d d213 17be df9a 25be
00000190: 18c5 63bc e213 a7bd f761 cc3d e0e8 f4bd
000001a0: b5f8 7fbc c4d1 11be 24df 31be 9150 0e3e
000001b0: 28eb 03be 1e68 c63b 8dfd e33d 7eb8 383d
000001c0: c93b 1ebd 99e1 2a3d 45bd 87bd 1ddd 183c
000001d0: b051 e13d caba 31be 24c0 64bd d14c 893d
000001e0: a12c 0dbe 440a 2ebe 9969 a1bc 5b38 01be
000001f0: 3d91 ef3d d3b1 10be 7b3d 93bb 0e0e a53c
00000200: 58e8 0d3e f233 95bc 4e21 b13d 1ddd ef3c
00000210: 03b6 ae3d 1899 cc3d 5f3c d33d f824 5638
00000220: f8f3 e9bd ce60 cdbd a3cd 4f3d 2ce9 19be
00000230: da6e cfbd 06cc 23be b047 003d 6f06 b93c
00000240: a478 b7bd 08c7 133e 437f e5bc 9cb8 263e
00000250: 470b 093e a898 f23d 4bde 34bc 0cf2 43be
00000260: ef66 1abe d20f 0d3d 37cc 0cbe 654e e2bd
00000270: b6bd bb3b ad2c 163d ef65 6ebe a70c d93c
00000280: 7eee 09be 353c 37be c08f 1f3e d239 813d
00000290: 8f93 b1bd e833 dfbd 8328 0bbe d4ec d23d
000002a0: f4d3 84bd 4400 3bbd 64f8 1d3e 5980 2d3e
000002b0: 9b93 363d 946b 283e 68e6 b1bd 24f7 29be
000002c0: 8a39 10be 1c5f 3cbe 046d fbbd 212f 2bbd
000002d0: 5da4 2dbc beb4 1abe ff5a 633c bd09 153e
000002e0: 9dd7 e93a 4814 0e3e 4f61 5d3c ea24 dc3c
000002f0: 2602 383c 16b1 113e 76a6 9bbd 952e e43d
00000300: 1aa6 23be f1ce 1ebe d6ad ae3d 3cda 963d
00000310: 94a0 fe3c 58b7 afbd 2118 93bd 9fb4 18be
00000320: 09a0 2cbe cb89 f2bd d415 35bb 5395 13be
00000330: d9e2 e23c 8622 213e 973b 0f3e 4a91 d6bd
00000340: 6318 8f3d a7be 26bd 05c9 a4bd 49de 13be
00000350: a1c5 eebd 404b 87ba 7cbe 2ebe b473 44bd
00000360: 550d 253e 1f92 b93d 189f d93d fe65 adbd
00000370: 2487 17be 3b71 ba3d 4be6 f7bd e246 283e
00000380: 52b6 6f3d 35a9 043e f497 20be 34c0 4fbd
00000390: fbbd b13d fc3b 853d 3067 38be a93f 76bd
000003a0: 8242 01be bf3d 92bc c4b6 1b3e 197a 2fbe
000003b0: f974 d3bc b346 57be 796d f53c e5fb 58bd
000003c0: bc2e bf3d bf17 af3d 3c76 d4bd 1ef7 db3d
000003d0: 68ab 2abd 7510 43bd 88ca c5bd 7dfc 9d3c
000003e0: 42c1 073c 4157 5c3d d6b6 31be 1b5f d4bd
000003f0: 7a6d 81bd afbc 1f3e 70be ca3d 7199 c23d
-0.048686944 -0.043929562 0.06020233 0.081250325 0.07239669 -0.10993433 0.012574528 0.10549959
0.03005586 -0.007840663 0.08759985 -0.08386132 -0.1535277 -0.060408257 0.09573065 0.108836174
0.065686524 -0.18064754 0.058265496 0.16089539 -0.14667158 -0.06671665 0.15971676 -0.16675164
0.13506253 0.012559053 -0.12000182 -0.019263979 -0.012451453 0.12334563 -0.10605531 -0.067489415
-0.11591275 -0.03732117 0.08773687 -0.20892598 -0.17827427 0.09875662 0.044491787 0.01627869
-0.17254572 0.090437084 0.14216872 -0.16867271 0.049690794 -0.08267811 -0.18114792 0.035355706
-0.04598455 -0.057824124 0.10371568 -0.09829013 0.040401153 -0.010970007 0.089465745 -0.17875955
-0.122053824 -0.13932121 0.041070208 0.023743182 0.13245237 0.055711586 0.012703077 -0.11565923
-0.020465074 0.13571775 -0.17783175 0.16435173 0.053573225 -0.046605323 0.095287964 0.031875674
-0.096752085 -0.069216445 -0.12814446 0.054632597 -0.08431318 -0.18826367 0.06403308 0.0039101397
0.009024441 -0.005179387 0.04453277 -0.12872373 -0.08570781 -0.13916442 -0.06971429 0.012488909
-0.010511817 0.0115923425 -0.025455356 -0.023014156 0.11440689 0.11025633 -0.11083467 -0.10972812
0.14385214 0.046021674 -0.14753655 -0.1617236 -0.013901971 -0.08158089 0.09979623 -0.1195848
-0.015623261 -0.14240175 -0.17370278 0.13897921 -0.12882674 0.006054892 0.11132345 0.04509782
-0.038631234 0.041719053 -0.06627897 0.009330061 0.11001909 -0.1735641 -0.055847302 0.06704105
-0.13786556 -0.16996104 -0.019703673 -0.12619154 0.11697624 -0.14130335 -0.004493413 0.020148303
0.13858163 -0.018213246 0.086489305 0.02928024 0.0853081 0.09990138 0.10314249 5.1056006e-05
-0.114234865 -0.1002823 0.05073322 -0.15030354 -0.10128565 -0.15995798 0.031318367 0.022586076
-0.08958557 0.14431393 -0.028014785 0.1628136 0.13383208 0.11845523 -0.011039327 -0.19135302
-0.15078329 0.034438916 -0.13749777 -0.11050109 0.0057294024 0.0366637 -0.23281072 0.02649529
-0.13469884 -0.17894061 0.1558218 0.063098565 -0.08670723 -0.10898572 -0.13589673 0.10299078
-0.06485739 -0.04565455 0.15426785 0.16943492 0.04457436 0.16447288 -0.08686525 -0.16598183
-0.1408445 -0.18395656 -0.122766525 -0.041792993 -0.010598269 -0.1510801 0.013876676 0.14554496
0.0017840747 0.13874924 0.01351197 0.02687307 0.011230981 0.14227709 -0.07600109 0.11141697
-0.15981331 -0.1550863 0.0852925 0.07365844 0.031082429 -0.08579892 -0.071823366 -0.14912651
-0.16857924 -0.11842688 -0.0027631419 -0.14412431 0.02769606 0.15735826 0.13987575 -0.104769304
0.06987073 -0.040709164 -0.08046154 -0.14440264 -0.116587885 -0.0010322109 -0.17064852 -0.047961906
0.16118367 0.090610735 0.10626048 -0.08466719 -0.14797646 0.09103628 -0.12104472 0.1643329
0.058523484 0.12955172 -0.15682966 -0.05072041 0.08678814 0.06505582 -0.18008113 -0.060119305
-0.12623027 -0.017851708 0.15206438 -0.1713642 -0.025812613 -0.21023063 0.029959427 -0.0529746
0.09335086 0.08549451 -0.10374114 0.10740493 -0.041667372 -0.047623117 -0.096577704 0.019285435
0.008285822 0.05379415 -0.17354903 -0.103697024 -0.06319709 0.15599321 0.09899604 0.09501923

conv1.5.weight f4 [400]
00000000: 8934 783f 7f13 7b3f a9cd 7b3f 8137 7e3f
00000010: 84ee 7b3f cce9 793f 0cd0 793f 6beb 7c3f
00000020: 6c1b 7b3f 68fd 773f b44b 793f 6e6d 803f
00000030: 48a1 7a3f e1af 7b3f 1dc5 7a3f 6a25 813f
00000040: f503 793f f76e 763f 93e0 7a3f e7ce 7d3f
00000050: 8166 793f ff6a 7f3f 0737 7b3f db54 7b3f
00000060: 631b 7b3f 0675 7b3f 91ca 793f 7b3c 7b3f
00000070: 8b53 7d3f 1934 7f3f 22a9 7d3f e795 7a3f
00000080: 7968 783f a196 773f 04e9 7b3f 6e95 763f
00000090: 1dd9 773f d4ae 7b3f 1504 7a3f eec5 7b3f
000000a0: 9714 7d3f 2498 7d3f bf3d 7c3f 4fcd 743f
000000b0: 2feb 7b3f 7478 7a3f 4611 7a3f 39b6 7a3f
000000c0: 5229 783f c81f 783f d68a 7a3f fb36 7a3f
000000d0: a1ad 7f3f 8b01 783f 81ed 7e3f 7516 7c3f
000000e0: 59b5 763f 738b 753f cf98 7c3f a6b9 7a3f
000000f0: ed08 7d3f 3c78 7a3f ee42 793f f0d5 7d3f
00000100: bef8 7c3f 8751 793f fad2 793f b142 7c3f
00000110: 3fbc 7d3f ab65 773f 235f 7b3f 1d2c 783f
00000120: b242 7d3f 3414 7a3f 56b9 7a3f 77cf 783f
00000130: af10 743f 7e35 783f 91ad 7b3f 4ee7 773f
00000140: 652b 763f 2577 7d3f 2397 793f 8124 7a3f
00000150: 221a 813f 03d7 783f 4cdd 763f be9f 793f
00000160: 6f0f 7b3f 5a48 773f 42ae 783f a08b 7a3f
00000170: 0240 7d3f faf7 793f c74a 7b3f 2b7b 783f
00000180: 64a5 7a3f 4955 7a3f a0f2 7a3f ee76 7a3f
00000190: f40d 773f 4f67 7e3f 5117 773f e8c2 7b3f
000001a0: 87a8 783f b234 7e3f 0844 7c3f af39 7a3f
000001b0: 5570 7c3f f7e7 7c3f 37f4 7a3f b2bd 7b3f
000001c0: c119 7d3f 7ed7 7c3f 6971 7c3f 11c1 763f
000001d0: 296a 7c3f 16f0 793f d73b 7b3f 2547 7b3f
000001e0: b3e1 7c3f 20d1 7d3f b890 7b3f 1e2e 7a3f
000001f0: 2fc5 763f 95ea 793f c315 783f ae09 783f
00000200: 0975 7f3f c1dd 783f 725b 7c3f 3f78 7a3f
00000210: f441 763f 02f4 7d3f 75b5 783f 6cbe 7a3f
00000220: 5789 7b3f e265 813f 1941 7a3f e115 783f
00000230: 4f5d 753f 8bdc 763f bc60 7b3f 5816 7e3f
00000240: b3fb 7e3f 4fc3 7b3f e234 793f 1d55 813f
00000250: 3245 7b3f 7dfd 793f bf34 773f 9a05 7a3f
00000260: b9dd 753f bfed 763f 88ba 7c3f fd4e 773f
00000270: e0de 7a3f 4e0b 7a3f 53e8 753f a33b 7b3f
00000280: f05d 7a3f cb1e 7b3f cc5d 7f3f 5cf5 7b3f
00000290: b4a0 793f 3926 793f c60e 7e3f 8d01 823f
000002a0: 8174 773f cd02 803f 7872 7f3f 682f 7e3f
000002b0: d0ab 813f 4999 7f3f a8a3 7c3f 0068 7c3f
000002c0: 814e 7b3f 7b6b 763f 60ff 793f c9d1 7a3f
000002d0: fc8d 783f 1a8a 7a3f d253 7b3f 798c 7e3f
000002e0: 8f03 7a3f 24e0 783f 57cd 7f3f 95b3 7d3f
000002f0: b00c 7f3f 1898 783f fdb7 7e3f 1a92 7c3f
00000300: 5466 803f cca0 793f fdbd 773f 3f08 783f
00000310: b73f 7e3f fece 7b3f 5cba 7a3f fdad 7c3f
00000320: 4b3c 7c3f 7df0 753f 5b70 7b3f d60b 783f
00000330: 7396 7d3f f476 7a3f e4d3 753f 0063 773f
00000340: c98e 793f 0340 773f 1a09 7b3f a8b3 793f
00000350: 1a07 7f3f 7457 783f 1943 753f 6d6c 7b3f
00000360: 7afa 7d3f 10df 793f d5ec 783f 9d40 7a3f
00000370: 5961 773f 409a 7c3f 53bd 743f fb08 7b3f
00000380: e9db 723f 22ee 773f 1086 7e3f 3f39 7b3f
00000390: 5cf4 7c3f 8d6b 7c3f c3fa 783f 0a73 793f
000003a0: eb38 783f 72b3 7a3f 6521 7b3f 8c43 783f
000003b0: 038f 793f 0292 753f 68a7 763f 1003 783f
000003c0: bf96 773f 9590 773f e94c 7e3f 3c2a 793f
000003d0: 9af3 7c3f 90b4 7c3f 741e 803f b727 7d3f
000003e0: afe1 7d3f f49e 783f 7f5a 7c3f ba3e 7b3f
000003f0: f232 7c3f 73f3 793f 06a0 763f 48e2 7b3f
0.9695516 0.98076624 0.9836069 0.9930344 0.9841082 0.9762237 0.9758308 0.9879672
0.9808872 0.9687104 0.9738114 1.0033395 0.97902346 0.98315245 0.9795702 1.0089543
0.9727166 0.9626307 0.97998923 0.9914383 0.97422034 0.9977264 0.9813084 0.98176354
0.98088664 0.9822544 0.97574717 0.9813916 0.989556 0.9968887 0.990862 0.9788498
0.9703441 0.96714216 0.9840243 0.9632176 0.96815664 0.9831364 0.9766248 0.9834889
0.9885954 0.99060273 0.9853172 0.95625776 0.98405737 0.97840047 0.9768261 0.979343
0.9693805 0.96923494 0.97868097 0.97740144 0.9987431 0.96877354 0.9958115 0.98471767
0.96370465 0.9591591 0.9867067 0.9793953 0.98841745 0.97839713 0.9736775 0.9915457
0.9881705 0.97390026 0.9758755 0.98539263 0.99115366 0.9663951 0.9819204 0.9694231
0.98929894 0.9768708 0.9793905 0.97191566 0.9533796 0.9695662 0.98311716 0.9683732
0.96159965 0.99009925 0.9749624 0.9771195 1.00861 0.9720308 0.9643142 0.9750937
0.98070425 0.96594775 0.97140896 0.978693 0.98925793 0.9764401 0.98160976 0.9706294
0.97908616 0.97786385 0.98026466 0.9783772 0.96505666 0.99376386 0.96519953 0.9834428
0.9713215 0.99299157 0.9854131 0.9774427 0.98608905 0.9879145 0.9802889 0.9833633
0.9886742 0.98766315 0.9861055 0.96388346 0.9859949 0.9763197 0.98138183 0.9815543
0.9878189 0.99147224 0.982677 0.9772662 0.9639463 0.9762357 0.96908206 0.9688977
0.99787956 0.9721337 0.98577034 0.9783973 0.96194386 0.9920045 0.9715188 0.9794681
0.9825644 1.0109217 0.9775558 0.96908385 0.958455 0.9643027 0.9819448 0.99252844
0.9960281 0.9834489 0.9734632 1.01041 0.9815246 0.9765242 0.9656486 0.976648
0.96041447 0.9645652 0.98722124 0.966049 0.9799633 0.976735 0.96057624 0.98137873
0.9779959 0.9809386 0.997525 0.98421264 0.9751084 0.9732395 0.9924129 1.0156723
0.96662146 1.0000855 0.9978404 0.99291086 1.0130558 0.9984327 0.9868722 0.9859619
0.9816666 0.9625775 0.97655296 0.97976357 0.9709165 0.97866976 0.98174775 0.99433094
0.9766168 0.9721701 0.999227 0.99102145 0.99628735 0.97107077 0.99499494 0.98660433
1.0031228 0.9751098 0.96774274 0.9688758 0.9931597 0.9836272 0.9794061 0.98702985
0.985295 0.9607008 0.98218316 0.9689306 0.9905769 0.9783776 0.96026444 0.96635437
0.974835 0.9658205 0.9806076 0.9753976 0.9962021 0.9700844 0.9580551 0.9821232
0.9921032 0.9760599 0.97236377 0.9775484 0.96632916 0.98672867 0.95601386 0.9806058
0.94866806 0.96847737 0.99423313 0.98134226 0.9881036 0.9860161 0.9725763 0.9744116
0.9696185 0.9793006 0.9809783 0.9697807 0.97483844 0.95925915 0.9634919 0.96879673
0.96714395 0.9670499 0.99336106 0.9733007 0.98809206 0.98713017 1.0009294 0.98888725
0.9917249 0.97117543 0.98575586 0.9814259 0.98515236 0.976371 0.96337926 0.9839215

conv1.5.bias f4 [400]
00000000: 4d80 91bc f679 d7bb 66e6 b5ba e00f a6bb
00000010: 865c 36bc f5b5 a1bc 2f4e 70bc a24d 09bc
00000020: 558f 8abc 8246 d4bc d3c4 8abc 7dd1 0dbb
00000030: 0224 22bc a2fe 03bc 3ac8 16bc 21ad 753b
00000040: a34b 35bc 3a86 15bd 25da 1dbc 8b3d 0fbc
00000050: 3162 25bc 7440 41bb c61b 06bc f9e4 0fbc
00000060: 6db0 c1bb 6ac4 c3bb 5908 bbbb 8aba dcbb
00000070: d6a2 08bc dfcb b7bb 9a50 a1bb 604d 24bc
00000080: aefa a2bc 12a3 82bc 2068 aabb e86c d7bc
00000090: 5eb1 86bc 4d01 05bc 4518 99bb 9a26 06bc
000000a0: e920 1dbc aa44 e6bb aac8 59bc 1d78 1dbd
000000b0: 124c 12bc f778 24bc bed1 3cbc 55fe 4bbc
000000c0: a7c5 51bc 57a6 9cbc 41d7 f2bb 7f21 b4bc
000000d0: 693e 20bb 135e 9dbc 28eb 99bb 5d9b 28bc
000000e0: 67f2 17bd d98f 00bd df7f 1bbc 8dd9 79bc
000000f0: 8808 1abc f2e5 3ebc b6bd d3bc 0285 d1bb
00000100: 118d cebb 948d 7bbc 9f39 56bb 7449 f2bb
00000110: ad6a febb 260d 85bc 897b 07bc c203 98bc
00000120: d1a8 80bb 1d2d 3ebc c06c 4abc acad 59bc
00000130: 5dfe 36bd 67f7 a4bc 2554 28bc 38ea bbbc
00000140: fd2b f3bc 93fd 3bbc 8615 53bc 5d0c 5fbc
00000150: 9f45 c2ba c9c6 98bc 8a5f 0ebd 3d18 25bc
00000160: c3f6 5bbc 5464 a2bc 3094 9abc ceae 40bc
00000170: 6082 eebb c99d c4bc 4611 14bc 2818 72bc
00000180: 495f 0bbc 2504 48bc ab27 90bb a0dc 01bc
00000190: d1ac d6bc 6959 3ebb 531c bfbc 5925 c1bb
000001a0: 5c90 95bc ea2b d1bb 6ab7 7cbc 7ea0 77bc
000001b0: 4986 48bc aece 26bb 7bc3 5cbc 3ad9 f3bb
000001c0: 77af e3bc feb3 ce3b 0258 c6bb c0ee b8bc
000001d0: 4438 b5bb 5591 88bc d862 64bc 6cdc 1dbc
000001e0: f50f 0ebc 4ca6 d2bb c4b5 dbbb ec78 17bc
000001f0: d86a 2dbd 7924 38bc 04d3 adbc 5380 9bbc
00000200: 551c 2dbc 2d54 7abc 472b 76bc d1b1 edbb
00000210: 3046 22bd e8c2 3cbb 5d38 b8bc 106f 59bc
00000220: ebe3 a6bb bb7e 02bb 5ef9 51bc 1171 7abc
00000230: 5023 bebc 9f51 f0bc 32ea 1cbc b44d 87bb
00000240: 4b2f 5aba d86f cfbb 35e8 56bc 903d 4abb
00000250: dcad 0ebc 7f42 a2bc 4366 9ebc 6146 e5bb
00000260: 868f 53bd 35b1 04bd 1101 54bb 889b ccbc
00000270: 9ceb 11bc 66db 20bc ab7a 1dbd c604 b4bc
00000280: 0b5c 40bc 209f b3bb 91d9 01bb 646c 23bc
00000290: ad83 3fbc 4759 82bc 02ab 43bc afd7 e53a
000002a0: f10f d8bc 4816 e2bb 39f7 77bb 07b0 c4bb
000002b0: 2294 ceba 6d60 bcbb d9d7 4cbc ca6f 28bc
000002c0: 75ff 09bb 7e30 eebc fc0b 6abc c12c 5cbc
000002d0: a8b6 82bc 9932 0bbc 53c9 96bc 758c f1bb
000002e0: 142e 58bc d13e 86bc e75b 37bc aa6b 05bc
000002f0: db23 01bc 8bdc 8ebc ad99 8dbb c362 f2bb
00000300: b52a cfbb b5bf adbc c350 0bbd feee 6fbc
00000310: 4e20 1bbc 1959 83bc 048b 06bc b246 07bc
00000320: 2a8d 0dbc 3315 eebc b8c1 18bc 2c0e 91bc
00000330: 2b46 04bc ec94 68bc 04d4 c5bc 37a3 d2bc
00000340: 8ffd 0cbc 3b3d 9ebc 5d2d 69bc e26a 10bc
00000350: 1f94 c3ba c79c 6dbc c8d7 25bd f806 fdbb
00000360: ef15 c9bb e115 0cbc 2d36 e1bc 5360 13bc
00000370: d80a a5bc daf7 31bc c2d8 1fbd c2a0 a1bb
00000380: f8cd 16bd 7298 adbc 1461 e5bb 32e3 6bbc
00000390: 0a35 15bc bf9f 4fbb 39aa 9dbc de35 72bc
000003a0: 8c4f 9cbc a85d 51bc c0e1 f1ba 29e1 95bc
000003b0: 6fc9 9bbc 481c f8bc d4ba 0ebd 8150 a6bc
000003c0: f89a b3bc 9f45 81bc 95e7 11bc 7b6d 67bc
000003d0: 40dd dbbb 0254 d2bb 1971 b9ba 8ffc 03bc
000003e0: 5986 74ba 8e9f 8ebc 5230 cebb 908e f8bb
000003f0: 0de2 29bc b2c8 eabb bcf4 f1bc 3824 79bc
-0.017761374 -0.006575818 -0.0013877868 -0.0050678104 -0.011130458 -0.019740084 -0.014667078 -0.0083803255
-0.01691405 -0.025912527 -0.016939556 -0.0021639757 -0.00989628 -0.008056315 -0.009203011 0.0037487226
-0.0110653965 -0.03650496 -0.009634529 -0.0087427 -0.010094211 -0.002948788 -0.008185333 -0.008782619
-0.005910924 -0.005974342 -0.005707782 -0.0067361044 -0.008339604 -0.00560902 -0.0049229385 -0.010028213
-0.019894924 -0.015946899 -0.005200401 -0.026297048 -0.016441997 -0.008117986 -0.0046720826 -0.008187914
-0.009590366 -0.0070272284 -0.013292471 -0.038444627 -0.008929269 -0.010038606 -0.011524616 -0.012450774
-0.012803472 -0.019122286 -0.007410914 -0.021988628 -0.0024451262 -0.019209897 -0.0046972223 -0.010290948
-0.037096407 -0.031387184 -0.009490936 -0.015249622 -0.009401448 -0.011651503 -0.025847297 -0.0063940296
-0.0063034375 -0.015353579 -0.0032688153 -0.00739401 -0.0077641816 -0.016241621 -0.008269199 -0.01855648
-0.0039263745 -0.0116074355 -0.01235503 -0.0132860355 -0.044676173 -0.020137502 -0.010273968 -0.022938833
-0.029684061 -0.011474031 -0.01288355 -0.0136137875 -0.0014821774 -0.018649476 -0.034759082 -0.01007658
-0.013425532 -0.01982323 -0.01886949 -0.011760427 -0.0072787255 -0.02400102 -0.009037321 -0.014776267
-0.0085066045 -0.012208019 -0.00439926 -0.007926136 -0.026205452 -0.0029044992 -0.023328936 -0.0058943448
-0.018257312 -0.006383409 -0.015424589 -0.015113948 -0.012239047 -0.002545278 -0.013474341 -0.007441667
-0.02779363 0.006308078 -0.006052972 -0.022574782 -0.005530389 -0.016670862 -0.013939582 -0.009635072
-0.008670797 -0.0064285155 -0.0067050178 -0.009245139 -0.042338222 -0.0112391645 -0.021218784 -0.018982088
-0.010565837 -0.015278858 -0.015024967 -0.0072538634 -0.039617717 -0.0028802697 -0.022487814 -0.013271108
-0.005093088 -0.0019911963 -0.012815801 -0.015285746 -0.023210198 -0.029335795 -0.009577321 -0.004129136
-0.0008323087 -0.0063304715 -0.013116886 -0.0030859448 -0.0087084435 -0.019807098 -0.019335872 -0.006996915
-0.051650546 -0.03239556 -0.0032349268 -0.024976507 -0.008906271 -0.009817934 -0.038447063 -0.021974932
-0.011740695 -0.0054816157 -0.0019813518 -0.009974573 -0.011689109 -0.015911711 -0.011942627 0.0017535592
-0.026374789 -0.006899629 -0.0037836565 -0.0060024294 -0.00157607 -0.0057487995 -0.012502634 -0.010280559
-0.0021056805 -0.029075857 -0.014285084 -0.013438405 -0.015956238 -0.00849595 -0.018406546 -0.00737148
-0.01319458 -0.016387375 -0.011191345 -0.008143345 -0.007882084 -0.017439147 -0.004321298 -0.007397027
-0.0063222297 -0.021209577 -0.034012567 -0.0146443825 -0.009468151 -0.016033696 -0.008211855 -0.008256601
-0.008639613 -0.029062843 -0.00932353 -0.017706953 -0.00807337 -0.014195662 -0.024148948 -0.025712593
-0.008605375 -0.019316306 -0.014232007 -0.008814545 -0.0014921463 -0.014502711 -0.04048899 -0.007721778
-0.006136648 -0.008550138 -0.027491653 -0.008995133 -0.020146772 -0.010862315 -0.039025076 -0.004932494
-0.03681752 -0.021190856 -0.007000098 -0.014397429 -0.009106884 -0.003168091 -0.019246208 -0.014783351
-0.0190809 -0.012778677 -0.001845412 -0.018295841 -0.01901695 -0.030286923 -0.034846142 -0.02030206
-0.02192448 -0.015780268 -0.008905311 -0.014125223 -0.0067097247 -0.006418706 -0.0014148086 -0.00805582
-0.00093278807 -0.017410066 -0.0062923813 -0.007585354 -0.010368836 -0.007165038 -0.029535644 -0.015206389

conv1.5.running_mean f4 [400]
00000000: 4461 c83e 476c 703d 6a52 053f d953 063e
00000010: 9567 163e 8f15 ebbe 5190 9dbe ae86 b23d
00000020: 5e48 18bd bc46 c4be 2932 983e d7eb 1fbe
00000030: f5f3 f0be 2ef6 1bbe 2fd7 b73e 9432 42be
00000040: f8de 8bbd caa3 cdbe ba6c 943e 7c47 553e
00000050: b27e 87be da08 c7bd 5c27 223c 905e f3be
00000060: 1405 2f3d f14c 053e c469 aabe 39e0 7abe
00000070: 9221 d1be c739 1e3e a397 f6be 3def 0fbc
00000080: b47a 72be 2571 3e3d 4849 51be 8046 c2be
00000090: b24d 963c 45e1 923c 32fd 27be ccab fb3e
000000a0: 2706 153d ccd0 d13c 253c 0dbd bdca 13bf
000000b0: 9075 46bd 9b9e 843d 8108 93be 2e72 f03d
000000c0: 8e7e 003e bf62 113e 9741 113e 39f6 2f3e
000000d0: 6c1d 183e 2d71 0a3e 74d1 6b3d a5d5 703d
000000e0: bef8 a7be df09 00bd ad55 123e 7585 e83e
000000f0: 91a0 8fbd e3f5 ef3d 5169 e1bd 5521 04bf
00000100: c375 8c3d 24e2 013e d50f 15be 5b2e 973e
00000110: 7500 01be 27d0 4cbe e487 8dbc 08a4 6c3e
00000120: d28c 063e 3436 9abe 6d2e 003f 7955 913d
00000130: 504c 9bbe 87cb 9fbe 5783 e83d 72c6 8b3d
00000140: bab6 c9be 9c51 a1be 7f3c c1bd 5f88 6b3e
00000150: f3ae 513e 7d30 bb3d 19bc 22be a269 29be
00000160: 1b59 e43d f631 6f3e 3b37 b5be a04a 8ebe
00000170: d774 2e3c 3f14 993c 17a4 823b ada6 ae3e
00000180: d0db e53e bfba b23e 64ca 83be 3bf3 b1bd
00000190: 695c 753e 9fb5 223e ea2f cf3e 44a4 5b3e
000001a0: be56 4f3e ac68 cbbe 03e9 e5be fe12 f93d
000001b0: e4dd a1bd 7ac7 8e3d 1e9a 99bc 2763 dc3d
000001c0: b5b0 32be 873a 48be e6dd 37be fe06 393e
000001d0: 5f4a 613e 2315 92be 885f 1dbd 01d0 153f
000001e0: ee89 53be 76d8 1abf 462c 0d3e b1bd a3be
000001f0: f68d 9e3c c8b1 1ebe d073 acbd ae0f c6bc
00000200: f2bc 903e 7d49 b93e 29f6 9cbb fd5d 413e
00000210: 139f 433e 4abc ee3e b4bd 9b3d 148e 36be
00000220: 5c00 2b3d b696 b93c 28b7 8a3e be6c 6fbe
00000230: 4350 3dbd 7e9d a83e 224e 13be 728f 453e
00000240: 4f73 c5be 053b 37bf 7d4b 993d 112a e13e
00000250: fec5 48bd 6a7a 4e3e 3148 7fbd 65fc fd3d
00000260: 661a cd3d ecb3 283e 0d62 fd3c ea0d bfbd
00000270: e059 fc3d 3788 223f 5234 2bbe a1f1 cabe
00000280: e72f ddbd 093a b43d 0b87 673e 410f 3abd
00000290: 63ff e2bd ee54 b83e 8d8e 9dbe 53e6 913e
000002a0: 8d63 09be bee9 123e b93c 01be 8a1a 8dbc
000002b0: 2b41 3d3e e721 293e 0681 f63e 6fdf 7bbd
000002c0: d895 ebbe 9474 fbbe 6c16 913e cfea 53be
000002d0: 2261 cbbe bb16 863d 3408 8f3e 025b ff3d
000002e0: 9e2c 1a3d e143 863e f689 40be 89ba ed3d
000002f0: 999a f8bd f708 563d 9814 3c3e 8d50 393d
00000300: 904c 63be ab6b 75be fad2 aa3d c6c9 bc3d
00000310: f65f 2c3d 98db 40be 354e 333d ed01 97be
00000320: c5f0 c5be a96c 4bbd f5a9 8b3e cf80 13be
00000330: 199c 0ebd 403d abbd 31f8 053f 96d4 7abe
00000340: 9929 ec3d 87d4 a73d 70ca 6ebe 51fe cdbe
00000350: 63e0 81be f752 d1be 421c bf3c 4070 033e
00000360: 7d8d d0bd 100e 2e3d 0a69 183f b38c b73c
00000370: ab7d aabe af62 303d 00ce 2ebe 6adf 47be
00000380: f266 a53d dbbb e73e c126 f73d 8c41 593e
00000390: cadf d23e d950 91be 645d bcbe c2c0 ac3d
000003a0: a6e6 ce3c ff20 dcbd f244 e1bd 03de 9f3e
000003b0: 1ed4 f8bd 8d8c 38be bb5e aa3e 227e 8dbd
000003c0: 3dbc 9d3d b858 fbbd 992a d7bd fba1 173d
000003d0: 6586 163e 0a4a 21be 38a4 9d3d 17cd e9bd
000003e0: e8e1 4fbe 73dc 37bd d073 26be 3936 73be
000003f0: 7ac6 453e c27a d43d 8ec5 e03e 3867 d93e
0.39136708 0.05869701 0.5207888 0.13117923 0.14687951 -0.45914885 -0.30774167 0.08717094
-0.03717839 -0.38335216 0.2972577 -0.1561731 -0.47061124 -0.15230629 0.3590636 -0.18964607
-0.06829637 -0.40164024 0.28989202 0.2082805 -0.26463848 -0.09718485 0.009897079 -0.47533083
0.042729452 0.13017632 -0.33283818 -0.24499597 -0.40845925 0.15451728 -0.48162565 -0.008785066
-0.2367962 0.04649462 -0.20438111 -0.37944412 0.018347595 0.017929683 -0.1640518 0.49154508
0.03638282 0.025612257 -0.034481186 -0.5773123 -0.04845196 0.06475564 -0.28717425 0.11740528
0.12548277 0.14197825 0.14185177 0.1718377 0.14854974 0.13519736 0.057572797 0.058797497
-0.32806963 -0.031259414 0.14290495 0.4541432 -0.070130475 0.11716821 -0.11006416 -0.5161336
0.06858399 0.12683922 -0.1455682 0.29527554 -0.1259783 -0.20001279 -0.017276712 0.23109448
0.13139656 -0.3011948 0.5007084 0.07096381 -0.3033166 -0.31209967 0.11353176 0.0682496
-0.39397222 -0.31507576 -0.09435367 0.2300124 0.20476894 0.09140108 -0.15892066 -0.16544202
0.11149808 0.23358902 -0.353937 -0.2779131 0.010647974 0.018686412 0.003986846 0.3411154
0.44894266 0.349081 -0.2574035 -0.08688971 0.23961033 0.15889595 0.40466243 0.21449381
0.20247933 -0.39728296 -0.44904336 0.121618256 -0.079036504 0.06971641 -0.018750247 0.10761099
-0.17450221 -0.19553576 -0.17955741 0.18069074 0.22001027 -0.2853175 -0.038421184 0.58520514
-0.20658085 -0.60486543 0.1378642 -0.3198066 0.019354802 -0.15497506 -0.08420527 -0.024177399
0.28269154 0.3618888 -0.0047900868 0.1888351 0.19103651 0.46628028 0.076045424 -0.17827636
0.04174839 0.022654872 0.27092862 -0.23381326 -0.04621912 0.32932657 -0.14385274 0.19293001
-0.38564536 -0.7157443 0.07485101 0.43977407 -0.049016945 0.20163885 -0.062324706 0.12401656
0.10014801 0.16474885 0.030930543 -0.09328826 0.1232183 0.634891 -0.16719177 -0.39637473
-0.10800152 0.08800132 0.22610109 -0.045424704 -0.110838674 0.36002296 -0.3077282 0.28496036
-0.13416882 0.14346978 -0.1262082 -0.017224569 0.18481891 0.16516839 0.48145312 -0.06149238
-0.4601276 -0.4911238 0.2833742 -0.20695041 -0.39722544 0.06547304 0.27935946 0.1246853
0.037640207 0.26223662 -0.18802628 0.116078444 -0.12138862 0.052254643 0.18367231 0.045242835
-0.22197175 -0.23966853 0.08341022 0.09218173 0.042083703 -0.18833768 0.043775756 -0.29493657
-0.38660255 -0.049664173 0.27278104 -0.14404605 -0.034816835 -0.08361292 0.52331835 -0.24495158
0.115313716 0.08194833 -0.23319411 -0.4023309 -0.25366506 -0.4088361 0.023328904 0.12835789
-0.10183237 0.04249388 0.59535277 0.022405958 -0.33299002 0.043062862 -0.1707077 -0.1951882
0.08076276 0.4526051 0.120679386 0.2121641 0.41186363 -0.28381994 -0.3679 0.08435203
0.025256466 -0.10748481 -0.109994784 0.3122407 -0.12149833 -0.18022366 0.332754 -0.069088235
0.07701919 -0.12272781 -0.10506172 0.03701971 0.14699705 -0.157509 0.07697338 -0.11416071
-0.2030102 -0.04488797 -0.16255116 -0.23751153 0.19313994 0.10374977 0.43900722 0.42461562

conv1.5.running_var f4 [400]
00000000: 4376 193e 3480 983d d47c 2e3e 97c4 7b3e
00000010: 8386 2e3e 3c33 2a3e 2fd5 0c3e b14e 463e
00000020: 9a94 0b3e 8fd8 8e3e 2823 153e d154 233e
00000030: 8475 193e 6e95 2d3e 556b df3d 7979 e13d
00000040: 531e f63d 10c9 233e dee4 393e 6633 f83d
00000050: 56c4 3f3e 2df9 f43d 8162 d83d cb2f 163e
00000060: e990 ac3d f59d d23d 5661 383e a2dd 563e
00000070: 5762 163e 70cc 253e 95e2 493e 54f1 103e
00000080: 5d5f fa3d a37a 4a3e 0509 0c3e e189 453e
00000090: 0003 f13d 0f65 0e3e 6ecd 4f3e 0667 083e
000000a0: 47bf 063e fc08 243e 2abb 493e 979c 063e
000000b0: d083 243e 2908 073e 0639 853e 524c 0b3e
000000c0: 13c7 e73d 1c47 0c3e f2ae 203e 9c40 2b3e
000000d0: 6064 6e3e fafb ff3d 5f61 cf3d 0b83 073e
000000e0: 52c7 f43d d2b6 063e 0711 f63d 8407 ab3e
000000f0: ed71 223e bebc fe3d 9c5f ed3d e507 5b3e
00000100: faa3 0b3e 7c52 453e 14e6 8e3e 97de dd3d
00000110: d3d0 2a3e 7fee 8a3e d8cc ec3d 94f7 283e
00000120: 4869 123e c3be 2e3e cb1d b43e 267a f43d
00000130: 976c 1c3e 58f1 2d3e 8f51 173e b937 f63d
00000140: 03df 313e d1c4 143e e884 003e bf1b 9d3e
00000150: f512 ff3d cd87 213e 9190 f13d b3c0 eb3d
00000160: f841 f03d 973d 493e b6ae 2b3e 4c21 273e
00000170: 4c30 d03d 07bb 8a3e fb9e 803e 2bb9 823e
00000180: a4f6 e23d bbf0 0c3e 3fcb 303e cee5 c73d
00000190: b770 693e 3046 163e d78b 633e 8812 3d3e
000001a0: 1fac 393e 566f 193e 2504 143e 483b f23d
000001b0: 0897 c93d 1e05 2d3e 25b6 f93d afad 1f3e
000001c0: a87a ce3d 9684 443e 5e32 fb3d 1b39 543e
000001d0: 5f5d 3f3e 25be 353e 4ee8 273e 691d 3b3e
000001e0: 1fe8 5c3e 9e90 463e dd09 f13d 48b8 e03d
000001f0: d29c e83d a20a 5d3e a8cd 433e 9d34 b73d
00000200: 0ca7 023e 632d 7a3e e706 693e 4d8d 1b3e
00000210: e15d 2f3e 1f62 463e b579 273e 5533 173e
00000220: 7993 fd3d 1812 b63d 28b3 673e 97c2 f93d
00000230: 4786 163e 9b29 c23e 931b 213e fde3 e23d
00000240: 06a8 203e 81a4 e23e 34d9 573e a12f 1a3e
00000250: 80fb 043e be07 db3d 6c9a de3d 6f2f 033e
00000260: 861e 283e 0b72 093e 6648 f03d 524f 0c3e
00000270: a99a 0d3e cce1 b13e 56ba e73d ec2b 003f
00000280: 7256 4c3e 01b3 203e a219 273e 2841 ca3d
00000290: 0a1d b23d 6f6e 6b3e 2ab2 073e c765 0a3e
000002a0: f8c8 0b3e 0a48 303e 9558 0a3e 199c 1f3e
000002b0: c4ea 0f3e fb89 803e f6df 943e 4012 1f3e
000002c0: 4b45 6b3e 7845 2f3e c4a2 813e 652b f63d
000002d0: 78b3 1f3e 4361 1e3e 48a3 d43d e913 fc3d
000002e0: 5b2d 003e 4cb5 fb3d 7f51 fe3d be78 e73d
000002f0: 428a b03d 2dba 573e ea6b fa3d 102c 023e
00000300: 8ea2 153e 0d83 9c3e cf24 e53d 99be 043e
00000310: 4950 e73d cd7a f63d 8b88 c23d d515 0a3e
00000320: 6a33 ff3d d3f7 1e3e 876e 4a3e 6056 203e
00000330: 82fb e93d a8de 2e3e 13b9 193e 80c0 f33d
00000340: 98e3 2e3e 574c 093e b300 843e a906 433e
00000350: 4baa c33d 78eb 6c3e d4c7 7c3e be7f 333e
00000360: 3ee1 fe3d b10b f43d 8912 3e3e e5ec fa3d
00000370: fbe0 ff3d 144e 2f3e 064e 243e 92ea 0a3e
00000380: f3ba 803e 9a3f 063e 2533 cd3d 8331 cf3e
00000390: dd06 163e 10fe 313e 723f 543e 1c8d 323e
000003a0: 4c47 183e 3d5f dd3d 41f9 c23e 6cbe 353e
000003b0: aca4 123e 4c37 853e c749 ff3d 6eee 013e
000003c0: 61ae 173e bc00 433e 7233 203e 395f c43d
000003d0: 1571 753e c121 f23d 6561 093e 1818 093e
000003e0: 2346 833e 62f0 ee3d 17d7 003e 0286 203e
000003f0: acdb 313e 2e64 e83d d2c9 563e 685f f53d
0.1498652 0.07446328 0.17039806 0.24586712 0.170435 0.16621107 0.13753198 0.19365956
0.13630906 0.27899596 0.14564192 0.15950324 0.14986235 0.16951534 0.10909144 0.11009497
0.12017503 0.15994668 0.18153712 0.121191785 0.1872724 0.11961589 0.10565663 0.14666669
0.08426077 0.10284034 0.1800588 0.20982984 0.14685951 0.16191268 0.1971534 0.1415456
0.1222522 0.19773345 0.13675316 0.19290878 0.1176815 0.13905738 0.20293209 0.1332055
0.13158904 0.16019052 0.19700304 0.13145672 0.16065907 0.13186707 0.26020068 0.13603333
0.11317267 0.13699001 0.15691736 0.16723865 0.23280478 0.124992326 0.10125994 0.13233583
0.1195208 0.13155678 0.120149665 0.3340417 0.15863772 0.124383435 0.11590502 0.2138973
0.13636771 0.19269747 0.2790991 0.10833471 0.16681223 0.27135083 0.11562508 0.16500694
0.14297974 0.17064957 0.3517898 0.119373605 0.15275799 0.16986597 0.14777206 0.12022347
0.17370228 0.14528205 0.125507 0.3068523 0.12454788 0.1577446 0.11795152 0.11511364
0.117313325 0.19652401 0.16765866 0.16321295 0.10165462 0.27095816 0.25121292 0.25531897
0.11082199 0.13763706 0.17265032 0.09760629 0.22796904 0.14675212 0.22221313 0.184641
0.18132065 0.14983878 0.14454706 0.11827713 0.0984326 0.16896483 0.121929444 0.15593599
0.100819886 0.19191203 0.12265466 0.20724909 0.18687962 0.17748316 0.16397211 0.18272938
0.21572922 0.19391105 0.117694594 0.10972649 0.11358036 0.21586087 0.1912142 0.08945582
0.12759036 0.24431376 0.2275654 0.1519062 0.17125656 0.19373368 0.16355021 0.14765675
0.12381644 0.0889017 0.22626936 0.12195318 0.1469966 0.37922367 0.15733175 0.110786416
0.15689096 0.44266132 0.2107895 0.15057231 0.12986565 0.10694836 0.108692974 0.12811063
0.16417894 0.1342241 0.11732559 0.13702133 0.1382853 0.34742582 0.11314838 0.5006702
0.19954851 0.15693285 0.16318372 0.09875709 0.08696945 0.22991346 0.13251558 0.13515387
0.13650882 0.1721498 0.13510354 0.1558689 0.140544 0.2510527 0.2907712 0.15534306
0.22975652 0.17116344 0.25319493 0.120199956 0.15595806 0.1546679 0.10382706 0.12308485
0.12517302 0.12290439 0.12417888 0.113023266 0.086201206 0.21067114 0.12227614 0.12712121
0.14612791 0.30568734 0.11188661 0.12963332 0.1129461 0.12035141 0.094987 0.13484891
0.12460978 0.15524225 0.19768725 0.1565795 0.114249244 0.17077124 0.15012006 0.11901951
0.17079008 0.13408028 0.25781783 0.1904551 0.09553965 0.23136699 0.24685603 0.17529199
0.12445305 0.119162925 0.18561758 0.12252215 0.124940835 0.17119628 0.16045389 0.13566044
0.2514263 0.131102 0.10019521 0.40467462 0.14651056 0.17382073 0.20727327 0.17436641
0.14870948 0.10809181 0.3808079 0.17748421 0.1432063 0.2601875 0.12465244 0.1268861
0.14812614 0.19043249 0.15644625 0.09588475 0.23968919 0.11822844 0.1341606 0.13388097
0.25639448 0.11666943 0.1258205 0.1567612 0.17368954 0.11347233 0.20975426 0.11981088

conv2.0.weight f4 [10, 1, 6]
00000000: 39eb 4abd b166 7fbe 06b5 b9be 4b3d 8a3e
00000010: e606 203e 4249 8b3e 67ef 8b3b cf87 20bd
00000020: 21c5 8b3e 8374 263e 77e8 b23e e128 113e
00000030: b253 193e 1904 273e 8828 0bbe 2439 adbe
00000040: d353 c53e c6a7 c2bc edb1 45be f18a 43be
00000050: 96c1 d03e 9fa6 11be c5e8 a3be d637 2dbe
00000060: f560 4cbe a0f1 61be b46f 6ebe a23b a33e
00000070: 2408 a1be 0f43 50bd ee73 993e 0592 413d
00000080: 050d a43e b624 9cbe f51f 0d3e 569e 98be
00000090: f995 e93e fa31 e4bd fcc6 033e ab2b 5fbe
000000a0: bba0 7bbe 95cd 8e3d 762a b83e 8ea3 073e
000000b0: a0ec 963e feb6 d53e f560 c1bd e374 113e
000000c0: 8348 7cbd b714 433d 1784 a43e fc49 9e3e
000000d0: b95d bcbe b54e 09be 8307 16bd 8e67 0fbd
000000e0: c5dd e73d 14a0 de3e 7246 67be 6226 8dbe
-0.049540732 -0.24941517 -0.36270922 0.26999888 0.15627632 0.2720433 0.0042704823 -0.039192017
0.27298835 0.16255383 0.34942982 0.1417575 0.14973333 0.16310157 -0.1358968 -0.33832657
0.38540515 -0.023761641 -0.19306155 -0.1909597 0.40772694 -0.14223717 -0.32013527 -0.16915831
-0.19958861 -0.22064829 -0.23284799 0.31881434 -0.31451523 -0.050845202 0.2997126 0.047258396
0.32041183 -0.30496758 0.13781722 -0.298083 0.45622233 -0.11142345 0.12868875 -0.21794002
-0.24573033 0.069728054 0.35969895 0.13245985 0.29477406 0.41741174 -0.09442321 0.14204745
-0.06159259 0.047627177 0.32132027 0.3091582 -0.36790255 -0.1340893 -0.036628257 -0.035010867
0.11321596 0.43481505 -0.22585467 -0.27568346

conv2.0.bias f4 [10]
00000000: dab0 2d3e a0bb c63d 4e80 c03c b427 62be
00000010: 7e7f c73b 697d 2abe c47c b2be 68f2 51be
00000020: 4107 e03d 9c98 bbbe
0.16961995 0.097037554 0.02349868 -0.22085458 0.0060881963 -0.16649403 -0.34860814 -0.20502627
0.109388836 -0.3663987

conv2.1.weight f4 [10]
00000000: 703d 883f 7e53 7e3f 61aa 8a3f 749b 833f
00000010: 258c 853f fe8e 903f eeab 913f 7f27 803f
00000020: 5a5d 843f 2bdf 8a3f
1.0643749 0.9934615 1.0833246 1.0281816 1.0433394 1.1293638 1.1380594 1.0012053
1.0340989 1.0849355

conv2.1.bias f4 [10]
00000000: dbf0 91bb 2d39 b53c 6dad 583b 0a24 0fbb
00000010: 1cb0 1e3b b9b2 613b dec1 b73c 856b 1ebb
00000020: ac32 f03b adac 0c3c
-0.004453761 0.02212199 0.0033062354 -0.002184155 0.0024213856 0.0034438802 0.02243131 -0.0024172973
0.0073302593 0.008586091

conv2.1.running_mean f4 [10]
00000000: f75c 343e 97d6 5240 2e26 383f 50cc 20c0
00000010: b922 1fc0 0a8a bc3e 9fc4 afbe 29f6 9740
00000020: 509b e63e 44a7 31bf
0.17613588 3.2943475 0.7193326 -2.5124702 -2.4864943 0.36824065 -0.34329697 4.748799
0.4504037 -0.6939585

conv2.1.running_var f4 [10]
00000000: e313 913e 189b 0640 1f3c a83e 0bb6 a33f
00000010: 2a66 af3f 2dc2 9c3e 6e23 4e3e 3aa3 9b40
00000020: 5045 8f3e b677 833e
0.28335485 2.1032162 0.3285837 1.278993 1.3703053 0.30616894 0.20130703 4.863675
0.2798257 0.2567727

conv2.4.weight f4 [400, 10, 6]
00000000: 0f58 0bbe 8da8 14be c2e2 d43a 0eeb 3f3d
00000010: 9b0f 5dbd 7ec9 01be 3bf6 ff3c c94f fbbd
00000020: 595a 603d 7b46 12bd 9e3d 9c3d b08d 2dbd
00000030: 55dd c53d b6f6 993d afad cdbd f5d0 b23d
00000040: d1f1 debd e256 323d 4671 b53d 759e eb3d
00000050: a722 37bd b221 ca3d 8e86 e83c d4ad 11bd
00000060: c178 5b3d 7dd7 413d e1dd 413d de86 30bd
00000070: f549 503d 326f f73b 4acc ea3d faf2 96bd
00000080: ddd3 85bd e7b9 d0bc 8f5f 173c 807f 40bd
00000090: 9cae b3bd b887 10be 9d11 48bc d29f 653d
000000a0: 2163 a7bc 572c 97bd 10c5 093d b65d b83b
000000b0: 6514 44bd 8f4f 433d b686 ae3c d408 853d
000000c0: 3aee 87bd 8ee0 193d 4d09 03be 0b47 383d
000000d0: 6938 493d 5b26 05be 2f78 acbc a7c0 d0bc
000000e0: 6c4b 8b3d b06d 3ebd b60d 01be f694 7ebd
000000f0: 82b9 893c a439 913b af98 563d 0e67 10be
00000100: 3f2b 9bbc d9e3 743d f043 cc3c 9a12 9c3d
00000110: 1a65 c1bd 39e9 d43d 886e d53c d8f5 633d
00000120: 9aed c63d bfd2 dfbd 1e6f 13bd 84c5 eebc
00000130: 1c6d e3bb 5918 a1bd 0855 67bd e36d 093b
00000140: 6505 233d 199b 3abd 3132 2fbd 4589 0ebd
00000150: 2eeb e2bd 6168 b6bd 5444 04bd ab2b 123c
00000160: 32ad b1bd 68da 693c b58f 4cbd 6ebb cabd
00000170: 9c4d 783c 48e5 a7bd 06fe 1a3e b7fc f83d
00000180: 12cd 133d 882d 483d 4537 8fbd dfa7 013e
00000190: fa33 ee3d 2ab0 9a3d 0ad5 b2bd 30d0 d93d
000001a0: f350 b13d 64d3 c3bd dacc c9bc cb9e a13d
000001b0: c90a 5fbd 1341 313d 782d dabd 0b45 9dbd
000001c0: 4149 0c3e 0ddb db3d 0b73 22be a65e cfbc
000001d0: f8eb 9f3d 9c4f 003d 757a ee3d 6c30 773d
000001e0: 331a 04be 8006 d13d 99a8 48bd 5f7b 42be
000001f0: 322f 0ebe c636 f9bd e442 aebd 4da9 42bd
00000200: 4e0b d8bd 7348 59bc 3233 8e3c 39ff ac3c
00000210: 647b a93c a78d 443d 6978 9cbd 9aa3 a33c
00000220: c0fd 99bd c824 a7bd eb2a b9bd 3159 dc3d
00000230: e229 33bc fee7 13be ed67 d93d 2386 a93d
00000240: cc6a e6bb ce2e c73d f83f c4bd e173 83bd
00000250: 0b82 413d 7e50 febc 01d3 07be d10b b5bc
00000260: 8264 d0bc 8224 6a3d 0262 c43d 904a dcbd
00000270: 80b6 64bd 88d7 0d3e 107d 93bc 0f0c c43d
00000280: ff88 79bd e9f2 993d 1874 60bd f9b1 443d
00000290: a042 6bbd 4a9d 383d ba20 0fbe 97e8 b3bd
000002a0: 7234 0ebd 5285 c13d b3e9 aebd 1afd f73d
000002b0: dcb3 46bd ff6c 933d 9065 86bd 2861 d53c
000002c0: d94f d9bb 5f11 bdbc 7a0b c8bc ec39 02bd
000002d0: ad15 743b fc64 5c3d 796f ae3c 9f52 963d
000002e0: 3ca4 223d 8e0f ce3d 7f9f 483d c0cc e53c
000002f0: 57d1 ac3d be08 f2bd ab06 afbd d78b 0ebd
00000300: af07 fcbd bf0a 3a3d 354a 00be e420 fcbd
00000310: 63d5 d93d c407 61bd 9ca6 ef3d d138 abbc
00000320: 0150 66bd a908 f7bd 4f8e 17be 4892 f03d
00000330: b580 8fbd 9e20 00be 051f 833d d3cb 2d3c
00000340: 6d00 163c 83a7 9cbd c079 683c e993 b63c
00000350: 0dba 0cbd b315 1b3d 08e9 a73b a620 0abe
00000360: 115b 173b 7522 b03c 4608 3d3c db41 8f3d
00000370: 3fa9 61bc ce54 0f3d 2c39 ec3d 5158 3b3c
00000380: 6e8d f0bd a6ba b4bd 7328 fe3d f5ef 373d
00000390: eba5 5d3d bdfa c6bd 4752 0cbe 58ff 6dba
000003a0: 8d93 8c3d dc59 cabc daee 56bd fbdc 35bd
000003b0: f4e0 95bc af47 f7bb 5c13 1bbe eef5 f3bd
000003c0: f784 cd3d 9fe0 aa3d 18a7 20be 17e6 853c
000003d0: 5155 fe3d f5ff 9bbc 48fd b8bd a4b3 59bd
000003e0: 7fb5 dd3d 3d05 b03d 8036 c2bd 923b e63d
000003f0: e72e 80bd 8389 cf3d 8646 0bbe f916 a13b
-0.1360781 -0.14517422 0.0016241896 0.046855025 -0.05396996 -0.1267452 0.031245342 -0.12271077
0.054773662 -0.035711747 0.0762894 -0.04237145 0.09661356 0.075177595 -0.10042893 0.08731262
-0.108859666 0.04353989 0.08859496 0.11504833 -0.04471078 0.09869708 0.028384473 -0.035566166
0.053581957 0.047324646 0.04733074 -0.04309737 0.05085178 0.0075510973 0.11464746 -0.07370563
-0.0653455 -0.02547927 0.009239092 -0.046996593 -0.087735385 -0.14114273 -0.012211231 0.05606062
-0.02043301 -0.07381504 0.0336352 0.0056264056 -0.047871012 0.047683295 0.02130447 0.064958245
-0.06637235 0.037567668 -0.12796517 0.044989627 0.049126063 -0.13002913 -0.021053402 -0.025482489
0.06801495 -0.046491325 -0.12602887 -0.06215378 0.01681209 0.00443192 0.052391704 -0.14101812
-0.01894152 0.059787605 0.024934739 0.076207355 -0.09443112 0.10396046 0.026053682 0.055654377
0.09713288 -0.109288685 -0.03599464 -0.029146917 -0.006940497 -0.07865972 -0.056477576 0.0020970039
0.039800067 -0.04555807 -0.042772476 -0.03479888 -0.11080013 -0.089066274 -0.032291725 0.008921544
-0.086756125 0.0142732635 -0.049941737 -0.098990306 0.015155222 -0.08198029 0.15135965 0.121575765
0.036084242 0.048871547 -0.06992964 0.12661694 0.116310075 0.07553132 -0.0873204 0.10635412
0.08658018 -0.09561804 -0.024633814 0.078916155 -0.054453645 0.04327495 -0.10653204 -0.076791845
0.13699819 0.1073514 -0.15864198 -0.025313687 0.07808679 0.03132592 0.116444506 0.060348913
-0.12900619 0.10206318 -0.048988912 -0.18992375 -0.13885191 -0.1216865 -0.08508852 -0.04752474
-0.10549031 -0.013261902 0.017358396 0.021117793 0.02068872 0.047986653 -0.07640154 0.019975472
-0.07519102 -0.08161312 -0.09041389 0.107591994 -0.010935279 -0.14443967 0.106155254 0.08277538
-0.007031774 0.09725724 -0.095825136 -0.064185865 0.04724316 -0.031044241 -0.13264085 -0.022100361
-0.02543855 0.057163723 0.09589006 -0.10756409 -0.055838108 0.1385175 -0.01800397 0.095726125
-0.060921665 0.075170346 -0.054798216 0.04802129 -0.057436585 0.045071878 -0.13977328 -0.08784597
-0.034717984 0.09449257 -0.08540668 0.12108822 -0.04851137 0.07198524 -0.0656234 0.026047304
-0.006631833 -0.023079572 -0.024419535 -0.03179352 0.0037244365 0.053807244 0.021293389 0.073399775
0.039707407 0.100615606 0.048980232 0.028051734 0.08438366 -0.11818074 -0.08546194 -0.03480133
-0.12306153 0.045420405 -0.12528308 -0.12310961 0.106364034 -0.054939047 0.117017 -0.020901116
-0.05622864 -0.12062199 -0.1480038 0.11746651 -0.07006971 -0.12512442 0.06402401 0.0106076775
0.009155375 -0.07649138 0.014189184 0.022287326 -0.03435712 0.03786249 0.005124215 -0.13489017
0.0023095051 0.021500805 0.011537617 0.06994983 -0.013773262 0.034992985 0.11534342 0.0114346305
-0.117457256 -0.08824663 0.12410059 0.044906575 0.05411331 -0.09715793 -0.13703261 -0.00090788817
0.068640806 -0.024701051 -0.05247388 -0.044400197 -0.018295743 -0.007546387 -0.15144104 -0.11912142
0.10035127 0.08343624 -0.15688741 0.016345067 0.124186166 -0.019042948 -0.090326846 -0.053149834
0.10825633 0.08594749 -0.09483051 0.11241831 -0.06258946 0.1013365 -0.13601121 0.0049160686
