model/k_separated_bigrams_pssm_k3_model.ckpt (torch, 635099 bytes, 40 tensors)

conv1.0.weight f4 [10, 1, 3]
-0.15269214 -0.20728137 -0.033772517 0.42868656 0.50304216 0.07712006 0.36060572 0.26619282
-0.37887558 0.5716069 -0.3407832 0.26656452 -0.5487615 0.55748117 -0.2962347 0.22179659
0.16900834 0.073862486 -0.24689752 -0.45976627 -0.43753538 -0.03880771 -0.30897474 0.34580743
-0.29541287 0.15274416 -0.14926225 -0.44433898 -0.33170724 0.121264495
00000000: 545b 1cbe 9141 54be 0d55 0abd ce7c db3e
00000010: 5fc7 003f 1ff1 9d3d 50a1 b83e 6d4a 883e
00000020: fbfb c1be d454 123f 237b aebe 257b 883e
00000030: a27b 0cbf 16b7 0e3f 13ac 97be a51e 633e
00000040: 8610 2d3e 3745 973d b4d2 7cbe 7c66 ebbe
00000050: a304 e0be d5f4 1ebd f031 9ebe ac0d b13e
00000060: 5b40 97be f768 1c3e 34d8 18be 6680 e3be
00000070: 88d5 a9be 8559 f83d

conv1.0.bias f4 [10]
-0.3976397 -0.3777482 0.19962357 -0.38685694 0.23764952 0.5797299 -0.3991606 -0.14675678
0.39467168 0.15612318
00000000: 6e97 cbbe 3668 c1be 1f6a 4c3e 1d12 c6be
00000010: 655a 733e 2e69 143f c75e ccbe 6947 16be
00000020: 6812 ca3e c1de 1f3e

conv1.1.weight f4 [10]
0.99802345 0.9691507 0.98071367 0.9948106 0.9824787 0.96869695 1.0162466 0.98997366
1.0148243 0.9940374
00000000: 777e 7f3f 431a 783f 0d10 7b3f e8ab 7e3f
00000010: b983 7b3f 86fc 773f 5e14 823f ea6e 7d3f
00000020: c3e5 813f 3c79 7e3f

conv1.1.bias f4 [10]
0.010165857 0.016071899 0.014684514 -0.00020269425 -0.010104047 0.024467504 0.026762944 -0.011007643
0.007908385 -0.00096038217
00000000: b28e 263c 37a9 833c 5197 703c 538a 54b9
00000010: 728b 25bc 1370 c83c f63d db3c 6759 34bc
00000020: 2c92 013c 28c2 7bba

conv1.1.running_mean f4 [10]
-0.7807822 0.6305892 0.47563738 0.10095496 0.02189058 1.007729 -1.6519781 -0.10277838
0.14635147 -0.45068836
00000000: 58e1 47bf 4b6e 213f be86 f33e 79c1 ce3d
00000010: e053 b33c 44fd 803f 0574 d3bf 797d d2bd
00000020: 29dd 153e a0c0 e6be

conv1.1.running_var f4 [10]
0.184464 1.0876777 0.33841708 0.4212107 0.3865466 0.25716463 1.4611511 0.14893426
0.1262774 0.51188886
00000000: 21e4 3c3e 0639 8b3f 0145 ad3e eea8 d73e
00000010: 70e9 c53e 15ab 833e 0007 bb3f 3982 183e
00000020: dd4e 013e 260b 033f

conv1.4.weight f4 [400, 10, 3]
-0.14429213 0.039727725 0.11836917 0.07313011 -0.029936522 -0.12542011 0.15311328 0.074157834
0.12983963 -0.09066671 -0.037570372 0.136097 0.0832339 0.0982273 0.14882213 -0.051447593
-0.07614731 -0.050230555 -0.063630804 -0.16488153 -0.041385654 -0.038997732 -0.124982454 -0.027898218
-0.063705534 0.039595682 -0.1503339 0.15383849 -0.1619714 0.05375074 -0.057330746 0.10310033
0.055559672 0.13559249 0.17663488 0.17193834 -0.17780988 -0.14327906 -0.036579575 -0.12538177
-0.07728772 -0.16208518 -0.09412099 0.13027436 0.07423022 0.0053788265 -0.15039913 0.14847665
-0.023526138 0.08244407 -0.053588543 -0.048858516 -0.028256427 0.14179654 0.1035932 -0.14704947
0.009090692 0.0815262 0.059084672 -0.07336257 -0.08807191 -0.12930197 0.0035167804 -0.16857402
-0.06641198 0.10257377 0.16965252 -0.011277803 -0.22496593 -0.067972064 -0.14590363 0.060086757
-0.13853274 -0.05578588 -0.15843551 -0.1221992 -0.12978926 -0.13258116 0.042909745 -0.1487024
0.058663927 0.15636897 -0.17916454 0.07938956 0.13564475 -0.07112364 0.13937736 0.13894197
0.10324735 -0.018435976 0.14048894 -0.19063094 0.16315578 -0.0124182105 -0.17675993 0.038878195
-0.090760484 0.1335236 -0.13800988 0.13512751 -0.15253519 0.017507628 -0.13190386 -0.056148723
-0.038698412 -0.021156164 0.049726337 -0.0076650544 0.04171745 -0.062258188 -0.19875582 -0.16145833
-0.07462927 -0.13383348 -0.17684406 -0.15777117 -0.16932361 0.12792131 -0.1265585 -0.10277727
-0.1117697 -0.111569755 0.1806217 -0.07105837 0.05998552 -0.025073254 -0.1857801 0.1533181
0.0488916 -0.050057564 0.13766348 0.14556429 0.026289057 -0.069596455 0.012381874 0.12832549
-0.06366887 -0.07747976 -0.13038668 -0.15425648 0.09291707 0.08364544 0.07478518 0.0334076
-0.115320235 -0.18979627 0.033011533 -0.10371944 0.14285068 0.060805127 0.023188977 -0.11480228
0.100185774 -0.13556296 0.024635479 -0.1645115 -0.029153405 0.14115022 -0.15414564 0.11291633
0.05644741 -0.015805596 -0.18745075 0.15755618 0.035308294 0.053277593 -0.14008853 0.018373607
0.123080306 -0.13757645 0.09884927 0.14009531 -0.17698388 -0.057635345 -0.0548641 0.044085644
0.050740395 -0.11923082 -0.18657392 -0.12734331 0.16403085 0.06472914 -0.022708587 0.036370475
0.08682116 -0.07372212 0.11580984 -0.073491834 0.046535395 -0.0037938452 -0.108013414 0.063379474
-0.14549433 0.026251176 -0.09306668 0.13498686 0.13185063 -0.17180812 0.14398079 0.15661292
-0.012905242 -0.11278056 0.08688142 -0.12153391 -0.18505326 -0.15118061 -0.018312462 -0.047757108
0.1535324 -0.081822455 0.15226096 0.011964714 0.17757317 0.1151948 0.07420668 0.050963625
-0.17434998 -0.17738752 -0.05491411 0.09184663 0.06433926 -0.031882327 0.10078344 -0.021639211
-0.10276476 0.09868877 0.063325934 -0.01327535 -0.14823687 0.105613776 -0.07650438 -0.031028517
-0.15430674 -0.19309078 -0.0010955615 0.19801657 0.16821818 -0.16173542 -0.07527172 0.16106571
-0.078263864 0.10430992 -0.1842509 0.103705876 -0.040774323 -0.045613717 0.08730039 -0.106171206
-0.040448498 0.09657656 -0.00016053036 0.08373605 0.028609913 -0.0290362 0.1653397 -0.09488938
00000000: 51c1 13be 8ab9 223d 896b f23d 3dc5 953d
00000010: 703d f5bc 216e 00be bac9 1c3e 10e0 973d
00000020: aef4 043e 78af b9bd 64e3 19bd 035d 0b3e
00000030: 8976 aa3d 652b c93d d464 183e b6ba 52bd
00000040: 1ff3 9bbd 8ebe 4dbd de50 82bd b4d6 28be
00000050: 0184 29bd 16bc 1fbd cdf6 ffbd ce8a e4bc
00000060: 0c78 82bd 152f 223d 21f1 19be d687 1d3e
00000070: d5db 25be bc29 5c3d a5d3 6abd 4426 d33d
00000080: 8a92 633d c2d8 0a3e c6df 343e 9b10 303e
00000090: cb13 36be bfb7 12be 77d4 15bd 1464 00be
000000a0: 0649 9ebd a8f9 25be 81c2 c0bd a466 053e
000000b0: 0306 983d de40 b03b 3b02 1abe 430a 183e
000000c0: e3b9 c0bc 70d8 a83d a97f 5bbd de1f 48bd
000000d0: 067a e7bc 1d33 113e ac28 d43d 2394 16be
000000e0: 20f1 143c 35f7 a63d c502 723d 1d3f 96bd
000000f0: 0c5f b4bd bc67 04be c979 663b ab9e 2cbe
00000100: 0103 88bd 3212 d23d 64b9 2d3e 89c6 38bc
00000110: 785d 66be f034 8bbd c367 15be 881d 763d
00000120: 87db 0dbe bc7f 64bd eb3c 22be 9343 fabd
00000130: 7ae7 04be 5bc3 07be 21c2 2f3d 7145 18be
00000140: 9649 703d 301f 203e e976 37be fe96 a23d
00000150: 75e6 0a3e 45a9 91bd f0b8 0e3e ce46 0e3e
00000160: 5973 d33d 0b07 97bc 55dc 0f3e c234 43be
00000170: 4f12 273e c075 4bbc 8e00 35be be3e 1f3d
00000180: a2e0 b9bd 69ba 083e 7652 0dbe de5e 0a3e
00000190: 2f32 1cbe 286c 8f3c ce11 07be 34fc 65bd
000001a0: 3a82 1ebd b14f adbc d8ad 4b3d 232b fbbb
000001b0: ebdf 2a3d 7102 7fbd a586 4bbe 5555 25be
000001c0: 3bd7 98bd a50b 09be 9c16 35be c48e 21be
000001d0: 2b63 2dbe cefd 023e 8d98 01be e47c d2bd
000001e0: 83e7 e4bd af7e e4bd e5f4 383e 0d87 91bd
000001f0: 60b3 753d 6d66 cdbc 233d 3ebe 6cff 1c3e
00000200: 8f42 483d 2909 4dbd a8f7 0c3e ce0e 153e
00000210: 265c d73c 9688 8ebd 58dd 4a3c c267 033e
00000220: d364 82bd b5ad 9ebd 1684 05be 69f5 1dbe
00000230: 4e4b be3d 4d4e ab3d f928 993d 68d6 083d
00000240: 042d ecbd f459 42be 1a37 073d dc6a d4bd
00000250: 7347 123e cc0e 793d cff6 bd3c 751d ebbd
00000260: 332e cd3d 04d1 0abe 58d0 c93c b475 28be
00000270: 1fd3 eebc af89 103e 5bd8 1dbe ad40 e73d
00000280: 6635 673d bd7a 81bc 17f3 3fbe 6856 213e
00000290: 6e9f 103d 9b39 5a3d 5e73 0fbe 3f84 963c
000002a0: 8711 fc3d d7e0 0cbe 7c71 ca3d 2575 0f3e
000002b0: 433b 35be 0a13 6cbd 2eb9 60bd 2693 343d
000002c0: 29d5 4f3d 4a2f f4bd 3c0d 3fbe 4966 02be
000002d0: b4f7 273e b690 843d 5c07 babc 35f9 143d
000002e0: 4bcf b13d 9ffb 96bd b62d ed3d e382 96bd
000002f0: e69b 3e3d 29a2 78bb 2336 ddbd 19cd 813d
00000300: 77fc 14be b50c d73c be99 bebd ff39 0a3e
00000310: da03 073e 78ee 2fbe b36f 133e 235f 203e
00000320: 8270 53bc 7ff9 e6bd e3ee b13d c5e6 f8bd
00000330: 9a7e 3dbe 17cf 1abe 0404 96bc f59c 43bd
00000340: 9937 1d3e 8892 a7bd 4cea 1b3e a607 443c
00000350: bed5 353e 40eb eb3d acf9 973d 3cbf 503d
00000360: cd88 32be 13a5 35be 9eed 60bd 161a bc3d
00000370: 4dc4 833d 0b97 02bd 8c67 ce3d b744 b1bc
00000380: 5576 d2bd 561d ca3d 07b1 813d db80 59bc
00000390: 68cb 17be 094c d83d 54ae 9cbd 842f febc
000003a0: 9602 1ebe 97b9 45be f298 8fba dbc4 4a3e
000003b0: 6341 2c3e f89d 25be 0f28 9abd 69ee 243e
000003c0: ce48 a0bd 70a0 d53d 45ac 3cbe bf63 d43d
000003d0: fa02 27bd 73d5 3abd 8cca b23d 4a70 d9bd
000003e0: 53ad 25bd eec9 c53d 0a54 28b9 ce7d ab3d
000003f0: 565f ea3c 53dd edbc cf4e 293e 5d55 c2bd

conv1.4.bias f4 [400]
-0.1714334 -0.006481335 -0.13605252 -0.15938415 0.03870187 -0.07140001 -0.026226548 0.13365853
0.12950134 0.035682064 -0.13773754 -0.09553344 0.10201686 0.08104355 -0.08072134 0.009379946
-0.13656 0.027927509 0.14760377 -0.020390218 -0.16601223 0.11410765 -0.06205722 -0.0873115
0.062028512 0.08153916 -0.18547565 -0.05027122 0.08210998 -0.061916806 -0.13439436 0.16969104
-0.0961276 0.08899033 0.004320919 -0.017785273 0.09404656 -0.08652595 -0.09025255 0.05859969
0.0010122147 -0.029824909 0.1460006 0.15668584 0.04415755 0.05948813 0.12975533 0.10193639
-0.1506557 -0.15958348 0.019906303 -0.06925211 0.05787658 0.10872653 0.09218499 -0.031862333
0.09839499 -0.12354292 -0.10205612 0.034848638 0.16522366 0.12112389 0.13217132 -0.010686287
-0.14544165 0.011665886 0.09990964 0.14427179 0.12917712 0.105709516 -0.002868574 -0.09799459
-0.05744545 -0.071646355 -0.07641985 0.084594935 0.045195203 -0.063373685 -0.08231133 0.11246577
-0.061527014 0.07625676 -0.09088289 -0.06392147 0.16442995 0.09763407 -0.15190728 0.16018537
-0.15834641 0.17762256 0.021266084 -0.08938868 0.12018807 -0.03650497 -0.082602866 0.10932094
0.14318699 0.13887103 -0.02324742 -0.052250467 -0.13649857 -0.13902487 -0.14454582 0.10929522
0.06533592 0.047523443 -0.13699628 -0.104114614 -0.13232224 -0.138201 -0.1123927 0.09281406
-0.1516253 0.10919127 -0.011422935 0.020714732 -0.06627813 -0.14777131 -0.07123482 -0.028986786
0.06038832 -0.08735394 0.024526525 -0.010238735 -0.20252392 -0.1773437 -0.1232681 0.099978745
-0.057806175 0.031954806 -0.06933428 0.057748448 0.11966155 0.13659112 -0.1941106 -0.1794979
-0.16098933 0.09659437 0.043280005 0.012915409 0.12947142 -0.04497345 -0.035558753 0.16238646
0.13999511 -0.11873733 -0.097767435 -0.10748351 0.05095364 -0.16418503 -0.046766445 0.10374741
-0.027818203 0.08677455 0.12802865 0.032811906 0.08812045 0.1596506 0.053147677 0.0019744232
-0.19244035 0.02603375 -0.100072965 -0.025426764 -0.17762665 0.012263335 -0.12378525 -0.039299436
-0.050075404 0.0831147 -0.012039143 0.0285303 -0.17498825 -0.1352429 0.089555554 -0.016666612
0.16678044 -0.08153902 0.0681473 -0.15188748 0.020305695 0.013991058 -0.1553374 -0.13860409
-0.1657376 0.12191203 0.050542653 0.11920581 -0.21391228 -0.07524532 -0.1706184 -0.10112955
0.15927023 0.018847946 -0.07867841 0.0036476385 0.015463101 0.097096436 -0.089390695 0.13397487
-0.034797426 0.106975116 0.073165976 0.108498625 0.08080684 -0.18086049 -0.20212384 0.14340486
-0.16134061 -0.008917772 -0.03231601 0.15213218 -0.05005005 0.10128069 0.10672245 -0.17750268
-0.19867682 0.03539054 0.13463056 -0.22118272 0.13010512 0.06857721 0.08789979 -0.05657002
-0.096407935 -0.15074685 -0.14089148 0.06340511 -0.12607683 -0.06077604 -0.03168591 0.14491607
0.07878575 -0.17303751 -0.017113937 -0.012358547 -0.17249024 0.0861138 0.11965297 -0.085054144
-0.018508842 -0.15269952 0.040216364 -0.19920887 0.12777615 -0.10916934 0.108467825 0.09200241
-0.13888319 -0.15568008 0.008487256 -0.0075743063 -0.07631033 0.009240546 -0.07342455 0.037718434
00000000: 3d8c 2fbe 6161 d4bb 5a51 0bbe 9935 23be
00000010: da85 1e3d 2b3a 92bd 0fd9 d6bc c8dd 083e
00000020: 009c 043e 5b27 123d 120b 0dbe 09a7 c3bd
00000030: 37ee d03d 29fa a53d 3b51 a5bd 58ae 193c
00000040: 62d6 0bbe 3bc8 e43c 7125 173e 6309 a7bc
00000050: 1cff 29be 46b1 e93d b62f 7ebd 5fd0 b2bd
00000060: 9c11 7e3d 01fe a63d 54ed 3dbe 32e9 4dbd
00000070: 4729 a83d 7a9c 7dbd ad9e 09be 7dc3 2d3e
00000080: 8cde c4bd 9040 b63d 7f96 8d3b 6cb2 91bc
00000090: 7c9b c03d 8434 b1bd 54d6 b8bd 3b06 703d
000000a0: 4aac 843a 5e53 f4bc 2e81 153e 4172 203e
000000b0: 8cde 343d d3a9 733d 95de 043e 07c4 d03d
000000c0: 7d45 1abe da69 23be 8b12 a33c 0dd4 8dbd
000000d0: fe0f 6d3d 04ac de3d 7ccb bc3d 1482 02bd
000000e0: 5083 c93d 1204 fdbd cd02 d1bd 72bd 0e3d
000000f0: 6430 293e cd0f f83d eb57 073e 8915 2fbc
00000100: a8ee 14be 4622 3f3c 6d9d cc3d fcbb 133e
00000110: 0247 043e 3b7e d83d b0fe 3bbb 63b1 c8bd
00000120: ec4b 6bbd 53bb 92bd 0382 9cbd 1c40 ad3d
00000130: 9b1e 393d 10ca 81bd d892 a8bd 7454 e63d
00000140: c003 7cbd 812c 9c3d cf20 babd 42e9 82bd
00000150: 5360 283e 5ff4 c73d 958d 1bbe a207 243e
00000160: 9025 22be b0e2 353e 3636 ae3c 6a11 b7bd
00000170: 2a25 f63d 3c86 15bd b12b a9bd a8e3 df3d
00000180: 9c9f 123e 3534 0e3e 6071 bebc 9604 56bd
00000190: 48c6 0bbe 895c 0ebe d203 14be 2cd6 df3d
000001a0: d7ce 853d f1a7 423d c148 0cbe 0b3a d5bd
000001b0: 7b7f 07be 9084 0dbe 252e e6bd 4c15 be3d
000001c0: aa43 1bbe ac9f df3d 4327 3bbc f1b1 a93c
000001d0: d4bc 87bd 5d51 17be 90e3 91bd b275 edbc
000001e0: be59 773d 9fe6 b2bd daeb c83c 5ec0 27bc
000001f0: 6e62 4fbe 9699 35be fc73 fcbd a8c1 cc3d
00000200: 2bc6 6cbd 0be3 023d 22ff 8dbd a389 6c3d
00000210: 1d11 f53d 8bde 0b3e eec4 46be 4cce 37be
00000220: 63da 24be 45d3 c53d 6046 313d 279b 533c
00000230: 2894 043e 1536 38bd 0ea6 11bd a348 263e
00000240: e15a 0f3e 8f2c f3bd 4b3a c8bd 5120 dcbd
00000250: c4b4 503d 1f20 28be 2c8e 3fbd 8679 d43d
00000260: 00e3 e3bc dbb6 b13d f119 033e c765 063d
00000270: 7f78 b43d 727b 233e 61b1 593d 5365 013b
00000280: 150f 45be bb44 d53c 0ef3 ccbd ca4b d0bc
00000290: c3e3 35be 28ec 483c 1f83 fdbd 72f8 20bd
000002a0: de1b 4dbd 0a38 aa3d d33f 45bc 60b8 e93c
000002b0: 1f30 33be 1d7d 0abe e768 b73d 6b88 88bc
000002c0: 7ec8 2a3e eefd a6bd d090 8b3d 6488 1bbe
000002d0: 2158 a63c c03a 653c c410 1fbe 3bee 0dbe
000002e0: 1eb7 29be 04ad f93d d005 4f3d 2d22 f43d
000002f0: d20b 5bbe 381a 9abd 97b6 2ebe 021d cfbd
00000300: bc17 233e 0267 9a3c 2522 a1bd 380d 6f3b
00000310: f258 7d3c 7fda c63d 7812 b7bd b530 093e
00000320: bf87 0ebd c515 db3d 0bd8 953d 8734 de3d
00000330: 0e7e a53d 7e33 39be 8df9 4ebe b9d8 123e
00000340: 7936 25be d91b 12bc cb5d 04bd 8ac8 1b3e
00000350: 4801 4dbd 406c cf3d 4d91 da3d 43c3 35be
00000360: f071 4bbe acf5 103d 98dc 093e b97d 62be
00000370: 473a 053e 3572 8c3d ce04 b43d f7b5 67bd
00000380: 8671 c5bd 625d 1abe db45 10be 8ada 813d
00000390: 491a 01be 4cf0 78bd 16c9 01bd e164 143e
000003a0: 6c5a a13d bf30 31be 8732 8cbc 817b 4abc
000003b0: 48a1 30be 6f5c b03d 9e0c f53d de30 aebd
000003c0: db9f 97bc 435d 1cbe eab9 243d 69fd 4bbe
000003d0: c0d7 023e 2d94 dfbd 6124 de3d c26b bc3d
000003e0: 6537 0ebe 996a 1fbe 220e 0b3c e331 f8bb
000003f0: 9748 9cbd a965 173c 9c5f 96bd a57e 1a3d

conv1.5.weight f4 [400]
0.9788719 0.990185 0.98228455 0.9679948 0.96782005 0.97732556 0.97622395 0.96991885
0.9815102 0.97301716 0.98271704 0.9740591 0.9773655 0.97061145 0.99016863 0.97687024
0.9758602 1.0056398 0.99612975 1.0025231 0.9770822 0.98467165 0.9847245 0.9801845
0.9724176 0.9791456 0.97208685 0.9925792 0.97631544 0.97993654 0.9824978 0.98098624
1.0000026 0.9843822 0.97675323 0.9854423 0.96659833 0.97155404 0.9868 0.98225546
0.98152196 0.98755735 0.9940634 0.9784344 0.9742165 0.9917845 1.003501 0.98278856
0.97714704 1.0014573 0.96107656 0.9896697 0.9717129 0.96991354 1.0010262 1.000523
0.977939 0.96764165 0.9939323 0.981027 0.982636 0.97818834 0.985228 0.9764301
0.9810117 0.97382563 0.9651743 0.9899536 0.9746229 0.9791826 0.9794817 0.9755654
0.9813308 0.97582835 0.98027027 1.0018344 0.9900192 0.9797763 0.99037665 0.98585075
0.98588413 0.9821342 0.9844915 0.9743517 0.9766469 0.9725759 0.9655534 0.98740506
0.96646947 0.98723036 0.9904282 0.9749264 0.97389644 0.9811778 0.98363453 0.97896814
0.9859454 0.98443806 0.980037 0.97794944 0.98054844 1.0015012 0.9784855 0.9748867
0.98906296 0.99199855 0.9843606 0.9881819 0.980673 0.97587395 0.9771831 0.9903689
0.9766972 0.9760349 0.9738119 0.9750572 0.9880236 0.98145217 0.9907902 0.97812235
0.9820588 0.984792 1.0082349 1.0027075 0.9801734 0.9918971 0.99785876 0.96680665
0.9930153 0.97666883 0.99832845 0.9840066 1.0040072 0.9893022 0.9831136 0.9877171
0.97630334 0.98213845 0.9829578 0.9659515 0.9876087 0.9713374 0.98561925 0.9723946
0.97940576 0.98284376 1.0069342 0.9848359 0.97897905 0.98498136 0.9781904 0.9654009
0.9849731 0.97775906 0.9808971 0.9767573 1.0013448 0.975915 0.97475463 0.98992467
0.9835786 0.981648 0.98671836 0.9770024 0.9958798 0.9726921 0.9955625 0.97477245
0.9837825 0.9741499 0.9770101 0.98194444 0.9957107 0.99184835 0.97303927 0.96840584
0.98898005 0.991529 0.99474996 0.9732656 0.9808806 0.9775816 0.98267823 0.98098356
0.97097707 0.97078365 0.9766257 0.97737354 0.97492266 0.9703254 0.9715866 0.9826181
0.9867639 0.9871093 0.9771312 0.981345 0.9798851 0.98267967 0.9751196 0.9726317
0.9870736 0.9828075 0.97657233 0.9776486 0.9866829 0.97187936 0.9669476 0.982631
0.97521293 0.9963181 0.97915465 0.9816782 0.9762673 0.9795918 0.9996008 0.9761501
0.9852416 0.9748704 0.9845932 0.96166325 0.9684595 0.9747678 0.9721027 0.9717923
0.98535126 0.9837318 0.98542607 0.99058396 0.9634403 0.98355585 0.99667025 0.9884175
0.978727 0.97731835 0.9712217 0.98292905 0.982955 0.9778715 0.9704551 0.9761806
0.98590523 0.9966921 0.9822777 0.976197 0.98132837 0.9732453 0.99464494 0.9744457
0.98359555 0.9817379 0.96805555 0.97582203 0.97418714 0.9841645 0.9755147 0.98300135
00000000: 5997 7a3f c47c 7d3f 0077 7b3f 82ce 773f
00000010: 0ec3 773f 0232 7a3f d0e9 793f 9a4c 783f
00000020: 4144 7b3f a717 793f 5893 7b3f f05b 793f
00000030: a034 7a3f fe79 783f b17b 7d3f 2b14 7a3f
00000040: f9d1 793f ceb8 803f 5c02 7f3f ad52 803f
00000050: 0f22 7a3f 7113 7c3f e816 7c3f 5fed 7a3f
00000060: 5cf0 783f 49a9 7a3f afda 783f ac19 7e3f
00000070: cfef 793f 1fdd 7a3f fa84 7b3f ea21 7b3f
00000080: 1600 803f 7900 7c3f 800c 7a3f f245 7c3f
00000090: fd72 773f c4b7 783f ed9e 7c3f 1875 7b3f
000000a0: 0645 7b3f 8fd0 7c3f f07a 7e3f ad7a 7a3f
000000b0: 4166 793f 97e5 7d3f b972 803f 0898 7b3f
000000c0: 4f26 7a3f c12f 803f 1d09 763f fe5a 7d3f
000000d0: 2dc2 783f 414c 783f a021 803f 2311 803f
000000e0: 365a 7a3f 5db7 773f 5972 7e3f 9624 7b3f
000000f0: 088e 7b3f 8d6a 7a3f e737 7c3f 53f7 793f
00000100: 9523 7b3f a34c 793f aa15 773f 996d 7d3f
00000110: e380 793f b6ab 7a3f 50bf 7a3f a7be 793f
00000120: 7f38 7b3f e3cf 793f fef2 7a3f 1c3c 803f
00000130: e671 7d3f 9fd2 7a3f 5389 7d3f b760 7c3f
00000140: e762 7c3f 266d 7b3f a307 7c3f 1d6f 793f
00000150: 8805 7a3f bcfa 783f 822e 773f 94c6 7c3f
00000160: 8b6a 773f 21bb 7c3f b48c 7d3f c794 793f
00000170: 4751 793f 782e 7b3f 79cf 7b3f a89d 7a3f
00000180: eb66 7c3f 2204 7c3f b4e3 7a3f e55a 7a3f
00000190: 3905 7b3f 3131 803f 077e 7a3f 2d92 793f
000001a0: 3b33 7d3f 9ef3 7d3f 0eff 7b3f 7df9 7c3f
000001b0: 630d 7b3f e0d2 793f ac28 7a3f d188 7d3f
000001c0: d408 7a3f 6cdd 793f bd4b 793f 599d 793f
000001d0: 1def 7c3f 7340 7b3f 6da4 7d3f 3a66 7a3f
000001e0: 3568 7b3f 541b 7c3f d70d 813f b858 803f
000001f0: a5ec 7a3f f8ec 7d3f ac73 7f3f a480 773f
00000200: 4036 7e3f f806 7a3f 7492 7f3f dbe7 7b3f
00000210: 4f83 803f e942 7d3f 55ad 7b3f 07db 7c3f
00000220: 04ef 793f 6d6d 7b3f 1fa3 7b3f 9948 773f
00000230: ecd3 7c3f 91a9 783f 8b51 7c3f daee 783f
00000240: 56ba 7a3f a69b 7b3f 38e3 803f 351e 7c3f
00000250: 5f9e 7a3f bd27 7c3f b06a 7a3f 8324 773f
00000260: 3227 7c3f 6b4e 7a3f 131c 7b3f c40c 7a3f
00000270: 112c 803f 91d5 793f 8589 793f b46b 7d3f
00000280: cfcb 7b3f 494d 7b3f 9399 7c3f d41c 7a3f
00000290: fbf1 7e3f 5902 793f 2fdd 7e3f b08a 793f
000002a0: 2bd9 7b3f e361 793f 551d 7a3f b660 7b3f
000002b0: e5e6 7e3f c6e9 7d3f 1a19 793f 72e9 773f
000002c0: cc2d 7d3f d8d4 7d3f efa7 7e3f ef27 793f
000002d0: fe1a 7b3f ca42 7a3f cd90 7b3f bd21 7b3f
000002e0: f491 783f 4785 783f 2404 7a3f 2735 7a3f
000002f0: 8894 793f 3f67 783f e6b9 783f dc8c 7b3f
00000300: 8f9c 7c3f 32b3 7c3f 4525 7a3f 6d39 7b3f
00000310: c0d9 7a3f e590 7b3f 70a1 793f 64fe 783f
00000320: dbb0 7c3f 4699 7b3f a500 7a3f 2e47 7a3f
00000330: 4097 7c3f 16cd 783f e189 773f b58d 7b3f
00000340: 8ea7 793f b40e 7f3f e1a9 7a3f 434f 7b3f
00000350: a7ec 793f 87c6 7a3f d7e5 7f3f f9e4 793f
00000360: cb38 7c3f 1b91 793f 4d0e 7c3f 902f 763f
00000370: f6ec 773f 628a 793f b9db 783f 61c7 783f
00000380: fb3f 7c3f d9d5 7b3f e244 7c3f e996 7d3f
00000390: 06a4 763f 51ca 7b3f c825 7f3f ee08 7d3f
000003a0: da8d 7a3f 8931 7a3f fca1 783f 3da1 7b3f
000003b0: f0a2 7b3f c955 7a3f bf6f 783f f9e6 793f
000003c0: 4964 7c3f 3727 7f3f 8d76 7b3f 0ce8 793f
000003d0: 5638 7b3f 9b26 793f 0da1 7e3f 4675 793f
000003e0: ebcc 7b3f 2d53 7b3f 7dd2 773f 79cf 793f
000003f0: 5464 793f 34f2 7b3f 55bb 793f faa5 7b3f

conv1.5.bias f4 [400]
-0.014589832 -0.01313253 -0.011734208 -0.0465581 -0.008363582 -0.006686267 -0.016415251 -0.015911581
-0.0139774475 -0.010554826 -0.011051964 -0.018327245 -0.012941598 -0.01686415 -0.01862895 -0.0075894855
-0.006036066 -0.0013147279 -0.0014960739 -0.01142309 -0.0032885512 -0.008036784 -0.013289155 -0.008902252
-0.0071747564 -0.0071085105 -0.022898283 -0.0018667877 -0.024015687 -0.015558985 -0.005413298 -0.0045250556
-0.018561533 -0.018221498 -0.017917497 -0.0037344033 -0.015861176 -0.025375826 -0.0032180436 -0.006152291
-0.011386204 -0.009002029 -0.0130401375 -0.007401354 -0.007370451 -0.008567233 -0.013648083 -0.013225624
-0.009203111 -0.0065079597 -0.033979386 -0.021023214 -0.0148218535 -0.040736903 -0.014056672 -0.00658291
-0.02851387 -0.013502303 -0.0021233063 -0.005107145 -0.0007116406 -0.019928904 -0.007813765 -0.02308744
-0.017125072 -0.027887262 -0.027569259 -0.008165437 -0.025505954 0.00044493173 -0.012242776 -0.020753859
-0.011942604 -0.023387948 -0.012342263 -0.0048105726 0.00032045195 -0.012216935 -0.015199467 -0.00970195
-0.006316243 -0.0147172 -0.01805171 -0.008251239 -0.008823811 -0.005898434 -0.023236258 -0.0012418872
-0.027548289 -0.0009370692 -0.0017145852 -0.010351853 -0.014698174 -0.012498721 -0.001898261 -0.0108774025
-0.005276095 -0.011439205 0.0008651291 -0.02133031 -0.0038321398 -0.013729166 -0.02706992 -0.01511611
-0.00083922024 -0.0117650395 -0.002228702 -0.0040581613 -0.0065955576 -0.007058605 -0.008192286 -0.0091395
-0.014074633 -0.008624098 -0.010092389 -0.018688874 -0.0016682837 -0.01715361 -0.0079635475 -0.0030697
0.0027198587 -0.00507253 0.0029725018 -0.004586187 -0.02274099 -0.012127893 -0.0028466599 -0.044122726
-0.012401533 -0.023331327 -0.0017518468 -0.013650032 -0.009818074 -0.003582576 -0.017361524 -0.0021138685
-0.019209145 -0.014230147 -0.01870954 -0.030630592 -0.008146787 -0.0357508 -0.012975683 -0.009971996
0.006667776 -0.005629559 -0.009574152 -0.012657913 -0.010090242 -0.004758376 -0.007111774 -0.023525128
-0.004582367 -0.007129361 -0.009971398 -0.02166832 -0.012641497 -0.009394042 -0.0116896 -4.1144023e-05
-0.014049617 -0.016666738 -0.0031377207 -0.004993195 -0.0125408415 -0.0067163156 -0.0137085905 -0.011387976
-0.017316848 -0.0033264367 -0.00085273216 -0.0040802765 0.0024550552 -0.008549433 0.0004382279 -0.025473177
-0.011820002 -0.00036626484 -0.0010740794 -0.009963943 0.001467572 -0.030380221 -0.0063978117 -0.011907615
-0.023015104 -0.026358398 -0.0074235327 -0.013415257 -0.019336533 -0.02784082 -0.020266995 -0.00821623
-0.0036200606 -0.0081875175 -0.006257995 -0.013762007 -0.022457724 -0.006870137 -0.011792303 -0.0035700072
-0.0111705875 -0.0007591402 -0.014792695 -0.013378493 0.0031079806 -0.02075321 -0.02751437 -0.011444097
-0.013884001 -0.023272185 -0.01723271 -0.012592943 -0.015157071 -0.015004121 -0.022125345 -0.009051098
-0.0061577493 -0.022955654 -0.012812442 -0.043375403 -0.020337833 -0.020253344 -0.015794123 -0.022196237
-0.018397905 0.0014711301 -0.018263308 -0.01675416 -0.01199673 -0.010951139 -0.0054961615 0.0038795492
0.009027861 -0.006109776 -0.0034219942 -0.016421983 -0.0030262452 -0.006539785 -0.028309137 -0.025995145
-0.012015018 -0.010242874 -0.01613375 -0.017083187 -0.013904986 -0.019366823 -0.006552421 0.0052566365
-0.010890129 -0.010953953 -0.02342946 -0.01816146 -0.009814465 -0.010803434 -0.009134527 -0.015501041
00000000: 310a 6fbc d329 57bc d640 40bc b5b3 3ebd
00000010: 6807 09bc 7918 dbbb 4779 86bc 0159 82bc
00000020: aa01 65bc 26ee 2cbc 4c13 35bc 0523 96bc
00000030: ff08 54bc b026 8abc bd9b 98bc 38b1 f8bb
00000040: 31ca c5bb f352 acba e917 c4ba e927 3bbc
00000050: bc84 57bb b7ac 03bc c2ba 59bc c0da 11bc
00000060: 381a ebbb 82ee e8bb 2e95 bbbc 00af f4ba
00000070: 8cbc c4bc 1deb 7ebc 0962 b1bb eb46 94bb
00000080: 5b0e 98bc 4045 95bc b7c7 92bc e4bc 74bb
00000090: 4cef 81bc f7e0 cfbc d0e5 52bb 2899 c9bb
000000a0: 338d 3abc 3f7d 13bc 4da6 55bc 0f87 f2bb
000000b0: d383 f1bb 945d 0cbc 369c 5fbc 4ab0 58bc
000000c0: a5c8 16bc b940 d5bb f82d 0bbd e038 acbc
000000d0: 5cd7 72bc bddb 26bd f54d 66bc 74b5 d7bb
000000e0: eb95 e9bc c338 5dbc 2b27 0bbb d659 a7bb
000000f0: 648d 3aba f141 a3bc 4e05 00bc df21 bdbc
00000100: e149 8cbc d473 e4bc edd8 e1bc 53c8 05bc
00000110: ddf1 d0bc ba45 e939 ed95 48bc ff03 aabc
00000120: e9aa 43bc 1598 bfbc 3437 4abc 02a2 9dbb
00000130: 5502 a839 8a29 48bc 2f07 79bc edf4 1ebc
00000140: 7df8 cebb 6920 71bc 2ee1 93bc 3430 07bc
00000150: bf91 10bc a747 c1bb f759 bebc d2c6 a2ba
00000160: f3ac e1bc a6a5 75ba efbb e0ba d29a 29bc
00000170: 9cd0 70bc 6fc7 4cbc 12cf f8ba 2237 32bc
00000180: 18e3 acbb 816b 3bbc d5c9 623a e7bc aebc
00000190: a324 7bbb 4cf0 60bc bdc1 ddbc 90a9 77bc
000001a0: 1eff 5bba 27c2 40bc 6a0f 12bb 53fa 84bb
000001b0: 8c1f d8bb df4b e7bb f038 06bc d7bd 15bc
000001c0: 4a99 66bc 174c 0dbc 8c5a 25bc 6919 99bc
000001d0: 50aa daba ba85 8cbc 8a79 02bc 052d 49bb
000001e0: a83f 323b 7737 a6bb 4ece 423b ba47 96bb
000001f0: 504b babc 12b4 46bc 078f 3abb 08ba 34bd
00000200: cd2f 4bbc 5721 bfbc 399e e5ba 62a4 5fbc
00000210: fddb 20bc a7c9 6abb c139 8ebc d488 0abb
00000220: 7f5c 9dbc 9025 69bc c044 99bc 02ed fabc
00000230: 1a7a 05bc 6e6f 12bd f697 54bc 9561 23bc
00000240: 5c7d da3b 2a78 b8bb e7dc 1cbc 2363 4fbc
00000250: 8b51 25bc 27ec 9bbb e209 e9bb c5b7 c0bc
00000260: ae27 96bb 6a9d e9bb 135f 23bc c381 b1bc
00000270: 481e 4fbc 78e9 19bc bc85 3fbc 0f92 2cb8
00000280: 5d30 66bc af88 88bc 38a2 4dbb f59d a3bb
00000290: 1a78 4dbc 8a14 dcbb ff99 60bc a294 3abc
000002a0: 10dc 8dbc 5900 5abb e389 5fba d7b3 85bb
000002b0: fee4 203b ec12 0cbc f4c1 e539 20ad d0bc
000002c0: afa8 41bc 3c07 c0b9 20c8 8cba ce3f 23bc
000002d0: 8b5b c03a f1df f8bc bca4 d1bb 2818 43bc
000002e0: 2c8a bcbc 91ed d7bc 1b41 f3bb abcb 5bbc
000002f0: a667 9ebc 6e12 e4bc f806 a6bc 5e9d 06bc
00000300: 8a3e 6dbb f024 06bc de0f cdbb 0a7a 61bc
00000310: 43f9 b7bc e31e e1bb 8134 41bc c8f6 69bb
00000320: d704 37bc 0901 47ba 0f5d 72bc 7731 5bbc
00000330: 43af 4b3b a302 aabc d165 e1bc 0680 3bbc
00000340: b979 63bc 4fa5 bebc 9d2b 8dbc a252 4ebc
00000350: 5d55 78bc d8d3 75bc 3640 b5bc 0e4b 14bc
00000360: f2c6 c9bb 7f0d bcbc 47eb 51bc 68aa 31bd
00000370: 879b a6bc 57ea a5bc ad62 81bc e2d4 b5bc
00000380: 34b7 96bc efd2 c03a ef9c 95bc 0540 89bc
00000390: ef8d 44bc 686c 33bc 2519 b4bb 0940 7e3b
000003a0: 98e9 133c 8434 c8bb 8943 60bb 6587 86bc
000003b0: f853 46bb b14b d6bb 90e8 e7bc c5f3 d4bc
000003c0: a3da 44bc bad1 27bc ed2a 84bc 0af2 8bbc
000003d0: bdd1 63bc 2ca7 9ebc b1b5 d6bb dd3f ac3b
000003e0: 836c 32bc 3578 33bc 24ef bfbc 58c7 94bc
000003f0: dacc 20bc e300 31bc fca8 15bc 14f8 7dbc

conv1.5.running_mean f4 [400]
-0.15316711 -0.019116864 -0.30144227 -0.3970298 0.16784458 -0.22814351 -0.0110398615 0.33620274
0.14663431 -0.22682579 -0.18572581 -0.026741492 -0.19174264 -0.31821144 -0.38006967 -0.112146325
0.08545872 -0.060382087 -0.028163943 -0.107483596 -0.24289763 0.12157227 -0.33609104 -0.278287
0.09594228 0.07491514 -0.38730934 -0.104041144 0.0536341 -0.18514732 0.0019220691 0.18482885
0.04041085 0.18017247 -0.0510177 -0.22030242 0.18045734 0.19664161 -0.07860851 -0.14271514
0.11589714 0.13654345 0.23502782 0.22709876 -0.050841097 0.24161632 0.20150422 0.36921173
-0.12682506 -0.047014322 -0.071306825 -0.040602677 -0.0306405 0.028340783 0.07176793 0.09774991
0.19148664 0.11029343 -0.09867293 0.057565786 0.4010381 0.27694666 0.16088273 0.018015778
-0.06399585 -0.29857507 0.34707072 0.18153213 0.2264953 0.25488156 -0.22785778 0.023099408
0.10630223 0.28683418 -0.13395977 0.02392356 -0.5087102 0.1361409 -0.158855 0.13682672
-0.15045315 -0.11622133 -0.56923765 0.086187474 -0.12780339 0.050774656 -0.37185276 -0.04499677
-0.25939062 -0.047317497 -0.11319231 -0.30811924 0.3200878 0.0256276 -0.27682602 0.10085131
0.22523665 -0.12195734 0.07587947 -0.19120516 0.044549495 -0.45484054 -0.14101186 -0.05110003
0.12579574 0.2643183 -0.3260551 -0.3687446 -0.33489946 0.14865991 -0.2776777 0.26335672
-0.40838262 0.5031663 0.069382995 0.09057172 -0.18075651 -0.16171709 -0.29056284 0.22800212
-0.016745018 -0.026409877 -0.08728143 0.16987267 -0.4378659 -0.20633724 -0.34639743 0.13288088
-0.11635257 0.2788778 -0.19902577 0.15011378 0.19715647 0.42462933 -0.38192108 -0.28222483
-0.16677476 0.06266799 0.2217154 -0.2041921 -0.13161564 0.12380882 -0.0001563509 0.1262078
0.31254926 -0.25939345 -0.35137185 -0.25483727 -0.15866248 -0.29413077 -0.13979621 0.08385176
-0.15850535 -0.022104956 -0.011107903 -0.154921 0.3582916 0.15960155 -0.23777196 -0.095820084
-0.08864557 0.09239818 -0.32945105 -0.029375017 -0.16317476 0.062244613 -0.37134814 0.033643387
-0.3288541 0.17776147 0.19721235 0.106123656 -0.185494 -0.2882639 0.2939036 0.093224324
0.34725505 -0.34345144 -0.04962574 -0.059615348 0.4996358 -0.08231274 -0.18063109 -0.06916749
-0.0664843 -0.011269705 0.22652061 -0.013061506 -0.38149613 -0.22450508 -0.35869408 0.0495301
0.21985522 -0.15471825 -0.20973755 -0.13228971 -0.15392175 0.28004226 -0.14103565 0.2611006
-0.18583255 0.27187195 -0.15092523 0.07006283 -0.19387662 0.3893138 -0.28147164 0.08160139
0.031531166 -0.073697254 -0.048473258 0.19057122 -0.035303295 0.34874362 0.10424896 -0.014415734
-0.03250471 0.22392517 0.13371913 -0.21425338 0.16536261 0.2726814 -0.016197603 0.112286605
-0.106535025 0.066023976 0.06769333 -0.10094685 -0.026083706 0.11644409 -0.19110604 0.19225019
0.2931591 -0.14525257 0.1332353 0.22154453 -0.4192577 0.031709045 0.366199 0.2003332
-0.20114025 -0.15639344 0.18741377 -0.23462816 -0.027374273 0.17484689 -0.06128346 0.1933852
-0.5150811 -0.3805215 -0.26426232 0.08623565 0.25000024 0.14985894 0.18609636 0.20342524
00000000: d7d7 1cbe f89a 9cbc a456 9abe 7d47 cbbe
00000010: 73df 2b3e 749e 69be 89e0 34bc c422 ac3e
00000020: 4e27 163e 0545 68be e82e 3ebe f910 dbbc
00000030: 2f58 44be 9cec a2be 7e98 c2be f9ac e5bd
00000040: fb04 af3d 3553 77bd 12b8 e6bc 5c20 dcbd
00000050: 28ba 78be e2fa f83d 2014 acbe a27b 8ebe
00000060: 637d c43d 1c6d 993d 694d c6be 8613 d5bd
00000070: 6eaf 5b3d 4297 3dbe f0ed fb3a c643 3d3e
00000080: d985 253d 227f 383e f0f7 50bd f596 61be
00000090: cfc9 383e 6b5c 493e 80fd a0bd eb23 12be
000000a0: 7b5b ed3d 0cd2 0b3e 22ab 703e 948c 683e
000000b0: c13e 50bd 456a 773e 1f57 4e3e 5209 bd3e
000000c0: 6ede 01be 1792 40bd 5009 92bd fe4e 26bd
000000d0: c901 fbbc ee2a e83c 11fb 923d 1b31 c83d
000000e0: 1315 443e 86e1 e13d 0815 cabd 1aca 6b3d
000000f0: de54 cd3e f4cb 8d3e 71be 243e d395 933c
00000100: 4210 83bd d5de 98be 41b3 b13e 8fe3 393e
00000110: 62ee 673e d67f 823e 8d53 69be f83a bd3c
00000120: fcb4 d93d eedb 923e c02c 09be 57fb c33c
00000130: d53a 02bf 8568 0b3e e3aa 22be 4e1c 0c3e
00000140: 6410 1abe 7305 eebd 8fb9 11bf 0f83 b03d
00000150: e4de 02be 16f9 4f3d 7c63 bebe 884e 38bd
00000160: d9ce 84be fecf 41bd 5fd1 e7bd cec1 9dbe
00000170: 8ce2 a33e f9f0 d13c 24bc 8dbe 228b ce3d
00000180: 70a4 663e c5c4 f9bd b266 9b3d 49cb 43be
00000190: 8879 363d dce0 e8be 6a65 10be 444e 51bd
000001a0: 99d0 003e ba54 873e b2f0 a6be 18cc bcbe
000001b0: f177 abbe 4e3a 183e c62b 8ebe b1d6 863e
000001c0: 8717 d1be 82cf 003f ac18 8e3d aa7d b93d
000001d0: 3c18 39be 2a99 25be a7c4 94be 6379 693e
000001e0: d92c 89bc 8759 d8bc 9bc0 b2bd 1af3 2d3e
000001f0: f62f e0be 124a 53be 015b b1be ed11 083e
00000200: 424a eebd 12c9 8e3e 69cd 4bbe 6db7 193e
00000210: 63e3 493e 0469 d93e 298b c3be c67f 90be
00000220: 01c7 2abe 1358 803d 5d09 633e bc17 51be
00000230: 40c6 06be 7b8f fd3d 20f2 23b9 9e3c 013e
00000240: 7506 a03e 38cf 84be 03e7 b3be 087a 82be
00000250: 6b78 22be 4f98 96be bd26 0fbe 79ba ab3d
00000260: 3a4f 22be 7415 b5bc ecfd 35bc 9ca3 1ebe
00000270: ff71 b73e 976e 233e 7e7a 73be 523d c4bd
00000280: cf8b b5bd 423b bd3d cfad a8be e0a3 f0bc
00000290: 4917 27be 35f4 7e3d 5821 bebe a6cd 093d
000002a0: 915f a8be 1a07 363e 09f2 493e 5c57 d93d
000002b0: 24f2 3dbe 5397 93be 887a 963e 65ec be3d
000002c0: 6acb b13e ded8 afbe 5c44 4bbd 392f 74bd
000002d0: 43d0 ff3e 9593 a8bd 5bf7 38be afa7 8dbd
000002e0: ec28 88bd 92a4 38bc 05f5 673e edff 55bc
000002f0: 7653 c3be a9e4 65be c0a6 b7be 13e0 4a3d
00000300: ba21 613e 766e 1ebe 71c5 56be f476 07be
00000310: aa9d 1dbe b361 8f3e a66b 10be faae 853e
00000320: e34a 3ebe cd32 8b3e 258c 1abe 1a7d 8f3d
00000330: 9887 46be 2354 c73e 0d1d 90be a11e a73d
00000340: d326 013d 96ee 96bd e58b 46bd 1a25 433e
00000350: 309a 10bd 868e b23e 7b80 d53d f92f 6cbc
00000360: a923 05bd a44c 653e abed 083e 3d65 5bbe
00000370: d154 293e e59c 8b3e d6b0 84bc 85f6 e53d
00000380: 092f dabd 9437 873d cda2 8a3d 39bd cebd
00000390: 7fad d5bc 3d7a ee3d 4db1 43be 3cdd 443e
000003a0: f318 963e 17bd 14be d66e 083e 92dc 623e
000003b0: f2a8 d6be 58e1 013d 6f7e bb3e 2524 4d3e
000003c0: b6f7 4dbe 9a25 20be 65e9 3f3e 5d42 70be
000003d0: 0340 e0bc 100b 333e 5e04 7bbd c506 463e
000003e0: 5bdc 03bf b7d3 c2be 644d 87be 519c b03d
000003f0: 0800 803e 9f74 193e 0b90 3e3e b54e 503e

conv1.5.running_var f4 [400]
0.1495951 0.1355278 0.3168238 0.15209508 0.3792601 0.1853718 0.13733517 0.2008142
0.17236064 0.26235425 0.12079862 0.11900646 0.2244066 0.24780963 0.18479866 0.21354909
0.15854746 0.16555183 0.1396283 0.18598257 0.16887482 0.16107997 0.14032663 0.13022345
0.18646523 0.14862712 0.3860575 0.08723619 0.11990586 0.22916481 0.27254358 0.10635258
0.11797824 0.20532015 0.27679613 0.41194355 0.24911478 0.3339745 0.39611268 0.28830716
0.41347328 0.17687078 0.21643607 0.1196405 0.30453187 0.18534666 0.15372199 0.2791612
0.47473854 0.13588248 0.2404564 0.14228556 0.1911845 0.1302153 0.1587699 0.13930611
0.19772302 0.23215567 0.2132216 0.18805647 0.14610617 0.13155906 0.20636722 0.29107615
0.19796103 0.2290503 0.3201663 0.17058963 0.16944559 0.24926363 0.39710712 0.17948388
0.12970443 0.24137753 0.2484777 0.38656512 0.26043153 0.12933339 0.23048878 0.13958403
0.36995614 0.13664252 0.25767198 0.14853147 0.17751086 0.15023369 0.4920521 0.18060072
0.24741375 0.17916282 0.114617 0.13170567 0.14225976 0.1915976 0.102742314 0.12891077
0.20527193 0.3853802 0.25028986 0.14688586 0.18126605 0.49634758 0.0922487 0.16582403
0.13274238 0.18960997 0.17673889 0.1316129 0.24221662 0.26077524 0.13558775 0.109866254
0.19687973 0.22837332 0.16748099 0.22561663 0.18279535 0.11873886 0.17028627 0.2267623
0.16949376 0.08651523 0.10905595 0.11516702 0.16305639 0.11353781 0.10834768 0.19010526
0.15252262 0.15579247 0.16246143 0.2198376 0.120714664 0.2984005 0.15068194 0.14939009
0.21886326 0.11444065 0.1633295 0.25373274 0.15272167 0.3777727 0.1527054 0.14592025
0.2295913 0.13139844 0.29508358 0.18684053 0.15635362 0.23592475 0.12569931 0.21588263
0.17114729 0.21093862 0.14402117 0.31217885 0.20430617 0.2818934 0.20745173 0.2220607
0.13132156 0.13129953 0.18881005 0.117099255 0.15206897 0.13261324 0.20958331 0.20743394
0.15638624 0.23174135 0.23260629 0.16639452 0.1532702 0.4257618 0.20915495 0.16719735
0.24830487 0.17610447 0.14178659 0.33834863 0.43030858 0.20327368 0.12568316 0.30647713
0.2882249 0.13503484 0.13363928 0.1686233 0.18415846 0.31053334 0.51457536 0.20958024
0.17820294 0.102454185 0.27686 0.25161284 0.096173115 0.42022124 0.15144248 0.20144762
0.17287616 0.1514414 0.19079891 0.16382018 0.19567873 0.3061122 0.14461896 0.1906233
0.22897324 0.12742732 0.33956236 0.09962914 0.2066955 0.2127023 0.13638256 0.119716465
0.14053504 0.19006659 0.28278077 0.32748905 0.14506331 0.13986526 0.44587278 0.25995708
0.14160821 0.20155293 0.14884038 0.16151328 0.2560798 0.13371457 0.45925838 0.14028922
0.17765607 0.28610957 0.15681307 0.12624815 0.34787154 0.13397045 0.21420829 0.109781824
0.2961939 0.20682196 0.2223959 0.17917678 0.20125255 0.4721919 0.17218128 0.22146569
0.13213105 0.31722757 0.2566691 0.22464377 0.21789025 0.10892077 0.25626194 0.232143
00000000: 752f 193e cdc7 0a3e bb36 a23e d0be 1b3e
00000010: 612e c23e 1bd2 3d3e 97a1 0c3e 3da2 4d3e
00000020: 4f7f 303e 4c53 863e 4465 f73d a9b9 f33d
00000030: d8ca 653e cfc1 7d3e dc3b 3d3e 9dac 5a3e
00000040: 445a 223e 6b86 293e b9fa 0e3e 3772 3e3e
00000050: 85ed 2c3e 26f2 243e c9b1 0f3e 4c59 053e
00000060: bef0 3e3e b531 183e 54a9 c53e e3a8 b23d
00000070: 3491 f53d 2eaa 6a3e d58a 8b3e 62cf d93d
00000080: 939e f13d 723f 523e 39b8 8d3e 44ea d23e
00000090: f217 7f3e b5fe aa3e 48cf ca3e ff9c 933e
000000a0: c5b2 d33e 9d1d 353e 6ba1 5d3e 1406 f53d
000000b0: 9aeb 9b3e 84cb 3d3e 4c69 1d3e 38ee 8e3e
000000c0: ee10 f33e c724 0b3e 343a 763e 4eb3 113e
000000d0: dfc5 433e 2957 053e 9494 223e 43a6 0e3e
000000e0: e777 4a3e 37ba 6d3e c356 5a3e e091 403e
000000f0: db9c 153e 6bb7 063e ee51 533e ef07 953e
00000100: 4cb6 4a3e 298c 6a3e d6ec a33e 0caf 2e3e
00000110: 2583 2d3e f73e 7f3e a051 cb3e 9fca 373e
00000120: 3dd1 043e ac2b 773e f070 7e3e ddeb c53e
00000130: 4857 853e f96f 043e 4005 6c3e 1eef 0e3e
00000140: e46a bd3e 04ec 0b3e 95ed 833e a218 183e
00000150: 68c5 353e dcd6 193e 41ee fb3e 65ef 383e
00000160: 085a 7d3e 7576 373e 51bc ea3d dadd 063e
00000170: 8bac 113e 2932 443e 906a d23d 2f01 043e
00000180: ce32 523e 8e50 c53e fe25 803e 3f69 163e
00000190: cf9d 393e 4521 fe3e e3ec bc3d c6cd 293e
000001a0: 9eed 073e 1e29 423e 0afb 343e 88c5 063e
000001b0: a207 783e 5584 853e 84d7 0a3e 8f01 e13d
000001c0: d79a 493e b2da 693e 2380 2b3e 0c08 673e
000001d0: b42e 3b3e 5c2d f33d 865f 2e3e 6034 683e
000001e0: c68f 2d3e e62e b13d ba58 df3d b0dc eb3d
000001f0: 41f8 263e 8386 e83d 63e5 dd3d f4aa 423e
00000200: e42e 1c3e 1088 1f3e 4a5c 263e 1c1d 613e
00000210: 4039 f73d f3c7 983e 5e4c 1a3e b7f9 183e
00000220: b11d 603e dc5f ea3d d93f 273e 42e9 813e
00000230: 1263 1c3e 6c6b c13e ce5e 1c3e 1e6c 153e
00000240: fb19 6b3e 508d 063e 3215 973e 2053 3f3e
00000250: 2a1b 203e 4296 713e 52b7 003e 5610 5d3e
00000260: 3c41 2f3e 4b00 583e 497a 133e e8d5 9f3e
00000270: a335 513e 5554 903e 3a6e 543e e163 633e
00000280: 2979 063e 6273 063e 6c57 413e bcd1 ef3d
00000290: f8b7 1b3e c4cb 073e 029d 563e 9069 543e
000002a0: b723 203e 9b4d 6d3e 5830 6e3e 5363 2a3e
000002b0: ddf2 1c3e 73fd d93e b72c 563e c835 2b3e
000002c0: a243 7e3e bb54 343e 8130 113e 083c ad3e
000002d0: 6851 dc3e fa26 503e 16b3 003e 92ea 9c3e
000002e0: 3792 933e 9346 0a3e bcd8 083e 96ab 2c3e
000002f0: 0994 3c3e 3afe 9e3e 36bb 033f 349c 563e
00000300: d57a 363e 80d3 d13d 98c0 8d3e 66d3 803e
00000310: 69f6 c43d 3d27 d73e bd13 1b3e 4948 4e3e
00000320: 7306 313e 7413 1b3e ca60 433e 7ac0 273e
00000330: 0160 483e bdba 9c3e fe16 143e c132 433e
00000340: f677 6a3e 4f7c 023e 1edb ad3e 5d0a cc3d
00000350: fca7 533e a2ce 593e dfa7 0b3e e82d f53d
00000360: 6be8 0f3e d1a0 423e a4c8 903e a5ac a73e
00000370: 7a8b 143e d738 0f3e 7049 e43e 1819 853e
00000380: be01 113e e463 4e3e 9d69 183e bd63 253e
00000390: e41c 833e 79ec 083e ea23 eb3e faa7 0f3e
000003a0: 79eb 353e f47c 923e 9b93 203e 3247 013e
000003b0: 381c b23e 8d2f 093e 6b59 5b3e 4bd5 e03d
000003c0: baa6 973e 23c9 533e c0bb 633e 1e7a 373e
000003d0: 2615 4e3e 23c3 f13e 4a50 303e e7c7 623e
000003e0: 5d4d 073e a76b a23e 226a 833e 0409 663e
000003f0: 9f1e 5f3e da11 df3d c434 833e e5b6 6d3e

conv2.0.weight f4 [10, 1, 6]
0.3423735 0.04426572 0.13230936 0.11975816 -0.04805772 -0.28591877 0.17571937 -0.16714996
0.23581448 -0.2174558 -0.063050516 0.44697174 -0.22478534 -0.35716462 0.18320984 0.14504893
-0.13407017 0.39556804 0.31161198 0.31697544 -0.2567302 0.31986886 0.12862971 0.104088396
-0.3115613 0.1978107 0.36419645 -0.37551567 0.34362227 -0.24433605 -0.23201393 -0.32645538
-0.19440009 0.04461836 0.051927824 -0.20849949 -0.2005918 -0.30853572 -0.42232502 -0.08727439
-0.30676973 -0.38634798 0.19642329 -0.33802223 0.44268686 0.23719043 -0.20636989 0.1143444
0.17715515 -0.08663383 -0.08420823 0.36035377 0.13070877 0.2656741 -0.37863782 0.008129748
-0.4376834 -0.051009927 0.4096006 0.0751671
00000000: 944b af3e f94f 353d 1b7c 073e c443 f53d
00000010: 2cd8 44bd f263 92be c7ef 333e 5c29 2bbe
00000020: 5a79 713e bcac 5ebe a120 81bd 7bd9 e43e
00000030: 212e 66be 48de b6be 5c9b 3b3e b587 143e
00000040: b149 09be e587 ca3e 9b8b 9f3e 9b4a a23e
00000050: 2472 83be dac5 a33e 82b7 033e 4c2c d53d
00000060: f684 9fbe e38e 4a3e f577 ba3e 9743 c0be
00000070: 42ef af3e 3b33 7abe 0f95 6dbe 2925 a7be
00000080: d110 47be bec1 363d 45b2 543d e480 55be
00000090: f067 4dbe 65f8 9dbe fc3a d8be eabc b2bd
000000a0: ec10 9dbe 67cf c5be 3023 493e 4011 adbe
000000b0: daa7 e23e 0ce2 723e a152 53be 662d ea3d
000000c0: 2968 353e 146d b1bd 5d75 acbd 4a80 b83e
000000d0: 85d8 053e 7006 883e d1dc c1be a232 053c
000000e0: 0a18 e0be c9ef 50bd 2bb7 d13e 35f1 993d

conv2.0.bias f4 [10]
0.14115201 0.07080543 0.2685984 0.27779865 -0.07051631 -0.06083457 -0.19465104 0.12938656
-0.0043746745 -0.1102359
00000000: 278a 103e 7002 913d bb85 893e a03b 8e3e
00000010: db6a 90bd ac2d 79bd 9a52 47be e97d 043e
00000020: 6e59 8fbb 5cc3 e1bd

conv2.1.weight f4 [10]
1.035665 1.0507779 1.0496855 1.0275639 1.1294099 1.1059362 1.0488652 1.0735904
0.99468327 1.0908997
00000000: ac90 843f e47f 863f 185c 863f 3787 833f
00000010: 8190 903f 518f 8d3f 3741 863f 696b 893f
00000020: 90a3 7e3f 9aa2 8b3f

conv2.1.bias f4 [10]
0.044575635 0.038867116 0.008587412 -0.02008473 0.055047616 0.03806699 0.012022019 -0.016326811
0.0022514637 0.052447695
00000000: f194 363d 2033 1f3d 37b2 0c3c bb88 a4bc
00000010: 9c79 613d 22ec 1b3d 01f8 443c cebf 85bc
00000020: 4b8d 133b 65d3 563d

conv2.1.running_mean f4 [10]
0.37847736 0.37695634 0.27368543 1.2040601 -0.16508034 -0.8410805 -1.8129243 0.4983998
0.686072 -0.53219146
00000000: c9c7 c13e 6c00 c13e 7f20 8c3e a41e 9a3f
00000010: d20a 29be 0d51 57bf e70d e8bf 422e ff3e
00000020: 6aa2 2f3f b33d 08bf

conv2.1.running_var f4 [10]
0.2110125 0.28622773 0.26178798 0.84916806 0.2697353 0.5594828 2.2147708 0.3528326
0.5425201 0.38150007
00000000: a913 583e 718c 923e 1309 863e 1463 593f
00000010: bf1a 8a3e 443a 0f3f cebe 0d40 79a6 b43e
00000020: 99e2 0a3f fa53 c33e

conv2.4.weight f4 [400, 10, 6]
-0.05281056 0.06948909 0.12417479 -0.08914053 0.056796905 -0.1264667 0.017087033 0.070766106
0.012914775 -0.075937696 0.032731272 -0.12153099 -0.030095432 -0.06314329 -0.058556855 -0.11463372
0.018097328 -0.13879484 0.030177617 -0.09001565 -0.093498185 0.11627741 -0.058936514 -0.01905913
-0.009307614 -0.07117364 0.04788742 0.08870411 0.07981624 -0.19083907 -0.08893296 -0.115019545
0.10176645 0.029130073 0.08680804 0.06387495 -0.14684346 -0.037569776 0.07837095 -0.088558435
0.08222829 0.117802665 0.11197482 -0.06825527 -0.07628968 -0.012704891 -0.108251944 -0.115293056
-0.13033728 -0.02383005 -0.1350455 0.07012047 0.10184252 0.05219308 0.079810634 0.042716566
-0.07611029 -0.05323936 -0.034589067 0.10111377 -0.037387624 -0.017769212 0.03220853 -0.15010163
0.0464025 0.038732223 0.06337046 0.0013241816 0.04091393 -0.10396638 -0.03938213 -0.031056365
0.053864703 -0.077545844 -0.05041537 -0.0070057986 0.06471862 -0.07235985 -0.1057136 -0.11135932
-0.02267067 0.017644703 -0.014205566 -0.0495499 -0.024740012 -0.049932607 0.01786648 0.1299989
-0.061010785 0.042771555 0.040827893 0.06907992 -0.13350117 0.12566245 -0.023714654 -0.0526749
0.12524718 -0.09986881 -0.078572616 -0.083711505 -0.016439032 -0.035259195 0.01990819 0.0370057
0.060464606 0.033338852 -0.049713228 0.022893058 -0.015148306 -0.123391494 0.08542457 -0.058933426
-0.04566828 0.083044425 -0.11615826 0.11216516 0.010139802 0.12285049 -0.09007858 0.05448413
-0.07582299 0.09061678 -0.1408605 0.12438207 -0.15758744 -0.067255475 -0.090078145 -0.005260951
0.08563728 -0.010553365 0.097561516 0.011655432 0.101058476 0.07352813 -0.055959694 -0.16053349
0.04289248 -0.06381279 0.018708 0.0019810784 0.030445328 0.059702888 -0.1078082 -0.059553087
0.023935057 -0.06930618 -0.0014520867 0.039353065 -0.11991897 0.049741067 -0.106760316 0.13494726
-0.04519504 0.0068771592 -0.021955315 -0.10199549 -0.054713506 -0.04397672 0.021466492 -0.07391732
-0.073557414 -0.01842681 -0.0362513 -0.05368857 0.0051869694 0.028580155 0.078077 0.026122995
0.08004322 0.12791018 0.017852902 -0.13723019 -0.1089439 -0.0145736495 -0.11127588 -0.045606155
0.096000314 -0.013253052 0.07821623 0.08089378 -0.08131857 -0.047275513 0.006350476 -0.023425395
0.09418287 -0.081100084 -0.054181367 0.02919429 -0.05344142 -0.10645826 0.024110703 -0.0011258029
0.023624541 0.08072066 -0.051551178 -0.08937917 0.0012386313 0.035331976 -0.11279571 0.08425157
0.039434217 -0.06620177 0.091443494 -0.126946 -0.085516974 -0.09543856 0.12770319 0.05180548
0.09162083 0.056071226 0.054097455 -0.06745909 0.10543906 0.109702215 -0.08397466 -0.049767338
0.023650844 0.040529784 0.08439432 0.077669375 0.12633997 0.08980333 0.05026452 0.080437854
-0.020427391 -0.034992684 -0.06887198 -0.13405481 0.08352882 -0.004850168 -0.084619164 0.0010490506
0.075597644 -0.1194415 -0.03321673 -0.0053197676 0.08211924 -0.060499124 -0.12484797 -0.11542682
0.019522902 0.052352376 0.021755582 -0.09559361 0.08303875 0.12757123 -0.06405109 0.07796988
0.15130928 -0.031469475 -0.017019037 -0.17762822 -0.14248993 0.0693965 -0.13456391 0.058526568
00000000: e34f 58bd 4c50 8e3d 5a4f fe3d 4f8f b6bd
00000010: dfa3 683d 7d80 01be 1bfa 8b3c d2ed 903d
00000020: 7e98 533c 3985 9bbd 3a11 063d 3de5 f8bd
00000030: b28a f6bc 4551 81bd 50d9 6fbd 15c5 eabd
00000040: d940 943c 3c20 0ebe 0d37 f73c 205a b8bd
00000050: fa7b bfbd da22 ee3d 6a67 71bd e521 9cbc
00000060: f67e 18bc 7cc3 91bd 9925 443d 80aa b53d
00000070: b276 a33d 516b 43be 7c22 b6bd 5e8f ebbd
00000080: ee6a d03d 31a2 ee3c 6ac8 b13d dfd0 823d
00000090: 225e 16be c4e2 19bd f380 a03d 205e b5bd
000000a0: 4e67 a83d 8642 f13d 0e53 e53d 6bc9 8bbd
000000b0: c43d 9cbd 2d28 50bc 32b3 ddbd c41e ecbd
000000c0: 2377 05be 3d37 c3bc 5e49 0abe 529b 8f3d
000000d0: d092 d03d 69c8 553d c273 a33d 91f7 2e3d
000000e0: b6df 9bbd 8411 5abd 44ad 0dbd bc14 cf3d
000000f0: c423 19bd bd90 91bc 17ed 033d 3eb4 19be
00000100: 8c10 3e3d aea5 1e3d 5fc8 813d 2990 ad3a
00000110: 5d95 273d 53ec d4bd 284f 21bd eb69 febc
00000120: 3ca1 5c3d 5bd0 9ebd 5980 4ebd e690 e5bb
00000130: 328b 843d 6731 94bd 5f80 d8bd 5b10 e4bd
00000140: d7b7 b9bc a08b 903c 76be 68bc d6f4 4abd
00000150: 91ab cabc 2286 4cbd b95c 923c 6f1e 053e
00000160: 72e6 79bd 3a31 2f3d 263b 273d c679 8d3d
00000170: 88b4 08be a8ad 003e 3c45 c2bc a3c1 57bd
00000180: cc40 003e 0588 ccbd aeea a0bd f070 abbd
00000190: 26ab 86bc f26b 10bd 8016 a33c 4a93 173d
000001a0: bca9 773d 528e 083d 19a0 4bbd 398a bb3c
000001b0: 9a30 78bc aeb4 fcbd 14f3 ae3d 2d64 71bd
000001c0: aa0e 3bbd 3213 aa3d 62e4 edbd d9b6 e53d
000001d0: 6921 263c 0a99 fb3d 1e7b b8bd c02a 5f3d
000001e0: 1549 9bbd 4a95 b93d bc3d 10be 07bc fe3d
000001f0: 9a5e 21be 3dbd 89bd e47a b8bd 0e64 acbb
00000200: 9962 af3d 05e8 2cbc 55ce c73d 6df6 3e3c
00000210: bff7 ce3d eb95 963d fe35 65bd e462 24be
00000220: 06b0 2f3d 48b0 82bd 8541 993c fbd4 013b
00000230: 7b68 f93c 048b 743d 8cca dcbd f0ed 73bd
00000240: 7413 c43c 66f0 8dbd f253 beba ae30 213d
00000250: 1498 f5bd 4abd 4b3d 27a5 dabd 9d2f 0a3e
00000260: 6f1e 39bd cb59 e13b a2db b3bc 03e3 d0bd
00000270: 451b 60bd ef20 34bd 7fda af3c f761 97bd
00000280: 45a5 96bd d2f3 96bc 3e7c 14bd 8ce8 5bbd
00000290: 74f7 a93b ee20 ea3c d6e6 9f3d e4ff d53c
000002a0: b3ed a33d e3fa 023e 4040 923c 1286 0cbe
000002b0: fb1d dfbd 51c6 6ebc 9ce4 e3bd 85cd 3abd
000002c0: d09b c43d 5423 59bc d52f a03d a3ab a53d
000002d0: 5a8a a6bd f8a3 41bd a717 d03b 9de6 bfbc
000002e0: f3e2 c03d cd17 a6bd 48ed 5dbd dd28 ef3c
000002f0: 64e5 5abd ca06 dabd cf83 c53c ad8f 93ba
00000300: 4188 c13c e050 a53d 5427 53bd 6d0c b7bd
00000310: 9259 a23a 43b8 103d 7001 e7bd 168c ac3d
00000320: c685 213d cb94 87bd ba46 bb3d 22fe 01be
00000330: 8623 afbd 4b75 c3bd a0c4 023e fc31 543d
00000340: b4a3 bb3d f1aa 653d 4b95 5d3d fe27 8abd
00000350: 6ff0 d73d 8eab e03d e8fa abbd d6d8 4bbd
00000360: 6abf c13c 8f02 263d eed6 ac3d 1f11 9f3d
00000370: 445f 013e cfea b73d 2be2 4d3d 9abc a43d
00000380: 5857 a7bc 7d54 0fbd c10c 8dbd aa45 09be
00000390: 2811 ab3d 28ee 9ebb d04c adbd 4c80 893a
000003a0: f0d2 9a3d bf9d f4bd 440e 08bd 7251 aebb
000003b0: 222e a83d eecd 77bd 4bb0 ffbd e664 ecbd
000003c0: 7eee 9f3c 726f 563d c338 b23c 95c6 c3bd
000003d0: 3810 aa3d 08a2 023e 382d 83bd acae 9f3d
000003e0: d2f0 1a3e 23e6 00bd 826b 8bbc 2ce4 35be
000003f0: e1e8 11be c11f 8e3d 1fcb 09be 8eb9 6f3d
