model/k_separated_bigrams_pssm_k1_model.ckpt (torch, 635099 bytes, 40 tensors)

conv1.0.weight f4 [10, 1, 3]
000000 f0 9a 8c 3e c1 70 c5 3d 25 bc 1f be 8d 4b 91 3e
       0.27461958 0.09640647 -0.15599115 0.28377953
000010 7f 3e c7 3d dc eb fa 3e 87 95 f8 bc 49 1e 93 3e
       0.09728717 0.4900807 -0.030344738 0.28734043
000020 5a 7d ee be 08 c8 82 3d 08 e9 33 be 9c 56 11 bf
       -0.4658001 0.06385809 -0.17569363 -0.5677278
000030 0c c9 06 bf 00 95 75 3e 31 64 65 3e 79 41 14 bf
       -0.52650523 0.2398262 0.22401501 -0.57912403
000040 2a 9b c7 be c8 c6 9d be 45 7e 20 bd e6 82 12 bf
       -0.38985568 -0.3081572 -0.03918292 -0.57230985
000050 88 69 c5 be 5b a3 9c be 0d ab f5 be ad 8f ea be
       -0.38557076 -0.3059338 -0.47982064 -0.4581274
000060 c2 1d e0 be 59 ee b6 3e 3a 7d 8d be 98 a2 72 3d
       -0.43772703 0.3572872 -0.27634603 0.059237093
000070 c1 ce 2a 3d 8e 8e c4 bd
       0.041701082 -0.09597503

conv1.0.bias f4 [10]
000000 7d 20 8b 3e 8b c8 22 3e 16 03 c6 3e c7 87 30 be
       0.27173224 0.15896814 0.3867423 -0.17239295
000010 f0 ac b9 3e a5 d6 07 3e 32 c8 dd be 4c 50 10 be
       0.36264753 0.13265474 -0.433168 -0.14093131
000020 20 cb dd be e6 75 ee 3e
       -0.43319035 0.46574324

conv1.1.weight f4 [10]
000000 c3 82 7a 3f d0 42 7a 3f 6d 5a 82 3f 0e 9f 88 3f
       0.97855777 0.977582 1.0183846 1.067354
000010 87 23 81 3f fa 1a 7b 3f 6e 6a 84 3f 8b a3 80 3f
       1.0088967 0.9808804 1.034498 1.0049909
000020 94 d2 84 3f b7 ca 76 3f
       1.0376763 0.9640307

conv1.1.bias f4 [10]
000000 5c 18 14 bc 7a c3 a5 3c 2e c8 2b 3d fc 3f 1c 3d
       -0.009039011 0.020234812 0.041938953 0.038146958
000010 87 25 b7 bb eb 92 15 ba e8 4d f2 3c c9 a4 0f 3c
       -0.0055891904 -0.00057057914 0.029578164 0.008767315
000020 17 3b 01 3d 5e b7 5b 3c
       0.031550493 0.013410417

conv1.1.running_mean f4 [10]
000000 f8 75 03 3f 17 be 80 3f df d6 cf 3d fd 70 5c bf
       0.5135188 1.0058011 0.10148405 -0.86109906
000010 f7 6d b0 3e 04 c7 91 bf 51 ff bd bf f5 88 ae bf
       0.34458897 -1.138886 -1.4843541 -1.3635546
000020 72 f1 49 bf af 10 e5 3e
       -0.7888404 0.4473929

conv1.1.running_var f4 [10]
000000 23 56 34 3e e2 c1 58 3f 4e 4c 75 3e c5 c5 22 3f
       0.17610984 0.8467084 0.23954889 0.6358302
000010 5f 7e a1 3e 4f 02 e1 3f f7 69 9a 3f f6 4c cc 3f
       0.31541726 1.757883 1.2063588 1.5960987
000020 4b c1 9f 3e e5 a8 47 3d
       0.31202158 0.048745055

conv1.4.weight f4 [400, 10, 3]
000000 48 f2 ce bd b2 f7 cc bd 04 53 9a bd 0a 29 48 be
       -0.10104805 -0.10008182 -0.07535365 -0.19546905
000010 e6 cf 69 3d 2c d4 28 3e 65 bb fd bd a4 cf 46 3d
       0.057083033 0.16487187 -0.12389258 0.048537865
000020 98 47 d7 bd 9c 81 04 be 7a b3 cf 3d ff 06 17 3e
       -0.10511702 -0.12940067 0.10141654 0.14748763
000030 27 dd 3a be 62 f7 0a 3e 8b 07 93 bd 72 f8 ee bc
       -0.18248425 0.13570932 -0.07179173 -0.029171202
000040 10 6b b4 bd 16 f5 3e be 8a 48 59 3d 65 90 04 be
       -0.08809483 -0.1864818 0.053047694 -0.12945707
000050 d5 20 7a bb 60 c1 2e be bc db 3d be 68 74 13 bc
       -0.0038166542 -0.17065954 -0.18540853 -0.008999921
000060 1b a3 54 be 41 a9 a0 bd b2 99 1e 3e ca ff 01 bd
       -0.20765345 -0.078447826 0.15488318 -0.03173808
000070 ef 0f 1a 3e 74 62 8a bd 1f 2b bb bd 5f 66 f9 bd
       0.1504514 -0.0675706 -0.09139084 -0.12177729
000080 e9 91 6a bb 1f ed 24 be 00 26 84 3d 21 01 f7 3b
       -0.0035792536 -0.1610608 0.064525604 0.0075379764
000090 a0 39 cd bd e7 b9 48 3b 79 f0 d8 3d 50 d2 fb 3d
       -0.10020757 0.0030628385 0.105927415 0.12295973
0000a0 64 71 a6 bc a2 87 c0 bd e7 bc 3e be 15 30 2e 3e
       -0.02031774 -0.0940087 -0.18626748 0.1701053
0000b0 63 c9 ac bc 48 48 4b 3c cf 86 61 bd 01 7e 78 bd
       -0.021092122 0.01240737 -0.055060204 -0.06066704
0000c0 2a cc 86 bd 6c bb fe bc 0c cd 04 be ac e0 6c 3d
       -0.0658191 -0.03109523 -0.12968844 0.05783145
0000d0 91 fa 76 3d 92 e7 c9 bd df 36 d3 3d be 79 3b bd
       0.060297552 -0.09858622 0.103132 -0.0457704
0000e0 97 01 0c be c9 a6 23 be 39 57 88 bd c4 34 d4 3d
       -0.13672481 -0.15981592 -0.066572614 0.10361627
0000f0 13 e7 62 3c 20 42 fe bd fe 50 eb 3d e9 a7 1a 3d
       0.013849038 -0.12414956 0.114900574 0.037757788
000100 ea 4a 6e 3c 6a 65 39 be b4 f5 25 be 09 a5 90 3d
       0.014544228 -0.18105093 -0.1620701 0.07062728
000110 6d 3c 00 3b d9 58 97 be e7 da 3d be 4d f3 32 3e
       0.0019567267 -0.29559973 -0.18540536 0.17475624
000120 ce 69 fc bd 99 e4 4b 3d 0b 08 e0 3d 05 51 8d 3d
       -0.12324868 0.049778555 0.10939034 0.06900219
000130 09 84 07 3e 1a fe 01 be 99 23 25 3d 86 cd 82 bd
       0.13233961 -0.12694588 0.04031715 -0.06386857
000140 e6 67 2a be 4c df dd 3d f3 bb 46 be 12 e9 04 3e
       -0.16641197 0.10833606 -0.19407634 0.12979534
000150 7f e2 e9 bc 20 ee c4 bd af da 5e 3c 46 15 58 be
       -0.028550385 -0.09615731 0.013601943 -0.21101865
000160 15 d7 8e 3d a5 58 9e 3d 00 68 65 3d 31 fa 27 be
       0.069746174 0.07731751 0.056007385 -0.16404034
000170 36 67 84 bd a3 99 91 3d 8f 7a 81 bb b6 14 34 be
       -0.064649984 0.07109382 -0.0039513777 -0.17586026
000180 72 8c 6d 3d 2d d5 75 bc 6d 7d c1 bc 38 67 20 3e
       0.057995267 -0.015004438 -0.023619378 0.15664375
000190 07 d6 af bd 94 53 c1 3d 4e 4c 0e 3d 52 6f 00 3e
       -0.08585744 0.094397694 0.03474074 0.12542465
0001a0 7f ab ea bd 62 14 aa 3d 9d 20 c5 3c 2d 6a 12 bd
       -0.114584915 0.08304669 0.024063403 -0.03574579
0001b0 27 58 0b 3e 74 d5 3e 3d a1 ac af 3d 52 df 9e bd
       0.13607846 0.046590284 0.08577848 -0.07757439
0001c0 9f ee 0d 3e 64 fd fe bc d5 10 b1 3d 3b c4 01 be
       0.13860558 -0.031126685 0.086457886 -0.12672512
0001d0 0f 42 72 bc a8 c4 66 3d f0 f0 e2 3d 27 99 2f 3e
       -0.014786257 0.05633989 0.110811114 0.17148267
0001e0 ca ea 7c bd 6c 27 e4 3d 2c ed fd bc 7e 10 bb 3d
       -0.06174735 0.111403316 -0.030996881 0.09134005
0001f0 71 fd 93 3d 7f 55 6e 3d 76 ca 21 3e c4 b3 10 be
       0.072260745 0.058187004 0.15799889 -0.14131075
000200 0b ba 1b be 4b 9c 33 3e 86 f3 9c 3a 81 c2 3a bd
       -0.15207689 0.1754009 0.0011974431 -0.04559565
000210 eb 09 b7 bd e5 56 38 3e 73 c6 a2 3d a1 af 45 3d
       -0.089374386 0.18001898 0.079480074 0.048263196
000220 62 76 df bd d7 da e4 3d 6b 46 1c be 26 d8 f7 3d
       -0.109112516 0.11174553 -0.15261237 0.12101774
000230 4d a1 a7 3d 17 97 f2 bd e2 94 a2 3b 0a 64 4c bd
       0.081850626 -0.11845224 0.004961596 -0.049900092
000240 21 01 42 be 6e 82 15 bd a1 20 e4 3d 9a 3d ae bd
       -0.18945743 -0.03650134 0.11139036 -0.08507843
000250 f4 7e d9 bc 13 d9 0f 3e 2c 68 d6 bc 07 a3 16 3e
       -0.026549794 0.14047651 -0.02617272 0.14710627
000260 9c 28 c5 bd 70 29 27 3c 1c 71 f2 3c b2 c0 78 bb
       -0.09626886 0.010202751 0.02959495 -0.0037956652
000270 a4 5d cd bd 41 25 a8 bd c0 0b 3e 3d e9 62 89 bc
       -0.10027626 -0.082102306 0.046397924 -0.016770797
000280 9b 60 02 be 0c 90 2c 3e 3f 6c 6a bd 65 e0 a9 3d
       -0.12732165 0.16851825 -0.057232138 0.08294753
000290 6e da 8b 3d eb 45 2e 3e 7e eb de bc 9a d0 0c be
       0.068287715 0.17018859 -0.0272119 -0.1375145
0002a0 72 6d 44 3e 65 25 41 be e9 67 f9 3b 2b 4e ee bd
       0.19182375 -0.18861921 0.007611264 -0.11636003
0002b0 34 35 9b bd 41 7c 11 3e c1 3b e4 3d 62 8f ff bc
       -0.07578507 0.14207555 0.1114421 -0.0311963
0002c0 d5 ef ce 3d 23 bb 04 3d 2c b0 9a 3d 47 b3 9c bd
       0.10104338 0.03240503 0.07553133 -0.07651382
0002d0 4d a1 fb bd 14 77 b6 3d 83 ca 92 3d a0 5e 27 3e
       -0.12286625 0.08909431 0.07167532 0.1634469
0002e0 2c 64 27 be c4 a7 2f be 62 94 0d 3e 8b 74 15 be
       -0.16346806 -0.17153841 0.13826135 -0.14595239
0002f0 40 45 e9 bd c0 3f ea bd d9 9f e9 bd 0a de 9a bd
       -0.113901615 -0.114379406 -0.11407442 -0.07561882
000300 8c 67 2b be 72 94 b4 bd 58 30 e6 bd 3e e1 f2 3d
       -0.16738719 -0.08817376 -0.112396896 0.11859368
000310 9f 36 8d bd 0f 6a 5e bc 13 f9 d1 3d e7 b7 3b be
       -0.06895184 -0.013575091 0.10252585 -0.18331872
000320 9a d3 8d 3d 18 66 c4 3d 70 ef 43 be 5c 11 e6 3d
       0.069251254 0.09589785 -0.19134307 0.1123378
000330 92 2d f2 bc b9 51 a2 bd 7a 83 82 3d d5 f5 3b be
       -0.029562745 -0.079257436 0.063727334 -0.18355496
000340 7d 89 19 bd c3 34 ed 3d f0 c0 42 be 23 ed d2 bd
       -0.037484635 0.11582329 -0.19018912 -0.102991365
000350 fb 68 27 3e 98 d8 b3 3b d3 69 2e 3e 3e 75 45 3d
       0.1634864 0.0054884665 0.17032556 0.048207514
000360 0f 28 22 3d ab 49 40 bb 38 1c 6e bc a2 fa c2 3c
       0.039588984 -0.0029340785 -0.014533095 0.023801152
000370 75 62 94 3d 0f 01 0a 3e 3e 43 c0 bd 3a 1c 58 be
       0.07245342 0.13476966 -0.093878254 -0.21104518
000380 00 d3 1d bd 46 4a 9a 3d 45 33 df 3c 97 fc 32 3d
       -0.038531303 0.07533698 0.027246127 0.04369792
000390 da 06 5c be f2 f5 fc 3d ec 5b 0f 3d 70 83 ea bd
       -0.21486989 0.12351598 0.034999773 -0.11450851
0003a0 9f 22 d7 3d 55 c7 b3 3b 7d ed 4d be c9 33 78 3d
       0.1050465 0.0054864087 -0.20110126 0.06059626
0003b0 3f 50 58 bc 60 79 e8 bd 71 2f 28 3e 16 ee 6d bd
       -0.013202726 -0.113512754 0.16424347 -0.058088385
0003c0 61 d2 d6 3d ac b2 43 3e e4 d0 64 bd ac 6b cf 3d
       0.10489345 0.19111127 -0.055863276 0.10127959
0003d0 42 28 16 bd 41 d6 1d 3e e1 bc 14 be 37 ce aa 3d
       -0.036659487 0.15413763 -0.14525177 0.083401136
0003e0 9e 74 84 be ac 8c e0 bd 97 46 9c 3d fa ac 03 3c
       -0.25870222 -0.10964331 0.076306514 0.008036846
0003f0 95 80 bc bd da 86 27 bd 8c 28 d6 bd c0 c7 a1 be
       -0.092042126 -0.04090009 -0.104569525 -0.3159771

conv1.4.bias f4 [400]
000000 79 a2 a9 3d 7c 0a 44 be 2c 76 2a 3e 0a ba a9 3d
       0.08282942 -0.19144624 0.16646641 0.08287437
000010 9c a0 35 be 0a ef a0 bc a8 2e 2a be 41 ef 18 be
       -0.17737049 -0.019645233 -0.1661936 -0.14935018
000020 26 c7 33 be e8 19 4d 3d 80 42 20 be 0f 91 16 be
       -0.17556438 0.050073534 -0.15650368 -0.14703773
000030 87 16 7f 3c 5e 11 e9 3c 85 82 02 bd c8 b5 3f be
       0.015569336 0.028450664 -0.031862754 -0.18721688
000040 ad 15 83 3d 9a 0f 96 3c 9d 37 b5 3c 42 07 e7 bd
       0.06400619 0.018317986 0.022121245 -0.11280681
000050 67 1e a0 bc ac 3b a8 bd 24 79 f0 bd ca c8 a1 bc
       -0.019545747 -0.082145065 -0.11741856 -0.019749064
000060 f5 12 bf bc 7c 9d 3e be 93 6e 89 3d 0d cf 0e bc
       -0.02332447 -0.18614763 0.067105435 -0.008716357
000070 84 d6 3e 3d 63 22 2a be 8c 67 4c be 19 fe 18 3e
       0.046591297 -0.1661468 -0.19961375 0.1494068
000080 da 42 19 3e 40 7f 0a be 91 8b d0 3d 13 4f 9a bd
       0.14966908 -0.13525105 0.1018287 -0.075346135
000090 e9 9e 0d 3c de 11 34 be 82 f1 0f 3e e0 c2 2a bd
       0.008643844 -0.17584941 0.14056972 -0.041689754
0000a0 85 49 92 bd d1 3f 5f bd 47 2f 64 3d 88 42 c5 ba
       -0.07142929 -0.05450422 0.05570915 -0.0015049735
0000b0 eb a5 c1 3d d1 62 0e be 71 77 18 be e6 b5 22 be
       0.094554745 -0.13904883 -0.14889313 -0.15889701
0000c0 ea 3a 95 bd 77 b6 18 3e a9 0e 8e 3d b2 02 da bd
       -0.072866276 0.14913355 0.0693639 -0.10645045
0000d0 cc 6f 3c be 48 76 1a be 8d ab ad bc 20 f2 f2 bd
       -0.18402022 -0.15084183 -0.021199966 -0.11862588
0000e0 cb 5e 9e bd d9 95 27 3e dd e5 6c 3d 10 6a 40 be
       -0.07732924 0.16365756 0.057836402 -0.1879046
0000f0 6a 0c 73 bd 9e ac 93 bd 24 51 81 bd 3f 67 4e be
       -0.05933801 -0.072106585 -0.063143045 -0.20156573
000100 61 1f 96 3d 7a 0b 1c 3e 8c aa 0b bd 41 74 9f 3d
       0.07330204 0.15238753 -0.034098193 0.077858455
000110 a1 95 e1 bc 62 e7 dd 3c c5 44 2d bd 51 4a 3f be
       -0.027537169 0.027087871 -0.04230191 -0.18680693
000120 24 49 73 bd 96 46 0f 3e 92 8e ef ba a2 cf a7 3c
       -0.059395924 0.1399177 -0.0018276742 0.02048475
000130 ed 95 51 3d f7 82 95 bd 0f a0 23 be 6d d9 ee bd
       0.05116837 -0.0730037 -0.15979026 -0.116625644
000140 df 9c b9 bd 88 5a 38 be f3 3b a9 bd 37 02 60 bd
       -0.09063124 -0.18003285 -0.082633875 -0.054689612
000150 23 ab 88 3d b2 62 0c bd 40 fc 07 3e 2c 5f 58 3d
       0.06673267 -0.03427381 0.1327982 0.052825138
000160 02 f3 55 bd 21 c4 e8 3d cc 87 c2 3d fc 49 1d 3d
       -0.052233703 0.113655336 0.094985574 0.038400635
000170 3c bb d8 3d c3 78 47 3d 55 55 7c 3d 84 33 42 be
       0.10582587 0.04869915 0.061604816 -0.18964964
000180 f9 ce 5c bb 2d 6b 72 bc b0 65 24 3e c3 d6 b4 3d
       -0.0033692701 -0.0147960605 0.16054416 0.08830025
000190 1e 52 10 be 88 fb 48 3d 42 3d 38 be f1 7f 1a bd
       -0.14093825 0.049068004 -0.17992118 -0.03771967
0001a0 52 eb b1 bd ea 1b f0 3d d3 05 e9 bc 4d 77 18 3e
       -0.08687462 0.11724074 -0.02844516 0.1488926
0001b0 df 7e a3 3d af 49 f4 bd d4 dd 80 3d 2d d6 b0 3b
       0.07983183 -0.119281165 0.0629231 0.0053966255
0001c0 c7 c9 2d be 4d 4d 5d bd 1f e1 2c be d3 25 3e bd
       -0.16971503 -0.054028798 -0.16882752 -0.04642279
0001d0 d2 0e a6 3d c3 41 bd 3d 52 db 06 be 5f 58 23 bb
       0.081082955 0.09241059 -0.13169602 -0.00249245
0001e0 86 db 89 bd 8d 83 b4 3d cb dc 36 be 2d 55 a2 3d
       -0.06731324 0.08814154 -0.17857663 0.07926402
0001f0 d5 00 d6 bd 55 76 07 be f9 60 20 be 7b 67 59 3d
       -0.104493774 -0.13228734 -0.15661992 0.053077202
000200 e8 df d5 3c 34 d1 01 3e 20 ff 3f be 2e 77 28 3e
       0.026107743 0.12677461 -0.18749666 0.16451713
000210 b1 e4 1e be 28 11 cc 3d 68 22 12 3e c3 66 dc bd
       -0.15516926 0.0996421 0.14270937 -0.10761788
000220 46 88 6a 3c 90 72 1c be 97 da 85 bd 96 7f fc 3d
       0.014314717 -0.15278077 -0.06535833 0.123290226
000230 53 41 5e 3d 5b 57 3b be fa 20 fc 3d 15 b3 0a be
       0.054261517 -0.18295042 0.12310977 -0.13544877
000240 fa a2 fa bc 2c 1a 1a bd 09 e8 21 be f7 83 c0 3d
       -0.030595291 -0.037622616 -0.1581117 0.0940017
000250 6f 57 16 be c7 3f 1b be f0 8f ca bc 80 78 70 3c
       -0.14681791 -0.15161048 -0.024726838 0.014677167
000260 d6 81 6f bd cc 62 36 bd 66 1e fb bb 21 77 12 3e
       -0.05847343 -0.044527814 -0.007663536 0.14303257
000270 ae 96 ed bc b5 7e 0f 3e a7 ef 69 3d de 23 7a 3d
       -0.029002514 0.14013179 0.057113316 0.061069362
000280 90 34 a0 3d 4d 99 bc 3d a8 ba 84 3d bd 24 cb 3b
       0.078225255 0.09208927 0.06480914 0.006199448
000290 06 c7 10 3e a4 50 07 bd 8f 35 b1 3d 43 03 16 bc
       0.14138421 -0.03303589 0.086527936 -0.009156051
0002a0 b9 d7 2e 3d 68 f6 59 bd 3f 32 c0 3d d2 54 2b be
       0.042686198 -0.053213507 0.09384584 -0.16731575
0002b0 78 6c 5c 3d 9d 6b 09 be 5c d2 98 bd ce f5 1c 3e
       0.05381438 -0.13419957 -0.07461998 0.15328142
0002c0 a8 97 33 3e 81 3c 18 3e 87 9f 82 3c ac 00 e4 bc
       0.17538321 0.1486683 0.01594521 -0.027832352
0002d0 04 aa 4b 3d df f5 1b bd 1b db 07 3e 4c 12 8c bd
       0.049722686 -0.038076278 0.13267176 -0.06839427
0002e0 c8 b9 b3 3c 55 f3 1e be c7 13 dc 3c ee 40 c6 3d
       0.021939173 -0.15522511 0.0268649 0.09680353
0002f0 0a eb 65 bd 9f 73 2b be df 1b 12 3d 39 03 e3 bd
       -0.056132354 -0.16743325 0.03567111 -0.11084599
000300 df ea 2c bd cf f2 18 3e d0 c9 31 3e aa de e2 3d
       -0.042216178 0.14936374 0.17362142 0.11077626
000310 e1 55 ed 3d 22 f9 5c 3c 43 d7 0e be fe d6 74 3d
       0.11588646 0.013487132 -0.13949303 0.059775345
000320 a6 ea f2 3d bf ef b1 3d 00 65 9b bb ea 90 7f bb
       0.11861162 0.08688306 -0.0047422647 -0.0038996288
000330 59 81 02 3c 5b a4 0d be 56 9e 0e 3e c1 b7 b4 3d
       0.007965409 -0.13832228 0.13927588 0.08824111
000340 0a 58 21 be d3 1e a9 3d aa b1 f0 3d a4 8e ad 3d
       -0.1575624 0.082578324 0.11752637 0.08474472
000350 70 90 b0 bc 8e a3 7f bd c7 9b 17 3e 2e 9f 51 be
       -0.021553248 -0.062411837 0.14805518 -0.20470878
000360 bf 41 15 3d 10 4b cd 3d be 5f 01 be 9b 12 2d bd
       0.036439653 0.10024083 -0.12634179 -0.04225407
000370 f8 06 23 3d 5f cb 90 bd 42 67 d7 3d 34 82 10 39
       0.039801568 -0.0707004 0.10517742 0.00013781415
000380 3d 4a 36 be 59 c2 3b be db a6 9d 3c 6a ec e2 bd
       -0.17801757 -0.18335856 0.019244602 -0.11080249
000390 07 05 11 bd b0 18 8c 3d ac 94 07 be ea d7 46 3d
       -0.035405185 0.06840646 -0.13240308 0.048545755
0003a0 4c 6b 0c 3e 25 56 e6 bd d2 c6 60 ba f5 89 e1 bc
       0.13712806 -0.112468995 -0.00085745484 -0.027531603
0003b0 ef 1d 10 3c b5 4e 32 3e 09 a9 22 be 35 56 c1 3d
       0.008796199 0.17412837 -0.15884794 0.09440271
0003c0 81 f0 dd 3d 54 b7 06 be 6e 96 17 be 8e 2a 96 3d
       0.10836888 -0.13155872 -0.14803478 0.073323354
0003d0 0c b0 aa 3c 04 0e 0e bd 1f 95 ac bd 18 a3 d1 bd
       0.020835899 -0.034681335 -0.0842688 -0.10236186
0003e0 dc 71 f7 bd 65 33 0a be 7e 32 9f bd 53 b8 05 3d
       -0.12082264 -0.13496168 -0.077733025 0.03264649
0003f0 0c e1 a8 3c 7e 7d f0 ba ce e6 dc bd 36 73 9b bd
       0.020615123 -0.0018347946 -0.1078621 -0.07590334

conv1.5.weight f4 [400]
000000 d8 a4 7a 3f d6 06 79 3f a6 64 7e 3f 64 11 77 3f
       0.9790778 0.97276056 0.9937233 0.9651091
000010 eb e0 7c 3f 92 c4 7b 3f 85 6d 79 3f e7 fc 7c 3f
       0.987807 0.9834682 0.9743274 0.988234
000020 66 e5 7e 3f f4 a4 7a 3f ab 5e 79 3f e4 01 7d 3f
       0.99568784 0.9790795 0.97410077 0.9883101
000030 79 26 7a 3f 76 b5 7a 3f b6 07 7b 3f bb c5 7d 3f
       0.97714955 0.9793314 0.9805864 0.9912984
000040 de f9 81 3f 3c 77 7b 3f 6e b6 7f 3f c4 aa 7c 3f
       1.0154378 0.9822881 0.9988774 0.9869807
000050 ce 41 7a 3f de e1 82 3f 69 89 7b 3f 94 e2 78 3f
       0.9775666 1.0225179 0.98256546 0.9722073
000060 95 98 7c 3f 71 65 7c 3f e9 d8 80 3f 73 80 7c 3f
       0.9867032 0.9859229 1.0066196 0.986335
000070 5f 3c 78 3f 64 ee 78 3f 3b b7 79 3f 48 bc 7c 3f
       0.9696712 0.97238755 0.9754521 0.98724794
000080 a6 7a 78 3f 77 09 79 3f 03 d1 7a 3f 25 4c 77 3f
       0.97062147 0.9728007 0.97975177 0.9660056
000090 45 96 7a 3f ac 16 7f 3f 1c 12 81 3f f2 af 7d 3f
       0.97885543 0.9964397 1.0083652 0.99096596
0000a0 32 d2 79 3f 7c 62 7a 3f 82 63 7d 3f f3 da 79 3f
       0.9758636 0.97806525 0.9897996 0.97599715
0000b0 3c b0 7c 3f 56 5e 77 3f 42 c7 79 3f 52 62 75 3f
       0.9870641 0.9662832 0.9756967 0.9585315
0000c0 c6 12 7e 3f 38 ad 7c 3f 2a 77 7c 3f 40 a5 7d 3f
       0.99247396 0.9870181 0.9861933 0.99080276
0000d0 14 5b 78 3f 6a b6 79 3f 13 e1 79 3f 9e da 77 3f
       0.97013974 0.97543967 0.9760906 0.9681796
0000e0 7b 7b 7b 3f bb 68 7e 3f 4e 50 7b 3f 1a 72 7c 3f
       0.9823529 0.99378556 0.9816941 0.98611605
0000f0 74 08 7d 3f 9c 78 7e 3f 2b 40 7d 3f d3 06 7c 3f
       0.98841023 0.99402785 0.9892604 0.9844791
000100 74 ce 74 3f 78 a0 7e 3f 38 7b 81 3f 6d 6f 79 3f
       0.9562752 0.99463606 1.0115728 0.9743565
000110 48 5e 79 3f d7 0e 7f 3f 53 f8 7c 3f 8e 06 7c 3f
       0.97409487 0.9963202 0.9881641 0.984475
000120 09 22 7a 3f fd ec 7f 3f 9c 70 7a 3f c8 31 7a 3f
       0.97708184 0.9997099 0.9782808 0.9773221
000130 0f 23 7f 3f 9a 20 7b 3f d1 f1 7a 3f d4 95 7b 3f
       0.9966287 0.9809662 0.9802523 0.98275495
000140 45 50 79 3f b6 b5 7c 3f 29 98 7a 3f 56 68 78 3f
       0.97388107 0.9871477 0.9788843 0.97034204
000150 cb 18 77 3f 5c 76 7d 3f c5 89 7d 3f e0 70 7e 3f
       0.96522206 0.9900873 0.99038345 0.99390984
000160 9b ef 7e 3f 7e aa 7b 3f 1a 28 7b 3f 01 12 7a 3f
       0.9958436 0.98307025 0.98108065 0.9768372
000170 ed 2b 79 3f 7b dc 78 3f b6 72 7b 3f e9 91 77 3f
       0.9733265 0.97211426 0.9822191 0.96707016
000180 e4 b1 74 3f c8 78 79 3f ed bb 78 3f 53 77 7f 3f
       0.9558394 0.9744992 0.9716175 0.9979145
000190 3e d1 7a 3f c2 9d 7a 3f 5d b2 76 3f 65 91 7a 3f
       0.9797553 0.9789697 0.9636591 0.97878104
0001a0 0b 17 7d 3f 2a 99 7b 3f cd ab 7a 3f dc cf 7b 3f
       0.98863286 0.98280585 0.979184 0.98364043
0001b0 af ca 79 3f 5a 08 80 3f 99 f1 7e 3f 2d d7 7b 3f
       0.97574896 1.0002549 0.995874 0.9837521
0001c0 5e f2 7d 3f dc 1e 7f 3f b5 b5 78 3f c3 48 77 3f
       0.9919795 0.9965646 0.9715226 0.965954
0001d0 9a 40 7a 3f f3 15 7a 3f b5 2f 7c 3f 0c 52 79 3f
       0.97754824 0.9768974 0.98510295 0.9739082
0001e0 59 94 7b 3f 59 d5 7d 3f 23 fb 7c 3f e8 b9 78 3f
       0.98273236 0.9915367 0.98820704 0.9715867
0001f0 47 15 82 3f 89 27 7b 3f 53 01 7b 3f fc 74 7b 3f
       1.0162743 0.981072 0.98048896 0.9822538
000200 a7 19 79 3f 3e 08 7b 3f 19 19 7e 3f 4b 96 7d 3f
       0.9730477 0.9805945 0.99257046 0.99057454
000210 9a 4a 78 3f 5c f8 78 3f 89 d3 77 3f 31 01 78 3f
       0.9698883 0.97253966 0.9680715 0.9687682
000220 38 c8 76 3f 3e 9a 7a 3f 3b 40 7b 3f 7f c9 78 3f
       0.9639926 0.97891605 0.9814488 0.9718246
000230 14 db 79 3f 3f ae 7a 3f e8 cc 77 3f 97 81 7a 3f
       0.9759991 0.9792213 0.9679704 0.9785399
000240 18 b5 7b 3f 2b 52 7a 3f 4b 5f 79 3f 91 61 7b 3f
       0.983232 0.9778163 0.9741103 0.9819575
000250 47 b7 7d 3f f9 c4 7b 3f ca 7d 7d 3f f0 fd 74 3f
       0.99107784 0.9834743 0.99020064 0.9569998
000260 ea 93 7e 3f 2e eb 79 3f 0b 49 7e 3f bf 40 7d 3f
       0.9944445 0.9762448 0.99330205 0.9892692
000270 59 ea 7c 3f 76 7e 7d 3f 63 c6 7f 3f 23 7b 7b 3f
       0.98795086 0.9902109 0.9991209 0.98234767
000280 d6 c9 7a 3f a0 f6 78 3f eb c5 74 3f 39 ae 7f 3f
       0.9796423 0.9725132 0.956145 0.9987522
000290 c8 b8 78 3f c9 db 7f 3f dc d8 7b 3f 88 7a 7a 3f
       0.97156954 0.9994474 0.98377776 0.9784322
0002a0 2f 70 79 3f fd 79 78 3f 69 84 78 3f 5c 82 7b 3f
       0.97436804 0.9706114 0.9707704 0.9824579
0002b0 9c 21 7c 3f a8 ed 7f 3f 90 26 7f 3f 7f 8e 80 3f
       0.98488784 0.9997201 0.99668217 1.0043486
0002c0 83 91 7a 3f 9d a7 7a 3f 13 e8 7c 3f fa 00 7b 3f
       0.97878283 0.9791201 0.9879162 0.98048365
0002d0 2c fd 7a 3f 27 5e 7c 3f 10 67 81 3f 0d 10 7b 3f
       0.9804256 0.98581165 1.0109577 0.98071367
0002e0 f7 be 78 3f 7b 71 80 3f 07 67 7a 3f fe 59 76 3f
       0.9716639 1.0034631 0.9781346 0.9623107
0002f0 f7 d4 7b 3f fc 43 7b 3f 54 94 80 3f a2 76 7b 3f
       0.98371834 0.9815061 1.0045266 0.98227894
000300 98 de 7c 3f 02 ac 78 3f 5a d4 79 3f 55 2f 7c 3f
       0.9877715 0.97137463 0.9758965 0.9850972
000310 ce 5a 77 3f 67 58 7b 3f 63 09 7c 3f d3 38 7b 3f
       0.9662293 0.98181766 0.98451823 0.9813358
000320 8a 1f 7c 3f 38 e9 79 3f 87 84 77 3f 75 5a 7d 3f
       0.98485625 0.9762149 0.96686596 0.9896615
000330 ee b4 78 3f ac 00 7b 3f 25 aa 7b 3f 32 91 79 3f
       0.97151077 0.980479 0.98306495 0.97487175
000340 6f c3 7c 3f 65 e7 7a 3f 05 cb 7c 3f 55 93 7a 3f
       0.9873571 0.9800933 0.98747283 0.9788106
000350 c1 92 7e 3f cf ac 7a 3f 06 29 7d 3f 41 5d 79 3f
       0.9944268 0.97919935 0.9889072 0.9740792
000360 45 13 77 3f 7f 71 7d 3f cf 18 78 3f a7 72 7b 3f
       0.9651378 0.99001306 0.96912855 0.9822182
000370 4e d6 7b 3f ba bb 76 3f 72 2d 7c 3f 83 48 7b 3f
       0.9837388 0.963802 0.98506844 0.9815752
000380 f3 cb 7c 3f ac ba 7b 3f fc b2 7c 3f be d8 77 3f
       0.987487 0.98331714 0.9871061 0.968151
000390 cc 17 7c 3f 04 66 7a 3f 2f 2e 81 3f 46 d3 7e 3f
       0.9847381 0.97811913 1.0092219 0.9954113
0003a0 e7 1f 7d 3f 82 36 7a 3f 74 a9 7e 3f f5 49 7b 3f
       0.98876804 0.9773942 0.99477315 0.98159724
0003b0 1d 96 78 3f ad f3 7d 3f 7a 60 7a 3f 49 3e 77 3f
       0.97104055 0.99199945 0.9780346 0.96579415
0003c0 e8 cb 7c 3f d7 91 7e 3f 8e 6a 7b 3f 72 7c 7d 3f
       0.98748636 0.99441284 0.98209465 0.99018013
0003d0 1e 03 7a 3f 51 24 7a 3f 14 df 79 3f 00 f8 7a 3f
       0.97661006 0.97711664 0.97606015 0.9803467
0003e0 b7 87 79 3f 8f d9 7a 3f ad e9 79 3f b3 e6 77 3f
       0.9747271 0.9798822 0.97622186 0.96836394
0003f0 de 02 7e 3f 55 70 79 3f 28 dd 7e 3f 3a de 7b 3f
       0.99223125 0.9743703 0.9955621 0.98385966

conv1.5.bias f4 [400]
000000 ee a6 a6 bb 8c 47 71 bc 99 c9 14 bc 0b 3a b0 bc
       -0.0050858175 -0.014726531 -0.009081268 -0.021512052
000010 16 6f 4c bc c6 58 b3 bb d0 fd ad bc a0 90 b7 bb
       -0.012477657 -0.005473229 -0.021239191 -0.0056019574
000020 85 59 5c ba 5f fb 2b bc af 4c e4 bb 40 21 0b bc
       -0.00084056734 -0.010496943 -0.006967149 -0.008491814
000030 70 e6 77 bb 5a b1 d5 bb 39 39 82 bc ba 73 a4 bb
       -0.003782656 -0.006521386 -0.015896427 -0.0050186785
000040 36 4b 06 bc f6 a4 62 bc 81 eb 51 bc 5c 90 8e 3a
       -0.008196643 -0.013833275 -0.012812496 0.0010876763
000050 2e d6 ee bb 2b 2c 92 bb 1b c5 fd bb 59 52 df bc
       -0.007288716 -0.0044608316 -0.007744444 -0.027260946
000060 dc 16 d0 bb 4f b0 cf bb 15 9f 0e bb 1b 6d 83 bc
       -0.0063503813 -0.0063381563 -0.00217623 -0.016043236
000070 f4 9d ef bc 1d b3 4b bc e8 42 1c bc d0 9b d9 ba
       -0.029250123 -0.012432841 -0.009537436 -0.0016602222
000080 cd 87 aa bc f4 1e 6c bc 97 f7 03 bc f9 24 f4 bc
       -0.020816708 -0.014411677 -0.0080546355 -0.029802786
000090 91 0a b7 bb 81 59 74 ba f5 e9 0e bb 33 24 82 bc
       -0.0055859764 -0.00093211984 -0.002180693 -0.015886402
0000a0 54 1c 76 bc 0e 7a 7b bc f0 07 48 ba a3 21 35 bc
       -0.015021402 -0.015348924 -0.00076305773 -0.011055383
0000b0 7e c3 5e bc 1c ca 5b bc da 59 4a bc 5f 72 0a bd
       -0.013596414 -0.013414886 -0.012350524 -0.03380048
0000c0 e9 8b ed bb 8f d4 67 bc 31 1f b3 bb a5 d8 e1 bb
       -0.0072493446 -0.014149799 -0.005466365 -0.006892281
0000d0 aa 2e 0f bd 0a e3 bc bc 3a e9 3a bc 56 95 f3 bc
       -0.03495661 -0.02305748 -0.011408145 -0.029734295
0000e0 50 27 c3 bc c3 97 b4 bb 6f 6d 4a bc bc 43 20 bc
       -0.023822457 -0.0055112555 -0.012355193 -0.009781774
0000f0 01 7c 84 bb 21 9f e1 bb 0d bc 81 bb 5d bb 55 bc
       -0.0040431027 -0.0068854247 -0.003959185 -0.013045159
000100 51 f0 fb bc 9b 9a 78 bb a5 ab fe bb f7 40 be bc
       -0.03075424 -0.003793395 -0.0077719265 -0.023224337
000110 0b 74 c0 bc 66 db 12 bc 8e ab 0a bc ff b2 4e bb
       -0.023492834 -0.0089634415 -0.008463753 -0.0031539795
000120 78 f0 63 bc eb 45 0c 3c e4 a3 28 bc 1b 4c 33 bc
       -0.013912313 0.008561592 -0.010292981 -0.010943438
000130 66 4c 90 bb d3 72 a9 bb 45 66 2c bc b0 c3 55 bb
       -0.0044036387 -0.005171159 -0.01052243 -0.003261786
000140 19 79 76 bc c2 5d 38 bc 12 e2 85 bc 65 3e 85 bc
       -0.01504352 -0.011252822 -0.01634315 -0.016265104
000150 cf 4e a8 bc a0 12 81 bb 75 6e 2b bc 2c 57 e9 bb
       -0.020545391 -0.003938988 -0.010463347 -0.0071209874
000160 37 88 bf bb 44 67 cd bb 58 41 84 bc b6 9d 62 3b
       -0.0058450955 -0.0062684137 -0.01614444 0.0034578866
000170 42 ac ff bb dd b5 8a bc 01 cf cc bb a0 4a 0a bd
       -0.007802517 -0.016932422 -0.0062502627 -0.033762574
000180 d0 aa 17 bd 8d 4a 89 bc 5c c4 df bb 85 39 4e bc
       -0.037028134 -0.016759181 -0.006828828 -0.012586956
000190 34 0d 45 bc d0 00 3c bc b8 cf c4 bc 1c 03 7f bc
       -0.012027074 -0.011474803 -0.02402483 -0.015564706
0001a0 39 b3 86 bb 0c 09 85 bb 73 5e 61 bc 4c 9f 0e bc
       -0.0041107205 -0.0040599164 -0.013755429 -0.0087049715
0001b0 7f 84 7f bc a6 ed 6a bb 6c 3c 93 bb aa f2 62 bc
       -0.015595554 -0.0035847216 -0.004493287 -0.013851801
0001c0 d8 93 f9 bb 9c 3e 8e 3b 32 fc 17 bc 64 21 a3 bc
       -0.0076165013 0.0043409597 -0.009276437 -0.019913383
0001d0 3b 88 99 bb 62 c1 75 bc 6f 56 15 bc 9d c7 55 bc
       -0.0046854294 -0.014999719 -0.009114846 -0.01304808
0001e0 41 b0 4e bc 73 80 92 bb 6c 39 72 bb 6f 71 a1 bc
       -0.012615264 -0.0044708787 -0.0036960496 -0.01970741
0001f0 31 15 fc ba f3 72 35 bc 02 42 94 bc 1e 42 42 bc
       -0.001923239 -0.011074769 -0.018097881 -0.011856584
000200 d0 64 3e bc 1c 17 be bb c7 c8 99 bc 34 8d a2 bb
       -0.011620715 -0.0058010947 -0.018772496 -0.0049606804
000210 01 80 af bc 38 4e 28 bc b8 d9 34 bc c1 26 a7 bc
       -0.021423342 -0.010272555 -0.011038236 -0.020404221
000220 57 85 e0 bc aa bd 89 bc 61 41 93 bb b5 7d 8d bc
       -0.027407331 -0.016814072 -0.0044938778 -0.017271856
000230 5e 93 5b 3a 80 2e 24 bc a1 59 a1 bc b2 61 39 bc
       0.00083761464 -0.010020852 -0.019696059 -0.011314796
000240 d7 f0 8e bc a1 65 ed bb df 52 c5 ba 16 e6 86 bb
       -0.017448826 -0.007244781 -0.0015054605 -0.004116784
000250 27 62 ac bb cf 79 71 bb 0e 65 11 bc 46 0a cf bc
       -0.005260724 -0.0036846285 -0.008874191 -0.025273453
000260 a0 66 8c bb 3f 39 1f bc 7e 0e e3 bb c6 d9 ba bb
       -0.004284695 -0.009718238 -0.006929218 -0.00570223
000270 9c 04 2f bc d1 52 77 bc 8c 80 64 bb ec ab 0c bb
       -0.010682251 -0.015095429 -0.003486666 -0.0021464778
000280 aa 80 34 bc 07 f8 80 bb b9 48 ee bc e0 6d df bb
       -0.011017004 -0.003935817 -0.029087411 -0.006818518
000290 53 3b 8a bc 48 d0 da ba 14 4b 41 bc f6 f1 de bb
       -0.016873991 -0.0016694153 -0.011797685 -0.0068037463
0002a0 3c d6 94 bc 5b 88 77 bc e8 34 98 bc ba 7a 20 bc
       -0.018168561 -0.015108193 -0.018579915 -0.009794885
0002b0 4b 90 59 bc 03 29 41 bc 87 23 50 bc d4 99 9f bb
       -0.013279031 -0.011789563 -0.012703783 -0.0048706327
0002c0 2e 95 8e bb 79 c2 20 bc ce 89 e6 bb 28 0a c6 bb
       -0.0043512797 -0.009811991 -0.0070354706 -0.006043691
0002d0 82 8a 25 bc 7c 23 52 bc ea d4 80 bb 27 c7 67 bb
       -0.010103824 -0.012825843 -0.0039316313 -0.0035366507
0002e0 ef 00 71 bc 53 37 d6 bb b8 68 c2 bb f7 60 05 bd
       -0.014709695 -0.006537357 -0.0059328936 -0.032563176
0002f0 3d f2 ff bb cf 5a 51 bc 6c 7a 55 bc e5 2d 24 bc
       -0.0078108595 -0.012777998 -0.013029676 -0.010020708
000300 ca 1a 05 bc 1a cb 02 bc c1 8e 02 3b 9a 37 d7 bb
       -0.008124063 -0.0079829935 0.0019921514 -0.0065679075
000310 bb f4 93 bc 47 87 9e bb d8 41 87 bc fe a1 62 bc
       -0.018061033 -0.0048379037 -0.016510889 -0.013832567
000320 a5 b2 c0 b9 03 c1 9c 3a 56 ff b2 bc cf 5f d2 3a
       -0.00036754194 0.0011959377 -0.02185027 0.0016050282
000330 23 d7 de bc e7 92 83 bb cb e0 24 bb 08 5b 7d bc
       -0.027202195 -0.004015315 -0.00251584 -0.015463598
000340 a0 b5 dc bb 9c 14 6b bc 1e fc f4 3a a3 50 40 bc
       -0.0067355186 -0.014348175 0.001869086 -0.011737975
000350 d0 50 bf bb 46 4b a3 bb 5c 7b 86 bc 39 18 c2 bc
       -0.005838491 -0.0049833385 -0.016416244 -0.02369319
000360 68 ad c9 bc dd 80 0e bc 8f 2d 88 bc 43 ee 82 bc
       -0.02461882 -0.008697716 -0.016623287 -0.015982753
000370 bf 0a a5 bb 99 76 8f bc d4 6a 80 bb e2 a1 8c bc
       -0.0050366814 -0.017512606 -0.003918985 -0.017167035
000380 d0 02 33 bc fa 23 7b bc 77 96 a5 bb 70 49 b7 bc
       -0.0109259635 -0.015328402 -0.005053337 -0.022373885
000390 b8 bd 0c bc af bd fe bc 2a 30 e3 bb 85 02 d8 bb
       -0.008590154 -0.031096308 -0.006933232 -0.006592097
0003a0 68 c9 a1 bc 44 b7 5b bc 2c c2 9b bb 67 24 ad bc
       -0.019749358 -0.013410393 -0.0047533717 -0.021135522
0003b0 bb f0 5b bc e7 73 b7 3b 21 04 42 bc 38 bf e6 bc
       -0.013424094 0.0055985334 -0.011841805 -0.028167352
0003c0 ec 99 00 bc 42 ce 4f bb f5 e0 46 bc a5 f6 3d 3c
       -0.007849198 -0.0031708633 -0.012138595 0.011594449
0003d0 1e 17 f0 bb 25 58 86 bc 8b 7c 3c bc c4 98 21 3c
       -0.0073269745 -0.016399452 -0.011504303 0.009863082
0003e0 53 19 b9 bc b3 37 d4 bb b0 42 a9 bc db d3 13 bd
       -0.022595083 -0.0064763664 -0.020661682 -0.036090713
0003f0 14 bb 0c 3b 28 6c 8c bc ee e1 32 3b 5a c6 03 bc
       0.0021473812 -0.017141417 0.002729531 -0.008042896

conv1.5.running_mean f4 [400]
000000 5c ec 1f be 6f eb b1 be 55 c5 af 3d a2 92 8f 3e
       -0.15617508 -0.34749934 0.0858256 0.2804156
000010 d9 57 02 be 52 c7 d1 3d 5a 02 9d be f0 5f 21 bd
       -0.12728824 0.102430955 -0.30665857 -0.039398134
000020 18 9c e7 bd 7a 16 97 be c5 86 c7 ba 33 b3 3f be
       -0.113090694 -0.29509336 -0.001522266 -0.18720703
000030 aa 8e 48 bc 51 4a 13 bd d0 6c 3b be c0 2d 16 be
       -0.012241045 -0.035959546 -0.18303227 -0.1466589
000040 09 57 50 3e ba ac 12 3e 6c 19 2d 3b c3 2d 77 bd
       0.20345701 0.14323702 0.0026412858 -0.060346376
000050 4d cb c5 3e bd 62 41 be 39 67 45 be 51 7e 2a 3e
       0.3863167 -0.18885322 -0.19277658 0.16649748
000060 e9 40 e7 bd a5 9c 9e bd cb 02 5b 3e 78 22 1e be
       -0.112916775 -0.07744721 0.21387784 -0.15442836
000070 f3 47 81 3d 21 2e 34 bf a0 c6 09 be da 12 e9 3e
       0.06312551 -0.7038289 -0.13454676 0.45522195
000080 46 99 03 3e 04 d7 7e 3e b3 91 8e 3e de 0f b4 3d
       0.12851438 0.2488671 0.27845535 0.08792089
000090 02 76 4c bd 4c 2f e8 be 62 0b 68 3e bf 47 eb bd
       -0.04991723 -0.45348585 0.22660592 -0.11488294
0000a0 86 1f 86 3c ce 54 bb be bf 48 b2 bd 1c 65 00 3e
       0.016372453 -0.36588138 -0.087052815 0.1253857
0000b0 57 7c fb 3d 4e f3 aa bd 6f bb 8e bd 2f 13 33 3e
       0.12279575 -0.08347188 -0.06969344 0.17487787
0000c0 04 75 6a 3e 8d f4 2b 3e 1c 2d 62 3e f2 e7 33 3e
       0.228962 0.16792507 0.2208752 0.17568949
0000d0 70 86 d3 be e5 96 06 be 13 09 ad 3d ef fe 82 bd
       -0.41313505 -0.13143499 0.084489964 -0.06396281
0000e0 10 de 86 3c c6 4a 08 3e c2 7f 8f 3e ef 88 d1 bd
       0.01646331 0.13309774 0.2802716 -0.10231196
0000f0 af c0 c3 bd 03 62 23 bd 65 43 f4 3a 8c 9c 38 bd
       -0.09558236 -0.039888393 0.0018635808 -0.04507117
000100 fc 00 59 3d fc e3 30 3e 61 92 cb bd 4a 0c f2 3d
       0.052979454 0.17274469 -0.09940029 0.1181875
000110 8e ec bb bd 31 93 af bd 3e 3f 47 be 8a a9 a2 bd
       -0.091759786 -0.085729964 -0.19457719 -0.07942493
000120 de 5f ea be 2e 39 03 3e 5d 71 d3 3d 2d 76 8d be
       -0.45776266 0.12814781 0.10324357 -0.27629223
000130 ac c0 88 3e 40 66 80 bd e3 bd 8b be 64 c9 7c bd
       0.26709497 -0.06269503 -0.2729331 -0.0617155
000140 c1 fc 09 be b0 82 9e be dc cc 38 bd 09 f0 70 3d
       -0.13475324 -0.30959082 -0.045117244 0.058822665
000150 09 6a 5b 3e 25 53 85 bb b9 17 12 3e 95 84 5b be
       0.21427168 -0.0040687495 0.14266862 -0.21437295
000160 31 f0 bc be 7c 8f 27 be 10 8a d3 3d 7e 42 c1 3d
       -0.36902002 -0.16363329 0.10329068 0.094365105
000170 43 4e 86 3e d6 7e 8d 3d 96 4a cd 3e fa 7b a7 be
       0.26231584 0.06908958 0.40095967 -0.32711774
000180 3b 0e 65 3d 7c 6a 47 bd 28 20 7f 3e 8c 06 2d bd
       0.055921774 -0.048685536 0.2491461 -0.04224257
000190 20 e8 64 be 26 40 e1 3e 48 5b fc 3d 74 f4 09 3e
       -0.22354174 0.43994254 0.12322098 0.13472158
0001a0 f3 92 04 be 58 7e 3b 3c 99 ce 1d be f5 db cf bd
       -0.12946682 0.011443697 -0.15410842 -0.10149375
0001b0 32 e2 06 3e a6 18 5f be ac 37 f2 bd 3c 73 01 be
       0.13172224 -0.21786746 -0.11827025 -0.12641615
0001c0 69 5f 10 bd d1 2e d8 3d 60 3f d9 bd d1 9a 27 be
       -0.03524724 0.105558045 -0.10607791 -0.16367652
0001d0 cb fa 44 3e 1d c0 78 3d 93 e9 c9 3d 4d 52 a8 b9
       0.19236295 0.06073009 0.09859004 -0.00032104776
0001e0 c3 cb 60 bd 3e 20 34 3d 84 74 e0 be 09 c1 37 3e
       -0.054881822 0.04397606 -0.43838894 0.17944731
0001f0 fe 1f 48 bd f3 5f c9 be 42 cc b6 be 32 c7 61 3d
       -0.048858635 -0.39331016 -0.3570271 0.055121608
000200 c2 d3 0c 3d 57 4b 13 3e 95 0b d2 be 18 b0 a2 be
       0.034381635 0.14384209 -0.4102446 -0.31774974
000210 13 03 cb bc d1 c8 8c 3d 98 79 94 3e a2 af 40 be
       -0.02478174 0.0687424 0.2899902 -0.18816999
000220 a9 18 25 3d e1 aa 1b bd 59 90 f9 bd 58 b5 b7 3d
       0.04030672 -0.03800476 -0.12185735 0.089701355
000230 f6 a3 89 3e 68 81 b0 be 78 7b 9b 3e 9d da 7a be
       0.26882905 -0.3447373 0.30367637 -0.24497457
000240 05 bc 97 3e 58 b1 51 3e 09 34 66 bd f8 d4 0a be
       0.29635635 0.20477808 -0.05620197 -0.13557804
000250 22 3c 9e bd 57 bc 26 be 00 ae 02 be b4 15 83 be
       -0.07726313 -0.16282783 -0.12761688 -0.25602496
000260 ac 6c ab be d0 08 d7 bb 60 26 40 be 72 00 b2 3c
       -0.33481348 -0.00656233 -0.18764639 0.021728728
000270 bd 79 b1 3d 30 6a 8f 3e 80 04 20 bd 9a 22 b5 3e
       0.08665798 0.28010702 -0.03906679 0.3537796
000280 e5 7d 1a be 3e 3c cd 3d f1 43 d3 3d 77 e9 4f 3d
       -0.15087087 0.10021256 0.10315693 0.05075976
000290 c2 af 0b be 46 f6 c9 bd 3f 31 1a 3e 90 2e d4 bc
       -0.13641265 -0.09861426 0.15057848 -0.025901109
0002a0 6b 41 56 3d 59 bb 1c be 2e cb 97 3e f1 39 9d 3c
       0.05230848 -0.15305842 0.296472 0.019192668
0002b0 85 29 b8 3e 64 4b d5 be 7a 80 ed bd 7d 0c af bd
       0.35969177 -0.4165908 -0.115967706 -0.08547304
0002c0 82 a9 bc 3e 42 79 95 3d 52 db a2 bd 3d 9d 0d 3e
       0.36848074 0.07298519 -0.07951988 0.13829513
0002d0 c5 e6 07 be 84 35 9f bd 89 aa 9e 3d 49 90 cf 3d
       -0.13271625 -0.07773879 0.07747371 0.10134942
0002e0 79 15 7f 3c e5 1d 25 bf 48 f8 ee 3e 22 4c b4 3e
       0.015569084 -0.6449874 0.466738 0.35214335
0002f0 9d 81 e2 bc 2c 71 9c be f0 76 26 bd ad 11 dc be
       -0.027649695 -0.30555093 -0.04064077 -0.42982236
000300 fe bf 29 3d 51 c7 ce 3e e5 0c 2c 3e ac 6c 17 be
       0.041442864 0.4038644 0.16801794 -0.14787549
000310 cd 68 96 3e 00 41 78 bc 42 2f 6d be b6 9d fb 3e
       0.29376832 -0.015152216 -0.23162559 0.4914376
000320 af 2e 91 3e 30 8c 8f 3e 10 1a 47 3e 8c f9 a1 bd
       0.2835593 0.28036642 0.19443536 -0.079089254
000330 cf 0c e7 bd b8 53 80 3c 84 ee 0f 3e fe c3 49 3e
       -0.1128174 0.01566492 0.1405583 0.19703671
000340 fd a0 b6 be b2 ed 2b 3e a6 c8 26 be 07 32 50 3e
       -0.356697 0.16789892 -0.16287479 0.20331584
000350 6f 3e a5 3d cd 8c bb bd 0e 35 71 3e 5e 6a 45 be
       0.08068549 -0.09157715 0.23555395 -0.19278857
000360 b4 02 b4 3e f3 4e b0 3e 79 c8 71 be 85 2a eb 3d
       0.35158312 0.34435233 -0.2361163 0.11482719
000370 09 2c 4b be 8e 6e 0d 3e ff 7b 49 be 3c 38 38 be
       -0.19841017 0.13811705 -0.19676207 -0.17990202
000380 c6 31 50 be 93 1e 20 be 34 3c ca 3d 12 75 c9 3d
       -0.20331487 -0.15636663 0.09874764 0.098367825
000390 49 60 60 3d bb b5 67 be 63 d7 d8 be 7f 9a a1 bd
       0.054779325 -0.22627918 -0.42351827 -0.07890796
0003a0 cb 00 cc 3d 7d 1c b1 bd 3b 60 e7 bd 0d 16 2f 3e
       0.09961089 -0.08648012 -0.112976514 0.17098255
0003b0 bb 27 47 3e 8f 51 fa bc 37 f2 23 be ac 93 bf 3d
       0.1944875 -0.030556468 -0.16010366 0.09354338
0003c0 72 01 8d 3d c6 c3 72 3e 85 46 3a be 0d f1 04 3e
       0.06885041 0.23707494 -0.18190964 0.12982579
0003d0 3c 31 3a 3d a0 29 33 be fb bf b6 3c 9b 2b f8 bc
       0.04545711 -0.17496347 0.02230834 -0.03029423
0003e0 8b 34 ba bd 5c a7 2c 3d 5e 0d bc 3d fa 24 c0 be
       -0.09092053 0.042151794 0.09182237 -0.3752821
0003f0 75 f6 df 3e 31 f8 81 bd 43 62 6a bd b1 c6 7f bc
       0.4374272 -0.06346167 -0.057222616 -0.015611337

conv1.5.running_var f4 [400]
000000 3f f7 15 3e a1 8b 43 3e e8 d2 0b 3e 87 19 eb 3d
       0.14645098 0.19096233 0.13654673 0.11479478
000010 5c d3 19 3e 19 db c3 3d c5 db 2d 3e 71 97 0f 3e
       0.15022033 0.09563274 0.16978367 0.14022614
000020 ee b7 30 3e d7 ab 5b 3e e6 2a 81 3e 2e a8 29 3e
       0.17257664 0.2145227 0.2522804 0.16568062
000030 27 1f f8 3d 6c 25 10 3e c4 1a 81 3e 4a 21 35 3e
       0.12115317 0.14076775 0.25215733 0.1768848
000040 88 2f 03 3e 94 8b ec 3d 76 a4 b1 3d d7 ac 44 3e
       0.128111 0.1155006 0.086739466 0.19206558
000050 21 fd 11 3e ec 17 05 3e 13 0c b8 3d d3 ba 2b 3e
       0.14256717 0.12997407 0.08986678 0.16770487
000060 f9 03 01 3e 74 98 9c 3d d0 c4 fa 3d a1 42 fc 3d
       0.12599172 0.076462656 0.1224457 0.12317396
000070 9b 74 0f 3e b5 bc 3f 3e 92 8b aa 3d 12 b1 e3 3d
       0.14009325 0.1872433 0.08327402 0.11117758
000080 75 88 15 3e 03 6d 0e 3e 95 37 ff 3d 1c 28 81 3e
       0.14602835 0.13908772 0.12461773 0.25225914
000090 8b 93 02 3e 71 43 33 3e a6 26 0c 3e 9b ff 19 3e
       0.12751596 0.17506196 0.13686618 0.15038912
0000a0 00 f6 0b 3e ab dd 6f 3e b9 95 fe 3d fb 09 f6 3d
       0.1366806 0.23424403 0.12430901 0.120136224
0000b0 80 59 0f 3e 3e 92 3b 3e 3f d9 ef 3d cd f4 3b 3e
       0.13998985 0.18317506 0.11711358 0.18355103
0000c0 52 9b 26 3e 00 8f ef 3d 71 51 04 3e ff 6d 02 3e
       0.16270187 0.11697197 0.12921692 0.12737273
0000d0 78 14 22 3e 04 c4 e1 3d ff 2e 1c 3e 1d 2b 0a 3e
       0.1582812 0.11023715 0.15252303 0.13493009
0000e0 aa 1a 80 3e b8 a5 09 3e 6b ad 60 3e 70 2e b4 3e
       0.25020343 0.13442123 0.21941154 0.3519168
0000f0 a8 8e cf 3d 3c 21 f9 3d 53 f7 09 3e ac 43 e5 3d
       0.101346314 0.12164542 0.13473253 0.11194548
000100 19 98 3b 3e ed a1 32 3e d7 cb b0 3d 5d 3e 44 3e
       0.1831974 0.17444582 0.08632629 0.19164415
000110 cb 44 1c 3e 30 91 27 3e 0e c9 4b 3e 37 df 0c 3e
       0.15260617 0.16363978 0.19900915 0.13757025
000120 3d 87 44 3e 75 1e 2f 3e 18 13 75 3e 6e 77 1c 3e
       0.19192214 0.17101462 0.23933065 0.15279934
000130 b2 e5 14 3e d7 d5 25 3e 4b dd 23 3e f6 fc 02 3e
       0.14540747 0.16194855 0.16002385 0.1279181
000140 1c 08 0d 3e 8d cb a8 3d a3 83 b3 3d 1f e2 21 3e
       0.13772625 0.08241949 0.08765342 0.15808915
000150 22 3c 8a 3e 7a 73 12 3e 28 a4 1a 3e d2 25 86 3e
       0.26999003 0.14301863 0.15101683 0.2620073
000160 86 df ef 3d 17 19 32 3e 3e d3 ef 3d 4d 6c 11 3e
       0.117125556 0.17392384 0.11710213 0.1420147
000170 80 e6 99 3e 87 99 32 3e 8d 34 17 3e 28 ae 21 3e
       0.3005867 0.17441379 0.1476614 0.15789092
000180 b5 02 8b 3e 78 51 75 3e 62 25 7b 3e 2f 66 18 3e
       0.27150503 0.23956859 0.24525979 0.1488273
000190 c5 1b 2e 3e 82 04 26 3e d3 21 99 3e bb 22 06 3e
       0.1700278 0.16212657 0.29908618 0.13099186
0001a0 68 21 4e 3e ce 64 b5 3d c3 62 4b 3e 2f f6 38 3e
       0.20129931 0.088571176 0.19861893 0.18062662
0001b0 c2 a7 d4 3d 60 74 02 3e bc f2 22 3e 62 3e 23 3e
       0.1038356 0.12739706 0.15912908 0.15941766
0001c0 08 65 cb 3d 4c 1b ea 3d 40 21 21 3e dc 1c 50 3e
       0.099313796 0.11430988 0.1573534 0.20323509
0001d0 2e 74 eb 3d 67 bf fe 3d f5 7d 21 3e 6f d0 1c 3e
       0.11496769 0.12438851 0.15770705 0.15313886
0001e0 e6 b0 18 3e a6 99 1f 3e eb fb 48 3e 16 37 5a 3e
       0.14911231 0.15585956 0.19627349 0.21310076
0001f0 9c 5f dc 3d 31 5e 44 3e a0 84 0e 3e 1e 50 60 3e
       0.107604235 0.19176556 0.1391778 0.21905562
000200 12 f6 26 3e 35 32 24 3e d7 40 41 3e 57 53 3a 3e
       0.16304806 0.16034777 0.1887239 0.18195854
000210 96 de 07 3e 6c f6 08 3e 93 63 5d 3e 1b b8 72 3e
       0.13268504 0.13375252 0.21620016 0.23703043
000220 5f af 14 3e 9e ef 71 3e b8 06 6e 3e 1a 2b 55 3e
       0.14520024 0.23626563 0.2324475 0.20817223
000230 56 26 3a 3e a7 71 a4 3e b7 28 80 3e db 6b f1 3d
       0.18178686 0.3211796 0.25031063 0.1178815
000240 e7 f0 01 3e 45 90 72 3e a0 9e d3 3d 8b 48 02 3e
       0.12689553 0.23687847 0.1033299 0.12722985
000250 ec fa 13 3e 08 78 01 3e 6c 64 30 3e 76 77 56 3e
       0.14451188 0.12643445 0.17225808 0.20944008
000260 f3 5c 4a 3e 68 9f 1d 3e 38 bb 4c 3e fc bf e4 3d
       0.1976202 0.1539284 0.19993293 0.111694306
000270 18 9f 06 3e e6 20 04 3e 58 83 f2 3d 4a 2d 40 3e
       0.13146627 0.12903175 0.11841458 0.18767276
000280 99 66 6b 3e e1 69 fe 3d 6d 63 a0 3e dc 3a 06 3e
       0.22988357 0.124225385 0.31325856 0.1310839
000290 fa 4c 3f 3e fa b1 fe 3d c2 e9 13 3e 55 42 c6 3e
       0.18681708 0.1243629 0.1444464 0.38722482
0002a0 be 36 e7 3d 03 26 0b 3e 9c 93 06 3e 48 b9 d0 3d
       0.11289738 0.13588719 0.13142246 0.101915896
0002b0 62 b7 6a 3e dd ce 6a 3e c1 a3 ad 3d d3 c2 1f 3e
       0.22921517 0.22930475 0.08478499 0.15601663
0002c0 e5 41 9d 3e 83 94 09 3e 8e 8c 3a 3e 52 34 18 3e
       0.30714336 0.13435559 0.1821768 0.14863709
0002d0 fd 91 06 3e 0c 3e 49 3e bc c8 f1 3d 80 2b 1d 3e
       0.13141628 0.19652575 0.11805865 0.15348625
0002e0 05 11 24 3e 8f 29 2d 3e 49 31 30 3e 67 f0 4b 3e
       0.16022117 0.16910385 0.17206301 0.19915925
0002f0 f1 28 5f 3e 24 33 d3 3d d5 ca 3f 3e ee 07 0c 3e
       0.21792962 0.10312489 0.18729718 0.136749
000300 c9 aa f6 3d 28 d1 bb 3e 72 43 76 3e d8 a6 26 3e
       0.120442934 0.3668301 0.24049166 0.16274583
000310 dd da 6e 3e 85 1f e9 3d e6 6a 94 3e 87 27 1b 3e
       0.23325677 0.11382965 0.28987807 0.15151797
000320 bf 21 10 3e 01 c7 81 3e ea 97 fa 3d 60 6a e5 3d
       0.14075373 0.2534714 0.122360066 0.1120193
000330 7e e3 1d 3e 5e ac fe 3d 79 60 54 3e da f6 1c 3e
       0.15418813 0.1243522 0.20739926 0.15328541
000340 43 75 28 3e 41 10 c5 3e 6d 0a 35 3e ed ad 31 3e
       0.16450982 0.38488963 0.17679758 0.17351504
000350 bd 4b 02 3e 0e 4b 25 3e 2e 59 30 3e 69 cc 27 3e
       0.12724204 0.16141912 0.1722152 0.1638657
000360 f1 b0 4f 3e fd 20 46 3e 03 07 b9 3d 14 80 02 3e
       0.20282342 0.19348522 0.090345405 0.1274417
000370 ea 02 03 3e ef bf 11 3e 06 83 33 3e 40 9b 1e 3e
       0.1279408 0.14233373 0.1753045 0.1548891
000380 a3 c9 cf 3d 40 f4 f2 3d 59 39 19 3e 14 25 d1 3d
       0.10145881 0.11862993 0.14963283 0.1021215
000390 79 60 cd 3d 60 17 36 3e a6 53 37 3e 17 25 46 3e
       0.10028166 0.17782354 0.17903003 0.19350086
0003a0 cc 8f b4 3e 83 0a 49 3e e4 37 5c 3e 1c 26 5b 3e
       0.35265958 0.19632916 0.21505696 0.21401256
0003b0 12 53 a8 3e 80 98 13 3e b4 6c 11 3e f0 6a 73 3e
       0.32875878 0.14413643 0.14201623 0.23771262
0003c0 95 b4 b7 3d ea c1 42 3e 49 40 8d 3e ce 88 2a 3e
       0.0896999 0.19019285 0.27588108 0.1665375
0003d0 84 db 28 3e 1d 9b a3 3d f0 1a 2e 3e e1 f4 45 3e
       0.16489989 0.0798857 0.17002463 0.19331695
0003e0 7d 40 13 3e f1 31 27 3e d4 9e e8 3d 76 8d 41 3e
       0.14380069 0.16327645 0.11358419 0.1890162
0003f0 e3 9c 29 3e 51 77 20 3e 15 11 50 3e 70 84 8a 3d
       0.16563754 0.15670516 0.20319016 0.06763542

conv2.0.weight f4 [10, 1, 6]
000000 b5 c2 a7 bc 91 5e 1a 3e fe ce 28 3e c8 3e be be
       -0.020478586 0.15075137 0.16485211 -0.37157273
000010 fe ca be bd cd 18 b4 bb dd 1a 94 bd b6 7e d2 3c
       -0.093160614 -0.0054961205 -0.07231686 0.025695186
000020 b0 68 e5 3d 77 44 18 3e b2 35 e2 be 01 af dc 3d
       0.11201608 0.14869867 -0.4418159 0.10775567
000030 20 41 da be e6 ca c7 3e 64 6a 22 be 95 ae 1b be
       -0.4262781 0.39021987 -0.15860897 -0.15203317
000040 ec d1 09 bd 87 a0 95 3e 09 d7 35 be f3 22 af be
       -0.033647463 0.29224035 -0.1775781 -0.34206352
000050 8e 63 86 3e 53 4f b9 3e bb 26 aa 3e 7c 6c bc be
       0.2624783 0.36193332 0.33232674 -0.36801517
000060 7c 3e d0 be 98 57 4c be eb a5 b5 3d c5 ac 8c bd
       -0.40672672 -0.1995529 0.08869537 -0.06868891
000070 ee 17 0a bc b4 78 06 be 5e c1 6b 3e 57 85 70 3e
       -0.008428557 -0.13131982 0.23022982 0.23488365
000080 f2 77 3b 3e 28 84 d7 bd 4a d7 93 3e fa 3f d2 be
       0.18307474 -0.10523254 0.2887519 -0.41064435
000090 95 34 c3 be d5 d8 7d be ad 72 a6 3e 76 35 7a 3c
       -0.38126054 -0.24789746 0.32509366 0.015271535
0000a0 66 84 0c be ef e2 d6 be 37 87 ea be e8 3c 66 3e
       -0.13722381 -0.41970012 -0.45806286 0.22484171
0000b0 27 0b b4 3e 21 44 dd bc 97 c4 2b be 5e 77 fb 3b
       0.3516476 -0.027010025 -0.16774212 0.007674142
0000c0 fe b4 6d 3e 00 ae 80 3e de a0 92 3e 29 2e 8f 3e
       0.23213574 0.2513275 0.28638357 0.27964905
0000d0 54 16 d2 be 9e 19 b6 be 43 ad c5 3c a6 e0 a6 3e
       -0.4103266 -0.3556642 0.02413047 0.32593268
0000e0 b1 d3 1b be 5a a9 d5 3e fc 1e 48 bd ed a9 b0 3b
       -0.15217473 0.41730767 -0.048857674 0.0053913505

conv2.0.bias f4 [10]
000000 4e 0a 57 3e 3a c7 1e be 36 52 bc 3e b8 60 aa 3d
       0.21000025 -0.15505686 0.36781472 0.08319229
000010 44 8a d2 3e 6c 50 5f be 56 57 75 be cd 1e be be
       0.41121113 -0.21808022 -0.23959097 -0.37132874
000020 85 2a d1 bd 57 73 29 3c
       -0.10213188 0.010342441

conv2.1.weight f4 [10]
000000 fe 77 8c 3f 61 3d 8e 3f c9 1d 8e 3f 09 fc 82 3f
       1.0974119 1.1112481 1.110284 1.0233165
000010 7e ed 8f 3f be ee 8a 3f ff 75 92 3f 99 41 88 3f
       1.1244352 1.0854108 1.144226 1.0645019
000020 7b 70 83 3f 22 ef 81 3f
       1.0268701 1.0151103

conv2.1.bias f4 [10]
000000 11 a3 3e 3d 50 af 43 3d 4c 3f e0 3c a4 83 95 bb
       0.04654223 0.047774613 0.027373932 -0.004562812
000010 af 06 89 3d 3c 64 12 3d 64 e4 7e 3d dc 2f 8c 3c
       0.06690728 0.035740122 0.06222953 0.017112665
000020 a7 4d 17 3c af 38 9b bc
       0.009234822 -0.018947927

conv2.1.running_mean f4 [10]
000000 51 39 96 bb 50 56 af be ef e3 64 3e 04 72 03 3e
       -0.0045844694 -0.3424554 0.22352575 0.12836462
000010 a5 91 b0 be ce 94 12 3e c7 a4 90 bf 41 16 d0 be
       -0.34486118 0.14314577 -1.1300286 -0.40641978
000020 b8 56 11 3e a3 c0 13 3f
       0.14193237 0.57715815

conv2.1.running_var f4 [10]
000000 99 54 4b 3e 75 aa 3a 3e b8 d1 a0 3e 82 e0 08 3f
       0.1985649 0.18229087 0.31410003 0.5346757
000010 a8 34 0c 3f f9 64 b5 3e d1 de 7a 3f cd e2 a6 3e
       0.5476785 0.354286 0.9799624 0.3259491
000020 ec cc ff 3e 90 8a d6 3e
       0.4996103 0.4190259
