model/k_separated_bigrams_pssm_k4_model.ckpt (torch, 635099 bytes, 40 tensors)

conv1.0.weight f4 [10, 1, 3]
0	0xbeed6a8d	-0.46370354
1	0x3e4a0391	0.19727923
2	0xbe80cbfc	-0.25155628
3	0xbe5d0da3	-0.21587233
4	0x3d8490a8	0.064729035
5	0x3db50527	0.08838873
6	0xbea3517b	-0.31898102
7	0xbe44022c	-0.19141454
8	0x3ef9658c	0.48710287
9	0xbe036571	-0.12831666
10	0xbf0f20a6	-0.5590919
11	0x3f109314	0.56474423
12	0x3ee672a9	0.45009354
13	0x3d5176b7	0.051138606
14	0xbdaef7f3	-0.08543386
15	0xbd559d72	-0.052152105
16	0xbef05ce4	-0.4694587
17	0x3dfb57f1	0.12272633
18	0x3dab95e2	0.08378197
19	0xbe6188eb	-0.22024886
20	0x3e8d22f9	0.27565745
21	0xbec686a0	-0.38774586
22	0x3e0e36fa	0.1388816
23	0xbea67bc1	-0.32516292
24	0x3eeaeeaa	0.4588521
25	0xbebf3e8d	-0.3735241
26	0xbe7aa13e	-0.24475572
27	0x3ce7429a	0.02823
28	0x3e67b948	0.22629273
29	0xbd42079e	-0.047370546

conv1.0.bias f4 [10]
0	0x3df9bd6e	0.12194334
1	0x3ea19a93	0.31563243
2	0x3e4fed0d	0.20305271
3	0xbeefb917	-0.468209
4	0x3c48abb8	0.012247972
5	0x3eea057f	0.45707318
6	0x3e8c442f	0.2739577
7	0x3e27db99	0.16392364
8	0xbee368d6	-0.4441592
9	0xbd911f08	-0.07085997

conv1.1.weight f4 [10]
0	0x3f831869	1.0241824
1	0x3f81b64e	1.013376
2	0x3f7e3123	0.99293727
3	0x3f80ae44	1.0053182
4	0x3f7d076e	0.9883946
5	0x3f8194d3	1.0123543
6	0x3f7f91ae	0.99831665
7	0x3f82c13a	1.0215218
8	0x3f812d14	1.0091882
9	0x3f7c59e9	0.9857469

conv1.1.bias f4 [10]
0	0x3c9a916d	0.018868173
1	0xbb11b0d9	-0.0022230654
2	0xbbbd8aba	-0.0057843598
3	0x3b96dabf	0.0046037133
4	0xbaa9babd	-0.0012949329
5	0x3d19fbb0	0.037593544
6	0x3bbfd951	0.0058547636
7	0x3c9ac68f	0.018893508
8	0x3d041f96	0.032256685
9	0x3b9f9346	0.0048698513

conv1.1.running_mean f4 [10]
0	0xbed28900	-0.41120148
1	0x3e881cea	0.2658456
2	0x3e349a79	0.17637052
3	0xbf10519d	-0.5637453
4	0x3ee8a50f	0.4543843
5	0xbdc0e799	-0.09419174
6	0x3ee2c0bc	0.4428767
7	0xbeeccfc3	-0.4625226
8	0xbf1d95a1	-0.6155644
9	0x3e0e0166	0.13867721

conv1.1.running_var f4 [10]
0	0x3ee8b7b3	0.4545265
1	0x3da23740	0.07920694
2	0x3ebf3618	0.37345958
3	0x3f060393	0.52349204
4	0x3ecf1c91	0.40451482
5	0x3ef08705	0.46978012
6	0x3e118214	0.14209777
7	0x3f07ec6c	0.53095126
8	0x3eca88bc	0.39557445
9	0x3df39813	0.1189424

conv1.4.weight f4 [400, 10, 3]
0	0x3df7dce1	0.12102676
1	0x3e1a8c0f	0.1509249
2	0xbe45570c	-0.19271487
3	0xbbb2d0d5	-0.0054570236
4	0xbcdf8d29	-0.02728899
5	0xbdfcab7a	-0.12337394
6	0xbc6dfb20	-0.014525205
7	0xbc5296f8	-0.012853377
8	0x3e11c3e4	0.14234883
9	0xbe4c24dd	-0.19935937
10	0xbde83324	-0.11337879
11	0xbd5d2009	-0.05398563
12	0xbdd9b83d	-0.10630844
13	0x3d46279e	0.048377626
14	0xbe3c9f19	-0.18420066
15	0xbe376640	-0.17910099
16	0x3da2e4e3	0.07953813
17	0xbe2cf6dd	-0.16891046
18	0xbe0f9443	-0.14021401
19	0x3df92fc1	0.121673115
20	0xbd1f54fe	-0.038899414
21	0x3e286346	0.1644412
22	0xbe115248	-0.14191544
23	0xbdd40862	-0.103531614
24	0x3d847b6f	0.064688556
25	0xbe290943	-0.1650744
26	0xbdb8af2f	-0.090177886
27	0x3baf2544	0.0053450186
28	0x3cc585cf	0.024111656
29	0xbdd938fc	-0.10606572
30	0x3d4d6d7e	0.050153248
31	0x3df83819	0.12120075
32	0xbdbf16fb	-0.09330555
33	0x3e294abc	0.16532415
34	0xbe2e351d	-0.17012449
35	0xbdac886a	-0.084244564
36	0x3d8b1ee7	0.067930035
37	0xbd866882	-0.06562902
38	0x3e0e7c6b	0.13914649
39	0x3de2b73f	0.11070108
40	0x3d99cd0f	0.07509815
41	0xbccce6ba	-0.025012363
42	0xbbeb9d0d	-0.007190353
43	0x3dd295a5	0.10282449
44	0x3d504e0e	0.05085569
45	0xbdf075d9	-0.11741228
46	0xbd9d58b7	-0.07682937
47	0xbd39e422	-0.04538358
48	0xbdb0edeb	-0.08639129
49	0x3dc18aaa	0.09450276
50	0x3dc96492	0.098336354
51	0x3dce5cc8	0.1007629
52	0x3e1bc2a4	0.15210968
53	0x3d90801b	0.07055684
54	0xbe2f117f	-0.17096518
55	0x3db6e44b	0.08930262
56	0x3e11667b	0.1419925
57	0xbd86d565	-0.065836705
58	0xbdc91c23	-0.0981982
59	0xbdc3f118	-0.09567469
60	0xbe10250f	-0.14076637
61	0x3dcd993a	0.10038991
62	0x3d0d0418	0.034427732
63	0xbdf58aaa	-0.11989339
64	0x3dce4dcd	0.10073433
65	0x3d3381b8	0.04382488
66	0xbe0f0fcc	-0.1397087
67	0xbd608228	-0.054811627
68	0xbd01db16	-0.031703077
69	0xbe0a24e0	-0.13490629
70	0xbe263cee	-0.1623418
71	0x3c40e7c7	0.01177401
72	0xbe020a57	-0.12699257
73	0x3e1222a6	0.1427103
74	0x3df6b3c7	0.120460086
75	0x3dfa7f01	0.12231255
76	0xbd328870	-0.04358715
77	0xbdde6d19	-0.108606525
78	0xbe1a46bb	-0.15066044
79	0x3d760d71	0.060071412
80	0x3e20a805	0.15689094
81	0x3daa44a1	0.08313871
82	0x3e241698	0.16024244
83	0xbd82de16	-0.06390016
84	0xbdc56cca	-0.096398905
85	0xbdfce52e	-0.123484
86	0xbd62f9ec	-0.055414125
87	0xbdbf1c39	-0.09331555
88	0xbc36b05f	-0.011150449
89	0xbe03b446	-0.12861738
90	0x3cf2718f	0.029595165
91	0xbd972105	-0.07379345
92	0xbdaec862	-0.08534314
93	0xbe278581	-0.16359521
94	0x3e3af27d	0.18256564
95	0x3dfecb8c	0.12441167
96	0xbe3415f8	-0.17586505
97	0xbd8407ba	-0.06446786
98	0xbcbc9915	-0.023022214
99	0x3dd6a722	0.10481097
100	0xbd81006e	-0.0629891
101	0x3d831d35	0.06402055
102	0xbdd5d4d4	-0.10440984
103	0xbe3abc32	-0.18235853
104	0x3deceab1	0.11568201
105	0x3ae030c9	0.0017104383
106	0x3dbc4b53	0.091940545
107	0x3e2de61c	0.16982311
108	0x3e1bd3ce	0.15217516
109	0xbd04ebd4	-0.032451466
110	0x3dc43cfa	0.09581943
111	0xbd7e5a2e	-0.06209772
112	0xbe00d129	-0.12579788
113	0x3d156d6c	0.036481306
114	0xba17bf14	-0.0005788666
115	0xbe0643e6	-0.13111839
116	0x3dce7c26	0.10082273
117	0xbdfeb49d	-0.12436793
118	0x3dc70d04	0.097192794
119	0xb9987a78	-0.00029082946
120	0x3c23d5aa	0.009999672
121	0xbbfe49d6	-0.007760267
122	0xbdc80752	-0.09767021
123	0xbb47f235	-0.0030509357
124	0x3de2f5b7	0.11082023
125	0x3db6f1fb	0.08932873
126	0x3e200e5d	0.15630479
127	0x3ccaa57b	0.02473711
128	0xbe4230f8	-0.18963993
129	0x3c4fa4dd	0.012673584
130	0x3c9b465a	0.018954445
131	0x3d848e2f	0.06472432
132	0xbdc268dd	-0.09492657
133	0x3c1fd0f9	0.009754413
134	0x3d82ffca	0.06396444
135	0x3d189786	0.03725388
136	0xbd1ea5ba	-0.038732268
137	0xbe2d3bb8	-0.16917312
138	0x3dd23afd	0.10265157
139	0x3e14ca28	0.14530241
140	0xbe329edd	-0.17443414
141	0x3e0ae9be	0.13565728
142	0x3cc96d70	0.024588317
143	0xbd25c01f	-0.040466424
144	0xbe2bf3ed	-0.16792269
145	0x3d9ce785	0.07661346
146	0xbd902b7d	-0.07039545
147	0x3d4c1779	0.049827073
148	0xbd8fc0c0	-0.07019186
149	0xbe13e514	-0.14442855
150	0xbdee8742	-0.11646892
151	0xbdec0783	-0.1152487
152	0xba2e2fa4	-0.0006644672
153	0xbda769f0	-0.08174503
154	0x3d8693dc	0.06571171
155	0xbe0520dd	-0.13000818
156	0xbe0b1769	-0.13583149
157	0xbcb1ba48	-0.021695271
158	0xbcaa7066	-0.020805549
159	0xbdda1982	-0.106493965
160	0x3e27e3b6	0.16395459
161	0x3ca8747f	0.020563362
162	0x3cd4d295	0.02597932
163	0x3ce19257	0.0275356
164	0x3d94aace	0.07259141
165	0x3e162fd6	0.14666685
166	0x3e3da136	0.18518528
167	0x3db8a394	0.09015575
168	0xbe2c604f	-0.16833614
169	0x3e22ab6a	0.15885702
170	0x3e1fab47	0.15592681
171	0xbe0b93a5	-0.1363054
172	0x3c84c4ad	0.016207064
173	0x3d3b407a	0.045715787
174	0xbd952144	-0.072817355
175	0x3d0c78cc	0.03429489
176	0xbe3705bc	-0.17873281
177	0x3d2a14bd	0.041523684
178	0xbe2c8c8d	-0.16850491
179	0x3e0ac7a4	0.1355272
180	0x3c932930	0.017963976
181	0xbd6cf8df	-0.05785453
182	0xbdb33575	-0.087504305
183	0xbd0a55c2	-0.03377319
184	0x3c259dd7	0.010108433
185	0xbc7478ad	-0.0149213495
186	0xbd89b5e3	-0.06724145
187	0xbd8c9632	-0.06864585
188	0xbe1a3ed7	-0.15063034
189	0xbd6c0aa0	-0.05762732
190	0xbe2c6e44	-0.16838938
191	0x3c917b5c	0.017759018
192	0x3cee8919	0.029118108
193	0x3ccb9843	0.024852877
194	0x3cbce3ce	0.023057844
195	0xbe48f79e	-0.19625708
196	0xbd911766	-0.07084541
197	0x3da2597b	0.07927223
198	0xbdfe128b	-0.124058805
199	0xbd591f3c	-0.053008303
200	0xbde5d0cc	-0.112214655
201	0xbd5a3804	-0.053276077
202	0x3e1a50e8	0.15069926
203	0x3b5393f4	0.0032284232
204	0x3aeefa23	0.0018232506
205	0xbdb662c2	-0.08905555
206	0xbdcfda5e	-0.10149072
207	0xbe0f63a3	-0.14002852
208	0x3e0b23c7	0.13587867
209	0xbdbd71f1	-0.09250248
210	0x3e0a746f	0.13520978
211	0xbd921200	-0.071323395
212	0xbdf96fa0	-0.12179494
213	0xbe317815	-0.17330964
214	0xbbc2ecd0	-0.0059486404
215	0xbdd10ede	-0.10207914
216	0xbe0ed9ca	-0.13950267
217	0xbda39897	-0.079880886
218	0xbd22fd54	-0.039792374
219	0xbc274f5a	-0.01021179
220	0xbc6ef32a	-0.014584342
221	0x3b02fd01	0.0019987228
222	0x3e0535e0	0.13008833
223	0xbdf62d22	-0.12020327
224	0x3ddaf602	0.106914535
225	0x3d53cda6	0.051709794
226	0x3e10b478	0.14131343
227	0x3e1a190e	0.1504862
228	0x3e3119d9	0.17295016
229	0xbe23a3ef	-0.15980504
230	0xbd136aad	-0.035990406
231	0x3e328ec5	0.17437275
232	0x3c810c04	0.0157528
233	0x3de6da73	0.11272135
234	0xbe1205d6	-0.14260039
235	0xbc9b1b83	-0.018934017
236	0xbe2053ef	-0.15657018
237	0x3e09dfc7	0.1346427
238	0x3deb846f	0.11499869
239	0x3e12f7ce	0.14352342
240	0xbc62b5d7	-0.013837299
241	0x3e24d43b	0.16096584
242	0xbe3df6ba	-0.1855115
243	0xbd2afa5b	-0.041742664
244	0xbd68e2c7	-0.056856897
245	0x3d377b11	0.0447951
246	0x3e0dfa73	0.1386507
247	0x3e42f8c4	0.19040209
248	0x3d7f015f	0.062257167
249	0x3e3ec5d0	0.18630147
250	0xbe159773	-0.14608555
251	0x3d88fb28	0.06688529
252	0x3d77b493	0.060474943
253	0xbe2c9675	-0.1685427
254	0xbe124866	-0.1428543
255	0x3b9fe495	0.004879544

conv1.4.bias f4 [400]
0	0xbe0f65f1	-0.14003731
1	0x3e0771f6	0.13227066
2	0xbdaf6a72	-0.08565225
3	0x3df92ee8	0.1216715
4	0x3dc1b42f	0.094581954
5	0x3d826dd6	0.06368606
6	0xbddf3342	-0.108984485
7	0xbce63c92	-0.028105054
8	0x3e1c0cfd	0.1523933
9	0x3e3f7d3b	0.18700115
10	0xbd62a4af	-0.055332836
11	0xbe36b808	-0.1784364
12	0x3e11a55f	0.1422324
13	0xbd89ca3f	-0.067280285
14	0xbcdad30e	-0.026711967
15	0x3da67efe	0.081296906
16	0x3d058919	0.03260145
17	0x3dfb8227	0.12280684
18	0x3dd5e0ba	0.10443254
19	0x3c6697df	0.014074295
20	0xbe57a7c6	-0.21060094
21	0x3e2461e0	0.16052961
22	0x3d7cbcce	0.061703496
23	0xbb7c26c4	-0.0038475255
24	0xbdc3ed67	-0.09566765
25	0xbcbcd351	-0.023049982
26	0x3db87492	0.09006609
27	0xbe4e8491	-0.20167758
28	0x3d2134b5	0.039356906
29	0x3e11d8b1	0.14242817
30	0xbdf97071	-0.121796496
31	0x3d93cd31	0.072168715
32	0x3d0d891c	0.034554586
33	0xbd4b0e0d	-0.049573947
34	0x3e0efeb7	0.13964354
35	0x3e079c36	0.13243183
36	0xba5dc91d	-0.0008460449
37	0x3e288f1c	0.16460842
38	0xbe288c9f	-0.16459893
39	0xbe38b49b	-0.18037646
40	0xbd98b43f	-0.07456254
41	0xbd5de003	-0.054168712
42	0xbd08e947	-0.033425596
43	0xbc96d835	-0.018413642
44	0x3e08e3c7	0.1336814
45	0xbe04ac26	-0.12956294
46	0x3e25d77b	0.1619548
47	0xbde0b055	-0.10971133
48	0x3e2f8580	0.1714077
49	0xbdefe91b	-0.11714383
50	0x3e2525fe	0.16127774
51	0xbd9bff28	-0.076170266
52	0x3df2c0c6	0.11853175
53	0x3d91db19	0.07121868
54	0x3e26278c	0.16226023
55	0xbe10e71e	-0.14150664
56	0x3dc7941d	0.09745047
57	0xbdaffbd7	-0.085929565
58	0x3e2eae08	0.17058575
59	0x3dcad690	0.09904206
60	0xbe17982c	-0.14804143
61	0xbdae645f	-0.08515238
62	0xbd2c4e22	-0.0420667
63	0xbdf6ed92	-0.12057032
64	0x3d75b683	0.05998851
65	0xbe1e9851	-0.15487792
66	0x3e1bc1d6	0.15210661
67	0x3cd52821	0.026020112
68	0xbd17bcfc	-0.037045464
69	0xbde0a969	-0.109698124
70	0xbcbdf6c3	-0.023188954
71	0xbd11b7d8	-0.035575718
72	0x3e337ebb	0.17528813
73	0x3d2fe66a	0.04294435
74	0xbde2172d	-0.11039577
75	0x3e1b7df8	0.15184772
76	0x3d598f87	0.053115394
77	0xbdc34c0c	-0.09535989
78	0xbe1b4652	-0.15163544
79	0xbd158754	-0.036506012
80	0x3e3482e6	0.17628059
81	0xbd5a47ad	-0.05329101
82	0x3dddddf4	0.1083335
83	0x3dbc3621	0.09190012
84	0x3a7f784b	0.0009745403
85	0xbdd88f48	-0.10574204
86	0x3ddf3af8	0.10899919
87	0x3d0e0c34	0.034679607
88	0xbe18d575	-0.14925177
89	0xbe0338fe	-0.1281471
90	0x3df0fd4a	0.11767061
91	0xbd4726bc	-0.048620924
92	0xbd54f6d7	-0.051993217
93	0xbde81dc8	-0.11333805
94	0x3df574d7	0.11985176
95	0xbe2e2a6b	-0.17008369
96	0xbd4dd98b	-0.050256293
97	0xbdf482fe	-0.11939047
98	0x3de290ca	0.110627726
99	0xbe33f14e	-0.17572519
100	0xbdc1dff1	-0.094665416
101	0x3bd88f41	0.006608874
102	0xbdb8b517	-0.09018915
103	0x3e1f4f0e	0.155575
104	0xbddfda92	-0.10930361
105	0xbd3a4526	-0.0454761
106	0x3e0d3f60	0.13793707
107	0x3e03635a	0.12830868
108	0x3e329d58	0.17442834
109	0x3e2033f6	0.15644822
110	0x3d8579af	0.0651735
111	0x3d35bae2	0.04436768
112	0xbdf20ccc	-0.11818847
113	0x3d70cfce	0.058791928
114	0x3e0fdb04	0.14048392
115	0xbe28db46	-0.16489896
116	0x3df42c9b	0.1192257
117	0xbe1ee002	-0.1551514
118	0xbd3b0d39	-0.045666907
119	0xbdaaa382	-0.08331968
120	0xbd2b366e	-0.041799955
121	0x3dbc5e99	0.091977306
122	0xbe05e2c2	-0.13074782
123	0xbe2ec1b5	-0.17066081
124	0x3e16e5b9	0.1473607
125	0x3d440fbc	0.047866568
126	0xbe22320e	-0.15839407
127	0x3dfac446	0.122444674
128	0xbde2c7df	-0.11073279
129	0x3e059e43	0.13048653
130	0xbd85ba7c	-0.0652971
131	0x3e02eea5	0.12786348
132	0x3e33a10d	0.17541905
133	0x3d336f27	0.043807175
134	0x3df0d99a	0.11760254
135	0xbe0ed31c	-0.1394772
136	0x3d1eac69	0.038738642
137	0xbe07df43	-0.13268761
138	0xbe158205	-0.1460038
139	0xbdda1d2a	-0.10650094
140	0xbcafe32e	-0.021470632
141	0x3d34a048	0.04409817
142	0xbdb5e682	-0.088818565
143	0x3db46815	0.088089146
144	0xbdcb7be7	-0.09935742
145	0xbcfcd592	-0.030863557
146	0xbb026786	-0.001989813
147	0xbd843519	-0.0645544
148	0xbd82f45d	-0.06394265
149	0xbe2310ae	-0.15924332
150	0x3d001ee6	0.031279467
151	0xbd0c779c	-0.034293756
152	0xbdc40bcf	-0.09572565
153	0x3d3fe8cb	0.046852868
154	0x3e266bb6	0.16252026
155	0xbd6f54fb	-0.058430653
156	0xbe4c3820	-0.19943285
157	0xbd686807	-0.056739833
158	0xbd2da6e1	-0.042395476
159	0xbdb12927	-0.08650427
160	0xbe12e998	-0.14346921
161	0x3e27aacc	0.16373748
162	0x3d98ef5c	0.07467529
163	0xbd519ceb	-0.05117504
164	0x3e18a76f	0.14907621
165	0xbe39083d	-0.18069549
166	0x3d5edbdb	0.05440889
167	0x3def4201	0.11682511
168	0x3e173f60	0.1477027
169	0x3da21890	0.07914841
170	0xbe03c58b	-0.12868325
171	0xbd8f3633	-0.069927596
172	0x3d944217	0.07239168
173	0x3dc36f08	0.09542662
174	0x3ce38299	0.027772235
175	0xba8f9761	-0.0010955149
176	0x3db09d2f	0.086237304
177	0xbe1d8497	-0.1538261
178	0x3dc87d1c	0.09789488
179	0xbd4b10ec	-0.049576685
180	0x3e127560	0.14302588
181	0x3db7cb11	0.08974279
182	0xbe514381	-0.20435907
183	0xbd64e2c5	-0.055880327
184	0x3d1cbb6f	0.038264688
185	0x3d305519	0.043049905
186	0x3df9ed81	0.122035034
187	0xbdda6e66	-0.10665588
188	0xbdeb1de3	-0.1148031
189	0xbdf2a4b7	-0.11847823
190	0xbe1b09fa	-0.15140525
191	0xbdf25740	-0.11833048
192	0x3d311d8a	0.04324106
193	0xbe1acbae	-0.1511676
194	0xbda3ad67	-0.07992058
195	0xbe22278d	-0.158354
196	0xba822304	-0.0009928648
197	0xbe052c02	-0.13005069
198	0xbdff4a9a	-0.12465401
199	0x3c6fa132	0.014625834
200	0x3e062c3d	0.13102813
201	0x3e1181ff	0.14209746
202	0x3d977ddf	0.07397055
203	0xbd2b0864	-0.04175605
204	0xbbcd6e12	-0.006269225
205	0x3e2e3c5f	0.17015217
206	0xbd1d0de5	-0.03834333
207	0xbc8557ea	-0.016277272
208	0x3de2d6e4	0.110761434
209	0xbe033258	-0.12812173
210	0x3e0565c0	0.13027096
211	0x3cc5eaf4	0.024159886
212	0xbdeb414c	-0.11487064
213	0xbd6d44cc	-0.057926938
214	0x3d720dec	0.05909531
215	0x3d89d54b	0.067301355
216	0x3d5fb20d	0.05461316
217	0x3db38880	0.0876627
218	0xbd0861b6	-0.03329631
219	0xbcbcfcda	-0.023069788
220	0x3ca8bfd1	0.020599278
221	0x3e2e5971	0.17026307
222	0xbd6ac93a	-0.05732081
223	0x3e30cfb6	0.17266735
224	0xbe16bb31	-0.14719845
225	0xbdd77204	-0.10519794
226	0xbdf0df8a	-0.11761387
227	0x3dc3a973	0.09553804
228	0xbd9e83fb	-0.07740017
229	0xbdbb3f69	-0.09142954
230	0x3df17245	0.11789373
231	0x3cd4c624	0.025973387
232	0x3dd424e8	0.10358602
233	0x3d1986ce	0.037482075
234	0xbe4c5ca6	-0.19957218
235	0xbe15c6e5	-0.14626653
236	0x3bfeaba6	0.007771927
237	0xbd240937	-0.04004785
238	0x3d0f6994	0.035012797
239	0x3c49434b	0.01228411
240	0xbd28831b	-0.041140657
241	0xbca769f1	-0.020436259
242	0x3d62bcf6	0.05535599
243	0x3caabdec	0.020842515
244	0xbd86cda4	-0.065821916
245	0x3d53cc24	0.051708356
246	0xbba77ef6	-0.0051115705
247	0x3e3a9ede	0.18224666
248	0x3e2e413a	0.1701707
249	0xbd55bf98	-0.05218467
250	0x3e202cb7	0.15642057
251	0x3d555a32	0.05208797
252	0xbdd6da6a	-0.10490878
253	0x3e0a73b3	0.13520698
254	0x3e1194af	0.14216875
255	0x3e27d229	0.16388763

conv1.5.weight f4 [400]
0	0x3f80f72d	1.0075432
1	0x3f7dc805	0.9913333
2	0x3f806f44	1.0033956
3	0x3f7d6720	0.9898548
4	0x3f7cee05	0.9880069
5	0x3f7f5d0d	0.9975136
6	0x3f7e9313	0.9944317
7	0x3f7f1cf0	0.9965353
8	0x3f7d8c0d	0.99041826
9	0x3f7e7373	0.9939491
10	0x3f7e07f3	0.9923088
11	0x3f7dad16	0.99092233
12	0x3f7ed30d	0.9954079
13	0x3f7f3a31	0.9969817
14	0x3f7edf28	0.9955926
15	0x3f7de3a2	0.99175465
16	0x3f7d5d8a	0.98970854
17	0x3f7fab68	0.9987092
18	0x3f7e03c4	0.99224496
19	0x3f7e56b7	0.99351066
20	0x3f7ce8d6	0.9879278
21	0x3f7ce941	0.9879342
22	0x3f7c6c61	0.98602873
23	0x3f7e81fa	0.9941708
24	0x3f7ecb6d	0.99529153
25	0x3f809d69	1.0048038
26	0x3f7ca63f	0.9869117
27	0x3f7e76ee	0.9940022
28	0x3f7d9103	0.99049395
29	0x3f7c5512	0.98567307
30	0x3f7dcc7a	0.9914013
31	0x3f7d5720	0.9896107
32	0x3f7de8b3	0.99183196
33	0x3f7fd475	0.9993356
34	0x3f80fefa	1.0077813
35	0x3f7e17ac	0.9925487
36	0x3f7da19b	0.99074715
37	0x3f80221b	1.0010408
38	0x3f7f145b	0.99640435
39	0x3f7d7e6a	0.9902102
40	0x3f7d6d0a	0.98994505
41	0x3f7d5e69	0.98972183
42	0x3f7ff6e3	0.99986094
43	0x3f7d734c	0.99004054
44	0x3f8059f6	1.0027454
45	0x3f7e9032	0.99438775
46	0x3f81102b	1.0083059
47	0x3f80019e	1.0000494
48	0x3f7f3292	0.9968654
49	0x3f7c05ad	0.9844616
50	0x3f7ef7ec	0.9959705
51	0x3f7ef315	0.99589664
52	0x3f7d95e0	0.99056816
53	0x3f804515	1.0021082
54	0x3f7e18c8	0.99256563
55	0x3f7d12bf	0.9885673
56	0x3f7f694d	0.9977005
57	0x3f7e2c61	0.99286467
58	0x3f7eb1b7	0.9948992
59	0x3f7d4e06	0.9894718
60	0x3f7fa248	0.99856997
61	0x3f7cde2e	0.9877652
62	0x3f7d0cb4	0.9884751
63	0x3f7e3ec1	0.99314505
64	0x3f80b362	1.0054743
65	0x3f7d8b1d	0.99040395
66	0x3f7f511d	0.99733144
67	0x3f7dee95	0.9919217
68	0x3f7e3f60	0.9931545
69	0x3f7a98ce	0.9788941
70	0x3f7d3354	0.98906446
71	0x3f812b2e	1.0091302
72	0x3f7d6b10	0.9899149
73	0x3f7d40c7	0.9892697
74	0x3f7e82aa	0.9941813
75	0x3f7e61bb	0.99367875
76	0x3f7e6b69	0.99382645
77	0x3f7e7c0c	0.9940803
78	0x3f7e7b7a	0.9940716
79	0x3f7d7c20	0.99017525
80	0x3f7fbded	0.9989918
81	0x3f7e6c69	0.9938417
82	0x3f7e38c2	0.99305356
83	0x3f7e1c7f	0.9926223
84	0x3f8005a8	1.0001726
85	0x3f7df3b8	0.9920001
86	0x3f7e42ba	0.99320567
87	0x3f7d8f22	0.9904653
88	0x3f7c3760	0.98521996
89	0x3f7f69a3	0.99770564
90	0x3f7dc503	0.9912874
91	0x3f7ce373	0.9878456
92	0x3f802b51	1.0013219
93	0x3f7e4d90	0.993371
94	0x3f7dee0c	0.99191356
95	0x3f7d490c	0.98939586
96	0x3f7e5120	0.99342537
97	0x3f7df2d4	0.9919865
98	0x3f7de8c5	0.99183303
99	0x3f7ed482	0.9954301
100	0x3f7e293e	0.9928168
101	0x3f7ed087	0.9953694
102	0x3f7ca833	0.9869415
103	0x3f7d5d1a	0.98970187
104	0x3f7f81aa	0.99807227
105	0x3f7cd9c6	0.98769796
106	0x3f7e6fa9	0.9938913
107	0x3f7d1431	0.98858935
108	0x3f7e14ad	0.992503
109	0x3f7e03cb	0.9922454
110	0x3f7edf5a	0.9955956
111	0x3f7d8af4	0.9904015
112	0x3f7e6077	0.99365944
113	0x3f7e2ee0	0.99290276
114	0x3f7e7c34	0.9940827
115	0x3f818933	1.0119995
116	0x3f7ed5a5	0.99544746
117	0x3f7db3b7	0.9910235
118	0x3f7ffcaf	0.9999494
119	0x3f7fc822	0.99914753
120	0x3f802753	1.0012001
121	0x3f7e8728	0.9942498
122	0x3f80cbb8	1.006217
123	0x3f7e7156	0.99391687
124	0x3f804c2e	1.0023248
125	0x3f806278	1.003005
126	0x3f80d09f	1.0063666
127	0x3f7c9aa8	0.98673487
128	0x3f7f1311	0.9963847
129	0x3f7f5d31	0.99751574
130	0x3f7d5938	0.9896426
131	0x3f801fcf	1.0009707
132	0x3f7d9b1c	0.99064803
133	0x3f7e347f	0.9929885
134	0x3f7e9612	0.9944774
135	0x3f7c8442	0.9863931
136	0x3f7fd15d	0.9992884
137	0x3f7cb132	0.9870788
138	0x3f7d4b75	0.98943263
139	0x3f7fb87d	0.9989088
140	0x3f7e8932	0.99428093
141	0x3f7d4ff7	0.9895014
142	0x3f7fb83b	0.9989049
143	0x3f8364d0	1.026514
144	0x3f7cb72a	0.98716986
145	0x3f7efc2e	0.99603546
146	0x3f7d1c5a	0.98871386
147	0x3f7fcdb6	0.99923265
148	0x3f7cfc4d	0.9882248
149	0x3f8004f2	1.0001509
150	0x3f7e884b	0.99426717
151	0x3f7f5a34	0.99747014
152	0x3f7eefc7	0.9958462
153	0x3f7c2d57	0.98506683
154	0x3f7ef5ed	0.99594
155	0x3f7d918b	0.99050206
156	0x3f7d6688	0.98984575
157	0x3f7eacb9	0.99482304
158	0x3f7ebcb0	0.99506664
159	0x3f7c849c	0.98639846
160	0x3f7dc97f	0.99135584
161	0x3f7d024d	0.98831636
162	0x3f7e287a	0.9928051
163	0x3f7dfd55	0.9921468
164	0x3f7ed113	0.9953777
165	0x3f801c11	1.0008565
166	0x3f7dd7b5	0.9915727
167	0x3f7f7edd	0.99802953
168	0x3f7f313f	0.9968452
169	0x3f7ec1a7	0.9951424
170	0x3f7ee4d6	0.99567926
171	0x3f7fa829	0.9986597
172	0x3f82123c	1.0161815
173	0x3f7fa0ce	0.99854743
174	0x3f7e05fb	0.99227875
175	0x3f7f173a	0.99644816
176	0x3f7f55c7	0.9974026
177	0x3f7de7a5	0.99181587
178	0x3f7c3c8e	0.985299
179	0x3f7e2a4b	0.99283284
180	0x3f7ffcdd	0.99995214
181	0x3f7e8f17	0.9943709
182	0x3f7e557c	0.9934919
183	0x3f7d0420	0.9883442
184	0x3f7f7b45	0.9979747
185	0x3f7d20e5	0.9887832
186	0x3f800978	1.000289
187	0x3f807dac	1.0038352
188	0x3f7e306e	0.9929265
189	0x3f7e2574	0.992759
190	0x3f82433d	1.017677
191	0x3f7dcb4a	0.9913832
192	0x3f7ee530	0.9956846
193	0x3f7d16cc	0.9886291
194	0x3f7e79a6	0.9940437
195	0x3f7e855b	0.99422234
196	0x3f7db607	0.99105877
197	0x3f7e5fe5	0.99365073
198	0x3f7d27b8	0.9888873
199	0x3f7fbfc0	0.9990196
200	0x3f802cc7	1.0013665
201	0x3f7c90b8	0.98658323
202	0x3f7e41b4	0.99319005
203	0x3f7f2e8e	0.9968041
204	0x3f7dffc3	0.99218386
205	0x3f809753	1.004618
206	0x3f7dec3e	0.991886
207	0x3f7d1aa6	0.9886879
208	0x3f7dede7	0.99191135
209	0x3f804722	1.0021708
210	0x3f80190b	1.0007643
211	0x3f7da794	0.9908383
212	0x3f7e982a	0.99450934
213	0x3f7de19d	0.99172384
214	0x3f7f3ad7	0.9969916
215	0x3f801a47	1.0008019
216	0x3f7fcaf4	0.99919057
217	0x3f7ff852	0.9998828
218	0x3f7ce5f3	0.98788375
219	0x3f7d5f84	0.9897387
220	0x3f7f7164	0.99782395
221	0x3f7d3854	0.98914075
222	0x3f7dacdc	0.9909189
223	0x3f7f9f2d	0.9985226
224	0x3f7b3292	0.9812404
225	0x3f7ec792	0.9952327
226	0x3f7e37da	0.9930397
227	0x3f814c02	1.0101321
228	0x3f7d6256	0.98978174
229	0x3f7d9872	0.9906074
230	0x3f7ff7cc	0.99987483
231	0x3f7d7a90	0.9901514
232	0x3f7cc15b	0.9873254
233	0x3f7c78ee	0.98622024
234	0x3f7f46fa	0.99717677
235	0x3f7ddffe	0.9916991
236	0x3f7eee00	0.9958191
237	0x3f7d7508	0.990067
238	0x3f7fec9d	0.9997042
239	0x3f803101	1.0014955
240	0x3f7fb74e	0.99889076
241	0x3f7d04ac	0.98835254
242	0x3f7e488b	0.9932944
243	0x3f808fb4	1.0043855
244	0x3f7f4a55	0.99722797
245	0x3f7d745b	0.9900567
246	0x3f7d3f17	0.9892439
247	0x3f7ee9fa	0.9957577
248	0x3f804321	1.0020486
249	0x3f7dc326	0.991259
250	0x3f7d91e4	0.99050736
251	0x3f7d0c4f	0.98846906
252	0x3f7f02cd	0.9961365
253	0x3f8004fb	1.000152
254	0x3f7d6a68	0.9899049
255	0x3f816604	1.0109258

conv1.5.bias f4 [400]
0	0x3b6ecf38	0.003643943
1	0xbbd447ba	-0.006478277
2	0xbb4a40b4	-0.003086132
3	0xbba5467d	-0.0050438032
4	0xbbc2b76f	-0.005942277
5	0xbb52c4ef	-0.0032160839
6	0xbc010f6d	-0.007877213
7	0xbc065ea3	-0.008201274
8	0xbbd0ca2d	-0.0063717575
9	0xbb66cd82	-0.0035217707
10	0x3b86c4d2	0.0041128183
11	0xbc25aafd	-0.010111568
12	0x3c02b62c	0.0079780035
13	0xbb88125c	-0.0041525792
14	0xbc22813b	-0.009918506
15	0xbb9fed20	-0.0048805624
16	0xbc42c544	-0.011887852
17	0x3bd6a7dd	0.0065507726
18	0xba781393	-0.0009463366
19	0x3b87048b	0.0041204146
20	0xbc871969	-0.016491609
21	0xbbb7aa2a	-0.005605002
22	0xbc71384d	-0.014722896
23	0xbabd6e86	-0.0014452494
24	0xbb12d413	-0.0022404238
25	0x3b15f0f9	0.0022879227
26	0xbc82a46c	-0.015947543
27	0xbc2b0c81	-0.010439993
28	0xbc7496c1	-0.014928521
29	0xbc6e7672	-0.014554607
30	0xbaff9adf	-0.0019501111
31	0xbc4f81f0	-0.012665257
32	0xbb51b1a3	-0.003199675
33	0xbb7132e9	-0.0036804026
34	0xbbb7ce5b	-0.0056093163
35	0xbc84ca81	-0.016209843
36	0xbb26293e	-0.0025354172
37	0x3b946522	0.0045286575
38	0x3ae46718	0.0017425744
39	0xbc7248c5	-0.014787857
40	0xbc035a4e	-0.008017136
41	0xbbd0cad8	-0.006371837
42	0xbb7228c6	-0.0036950572
43	0xbba817dc	-0.0051297974
44	0xbc220a37	-0.009890131
45	0xbb3cd485	-0.0028813195
46	0xbbf492fb	-0.0074638105
47	0x3b047806	0.002021314
48	0x3b500a4c	0.0031744419
49	0xbc94a19c	-0.018143468
50	0xbc0bbccf	-0.008528902
51	0xbc2882e3	-0.010285112
52	0xbc04bf81	-0.008102299
53	0xbb98d994	-0.004664609
54	0xbaac62cf	-0.0013152006
55	0xbc4c16f8	-0.012456648
56	0x392470c8	0.00015682273
57	0xbb5f93fd	-0.0034115307
58	0x3ba82ee4	0.005132543
59	0xbc2897fa	-0.01029014
60	0x3ba05726	0.0048932014
61	0xbaf390f0	-0.0018582623
62	0xbc3f9485	-0.011693125
63	0xbb2715ca	-0.0025495165
64	0xbc0f37ae	-0.008741302
65	0xbc0186aa	-0.007905642
66	0x3b213866	0.0024600266
67	0xbb1aae26	-0.0023602336
68	0xba81598e	-0.0009868608
69	0xbcd228ae	-0.025654163
70	0xbc3713fe	-0.0111742
71	0x3b87cd88	0.0041443743
72	0x39d75e2e	0.00041078165
73	0xbc2b9623	-0.010472807
74	0x3a0e8444	0.0005436579
75	0x376b136c	1.40116135e-05
76	0x38702b59	5.726083e-05
77	0xba3983fa	-0.0007076856
78	0xbb85998d	-0.0040771426
79	0xbc362507	-0.011117226
80	0xba292d90	-0.0006453628
81	0xba4bfe34	-0.00077817147
82	0xbb26bc01	-0.002544165
83	0x396f9515	0.00022848354
84	0xb9fb813f	-0.00047970747
85	0xbb3fb30e	-0.0029251012
86	0xbb8ac653	-0.004235068
87	0xbbac738f	-0.005262799
88	0xbcbb6fb3	-0.02288041
89	0xbc5eca0a	-0.013597975
90	0x3b9947d7	0.0046777534
91	0xbc526054	-0.012840349
92	0xbc4294f1	-0.011876331
93	0xbb15b16c	-0.0022841347
94	0xbbba2999	-0.0056812284
95	0x3af86de5	0.001895365
96	0xba9cd3ae	-0.0011964941
97	0xbc0215df	-0.007939785
98	0xbc0426ca	-0.008065889
99	0xbc52019a	-0.012817765
100	0xbc23d625	-0.0099997865
101	0xb84acf65	-4.8353704e-05
102	0xbc792181	-0.015205742
103	0xbb405718	-0.0029348787
104	0xbc029ca1	-0.007971914
105	0x3a495e2c	0.0007681574
106	0xbb79ddcd	-0.0038126588
107	0xb90946bb	-0.00013091687
108	0xba483973	-0.0007637955
109	0xba845bad	-0.0010098122
110	0xbb730ea5	-0.0037087586
111	0x3b88c046	0.0041733114
112	0x3997c328	0.00028946367
113	0xbb81b463	-0.0039582714
114	0xbc55cded	-0.013049585
115	0xbb18f2b6	-0.0023338026
116	0x3bb5aaea	0.005544056
117	0x3b03fbe2	0.0020139148
118	0x3a993d44	0.0011691232
119	0xbad1024b	-0.0015946118
120	0xbbb0d1ad	-0.005396089
121	0xbbb27d23	-0.0054470464
122	0x3ba2d732	0.004969501
123	0xbbb67937	-0.005568649
124	0xba5b3048	-0.00083613815
125	0xbb20509f	-0.0024462116
126	0xbb91ac90	-0.00444562
127	0xbadf0199	-0.0017014026
128	0x3b09fc17	0.0021054798
129	0x39b4071e	0.00034337578
130	0x39dd2731	0.00042181605
131	0xbb8bebf4	-0.004270071
132	0xbadc2c35	-0.0016797843
133	0xba143880	-0.0005654171
134	0x3b346ad7	0.0027529502
135	0xbbe4f0f9	-0.006986734
136	0x3b6ded25	0.003630468
137	0xbc58c982	-0.013231637
138	0xbc3c394a	-0.011488268
139	0xbbc5a869	-0.006032039
140	0xbbe49aac	-0.006976446
141	0xbbea6d61	-0.0071541523
142	0x3b33b88d	0.0027423233
143	0xbbad2fe4	-0.00528525
144	0xbc813a2e	-0.015774813
145	0xbc314c15	-0.010821362
146	0xbc25548c	-0.010090958
147	0xbc1958ef	-0.009359582
148	0xbc4b57b2	-0.012411045
149	0x3b410234	0.0029450776
150	0xba5bc2f0	-0.0008383235
151	0xbb90159c	-0.0043971073
152	0xbba54b0a	-0.0050443457
153	0xbc2787ec	-0.010225277
154	0x3b698215	0.0035630513
155	0xbb557a95	-0.0032574285
156	0xbc6fa8eb	-0.0146276755
157	0xbc162698	-0.009164475
158	0xbb95548d	-0.0045571984
159	0xbc84eb75	-0.016225556
160	0xbc599c7b	-0.013281937
161	0x3b81218e	0.0039407676
162	0xbbd30800	-0.0064401627
163	0xba31d3f6	-0.0006783599
164	0xbba76fdb	-0.0051097698
165	0xbc32c8ee	-0.010912163
166	0xbb12cf0e	-0.0022401246
167	0xbbcc705a	-0.0062389793
168	0xba837cca	-0.0010031697
169	0xbb6734e6	-0.0035279333
170	0x399beb51	0.00029739228
171	0xba9bea98	-0.0011895476
172	0x3b286417	0.0025694424
173	0x3b2544f8	0.002521811
174	0xbb8e3665	-0.0043399804
175	0xbc560ff8	-0.013065331
176	0x39ec4d3d	0.00045070975
177	0xbb0b0cc5	-0.0021217328
178	0xbcafcf6a	-0.021461207
179	0x3b7746ce	0.0037731412
180	0xba6ec350	-0.00091080833
181	0xbc0c9489	-0.008580335
182	0xbc8f4bc6	-0.017492186
183	0xbb47ae11	-0.0030468742
184	0xbbd6ba45	-0.006552967
185	0xbc2c89f9	-0.010530942
186	0xba887f0e	-0.0010413842
187	0x39b6ca6b	0.00034864558
188	0x3c1e6e95	0.0096699195
189	0x39ef7b24	0.0004567738
190	0xbbafc3fd	-0.00536394
191	0xba9b5102	-0.0011849704
192	0x39e1929b	0.00043024574
193	0xbc12b81e	-0.00895503
194	0xbbb8b34a	-0.0056366073
195	0xbc318642	-0.010835232
196	0x3a0cd8fc	0.00053729094
197	0xbb9a8096	-0.0047150357
198	0xbc5d419b	-0.013504411
199	0xbbe024a1	-0.006840304
200	0xbba95559	-0.005167645
201	0xbc296f2b	-0.010341446
202	0xbb9fe22b	-0.0048792562
203	0xbc17294a	-0.009226153
204	0x3a8aa178	0.0010576686
205	0xbbbbafc2	-0.005727739
206	0x399bf904	0.00029749435
207	0xbc643e30	-0.013930842
208	0xbc51b4ce	-0.012799455
209	0xbc10c84f	-0.00883682
210	0xbb8ffe6b	-0.0043943427
211	0xbc18a2b9	-0.00931614
212	0x3bb03124	0.005376952
213	0x3adbeee2	0.0016779567
214	0xbbb98459	-0.005661529
215	0x3c235a22	0.00997022
216	0xbc28ec7f	-0.010310291
217	0xbbe1ef43	-0.0068949773
218	0xbb89cdcc	-0.004205441
219	0xbc925664	-0.01786346
220	0xbb625cb2	-0.0034540114
221	0x393f306e	0.00018233221
222	0xbc30f995	-0.0108016925
223	0x3b96917f	0.004594981
224	0xbbe750c7	-0.00705919
225	0xbb1ed127	-0.0024233551
226	0xbc14af60	-0.009075016
227	0xbc6c26d1	-0.014413551
228	0xbbd6f35b	-0.006559772
229	0xbaef8c74	-0.0018276111
230	0x3c19a575	0.009377827
231	0xbc3e2ef4	-0.011607874
232	0xbc9759a8	-0.018475369
233	0xbc1531cc	-0.009106111
234	0xbc48a2b2	-0.012245821
235	0xbc147b26	-0.009062564
236	0x3c37b4dd	0.011212555
237	0x3b630cc1	0.0034645053
238	0xbbb8f670	-0.005644612
239	0xbbba4ef5	-0.005685682
240	0x3bce843e	0.0063023856
241	0xbba9998a	-0.005175774
242	0xbc300dc6	-0.010745471
243	0xbb9ad0b1	-0.004724585
244	0xbb8d5bde	-0.00431393
245	0xbc409c36	-0.011755994
246	0xbbbeeff1	-0.005826943
247	0xbb234f67	-0.0024919154
248	0xbbaa5201	-0.005197764
249	0xbb154b14	-0.0022780346
250	0xbbf23be9	-0.0073923958
251	0xbc1770bd	-0.0092431875
252	0xbc03da38	-0.008047633
253	0xbbd900ef	-0.0066224257
254	0xbc41bdbd	-0.011825022
255	0x3a8adc43	0.0010594208

conv1.5.running_mean f4 [400]
0	0xbeed6d67	-0.4637253
1	0x3e7ef624	0.24898583
2	0xbe256bbb	-0.16154377
3	0x3e04a925	0.12955149
4	0x3da6ba4a	0.081410006
5	0xbb7b78df	-0.0038371605
6	0xbee12230	-0.43971395
7	0x3e03b064	0.12860256
8	0x3efb5f65	0.49096218
9	0x3e46d0b4	0.19415551
10	0xbdf673b6	-0.12033789
11	0xbe1d9073	-0.15387134
12	0x3e29900d	0.16558857
13	0xbee2c8ec	-0.44293916
14	0xbd36ba82	-0.04461146
15	0x3ee33849	0.4437888
16	0xbdc6a2f5	-0.0969905
17	0x3e22dfa0	0.15905619
18	0x3d8bb1a8	0.068209946
19	0x3d161bc4	0.036647573
20	0xbeafc2ae	-0.34328216
21	0x3eea50f7	0.45764896
22	0x3ebe7ea9	0.3720601
23	0x3b84aaef	0.004048697
24	0xbed9e21e	-0.42555326
25	0xbd69ff10	-0.057128012
26	0x3d56bad1	0.052424256
27	0xbe90fef4	-0.28319514
28	0xbe3bc50c	-0.18336886
29	0xbe59a3b5	-0.21253856
30	0x3e0ca95e	0.13736483
31	0x3e3f1e0d	0.18663807
32	0xbcf00fad	-0.02930435
33	0x3cd79a0c	0.026318572
34	0xbd235891	-0.039879385
35	0x3eeb0a73	0.4590641
36	0x3d303970	0.043023527
37	0x3ea67e51	0.32518247
38	0x3db43a4a	0.0880018
39	0x3bcaafe8	0.0061855204
40	0xbea53bbc	-0.32272136
41	0x3e72c780	0.23708916
42	0xbebfe7a1	-0.37481406
43	0x3bd4464d	0.006478107
44	0x3e836ffb	0.25671372
45	0xbe96ce95	-0.29454485
46	0x3e544547	0.20729552
47	0xbecefb63	-0.40426168
48	0x3e229513	0.1587718
49	0xbe63a1c8	-0.22229683
50	0x3cd1f182	0.025627855
51	0xbe81d205	-0.25355545
52	0x3cbeea58	0.023305103
53	0xbe36862d	-0.17824621
54	0x3e82f679	0.2557867
55	0xbeab4a38	-0.33455062
56	0x3cb20f76	0.021735888
57	0xbe2e041d	-0.16993757
58	0xbcde4f8b	-0.027137538
59	0x3d16709f	0.036728498
60	0xbd6b958f	-0.057515677
61	0xbe7f2f52	-0.24920395
62	0x3c858d75	0.016302804
63	0x3d820e49	0.06350381
64	0x3e92b3b0	0.28652716
65	0x3ddc6ebc	0.107633084
66	0x3ec937c6	0.39300364
67	0xbd2578c8	-0.04039839
68	0xbeab7a8d	-0.33491936
69	0xbec2f95a	-0.38080865
70	0xbe6ab3f5	-0.2292021
71	0x3dcaa92e	0.0989555
72	0x3ede6c2f	0.43441913
73	0xbd48ba22	-0.049005635
74	0xbdbef0b5	-0.09323255
75	0x3ecf257e	0.40458292
76	0x3ecfad63	0.4056197
77	0x3d67c60a	0.05658535
78	0xbe7c4230	-0.24634624
79	0x3e3441c1	0.17603208
80	0xbcfe39c9	-0.031033413
81	0x3e1f27ef	0.15542577
82	0x3e5c37fe	0.21505734
83	0x3e1d581d	0.15365644
84	0x3de00cc3	0.10939934
85	0xbef7b1bf	-0.48377797
86	0xbd36cfba	-0.044631697
87	0x3dde62bb	0.10858675
88	0xbe81b5f1	-0.25334123
89	0x3e4cb44d	0.19990654
90	0x3e0b8967	0.13626634
91	0xbc7a779a	-0.015287304
92	0xbe4fe6ae	-0.20302841
93	0x3d8e9cca	0.06963499
94	0x3e92d05a	0.28674585
95	0xbe1a35a2	-0.15059522
96	0xbde1c45f	-0.11023783
97	0xbeaa3d3b	-0.3324984
98	0x3e2b590b	0.16733186
99	0xbd9530e8	-0.07284719
100	0x3c78a7f7	0.015176765
101	0x3e8a49f0	0.27009535
102	0xbe7a5ab4	-0.24448663
103	0x3ea12d35	0.31479803
104	0xbe52d750	-0.20589948
105	0xbd9796f9	-0.074018426
106	0x3e015693	0.12630682
107	0x3eb72ef3	0.35778007
108	0x3e99a602	0.30009466
109	0xbe07ff09	-0.13280882
110	0xbdbe199c	-0.09282228
111	0x3eabca5e	0.3355283
112	0x3dd9c6e7	0.10633641
113	0x3dc3dae0	0.095632315
114	0x3e4e9e94	0.2017768
115	0xbea7eb3c	-0.32796657
116	0xbd0ced75	-0.034406144
117	0xbe1e4b76	-0.15458474
118	0x3ea5ac36	0.3235795
119	0xbe39b9d8	-0.181373
120	0x3db272b0	0.08713281
121	0xba18b766	-0.00058256683
122	0xbe6008f1	-0.21878411
123	0xbe2d8420	-0.16944933
124	0x3e34af76	0.17645058
125	0x3cbaaddb	0.022787979
126	0xbe499e3e	-0.19689271
127	0x3e9ad268	0.30238652
128	0xbe21ce8e	-0.1580145
129	0x3e1c523b	0.15265743
130	0x3e16c337	0.14722906
131	0x3e88531e	0.26625913
132	0x3e964b5a	0.29354364
133	0xbde9abbf	-0.11409711
134	0x3df26ddb	0.118373595
135	0x3d140e9b	0.03614674
136	0x3e1d3a35	0.15354235
137	0xbd9bd773	-0.07609453
138	0xbd7e59f6	-0.062097512
139	0xbe41c62e	-0.18923256
140	0xbe302905	-0.17203148
141	0x3d9ca8d0	0.07649386
142	0x3d29e114	0.041474417
143	0x3d7cc402	0.061710365
144	0x3d97c08d	0.07409773
145	0x3e54c166	0.207769
146	0x3dbfa554	0.09357706
147	0x3d34cfee	0.04414361
148	0xbe6f24c1	-0.23353864
149	0xbd06b321	-0.032885674
150	0x3e6b94df	0.23006009
151	0xbce59935	-0.028027156
152	0x3e60ba92	0.21946171
153	0x3dbd89f2	0.092548266
154	0x3e215294	0.15754157
155	0x39241a42	0.0001565004
156	0xbda3452b	-0.07972177
157	0x3e4662a4	0.19373566
158	0xbddb47bf	-0.10707044
159	0x3c9666d9	0.018359588
160	0x3d2826b9	0.041052554
161	0x3ecdba68	0.4018128
162	0xbd5ae97c	-0.053445324
163	0xbc3f10cc	-0.0116617195
164	0x3dfb369e	0.12266277
165	0xbd808b9f	-0.062766306
166	0x3e2feffc	0.1718139
167	0x3e597d6d	0.21239252
168	0x3e3dd30e	0.18537542
169	0x3e7d6cec	0.24748582
170	0xbeac90f1	-0.33704332
171	0x3be3d455	0.006952802
172	0xbe44e2e2	-0.19227174
173	0x3e24093a	0.16019145
174	0x3b3ccd0d	0.0028808743
175	0x3ca14ebb	0.019690862
176	0x3e3bedbb	0.18352406
177	0x3daf4d3e	0.08559655
178	0xbaea1edb	-0.0017861979
179	0x3cfd4017	0.03091435
180	0x3e62c2d4	0.22144634
181	0x3cdb0d26	0.026739668
182	0xbe39f229	-0.18158783
183	0xbe157ea6	-0.14599094
184	0xbe34da54	-0.1766141
185	0x3d93de4d	0.07220135
186	0x3e82f31a	0.25576097
187	0x3d667225	0.0562612
188	0xbc059811	-0.008153931
189	0xbde923b8	-0.11383766
190	0xbd1988cb	-0.03748397
191	0xbdb0b4c3	-0.086282276
192	0x3da4ea66	0.080525205
193	0xbe9664f1	-0.29373887
194	0xbe09570c	-0.13412112
195	0xbebc6f40	-0.36803627
196	0x3ec0e5fa	0.37675458
197	0xbed5a85c	-0.4173001
198	0xbc421b9c	-0.011847403
199	0x3d79abbd	0.060954798
200	0x3ec50dd3	0.3848711
201	0xbd75fee0	-0.06005752
202	0xbc2a8480	-0.010407567
203	0xbd1d36e5	-0.03838243
204	0xbe558eaf	-0.2085521
205	0x3e7f547e	0.24934575
206	0x3e350738	0.17678535
207	0xbd19381a	-0.03740702
208	0xbca4234e	-0.020036366
209	0xbdcd175e	-0.100142226
210	0xbc813d76	-0.015776377
211	0x3dd71a07	0.10503011
212	0xbe9242a4	-0.28566468
213	0x3ec91916	0.39276952
214	0x3e70328c	0.23456782
215	0x3e79a719	0.24380149
216	0xbdbfb064	-0.09359816
217	0x3dc26e4a	0.09493692
218	0x3e816d07	0.25278494
219	0xbe3628fb	-0.1778907
220	0xbe711c5a	-0.23545972
221	0xbdca828c	-0.09888181
222	0xbe20f898	-0.15719831
223	0x3e9162d4	0.28395712
224	0xbee4b1ec	-0.44666994
225	0xbd67d6c2	-0.056601293
226	0xbe1e1bf8	-0.15440357
227	0x3e40f3df	0.1884303
228	0xbdbd19a5	-0.09233407
229	0xbe97c6fc	-0.29644
230	0x3e8b0304	0.27150738
231	0x3ce43e26	0.027861666
232	0xbcfa29e3	-0.030537551
233	0xbe0731f3	-0.13202648
234	0xbdeaa3b6	-0.11457007
235	0x3ce734ec	0.028223477
236	0x3e72eb98	0.23722684
237	0x3dace981	0.08442975
238	0xbe682f71	-0.22674347
239	0x3e78d8ad	0.24301405
240	0x3d04d575	0.03243013
241	0xbd699f63	-0.05703677
242	0x3d1baea2	0.03800834
243	0x3e0e6cea	0.13908735
244	0xbe2c6815	-0.16836579
245	0x3e3e7a8e	0.18601438
246	0x3d628ade	0.055308215
247	0xbdec6b4f	-0.11543905
248	0x3d6c0cdb	0.057629447
249	0x3e479c6e	0.19493267
250	0x3e334a7c	0.17508882
251	0x3da2aa83	0.07942679
252	0xbde5c703	-0.11219599
253	0x3e3381af	0.17529939
254	0x3e453c2d	0.19261236
255	0x3e1e2863	0.15445094

conv1.5.running_var f4 [400]
0	0x3e5481cf	0.20752643
1	0x3e36a152	0.17834976
2	0x3e17311d	0.14764829
3	0x3e746568	0.23866808
4	0x3e0e4e10	0.13896966
5	0x3e87ea21	0.26545814
6	0x3e3ea8a2	0.18619016
7	0x3e21bd65	0.15794905
8	0x3e782100	0.24231339
9	0x3e0c90a1	0.13727047
10	0x3e31b9c4	0.1735602
11	0x3e1e3f08	0.15453732
12	0x3e2b2724	0.1671415
13	0x3e37a579	0.17934217
14	0x3e7a55e1	0.24446823
15	0x3e8e4c01	0.2779236
16	0x3e6d4c22	0.23173574
17	0x3e902caa	0.28159076
18	0x3e1df3fe	0.15425107
19	0x3e5d6a63	0.21622615
20	0x3e8245c3	0.2544385
21	0x3ec972a5	0.3934528
22	0x3e2d3d4e	0.16917917
23	0x3e1a4da1	0.15068676
24	0x3e2dbfb0	0.16967654
25	0x3e0aa065	0.13537748
26	0x3e2e889a	0.17044297
27	0x3e2ef129	0.17084183
28	0x3e79ff0e	0.24413702
29	0x3ea179ea	0.31538326
30	0x3e47e803	0.19522099
31	0x3e8742b3	0.26418075
32	0x3e1c1bb0	0.15244937
33	0x3e312b05	0.17301567
34	0x3e278f4d	0.16363259
35	0x3e8e06d3	0.2773958
36	0x3e434a95	0.1907142
37	0x3e0b906b	0.1362931
38	0x3e3408fb	0.17581551
39	0x3e1a15cf	0.15047382
40	0x3e10f8c4	0.14157397
41	0x3e8f0d7b	0.27939972
42	0x3e5b6ab6	0.21427426
43	0x3e276742	0.16347983
44	0x3e38e64f	0.18056606
45	0x3e452f5b	0.19256346
46	0x3dd065f3	0.10175695
47	0x3ed258eb	0.41083464
48	0x3e05ca1e	0.13065383
49	0x3eb07d25	0.34470478
50	0x3e837a1f	0.25679109
51	0x3e7d30f1	0.24725701
52	0x3e52e820	0.20596361
53	0x3ebf0253	0.3730646
54	0x3e06928f	0.13141845
55	0x3e0a0a56	0.13480505
56	0x3e4f9136	0.20270237
57	0x3e22db71	0.15904023
58	0x3e9d10f1	0.30676988
59	0x3e7cda39	0.2469262
60	0x3e4a8fd7	0.19781433
61	0x3e20e13a	0.15710917
62	0x3e918823	0.28424177
63	0x3e828f3e	0.2549991
64	0x3e114002	0.14184573
65	0x3e9d80be	0.30762285
66	0x3df5184f	0.11967527
67	0x3e8bac50	0.27279902
68	0x3e7984f3	0.24367122
69	0x3e910e14	0.28331053
70	0x3e5243f6	0.20533738
71	0x3e29e5e8	0.16591609
72	0x3e2557aa	0.16146722
73	0x3dcd39f6	0.10020821
74	0x3e34b715	0.17647965
75	0x3e0e68f5	0.13907225
76	0x3e2c0859	0.1680006
77	0x3e7fc5df	0.24977826
78	0x3e931046	0.28723353
79	0x3e42c1a8	0.19019186
80	0x3e1a0366	0.15040359
81	0x3ec4b8b1	0.38422158
82	0x3e407c6f	0.18797468
83	0x3e751db0	0.23937106
84	0x3ddac1e7	0.10681515
85	0x3e5e5227	0.21711026
86	0x3ebf18c2	0.37323576
87	0x3e29938c	0.16560191
88	0x3e70cc44	0.23515421
89	0x3e1c5aac	0.15268964
90	0x3e3dee4c	0.18547934
91	0x3e599275	0.21247275
92	0x3e1458b7	0.14486967
93	0x3e04a50d	0.12953587
94	0x3e6585a6	0.22414264
95	0x3e568098	0.20947492
96	0x3ea29c86	0.31760043
97	0x3e5f0072	0.21777514
98	0x3e244ae8	0.160442
99	0x3e44d5b1	0.19222142
100	0x3e7c34cd	0.24629517
101	0x3e44cad5	0.19218
102	0x3e313c01	0.17308046
103	0x3e2a7d29	0.16649307
104	0x3e1f2507	0.15541469
105	0x3e30da15	0.17270692
106	0x3e739f72	0.23791292
107	0x3ebdaf0d	0.37047616
108	0x3e17f2a4	0.14838654
109	0x3e8abfe4	0.27099526
110	0x3e09ab98	0.13444364
111	0x3e7500a9	0.23926033
112	0x3e7084b7	0.23488127
113	0x3ded501d	0.11587546
114	0x3e2d60cb	0.16931455
115	0x3e23e1ae	0.16004059
116	0x3dff468e	0.12464629
117	0x3e205e04	0.15660864
118	0x3e72a8bf	0.23697184
119	0x3e5071c5	0.203559
120	0x3e4a2889	0.19742025
121	0x3e44991c	0.19199032
122	0x3e19dba1	0.15025188
123	0x3e5d247b	0.21595947
124	0x3e290301	0.16505052
125	0x3e597d88	0.21239293
126	0x3e576d26	0.2103773
127	0x3eb9db7e	0.36300272
128	0x3e5580f2	0.2084997
129	0x3e703841	0.23458959
130	0x3e530766	0.20608291
131	0x3dfcc1d5	0.12341658
132	0x3e9b8a7c	0.30379093
133	0x3e6c4254	0.23072177
134	0x3ed4c191	0.4155393
135	0x3e510d94	0.20415336
136	0x3e187a42	0.14890388
137	0x3e19ee3c	0.15032285
138	0x3e1053cc	0.14094466
139	0x3e5d828f	0.21631835
140	0x3df67c5e	0.1203544
141	0x3e0e01cd	0.13867874
142	0x3e1d88e9	0.15384258
143	0x3e51232a	0.2042357
144	0x3e791bf0	0.24327064
145	0x3edd2749	0.43194035
146	0x3e2c5169	0.1682793
147	0x3e82a2fb	0.2551497
148	0x3e2b6e0c	0.16741198
149	0x3e0c8ac0	0.13724804
150	0x3e2224e9	0.15834393
151	0x3e27a11d	0.16370054
152	0x3e496a9b	0.19669573
153	0x3e425f27	0.1898161
154	0x3dfc87b7	0.12330573
155	0x3e237410	0.15962243
156	0x3e679307	0.2261468
157	0x3e912390	0.28347445
158	0x3e02d258	0.12775552
159	0x3eda1ad0	0.4259858
160	0x3e05a7b6	0.13052258
161	0x3ea10167	0.31446382
162	0x3e1b4d24	0.15166146
163	0x3e11f197	0.14252315
164	0x3e22722c	0.15863866
165	0x3e223ce1	0.15843536
166	0x3ec53375	0.3851582
167	0x3e02ef0d	0.12786503
168	0x3de7cc6d	0.11318288
169	0x3e1bddcc	0.15221328
170	0x3e0e58f5	0.13901122
171	0x3e40e9d6	0.18839201
172	0x3e48edb5	0.19621928
173	0x3e08936d	0.13337488
174	0x3e3499c5	0.17636783
175	0x3e62f8e0	0.22165251
176	0x3e922470	0.28543425
177	0x3eb22406	0.3479311
178	0x3ea43525	0.32071796
179	0x3e0f84cd	0.14015503
180	0x3de3bce6	0.11120014
181	0x3e233547	0.15938292
182	0x3e48b0f3	0.19598751
183	0x3e3caf2d	0.184262
184	0x3e17e5f2	0.14833811
185	0x3e9355ca	0.2877639
186	0x3e3b882f	0.18313669
187	0x3eabdc5e	0.33566564
188	0x3e71cb71	0.23612763
189	0x3e1bfc24	0.15232903
190	0x3e6d95b0	0.23201632
191	0x3e366a25	0.17813928
192	0x3e3297cb	0.17440717
193	0x3e23c2bc	0.15992254
194	0x3e8536b5	0.260183
195	0x3e7182fe	0.23585126
196	0x3e81172a	0.25212985
197	0x3e47e4e9	0.19520916
198	0x3e349c66	0.17637786
199	0x3e4d9896	0.20077738
200	0x3e8e7ae0	0.2782812
201	0x3eb472ed	0.3524393
202	0x3dff3efd	0.12463186
203	0x3e0a9b8c	0.13535899
204	0x3e6a5c82	0.22886851
205	0x3e4cce91	0.20000674
206	0x3f18c6d6	0.596784
207	0x3e9d6b3e	0.30745882
208	0x3e612c93	0.2198966
209	0x3e2dfd84	0.1699124
210	0x3e2feb33	0.17179565
211	0x3e20de8c	0.15709895
212	0x3e2270c2	0.15863326
213	0x3e5862d2	0.21131447
214	0x3ebc4b06	0.36775988
215	0x3ed6599a	0.41865236
216	0x3e170371	0.14747407
217	0x3e29fde6	0.16600761
218	0x3e9d68cf	0.30744025
219	0x3e197fe2	0.1499019
220	0x3dfb6634	0.12275353
221	0x3e2b20a3	0.16711669
222	0x3e045d22	0.12926152
223	0x3dfca193	0.12335505
224	0x3ea914d0	0.3302369
225	0x3e0fb60e	0.14034292
226	0x3e784264	0.24244076
227	0x3e8c4f95	0.27404466
228	0x3e1c53e8	0.15266383
229	0x3e0d3128	0.13788283
230	0x3dffae30	0.124843955
231	0x3e30c972	0.17264345
232	0x3e84e54a	0.25956184
233	0x3e54b6a8	0.20772803
234	0x3deafcb1	0.11473978
235	0x3e739225	0.23786218
236	0x3e6f3d98	0.2336334
237	0x3e72edc0	0.23723507
238	0x3e2151dd	0.15753885
239	0x3e607fd7	0.21923767
240	0x3e53aca6	0.20671329
241	0x3e6586ce	0.22414705
242	0x3e53a5dc	0.20668739
243	0x3e271119	0.16315116
244	0x3e12cf09	0.1433679
245	0x3e00465d	0.12526841
246	0x3e1876f9	0.14889134
247	0x3e2270c3	0.15863328
248	0x3e3d4d19	0.18486442
249	0x3e3565f9	0.1771468
250	0x3e8c97a1	0.27459434
251	0x3e536826	0.20645198
252	0x3e715476	0.23567376
253	0x3e0bb7f4	0.13644391
254	0x3e239a50	0.15976834
255	0x3e09936a	0.1343514

conv2.0.weight f4 [10, 1, 6]
0	0x3e952d64	0.29136193
1	0xbde0674b	-0.109572016
2	0xbe94c81e	-0.29058927
3	0xbebdeebe	-0.37096208
4	0x3e7dd027	0.24786435
5	0xbdbf74ae	-0.09348427
6	0xbe470bf2	-0.1943815
7	0x3d927369	0.07150919
8	0x3e0b3892	0.13595799
9	0xbe469e3c	-0.19396299
10	0xbe9521cf	-0.29127356
11	0xbea3eb28	-0.32015347
12	0xbe3fac7d	-0.18718143
13	0x3bda6c21	0.006665722
14	0x3e0795e9	0.1324078
15	0x3da20c7d	0.07912538
16	0x3ec2b091	0.38025334
17	0xbdf62081	-0.120179184
18	0x3ecce590	0.40018892
19	0xbe5b3cc3	-0.21409898
20	0xbece3d57	-0.40281174
21	0xbde856c9	-0.11344678
22	0x3e868e90	0.26280642
23	0xbea609d7	-0.32429382
24	0xbc1f7f11	-0.009734885
25	0xbe20f534	-0.15718538
26	0xbed30bd0	-0.4121995
27	0x3e9c7dd6	0.30564755
28	0xbeaac5b9	-0.33353975
29	0x3e13faa2	0.14451078
30	0xbe3d237b	-0.18470566
31	0xbeaa65a6	-0.33280677
32	0x3df7c1bb	0.12097498
33	0xbe045d3e	-0.12926194
34	0x3d3fed1e	0.046856992
35	0xbe34d655	-0.17659886
36	0x3e963b1c	0.29341972
37	0x3ea19feb	0.3156732
38	0x3e3f151e	0.186604
39	0xbebcd7aa	-0.3688329
40	0xbeccf780	-0.40032578
41	0x3e18c2a9	0.14918007
42	0xbe182767	-0.14858781
43	0x3ed708d9	0.41998938
44	0xbd81ee19	-0.06344242
45	0xbe90ba0e	-0.28266948
46	0x3e3cfe36	0.18456349
47	0x3e550035	0.2080086
48	0xbd3616b7	-0.044455256
49	0x3e90a7ec	0.28253114
50	0xbe8f092c	-0.27936685
51	0x3ea165c7	0.31522962
52	0x3e70fc2b	0.23533694
53	0x3ec105f4	0.37699854
54	0x3de8092b	0.11329874
55	0xbeddbc94	-0.43307936
56	0xbd99cc12	-0.075096264
57	0xbe1e965f	-0.1548705
58	0x3e870d0d	0.26377144
59	0xbecc6570	-0.3992114

conv2.0.bias f4 [10]
0	0x3e1e900e	0.1548464
1	0x3ec8fd68	0.39255834
2	0x3eda0b0b	0.4258655
3	0x3e978554	0.2959391
4	0x3ea247f7	0.3169553
5	0x3df73426	0.120704934
6	0xbea70b9d	-0.32626048
7	0x3e5d1820	0.21591234
8	0xbebd5e5d	-0.36986056
9	0x3ed528fd	0.41632834

conv2.1.weight f4 [10]
0	0x3f852048	1.0400476
1	0x3f834c1b	1.02576
2	0x3f80be5f	1.0058097
3	0x3f8544e4	1.0411649
4	0x3f896af1	1.0735761
5	0x3f83fe24	1.0311933
6	0x3f814594	1.0099359
7	0x3f83e165	1.030316
8	0x3f7f42f0	0.99711514
9	0x3f890fea	1.0707982

conv2.1.bias f4 [10]
0	0x3cc9fb54	0.024655975
1	0x3c656268	0.014000513
2	0x3d1aae98	0.03776416
3	0x3ca7ac0c	0.02046778
4	0x3d1a746e	0.037708692
5	0x3bdc3139	0.006719735
6	0x3cab618b	0.020920536
7	0x3d1703f5	0.036869008
8	0x3b7c6e19	0.0038517772
9	0x3bf5b051	0.007497825

conv2.1.running_mean f4 [10]
0	0xbe716cda	-0.2357668
1	0xbed7f1ec	-0.4217676
2	0x3f24f292	0.6443263
3	0xbe41e150	-0.18933606
4	0xbe6f3e4c	-0.23363608
5	0xbf038974	-0.5138161
6	0xbe51284f	-0.20425533
7	0x3edbe950	0.4295144
8	0x3f0b985f	0.54529375
9	0xbe99e805	-0.3005983

conv2.1.running_var f4 [10]
0	0x3ef4cc98	0.47812343
1	0x3f589ca4	0.84614015
2	0x3e7b49c1	0.24539854
3	0x3f379ee7	0.7172684
4	0x3ef539ac	0.47895563
5	0x3f090a68	0.53531504
6	0x3f160099	0.5859466
7	0x3ed16518	0.4089744
8	0x3f8e09a9	1.1096698
9	0x3f3dee63	0.74191874
