model/medp_k1_model.ckpt (torch, 665947 bytes, 40 tensors)

conv1.0.weight f4 [10, 1, 3]
000000 52 33 a3 bc 3e fa 0a 3f f3 bd d2 be 1d fc 32 be
       -0.019921932 0.5428809 -0.41160545 -0.17478986
000010 c2 58 01 3f 4e a5 a5 be 4a 88 e4 3e c3 7e 10 bf
       0.5052606 -0.3235268 0.4463523 -0.56443423
000020 2f f6 30 3e 53 fe 09 3f 55 6c 8f be 3e cf bb be
       0.17281412 0.5390369 -0.28012338 -0.3668155
000030 f2 99 79 3d e6 92 c1 3e 52 c0 06 3f a7 e2 82 3e
       0.06093783 0.37807387 0.5263721 0.25563547
000040 c1 93 f4 3e de 44 6a 3d 93 be f6 3e ae c6 e4 be
       0.47768977 0.057194583 0.48192272 -0.4468283
000050 10 02 e8 be fc 96 13 be 14 8d 40 be b0 37 a3 be
       -0.45314074 -0.14413065 -0.18803817 -0.31878424
000060 e0 f1 7a 3e 79 45 5f 3e 81 39 b7 3e e9 e0 ad 3e
       0.2450633 0.21803845 0.3578606 0.33960655
000070 d7 77 27 be 66 4f e3 be
       -0.16354309 -0.44396514

conv1.0.bias f4 [10]
000000 bb 4c 9b 3e 5c 56 9d be 0d d6 db 3e e1 fe 4e be
       0.30331978 -0.3072995 0.42936745 -0.20214416
000010 37 64 3a be 3a 34 83 3d 92 ea ca be 0a 6c 3f be
       -0.18202291 0.06406446 -0.39632088 -0.18693557
000020 2a e9 ec be 5a d1 4b 3e
       -0.4627164 0.1990408

conv1.1.weight f4 [10]
000000 43 34 7b 3f 07 c7 7a 3f 2f 78 83 3f 1e cc 7f 3f
       0.9812662 0.9795994 1.0271052 0.99920833
000010 40 a3 7d 3f 94 87 7d 3f 97 85 7b 3f e4 1c 71 3f
       0.99077225 0.99035 0.98250717 0.9418471
000020 ed 73 79 3f ec 6c 79 3f
       0.97442514 0.97431827

conv1.1.bias f4 [10]
000000 01 95 02 3c 2a c8 da 3a 1a b8 66 3b 1b 74 ae bc
       0.007970096 0.0016691734 0.0035204948 -0.021295598
000010 09 66 4c bb 8d 53 d7 39 63 b2 80 bc 58 9b 8c bc
       -0.0031188747 0.00041070246 -0.015710061 -0.017163917
000020 7d d6 2c 3a ad 23 dc 3b
       0.00065932405 0.00671812

conv1.1.running_mean f4 [10]
000000 11 48 39 3f 30 df 63 be 21 66 1f 3f cb 7a 4c bf
       0.7237559 -0.22253108 0.6226521 -0.7987487
000010 12 f1 82 40 71 31 56 40 42 4e fa bf 9d 2a 29 c0
       4.0919275 3.3467677 -1.9555132 -2.643226
000020 ee 39 41 40 eb f8 73 bf
       3.0191607 -0.95301694

conv1.1.running_var f4 [10]
000000 01 de be 3e 6c 20 90 3e 3f ed c1 3e 50 a1 f4 3e
       0.3727875 0.28149736 0.37876317 0.47779322
000010 93 b4 63 40 40 43 09 40 6d b3 70 3f bc fb 9b 3f
       3.5578964 2.1447296 0.9402378 1.2186198
000020 42 c6 15 40 c5 ce 08 3f
       2.3402257 0.53440505

conv1.4.weight f4 [420, 10, 3]
000000 f2 9d c3 3b d2 ea 82 3d 76 0f ff 3d 13 a9 57 bd
       0.0059697563 0.06392445 0.12454121 -0.052651476
000010 8c d7 a4 bd c0 b4 09 3e db b0 c4 bb 84 3e a4 3b
       -0.08048925 0.13447857 -0.006002528 0.0050123353
000020 93 b6 0e 3e 7e 31 61 be ce f0 70 bd 6e 50 13 3e
       0.13936834 -0.21991536 -0.0588234 0.1438615
000030 e8 66 c8 bd aa 41 d0 bc ac 8b d5 3c da e7 9b bd
       -0.09785253 -0.025421936 0.026067577 -0.076125816
000040 7f de 60 3d e9 6a e2 3d 38 e1 77 bd 9c 5f 3e bd
       0.05489969 0.11055548 -0.06051752 -0.0464779
000050 04 36 0f be a7 08 da 3d 5d 2a c5 bd 61 a4 1e 3e
       -0.13985449 0.106461816 -0.09627221 0.15492393
000060 8c f0 05 be 1e ff bb bb 93 b8 b4 3d 75 ea 20 3e
       -0.13080043 -0.0057371994 0.08824267 0.15714438
000070 a2 28 bd 3c 6f bc e6 bc 01 e1 85 3c f2 68 cf 3d
       0.023090664 -0.028166024 0.016342642 0.101274386
000080 0a 51 89 bd 3e 00 09 3e 4c 98 ec 3d bc af fd 3d
       -0.0670491 0.13378999 0.11552486 0.12387034
000090 8c c6 b5 bd 2b 20 f1 3d 21 41 6a bc 64 8f d9 3c
       -0.088757604 0.11773714 -0.0142977545 0.026557632
0000a0 e4 bf 05 bd cd e8 18 3e 98 ab 25 3e 3a 68 fd 3d
       -0.032653704 0.14932556 0.16178739 0.12373395
0000b0 07 f6 09 3e d7 dd 9b 3b 36 15 16 bd a7 c5 6c 3d
       0.13472758 0.00475667 -0.036641322 0.057805683
0000c0 3d 16 aa bc 7e 1e be bd 0e f5 15 be 2d 97 7a 3c
       -0.020762557 -0.0928316 -0.14644262 0.015294832
0000d0 9f 76 4b 3d 81 31 03 bd 78 72 18 3e c0 f4 ea 3d
       0.049673673 -0.032029632 0.14887416 0.114724636
0000e0 48 28 96 b9 f5 20 b9 3c d5 cc 03 be 93 38 ee 3c
       -0.0002864024 0.022598723 -0.12871106 0.029079711
0000f0 3e 2b d8 3c fc 51 1c 3e 93 47 28 bd 90 da 2f 3c
       0.026387807 0.1526565 -0.041083883 0.010733262
000100 bd d5 28 bd 39 76 ca bd fd c1 da 3d b3 8e 0c 3e
       -0.04121946 -0.098858304 0.106815316 0.1372631
000110 a7 53 34 be 55 9a fd bd 76 df 12 3e e1 fa b0 bd
       -0.17610036 -0.12382952 0.14343056 -0.08641601
000120 19 c1 8d 3b c1 f9 eb bd d4 da 0c bd 51 51 07 be
       0.0043259976 -0.11522246 -0.03438838 -0.13214613
000130 1d 52 2f be 0c 91 ad 3d 3b e8 8d bd 14 1a e7 bd
       -0.17121167 0.08474931 -0.0692906 -0.11284271
000140 44 88 fb 3d fe 45 98 bd 3c 61 13 3e 9d cf 88 3d
       0.1228185 -0.07435225 0.1439256 0.06680224
000150 ce f6 95 3d 6c 00 3d 3e de 1f 55 bd 7c b2 26 3e
       0.07322465 0.18457192 -0.052032344 0.16279024
000160 9c 1b 0e 3d b7 a9 9a bd cd 83 82 bd c4 ba 8a 3c
       0.0346943 -0.07551902 -0.06372795 0.01693476
000170 6c 75 13 bd 02 4a a8 3d f5 d9 b5 3d be 7f 1c bd
       -0.036000654 0.08217241 0.08879463 -0.038207762
000180 23 32 1d be 44 9f ea bc 08 7d 08 be 21 1e b9 bc
       -0.15351157 -0.028640397 -0.13328946 -0.022597374
000190 b8 12 1e 3e 00 5e 4c be 0f ed a2 3c 76 dc ec 3c
       0.15436828 -0.19957733 0.019888429 0.028913718
0001a0 ea 7e d1 bd a2 09 1e 3e 59 99 10 3e d9 ae c7 bc
       -0.10229285 0.15433362 0.14120997 -0.024375366
0001b0 ad 82 08 3e 4d 28 f4 3c 29 56 8a bd e3 a3 0f be
       0.13331099 0.029804373 -0.06754715 -0.14027362
0001c0 27 07 0b be 21 30 3e bd ab 42 c2 bc 99 08 47 bd
       -0.13576947 -0.046432618 -0.02371343 -0.048592184
0001d0 ae fa f8 3d 24 e7 dd bd ed 19 24 3e 09 1d 17 bd
       0.12157188 -0.10835102 0.16025515 -0.036892924
0001e0 03 43 1b be 29 b2 a2 bd ab 29 0b 3e 1d 5a df bd
       -0.15162282 -0.079441376 0.13590114 -0.109058596
0001f0 0d 8a 12 3e 27 57 1c 3e 85 2f 82 be be ed 13 3d
       0.14310475 0.15267621 -0.2542688 0.0361154
000200 ff 18 ac 3d ca f4 c2 bd 5e 31 91 39 e0 db f5 bc
       0.08403205 -0.09519346 0.00027693337 -0.030012071
000210 b7 2a 60 3d 42 62 18 be ee c1 0a 3e dd 05 f8 bd
       0.054728236 -0.14881232 0.13550541 -0.12110493
000220 61 fb 02 be b1 25 82 bd 9c 5d f4 3d de 26 17 3d
       -0.12791206 -0.06354845 0.11931917 0.0369023
000230 f5 9b 45 bd ca 21 02 3d 20 6e af bc 7a af 2c 3c
       -0.048244435 0.031770505 -0.021414816 0.010539884
000240 ac 6d b8 bd 68 a8 b3 3d 01 7c 79 bd 4c cb fa bd
       -0.09005293 0.08772355 -0.060909275 -0.12245807
000250 fb d2 d7 bc 56 99 7e 3d a6 70 0e be c3 b9 7d 3d
       -0.02634572 0.06215795 -0.1391016 0.061944734
000260 7c 5c b9 3d 7f 79 82 3d 85 3d 01 be 6e b9 e2 bd
       0.09050843 0.0637083 -0.12621124 -0.11070524
000270 13 8e 26 bd e6 fc 1a 3e a7 39 81 be 0a d8 20 3e
       -0.040662836 0.15135536 -0.25239298 0.15707412
000280 83 58 00 bd fd c0 07 be 96 5c 1f be 68 34 c0 bd
       -0.03133441 -0.13257213 -0.15562662 -0.09384996
000290 6b 48 bb 3d 5c f5 e0 3d 7d 5d 11 3e b1 5c 56 bd
       0.09144672 0.109842986 0.14195819 -0.05233449
0002a0 39 40 0a be 61 d1 00 3e 8b b9 28 be f4 cc 0d 3d
       -0.13501061 0.12579872 -0.16477029 0.034619287
0002b0 0f f6 30 be 95 77 03 be c4 ee 02 bc 90 e6 17 3e
       -0.17281364 -0.12838586 -0.0079914965 0.14834046
0002c0 77 81 f0 bd 16 10 08 3e b4 34 14 3e b6 3f d1 3d
       -0.117434435 0.13287386 0.1447323 0.1021723
0002d0 fb b8 f4 bc a6 47 fc 3d e9 e3 be bb 57 87 df bd
       -0.029873362 0.12318353 -0.005825509 -0.10914486
0002e0 bb b2 cd 3c 51 0b 97 3d a4 8d 1f be 61 4e 7e bd
       0.02510964 0.07375205 -0.15581375 -0.062086467
0002f0 58 8b 67 3d 8a da 06 be a2 56 02 3e b5 b0 0b be
       0.056529373 -0.13169304 0.1272836 -0.13641627
000300 d6 cf 30 3d 2c 8c c3 3c 0b e7 9c 3d 23 8e 5e bd
       0.043166958 0.02387055 0.076612554 -0.05433477
000310 1a d4 2d 3e 7c 8c fa bd 64 9a d5 bd f8 ae d8 3d
       0.16975442 -0.122338265 -0.10429838 0.10580248
000320 e9 e4 cd 3d 6b f7 78 3d 27 33 d5 3d d0 af 0e be
       0.10053427 0.06078283 0.10410147 -0.13934255
000330 e6 b0 27 bd 72 c6 c5 bd 2f 2c 13 3d 5b 23 39 3c
       -0.040940188 -0.09656991 0.03593081 0.011299933
000340 dc 72 bb bd f8 8f c8 bc 76 9a b0 3d c0 15 7b 3d
       -0.09152767 -0.024482712 0.08623211 0.06130004
000350 87 ac f9 bd d0 d4 51 be 26 90 77 3c 3c 59 f7 bd
       -0.1219111 -0.20491338 0.015110051 -0.12077567
000360 2f c1 10 3e 63 ef 0c be ca 8f 96 bd cf 7b c0 bd
       0.14136194 -0.13763194 -0.07351644 -0.093986146
000370 65 ab b2 bc b3 6c 0c be 80 7c b2 3c be 86 00 3d
       -0.021810243 -0.1371334 0.021787882 0.0313785
000380 43 9c ed bd 23 65 eb 3d 51 2c ff 3c 35 49 59 bd
       -0.1160207 0.114939 0.031149061 -0.05304833
000390 cb e5 e7 3c 23 7c 48 3d c2 8c 74 bd 69 00 64 3d
       0.028307816 0.04894651 -0.05970455 0.055664454
0003a0 c1 f9 08 3e 51 66 ed bd cd 93 4f 3d 7c 48 e2 3d
       0.13376524 -0.11591781 0.050678063 0.110489815
0003b0 4e bc 7f bd 78 93 2f 3d ea d6 75 bd 12 31 d0 3d
       -0.06243544 0.042865247 -0.06001941 0.101656094
0003c0 7d 02 b5 3d 5e d1 f7 ba cb c1 be bd 15 76 e0 3d
       0.08838365 -0.0018907001 -0.09314307 0.10960022
0003d0 25 be 18 bc 43 92 70 3c be a6 2e bd 3c bb ef bd
       -0.009322678 0.014683309 -0.042639486 -0.11705634
0003e0 35 0f 20 3d 9d 58 94 bd 36 cd 4d bd a7 39 55 bd
       0.039077003 -0.07243464 -0.050244533 -0.052056935
0003f0 ce 12 22 be 46 19 1b 3e ef 01 ef bd b0 eb 01 be
       -0.15827486 0.1514636 -0.11670291 -0.12687564

conv1.4.bias f4 [420]
000000 15 48 03 be f1 3a 87 bd 0d 45 43 be 1a da 27 3e
       -0.12820466 -0.06603039 -0.1906931 0.16391793
000010 55 3d cd bd 29 47 ec bc 9e 3d 05 be 06 de bc bd
       -0.10021464 -0.028842526 -0.13011786 -0.09222035
000020 9f 51 00 3e cc fe 44 be 85 2f a0 3d a3 23 08 3d
       0.12531136 -0.19237822 0.07821564 0.03323711
000030 85 b8 ee bd f7 b9 b0 3d ec bb eb 3d dd 7f 44 3d
       -0.11656288 0.0862922 0.11510453 0.047973502
000040 8f 2c 00 bd 2f 36 ec b9 90 86 aa bd 8f 9a 26 bd
       -0.031292494 -0.00045053798 -0.08326447 -0.040674742
000050 86 a4 4d be 3d 07 35 be f9 44 b2 bd c6 a5 b6 bc
       -0.20082292 -0.17678542 -0.08704562 -0.022295844
000060 e2 47 39 be 32 d5 83 3b ad 9a 42 be 6c 5d c5 bc
       -0.18093827 0.0040232176 -0.19004317 -0.024092399
000070 3e 2a 8e 3c c7 6e 26 bd 50 b9 83 3d 37 84 19 bc
       0.017354127 -0.04063299 0.0643183 -0.009369901
000080 33 c1 0f 3d 47 ac a9 3d d7 26 b9 bd 77 b3 16 3e
       0.03509636 0.082848124 -0.09040611 0.14716898
000090 b3 c6 d4 bd e4 55 d7 3d 45 7a 7f bd ac 6a e5 bd
       -0.10389461 0.10514429 -0.062372465 -0.11201987
0000a0 33 c9 e1 bd e9 7d 1f 3e 9c a9 80 3c 13 bf 02 3e
       -0.11024704 0.15575375 0.015705876 0.12768202
0000b0 4d d1 94 bb 4b f1 bf 3d 19 86 82 bd 8a ca 87 3b
       -0.004541552 0.09372195 -0.06373233 0.0041440176
0000c0 d1 03 90 bd c1 17 db 3d 84 ca 17 be b6 17 1c 3e
       -0.07031978 0.1069789 -0.14823347 0.1524342
0000d0 62 d5 ce 3d e3 e7 89 3d a8 5a 88 bb 8d 83 c5 bd
       0.10099293 0.06733682 -0.0041611977 -0.09644232
0000e0 ed 2f 2d be f3 e9 08 be ec 00 18 3d e0 55 b2 3d
       -0.16912813 -0.13370495 0.037110254 0.087077856
0000f0 4e d9 4c bc 89 d0 30 be 0f da 27 be bb b1 6a bb
       -0.012502981 -0.1726705 -0.16391777 -0.0035811502
000100 78 f7 a8 3c 54 9b 32 3e 35 53 2e be 97 4b bb bd
       0.020625815 0.17442065 -0.17023928 -0.09145277
000110 a5 b1 52 be 25 7b 3a be fa 91 d9 bd 1b d1 e7 3d
       -0.20575579 -0.18211038 -0.10623546 0.113191806
000120 5f 71 d3 bd 5a f9 2d bc 16 12 ab 3c 94 e4 bb bd
       -0.10324358 -0.010618532 0.020882647 -0.09174457
000130 a1 02 62 bd 4c 45 8a 3c bb ea 00 be ac b6 61 bd
       -0.05517829 0.016878746 -0.12589543 -0.05510585
000140 47 de 86 bd cb 2e b4 3d 95 41 11 3e 90 5a f4 bc
       -0.06585365 0.087979876 0.14185174 -0.02982834
000150 1a fe ac 3d a1 a9 f2 3d be d9 b0 bd 49 98 b5 bd
       0.084469035 0.118487604 -0.08635281 -0.08866937
000160 32 f6 e5 bd b7 08 14 be 0f 4b 16 3e fd 5e 2b 3d
       -0.11228599 -0.1445645 0.1467707 0.041838635
000170 75 0d aa 3c 65 dd 12 be 86 49 57 bd f4 c4 64 bd
       0.02075837 -0.14342268 -0.05256035 -0.05585189
000180 e0 42 aa 3c 1d 18 ae bd 7e fe dc bd 8b 1d a7 3c
       0.020783842 -0.08500693 -0.10790728 0.02039983
000190 d3 f9 4a bc 31 c6 a2 bc 91 b2 2f be 87 db b1 3d
       -0.012388664 -0.019869896 -0.17157961 0.0868445
0001a0 76 fa 0b 3e 6d de 03 3e d0 57 9b bd 9e a6 b3 3d
       0.13669762 0.12877817 -0.07585108 0.08772014
0001b0 7f 84 0e 3e 90 b7 e4 bd be a8 9f 3d b6 b1 47 be
       0.13917731 -0.11167824 0.07795857 -0.19501385
0001c0 a8 a8 86 bd f0 ed 2e 3d e8 01 f9 3c 93 47 06 bc
       -0.065751374 0.042707384 0.030396417 -0.008195776
0001d0 ed ab 8b bd 65 41 99 bd ac 87 a9 bd fe 40 1a be
       -0.068199016 -0.07483176 -0.082778305 -0.15063855
0001e0 2a ac 13 3e d8 7a 8d 3d fc 04 46 be fc 10 6c 3b
       0.14421144 0.06908196 -0.19337839 0.0036020866
0001f0 4f 40 2c 3e f2 24 49 bd c3 76 03 3e 68 82 9b bd
       0.16821407 -0.0491075 0.12838273 -0.075932324
000200 ee 36 0c be d9 d7 8a 3d da 03 9b 3d 36 bd 29 be
       -0.13692829 0.06779451 0.07569094 -0.16576084
000210 ae ea 2c bc f9 92 11 be 7b 92 29 bb 4e e6 53 3c
       -0.010553999 -0.14216222 -0.0025874663 0.012933327
000220 89 2f d9 3d ef 53 f1 3c c2 0c cc 3d b5 bd a6 3d
       0.1060477 0.029458968 0.09963371 0.081416525
000230 e0 94 54 be 44 fb bc bc 72 30 b0 3d 03 b0 d9 bd
       -0.20759916 -0.023069032 0.0860299 -0.10629275
000240 0a 5e 0e bc b9 94 80 bc 83 8f bc 3d 84 2c 6e 3c
       -0.008689413 -0.015695916 0.0920706 0.014536981
000250 5d 3a f4 bc 18 c7 27 be d8 c0 b4 3c 08 ea c6 3d
       -0.029812986 -0.16384542 0.022064611 0.09712607
000260 96 d0 c2 bd a0 bf 11 bd 2e c3 1b 3e c4 23 11 3e
       -0.09512441 -0.03558314 0.15211174 0.141738
000270 06 95 a1 3d 97 43 a1 3d 82 8b 94 bd 3f 42 0b be
       0.07889752 0.0787422 -0.072531715 -0.1359949
000280 7b e9 1c 3e b0 4e 53 3d 35 2b 1e be 9c 01 1c 3c
       0.1532344 0.051588714 -0.1544617 0.009521868
000290 20 2a 14 3e e4 75 9a bd 64 fd 99 3d 3e b1 8a bd
       0.14469194 -0.07542017 0.075190336 -0.067720875
0002a0 56 9b f0 3d 2d 80 d3 bc 4c 34 fc bd 87 dd 37 be
       0.11748378 -0.025817955 -0.12314662 -0.179556
0002b0 0f 8c 22 bc c4 be eb 3c 92 ac f4 3d 03 8c d0 3c
       -0.009921088 0.028777488 0.11946978 0.025457388
0002c0 9c c3 a8 bd bb a4 f4 bb 66 e9 9e 3d 4b 5e 2c be
       -0.082404345 -0.0074659265 0.07759361 -0.16832845
0002d0 47 cf 14 be db 5f 60 3d be 94 80 3d 4d 98 16 be
       -0.14532195 0.054778915 0.0627837 -0.14706536
0002e0 01 78 0c 3e 21 bc 09 3d 28 27 28 bc 75 bc de 3d
       0.13717653 0.03362668 -0.010263242 0.10875789
0002f0 ad 37 ed bd 82 13 a2 3d dc f2 65 bd 91 21 4a be
       -0.11582885 0.07913877 -0.056139812 -0.19739367
000300 7f 86 2f 3d 92 23 58 3d 44 22 c7 3d 84 89 37 bd
       0.042852875 0.052768297 0.097233325 -0.04480888
000310 dd 8a 91 bd bb f9 62 3d d1 7c 21 3d 8e ed 39 be
       -0.07106564 0.055413943 0.039425675 -0.18157026
000320 fb 0e 6b bc 69 5d 23 be 91 c8 a8 bd 2e 94 af 3c
       -0.014346833 -0.15953602 -0.0824138 0.021432962
000330 fe 2a 96 3c 63 b2 12 3e 8a c9 80 bd bb 3a b7 bd
       0.018331047 0.14325862 -0.062884405 -0.08946749
000340 88 b0 92 bd 0d 91 c9 bd 9c 7f 95 3d 2f 0c 06 be
       -0.07162577 -0.09842119 0.0729973 -0.13090585
000350 00 24 08 3e 15 9c 12 be cf f6 71 3c 86 d2 03 3e
       0.13294983 -0.14317353 0.014768316 0.12873277
000360 33 2f e9 bd c4 a5 06 3c 03 cf a9 bd 7b 95 56 bd
       -0.11385956 0.008218233 -0.082914375 -0.05238865
000370 8f d7 f7 3d f4 6a 52 be 4c e5 bf 3d 38 08 9c bd
       0.121016614 -0.20548612 0.09369907 -0.07618755
000380 f5 e7 d4 bd 71 19 0e be 2f 55 20 bd 51 97 63 3d
       -0.10395805 -0.13876893 -0.039143737 0.05556423
000390 2d a9 5f 3d 3b a4 ae bd ab a8 56 bd c9 3c 79 3d
       0.054604698 -0.08527418 -0.052406948 0.060848985
0003a0 a2 fa 08 3e f9 cb 07 3e 30 ef fa 3a b5 b2 10 3e
       0.13376859 0.13261403 0.001914477 0.14130671
0003b0 7e b6 eb bd 16 ca 13 be f6 d8 3f 3d 44 c3 17 bc
       -0.11509417 -0.14432558 0.04683777 -0.009262864
0003c0 fb 44 17 be a5 b5 d7 3d 17 1f c6 bd ca c3 0b 3d
       -0.14772408 0.10532693 -0.09673899 0.034122266
0003d0 cd f0 dc bd 1e 3b 48 bb 68 80 34 be 86 42 f1 bb
       -0.107881166 -0.0030552815 -0.17627108 -0.0073626665
0003e0 d9 14 47 be 2f c6 26 be af 06 18 bd c4 6e e3 bb
       -0.19441546 -0.16286539 -0.03711575 -0.0069406945
0003f0 e8 55 67 bd 9e cb 34 be e0 b0 07 3e 02 fb 1a 3e
       -0.05647841 -0.17655799 0.13251066 0.15134814

conv1.5.weight f4 [420]
000000 2e 38 76 3f 72 a1 79 3f 89 81 74 3f 4d 6b 7a 3f
       0.96179473 0.9751197 0.95510155 0.9781998
000010 61 a8 78 3f 10 db 77 3f 61 17 77 3f 90 0a 74 3f
       0.97131926 0.9681864 0.9652005 0.9532862
000020 54 83 76 3f 12 db 71 3f ac eb 77 3f 34 b5 7f 3f
       0.9629414 0.944749 0.9684398 0.9988587
000030 93 3d 77 3f 2f 7d 70 3f 40 72 7f 3f e5 3e 75 3f
       0.9657833 0.93941015 0.99783707 0.95799094
000040 f1 2b 78 3f 81 b2 78 3f b8 7f 79 3f 13 df 7a 3f
       0.9694205 0.97147375 0.9746051 0.97996634
000050 2a 3d 75 3f a6 b9 76 3f 78 83 7b 3f ba 9d 76 3f
       0.95796454 0.9637703 0.9824748 0.9633442
000060 97 c1 72 3f 63 83 76 3f b4 f7 74 3f 29 60 7d 3f
       0.94826645 0.9629423 0.95690465 0.98974854
000070 73 b2 78 3f 4e 5c 7b 3f 66 3b 75 3f 27 ed 79 3f
       0.9714729 0.9818772 0.9579376 0.9762749
000080 f2 e4 7e 3f c0 1b 76 3f 78 36 7a 3f 79 c6 78 3f
       0.9956809 0.96136093 0.9773936 0.97177845
000090 d9 6c 76 3f 39 9c 7b 3f 07 86 80 3f 05 de 75 3f
       0.9625984 0.9828525 1.0040902 0.960419
0000a0 13 6e 78 3f cf 7c 79 3f 14 6f 78 3f cc 97 78 3f
       0.9704296 0.9745607 0.9704449 0.97106624
0000b0 b2 cc 7a 3f 71 58 73 3f 7b 03 74 3f fb a2 76 3f
       0.9796859 0.95056826 0.9531781 0.9634244
0000c0 ca 29 7a 3f 87 ec 7a 3f 1b 4e 7d 3f 8c ae 7f 3f
       0.97720015 0.9801716 0.98947304 0.9987571
0000d0 03 58 76 3f 67 a5 76 3f 9e 71 7b 3f 55 2f 76 3f
       0.96228045 0.96346134 0.9822024 0.9616597
0000e0 d2 21 78 3f c1 a6 77 3f 78 b9 76 3f 0f e4 7d 3f
       0.96926606 0.9673882 0.9637675 0.99176115
0000f0 b2 65 75 3f 2a 79 77 3f cf 41 7b 3f db b2 72 3f
       0.958583 0.96669257 0.9814729 0.9480416
000100 78 bd 71 3f a3 0b 79 3f b8 47 73 3f 45 f0 77 3f
       0.9442973 0.9728338 0.9503131 0.96851
000110 ad 46 73 3f 79 45 78 3f b2 49 71 3f 7f cc 75 3f
       0.9502972 0.96981007 0.94253075 0.9601516
000120 ee 3a 71 3f 70 ef 7d 3f 92 78 77 3f cf ac 78 3f
       0.94230545 0.9919348 0.9666835 0.97138685
000130 9d 34 7b 3f c5 1d 76 3f 81 a9 7a 3f 65 c7 6f 3f
       0.98127156 0.96139175 0.9791489 0.93663627
000140 b3 73 78 3f 49 d4 79 3f 3b ce 7e 3f 7a db 74 3f
       0.97051543 0.97589546 0.9953343 0.95647395
000150 57 13 7d 3f 73 6a 78 3f a0 59 76 3f cd 2e 7a 3f
       0.98857635 0.9703743 0.96230507 0.9772766
000160 fb 47 73 3f ae 3f 73 3f f5 a9 75 3f 85 26 78 3f
       0.9503171 0.9501904 0.9596246 0.96933776
000170 9d fe 7a 3f de 02 76 3f ae 39 76 3f 7e 75 74 3f
       0.9804476 0.96098125 0.9618176 0.9549178
000180 2a af 75 3f b4 63 78 3f e1 2f 79 3f c1 25 79 3f
       0.95970404 0.97027135 0.9733868 0.9732323
000190 b6 4a 76 3f a2 d2 75 3f 34 c2 77 3f b2 f3 7b 3f
       0.9620775 0.96024525 0.96780705 0.98418725
0001a0 3f 19 77 3f 89 ca 78 3f 65 f1 7c 3f dc 0c 75 3f
       0.965229 0.97184044 0.9880584 0.95722747
0001b0 3b c2 79 3f d1 38 7d 3f e0 e5 76 3f 1d e6 6f 3f
       0.97562 0.9891482 0.9644451 0.937105
0001c0 58 94 73 3f 1d d6 75 3f a0 70 7d 3f 83 c1 79 3f
       0.9514823 0.96029836 0.9899998 0.975609
0001d0 b5 09 7b 3f 65 10 74 3f 7f dd 77 3f 6a 82 7c 3f
       0.98061687 0.95337516 0.9682235 0.98636496
0001e0 ce 74 74 3f d1 dc 72 3f 99 93 75 3f 07 2e 72 3f
       0.9549073 0.9486819 0.9592834 0.9460148
0001f0 eb 51 7c 3f 4d 86 7d 3f 8c ac 7a 3f 6b 86 73 3f
       0.98562497 0.9903305 0.97919536 0.9512698
000200 13 48 7b 3f f4 0e 7d 3f 73 97 78 3f e8 5f 78 3f
       0.9815685 0.9885094 0.97106093 0.9702134
000210 09 2d 7a 3f dd 49 7a 3f 94 2f 73 3f c7 43 77 3f
       0.9772497 0.97768956 0.94994473 0.96587795
000220 91 14 73 3f 2f 13 77 3f 41 1b 70 3f bc a4 76 3f
       0.94953257 0.96513647 0.93791586 0.96345115
000230 23 e4 77 3f 1e 92 74 3f 20 38 75 3f b1 2a 77 3f
       0.96832484 0.9553546 0.95788765 0.96549517
000240 7b d8 71 3f 53 3b 7b 3f 15 bb 7c 3f 20 d3 7d 3f
       0.9447095 0.98137397 0.98722965 0.99150276
000250 1e 98 78 3f 62 26 7c 3f 9e 32 80 3f e3 a9 7a 3f
       0.9710711 0.9849607 1.0015447 0.97915477
000260 55 b6 78 3f cd ce 7b 3f 6e 52 79 3f 6f 07 80 3f
       0.97153217 0.9836243 0.973914 1.0002269
000270 3d fb 79 3f 88 bf 76 3f 6a 01 73 3f 32 40 7b 3f
       0.97648984 0.96386003 0.9492403 0.9814483
000280 be 82 76 3f c0 e3 71 3f b6 9e 75 3f b6 64 75 3f
       0.96293247 0.94488144 0.959453 0.958568
000290 6b dc 73 3f 20 94 77 3f 30 fc 74 3f 11 34 74 3f
       0.95258206 0.96710396 0.9569731 0.9539195
0002a0 68 32 7d 3f a9 8f 77 3f 64 7b 77 3f 7d 58 76 3f
       0.9890504 0.96703583 0.96672654 0.9622877
0002b0 bb 37 71 3f 17 ab 75 3f dc 32 7b 3f 81 f4 6e 3f
       0.9422566 0.9596419 0.9812448 0.93341833
0002c0 0a 8b 79 3f 71 cc 78 3f bd bd 7b 3f 7f ed 78 3f
       0.9747778 0.9718695 0.9833639 0.9723739
0002d0 ea b2 78 3f b7 fe 79 3f d0 6e 73 3f f4 67 76 3f
       0.97148 0.9765429 0.9509096 0.9625237
0002e0 bf 01 74 3f 33 cc 7b 3f a5 a9 78 3f f1 dd 78 3f
       0.95315164 0.9835846 0.97133857 0.97213656
0002f0 bf 90 79 3f 85 3e 78 3f cc 7a 7b 3f 56 5e 75 3f
       0.9748649 0.969704 0.9823425 0.9584707
000300 b9 9f 7a 3f 0b d0 78 3f 97 7e 74 3f 9b 28 7a 3f
       0.9789997 0.9719245 0.9550566 0.9771821
000310 22 fa 76 3f 13 cc 74 3f 09 de 7a 3f dc 88 7a 3f
       0.9647542 0.9562389 0.9799505 0.9786508
000320 14 ff 76 3f 92 4f 75 3f 0f db 7a 3f 4f c5 79 3f
       0.9648297 0.9582454 0.97990507 0.97566694
000330 fa 3d 74 3f 8b 3b 7a 3f 96 61 78 3f 26 82 75 3f
       0.9540707 0.97747105 0.97023904 0.95901716
000340 fd 31 77 3f ec 0f 77 3f a4 10 79 3f e2 ae 79 3f
       0.9656065 0.9650867 0.97291017 0.97532475
000350 fe 38 7a 3f 9d a0 7a 3f af b1 7a 3f 54 44 7c 3f
       0.97743213 0.97901326 0.97927374 0.9854176
000360 34 c1 73 3f 5c 2e 77 3f 0c c7 7a 3f 5f 00 78 3f
       0.9521668 0.96555114 0.9795997 0.96875566
000370 b6 46 79 3f 16 e0 73 3f b9 0f 74 3f 6f 91 78 3f
       0.9737352 0.95263803 0.9533649 0.97096914
000380 29 68 74 3f 7c 28 78 3f 88 2f 78 3f d3 02 75 3f
       0.95471436 0.96936774 0.96947527 0.95707434
000390 bb 90 71 3f c9 fd 72 3f 76 06 81 3f e9 da 73 3f
       0.94361466 0.94918495 1.0080097 0.95255905
0003a0 c5 e1 79 3f 16 0a 7c 3f e3 8a 77 3f 48 3b 73 3f
       0.9761012 0.9845289 0.966963 0.9501233
0003b0 43 46 7a 3f 5c 06 76 3f 35 4a 78 3f 1d f6 71 3f
       0.9776346 0.96103454 0.9698823 0.94516164
0003c0 49 04 7c 3f 29 6c 77 3f 22 e1 7b 3f 34 cd 79 3f
       0.9844404 0.96649414 0.983904 0.9757874
0003d0 5e 95 77 3f 82 16 71 3f 89 92 7a 3f c5 4d 7d 3f
       0.9671229 0.9417497 0.97879845 0.9894679
0003e0 33 2c 75 3f 01 07 77 3f 53 7f 76 3f 90 15 74 3f
       0.9577057 0.9649506 0.9628803 0.953454
0003f0 81 78 75 3f b2 71 77 3f 12 07 73 3f 80 e2 78 3f
       0.95887 0.9665786 0.94932663 0.9722061

conv1.5.bias f4 [420]
000000 c4 df 9f bc cb e9 cb 3b c5 dc 8b bc ab 69 d0 bb
       -0.01951588 0.0062229387 -0.017073045 -0.006360253
000010 0b 28 86 bc 1b 69 a7 bc bd 95 ec bb d6 14 9f bc
       -0.016376516 -0.02043586 -0.0072199986 -0.019419115
000020 f8 b6 51 bc c0 60 01 bd 72 5a 10 bc 9a 40 10 bd
       -0.012799971 -0.03158641 -0.008810626 -0.03521786
000030 ac d0 59 bc 0f 6d 1c bd 23 34 cc bb a1 dd 92 bc
       -0.01329438 -0.038189944 -0.006231801 -0.017927947
000040 0b bb 73 bc f7 1e 75 bc 81 1a 8e bb 71 6e e1 bb
       -0.0148761375 -0.014960996 -0.0043366556 -0.0068796207
000050 38 20 af bc b8 ec 3b bc cc 05 af bb 2f 26 43 bd
       -0.021377668 -0.011470012 -0.005341267 -0.047643837
000060 f5 fe da bc 48 3b 85 bc 2e 11 d9 bc eb 6d c4 bb
       -0.026732901 -0.016263619 -0.02649745 -0.0059945486
000070 e5 56 8a bc ad da 2a bc 59 58 8e bc dc 5b 29 bc
       -0.016887138 -0.010428113 -0.017376112 -0.010336842
000080 b1 a4 c3 ba bb 1f 71 bc 9e ab 7a bc b2 81 4b bc
       -0.0014926401 -0.014717038 -0.015299706 -0.0124210585
000090 d2 c7 38 bc b0 0f 49 3c c1 b5 24 bb 11 2c 95 bc
       -0.01127811 0.012271807 -0.0025132748 -0.018209489
0000a0 e3 3f 14 bc 40 79 37 bc c5 8e d4 bc ee 9f 96 3a
       -0.009048435 -0.011198342 -0.025946984 0.0011491755
0000b0 9c d9 95 bc 08 39 ff bc a2 27 c0 bc 67 47 3a bc
       -0.01829224 -0.031155124 -0.023456398 -0.011369563
0000c0 31 b7 50 bc 5c d1 10 bc fb 9a 54 bc 08 e9 23 bc
       -0.012738989 -0.008838978 -0.012976403 -0.010004289
0000d0 1f ac 7f bc a1 b6 d5 bb dc 27 81 bb 79 af 8f bc
       -0.015605002 -0.006522015 -0.003941519 -0.017539727
0000e0 4a c5 31 bc 6c 85 ed bb 98 19 4d bc d8 da bb bb
       -0.01085026 -0.007248571 -0.012518309 -0.0057328753
0000f0 e2 8f d6 bc bb 44 29 bc 16 40 2c 3c f9 2c 9a bc
       -0.026191656 -0.010331328 0.010513326 -0.018820273
000100 a9 02 17 bd 67 79 a4 ba 45 f4 4c bc 63 17 37 bc
       -0.03686777 -0.0012548388 -0.01250941 -0.011175009
000110 1d fd 09 bd 0d e8 84 bc 50 71 1a bd c3 99 80 bc
       -0.033688653 -0.016223932 -0.03770572 -0.01569832
000120 18 c8 2b bd 97 96 76 bb 6d 5e 3a bc 1f c5 7b bb
       -0.04193887 -0.003762638 -0.011375052 -0.0038417054
000130 d3 36 16 bc ec 0d 04 bc 3b 41 71 bc 1c 58 26 bd
       -0.009168345 -0.00805996 -0.014725025 -0.04061137
000140 1a 0a 70 bb 37 67 c6 bb a1 cc d4 bb 7c f9 3f bc
       -0.0036627115 -0.0060547846 -0.00649412 -0.011717197
000150 65 59 bd bb 0d fb 8d bc 4e 60 3b bc b8 0f 00 bc
       -0.005778479 -0.017331624 -0.011436535 -0.007816248
000160 97 43 8c bc d6 5f 28 bd 76 d9 5a bc 7e b8 17 bc
       -0.017122073 -0.04110702 -0.013357511 -0.009260295
000170 16 cb 98 3b 85 18 b8 bc 11 4a 24 bc b4 dd b8 bc
       0.0046628816 -0.02247263 -0.010027424 -0.022566654
000180 40 bd 73 bc f5 3e 88 bb 57 00 07 bc a2 d7 d2 bc
       -0.014876664 -0.0041578957 -0.008239827 -0.025737587
000190 82 4d 07 bc a3 7f 80 bc d3 3b 03 bc 88 56 83 bc
       -0.008258225 -0.015685862 -0.008009869 -0.016032472
0001a0 d2 15 33 bc 70 b1 52 bc dd 5f 29 bc fd 28 5d bc
       -0.010930495 -0.012859687 -0.010337797 -0.013498542
0001b0 c8 15 00 ba 8a 6d 2e bc 10 2b 83 bc 70 60 45 bd
       -0.0004886058 -0.010646233 -0.016011745 -0.048187673
0001c0 75 de 10 bc 6d a3 a9 bc 5d db 77 bc f2 c4 47 bb
       -0.0088421 -0.02070781 -0.015127984 -0.0030482379
0001d0 2d 4d 4d bc 05 c0 a1 bc 10 06 30 bc ff 17 b1 bb
       -0.012530607 -0.019744882 -0.010743633 -0.005404472
0001e0 92 06 c8 bc 0e 05 f4 bc b5 54 b6 bc 33 b5 b3 bc
       -0.024417195 -0.029787567 -0.022257188 -0.021936988
0001f0 ae 2a aa bb 77 38 96 bc ee 4b b3 bb d9 58 89 bc
       -0.005193076 -0.018337471 -0.005471698 -0.016765999
000200 58 ae e5 bb bf ef 45 bb 8f bf 3c bc 19 6a 09 bc
       -0.007009309 -0.0030202714 -0.0115202805 -0.008387112
000210 62 cd 51 bc 02 2c a7 bb 33 64 28 bd ef 6e 35 bc
       -0.012805315 -0.0051016817 -0.041111182 -0.011073812
000220 09 80 df bc 6a e1 7e bc d9 65 29 bd 06 8a 4c bc
       -0.027282732 -0.015556673 -0.041356895 -0.012484079
000230 5b 59 09 bd 89 7d 08 bd 71 0c c6 bc bb 48 1f bc
       -0.03353248 -0.033322845 -0.024175854 -0.00972193
000240 53 fe 15 bd 20 cd ef bb 1d 9f 1c bc 83 f7 bf bb
       -0.036619496 -0.007318154 -0.00955942 -0.005858363
000250 15 17 21 bc e7 39 a7 bb 0d b4 40 bb cd 93 07 bc
       -0.009832163 -0.005103338 -0.0029404194 -0.008274985
000260 47 d4 1a bc ce 08 c4 bb d4 62 00 bc 6f 8f bf bb
       -0.009450025 -0.005982495 -0.007836062 -0.005845956
000270 49 d1 0d bc bc 5c ab bc c3 d7 b9 bc 6a be 13 bb
       -0.0086558545 -0.020918243 -0.022685891 -0.0022543916
000280 56 5f 56 bc 76 85 02 bd e7 31 83 bc 04 84 ad bc
       -0.013084253 -0.03186556 -0.016015006 -0.021181114
000290 4c fd 79 bc 70 31 44 bc e5 20 6b bc 41 c4 a7 bc
       -0.015258145 -0.011974677 -0.014351104 -0.020479323
0002a0 29 33 26 bc f2 1a a8 bc 6e 8e 4c bc 52 36 24 bd
       -0.0101440335 -0.020520661 -0.01248513 -0.040090866
0002b0 7a 4b 1d bd 46 e7 8c bc 4d 14 30 bc 0b 67 62 bd
       -0.03840206 -0.017200124 -0.010747028 -0.05527405
0002c0 91 8e 00 bc 91 f2 4e bb 3a ab 1e bb a2 ed 94 bb
       -0.0078464905 -0.0031577686 -0.0024210946 -0.0045449296
0002d0 2c 01 13 bc c7 ae 7d bb c2 21 c0 bc 90 df 8c bc
       -0.008972447 -0.0038708912 -0.023453597 -0.017196447
0002e0 93 8b 49 bc 92 79 35 bb d1 68 87 bc 87 d8 b2 bc
       -0.0123013435 -0.002769087 -0.016529473 -0.021831764
0002f0 24 c4 92 bc d3 89 35 bc 9f 47 9c bb 0f 0b 1e bd
       -0.017915793 -0.011080223 -0.00476928 -0.038584765
000300 05 31 07 bc 6e e8 d3 bb e4 a1 92 bc 49 ab 0b bc
       -0.008251433 -0.0064669168 -0.017899461 -0.008524724
000310 da 04 a7 bb 47 ee 43 bc 8d 48 d7 bb 82 17 c0 bb
       -0.005097014 -0.011958665 -0.006569928 -0.0058621773
000320 2d 72 09 bc 4a 71 23 bc dd f0 5d bc 9f 9d 29 bb
       -0.008389038 -0.009975741 -0.013546196 -0.0025881303
000330 56 64 8f bc 71 5b 99 bc 5a f4 02 bc 21 90 6c bc
       -0.017503899 -0.01872036 -0.007992828 -0.01443866
000340 4e 25 5c bc a9 39 65 bc 97 28 34 bc c9 cf ff bb
       -0.0134366285 -0.013990798 -0.0109960055 -0.0078067523
000350 9f e4 ad bb db d7 b8 bb 5d d2 1d 3b 4d 2a da bb
       -0.005306795 -0.0056409664 0.0024081685 -0.0066578747
000360 97 44 d6 bc de ab 20 bc ae 57 ce bb 7f a9 06 bc
       -0.026155753 -0.009806601 -0.0062970733 -0.008219122
000370 62 4b 8d bb c1 4a e0 bc 6a 83 9a bc 10 eb 6e bc
       -0.004311965 -0.027379395 -0.018861491 -0.01458241
000380 08 52 95 bc 4a 90 96 bc b2 da f8 bb 9d 08 c5 bc
       -0.018227592 -0.01837935 -0.00759443 -0.024051959
000390 71 6d 08 bd 01 3c b5 bc a6 07 0e bb d4 81 67 bb
       -0.033307496 -0.022123339 -0.002167204 -0.0035325186
0003a0 f1 09 2a bc d4 4a be bb 05 81 03 bc b9 25 0a bc
       -0.010378347 -0.00580726 -0.008026366 -0.008431845
0003b0 2c 33 9f bb a7 72 46 bc f9 f8 52 bc 08 ca 0d bd
       -0.004858395 -0.012112296 -0.0128767425 -0.0346165
0003c0 1b be b1 38 9a 48 3a bc 80 25 43 bb 71 80 8c bc
       8.4754276e-05 -0.011369849 -0.002977699 -0.01715109
0003d0 2f c2 7c bc 17 50 13 bd 40 7c 37 bc b8 9c 0d bc
       -0.015427156 -0.03596505 -0.011199057 -0.008643322
0003e0 4c 8a d1 bc 4e 66 58 bc e1 59 63 bc 38 20 ac bc
       -0.02557864 -0.013207985 -0.013876409 -0.021011457
0003f0 d2 aa 96 bc 68 ba b1 bc 5e 42 ea bc 7f f2 14 bc
       -0.018392 -0.02169533 -0.0285961 -0.009091019

conv1.5.running_mean f4 [420]
000000 b3 54 16 3e 9a 82 98 3e 6d 00 7a bd d1 79 4e 3e
       0.14680748 0.2978714 -0.061035562 0.20163657
000010 40 87 72 be bd de 04 3c cc 72 f3 bd 57 e7 d7 bb
       -0.23684406 0.008109746 -0.1188713 -0.006588857
000020 6f d3 12 3e f8 f2 1a be 07 c8 72 3b e7 c5 1e 3e
       0.14338468 -0.15131748 0.0037045495 0.15505181
000030 c7 25 90 bb cd 21 fa 3c f4 03 34 bd 69 40 a6 3a
       -0.0043990347 0.030533696 -0.043949082 0.0012683991
000040 22 05 39 bd 9d 39 b2 bc e2 05 86 be 8f 4f 0c 3e
       -0.04517091 -0.021755988 -0.26176363 0.13702224
000050 93 b7 b5 bd 82 b7 45 be 1e 92 0c 3e 25 15 8f be
       -0.08872905 -0.19308284 0.13727614 -0.2794582
000060 c7 64 06 bf 63 f1 d5 be 55 bb ea 3e 3d 4e ec 3e
       -0.52497524 -0.41785726 0.45846048 0.4615344
000070 b3 da 3d be bf 2d 52 be 9c 4d 2a be 8d 82 a7 be
       -0.18540458 -0.20525263 -0.16631168 -0.3271679
000080 e6 a3 2c be 15 67 11 be b1 f7 d2 3d ef 25 92 3c
       -0.16859397 -0.14199479 0.1030115 0.017840354
000090 24 14 59 3e e7 c8 0f 3f f1 6d 79 bd bd f5 ad bc
       0.2119909 0.5616593 -0.060895864 -0.021235341
0000a0 ec 63 ae bd e4 9d 24 3e 38 ea e6 3d 34 08 84 3e
       -0.08515152 0.16075855 0.112751424 0.25787508
0000b0 18 7d 4c be 07 6d 38 3f 2e a4 e1 be b7 24 7c 3b
       -0.19969594 0.7204136 -0.44070572 0.0038474032
0000c0 61 51 0a bf 83 8f 8e 3e eb 14 46 3c 25 18 6f 3e
       -0.54030424 0.27843866 0.012089948 0.23349054
0000d0 86 50 1c 3e f4 4b c2 bd 78 90 d3 3d d5 0c df bc
       0.15265092 -0.09487143 0.103302896 -0.027227798
0000e0 b2 54 55 be f5 3a 9f be 5c 91 10 bf 08 1e ca 3d
       -0.2083309 -0.31099668 -0.564718 0.09869009
0000f0 13 fd 33 be aa 1f d8 3d 47 0b b0 3d 66 cd 6f 3e
       -0.17577009 0.105529144 0.08595901 0.23418197
000100 e0 17 a4 3d 8f 82 36 3e 33 08 f3 3c 31 5e 5c 3c
       0.08012366 0.17823242 0.029666996 0.013450191
000110 50 1a a0 be b3 13 b6 be f7 10 b3 bd 7e 75 97 be
       -0.31270075 -0.35561904 -0.0874347 -0.29581827
000120 ce 5a d6 be da 6a 25 be d0 8f 2e 3f 6c 82 de be
       -0.41866153 -0.16154042 0.6818819 -0.4345888
000130 34 eb 34 3d f3 87 8a 3c 99 8c ee be 04 db 42 3e
       0.04416962 0.016910529 -0.46591642 0.1902886
000140 2e e2 a4 bc c7 3e 93 3e 99 19 d7 3e c6 68 69 3e
       -0.020127382 0.28758833 0.42011717 0.22793874
000150 a2 04 99 3d 33 f8 2d 3e ab cf a6 3e 44 da 66 3e
       0.07471587 0.16989212 0.32580313 0.22544199
000160 68 0e 91 be c9 c7 80 be e5 f5 a1 3e 57 94 bd 3e
       -0.28331304 -0.25152424 0.31632915 0.37027237
000170 c5 34 07 3e a8 d2 93 3b f0 27 41 be 17 8b 9b bc
       0.13203724 0.004511196 -0.18862891 -0.018987222
000180 e1 84 18 be 7e 3c a5 3e fc 09 4c 3d 9e be c3 bd
       -0.1489444 0.32272714 0.04981421 -0.09557842
000190 e6 8d 40 3e a7 b5 19 3d a1 8d c8 be 7e 3d 0a bd
       0.1880413 0.037526753 -0.39170554 -0.03375005
0001a0 b6 53 ba 3d 0a f9 ca 3e 59 34 98 be fc cf f7 3c
       0.09097998 0.39643127 -0.29727438 0.030250542
0001b0 3a 40 e7 3e 0e e3 b6 bc 26 e9 1c 3e ac ed a5 3e
       0.45166188 -0.022325065 0.15323314 0.32407892
0001c0 3e 98 9c 3e 7a 71 85 3d c6 ad 2d 3c de c5 c0 3d
       0.30584902 0.065157846 0.010600513 0.0941274
0001d0 94 fb 45 be 7c 91 c5 3b f5 a3 c6 bd 8b a9 c9 3e
       -0.1933425 0.006029306 -0.09699241 0.39387164
0001e0 7f 41 b0 3e 54 86 34 3e ae 46 2e 3e 13 ef 7f 3e
       0.3442497 0.17629367 0.1701915 0.24993543
0001f0 c1 67 5f 3e 11 66 9e be fd 7c 12 3d 19 dd 2f bd
       0.21816923 -0.30937245 0.03576373 -0.042935465
000200 9c 50 5d be 28 33 08 3f a8 a2 59 3d 54 9c 42 bd
       -0.21612781 0.5320306 0.053133637 -0.047512367
000210 87 57 71 bd 9a a2 b5 3d 14 eb 84 be 39 d3 b3 bc
       -0.058921363 0.088689044 -0.259606 -0.021951305
000220 40 16 2e be 48 2e 5d 3d af 8d d0 3e b7 dd 98 3e
       -0.17000675 0.053999215 0.40733096 0.29856655
000230 23 88 4d be 26 38 d0 3c 74 10 26 3d e5 ca 00 39
       -0.20071463 0.025417399 0.040543035 0.00012282615
000240 39 1f ae be 9d c0 2c be a7 e7 a1 bd 90 ec 23 3d
       -0.34008196 -0.16870351 -0.07905512 0.040020525
000250 a0 27 c5 bd 75 14 25 bf 1c a1 1f be 55 f0 d2 3e
       -0.096266985 -0.6448434 -0.15588802 0.41198984
000260 11 1a a6 be 43 24 d4 bc d7 16 33 3e 68 ef 10 3f
       -0.32441762 -0.025896197 0.17489181 0.56615305
000270 4c 0e ee 3e 12 af 8d 3d 9f d8 b5 bd 8a 75 82 3d
       0.46495283 0.06918158 -0.08879208 0.06370075
000280 b2 22 35 3e 14 e1 00 be 7c 79 56 be 36 71 10 be
       0.17689016 -0.1258586 -0.2094478 -0.14105687
000290 c6 6b 84 3e 9a d5 d0 be 6f 82 23 3e c9 e6 42 3e
       0.25863475 -0.40787965 0.15967725 0.1903335
0002a0 c9 31 a9 3e e4 49 94 bd 3a 81 00 3e 81 3e 01 bf
       0.33045796 -0.07240656 0.12549296 -0.50486
0002b0 9c e1 3b 3e ff 1e 85 3e 43 82 af 3e c3 e4 9c be
       0.18347782 0.2600021 0.3427907 -0.3064328
0002c0 22 04 62 be 44 46 22 3e 7c 11 50 3e 0d 12 03 3e
       -0.22071889 0.15847117 0.2031917 0.12799855
0002d0 4f d5 7c be e7 3c 67 3e e2 40 b2 3c 13 68 a4 bd
       -0.24690746 0.22581826 0.021759454 -0.08027663
0002e0 55 5d fa 3e f3 ae da bd 0a 77 a5 3e 2f 87 72 bd
       0.48899332 -0.106779 0.32317382 -0.059210952
0002f0 ce b3 01 bf fb fb ff 3e be ef 54 be 97 ff 04 3e
       -0.50664985 0.49996933 -0.2079458 0.12988125
000300 5b bb b7 3b 8b ce 04 be 1b 9d 07 3e 82 4b 1d 3e
       0.0056070513 -0.12969415 0.13243525 0.15360835
000310 03 52 7b be 40 bb ae 3e 77 b6 44 be ab 42 8e be
       -0.24543004 0.34127235 -0.1921023 -0.2778524
000320 7a 7c 71 bd 35 3d 6f be 48 d6 56 be 19 7e 5f 3e
       -0.0589566 -0.23363192 -0.2098018 0.21825446
000330 2c 92 17 be 23 bb 3b be dc b8 0e bd f1 c9 33 be
       -0.14801854 -0.18333106 -0.034844264 -0.17557503
000340 9e 77 a6 3e 11 52 ad be c5 ed b1 3e c3 88 36 3c
       0.32513136 -0.33851674 0.34751716 0.011141005
000350 42 fe 28 3e 90 f3 16 be 31 0a 3e bd 9e 55 82 3e
       0.16503242 -0.14741349 -0.046396438 0.25455946
000360 bb 46 cc be fb b4 88 3d 9e 1a 08 3e cb 95 67 bd
       -0.39897713 0.06675144 0.13291404 -0.056539338
000370 8f d1 83 3c e4 ca da bc 5d 9d 0b 3f 8f dc 97 be
       0.016091136 -0.026708074 0.5453699 -0.2966046
000380 52 17 64 3d 38 f3 5f 3d 5b 65 a7 3c b4 92 22 be
       0.055686302 0.05467531 0.020434072 -0.15876275
000390 16 01 4e 3d af db c5 3d 9d 02 c0 3d 3e 46 6c 3e
       0.050294004 0.09661042 0.093754984 0.2307367
0003a0 ec bf 91 3a cf 45 ea 3e 46 2a 04 bf 5b 3c 7d 3e
       0.0011119819 0.45756385 -0.51627004 0.24730055
0003b0 53 25 8f be a1 25 85 3c dc 93 06 3e 51 a5 2a bd
       -0.27958164 0.016253294 0.13142341 -0.041661564
0003c0 a1 ac 95 bc ec 12 e8 3e c9 ba 06 3f ff 51 18 3e
       -0.018270792 0.45326936 0.5262876 0.14875029
0003d0 82 8a 53 be a3 c1 31 bd 33 43 d5 be 73 cc f8 be
       -0.20658305 -0.043397557 -0.4165283 -0.48593482
0003e0 64 7e 01 be 01 36 0b bf f6 91 04 3f dd 91 48 be
       -0.1264587 -0.5437928 0.5178522 -0.19586892
0003f0 95 a0 4a bd da 6d ce be 5f f5 b8 3e d8 97 03 3e
       -0.04946955 -0.40318185 0.36124703 0.12850893

conv1.5.running_var f4 [420]
000000 c1 39 01 3e ed af c3 3e 62 88 2f 3e b8 b5 0e 3e
       0.12619688 0.38220158 0.1714187 0.13936508
000010 5d 17 47 3e 02 3e 33 3e 71 72 0c 3e 93 52 1a 3e
       0.19442506 0.17504123 0.13715531 0.15070562
000020 69 4b 38 3e 48 cc 2f 3e fe c6 2a 3e dd 95 35 3e
       0.17997517 0.17167771 0.16677472 0.1773295
000030 5e 1c 0c 3e 6b 6b 14 3e 0f 28 20 3e ba 0b 96 3e
       0.13682696 0.14494102 0.15640281 0.29305822
000040 be 7c 82 3e b6 ec 1a 3e 21 05 b1 3e 88 fe 45 3e
       0.25485796 0.1512936 0.34574226 0.19335377
000050 e2 11 08 3e f0 c0 f5 3d ca 0f 29 3e db 91 31 3e
       0.13288072 0.119996905 0.1650993 0.17340796
000060 3c fa 5a 3e 55 4c 46 3e 33 31 8e 3e 47 0c 1a 3e
       0.2138452 0.19365056 0.2777191 0.15043746
000070 87 ec 85 3e d7 8c c2 3e a7 57 03 3e 5f fa 52 3e
       0.2615702 0.37998077 0.12826405 0.20603321
000080 5b 9e d9 3e aa 16 ae 3e d3 f9 1e 3e 83 15 fa 3d
       0.42503628 0.34001666 0.15524988 0.12211134
000090 5b fc 1b 3e 90 2d 47 3e 8b 36 1b 3e ff 5a 06 3e
       0.15232985 0.19450974 0.15157525 0.1312065
0000a0 9e b3 42 3e 09 d2 5b 3e e9 1e e6 3d 53 b2 9a 3e
       0.19013831 0.21466841 0.112363644 0.30214176
0000b0 95 fd 09 3e 07 5d 61 3e 98 79 ca 3e d1 d8 54 3e
       0.1347564 0.22008143 0.39545894 0.20785834
0000c0 46 93 7b 3e 91 4c 1b 3e f5 5a 1d 3f 3e 8f a9 3d
       0.24567899 0.15165927 0.61466914 0.082792744
0000d0 2a 7d 2c 3e 31 ae 0a 3e 36 d8 85 3e 93 ef a6 3d
       0.16844621 0.13543011 0.26141518 0.08151164
0000e0 0a 89 0f 3e e5 87 41 3e c4 46 b4 3e 8d 65 0a 3e
       0.1401712 0.18899496 0.3521024 0.13515301
0000f0 38 cb ad 3e ac c4 93 3e 18 0f ae 3e 07 0c 8c 3e
       0.33944106 0.28860986 0.3399589 0.27352926
000100 0c c1 42 3e d9 3b 47 3e 92 2c 42 3e 98 7e 0e 3e
       0.19018954 0.19456424 0.18962315 0.13915479
000110 70 ae 15 3e 12 62 02 3e 14 3b 32 3e 80 0f 5c 3e
       0.14617324 0.12732723 0.17405349 0.21490288
000120 85 d3 a6 3e e8 52 1d 3e dd 1e 55 3e 95 a0 4a 3e
       0.32583252 0.15363657 0.20812555 0.1978782
000130 a2 ff 1e 3e 85 ba 26 3e c5 d1 fd 3d f8 25 be 3e
       0.15527204 0.16282089 0.12393526 0.37138343
000140 85 c6 27 3e a0 ec e1 3d ca 6a 16 3e c2 b8 fc 3d
       0.16384323 0.11031461 0.14689174 0.12339927
000150 dc 4f 32 3e ee 01 12 3e 52 2a c4 3e 27 07 7e 3e
       0.17413276 0.14258549 0.38313538 0.24807416
000160 1e 50 1d 3e 53 b4 f5 3d f3 f5 56 3e 4e 06 54 3e
       0.15362594 0.11997285 0.2099226 0.2070553
000170 bf 31 2d 3e 38 66 0a 3e 8c b7 38 3e 06 69 36 3e
       0.16913508 0.13515556 0.18038768 0.17813501
000180 01 df a8 3e e1 75 9a 3e 01 c0 00 3e 79 d8 1a 3e
       0.32982638 0.3016806 0.12573244 0.1512164
000190 2a 48 2d 3e b4 7a 59 3e ef 62 36 3e cc 61 c0 3e
       0.1692206 0.21238214 0.17811178 0.37574613
0001a0 f5 0e 50 3e 6b 42 44 3e d7 17 1d 3e a1 18 80 3e
       0.20318206 0.19165961 0.15341125 0.2501879
0001b0 d0 d8 e1 3e 8d b1 f1 3d 9a 26 26 3e a0 c8 47 3e
       0.44110727 0.11801443 0.16225663 0.19510126
0001c0 71 84 8b 3e f6 8b 04 3e 9f 90 53 3e f5 f0 33 3e
       0.27249482 0.12944016 0.20660637 0.17572387
0001d0 c7 d5 3e 3e 76 51 8c 3e f7 3b 0d 3e 39 63 4f 3e
       0.18636237 0.274059 0.13792406 0.20252694
0001e0 1d a5 d5 3d 5f e3 26 3e 20 36 5f 3e 60 7a a0 3e
       0.104318835 0.16297673 0.21797991 0.31343365
0001f0 10 b8 b8 3d 95 63 21 3e 72 3f 80 3e 2d e0 c4 3e
       0.09019482 0.15760644 0.25048405 0.38452283
000200 43 d4 03 3e a8 62 5a 3e fe ae 1f 3e 65 f1 17 3e
       0.1287394 0.21326697 0.15594098 0.14838178
000210 2e d1 90 3e 1d 52 68 3e 7f db e0 3e a4 a3 51 3e
       0.2828459 0.22687574 0.43917462 0.2047258
000220 de c7 4d 3e 97 74 f1 3d 33 2c 77 3e d8 b5 26 3e
       0.20095775 0.11789816 0.24137954 0.16280305
000230 ea 24 65 3e a7 84 f5 3d a8 ac 6b 3e ab ca 1f 3e
       0.22377363 0.11988192 0.23015082 0.15604655
000240 57 0c 48 3e 11 b5 12 3e 1b 5b 9d 3e f9 18 29 3e
       0.19535957 0.14326884 0.3073357 0.16513433
000250 93 7d bf 3d 71 2a 4c 3e 60 31 da 3d e7 19 b1 3e
       0.09350123 0.19938065 0.10653949 0.34590074
000260 dc ef 80 3e 7d 19 3e 3e e2 c4 e2 3d a2 4b 15 3e
       0.25182998 0.1856441 0.11072709 0.14579633
000270 90 b8 19 3e ad 8d 05 3e b0 59 1e 3e 10 d1 67 3e
       0.15011811 0.13042326 0.154639 0.22638345
000280 5e dd 71 3e 28 00 a0 3e c3 5a c0 3d 22 d2 e9 3d
       0.23619601 0.3125012 0.093923114 0.11417033
000290 32 4f 8b 3e ca ba 18 3e 40 53 18 3e 18 55 3a 3e
       0.2720886 0.14915004 0.14875507 0.18196523
0002a0 a8 2a cb 3d f5 f4 c9 3d 59 95 81 3e 95 7b 61 3e
       0.099202454 0.09861175 0.25309256 0.22019799
0002b0 f0 16 19 3e 60 75 52 3e de 56 58 3e 74 11 3c 3e
       0.14950156 0.20552588 0.21126887 0.18366033
0002c0 67 e4 7b 3e 40 2b 87 3e 76 fc 57 3e c9 2c 11 3e
       0.24598847 0.26400185 0.210924 0.1417724
0002d0 24 87 15 3e ca 55 2c 3e 06 5e 67 3e 6d 07 2b 3e
       0.14602333 0.16829601 0.22594461 0.16702051
0002e0 55 87 8a 3e 1b a0 22 3e 38 29 25 3e 86 ae 89 3e
       0.27056375 0.15881388 0.16129005 0.26890963
0002f0 e6 04 17 3e 62 59 4b 3e 50 45 f7 3d 5b e3 3a 3e
       0.14747962 0.19858316 0.12073767 0.18250792
000300 e1 be 44 3e 9a 80 30 3e 3b 85 d5 3d 3f e6 05 3e
       0.1921344 0.17236558 0.10425802 0.13076113
000310 14 fb f6 3d 50 68 88 3e bb 8f 23 3e 71 37 10 3e
       0.12059608 0.26642084 0.15972798 0.14083649
000320 42 81 37 3e b6 f1 42 3e 64 57 27 3e f8 67 ac 3e
       0.17920402 0.19037518 0.1634193 0.33673072
000330 a2 db a8 3e 22 3e 10 3e e3 e5 2e 3e ac 8c 2b 3e
       0.32980067 0.14086202 0.17079882 0.16752881
000340 a5 79 57 3e 64 0b 39 3e 15 62 25 3e 64 ca 35 3e
       0.21042497 0.18070751 0.16150697 0.17752987
000350 d4 1c 0c 3e ba 76 0a 3e 6d 62 05 3e b3 96 f3 3d
       0.13682872 0.13521853 0.13025828 0.11893978
000360 bf 61 79 3e e5 74 0f 3e ed ec 4f 3e 35 9a eb 3d
       0.24353693 0.14009435 0.20305224 0.11504022
000370 90 f9 ff 3d 38 2e 28 3e 0c 16 7b 3e 97 1b 07 3e
       0.12498772 0.16423881 0.24520129 0.13194118
000380 3c 58 47 3e ef c2 b5 3e 5c 3c 17 3e 08 c4 0b 3e
       0.19467252 0.35500285 0.14769119 0.13648999
000390 0d d9 0f 3e b1 a9 3d 3e 84 1c 0b 3e 8b a4 6b 3e
       0.14047642 0.18521763 0.13585097 0.23011987
0003a0 45 45 04 3e 70 ca bf 3e 7f a9 55 3e a5 d0 86 3e
       0.12917049 0.37459135 0.20865439 0.26331058
0003b0 22 7f b0 3e 0e 38 e0 3d 61 92 1a 3e c9 2e 30 3e
       0.34471995 0.109481916 0.15094902 0.17205347
0003c0 c6 36 28 3e 5f 3e 41 3e 84 bc a6 3e 08 78 1d 3e
       0.16427144 0.18871449 0.325657 0.1537782
0003d0 84 1d ae 3e d4 18 31 3e 8c b2 2c 3e c9 f1 7b 3e
       0.34006894 0.17294627 0.16864985 0.24603952
0003e0 14 41 15 3e 68 29 80 3e cb 57 5e 3e 0a fa 1e 3e
       0.14575607 0.2503159 0.21713178 0.1552507
0003f0 8c 7e 2b 3e 5d 9b f3 3d 1b db e0 3d 72 70 df 3d
       0.16747493 0.118948676 0.10979291 0.10910119

conv2.0.weight f4 [10, 1, 6]
000000 d4 79 a7 be 40 d3 16 3e 04 2c f0 3d da 88 b9 bd
       -0.32710135 0.14729023 0.11727145 -0.090593055
000010 31 ac 3e 3d 4e f3 7d 3d df 49 81 3d f5 29 80 3e
       0.046550933 0.06199961 0.06312918 0.2503201
000020 e0 e4 a1 3d 26 7e 39 be 88 34 df be 40 77 37 3e
       0.079049826 -0.18114528 -0.43594766 0.17916584
000030 b3 f9 69 be 05 88 1b be c4 1a 36 3e 2b 9e 1e 3e
       -0.22849159 -0.15188606 0.17783648 0.15490024
000040 88 53 36 3e 83 1e 46 be 56 9b a7 be 8a 4d 44 3e
       0.17805302 -0.19347577 -0.327357 0.19170204
000050 dc 94 37 be 81 93 d6 be 41 97 b3 bc 69 a6 9d bc
       -0.17927879 -0.41909412 -0.02192271 -0.01924439
000060 f3 f0 96 be a6 dd 6f 3e cb 8d a7 bd 6d 52 cb be
       -0.29480705 0.23424396 -0.08181342 -0.39711323
000070 eb 5e 90 be 8d bb 86 be 0a 68 52 3e c9 27 ca 3d
       -0.28197417 -0.26314965 0.205475 0.0987087
000080 cd a3 81 be 15 23 3b 3d 47 ea 7b be b5 9a 9a 3e
       -0.25320283 0.045687754 -0.24601088 0.30196157
000090 82 ef a2 be 99 c5 7a be 06 34 9b be 98 e8 16 3e
       -0.31823355 -0.2448944 -0.30313128 0.14737165
0000a0 4a c8 b7 be 36 cd 2d be d8 c8 ba 3e 7b da ac 3e
       -0.35894996 -0.16972813 0.36481357 0.33760437
0000b0 ce 6b 90 be ec 80 13 3e b2 6a d7 bd 75 62 ca 3e
       -0.28207248 0.14404649 -0.105183974 0.39528242
0000c0 bf 74 c6 3e 18 86 bb be 05 eb c2 be 82 f3 6d be
       0.38760945 -0.36625743 -0.3806993 -0.23237422
0000d0 b7 ee 8c 3e d2 98 cc 3d 63 1f ea 3e a3 dd 94 3e
       0.27525875 0.09990086 0.4572707 0.29075345
0000e0 7d c9 d0 be ee 2d 54 be 33 0c 47 3e ef 43 2e be
       -0.40778723 -0.20720646 0.19438247 -0.17018102

conv2.0.bias f4 [10]
000000 22 fc b4 3e 95 db c0 be 5f 97 52 be cf 2e fd 3d
       0.35348612 -0.37667528 -0.20565556 0.12362444
000010 02 30 47 be bb 32 9f 3e b6 71 d9 3d 50 7b cd 3d
       -0.19451907 0.31093392 0.10617392 0.100332856
000020 e2 9d bb 3e 93 09 93 bd
       0.36643893 -0.071795605

conv2.1.weight f4 [10]
000000 1a c5 8e 3f 5f ff 92 3f f4 41 86 3f 5d 0b 81 3f
       1.1153901 1.1484183 1.0488877 1.0081593
000010 f9 c8 7e 3f 0d 0c 9c 3f 88 2a 7a 3f 9b 6b 89 3f
       0.9952541 1.2191178 0.9772115 1.0735964
000020 10 9a 93 3f ef 44 95 3f
       1.1531391 1.1661662

conv2.1.bias f4 [10]
000000 e5 92 9c 3c 38 88 0b 3b c6 43 53 bc 62 58 04 ba
       0.019113014 0.002129091 -0.012894576 -0.00050485705
000010 9a c4 e3 bb 38 e8 3c 3d 3f bd 7a bc 09 38 d6 bb
       -0.006950927 0.0461199 -0.015303909 -0.0065374416
000020 d1 49 78 3c 37 3b 08 3d
       0.015154318 0.033259597

conv2.1.running_mean f4 [10]
000000 2a 94 35 3e 5a ad 3b bf 57 7a ee be 19 ae 43 c0
       0.17732301 -0.7331139 -0.46577713 -3.057501
000010 cc 96 89 c0 f6 94 35 3f e0 c8 8d c0 a9 2e 64 40
       -4.299658 0.7093042 -4.430771 3.565348
000020 62 1c 13 bf c3 be e9 3e
       -0.57465184 0.45653352

conv2.1.running_var f4 [10]
000000 cb d8 02 3e 3b 50 76 3e 75 a0 25 3e 0a 80 03 40
       0.12778012 0.24054043 0.16174491 2.05469
000010 fd 8a 56 40 b3 33 4a 3e e5 23 80 40 2d 60 1f 40
       3.3522332 0.19746284 4.0043817 2.490245
000020 bb fa 11 3f ca c0 f2 3e
       0.5702321 0.4741271
