model/pse_pssm_k2_model.ckpt (torch, 77403 bytes, 40 tensors)

conv1.0.weight f4 [10, 1, 3]
0.42121628 0.068448216 0.33460623 0.37029877 -0.32525316 -0.16313003 -0.12774362 0.048360948
0.32745197 -0.42164394 -0.21958432 -0.6479706 -0.45822048 0.10450706 0.47754344 0.519078
-0.20777062 -0.12951298 -0.51398146 -0.28216112 0.05272305 0.3098134 -0.09655743 -0.27289617
-0.53006357 -0.15760896 0.12692411 0.005880706 0.28417486 0.53459185
00000000: a9a9 d73e 942e 8c3d 8251 ab3e cd97 bd3e
00000010: 9587 a6be 8f0b 27be 39cf 02be 2116 463d
00000020: c9a7 a73e b7e1 d7be b6da 60be 67e1 25bf
00000030: e09b eabe cc07 d63d 9380 f43e 4ce2 043f
00000040: d2c1 54be 0d9f 04be 4a94 03bf 6c77 90be
00000050: 20f4 573d dd9f 9e3e e7bf c5bd 0cb9 8bbe
00000060: 3fb2 07bf 3e64 21be 65f8 013e f0b2 c03b
00000070: 5e7f 913e 03db 083f

conv1.0.bias f4 [10]
-0.30579168 -0.017512579 -0.34300727 -0.2397591 -0.23801534 -0.2475438 0.5307272 -0.41086942
-0.22207953 0.313815
00000000: ba90 9cbe 8a76 8fbc a69e afbe 6983 75be
00000010: 4bba 73be 1f7c 7dbe bddd 073f 7a5d d2be
00000020: d168 63be 5cac a03e

conv1.1.weight f4 [10]
1.0060365 0.9972363 0.9935273 0.9915585 1.0115988 0.97350997 1.0061357 1.0099124
0.980588 0.95696634
00000000: cec5 803f e14a 7f3f ce57 7e3f c7d6 7d3f
00000010: 127c 813f f337 793f 0ec9 803f cf44 813f
00000020: d107 7b3f bffb 743f

conv1.1.bias f4 [10]
-0.009093457 0.03945964 -0.00023927889 -0.0061265817 0.032642744 0.02065575 0.025550019 -0.005887952
0.004623656 0.014282677
00000000: b9fc 14bc 6ea0 213d f0e6 7ab9 7ec1 c8bb
00000010: 66b4 053d 3f36 a93c 464e d13c b9ef c0bb
00000020: 0a82 973b e401 6a3c

conv1.1.running_mean f4 [10]
0.33564505 -0.12095537 -0.13475886 -1.1731126 -0.15475173 -0.21522462 -0.08194612 -0.42250884
-0.683249 0.98095703
00000000: abd9 ab3e 73b7 f7bd 3afe 09be 8e28 96bf
00000010: 3d77 1ebe d863 5cbe 5ed3 a7bd 1453 d8be
00000020: 68e9 2ebf 0020 7b3f

conv1.1.running_var f4 [10]
0.5056303 0.12455016 0.124943264 1.0784454 0.22065061 0.16370532 0.49384442 0.09625977
0.3805739 0.6255689
00000000: fd70 013f 2714 ff3d 41e2 ff3d 800a 8a3f
00000010: 3cf2 613e 5ea2 273e 2dd9 fc3e d823 c53d
00000020: 95da c23e 4925 203f

conv1.4.weight f4 [40, 10, 3]
-0.1583342 0.01859614 -0.02926876 -0.23809753 -0.08942357 -0.061629474 -0.28667188 -0.020688955
-0.021923726 0.13380362 0.17425798 0.009614449 -0.10435457 -0.1291522 0.16404551 -0.17755836
0.09864555 0.08058367 -0.04716734 -0.019771477 -0.011078853 -0.058715753 0.06154005 -0.05330171
0.00036872175 -0.0685596 0.081464276 -0.0693692 -0.11451921 0.16975349 -0.16131876 -0.08863072
0.050524916 -0.2139403 -0.010519399 -0.07154671 -0.1685238 -0.17105767 0.009877946 0.10519058
0.0021277352 -0.08370488 -0.049522825 0.0083895065 0.1305406 0.14623107 0.09783539 -0.093638666
-0.10120011 -0.16744362 -0.027009495 0.12378855 -0.0074962894 -0.066390045 -0.13722555 -0.017993318
-0.024024274 0.074145466 0.091476545 -0.058783136 -0.16284718 0.10039016 -0.13029411 0.033405922
-0.3880393 -0.21598235 0.017307807 0.084269494 -0.12587322 -0.13921946 0.122110724 0.017874802
-0.1273783 -0.090520665 -0.17205518 -0.11696532 0.04547181 -0.13103734 -0.058873557 0.12604508
-0.083840065 -0.09293877 0.13515523 -0.060225476 0.009157344 0.088387474 0.13105592 -0.14689702
-0.17543234 0.00651191 -0.087499194 0.054545388 0.18320288 0.083542235 -0.11239265 -0.15269734
0.16772763 0.036865436 0.17041264 -0.08870723 -0.089949906 0.14346455 0.15275659 0.033357847
0.00406503 0.021772834 0.09061287 0.08552748 -0.17595552 -0.09612781 -0.08555843 0.10032534
-0.18010946 -0.06701832 0.08853632 0.106457114 0.11889427 0.054614242 0.13836011 0.054992486
0.091709666 0.033878904 -0.13932939 -0.13629189 0.0709802 0.13030164 -0.09486933 0.062400702
0.07818386 -0.01595623 -0.011638784 -0.08935454 -0.16078426 -0.07205101 0.026133558 0.12935854
-0.04939159 0.106437854 -0.041712042 -0.3528249 -0.08481116 0.15861066 -0.25281584 0.18258174
0.016980954 -0.21831797 -0.26974455 0.09412341 -0.033051092 0.12497427 -0.13012816 0.009927513
0.14571293 0.005113115 -0.13753702 0.1532148 0.14190057 -0.17821783 -0.18882497 0.016615752
0.016815456 -0.0171074 -0.07615787 -0.043075524 -0.15746552 -0.04951514 0.025254007 0.050555743
0.11514481 0.058519524 0.1032809 -0.03438743 -0.031571288 0.16429147 0.055187713 0.13467032
0.17305736 0.11689157 0.062126487 -0.020289073 0.07210988 0.14498319 0.13484871 -0.23317558
-0.05063601 -0.16325971 -0.093650505 0.023634724 -0.05181224 0.18485455 -0.10394262 0.21189879
0.016637487 -0.24001396 -0.12032044 0.033468492 0.15913804 0.038712177 0.21916518 -0.057304822
-0.059073705 -0.3077854 -0.12571806 -0.040540397 0.17715804 -0.16182362 0.07395236 -0.09035253
0.14152719 0.12246056 0.037181422 -0.031420242 -0.21796611 0.04229563 -0.17960157 -0.21227235
-0.09251916 -0.018951723 0.081223816 0.061607774 0.03808136 0.024123097 0.16114306 -0.15436797
0.050315913 -0.15053466 -0.123937316 -0.17412932 0.06043763 0.11820504 -0.023704873 -0.04046638
-0.38436958 -0.093330085 0.052615922 0.15041175 0.13338645 -0.10526213 -0.11229957 -0.13526596
-0.07144523 0.12380736 -0.19192083 -0.15247928 0.06732206 0.0747306 -0.13653699 -0.0024881402
0.15125318 0.015586154 0.14262594 0.006710993 -0.07099239 -0.14629164 0.035520207 0.11718753
00000000: 5c22 22be ef56 983c 0ac5 efbc d7cf 73be
00000010: b423 b7bd 306f 7cbd a8c6 92be e27b a9bc
00000020: 6399 b3bc d103 093e af70 323e ec85 1d3c
00000030: d9b7 d5bd 7940 04be 8cfb 273e dcd1 35be
00000040: ae06 ca3d 0d09 a53d 8a32 41bd cbf7 a1bc
00000050: 1484 35bc ee7f 70bd 6b11 7c3d e552 5abd
00000060: ff50 c139 fa68 8cbd bed6 a63d 7011 8ebd
00000070: 0c89 eabd dcd3 2d3e bf30 25be 0684 b5bd
00000080: 37f3 4e3d 2a13 5bbe 8f59 2cbc 1587 92bd
00000090: 8191 2cbe be29 2fbe 1cd7 213c 296e d73d
000000a0: 7971 0b3b 776d abbd 72d8 4abd 2474 093c
000000b0: 6fac 053e 99bd 153e ec5d c83d a1c5 bfbd
000000c0: 0142 cfbd 5776 2bbe 0443 ddbc da84 fd3d
000000d0: 6fa3 f5bb 81f7 87bd db84 0cbe b966 93bc
000000e0: 8ece c4bc 94d9 973d 0e58 bb3d 96c6 70bd
000000f0: 69c1 26be 5b99 cd3d d26b 05be a6d4 083d
00000100: 16ad c6be 7a2a 5dbe 1ac9 8d3c 7c95 ac3d
00000110: e9e4 00be 8c8f 0ebe 3015 fa3d 2d6e 923c
00000120: 756f 02be e662 b9bd 3c2f 30be 848b efbd
00000130: a640 3a3d a72e 06be 6625 71bd f611 013e
00000140: 57b4 abbd af56 bebd 2266 0a3e fdae 76bd
00000150: af08 163c 7e04 b53d 8633 063e 2c6c 16be
00000160: 89a4 33be dc61 d53b c732 b3bd fc6a 5f3d
00000170: 8999 3b3e 3118 ab3d 1e2e e6bd b15c 1cbe
00000180: cbc0 2b3e 3600 173d a780 2e3e 23ac b5bd
00000190: a837 b8bd 5fe8 123e 396c 1c3e 3da2 083d
000001a0: f133 853b f15c b23c 3e93 b93d 0829 af3d
000001b0: af2d 34be a8de c4bd 4239 afbd 5f77 cd3d
000001c0: 9d6e 38be e740 89bd 8852 b53d 3006 da3d
000001d0: d77e f33d 2fb3 5f3d 46ae 0d3e cd3f 613d
000001e0: 47d2 bb3d 9bc4 0a3d 5dac 0ebe 1a90 0bbe
000001f0: 115e 913d cb6d 053e da4a c2bd e197 7f3d
00000200: dc1e a03d a4b6 82bc 99b0 3ebc 83ff b6bd
00000210: a1a4 24be 7b8f 93bd 0b16 d63c 9176 043e
00000220: d64e 4abd 17fc d93d 3fda 2abd 77a5 b4be
00000230: 79b1 adbd d56a 223e 1471 81be b5f6 3a3e
00000240: a41b 8b3c bf8e 5fbe f51b 8abe c6c3 c03d
00000250: 9560 07bd 83f2 ff3d 5140 05be 02a7 223c
00000260: c535 153e eb8b a73b 81d6 0cbe 57e4 1c3e
00000270: 624e 113e bc7e 36be 555b 41be c21d 883c
00000280: 91c0 893c d124 8cbc a8f8 9bbd f66f 30bd
00000290: a43e 21be 63d0 4abd 7ee1 ce3c 8a13 4f3d
000002a0: 0bd1 eb3d 2bb2 6f3d f084 d33d d5d9 0cbd
000002b0: e550 01bd 063c 283e 830c 623d 04e7 093e
000002c0: f335 313e d964 ef3d 5878 7e3d 4535 a6bc
000002d0: 58ae 933d 7976 143e c815 0a3e 94c5 6ebe
000002e0: b467 4fbd 8e2d 27be d6cb bfbd 9c9d c13c
000002f0: 1239 54bd 834a 3d3e dedf d4bd fffb 583e
00000300: 574b 883c 38c6 75be 906a f6bd 4216 093d
00000310: 15f5 223e a990 1e3d d66c 603e 76b8 6abd
00000320: 45f7 71bd 0c96 9dbe 3cbc 00be b00d 26bd
00000330: eb68 353e 17b5 25be 5674 973d bf0a b9bd
00000340: 81ec 103e 9acc fa3d 8c4b 183d 83b2 00bd
00000350: 8232 5fbe 2f3e 2d3d 79e9 37be ec5d 59be
00000360: af7a bdbd a540 9bbc ac58 a63d 6f58 7c3d
00000370: 33fb 1b3d cd9d c53c b002 253e a312 1ebe
00000380: 0f18 4e3d c225 1abe d9d2 fdbd f54e 32be
00000390: 738d 773d 7c15 f23d b930 c2bc 13c0 25bd
000003a0: 17cc c4be d823 bfbd cb83 573d 8a05 1a3e
000003b0: 7596 083e ac93 d7bd 51fd e5bd 2983 0abe
000003c0: e051 92bd b78e fd3d e586 44be 8723 1cbe
000003d0: 26e0 893d 5b0c 993d 5ad0 0bbe 1110 23bb
000003e0: 1de2 1a3e 115d 7f3c 890c 123e e4e7 db3b
000003f0: 7564 91bd 7acd 15be a37d 113d 0400 f03d

conv1.4.bias f4 [40]
0.058461115 -0.16328807 -0.14952688 -0.1228127 -0.12524912 0.10223527 0.14585139 -0.15000145
-0.13112967 0.10840008 0.15037042 0.10224304 -0.12282354 -0.122861505 0.07912771 0.048943464
-0.014969241 0.028129915 0.04891981 -0.11729424 0.09633151 0.026242081 -0.06660241 -0.17017724
0.031317428 0.08817729 0.081116505 0.09650185 -0.11326556 0.1435461 0.16110182 0.0035910632
0.15929405 -0.13986777 -0.052266322 0.13225615 -0.10536545 -0.021060837 -0.057206552 -0.11130276
00000000: ec74 6f3d fd34 27be 931d 19be 3a85 fbbd
00000010: 4e41 00be ba60 d13d 115a 153e fb99 19be
00000020: db46 06be dc00 de3d b4fa 193e cd64 d13d
00000030: e88a fbbd d09e fbbd b50d a23d f178 483d
00000040: 8c41 75bc b570 e63c 2460 483d f637 f0bd
00000050: 7449 c53d a2f9 d63c d866 88bd f142 2ebe
00000060: b446 003d 4c96 b43d 6920 a63d c3a2 c53d
00000070: c6f7 e7bd c0fd 123e e0f7 243e 0b58 6b3b
00000080: fb1d 233e 7f39 0fbe 3615 56bd 286e 073e
00000090: d7c9 d7bd c787 acbc 6b51 6abd b4f2 e3bd

conv1.5.weight f4 [40]
0.979752 0.9717344 0.9716723 0.9751613 0.98512006 0.967469 1.0236827 0.9652117
0.9744694 0.9619739 0.95828307 0.98311704 0.9757691 0.98038745 0.9760138 0.97603023
0.9719052 0.95306814 0.9791395 0.93368506 0.9607296 0.949435 0.93979824 1.0124277
0.96158004 0.963715 0.9558138 0.9782941 0.98576534 1.0005631 0.9533149 0.94211036
0.9818491 0.98004603 0.9449037 0.99364716 0.9718749 0.9309979 0.94524574 0.96092206
00000000: 07d1 7a3f 96c3 783f 84bf 783f 2ca4 793f
00000010: d430 7c3f 0cac 773f 0908 833f 1d18 773f
00000020: d476 793f ec43 763f 0a52 753f 8fad 7b3f
00000030: 01cc 793f acfa 7a3f 0adc 793f 1edd 793f
00000040: c7ce 783f 46fc 733f e3a8 7a3f fc05 6f3f
00000050: 60f2 753f 2c0e 733f 9e96 703f 3b97 813f
00000060: 1c2a 763f 07b6 763f 37b0 743f 7b71 7a3f
00000070: 1e5b 7c3f 7412 803f 720c 743f 252e 713f
00000080: 765a 7b3f 4ce4 7a3f 35e5 713f a95f 7e3f
00000090: cbcc 783f e155 6e3f a0fb 713f fdfe 753f

conv1.5.bias f4 [40]
-0.0038875963 -0.0022784448 -0.007315547 -0.005238557 -0.013828398 -0.013415289 -0.010713034 -0.009542128
-0.005150559 -0.010505408 -0.0041478365 -0.0057493816 -0.019242374 -0.011044754 -0.01448104 -0.010432066
-0.010241609 -0.01974481 -0.010023578 -0.024013884 -0.022039685 -0.032438226 -0.037392844 -0.00602234
-0.014691721 -0.01358494 -0.017311236 -0.007367643 -0.0029415314 -0.013670312 -0.01629267 -0.02988421
-0.014030591 -0.011088051 -0.022885034 -0.001157011 -0.010542355 -0.03580587 -0.032771293 -0.016582584
00000000: 0bc7 7ebb f651 15bb 42b7 efbb 33a8 abbb
00000010: 8190 62bc cdcb 5bbc b985 2fbc 9656 1cbc
00000020: 05c6 a8bb e01e 2cbc 93ea 87bb 4f65 bcbb
00000030: 2fa2 9dbc 0ef5 34bc e241 6dbc 42eb 2abc
00000040: 6ccc 27bc debf a1bc ef39 24bc c4b8 c4bc
00000050: 928c b4bc f2dd 04bd 3d29 19bd 0d57 c5bb
00000060: 8bb5 70bc 5e93 5ebc 4bd0 8dbc 456c f1bb
00000070: b5c6 40bb 72f9 5fbc 3578 85bc bbcf f4bc
00000080: 90e0 65bc a8aa 35bc 6579 bbbc d9a6 97ba
00000090: d7b9 2cbc 2da9 12bd 313b 06bd 33d8 87bc

conv1.5.running_mean f4 [40]
-0.096239015 -0.4732877 -0.41677317 0.16648155 -0.012233075 0.4925752 0.20267265 -0.17731816
-0.004510346 0.45630205 0.4477393 0.20518994 -0.14640005 -0.13047624 -0.12434546 0.15122668
0.13129008 0.3830959 0.3587524 -0.23741753 0.09172862 0.070483014 -0.14041524 0.13559626
0.28621972 -0.08900834 -0.0568306 0.31510425 -0.065143205 -0.11227261 0.130974 0.14268713
-0.21556449 -0.11173816 0.06272012 -0.025607767 0.0509012 -0.21850571 0.03564677 -0.4197299
00000000: f618 c5bd c452 f2be 4b63 d5be 247a 2a3e
00000010: 3c6d 48bc d132 fc3e 6b89 4f3e e492 35be
00000020: 86cb 93bb 6ca0 e93e 163e e53e 501d 523e
00000030: e5e9 15be 909b 05be d5a8 febd 2bdb 1a3e
00000040: e870 063e 2525 c43e 65ae b73e 951d 73be
00000050: 37dc bb3d 6659 903d 03c9 0fbe bfd9 0a3e
00000060: 648b 923e 014a b6bd 34c7 68bd 5855 a13e
00000070: cd69 85bd 2fef e5bd 0c1e 063e 931c 123e
00000080: f0bc 5cbe fad6 e4bd 6873 803d 61c7 d1bc
00000090: c77d 503d f6bf 5fbe 5902 123d d6e6 d6be

conv1.5.running_var f4 [40]
0.27257225 0.18875402 0.32417622 0.25378436 0.19642158 0.24409261 0.16910449 0.5606003
0.1646752 0.2839768 0.26097134 0.16462122 0.19209749 0.17967105 0.1854415 0.25021356
0.12891771 0.24223994 0.17669615 0.110726126 0.28473467 0.17421053 0.17907794 0.17957959
0.11634225 0.15273021 0.26357368 0.28289375 0.16838822 0.1677352 0.13859797 0.15233438
0.13512832 0.13769698 0.16290006 0.15479389 0.13333511 0.35917154 0.2216877 0.2592018
00000000: 978e 8b3e bc48 413e 6dfa a53e 06f0 813e
00000010: bd22 493e 6af3 793e ba29 2d3e 8083 0f3f
00000020: 9ea0 283e 6865 913e 099e 853e 7792 283e
00000030: 34b5 443e b0fb 373e 60e4 3d3e fe1b 803e
00000040: 0103 043e bf0d 783e d6ef 343e 61c4 e23d
00000050: bec8 913e 3f64 323e 3560 373e b6e3 373e
00000060: d844 ee3d 4f65 1c3e 21f3 863e 73d7 903e
00000070: f66d 2c3e c7c2 2b3e a0ec 0d3e 8bfd 1b3e
00000080: 145f 0a3e 7000 0d3e 46cf 263e 4a82 1e3e
00000090: 0089 083e 55e5 b73e 1a02 633e 19b6 843e

conv2.0.weight f4 [10, 1, 6]
-0.45010015 0.34575713 -0.37844655 0.2971855 0.10008635 0.07916837 -0.3259409 0.31266704
0.14576659 -0.0933972 -0.16216756 -0.22075902 -0.5170048 -0.05597885 -0.40851942 0.063860536
0.3652907 -0.08105555 0.20523421 -0.31304204 -0.24405862 -0.04924378 0.4808551 -0.26294872
-0.18710953 0.31854907 -0.29117513 -0.17548794 0.3669662 -0.14096954 0.2512195 0.39930642
-0.08723187 -0.41133544 -0.09988913 -0.32969847 0.008763584 -0.06373314 0.09980345 0.16472474
0.3800398 0.46151313 0.3865564 0.44111994 -0.32548076 0.00027780372 -0.39527848 -0.07628558
-0.37946764 0.18098748 0.2617551 -0.5062978 -0.13810118 0.36786348 -0.20071806 0.3159382
-0.30326203 0.025388839 -0.2233164 0.12953268
00000000: 8773 e6be 1407 b13e bfc3 c1be b328 983e
00000010: 13fa cc3d 0723 a23d bae1 a6be e515 a03e
00000020: d643 153e 0847 bfbd 410f 26be a70e 62be
00000030: 6d5a 04bf 144a 65bd 7529 d1be 50c9 823d
00000040: 6207 bb3e 7400 a6bd eb28 523e 0c47 a0be
00000050: 81ea 79be d9b3 49bd a432 f63e 37a1 86be
00000060: a499 3fbe dd18 a33e e814 95be 1cb3 33be
00000070: fee2 bb3e 525a 10be d89f 803e e471 cc3e
00000080: 9fa6 b2bd 8f9a d2be ac92 ccbd 3dce a8be
00000090: 2395 0f3c 8586 82bd c065 cc3d 9aad 283e
000000a0: 9494 c23e 734b ec3e b8ea c53e 79da e13e
000000b0: 6aa5 a6be 2fa6 9139 f161 cabe 9d3b 9cbd
000000c0: 9549 c2be c854 393e c404 863e bc9c 01bf
000000d0: 656a 0dbe 9a58 bc3e 0989 4dbe a7c2 a13e
000000e0: 2945 9bbe 41fc cf3c 0ead 64be 37a4 043e

conv2.0.bias f4 [10]
-0.017754931 0.056325845 0.41973686 -0.10685427 -0.08833095 0.096903026 0.17107907 0.059111584
0.20261419 0.13171549
00000000: ca72 91bc eeb5 663d c0e7 d63e 69d6 dabd
00000010: dbe6 b4bd 1875 c63d 5a2f 2f3e fd1e 723d
00000020: 187a 4f3e 6de0 063e

conv2.1.weight f4 [10]
1.3106493 1.0755072 1.1916487 1.2036197 1.0718875 1.044598 1.0757089 1.0572689
1.0632602 1.0885959
00000000: 5bc3 a73f 38aa 893f f287 983f 3610 9a3f
00000010: 9c33 893f 63b5 853f d4b0 893f 9654 873f
00000020: e918 883f 1c57 8b3f

conv2.1.bias f4 [10]
0.028441636 0.004979896 0.086326286 0.14637777 0.10483013 0.03196343 -0.0005728754 0.051114377
0.06976548 0.036627494
00000000: 6ffe e83c 652e a33b d6cb b03d 0ee4 153e
00000010: 2eb1 d63d 16ec 023d 042d 16ba 4f5d 513d
00000020: 34e1 8e3d b606 163d

conv2.1.running_mean f4 [10]
0.026442325 -0.23488116 -0.007815289 -0.35155115 -0.3790796 -0.22308774 0.9025589 -0.043241408
0.041915674 -0.104353555
00000000: 939d d83c b084 70be b30b 00bc 83fe b3be
00000010: b916 c2be 1d71 64be 1a0e 673f e71d 31bd
00000020: c5af 2b3d 51b7 d5bd

conv2.1.running_var f4 [10]
0.19213583 0.20405847 0.34539917 0.17689958 0.19084463 0.3172071 0.6559054 0.25505748
0.24108909 0.1203349
00000000: 41bf 443e b4f4 503e 29d8 b03e 2a25 353e
00000010: c66c 433e f868 a23e 6be9 273f e596 823e
00000020: 0fe0 763e 2572 f63d

conv2.4.weight f4 [40, 10, 6]
-0.21312581 -0.09395173 -0.07536625 -0.11020663 0.09805775 0.06807165 -0.11376811 0.08496209
0.03633654 -0.024197241 -0.037002053 0.12322236 -0.08804509 -0.01668088 -0.027325392 0.043896087
-0.09309437 0.019055242 -0.23761848 -0.01133395 0.030817997 -0.00079365744 -0.033876766 -0.15461555
-0.054467365 0.12559997 0.0048379404 -0.032293834 0.09864994 0.12980177 0.10903833 -0.115590945
0.13182224 0.0862866 0.020573564 -0.112598054 0.074074425 0.00990952 -0.06227638 -0.12612498
-0.053996217 0.18539226 0.09041816 -0.11347231 -0.16804844 0.08029652 -0.1215458 -0.08618281
-0.020156337 0.112668216 0.100840166 -0.20504327 -0.038760282 0.123577155 -0.06274227 0.01648355
-0.17347376 0.11653066 -0.144047 -0.014057291 0.061316576 0.11121518 -0.223158 -0.037359692
-0.13652572 0.14721493 -0.12662192 -0.0008527687 0.13183217 0.06959932 -0.2723234 -0.11927241
0.038014412 -0.16067392 -0.023672644 0.03387973 0.10827304 0.0027177702 0.14177328 -0.0532674
0.036458608 0.025301807 -0.03974657 -0.11212076 -0.04923171 -0.17667353 -0.085631 -0.07244638
-0.09221995 -0.045320988 -0.010280377 -0.19092622 -0.11112132 -0.036218565 -0.012071246 -0.0034879185
-0.13434571 -0.03425817 -0.03276121 0.020413203 -0.110424936 0.004668388 0.102435395 -0.039433688
-0.1294742 0.070456035 -0.015041718 0.024220757 -0.17873487 0.07116711 0.13121742 0.049251005
0.0601953 0.0981951 0.047651332 0.115599126 0.029664414 0.1290132 -0.43127114 0.011535312
0.16451155 -0.109736815 0.13478915 -0.18244387 -0.17602794 0.1466696 -0.033610933 -0.14022468
0.0796327 0.08134524 0.008170738 0.11430009 -0.018623887 0.059753846 -0.30364707 0.09005796
-0.13555986 -0.06578096 -0.016967943 0.08120197 -0.110889494 0.10676824 0.027516736 -0.022443648
-0.1273043 -0.10225037 -0.0076758913 -0.1291382 0.10312752 -0.21441725 -0.07289808 0.09617461
0.121763125 0.07117272 0.13635935 -0.08890067 0.020897478 -0.035408996 -0.05190145 -0.13080752
0.0177777 0.008731766 0.19747934 -0.045636885 0.048425317 0.07950912 0.085692294 0.093082495
-0.02459221 -0.08234708 -0.031018298 0.14105296 0.13035633 -0.103615694 0.11994355 -0.056786124
-0.0023744472 -0.078105524 -0.07847521 -0.10683388 -0.11795125 0.11365697 -0.15321352 0.15432815
0.07249762 -0.06762358 0.048336796 -0.08508444 -0.057053324 -0.14141843 0.10020241 -0.05849204
0.049310345 -0.03459243 -0.11006535 -0.067536734 -0.01727705 -0.06291751 0.008891664 -0.004167771
-0.025526198 0.11950703 -0.034536574 -0.00331296 0.047799148 -0.097203754 0.094822414 -0.15249003
0.09428927 -0.2799065 -0.09087771 0.14578913 0.0424686 0.04613086 0.013832758 -0.03648178
0.032887757 0.01678068 -0.14258571 -0.04027958 -0.035237253 0.054980405 0.10982848 0.032423627
0.13628663 -0.046016533 0.019596945 0.022710625 0.049094416 -0.08419763 -0.15436202 0.11090915
-0.14317504 0.052283872 -0.16054443 -0.1854055 -0.051197954 -0.17835556 0.08162255 -0.14157447
-0.21267137 0.07306139 0.10684178 0.06352846 -0.075631835 -0.2934456 0.037721056 -0.028878996
0.038844675 -0.0034877348 0.006308213 -0.07730457 0.104463704 -0.08731728 0.1195159 -0.24502301
00000000: a73d 5abe c469 c0bd 9f59 9abd 03b4 e1bd
00000010: 80d2 c83d 2669 8b3d 41ff e8bd 9b00 ae3d
00000020: a0d5 143d 4b39 c6bc 778f 17bd 015c fc3d
00000030: fc50 b4bd 57a6 88bc 80d9 dfbc 62cc 333d
00000040: 43a8 bebd bd19 9c3c 4252 73be 08b2 39bc
00000050: 0676 fc3c 730d 50ba 5dc2 0abd 8a53 1ebe
00000060: 2c19 5fbd 479d 003e 9687 9e3b 8a46 04bd
00000070: fb08 ca3d c1ea 043e 7d4f df3d f2ba ecbd
00000080: 69fc 063e 07b7 b03d e489 a83c cf99 e6bd
00000090: 55b4 973d 8a5b 223c 8415 7fbd e826 01be
000000a0: 232b 5dbd 78d7 3d3e 282d b93d 2c64 e8bd
000000b0: e414 2cbe 8072 a43d 01ed f8bd 9d80 b0bd
000000c0: e71e a5bc 98be e63d 4a85 ce3d ddf6 51be
000000d0: 1ac3 1ebd 0516 fd3d 057f 80bd 8308 873c
000000e0: 1ba3 31be a0a7 ee3d 0f81 13be 8d50 66bc
000000f0: 1727 7b3d c9c4 e33d 8883 64be 7a06 19bd
00000100: 66cd 0bbe 83bf 163e 2da9 01be 578c 5fba
00000110: 03ff 063e 178a 8e3d f96d 8bbe 1845 f4bd
00000120: 00b5 1b3d b487 24be 22ed c1bc 79c5 0a3d
00000130: 41be dd3d 9e1c 323b 042d 113e eb2e 5abd
00000140: 9f55 153d bc45 cf3c 4dcd 22bd 929f e5bd
00000150: 31a7 49bd e8e9 34be 4e5f afbd c55e 94bd
00000160: d0dd bcbd 80a2 39bd 076f 28bc 2a82 43be
00000170: 9393 e3bd eb59 14bd 7ac6 45bc 9095 64bb
00000180: ec91 09be 4b52 0cbd 9e30 06bd 9739 a73c
00000190: 7826 e2bd 47f9 983b a6c9 d13d 3885 21bd
000001a0: e294 04be 414b 903d 8a71 76bc 9c6a c63c
000001b0: 4606 37be 10c0 913d dc5d 063e 6cbb 493d
000001c0: 598f 763d 831a c93d 0b2e 433d 3cbf ec3d
000001d0: c902 f33c 091c 043e 92cf dcbe 9bfe 3c3c
000001e0: b775 283e b2bd e0bd 2b06 0a3e 91d2 3abe
000001f0: ab40 34be 8e30 163e 9eab 09bd 0f97 0fbe
00000200: 7816 a33d 5598 a63d 8fde 053c 2a16 ea3d
00000210: 1f91 98bc 73c0 743d a177 9bbe 4f70 b83d
00000220: 34d0 0abe 2bb8 86bd 5b00 8bbc 384d a63d
00000230: 081a e3bd 4fa9 da3d c76a e13c bedb b7bc
00000240: 0f5c 02be a468 d1bd 0b86 fbbb ce3c 04be
00000250: 8534 d33d 3290 5bbe 974b 95bd 32f7 c43d
00000260: f25e f93d 01c3 913d c9a1 0b3e 8e11 b6bd
00000270: 3031 ab3c 0609 11bd 9d96 54bd 68f2 05be
00000280: 8aa2 913c ae0f 0f3c 0638 4a3e beed 3abd
00000290: a059 463d add5 a23d 717f af3d 09a2 be3d
000002a0: 9a75 c9bc 96a5 a8bd 161a febc 3070 103e
000002b0: 217c 053e 7734 d4bd f7a4 f53d 9198 68bd
000002c0: 9d9c 1bbb caf5 9fbd 9cb7 a0bd b9cb dabd
000002d0: 6d90 f1bd fcc4 e83d 01e4 1cbe 3308 1e3e
000002e0: a279 943d 3b7e 8abd cefc 453d c040 aebd
000002f0: bfb0 69bd fecf 10be ec36 cd3d 5995 6fbd
00000300: a5f9 493d cbb0 0dbd f169 e1bd b350 8abd
00000310: 9a88 8dbc e5da 80bd 58ae 113c cc91 88bb
00000320: 511c d1bc 1ac0 f43d 3976 0dbd 3f1e 59bb
00000330: 0ac9 433d c312 c7bd 4132 c23d 5926 1cbe
00000340: bc1a c13d e84f 8fbe 181e babd bf49 153e
00000350: 8ef3 2d3d b6f3 3c3d cba2 623c eb6d 15bd
00000360: 50b5 063d a377 893c fd01 12be 33fc 24bd
00000370: f054 10bd 2233 613d c1ed e03d a3ce 043d
00000380: b98e 0b3e d57b 3cbd c689 a03c a20b ba3c
00000390: 3a17 493d cf6f acbd 1411 1ebe 5624 e33d
000003a0: 7a9c 12be 9d27 563d c265 24be f0da 3dbe
000003b0: f2b4 51bd d7a2 36be b929 a73d e6f8 10be
000003c0: 86c6 59be 36a1 953d ddcf da3d 361b 823d
000003d0: dde4 9abd 803e 96be 6581 1a3d a593 ecbc
000003e0: 981b 1f3d 7b92 64bb 20b5 ce3b dc51 9ebd
000003f0: 11f1 d53d 67d3 b2bd c1c4 f43d 50e7 7abe

conv2.4.bias f4 [40]
0.08565219 0.099464126 0.11014451 -0.034897447 -0.019296149 -0.079751916 0.07150407 0.044609785
-0.037384424 -0.08531414 0.07311944 0.06910475 0.07598807 -0.052178524 0.09548797 0.026000125
0.10049887 -0.024399685 0.07796685 0.036696833 -0.0384774 -0.08384275 0.07961612 0.056676246
0.01875736 -0.07206419 0.077814266 -0.119591266 -0.042050175 0.045631975 -0.083013825 0.09077286
-0.032165766 -0.030855749 0.0943533 -0.124230154 0.087210275 0.093230836 -0.04648382 0.0136986375
00000000: 6a6a af3d d9b3 cb3d 7293 e13d a0f0 0ebd
00000010: f512 9ebc f954 a3bd ba70 923d c0b8 363d
00000020: 6920 19bd 2eb9 aebd a5bf 953d cb86 8d3d
00000030: a29f 9b3d 26b9 55bd 328f c33d 37fe d43c
00000040: 5ad2 cd3d d9e1 c7bc 15ad 9f3d 6b4f 163d
00000050: 7a9a 1dbd bfb5 abbd c70d a33d 5a25 683d
00000060: 09a9 993c 6496 93bd 165d 9f3d 44ec f4bd
00000070: ce3c 2cbd 98e8 3a3d 2703 aabd 1fe7 b93d
00000080: 40c0 03bd 32c5 fcbc 4e3c c13d 616c febd
00000090: 4d9b b23d cfef be3d d165 3ebd 4070 603c

conv2.5.weight f4 [40]
1.0504053 1.0003847 1.0672227 1.0210736 0.9945517 1.0131829 1.0582813 1.0183958
0.9767514 1.0164158 1.025732 1.0336035 1.0541509 0.97577006 1.0056657 0.97590786
1.0581539 0.99182177 1.0362076 0.9671231 1.003264 0.9980546 0.99689597 0.9814079
1.0289395 0.9965538 1.1300172 1.0086825 0.9891791 0.98033106 0.9970273 1.0108926
1.0270202 1.010016 0.96427125 1.004135 1.0142949 1.0058228 0.97306883 1.0019765
00000000: ae73 863f 9b0c 803f c19a 883f 8ab2 823f
00000010: f19a 7e3f faaf 813f c375 873f cb5a 823f
00000020: 610c 7a3f ea19 823f 304b 833f 1f4d 843f
00000030: 6bee 863f 11cc 793f a7b9 803f 19d5 793f
00000040: 9671 873f 08e8 7d3f 73a2 843f 6195 773f
00000050: f46a 803f 8280 7f3f 9334 7f3f 8c3d 7b3f
00000060: 4ab4 833f 261e 7f3f 67a4 903f 821c 813f
00000070: d73a 7d3f faf6 7a3f 2e3d 7f3f ee64 813f
00000080: 6675 833f 3448 813f 7bda 763f 7f87 803f
00000090: 6ad4 813f cdbe 803f 0a1b 793f c440 803f

conv2.5.bias f4 [40]
-0.011294832 -0.010193674 -0.013351514 -0.003560707 -0.010113842 -0.012268349 0.00044406418 -0.0134705845
-0.0047599706 -0.005716027 -0.00992431 -0.0015522182 -0.010653433 -0.019397303 -0.0071558496 -0.013776217
-0.0037025628 -0.011688521 -0.0077229 -0.019958636 -0.012667787 -0.007496582 -0.0045069037 -0.015485386
-0.0036986507 -0.0075920573 0.0051561575 -0.008366524 -0.017009335 -0.009964816 -0.010217421 -0.013859188
-0.0026315819 -0.020776061 -0.011338969 -0.009815898 0.0058072233 -0.017816732 -0.010923898 -0.0075055202
00000000: f60d 39bc 5e03 27bc 4fc0 5abc c05a 69bb
00000010: 87b4 25bc 2f01 49bc 49d1 e839 bab3 5cbc
00000020: 87f9 9bbb 834d bbbb 9399 22bc cd73 cbba
00000030: bd8b 2ebc 18e7 9ebc 9e7b eabb a4b5 61bc
00000040: b2a6 72bb 3681 3fbc 6110 fdbb 4b80 a3bc
00000050: 8d8c 4fbc e3a5 f5bb a6ae 93bb 6bb6 7dbc
00000060: 1065 72bb cbc6 f8bb fcf4 a83b bf13 09bc
00000070: 2957 8bbc 7843 23bc f866 27bc a611 63bc
00000080: 9e76 2cbb 8f32 aabc 15c7 39bc dcd2 20bc
00000090: 854a be3b 65f4 91bc 26fa 32bc def0 f5bb

conv2.5.running_mean f4 [40]
-0.05990852 -0.032989953 0.28112674 -0.14915977 0.06297643 -0.012037481 -0.12487734 0.40507296
-0.34245077 0.28301147 -0.1941032 0.28514042 -0.07266634 0.5647815 0.0903877 0.4466997
0.012082484 -0.095719635 0.1102489 0.4435008 -0.22622715 -0.20064317 -0.15599963 0.043398164
0.15066837 -0.07257269 -0.08493181 -0.34085098 0.22958265 0.10701181 -0.06564782 0.16261286
-0.32830104 0.20370486 -0.19144903 0.24079154 -0.20741862 0.4469816 0.33204162 0.12618771
00000000: a362 75bd 7920 07bd d8ef 8f3e 57bd 18be
00000010: c9f9 803d db38 45bc b1bf ffbd b965 cf3e
00000020: b555 afbe e1e6 903e fdc2 46be edfd 913e
00000030: 17d2 94bd 8595 103f 301d b93d d3b5 e43e
00000040: 9cf5 453c a808 c4bd 2dca e13d 8912 e33e
00000050: 17a8 67be 6775 4dbe 5ebe 1fbe 46c2 313d
00000060: cf48 1a3e fea0 94bd bbf0 adbd 0584 aebe
00000070: b717 6b3e 0229 db3d 5d72 86bd fc83 263e
00000080: 1317 a8be 0298 503e 370b 44be 0f92 763e
00000090: 8c65 54be c6da e43e 5c01 aa3e 5a37 013e

conv2.5.running_var f4 [40]
0.12914908 0.14155366 0.17107747 0.11628273 0.10163045 0.18519635 0.18614219 0.14236724
0.13877676 0.16676627 0.19090226 0.13892424 0.16895884 0.19674537 0.1138882 0.154034
0.11796876 0.1707305 0.2800556 0.20955484 0.15851048 0.16285022 0.24243906 0.14453788
0.1839033 0.16603658 0.15819278 0.11078481 0.14580773 0.17569625 0.1285697 0.16696239
0.15310474 0.11115258 0.14407744 0.15898865 0.1251817 0.19365118 0.16899657 0.17747359
00000000: a83f 043e 71f3 103e ef2e 2f3e a425 ee3d
00000010: a023 d03d 1da4 3d3e 0f9c 3e3e b8c8 113e
00000020: 7f1b 0e3e c7c4 2a3e e27b 433e 2842 0e3e
00000030: 8c03 2d3e 9e77 493e 373e e93d 17bb 1d3e
00000040: 9b99 f13d fad3 2e3e 7363 8f3e 8b95 563e
00000050: 9250 223e 35c2 263e f241 783e bd01 143e
00000060: 2651 3c3e 7e05 2a3e 4afd 213e 25e3 e23d
00000070: 9f4e 153e b8e9 333e c7a7 033e 30f8 2a3e
00000080: 7dc7 1c3e f7a3 e33d 0989 133e eccd 223e
00000090: a22f 003e 7f4c 463e 700d 2d3e a3bb 353e

conv3.0.weight f4 [10, 1, 9]
-0.31222504 -0.2684051 -0.09669604 -0.26096943 0.2816428 -0.119598106 0.33473957 0.056138884
-0.25618216 0.30747473 0.26222375 0.06783749 0.18178605 -0.19988853 -0.1049866 0.26445997
-0.31805164 -0.1940283 -0.059254713 0.18656415 0.33755177 0.10943863 0.2695261 0.32963616
-0.34497935 0.0126182595 0.120934315 -0.37621292 0.43068817 -0.18623145 -0.21824862 0.04088562
0.14114521 0.32851288 0.2748286 -0.2136685 0.38771683 -0.009278394 0.19607568 -0.24257205
-0.021199638 -0.30941263 0.33216736 0.33224043 -0.07413394 0.30498856 0.09311896 0.04819373
-0.08475938 0.06616195 0.18668835 -0.3258865 0.1399646 -0.34656405 -0.29674402 0.08867408
-0.09550826 0.19744185 -0.10566785 -0.2141755 0.060471855 0.3675809 -0.22320953 -0.24418524
-0.2785225 -0.06692593 0.20561436 0.23111114 0.059844594 0.29556632 0.05991927 -0.2346435
-0.032097224 -0.40898967 -0.1345198 -0.13913459 0.1620099 0.28131044 0.19935472 0.031501364
-0.2820321 0.30429077 0.08473729 0.19615512 -0.025551092 -0.19130006 0.30455238 0.0012997702
-0.09493021 -0.15547277
00000000: f6db 9fbe 656c 89be 9308 c6bd c99d 85be
00000010: 7c33 903e daef f4bd fc62 ab3e e3f1 653d
00000020: 4f2a 83be 546d 9d3e 3142 863e 62ee 8a3d
00000030: 1f26 3a3e 94af 4cbe 3703 d7bd 4c67 873e
00000040: aad7 a2be 5baf 46be 12b5 72bd ac0a 3f3e
00000050: 96d3 ac3e 5c21 e03d 53ff 893e 12c6 a83e
00000060: 22a1 b0be d1bc 4e3c 69ac f73d fb9e c0be
00000070: 2983 dc3e 75b3 3ebe 917c 5fbe ae77 273d
00000080: 5f88 103e d732 a83e 56b6 8c3e eacb 5abe
00000090: d282 c63e 6804 18bc 10c8 483e cf64 78be
000000a0: ddaa adbc 556b 9ebe d711 aa3e 6b1b aa3e
000000b0: 89d3 97bd 7627 9c3e 27b5 be3d ca66 453d
000000c0: 5396 adbd eb7f 873d 3b2b 3f3e 98da a6be
000000d0: e152 0f3e d870 b1be d5ee 97be c29a b53d
000000e0: d699 c3bd 322e 4a3e 6368 d8bd d350 5bbe
000000f0: 56b1 773d 9033 bc3e 0a91 64be b20b 7abe
00000100: 809a 8ebe 7610 89bd 928c 523e 66a8 6c3e
00000110: 9b1f 753d 7854 973e e96d 753d 6346 70be
00000120: 6178 03bd 1867 d1be 8fbf 09be 4c79 0ebe
00000130: ece5 253e ec07 903e a523 4c3e 9307 013d
00000140: 8366 90be 00cc 9b3e bf8a ad3d e3dc 483e
00000150: 8650 d1bc 2ae4 43be 4aee 9b3e 0d5d aa3a
00000160: c56a c2bd 4134 1fbe

conv3.0.bias f4 [10]
-0.14859886 0.05697545 -0.13012974 0.35882095 0.17596634 -0.25625777 0.3300661 0.11797199
0.20849913 0.18260328
00000000: 4d2a 18be 175f 693d bb40 05be 61b7 b73e
00000010: 8530 343e 3834 83be 6dfe a83e 4c9b f13d
00000020: cc80 553e 5bfc 3a3e

conv3.1.weight f4 [10]
1.15604 1.0754255 1.039513 1.203648 1.1508086 1.1062523 1.193226 1.1621635
1.0837898 1.0668116
00000000: 1ef9 933f 8ba7 893f c30e 853f 2311 9a3f
00000010: b24d 933f ad99 8d3f a1bb 983f c6c1 943f
00000020: a0b9 8a3f 488d 883f

conv3.1.bias f4 [10]
0.0560827 0.12104731 -0.032150067 0.040432736 -0.004009605 0.021422083 0.043056626 0.031430315
0.059296608 -0.0177106
00000000: f9b6 653d a7e7 f73d caaf 03bd cc9c 253d
00000010: 0163 83bb 5d7d af3c 255c 303d 13bd 003d
00000020: 00e1 723d d215 91bc

conv3.1.running_mean f4 [10]
-0.5476114 0.024730377 0.6743989 0.46233553 0.5868009 -0.25741333 0.07480904 0.04626578
-0.058631305 0.4052276
00000000: 4330 0cbf 5c97 ca3c 68a5 2c3f 3eb7 ec3e
00000010: 9538 163f aecb 83be 7b35 993d 3081 3d3d
00000020: 6127 70bd fe79 cf3e

conv3.1.running_var f4 [10]
0.32110047 0.29731065 0.7827456 0.23349757 0.33104795 0.18899362 0.16402765 0.14001696
0.18705915 0.22687261
00000000: 4867 a43e 1a39 983e 0462 483f fd19 6f3e
00000010: 1e7f a93e 8b87 413e ddf6 273e 9b60 0f3e
00000020: 6f8c 3f3e 4b51 683e

conv3.4.weight f4 [40, 10, 9]
0.08597871 0.035694174 0.07630687 -0.08094792 -0.05057051 -0.04687406 0.013485337 0.017013852
0.11650929 -0.019917317 -0.035320066 -0.14597459 0.037392158 -0.026205152 -0.09416582 0.044116814
-0.005737273 0.079559095 0.04686399 0.080708355 0.040347375 -0.061564498 0.023613356 0.051004026
0.03688228 -0.009827945 0.05117492 -0.1427242 0.0018545755 -0.06535939 -0.08503237 -0.03844048
-0.025231466 -0.027401183 -0.08532796 0.13069093 -0.13834922 -0.15590964 0.06556438 0.10661969
0.049587913 0.006761411 0.0372982 0.12887591 -0.085773155 0.040431544 -0.18000251 0.0152518805
0.07740331 -0.04094346 0.08411636 -0.04505925 -0.0849148 0.011469678 0.100440904 -0.09178375
0.042440612 0.08386033 0.07093105 0.05100475 0.046957284 -0.003009371 0.14074811 0.023818351
0.057321712 0.057117682 0.07811723 -0.029434178 -0.16117847 -0.031588785 -0.08367381 -0.0031714097
-0.026569773 -0.10266624 -0.062176872 -0.1413204 0.06245638 0.027598666 -0.040003326 0.027410436
0.024739334 -0.0016419485 0.06362263 -0.015758082 -0.0739456 0.071721785 0.004489431 -0.106393754
0.046854645 -0.06464721 -0.016281167 -0.015241711 0.037319407 -0.12374717 -0.029168634 -0.0486644
0.006305689 0.20944399 -0.03959609 0.05675991 0.09651399 -0.03884768 0.050211746 0.052960742
-0.06654451 -0.021505969 -0.0252718 -0.029675467 0.073588446 0.02330591 0.10149667 0.05939333
-0.032349393 -0.030776754 -0.025522193 -0.07453976 -0.016412884 0.05848614 0.026837321 -0.08148946
0.051081568 0.07824887 0.014196324 0.02323532 -0.10555287 -1.3647524e-05 0.023154888 0.04452359
-0.07383011 0.08063203 0.066194944 -0.0044191005 0.07620009 -0.017032884 -0.20790781 0.01888252
0.08807949 0.09169656 0.12950206 0.081531934 -0.020933703 -0.0013252082 -0.037305705 0.027755994
0.087804675 -0.061093073 -0.19606699 -0.02662139 -0.14950417 0.06409555 0.044778243 -0.13547835
0.09095454 0.059446465 0.024674736 -0.0063273446 -0.03570473 -0.03667443 -0.015556517 -0.2508847
-0.11523415 0.08803478 0.023763526 0.017061215 -0.0012868197 -0.09143607 0.14826821 -0.12362041
0.031110577 -0.029443411 -0.022146538 -0.017902298 0.045994554 0.025762273 0.011494834 0.03727364
-0.10029327 -0.01248054 0.032432206 0.06610961 -0.092705406 -0.08527598 -0.058273155 0.051538505
-0.12809144 0.027077539 -0.04404096 0.10525604 -0.094719365 -0.023124833 0.014076709 0.11042856
-0.030427046 0.029690675 -0.13826317 0.05271141 0.011630631 0.06018965 0.053316932 -0.01777719
-0.10533362 0.043747075 -0.108251885 -0.009168632 -0.08645374 -0.05385459 -0.082096934 -0.084906474
-0.013525302 0.02625589 -0.008210848 -0.16333795 -0.122449026 0.022127206 -0.09311441 -0.007611288
-0.0657732 0.041861054 -0.072075576 0.022000074 -0.050823662 0.0065008244 0.03470734 0.053877175
-0.036025178 0.06984044 0.06630357 -0.18056639 0.025885295 0.059911862 -0.14878808 -0.23070493
0.11997948 -0.2021255 -0.12048441 0.09693917 -0.033260252 0.09333016 -0.0716983 -0.16583279
0.023801751 -0.009207714 -0.08249008 -0.12490163 -0.023741055 -0.008076129 0.09943722 0.034602873
-0.029760111 0.063816115 0.07004402 -0.09141218 0.103108905 -0.0133665 0.071288645 -0.040872253
00000000: 9b15 b03d 0e34 123d c746 9c3d 06c8 a5bd
00000010: 0623 4fbd 04ff 3fbd 9af1 5c3c a260 8b3c
00000020: 6c9c ee3d a429 a3bc c6ab 10bd 5d7a 15be
00000030: 8528 193d 30ac d6bc 02da c0bd d5b3 343d
00000040: bcff bbbb e1ef a23d 75f4 3f3d 6c4a a53d
00000050: 4a43 253d 0e2b 7cbd cc70 c13c 99e9 503d
00000060: e011 173d 6405 21bc cb9c 513d 4b26 12be
00000070: 3a15 f33a 25db 85bd 7425 aebd c473 1dbd
00000080: 38b2 cebc 7278 e0bc 6dc0 aebd d8d3 053e
00000090: 6bab 0dbe c7a6 1fbe 9e46 863d 6d5b da3d
000000a0: b21c 4b3d d48e dd3b ffc5 183d 0cf8 033e
000000b0: d6a9 afbd 8c9b 253d 9452 38be 06e3 793c
000000c0: a085 9e3d 54b4 27bd 3345 ac3d 0c90 38bd
000000d0: d0e7 adbd 51eb 3b3c f6b3 cd3d 1ef9 bbbd
000000e0: 35d6 2d3d f7be ab3d 4c44 913d 5bea 503d
000000f0: 4856 403d de38 45bb 4620 103e b41e c33c
00000100: 2cca 6a3d 3bf4 693d edfb 9f3d f21f f1bc
00000110: f80b 25be 3e63 01bd 2d5d abbd 6dd7 4fbb
00000120: daa8 d9bc ad42 d2bd 2dad 7ebd 4cb6 10be
00000130: 43d2 7f3d 9916 e23c 87da 23bd da8b e03c
00000140: 25aa ca3c a636 d7ba 954c 823d 1817 81bc
00000150: ca70 97bd dfe2 923d 141c 933b f8e4 d9bd
00000160: a8ea 3f3d c265 84bd 1560 85bc 5fb8 79bc
00000170: 3cdc 183d 286f fdbd 0ff3 eebc 5254 47bd
00000180: f49f ce3b 7c78 563e 822f 22bd 147d 683d
00000190: 20a9 c53d bf1e 1fbd d5aa 4d3d 5ded 583d
000001a0: 7d48 88bd 492d b0bc ce06 cfbc f719 f3bc
000001b0: 8ab5 963d 09ec be3c 7cdd cf3d 6c46 733d
000001c0: cc80 04bd 881f fcbc eb13 d1bc 4da8 98bd
000001d0: 5074 86bc 2a8f 6f3d f1d9 db3c f2e3 a6bd
000001e0: e83a 513d f240 a03d b397 683c ff57 be3c
000001f0: 1a2c d8bd abf7 64b7 52af bd3c 5e5e 363d
00000200: 3e34 97bd 6822 a53d 3791 873d 1ace 90bb
00000210: cb0e 9c3d 8c88 8bbc c9e5 54be 84af 9a3c
00000220: 0563 b43d 68cb bb3d 309c 043e 37fa a63d
00000230: 287d abbc 9cb2 adba decd 18bd 8a60 e33c
00000240: f0d2 b33d bb3c 7abd c9c5 48be 1a15 dabc
00000250: 9f17 19be 8744 833d 6469 373d d6ba 0abe
00000260: 6046 ba3d 237e 733d ac22 ca3c 9d55 cfbb
00000270: 1f3f 12bd ed37 16bd c3e0 7ebc f673 80be
00000280: e2ff ebbd 944b b43d baab c23c f6c3 8b3c
00000290: 81aa a8ba d642 bbbd 9fd3 173e b32c fdbd
000002a0: 9cdb fe3c 4f33 f1bc a86c b5bc d7a7 92bc
000002b0: c964 3c3d 670b d33c d454 3c3c 3fac 183d
000002c0: 8f66 cdbd 2e7b 4cbc a2d7 043d 7a64 873d
000002d0: 55dc bdbd 2ca5 aebd d5af 6ebd 0a1a 533d
000002e0: 672a 03be b7d1 dd3c 4b64 34bd 7b90 d73d
000002f0: 3afc c1bd 4a70 bdbc ffa1 663c 5e28 e23d
00000300: 2442 f9bc dc39 f33c dc94 0dbe ebe7 573d
00000310: 678e 3e3c 6c89 763d db62 5a3d 78a1 91bc
00000320: 27b9 d7bd 2230 333d 2ab3 ddbd 0838 16bc
00000330: a90e b1bd a196 5cbd 7022 a8bd 72e3 adbd
00000340: 3a99 5dbc 9816 d73c cb86 06bc 1042 27be
00000350: 8ec6 fabd 1d44 b53c c5b2 bebd 1d68 f9bb
00000360: 19b4 86bd 7f76 2b3d 5c9c 93bd 8039 b43c
00000370: 792c 50bd de04 d53b 4929 0e3d 50ae 5c3d
00000380: 238f 13bd 8108 8f3d 2bca 873d 65e6 38be
00000390: 660d d43c 2466 753d e75b 18be ea3d 6cbe
000003a0: cdb7 f53d fdf9 4ebe 88c0 f6bd 0b88 c63d
000003b0: e73b 08bd e223 bf3d 8fd6 92bd 12d0 29be
000003c0: e4fb c23c f4db 16bc 8ff0 a8bd 6dcc ffbd
000003d0: 9a7c c2bc bd51 04bc bea5 cb3d bebb 0d3d
000003e0: 7acb f3bc 06b2 823d 3d73 8f3d 4f36 bbbd
000003f0: c32a d33d 2aff 5abc c8ff 913d aa69 27bd

conv3.4.bias f4 [40]
-0.027443016 0.049143385 0.032826368 -0.10275975 0.0638922 0.020012947 0.05504996 0.07878246
0.05506291 0.04215392 0.06672811 -0.08569579 -0.08984506 -0.043543067 -0.09820457 0.0090713715
-0.039298948 -0.0025398345 0.05758096 -0.02791383 0.046653595 0.025995214 -0.00498714 -0.05644512
-0.09635033 -0.052180056 0.0314681 0.05316615 -0.11105422 0.016071143 -0.09405881 -0.037354168
0.0056531243 -0.017415961 0.028261317 0.061706055 -0.06752293 -0.028129742 0.054241374 -0.0305922
00000000: 2dd0 e0bc 934a 493d f174 063d b473 d2bd
00000010: ead9 823d 31f2 a33c 117c 613d b358 a13d
00000020: a589 613d 97a9 2c3d bfa8 883d 4681 afbd
00000030: b000 b8bd 375a 32bd 7a1f c9bd 17a0 143c
00000040: eff7 20bd 5a73 26bb 03da 6b3d 8bab e4bc
00000050: d717 3f3d eaf3 d43c 2a6b a3bb 0033 67bd
00000060: 5253 c5bd c1ba 55bd b2e4 003d c0c4 593d
00000070: 6570 e3bd a1a7 833c e8a1 c0bd af00 19bd
00000080: d83d b93b ebab 8ebc 4784 e73c 7dbf 7c3d
00000090: 7649 8abd 5870 e6bc 342c 5e3d 7e9c fabc

conv3.5.weight f4 [40]
0.99450696 0.96466005 1.039847 1.0269684 1.1010853 0.9759904 0.9993291 1.007928
1.183747 1.0407332 1.021325 1.1290351 1.0015638 0.98428005 1.0266088 0.98509514
1.0157267 0.9611331 0.9998859 1.0278006 1.0073808 1.0016664 0.9877409 1.0589895
0.9886606 1.0477045 1.0022761 1.0381866 1.0602047 1.0213311 1.0243975 0.9952521
0.9782833 1.009335 1.0089381 0.9930055 0.99406207 1.1477922 0.9843338 1.0111498
00000000: 0298 7e3f f6f3 763f b519 853f b373 833f
00000010: 5df0 8c3f 82da 793f 08d4 7f3f c903 813f
00000020: 0685 973f bf36 853f c7ba 823f 3984 903f
00000030: 3e33 803f c7f9 7b3f eb67 833f 322f 7c3f
00000040: 5503 823f d20c 763f 86f8 7f3f f88e 833f
00000050: dbf1 803f 9b36 803f 96dc 7c3f f88c 873f
00000060: dc18 7d3f 2e1b 863f 954a 803f 4ce3 843f
00000070: cab4 873f faba 823f 751f 833f d7c8 7e3f
00000080: c670 7a3f e431 813f e224 813f 9c35 7e3f
00000090: da7a 7e3f dbea 923f 4dfd 7b3f 5b6d 813f

conv3.5.bias f4 [40]
-0.00568751 -0.01072221 -0.008970551 -0.032833517 -0.0038374218 -0.017496923 -0.008539307 -0.007653776
-0.012824628 -0.0037926645 -0.013043663 0.0061711003 -0.00077507936 -0.011718389 -0.0025399292 -0.0024302609
-0.015643865 -0.010068932 -0.012723083 -0.00047634638 -0.0056437347 -0.013498893 -0.0074876114 -0.0011722926
-0.011800903 -0.0058212783 -0.017500771 -0.006738026 -0.0007699366 -0.0145425135 -0.00068924035 -0.012168122
-0.010906921 -0.012725653 -0.01434299 -0.008806455 -0.016430208 0.00035188103 -0.011938308 -0.005886968
00000000: 4b5e babb 35ac 2fbc 38f9 12bc 707c 06bd
00000010: 417d 7bbb b555 8fbc 73e8 0bbc 87cc fabb
00000020: 631e 52bc 5a8e 78bb 17b5 55bc f136 ca3b
00000030: b22e 4bba 7cfe 3fbc f174 26bb 0345 1fbb
00000040: 9027 80bc 29f8 24bc 7a74 50bc 21be f9b9
00000050: 14ef b8bb 762a 5dbc a35a f5bb 9da7 99ba
00000060: 9358 41bc 6cc0 bebb c75d 8fbc a9ca dcbb
00000070: 92d5 49ba b943 6ebc 23ae 34ba ce5c 47bc
00000080: f1b2 32bc 427f 50bc dcfe 6abc f348 10bc
00000090: a598 86bc ac7c b839 e598 43bc 78e7 c0bb

conv3.5.running_mean f4 [40]
0.20105465 0.46125937 -0.13133153 -0.12501995 -0.30949423 0.16456881 -0.077746116 0.23907499
-0.11007663 -0.22579116 0.269517 -0.45815882 -0.13807376 -0.023410572 -0.07245327 0.011335714
0.10094714 0.14248553 0.30805832 -0.061970487 -0.0091635585 -0.0866181 0.16509388 -0.1457464
-0.06764185 -0.30426452 -0.08446268 0.2853731 -0.14204235 -0.09176492 -0.05215495 -0.0444587
-0.017992845 0.24064828 0.06667752 -0.27715942 -0.043684155 -0.2509145 0.40761942 0.53293204
00000000: 45e1 4d3e 302a ec3e c67b 06be 3b05 00be
00000010: 0776 9ebe ba84 283e 5b39 9fbd 13d0 743e
00000020: db6f e1bd cc35 67be 22fe 893e cb93 eabe
00000030: 3563 0dbe 87c7 bfbc 6162 94bd 6eb9 393c
00000040: 60bd ce3d bae7 113e d2b9 9d3e c4d4 7dbd
00000050: c022 16bc d564 b1bd 5f0e 293e 8b3e 15be
00000060: cf87 8abd 8fc8 9bbe c5fa acbd 6c1c 923e
00000070: 8d73 11be 3fef bbbd 6ea0 55bd 531a 36bd
00000080: bb65 93bc 816c 763e 398e 883d d7e7 8dbe
00000090: 28ee 32bd de77 80be 7eb3 d03e 3c6e 083f

conv3.5.running_var f4 [40]
0.1915744 0.30093756 0.20080593 0.23466043 0.1581937 0.21276738 0.24089356 0.19361511
0.1756414 0.22067073 0.24928385 0.20491269 0.23042062 0.16340326 0.21540652 0.15542041
0.14457045 0.14405811 0.2050706 0.19918361 0.16424906 0.19466525 0.22880045 0.1289038
0.16891214 0.12290705 0.18777733 0.15983228 0.12153462 0.23812988 0.20989598 0.18606122
0.20615385 0.1612282 0.20536642 0.23652624 0.16398738 0.24538286 0.26525256 0.23274705
00000000: 142c 443e 7d14 9a3e 12a0 4d3e d34a 703e
00000010: 87fd 213e b1df 593e cdac 763e 0a43 463e
00000020: 57db 333e 82f7 613e 4444 7f3e a2d4 513e
00000030: 62f3 6b3e 2f53 273e 8793 5c3e 8726 1f3e
00000040: 470a 143e f883 133e 07fe 513e caf6 4b3e
00000050: e830 283e 5456 473e aa4a 6a3e 5cff 033e
00000060: 4ef7 2c3e b1b6 fb3d b348 403e 13ab 233e
00000070: 25e7 f83d 52d8 733e f9ee 563e d586 3e3e
00000080: ff19 533e 0119 253e 934b 523e ef33 723e
00000090: 4fec 273e a545 7b3e 2fcf 873e 3e55 6e3e

mlp.1.weight f4 [64, 120]
0.028938605 -0.017150117 0.065164566 -0.04662505 0.063842446 0.07118557 0.0403419 -0.03297582
-0.077038445 -0.020017799 -0.032576934 0.02625873 -0.0865374 0.054688662 -0.010944229 0.041429166
0.01298199 0.06020315 -0.023731494 0.045171916 0.040131014 0.058356892 0.05360618 -0.068291344
-0.036824893 -0.05667199 -0.036141884 -0.05590247 0.045492742 -0.010635424 -0.07963578 -0.051206723
0.0060908864 -0.0033186094 0.053348295 -0.024249814 -0.056465276 -0.024053296 0.07017747 0.022348903
-0.087084554 0.06256061 -0.041719995 0.024061402 0.022779785 -0.040002264 0.05185229 -0.03631786
0.023601415 0.058892563 0.058119714 -0.04659721 -0.064214654 -0.019877842 -0.010710395 0.028527368
-0.031362236 0.015517073 0.0358524 -0.06567672 0.01894489 -0.019359872 -0.06782044 0.0698866
0.05723498 -0.021648586 -0.032626294 0.059493534 -0.029130965 0.03563773 0.044646684 -0.08114509
0.030197712 0.087752186 0.05862864 -0.0017164431 -0.06496856 -0.015670624 -0.0057090954 -0.04160373
-0.060065247 -0.08554508 -0.058040634 -0.03502324 0.00055834546 -0.088234186 -0.087086834 0.082332015
0.002994369 -0.044274632 -0.026246162 -0.08461123 -0.014242273 0.034010373 0.009037258 0.011744814
0.068647675 0.08634376 0.018531842 0.009661493 0.02332126 0.016639747 -0.07858398 -0.06595293
0.036979683 0.07225407 0.08029617 -0.08454287 -0.07914245 -0.07826489 0.010080763 -0.08737781
-0.08086844 0.012748544 0.08378333 -0.040278938 0.021081178 0.027264643 -0.04371619 -0.08153569
0.08012056 -0.0065131877 0.067989685 0.025138883 -0.045376364 -0.04903113 0.03585469 0.042834986
-0.01055226 -0.05227499 -0.0048469296 -0.021150997 0.08364088 0.011718164 -0.019791268 0.055108674
0.016653642 0.049444083 0.01638087 0.06486666 0.07064072 -0.059900958 -0.018039115 -0.079356894
0.038824093 0.037153132 0.047409713 -0.09926848 0.012863651 0.01172148 -0.05787837 0.08544254
-0.026881792 0.088590726 0.035148654 0.027724553 0.08562562 -0.058174316 0.023727931 0.043059807
0.13310488 -0.09114537 -0.052508082 0.043487612 0.033279326 0.0020276872 0.025395863 -0.07775038
0.05748414 -0.02982386 -0.008970749 0.13444339 -0.073282756 0.016513404 -0.049376972 0.056173902
0.11488277 0.033463556 0.07060373 0.06619856 0.08595157 -0.004707208 0.046433147 -0.07787071
0.060692556 -0.035558544 -0.11505051 0.03531278 -0.067440465 0.08107798 0.075859405 0.0323842
0.046439 -0.004214655 -0.017457204 -0.05177249 -0.045266774 -0.030426713 -0.040363267 -0.022722332
0.034064937 -0.09375246 -0.041042626 0.12360921 -0.0876806 0.031899147 0.018135613 0.02875206
0.10460328 -0.0069333552 -0.02088034 0.04765463 -0.0600681 -0.06726995 -0.041358728 0.082764074
-0.055396575 0.039384652 -0.0022396366 0.038320407 -0.10881953 0.113417864 -0.06841865 0.07518712
-0.03824332 -0.1465848 0.03489887 0.066467375 0.009503406 0.022700869 0.12341226 0.063137144
-0.0693523 -0.007523968 0.012326356 0.04431235 -0.020531952 0.09371747 -0.038023494 0.07836281
-0.051182307 0.053584974 -0.026002722 0.02117453 -0.014675988 0.05511953 -0.07199803 0.021362701
-0.002126218 -0.019010756 -0.012487276 -0.03017693 0.027511483 -0.07720019 0.009719645 -0.018248072
00000000: a710 ed3c 677e 8cbc 0075 853d e9f9 3ebd
00000010: d4bf 823d bdc9 913d 8c3d 253d a711 07bd
00000020: 55c6 9dbd 5efc a3bc 646f 05bd 8c1c d73c
00000030: 853a b1bd 3801 603d 6c4f 33bc a1b1 293d
00000040: 6ab2 543c 9497 763d 8d68 c2bc 3006 393d
00000050: 6b60 243d a307 6f3d 2792 5b3d 55dc 8bbd
00000060: b3d5 16bd e320 68bd 8309 14bd fdf9 64bd
00000070: 9956 3a3d 3440 2ebc 1518 a3bd 24be 51bd
00000080: 0f96 c73b 077d 59bb be83 5a3d 8ca7 c6bc
00000090: 2248 67bd 6b0b c5bc 35b9 8f3d 0c15 b73c
000000a0: 6359 b2bd c71f 803d 96e2 2abd 6b1c c53c
000000b0: ac9c ba3c 6ad9 23bd 1163 543d 09c2 14bd
000000c0: c157 c13c 5439 713d f00e 6e3d b7dc 3ebd
000000d0: f982 83bd dbd6 a2bc a77a 2fbc 3ab2 e93c
000000e0: b075 00bd 523b 7e3c f7d9 123d 8481 86bd
000000f0: 5032 9b3c 9898 9ebc 71e5 8abd b520 8f3d
00000100: 3a6f 6a3d 6058 b1bc 26a3 05bd 7eaf 733d
00000110: 10a4 eebc def8 113d 71df 363d 662f a6bd
00000120: 3161 f73c 6bb7 b33d 9624 703d 46fa e0ba
00000130: 3d0e 85bd ae5f 80bc 5d13 bbbb ac68 2abd
00000140: fa06 76bd 4232 afbd 04bc 6dbd 8774 0fbd
00000150: ee5d 123a 20b4 b4bd 955a b2bd b09d a83d
00000160: 2d3d 443b 5159 35bd 3102 d7bc a748 adbd
00000170: 6c58 69bc 764e 0b3d 0211 143c 526d 403c
00000180: 2797 8c3d ffd4 b03d 17d0 973c 3d4b 1e3c
00000190: 3a0c bf3c 1450 883c a3f0 a0bd 5412 87bd
000001a0: 0278 173d f1f9 933d 5272 a43d d024 adbd
000001b0: 7015 a2bd 5849 a0bd c929 253c 23f3 b2bd
000001c0: 5a9e a5bd 45df 503c 9896 ab3d 87fb 24bd
000001d0: 6fb2 ac3c 1a5a df3c bf0f 33bd 2ffc a6bd
000001e0: 4016 a43d 946c d5bb 2d3e 8b3d 0ff0 cd3c
000001f0: 91dc 39bd ded4 48bd 5edc 123d bd73 2f3d
00000200: 63e3 2cbc 4d1e 56bd fed2 9ebb db44 adbc
00000210: e94b ab3d 8bfd 3f3c 4c21 a2bc a2b9 613d
00000220: 386d 883c e185 4a3d 2d31 863c d0d8 843d
00000230: 15ac 903d b55a 75bd c4c6 93bc de85 a2bd
00000240: 0306 1f3d e22d 183d b030 423d 464d cbbd
00000250: 10c2 523c 730b 403c df11 6dbd 80fc ae3d
00000260: 3437 dcbc 0e6f b53d 09f8 0f3d 9a1e e33c
00000270: 7c5c af3d 3148 6ebd 1461 c23c 7b5f 303d
00000280: a54c 083e 6caa babd b712 57bd 1120 323d
00000290: e74f 083d f2e2 043b fc0a d03c 973b 9fbd
000002a0: 7d74 6b3d 2b51 f4bc 0cfa 12bc 87ab 093e
000002b0: 4515 96bd 1e47 873c 823f 4abd 9b16 663d
000002c0: a847 eb3d 1511 093d b098 903d 1c93 873d
000002d0: 6007 b03d ec3e 9abb af30 3e3d ae7a 9fbd
000002e0: c298 783d d6a5 11bd 9a9f ebbd 22a4 103d
000002f0: 3a1e 8abd 360c a63d 2d5c 9b3d 4ba5 043d
00000300: d236 3e3d 171b 8abb 6902 8fbc 640f 54bd
00000310: a769 39bd 7141 f9bc f453 25bd 2f24 babc
00000320: ad87 0b3d 4a01 c0bd 501c 28bd d326 fd3d
00000330: e391 b3bd aea8 023d 2391 943c 7189 eb3c
00000340: 3f3a d63d 3331 e3bb 3f0d abbc 8031 433d
00000350: f809 76bd d4c4 89bd c567 29bd 3680 a93d
00000360: 85e7 62bd cd51 213d dec6 12bb dcf5 1c3d
00000370: c6dc debd a047 e83d 141f 8cbd b4fb 993d
00000380: 07a5 1cbd 531a 16be 1ef2 0e3d 0c20 883d
00000390: 2cb4 1b3c 2cf7 b93c 91bf fc3d 0c4e 813d
000003a0: 9408 8ebd 9e8b f6bb 7cf4 493c de80 353d
000003b0: a032 a8bc f2ee bf3d 86be 1bbd ae7c a03d
000003c0: 8aa4 51bd eb7b 5b3d a903 d5bc 3576 ad3c
000003d0: 8e73 70bc 04c5 613d b473 93bd d500 af3c
000003e0: 0558 0bbb 72bc 9bbc 6f97 4cbc 9c35 f7bc
000003f0: c35f e13c 221b 9ebd 253f 1f3c fb7c 95bc

mlp.1.bias f4 [64]
-0.06455192 0.0002500185 -0.035958618 -0.0047012134 -0.015009045 0.062046662 -0.015104985 0.07951908
-0.047692996 0.008352711 -0.050486267 0.04253538 -0.007584559 0.07994777 -0.08397044 0.090812184
0.01223572 0.010983059 -0.030014364 -0.053774595 0.049617607 0.0216685 0.0076724947 0.028985592
0.01153474 -0.023803642 -0.030146768 -0.09324139 0.08646903 -0.07287314 0.04670248 0.08016939
-0.052386142 -0.010547307 -0.06649797 -0.07395912 -0.051552765 -0.008772352 0.037088767 -0.039337624
0.04496029 -0.02055075 -0.010764575 0.0820805 -0.08755106 0.06642605 0.056842044 -0.026966555
0.063664064 -0.080408715 0.015086086 -0.058552828 0.02809736 -0.060561437 0.06517212 -0.055009324
0.010800917 0.08912268 -0.05141315 -0.036292408 0.032012995 0.0030884014 -0.043167096 -0.076652855
00000000: cc33 84bd ea14 8339 5849 13bd a30c 9abb
00000010: 7fe8 75bc a424 7e3d e67a 77bc e6da a23d
00000020: bb59 43bd cfd9 083c b0ca 4ebd 9439 2e3d
00000030: e487 f8bb a8bb a33d b2f8 abbd bdfb b93d
00000040: 5478 483c 4af2 333c afe0 f5bc c042 5cbd
00000050: d53b 4b3d 2382 b13c 8d69 fb3b 3173 ed3c
00000060: 35fc 3c3c dbff c2bc 5bf6 f6bc 58f5 bebd
00000070: ad16 b13d 833e 95bd 1a4b 3f3d d92f a43d
00000080: da92 56bd 9dce 2cbc 1630 88bd e177 97bd
00000090: fe28 53bd e9b9 0fbc 64ea 173d 7d20 21bd
000000a0: 4828 383d 0c5a a8bc e65d 30bc d219 a83d
000000b0: f84d b3bd 620a 883d 34d3 683d f7e8 dcbc
000000c0: 4e62 823d 53ad a4bd a12b 773c 17d5 6fbd
000000d0: 6f2c e63c 450f 78bd f678 853d 7551 61bd
000000e0: 54f6 303c f485 b63d 9896 52bd 59a7 14bd
000000f0: 0f20 033d c766 4a3b fbcf 30bd 2cfc 9cbd
