model/pssm_composition_k1_model.ckpt (torch, 635099 bytes, 40 tensors)

conv1.0.weight f4 [10, 1, 3]
0	0xbdfe8dfa	-0.12429424
1	0x3db55149	0.088533945
2	0xbf0b847c	-0.5449903
3	0x3e96bf2e	0.29442734
4	0xbda1c402	-0.07898714
5	0xbde10167	-0.109865956
6	0xbe6103e9	-0.21974148
7	0xbf1300e8	-0.5742326
8	0x3d57c766	0.052680396
9	0xbeb566bf	-0.35429952
10	0xbe2d2f92	-0.16912678
11	0x3f0b8137	0.5449404
12	0xbe98826e	-0.2978701
13	0xbe6459e2	-0.22299913
14	0xbf114169	-0.5674043
15	0xbec7af02	-0.39000708
16	0x3dee21af	0.116275184
17	0x3e6b0980	0.22952843
18	0xbd68f926	-0.05687823
19	0x3ec3a50c	0.38211858
20	0xbf0cc7fd	-0.5499266
21	0x3f12b809	0.57312065
22	0x3ec43e2e	0.3832869
23	0x3ee6a160	0.45044994
24	0xbeff6e1f	-0.49888703
25	0x3e6fcdf0	0.23418403
26	0xbed26bc1	-0.41097835
27	0xbef8b46d	-0.48575154
28	0x3e84096e	0.25788444
29	0xbe5b41f2	-0.21411875

conv1.0.bias f4 [10]
0	0x3dc40d82	0.09572889
1	0x3e9b9528	0.30387235
2	0x3ead3295	0.33827654
3	0x3ebce882	0.3689614
4	0xbef8e967	-0.48615572
5	0x3cde6eed	0.027152503
6	0x3dc91a60	0.09819484
7	0xbd9c4633	-0.07630577
8	0xbe44fdab	-0.19237392
9	0x3e2c604f	0.16833614

conv1.1.weight f4 [10]
0	0x3f7e3449	0.9929853
1	0x3f805caa	1.0028279
2	0x3f81591d	1.010532
3	0x3f80cf68	1.0063295
4	0x3f80c339	1.0059577
5	0x3f82914a	1.0200589
6	0x3f7da881	0.9908524
7	0x3f81c71e	1.0138891
8	0x3f8099db	1.0046953
9	0x3f8086cd	1.0041138

conv1.1.bias f4 [10]
0	0x3c4ce354	0.012505371
1	0xbca5a2c2	-0.02021921
2	0xbc4c18b0	-0.012457058
3	0x3b83533e	0.004007726
4	0xbc263405	-0.010144238
5	0xbc805fdb	-0.015670707
6	0xbb09d0a0	-0.0021028891
7	0x3bf50141	0.007476956
8	0xb965b76a	-0.00021907469
9	0x3c0b1ec9	0.0084912265

conv1.1.running_mean f4 [10]
0	0x3df16c76	0.117882654
1	0x3ea54af8	0.3228376
2	0x3ed63300	0.41835785
3	0x3ebb5913	0.36591396
4	0xbebfd10e	-0.37464184
5	0x3d589fa1	0.05288661
6	0x3df02fbc	0.117278546
7	0xbe4934c3	-0.19649033
8	0xbe1057ab	-0.14095943
9	0x3e4de64c	0.20107383

conv1.1.running_var f4 [10]
0	0x3d1f74ed	0.03892987
1	0x3d11673b	0.03549884
2	0x3d2a46fe	0.04157161
3	0x3d23c2b0	0.03998059
4	0x3d3ad77c	0.04561566
5	0x3d1778d8	0.03698048
6	0x3d1f2fe7	0.038864043
7	0x3d4be90d	0.0497828
8	0x3d244f9e	0.04011499
9	0x3d1c89f2	0.038217492

conv1.4.weight f4 [400, 10, 3]
0	0x3e17f381	0.14838983
1	0xbd84a487	-0.064766936
2	0x3dbb8073	0.09155359
3	0xbe1b04a9	-0.15138496
4	0xbdbd787a	-0.09251495
5	0x3c34e67e	0.011041282
6	0x3e101a60	0.14072561
7	0xbc0b9d8c	-0.008521449
8	0xbd4f4348	-0.050601274
9	0x3d82d618	0.063884914
10	0x3dc819b0	0.097705245
11	0x3da10e18	0.07864016
12	0xbd96d695	-0.07365147
13	0xbdeac6ed	-0.11463723
14	0xbe04d9da	-0.12973729
15	0xbe2e0ab5	-0.16996272
16	0x3da70484	0.08155158
17	0xbdef3414	-0.11679855
18	0x3e43caa0	0.19120264
19	0x3dfb6b6a	0.12276347
20	0xbd9013a3	-0.070349954
21	0xbdc4af48	-0.09603745
22	0xbe2b2f14	-0.16717178
23	0xbe543433	-0.20723037
24	0x3ba32659	0.0049789366
25	0x3d62b162	0.055344947
26	0xbd09b5e9	-0.03362075
27	0x3d36fd05	0.044674892
28	0xbb6716dd	-0.003526143
29	0x3be279bb	0.006911484
30	0x3d9694e0	0.073526144
31	0xbe201100	-0.15631485
32	0x3d155efe	0.036467545
33	0x3d180048	0.037109643
34	0xbd898d50	-0.06716406
35	0x3e38e5ad	0.18056364
36	0x3d84f3c5	0.06491808
37	0x3d85ce78	0.065335214
38	0xba947e92	-0.0011329225
39	0xbdead558	-0.11466473
40	0xbe0f68e1	-0.14004852
41	0x3e353adf	0.17698239
42	0xbbc84495	-0.0061116912
43	0xbe01bc5e	-0.12669513
44	0x3dc4a9e3	0.09602716
45	0xbd1f21c3	-0.038850557
46	0xbdfa8a70	-0.12233436
47	0xbe112265	-0.14173277
48	0xbe01ee1a	-0.12688485
49	0x3cc5d0f9	0.024147497
50	0xbe30a4f5	-0.17250426
51	0xbd033fab	-0.03204314
52	0xbe13c990	-0.14432359
53	0x3da136fd	0.07871816
54	0xbca95abe	-0.020673152
55	0x3d12a11a	0.03579817
56	0x3d5e17aa	0.054221787
57	0xbd15dbca	-0.03658656
58	0xbdd8c72d	-0.10584865
59	0xbd3bb0ba	-0.045822836
60	0xbd8b04fb	-0.06788059
61	0xbd4ec161	-0.05047739
62	0x3d3d2db2	0.046186157
63	0xbe313933	-0.17306976
64	0x3d475942	0.048669107
65	0xbe1c89b1	-0.152869
66	0x3d04a98c	0.032388255
67	0xbcb11791	-0.021617683
68	0x3dd44f0a	0.10366638
69	0x3dc262d2	0.09491505
70	0x3d9c453f	0.07630395
71	0xbd4ebfb1	-0.05047578
72	0xbdc17fac	-0.094481796
73	0x3e284355	0.16431935
74	0xbd87b079	-0.06625456
75	0x3e0a9b27	0.13535748
76	0xbdecef8c	-0.115691274
77	0x3e0d6ad6	0.13810286
78	0xbe2eda08	-0.1707536
79	0x3ddf3fab	0.109008156
80	0x3e4c0d08	0.19926846
81	0x3db888e3	0.09010484
82	0x3d5c788c	0.0538259
83	0xbe288815	-0.16458161
84	0xbbb68c61	-0.0055709337
85	0x3e29d91e	0.1658673
86	0x3dd05e89	0.10174281
87	0x3e00dc1a	0.12583962
88	0x3e33b5f6	0.17549881
89	0xbddbcdd7	-0.1073262
90	0x3dba094f	0.09083807
91	0x3decad31	0.11556471
92	0x3e2122ef	0.15735982
93	0xbdbda05b	-0.09259101
94	0x3e3fef3b	0.18743603
95	0x3ddb647e	0.10712527
96	0xbc42803f	-0.011871397
97	0x3d2145b6	0.039373122
98	0xbd35ff0e	-0.044432692
99	0xbe4763f0	-0.19471717
100	0xbe347262	-0.17621759
101	0x3e090d0b	0.13383882
102	0xbe34a078	-0.17639339
103	0x3e182f6d	0.14861841
104	0x3e34d1a6	0.176581
105	0x3c8339c2	0.016018752
106	0x3d3a2b17	0.04545125
107	0x3e15e6fc	0.14638895
108	0x3bd6520c	0.0065405425
109	0x3e0cdc1e	0.13755843
110	0x3d3a44e6	0.045475863
111	0xbbdf620d	-0.0068171085
112	0xbe2ca238	-0.16858757
113	0xbdd5a2e5	-0.1043146
114	0xbe1064bc	-0.14100927
115	0x3df7d919	0.12101955
116	0x3c63abde	0.013895957
117	0x3dd5333e	0.10410164
118	0xbe2c03ec	-0.16798371
119	0xbdc502f3	-0.09619703
120	0x3e24ce04	0.16094214
121	0xbdbdc2bb	-0.092656575
122	0xbe013ec8	-0.12621605
123	0x3dbd19fc	0.09233472
124	0xbe1cf688	-0.15328419
125	0x3d89a078	0.0672006
126	0x3d9effdd	0.07763646
127	0x3d9181c9	0.07104833
128	0xbe1458a7	-0.14486943
129	0x3d3a41e5	0.045473
130	0xbcad64b4	-0.021166183
131	0xbdbe0803	-0.09278872
132	0x3de8e940	0.11372614
133	0x3e305e79	0.17223538
134	0xbe115c30	-0.14195323
135	0xbd5df229	-0.05418602
136	0xbdf85aff	-0.12126731
137	0xbe337370	-0.17524505
138	0xbe18b18b	-0.14911477
139	0xbe1306d9	-0.14358081
140	0xbdeeb292	-0.11655153
141	0x3e167052	0.14691284
142	0xbda801ea	-0.0820349
143	0x3d88c1eb	0.06677612
144	0xbda8fef7	-0.08251756
145	0x3e0427ae	0.12905762
146	0xbded7d61	-0.1159618
147	0xbd272c50	-0.040813744
148	0xbd1a0926	-0.03760638
149	0x3e1fb92c	0.15597981
150	0xbe1621df	-0.14661358
151	0xbe322dff	-0.17400359
152	0xbdee5359	-0.11636991
153	0x3d41362d	0.047170807
154	0xbd2141d6	-0.039369427
155	0xbdc63fdc	-0.09680149
156	0x3ccfdeec	0.025374852
157	0x3d66299a	0.056192018
158	0xbdf92c98	-0.12166709
159	0xbd750493	-0.059818815
160	0xbde9a918	-0.11409205
161	0x3e201b21	0.15635349
162	0x3e1a5a96	0.15073618
163	0x3d0aab1b	0.033854585
164	0xbce8fcd6	-0.028440874
165	0x3de462f3	0.111516856
166	0x3e06fee8	0.13183177
167	0x3e14811b	0.14502375
168	0x3d9abc8d	0.075554945
169	0x3d867bb0	0.0656656
170	0x3d5717b7	0.05251285
171	0x3c5d809a	0.0135194305
172	0xbde08468	-0.109627545
173	0xbbefeb26	-0.007321733
174	0x3d6d5840	0.05794549
175	0xbe04443e	-0.12916657
176	0x3c842108	0.016129032
177	0x3d9a9b98	0.075492084
178	0xbe081ebf	-0.13292979
179	0x3d002f93	0.03129537
180	0xbe0f375a	-0.13985959
181	0x3db9d455	0.09073702
182	0x3e29dde6	0.16588554
183	0xbb17328c	-0.00230709
184	0x3e38bbe7	0.18040429
185	0xbe54739c	-0.20747226
186	0x3dd42153	0.103579186
187	0xbda72c37	-0.0816273
188	0xbe12d060	-0.14337301
189	0xbe249cca	-0.16075435
190	0xbccd69d4	-0.025074877
191	0xbe1874be	-0.14888284
192	0x3d4e17f9	0.05031583
193	0x3d165290	0.03669983
194	0xbde09894	-0.10966602
195	0xbe120963	-0.14261393
196	0x3d9cf0bd	0.07663105
197	0xbe0d0a73	-0.13773517
198	0x3da3f0fa	0.08004947
199	0x3caaee16	0.020865481
200	0xbb5df13e	-0.0033865715
201	0x3c433a27	0.01191572
202	0x3e1df224	0.154244
203	0x3e1a74a4	0.15083557
204	0xbc3bb073	-0.011455643
205	0x3d2f212d	0.04275625
206	0x3e0166bc	0.12636846
207	0xbe2788e0	-0.16360807
208	0xbda836e3	-0.08213594
209	0xbde33d19	-0.11095638
210	0x3d581288	0.052752048
211	0x3dab857d	0.0837507
212	0x3e01c3cd	0.12672348
213	0xbe324017	-0.17407261
214	0xbe08b97e	-0.1335201
215	0xbe2cd6d1	-0.16878821
216	0x3c4571b6	0.012051037
217	0xbe378f97	-0.17925869
218	0x3df49a65	0.11943511
219	0x3da5870c	0.08082399
220	0x3da177bf	0.07884168
221	0x3e268d5d	0.16264863
222	0x3cf116c2	0.029429797
223	0x3d89c66c	0.06727299
224	0xbd14e93c	-0.036355242
225	0x3de6bea4	0.112668306
226	0xbdefef6f	-0.1171559
227	0xbb8e800c	-0.0043487605
228	0xbd28d3c2	-0.041217573
229	0xbcdfae42	-0.027304772
230	0xbdf26a56	-0.11836688
231	0xbe0686ac	-0.1313731
232	0xbd7af024	-0.061264172
233	0xbd205a9b	-0.039148908
234	0x3def15f3	0.11674108
235	0xbd8f85f0	-0.070079684
236	0x3e0a1790	0.13485551
237	0x3de7a087	0.11309915
238	0xbca1812f	-0.01971492
239	0xbd8c7833	-0.06858864
240	0xbdc3e9ef	-0.09566104
241	0x3e2b091e	0.16702697
242	0xbdaeee29	-0.08541519
243	0x3e151808	0.14559948
244	0x3d84cc40	0.0648427
245	0x3d97caa5	0.07411698
246	0x3d4db825	0.050224442
247	0x3cfe0e6f	0.031012742
248	0xbe1dac3c	-0.15397733
249	0x3b23bf41	0.0024985822
250	0x3c1d689b	0.009607459
251	0xbde88c72	-0.11354913
252	0xbd84d893	-0.06486621
253	0x3e253fcf	0.16137622
254	0xbe1404a2	-0.14454892
255	0xbd2eabbe	-0.042644255

conv1.4.bias f4 [400]
0	0x3e175727	0.1477934
1	0xbd2b93f0	-0.04188913
2	0x3d8b0870	0.06788719
3	0xbd7f3c90	-0.062313616
4	0xbe499593	-0.19685964
5	0xbd17fdf1	-0.03710741
6	0x3dc9ca31	0.09853018
7	0xbe23deb0	-0.16002917
8	0x3c2c8347	0.010529346
9	0xbd793efc	-0.060851082
10	0x3b825d2f	0.0039783935
11	0xbd6fa1ca	-0.058503903
12	0xbdf9c54a	-0.12195833
13	0xbe3a7b69	-0.1821114
14	0x3d77e82c	0.06052415
15	0xbe004ebb	-0.12530033
16	0xbe2219af	-0.1583011
17	0xbe0a9b9b	-0.13535921
18	0x3e109ebb	0.14123051
19	0xbe1a020b	-0.15039842
20	0x3d5a7e0c	0.053342864
21	0x3da4ad58	0.08040875
22	0x3d800e5c	0.06252739
23	0x3e14d20c	0.14533252
24	0x3e1c7c5c	0.15281814
25	0x3d7e7c5f	0.06213033
26	0xbd1b76ff	-0.03795528
27	0x3d3401f7	0.043947186
28	0xbd42e019	-0.047576997
29	0x3e01e244	0.1268397
30	0x3e0935f4	0.13399488
31	0xbe01c31c	-0.12672085
32	0xbd6b9eef	-0.057524618
33	0xbd00ea50	-0.031473458
34	0x3dc1baa3	0.09459426
35	0xbdf7f78a	-0.12107761
36	0xbd4e4110	-0.050355017
37	0xbdb7b6c0	-0.08970404
38	0x3cc0365b	0.023463419
39	0xbdb2586a	-0.0870827
40	0xbe33287a	-0.1749591
41	0xbd66e45e	-0.05637013
42	0xbe1b1039	-0.15142907
43	0xbd73e4c9	-0.05954436
44	0xbd9f5347	-0.07779556
45	0xbe2cb371	-0.16865326
46	0x3d9f8d12	0.07790579
47	0x3e341466	0.17585906
48	0x3d838ff5	0.06423942
49	0xbcd47752	-0.025935803
50	0x3cfe5f8a	0.031051416
51	0xbde66b7c	-0.1125097
52	0xbc70350d	-0.014661086
53	0xbe155039	-0.14581384
54	0x3bd06cf0	0.0063606426
55	0xbe3934fb	-0.18086617
56	0xbd3eb896	-0.046562754
57	0x3d8c0f1f	0.068388216
58	0x3d426891	0.047463004
59	0x3d3074e7	0.043080237
60	0xbdcfb98a	-0.10142811
61	0x3d96941a	0.07352467
62	0xbd192e05	-0.037397403
63	0xbe3a5d14	-0.18199569
64	0xba302748	-0.00067197205
65	0x3e026e7f	0.12737463
66	0x3dfc09ee	0.123065814
67	0xbc3bccdf	-0.011462419
68	0x3bab4fc9	0.005228017
69	0xbe56286a	-0.20913854
70	0x3d272f23	0.040816437
71	0x3b26f100	0.0025473237
72	0xbda2f1b0	-0.079562545
73	0x3c9847d7	0.018588943
74	0xbdabd9ad	-0.08391128
75	0x3ce9c723	0.028537339
76	0xbdd3d7d3	-0.103438996
77	0xbc64a450	-0.013955191
78	0xbd779286	-0.06044247
79	0xbe2aeff1	-0.16693093
80	0x3e01f3f2	0.12690714
81	0xbcf75c6e	-0.030195441
82	0x3df697ac	0.12040648
83	0xbde307db	-0.11085483
84	0x3db705d9	0.08936662
85	0xbe032d1f	-0.12810181
86	0x3e21b928	0.15793288
87	0x3df49d1f	0.11944031
88	0x3e48d029	0.19610657
89	0x3dbb1f22	0.091367975
90	0xbdb1876f	-0.0866841
91	0xbc96cb30	-0.018407434
92	0x3a60e1f4	0.00085785915
93	0x3e02367c	0.12716097
94	0xbe1810ed	-0.14850207
95	0x3da3fbbf	0.08007001
96	0x3d0eaa07	0.03483012
97	0x3daf6d89	0.08565814
98	0x3dac19a0	0.08403325
99	0x3d4158f2	0.047203965
100	0xbe3a18ec	-0.1817357
101	0xbe193705	-0.14962395
102	0x3d094d65	0.033521075
103	0xbe02cfd3	-0.12774591
104	0xbca918b3	-0.02064166
105	0xbddec2b9	-0.10876984
106	0xbdd2b3d7	-0.10288208
107	0xbc54ba93	-0.012983936
108	0xbe7030cc	-0.23456115
109	0xbd39bb26	-0.045344494
110	0xbe48070f	-0.19533943
111	0x3de155eb	0.11002716
112	0x3dafee26	0.08590345
113	0xbd53c1bb	-0.051698428
114	0x3ded29f6	0.11580269
115	0x3cede5c3	0.029040223
116	0x3e0eb728	0.13937056
117	0x3de1b229	0.110203095
118	0x3d4ff14f	0.05076724
119	0x3ca41621	0.020030083
120	0x3ddfeeb7	0.10934203
121	0xbdc453dc	-0.095863074
122	0xbc154a6b	-0.009111981
123	0xbd9c6582	-0.076365486
124	0xbd86b5a8	-0.06577617
125	0x3e018dff	0.12651823
126	0xbe174910	-0.14773965
127	0xbe0a570f	-0.13509773
128	0xbde6cb39	-0.112692304
129	0x3d6e46be	0.058172934
130	0xbd4ecaba	-0.050486304
131	0xbdaadd7b	-0.08343025
132	0xbdc5d73c	-0.09660193
133	0x3dc704d0	0.09717715
134	0xbe2b1fb5	-0.16711314
135	0xbd5921c7	-0.05301073
136	0x3e01b5b9	0.12666978
137	0xbd8c6fb5	-0.06857244
138	0x3d1bdca3	0.038052212
139	0xbe42d6f7	-0.19027315
140	0xbe2b63cb	-0.16737287
141	0xbda4f6b5	-0.08054868
142	0xbd543992	-0.051812716
143	0x3cb672d9	0.02227156
144	0xbd6b32cd	-0.057421494
145	0xbd0a9286	-0.033831142
146	0x3daba15d	0.08380387
147	0xbe1ce49a	-0.1532158
148	0xbd391fda	-0.04519639
149	0x3c7a3d40	0.015273392
150	0xbdf1d554	-0.11808267
151	0x3d7fb57d	0.06242894
152	0x3d1e694c	0.038674638
153	0x3d32e3b4	0.043674186
154	0xbdf49b33	-0.119436644
155	0x3d229c4f	0.03969985
156	0xbe297af7	-0.16550814
157	0x3dc488dd	0.09596417
158	0xbe2082ad	-0.15674849
159	0x3d88015f	0.066408865
160	0x3bcf4162	0.006324933
161	0x3da2987c	0.0793924
162	0xbd0572d7	-0.032580223
163	0xbe09f784	-0.13473326
164	0x3e391297	0.18073498
165	0x3db7691d	0.08955596
166	0xbdb9ecf9	-0.09078402
167	0x3da2fa2a	0.07957871
168	0x3d19495b	0.037423473
169	0x3db7ad7e	0.08968638
170	0xb8d4ee57	-0.00010153342
171	0x3ddffa6b	0.10936435
172	0x3c96292f	0.018330185
173	0xbbcac0d5	-0.006187538
174	0xbe1ab168	-0.15106738
175	0x3d142509	0.036168132
176	0x3da0d2dd	0.07852719
177	0x3d9df54b	0.077128015
178	0x3de57694	0.112042576
179	0xbdf00d1b	-0.1172125
180	0x3d101de3	0.035184752
181	0xbd869c13	-0.065727375
182	0x3c43a126	0.011940276
183	0xbe1832e7	-0.14863168
184	0xbdf4b9c6	-0.11949496
185	0xbdf69f9b	-0.12042161
186	0xbdb99959	-0.09062452
187	0xbdcd0797	-0.10011213
188	0xbd077a50	-0.03307563
189	0xbdaf84a2	-0.085702196
190	0xbde7f2aa	-0.11325581
191	0xbe01a2b4	-0.12659723
192	0xbdf77e7f	-0.12084674
193	0x3df3b973	0.11900606
194	0xbd76c44a	-0.06024579
195	0x3e11b427	0.14228879
196	0xbd7cf764	-0.061759368
197	0x3dd38bd9	0.10329408
198	0xbe217d10	-0.15770364
199	0x3e0247ed	0.1272275
200	0xbb4c5fdc	-0.0031185066
201	0x3e308d17	0.17241322
202	0xbe42dccd	-0.19029541
203	0xbdf261c7	-0.11835056
204	0x3e1f5101	0.15558244
205	0xbde0592e	-0.1095451
206	0x3dfb8572	0.12281312
207	0x3c787c70	0.015166387
208	0x3d166bc9	0.036723886
209	0xbe1e82b7	-0.15479551
210	0xbe00b6ae	-0.12569687
211	0x3e19dcd6	0.15025648
212	0xbddfb1a9	-0.10922558
213	0x3cf029e2	0.029316846
214	0xbd943e48	-0.07238442
215	0x3e0e4c78	0.13896358
216	0xbe2c8dab	-0.16850917
217	0xbe32ad3e	-0.17448899
218	0x3e3218b6	0.17392239
219	0x3dbc7ebc	0.0920386
220	0xbadccebf	-0.0016846283
221	0xbd36c7da	-0.044624187
222	0x3e014b82	0.1262646
223	0xbe070511	-0.13185526
224	0xbc7cffdb	-0.01544186
225	0x3e07cf13	0.13262586
226	0x3bf2adcc	0.007405972
227	0xbde253c4	-0.11051133
228	0xbc506a8a	-0.012720713
229	0xbd0af09f	-0.03392088
230	0x3dad0e9d	0.08450053
231	0x3df8e7be	0.12153576
232	0xbd9d9c74	-0.07695857
233	0x3dc52224	0.096256524
234	0xbe0015d1	-0.12508322
235	0xbc9aa137	-0.018875701
236	0xbe258d4e	-0.16167185
237	0xbdea5eaa	-0.11443837
238	0x3dddafa7	0.10824519
239	0x3dd9452c	0.106088966
240	0xbe14789b	-0.14499132
241	0xbe0293b6	-0.1275166
242	0xbc964ffe	-0.01834869
243	0x3da69177	0.08133214
244	0xbe28cf36	-0.16485295
245	0xbc7e6a8a	-0.015528331
246	0xbd702946	-0.05863311
247	0x3cb37850	0.021907955
248	0xbd03fb49	-0.032222066
249	0x3cc64b93	0.024205958
250	0x3ddd8faa	0.10818417
251	0xbe02b34a	-0.12763706
252	0xbd49f3dd	-0.04930483
253	0xbcfb7cce	-0.03069916
254	0xbc2953b6	-0.0103349
255	0x3cf7f93d	0.030270213

conv1.5.weight f4 [400]
0	0x3f7949d4	0.9737828
1	0x3f7964cb	0.9741942
2	0x3f7cae6c	0.98703647
3	0x3f79c44f	0.9756517
4	0x3f7d6d4b	0.9899489
5	0x3f796c60	0.9743099
6	0x3f7a9cdb	0.9789559
7	0x3f7773d0	0.9666109
8	0x3f7e18a8	0.9925637
9	0x3f7e0b63	0.99236125
10	0x3f805fd7	1.0029248
11	0x3f7a863f	0.97861093
12	0x3f78c4df	0.971754
13	0x3f80b827	1.0056199
14	0x3f7a4e9d	0.97776204
15	0x3f7f3ae6	0.99699247
16	0x3f7aa27b	0.97904176
17	0x3f7c77ef	0.98620504
18	0x3f806d1e	1.00333
19	0x3f7d9e49	0.9906965
20	0x3f7b404d	0.9814499
21	0x3f808660	1.0041008
22	0x3f7a1521	0.9768849
23	0x3f79921c	0.9748857
24	0x3f7b8e67	0.98264164
25	0x3f7d1491	0.98859507
26	0x3f79f811	0.97644144
27	0x3f7b1701	0.98081976
28	0x3f79aa7e	0.97525775
29	0x3f78b4de	0.9715098
30	0x3f789269	0.97098404
31	0x3f79d623	0.9759237
32	0x3f77e5eb	0.968352
33	0x3f7b4fc7	0.98168606
34	0x3f7abcc6	0.97944295
35	0x3f7e220b	0.99270695
36	0x3f7a1b04	0.9769747
37	0x3f7c683f	0.98596567
38	0x3f7c8203	0.9863588
39	0x3f7c4ee1	0.9855786
40	0x3f7f5b11	0.9974833
41	0x3f811f90	1.0087757
42	0x3f79ae06	0.97531164
43	0x3f8195cd	1.012384
44	0x3f7a115e	0.9768275
45	0x3f7d38db	0.9891488
46	0x3f7a404b	0.97754353
47	0x3f7c0bd2	0.98455536
48	0x3f7dcee5	0.9914382
49	0x3f7afd9d	0.98043233
50	0x3f76a9f2	0.96353066
51	0x3f7bb0e5	0.98316795
52	0x3f79376e	0.97350204
53	0x3f7b7a1a	0.9823319
54	0x3f79c14d	0.9756058
55	0x3f7b8995	0.9825681
56	0x3f7c28fd	0.98500043
57	0x3f7996b2	0.9749557
58	0x3f7df0a4	0.99195313
59	0x3f7cd3fd	0.9876097
60	0x3f7bbbe2	0.9833356
61	0x3f7f4588	0.9971547
62	0x3f7e112a	0.9924494
63	0x3f7b9b22	0.9828359
64	0x3f7bbae3	0.9833204
65	0x3f7d0355	0.9883321
66	0x3f7cad05	0.98701507
67	0x3f7cae21	0.987032
68	0x3f7dd71e	0.9915637
69	0x3f7ba7e0	0.9830303
70	0x3f7bc2d7	0.98344177
71	0x3f7e5199	0.9934326
72	0x3f7fb102	0.9987947
73	0x3f7bbff2	0.9833976
74	0x3f7b2841	0.981083
75	0x3f7bd3e7	0.9837021
76	0x3f76efc3	0.964596
77	0x3f7c7140	0.98610306
78	0x3f7dd135	0.9914735
79	0x3f7abb83	0.9794237
80	0x3f78e29d	0.97220784
81	0x3f77782e	0.96667755
82	0x3f7d2bb3	0.98894805
83	0x3f7a832e	0.97856414
84	0x3f7c006c	0.98438144
85	0x3f7d487d	0.98938733
86	0x3f7792ac	0.9670818
87	0x3f791923	0.9730398
88	0x3f7bb9e7	0.9833054
89	0x3f7a0782	0.97667706
90	0x3f79fbe0	0.97649956
91	0x3f79216d	0.9731663
92	0x3f7e3948	0.99306154
93	0x3f7da869	0.990851
94	0x3f8135e6	1.0094573
95	0x3f7ad295	0.9797757
96	0x3f7d3ec4	0.989239
97	0x3f79d4cf	0.97590345
98	0x3f7c9548	0.98665285
99	0x3f791e06	0.9731144
100	0x3f7b7d1c	0.98237777
101	0x3f78d29e	0.97196376
102	0x3f7aa33f	0.97905344
103	0x3f7ea825	0.9947532
104	0x3f7d5edb	0.9897286
105	0x3f7725b5	0.9654191
106	0x3f7aa297	0.9790434
107	0x3f7ace2b	0.9797084
108	0x3f793c34	0.9735749
109	0x3f7d9081	0.9904862
110	0x3f7ae102	0.97999585
111	0x3f7e0954	0.99232984
112	0x3f7b781a	0.98230135
113	0x3f815480	1.0103912
114	0x3f7f170e	0.99644554
115	0x3f78205f	0.96924394
116	0x3f7bcdc2	0.98360837
117	0x3f7ffe08	0.99996996
118	0x3f7cccd2	0.9875003
119	0x3f7a71d9	0.9782997
120	0x3f815455	1.0103861
121	0x3f78cf9a	0.97191775
122	0x3f7b9752	0.9827777
123	0x3f7e2fe4	0.99291825
124	0x3f7fa261	0.99857146
125	0x3f7d2a35	0.9889253
126	0x3f79fbf7	0.9765009
127	0x3f7df83b	0.99206895
128	0x3f7aef11	0.98021036
129	0x3f7ba1d9	0.98293835
130	0x3f808dd7	1.0043286
131	0x3f7b60a8	0.9819436
132	0x3f7ebf50	0.9951067
133	0x3f7ad68c	0.9798362
134	0x3f7b28f6	0.98109376
135	0x3f7fa7f9	0.9986568
136	0x3f7afe16	0.98043954
137	0x3f77e0f5	0.9682763
138	0x3f7b6cf0	0.982131
139	0x3f7b9d7b	0.9828717
140	0x3f80aa0e	1.0051897
141	0x3f784a03	0.9698793
142	0x3f7ae2bb	0.98002213
143	0x3f7dcda3	0.991419
144	0x3f7de7ef	0.9918203
145	0x3f81a3b2	1.0128081
146	0x3f7e3881	0.9930497
147	0x3f7ddc45	0.9916423
148	0x3f808f4b	1.004373
149	0x3f7b7014	0.9821789
150	0x3f7b0398	0.9805236
151	0x3f7b3c88	0.9813924
152	0x3f7fc9ef	0.999175
153	0x3f7f1b6f	0.99651235
154	0x3f7b34e6	0.9812759
155	0x3f804f81	1.0024263
156	0x3f7f588e	0.997445
157	0x3f7c4395	0.9854062
158	0x3f7f2761	0.9966946
159	0x3f81a7ea	1.0129368
160	0x3f7e00ed	0.9922016
161	0x3f792a06	0.9732975
162	0x3f7ba8c3	0.98304385
163	0x3f7c1545	0.98469955
164	0x3f803faf	1.0019435
165	0x3f78e70e	0.9722756
166	0x3f7c2b78	0.9850383
167	0x3f796bb6	0.9742998
168	0x3f7c79f8	0.9862361
169	0x3f7cd3a9	0.9876047
170	0x3f7e2f87	0.9929127
171	0x3f7aaf7b	0.9792401
172	0x3f7c8d2e	0.98652923
173	0x3f7ceda6	0.9880012
174	0x3f802d77	1.0013875
175	0x3f7e9fe8	0.9946275
176	0x3f801320	1.0005836
177	0x3f8069cc	1.0032287
178	0x3f7a499e	0.9776858
179	0x3f7b9c7f	0.9828567
180	0x3f7e9da4	0.9945929
181	0x3f80d68d	1.0065476
182	0x3f7c85b0	0.9864149
183	0x3f7b218b	0.9809806
184	0x3f8126a2	1.0089915
185	0x3f7c4c04	0.9855349
186	0x3f8250cc	1.0180907
187	0x3f7c7f16	0.9863142
188	0x3f7e4160	0.99318504
189	0x3f799930	0.9749937
190	0x3f800103	1.0000309
191	0x3f7acf75	0.97972804
192	0x3f7be3b5	0.9839433
193	0x3f7bfc62	0.9843198
194	0x3f7b6eba	0.9821583
195	0x3f7c96c9	0.9866758
196	0x3f7e2b79	0.99285084
197	0x3f784c69	0.9699159
198	0x3f76a38a	0.9634329
199	0x3f79a87f	0.9752273
200	0x3f7fea4c	0.99966884
201	0x3f7d2e71	0.9889899
202	0x3f7c2593	0.98494834
203	0x3f7c7b5a	0.9862572
204	0x3f7a61c8	0.9780545
205	0x3f78659b	0.9703004
206	0x3f7a393a	0.9774357
207	0x3f7c8ad0	0.9864931
208	0x3f7f87ae	0.99816406
209	0x3f798616	0.97470224
210	0x3f7a8688	0.9786153
211	0x3f802bec	1.0013404
212	0x3f7e3035	0.9929231
213	0x3f7d7295	0.99002963
214	0x3f7fcc15	0.9992078
215	0x3f807db8	1.0038366
216	0x3f7a5e04	0.97799706
217	0x3f7d8b8e	0.9904107
218	0x3f808388	1.004014
219	0x3f794c8c	0.97382426
220	0x3f7a7774	0.9783852
221	0x3f782c1a	0.96942294
222	0x3f7ab1dc	0.9792764
223	0x3f7c1c91	0.9848109
224	0x3f7e54e1	0.99348265
225	0x3f7b996a	0.98280966
226	0x3f7c0b59	0.98454815
227	0x3f78c273	0.97171706
228	0x3f7c0d84	0.98458123
229	0x3f7876c1	0.97056204
230	0x3f7775e0	0.9666424
231	0x3f7d38f9	0.9891506
232	0x3f7a7fe3	0.9785139
233	0x3f7e1979	0.9925762
234	0x3f7f0449	0.99615914
235	0x3f7a685d	0.97815496
236	0x3f7c91c8	0.98659945
237	0x3f79e8b5	0.9762071
238	0x3f7b6495	0.9820035
239	0x3f7ede62	0.9955808
240	0x3f7b99ca	0.9828154
241	0x3f7eb721	0.9949818
242	0x3f7fc625	0.9991172
243	0x3f7df3a5	0.991999
244	0x3f7c5d31	0.985797
245	0x3f7c7c07	0.9862675
246	0x3f7d9a6a	0.9906374
247	0x3f798c15	0.97479373
248	0x3f767444	0.9627116
249	0x3f7c655e	0.98592174
250	0x3f7b2e78	0.9811778
251	0x3f7cc4db	0.9873788
252	0x3f80d226	1.0064132
253	0x3f7acf25	0.9797233
254	0x3f7a896d	0.97865945
255	0x3f7c6714	0.98594785

conv1.5.bias f4 [400]
0	0xbc5e6317	-0.01357343
1	0xbc8a748c	-0.016901277
2	0x3b58aab9	0.0033060743
3	0x3cd4baee	0.025968041
4	0xbc4cc38a	-0.012497792
5	0xbc2df5b1	-0.010617659
6	0xbcd848d8	-0.026401922
7	0xbb9692b9	-0.0045951274
8	0xbb72060a	-0.003692987
9	0x3bf74df8	0.0075471364
10	0x3a610e6c	0.0008585218
11	0xbc519849	-0.012792655
12	0xbc72e1d8	-0.014824353
13	0xbb810945	-0.0039378726
14	0xbc4a9367	-0.012364245
15	0x3c3cdc9b	0.011527206
16	0xbb358931	-0.002770018
17	0xba776ee3	-0.00094388257
18	0x3c06b964	0.0082229115
19	0xbbc76632	-0.0060851807
20	0xbd038f0d	-0.032118846
21	0xbb754a79	-0.0037428422
22	0xbc94d6b2	-0.018168781
23	0xbb9e6a10	-0.004834421
24	0xbc1a09e9	-0.009401777
25	0xbc965dfd	-0.018355364
26	0xbc85e56c	-0.016344748
27	0xbc96403e	-0.01834118
28	0xbc6339a4	-0.013868723
29	0xbceff17a	-0.02928995
30	0xbbf01276	-0.0073264195
31	0xbc14902b	-0.009067575
32	0xbc9812ee	-0.018563714
33	0xbcd8a650	-0.026446491
34	0x3c0de298	0.008659981
35	0x3c383327	0.011242664
36	0xbc30a0fb	-0.010780568
37	0x3c5c10c0	0.013431728
38	0xbaf3d06c	-0.0018601543
39	0xbc038101	-0.008026362
40	0x3be0585a	0.00684647
41	0x3c98a795	0.018634597
42	0xbcbb445a	-0.022859741
43	0xba8da7b7	-0.0010807429
44	0xbc5150f3	-0.012775647
45	0xbbc7be7f	-0.006095707
46	0xbc372728	-0.011178769
47	0xbb5676c4	-0.0032724598
48	0xbc25ab97	-0.010111711
49	0xbbaeff9d	-0.00534053
50	0xbd158dc7	-0.036512163
51	0xb9750c67	-0.00023369641
52	0xbc9ca1c6	-0.019120108
53	0xbbddfde4	-0.006774651
54	0xbcb8ee18	-0.02257447
55	0xbc9e78d8	-0.019344732
56	0xbc26eae2	-0.010187836
57	0xbb773f3d	-0.0037726902
58	0xbcd296d9	-0.025706695
59	0xba49e655	-0.00077018637
60	0xbb260745	-0.0025333923
61	0xbd0b35a4	-0.033986703
62	0xbd01f845	-0.03173091
63	0xbd12e9bf	-0.03586745
64	0xbbe483a3	-0.0069737
65	0x3c45af0b	0.012065659
66	0xbcbb6cd7	-0.022879047
67	0x3ba7bab8	0.005118694
68	0x3c3e3e8b	0.011611591
69	0xbd0bb510	-0.03410822
70	0x3cc7f1a6	0.02440722
71	0xbbfa485f	-0.007638022
72	0xbc363c6e	-0.011122806
73	0xbb366d13	-0.002783601
74	0x3bb2da1f	0.005458131
75	0xbcd5d800	-0.026103973
76	0xbcf3efbb	-0.029777398
77	0xbbdc4a01	-0.006722689
78	0x3c737704	0.0148599185
79	0xbc9169d3	-0.017750656
80	0xbd0003de	-0.031253688
81	0xbd252ec6	-0.04032781
82	0xbc9732f6	-0.018456917
83	0xbbf24ffa	-0.007394788
84	0xbbedf29c	-0.0072615873
85	0xbb7f7533	-0.0038979768
86	0xbc6c25ca	-0.0144133065
87	0xbcabca94	-0.02097062
88	0x3c10b829	0.00883297
89	0xbc8a4de2	-0.01688284
90	0xbc09e5d1	-0.008416609
91	0xbc94bd0d	-0.018156553
92	0xbbdeff1e	-0.0068053147
93	0xbcc303a8	-0.023805454
94	0xbd1371ff	-0.035997387
95	0xbc6a41f5	-0.014297952
96	0xbbf3b3d7	-0.00743721
97	0xbc84c0e0	-0.016205251
98	0xbba74987	-0.0051052007
99	0xbc15c1c8	-0.009140439
100	0xbc88e56b	-0.016710958
101	0xbc9a7699	-0.01885538
102	0xbc5c74d3	-0.013455587
103	0xbaf4c778	-0.0018675169
104	0xbbf1d71b	-0.007380379
105	0xbd2365ec	-0.039892122
106	0xbc8529b2	-0.016255233
107	0xbc502f06	-0.012706524
108	0xbd2c4a61	-0.04206312
109	0xbc347c7c	-0.0110160075
110	0xbc317d62	-0.010833116
111	0x3c1658b4	0.009176422
112	0xbbc53937	-0.0060187834
113	0x3aa1d8d4	0.0012347945
114	0xbaaa767f	-0.0013005285
115	0xbd03b9a9	-0.03215948
116	0xbbf610b9	-0.0075093177
117	0x3a2522d1	0.00062994385
118	0xbd16cb75	-0.036815125
119	0xbbefd95f	-0.007319614
120	0xbd37510b	-0.044755023
121	0xbd14bd69	-0.036313448
122	0xbc34ff71	-0.01104723
123	0x3bd1595b	0.006388826
124	0x3c4c8ffd	0.012485501
125	0xbc6da180	-0.014503837
126	0xbcac1b76	-0.021009188
127	0xbb95a2ec	-0.004566541
128	0xbc9188c5	-0.017765412
129	0xbc56778a	-0.013090024
130	0xbbbcf005	-0.0057659172
131	0x3c73bd1d	0.014876631
132	0xbb33cd1c	-0.0027435487
133	0xbd00f604	-0.03148462
134	0xbb8f11de	-0.0043661436
135	0x3bf8de4f	0.0075948606
136	0x3bb7b0f9	0.0056058136
137	0xbc46c216	-0.012131235
138	0xbb27efcc	-0.0025625108
139	0xbcb04ff6	-0.021522503
140	0x3c503ac5	0.012709324
141	0xbc85c39b	-0.016328624
142	0xbb8562a7	-0.004070598
143	0xbd32f50a	-0.04369072
144	0xbcdc3771	-0.026881905
145	0xbbbc543b	-0.0057473457
146	0x3b0ea0e9	0.002176339
147	0xbc01956d	-0.007909161
148	0xbc214278	-0.009842508
149	0xbc76970f	-0.015050664
150	0xbcb86e89	-0.022513645
151	0xba9d7b43	-0.0012014884
152	0x39986afb	0.00029071406
153	0xbc0d79e5	-0.008635019
154	0xbc1cb265	-0.009564017
155	0xbad3fe6c	-0.0016173846
156	0xbd02f3d3	-0.03197081
157	0xbb3ea37e	-0.0029089148
158	0xba4fb7aa	-0.00079237914
159	0x3a43d405	0.0007470253
160	0xbc92dfe2	-0.017929021
161	0xbc9046aa	-0.01761182
162	0x3aa06fef	0.001224039
163	0xbcab9afa	-0.020947922
164	0x3bacec8b	0.0052772216
165	0xbcc0fe68	-0.02355881
166	0xbc016fcb	-0.007900189
167	0xbc8aed8a	-0.01695897
168	0xbcd5b96c	-0.026089393
169	0xbb1da075	-0.0024051939
170	0xbbbf161a	-0.005831492
171	0xbab041db	-0.0013447361
172	0x3b7925a1	0.0038016813
173	0xbbcb8e17	-0.006212007
174	0xbae7df72	-0.0017690493
175	0x3c286d65	0.010279988
176	0x3c64aa42	0.013956608
177	0xbc2a71a2	-0.010403069
178	0xbbde996f	-0.006793193
179	0xbcb859de	-0.02250379
180	0xbca93043	-0.020652896
181	0x3c0fc549	0.008775064
182	0xbc556421	-0.013024361
183	0xbbd1b53c	-0.0063997786
184	0xba8c89d1	-0.0010722225
185	0xbd157819	-0.036491487
186	0xbc1ee928	-0.0096991435
187	0x3ca7223d	0.020402068
188	0x3ca2df09	0.019881742
189	0xbc17cff6	-0.00926589
190	0x3b433248	0.0029784609
191	0xbc9af592	-0.018915925
192	0x3ada08de	0.0016634723
193	0xbc4d9270	-0.01254712
194	0x3a15d047	0.00057149347
195	0x3d085eea	0.033293642
196	0xbd0d19b9	-0.03444836
197	0xbc956640	-0.018237233
198	0x3c19b856	0.009382328
199	0xbcad1242	-0.02112687
200	0x3c4dadec	0.012553673
201	0xbc3294be	-0.010899721
202	0xbc17d1d3	-0.009266335
203	0xbbd0699d	-0.0063602463
204	0xbc6eba6f	-0.014570816
205	0xbcf1fa02	-0.029538158
206	0xbb91fc85	-0.0044551515
207	0xbc2b4694	-0.010453839
208	0xbb1b9d8d	-0.002374503
209	0xbcaf00ad	-0.021362627
210	0xbcc2dd8b	-0.02378728
211	0x3a517396	0.0007989941
212	0x3b5ac1fe	0.0033379789
213	0xb996cea4	-0.0002876419
214	0x3a87398f	0.0010316836
215	0x3c152b4d	0.009104562
216	0xbb3989ff	-0.0028311012
217	0x3a6e69b5	0.0009094731
218	0xbb35c056	-0.002773305
219	0xbc933a21	-0.017972054
220	0xbc1ca811	-0.0095615545
221	0xbd1e1e6f	-0.038603242
222	0xbc9afa21	-0.018918099
223	0x3cbbf1a2	0.022942368
224	0xbb3d26db	-0.002886227
225	0xbb55d016	-0.003262525
226	0xbc9a2571	-0.018816682
227	0xbc8f9a8e	-0.017529752
228	0xbc2eb820	-0.010664016
229	0xbcfb0031	-0.03063974
230	0xbcec8091	-0.028869899
231	0xbbbbabbd	-0.00572726
232	0x3b23a342	0.0024969135
233	0xbc7f27b5	-0.015573432
234	0xbb777b96	-0.0037762872
235	0xbc0b022e	-0.008484406
236	0xbbf4fbd5	-0.00747631
237	0xbc4b3893	-0.012403625
238	0xbcd705f2	-0.026247952
239	0x3c270fb0	0.010196611
240	0xba0d2797	-0.00053846225
241	0xbd24b97b	-0.04021595
242	0x3b075119	0.0020647703
243	0xbcafdebb	-0.02146851
244	0xbb1cab32	-0.0023905751
245	0x3c9cfae8	0.01916261
246	0x3b86793a	0.004103807
247	0xbbfb4dbb	-0.0076691783
248	0xbd5223a8	-0.051303536
249	0xbcd00d51	-0.025396975
250	0xbd160d98	-0.036634058
251	0xb966dd44	-0.00022016937
252	0xbc848a5f	-0.016179262
253	0xbc7c5f4d	-0.015403581
254	0x3d03950f	0.032124575
255	0xbc141480	-0.009038091

conv1.5.running_mean f4 [400]
0	0x3e271177	0.16315256
1	0xbe8c015b	-0.27344784
2	0x3e476873	0.19473438
3	0x3ddfab57	0.10921352
4	0xbeabfb32	-0.33590084
5	0xbcd01d0c	-0.025404476
6	0x3d8026c3	0.06257393
7	0xbd31abba	-0.04337666
8	0xbe556d56	-0.2084249
9	0xbe08fe9e	-0.13378379
10	0xbe3cbcfe	-0.1843147
11	0xbe05e1b9	-0.13074388
12	0xbe814e1b	-0.25254902
13	0xbe0d11ed	-0.1377637
14	0x3e46ad3a	0.19402018
15	0xbe9339a7	-0.28754923
16	0xbed40ab8	-0.41414428
17	0x3bf16356	0.007366578
18	0x3c9caa34	0.019124128
19	0xbe4b90d0	-0.1987946
20	0x3dabaa3f	0.08382081
21	0x3de201a7	0.110354714
22	0xbd2e9bcb	-0.042629045
23	0x3e29798c	0.16550273
24	0x3eb9c2b2	0.36281353
25	0x3da6d5aa	0.08146222
26	0xbe80724e	-0.25087208
27	0xbdb25262	-0.087071195
28	0xbded71c7	-0.11593967
29	0x3d4f1834	0.05056019
30	0x3cc5dbba	0.024152625
31	0xbf1e384c	-0.6180465
32	0xbe7c434f	-0.24635051
33	0xbc896437	-0.016771419
34	0x3e86fa56	0.26362866
35	0xbe5d1b7f	-0.2159252
36	0xbe136907	-0.14395534
37	0xbebe6ca9	-0.37192276
38	0x3e4f990c	0.20273226
39	0xbe04a282	-0.12952617
40	0xbdf87cc7	-0.121331744
41	0xbe31431d	-0.17310758
42	0xbe8a0626	-0.26957816
43	0x3bf4de00	0.0074727535
44	0xbe8acfde	-0.27111715
45	0xbe87abb5	-0.2649819
46	0xbe8c8b13	-0.27449855
47	0xbc8d1d4c	-0.017225884
48	0xbe202d96	-0.1564239
49	0xbd000b1d	-0.0312606
50	0xbe1a8491	-0.15089633
51	0xbe96d9ab	-0.29462942
52	0x3d37c3ca	0.044864453
53	0x3deb679a	0.1149437
54	0x3e84fc10	0.25973558
55	0xbd3f452c	-0.046696827
56	0xbde46cbd	-0.11153553
57	0x3db0e46d	0.08637319
58	0x3e9b1f67	0.30297396
59	0x3e1c824d	0.15284081
60	0x3d351c29	0.04421631
61	0x3ef2f7b4	0.47454607
62	0x3e43fec6	0.19140157
63	0x3b4b7260	0.0031043515
64	0x3b9e6af9	0.0048345295
65	0x3e841725	0.25798908
66	0x3e3c0029	0.18359436
67	0x3df830dd	0.12118695
68	0x3eeab10c	0.458382
69	0xbd6ecefd	-0.05830287
70	0x3e8a4f5f	0.2701368
71	0x3e1892b5	0.14899714
72	0x3dabc731	0.08387602
73	0x3e1dbe2d	0.15404578
74	0xbdef7e41	-0.11694003
75	0xbd400ba4	-0.0468861
76	0xbe9a315e	-0.3011579
77	0xbd036500	-0.032078743
78	0x3db81b0b	0.08989533
79	0xbea731ef	-0.32655284
80	0x3e2a4429	0.16627564
81	0x3dba394d	0.090929605
82	0x3e465dc5	0.19371708
83	0xbeb03b33	-0.34420165
84	0xbed54976	-0.4165761
85	0xbebeb920	-0.37250614
86	0xbe3772b8	-0.17914855
87	0x3cbf3402	0.023340229
88	0x3eb7d0c3	0.3590146
89	0xbd0814b4	-0.03322287
90	0xbe8d6697	-0.27617332
91	0xbe32b505	-0.17451866
92	0xbde6a6bb	-0.1126227
93	0xbd6d6926	-0.057961605
94	0xbd80f0f0	-0.06295955
95	0x3d2179d5	0.03942283
96	0x3e0604cd	0.13087769
97	0x3e991477	0.29898426
98	0xbdaf8c46	-0.08571677
99	0x3e7c9278	0.24665248
100	0xbdf6ca8a	-0.1205035
101	0xbead2995	-0.33820787
102	0xbdd4066a	-0.10352786
103	0xbe01df8e	-0.12682936
104	0xbe2a5346	-0.16633329
105	0xbcefb917	-0.029263062
106	0xbe54e40c	-0.20790118
107	0x3dcf3d0e	0.10119067
108	0xbec202a3	-0.37892637
109	0x3e06d330	0.13166499
110	0xbd8c9876	-0.06865017
111	0xbdb2ffb6	-0.08740179
112	0xbebd3cbf	-0.36960408
113	0xbd793a11	-0.060846392
114	0x3d74f404	0.059803024
115	0xbdd7929a	-0.10526009
116	0x3d990968	0.07472497
117	0x3d8da5a8	0.06916362
118	0x3ee412d6	0.4454562
119	0x3e8de920	0.27716923
120	0x3ea1878a	0.3154872
121	0x3cfceb17	0.030873818
122	0xbdd8a057	-0.105774574
123	0x3d9866ec	0.07441506
124	0xbe51ba45	-0.20481212
125	0x3b8b19f7	0.0042450386
126	0xbec477d6	-0.38372678
127	0x3d2e6124	0.04257311
128	0xbdedfc00	-0.11620331
129	0x3c9d6f92	0.01921824
130	0xbd9a11c6	-0.07522921
131	0x3de68563	0.1125591
132	0xbeac38d2	-0.336371
133	0x3d8364f5	0.064157404
134	0xbe925021	-0.28576759
135	0xbe74e2cf	-0.23914646
136	0x3eaa8854	0.33307135
137	0xbeb48877	-0.35260364
138	0xbd0f7802	-0.035026558
139	0xbe900ffd	-0.28137198
140	0x3d29e72d	0.041480232
141	0xbf0477d2	-0.5174533
142	0xbe9de352	-0.30837494
143	0x3eb1490f	0.34626052
144	0x3e897323	0.26845655
145	0x3cc82d76	0.02443574
146	0xbe03c508	-0.1286813
147	0xbe0551d0	-0.1301949
148	0xbd9ad60c	-0.075603575
149	0x3e5259c2	0.20542052
150	0xbcfec40b	-0.03109934
151	0xbe444ff5	-0.19171126
152	0x3e510254	0.20411044
153	0x3d2a3e4a	0.04156331
154	0xbe2ed445	-0.17073162
155	0xbe013b21	-0.12620212
156	0x3e8378be	0.25678056
157	0xbe0c3a35	-0.13694079
158	0xbeb440de	-0.3520574
159	0x3e232bc0	0.15934658
160	0x3e0500a8	0.12988532
161	0xbe2b0d59	-0.1670431
162	0xbe2b2666	-0.16713867
163	0xbe6f109d	-0.23346181
164	0xbde564ad	-0.11200843
165	0xbd5015e6	-0.050802134
166	0x3ce80159	0.028320955
167	0x3de35cfc	0.1110172
168	0x3e2ac8c4	0.16678149
169	0x3c350c45	0.011050289
170	0x3d60ad41	0.054852728
171	0xbe412036	-0.18859944
172	0xbe4c9515	-0.19978745
173	0xbd8a0d32	-0.06740798
174	0xbcbde314	-0.023179568
175	0xbe422c6c	-0.18962258
176	0x3e4618c3	0.19345383
177	0x3d7a8cb8	0.061169356
178	0xbdf2bbac	-0.11852202
179	0x3e4a1935	0.19736178
180	0x3db3e515	0.08783928
181	0xbdbe7c22	-0.0930102
182	0xbc09e97e	-0.008417485
183	0xbd75d2bc	-0.060015425
184	0xbddb4064	-0.10705641
185	0x3e3df252	0.18549469
186	0x3ef2b6d1	0.47405103
187	0x3e47ba49	0.19504656
188	0x3ea9a8bb	0.33136544
189	0x3e36b6b1	0.17843129
190	0xbe592375	-0.21204932
191	0xbdfc4003	-0.12316897
192	0xbe2b39c1	-0.1672125
193	0x3e3184b5	0.1733578
194	0xbeaee12a	-0.34156162
195	0x3ea9ba1c	0.33149803
196	0x3e6a7fea	0.22900358
197	0xbe8533dd	-0.2601613
198	0x3dbf1439	0.09330029
199	0x3e2cabaa	0.1686236
200	0x3e02b901	0.12765886
201	0x3e8a4ca4	0.27011597
202	0xbe11c833	-0.14236526
203	0xbddb3f63	-0.107054494
204	0x3d30c61d	0.043157686
205	0xbe6a9b70	-0.22910857
206	0x3e0fd534	0.14046174
207	0x3e2277a8	0.15865958
208	0x3e3ef4f5	0.18648131
209	0xbeaf4447	-0.3423178
210	0xbd9988c0	-0.07496786
211	0x3dd77238	0.105198324
212	0x3cb615d2	0.022227202
213	0xbe3c1edd	-0.18371148
214	0xbe728b65	-0.23685987
215	0x3e6ed10d	0.23321934
216	0xbe089f13	-0.13341932
217	0xbd9db85d	-0.0770118
218	0x3dd8677a	0.105666116
219	0x3e86d6f5	0.26335874
220	0x3e152449	0.14564623
221	0xbe269279	-0.16266812
222	0x3d1d914b	0.03846864
223	0x3e26fef3	0.16308193
224	0x3e109b3e	0.1412172
225	0x3d7a54fa	0.061116196
226	0xbe4b66c5	-0.19863422
227	0x3e82a2f3	0.25514945
228	0xbe313fca	-0.1730949
229	0xbc831dfd	-0.01600551
230	0xbe0d2aec	-0.13785905
231	0x3b990702	0.004670025
232	0x3d4e52e4	0.05037202
233	0xbe3e1667	-0.18563233
234	0x3e2b632e	0.16737053
235	0x3d39fb29	0.04540554
236	0xbec9c9dd	-0.39411822
237	0xbe90735f	-0.2821302
238	0x3e7292d3	0.23688821
239	0xbdb410ff	-0.08792304
240	0xbd1f035b	-0.03882156
241	0x3d354f5b	0.044265132
242	0xbe0fe0a7	-0.14050542
243	0x3e816543	0.2527257
244	0xbde23bc6	-0.11046557
245	0x3e267779	0.16256513
246	0x3cce59d1	0.025189312
247	0xbea757a2	-0.32684046
248	0xbe6bd09d	-0.23028798
249	0xbd501aa6	-0.050806664
250	0x3e1d4ea9	0.15362038
251	0xbeaf2032	-0.3420425
252	0x3ce50c42	0.027959947
253	0xbe4950a9	-0.19659676
254	0x3e4a115f	0.19733189
255	0x3d80334a	0.062597826

conv1.5.running_var f4 [400]
0	0x3e6d8f76	0.23199257
1	0x3e4be028	0.19909728
2	0x3e612b37	0.21989141
3	0x3ebcc9bf	0.3687267
4	0x3e5e29d5	0.21695645
5	0x3e5ef1c5	0.21771915
6	0x3e5fb379	0.21845807
7	0x3ee03396	0.43789357
8	0x3e243eee	0.16039631
9	0x3e3f44ff	0.18678664
10	0x3e7b5f07	0.24547969
11	0x3df3aa7d	0.118977524
12	0x3e076392	0.13221577
13	0x3e09475f	0.13406132
14	0x3e6a4d55	0.22881062
15	0x3e812106	0.25220507
16	0x3ef0ea4c	0.47053754
17	0x3e2a5a30	0.16635966
18	0x3ec86ad8	0.39144015
19	0x3e692d8b	0.2277128
20	0x3e4aa555	0.19789632
21	0x3e504e1e	0.203423
22	0x3deaabe7	0.11458569
23	0x3e135772	0.14388826
24	0x3e96faef	0.29488322
25	0x3e95fd79	0.29294947
26	0x3e88698c	0.26643026
27	0x3e3f9ff0	0.18713355
28	0x3e81a426	0.25320548
29	0x3e3d0bc7	0.18461524
30	0x3e2d7d6d	0.16942377
31	0x3ee4930f	0.44643447
32	0x3e743ec4	0.23852068
33	0x3e1d6208	0.15369427
34	0x3e9d484f	0.3071923
35	0x3e2742f0	0.16334128
36	0x3e49d8e2	0.1971164
37	0x3e95aa31	0.29231408
38	0x3dfabe87	0.122433715
39	0x3e5803d8	0.21095216
40	0x3e209240	0.1568079
41	0x3e87b453	0.26504764
42	0x3e490402	0.19630435
43	0x3e5c51b2	0.2151554
44	0x3ea06522	0.31327158
45	0x3de2117a	0.1103849
46	0x3eb31ad5	0.3498141
47	0x3e72a2aa	0.23694864
48	0x3e299ebf	0.16564463
49	0x3e0b9109	0.13629545
50	0x3e8b4a13	0.27204952
51	0x3e24c6a5	0.16091402
52	0x3e253969	0.16135181
53	0x3e4ce3d6	0.20008788
54	0x3e274108	0.16333401
55	0x3ea80ffa	0.3282469
56	0x3e826471	0.25467256
57	0x3e598976	0.21243843
58	0x3e69d944	0.22836787
59	0x3e478c69	0.19487156
60	0x3e584c5a	0.21122876
61	0x3e9ca71c	0.30596244
62	0x3e278e27	0.1636282
63	0x3e9fd437	0.31216595
64	0x3e27a850	0.163728
65	0x3e260c17	0.1621555
66	0x3e4c5413	0.19953947
67	0x3e3b1aef	0.18271993
68	0x3e991e57	0.2990596
69	0x3e36484a	0.17801014
70	0x3ec83895	0.3910567
71	0x3e344e59	0.17608012
72	0x3e2a5703	0.16634755
73	0x3e05cf37	0.13067327
74	0x3e32766a	0.17427984
75	0x3e9635df	0.29337975
76	0x3e8c38a7	0.27386972
77	0x3e1e4103	0.15454488
78	0x3e9e00d3	0.30860004
79	0x3e281baf	0.1641681
80	0x3e4a9e00	0.19786835
81	0x3e3f2b3b	0.18668835
82	0x3e258a63	0.16166072
83	0x3e525590	0.20540452
84	0x3f86a4b5	1.0519015
85	0x3f0a7300	0.54081726
86	0x3e87db3d	0.26534453
87	0x3e515017	0.20440708
88	0x3e0a1428	0.13484251
89	0x3e314803	0.17312627
90	0x3e19d996	0.15024409
91	0x3e047144	0.12933832
92	0x3e8c33b8	0.27383208
93	0x3e923a0e	0.28559917
94	0x3e4f3991	0.20236804
95	0x3e0cbb36	0.1374329
96	0x3e2875af	0.16451143
97	0x3e4ecf36	0.20196232
98	0x3ea27455	0.3172938
99	0x3e5de963	0.21671061
100	0x3e93c2e6	0.28859633
101	0x3ede6bb6	0.43441552
102	0x3e385def	0.18004583
103	0x3df8f602	0.12156297
104	0x3e88c81c	0.2671517
105	0x3e41379d	0.18868871
106	0x3e45788f	0.1928427
107	0x3e45b44e	0.19307062
108	0x3e8a797a	0.27045804
109	0x3e447578	0.19185436
110	0x3e4cdae6	0.20005378
111	0x3e4ec321	0.20191623
112	0x3f784561	0.96980864
113	0x3e11cf53	0.14239244
114	0x3e88eb45	0.26741996
115	0x3e29f5cd	0.16597672
116	0x3e5746c8	0.21023095
117	0x3e2a10b9	0.16607942
118	0x3f04a75d	0.51817876
119	0x3e4e2f4b	0.20135228
120	0x3dfdc807	0.12391668
121	0x3e4c01d7	0.19922577
122	0x3e1025e4	0.14076954
123	0x3e5c738e	0.21528456
124	0x3e462f28	0.19353926
125	0x3e005839	0.12533654
126	0x3e4ca1cb	0.19983594
127	0x3ec7cb49	0.39022282
128	0x3e6208c2	0.22073653
129	0x3e11e837	0.14248739
130	0x3e2f0bbb	0.17094319
131	0x3e50eb64	0.20402294
132	0x3e623831	0.22091748
133	0x3e53f21c	0.20697826
134	0x3ef31bbf	0.47482106
135	0x3e47e8b4	0.19522363
136	0x3ead4e2b	0.338487
137	0x3eb9b4b7	0.36270687
138	0x3e9854b8	0.29752135
139	0x3e40810d	0.18799229
140	0x3e051eb5	0.12999995
141	0x3f0b6a54	0.5445912
142	0x3e994216	0.29933232
143	0x3e2bd74b	0.16781346
144	0x3e307703	0.172329
145	0x3e48104c	0.19537467
146	0x3e5e9305	0.21735771
147	0x3e11e533	0.14247589
148	0x3e1923da	0.14955083
149	0x3e1309eb	0.14359252
150	0x3ea6cf53	0.3258005
151	0x3ea26fa0	0.31725788
152	0x3e4f4591	0.20241381
153	0x3e5aafbd	0.21356101
154	0x3e2849a6	0.16434345
155	0x3e91443d	0.28372374
156	0x3e82b014	0.25524962
157	0x3e901e40	0.2814808
158	0x3e34c65b	0.17653792
159	0x3e8e8b05	0.27840438
160	0x3e0eae9f	0.139338
161	0x3e82c75c	0.25542724
162	0x3e701298	0.23444593
163	0x3ea5c197	0.3237426
164	0x3eccc69e	0.39995283
165	0x3e52e671	0.20595719
166	0x3e01fc96	0.1269401
167	0x3e399474	0.18123037
168	0x3e466ca6	0.19377384
169	0x3e921725	0.28533283
170	0x3deddfec	0.11614975
171	0x3e6a4b2f	0.22880243
172	0x3e880a58	0.26570392
173	0x3e4b63c6	0.1986228
174	0x3e4d4cf6	0.2004889
175	0x3e8a68a8	0.2703297
176	0x3e1c72bf	0.15278147
177	0x3e1968e2	0.14981416
178	0x3e981d73	0.29709968
179	0x3e228f12	0.1587489
180	0x3e52e7bc	0.20596212
181	0x3e05d11e	0.13068053
182	0x3e37a585	0.17934234
183	0x3e9c7f25	0.30565754
184	0x3e734efc	0.23760599
185	0x3ea1bef6	0.31591004
186	0x3ebd2f20	0.36950016
187	0x3eac49f6	0.33650178
188	0x3e85d46b	0.26138625
189	0x3e8f9532	0.28043514
190	0x3e341266	0.17585143
191	0x3e1f0399	0.15528716
192	0x3e3025f4	0.17201978
193	0x3e451ab5	0.19248469
194	0x3ea9184a	0.33026344
195	0x3e636e14	0.2220996
196	0x3e81480a	0.25250274
197	0x3e789a58	0.24277627
198	0x3ecbf3e2	0.39834505
199	0x3e476764	0.19473034
200	0x3ede1b0f	0.4338002
201	0x3e1a30b6	0.15057644
202	0x3e46db61	0.19419624
203	0x3e2b0d8e	0.1670439
204	0x3ed0477c	0.40679538
205	0x3e005f07	0.1253625
206	0x3e0c312b	0.13690631
207	0x3e1f51f0	0.155586
208	0x3e833454	0.2562586
209	0x3e93c5ca	0.2886184
210	0x3e1e2a74	0.15445882
211	0x3e11a3a1	0.14222576
212	0x3e3e82d5	0.18604596
213	0x3e6e5cc5	0.23277576
214	0x3de1fc0a	0.11034401
215	0x3e0c2342	0.13685325
216	0x3e87fc90	0.26559877
217	0x3e0562b3	0.13025932
218	0x3e811bb8	0.2521646
219	0x3e3f9016	0.18707308
220	0x3e3ce901	0.18448259
221	0x3e25704c	0.16156119
222	0x3e04169e	0.12899253
223	0x3f2c4b1b	0.673021
224	0x3e2a30bc	0.16620153
225	0x3e0635f3	0.13106517
226	0x3e7519a8	0.23935568
227	0x3ea2508a	0.3170207
228	0x3ecabb0e	0.39595836
229	0x3e510478	0.20411861
230	0x3e6faf20	0.23406649
231	0x3e4c71d6	0.199653
232	0x3e23a791	0.1598189
233	0x3e578d2b	0.21049945
234	0x3e252e04	0.16130835
235	0x3e2874c4	0.16450793
236	0x3e52f7e5	0.20602377
237	0x3e3e073e	0.1855745
238	0x3e827680	0.25481033
239	0x3e61a385	0.22035034
240	0x3e0e27de	0.13882396
241	0x3e54b26d	0.20771189
242	0x3e386155	0.18005879
243	0x3e6a72f6	0.22895417
244	0x3e1ae4a6	0.15126285
245	0x3e27a7ae	0.16372558
246	0x3e1c251c	0.15248531
247	0x3ecb446b	0.39700636
248	0x3e813014	0.25231993
249	0x3e91cb25	0.284753
250	0x3e837718	0.256768
251	0x3f00c9e8	0.50308084
252	0x3e286dac	0.16448087
253	0x3e828370	0.25490904
254	0x3e9ec6d7	0.31011078
255	0x3e969841	0.29413036

conv2.0.weight f4 [10, 1, 6]
0	0xbe875f2e	-0.26439804
1	0x3e9ca54c	0.30594862
2	0x3e184409	0.14869703
3	0x3e95eb12	0.29280907
4	0xbe319e33	-0.17345504
5	0xbe997439	-0.29971483
6	0xbee3cfe4	-0.44494545
7	0xbe070c93	-0.1318839
8	0xbeed9982	-0.4640618
9	0x3e5ecbdd	0.21757455
10	0x3e58fc45	0.21189983
11	0x3ed68e39	0.41905382
12	0xbd708404	-0.05871965
13	0x3f04437e	0.51665485
14	0x3d4da336	0.05020448
15	0x3dcd304b	0.10018977
16	0xbc8f390b	-0.017483255
17	0x3ec80399	0.39065245
18	0x3eacd458	0.33755755
19	0xbe4b35bd	-0.19844718
20	0xbeb5a9b6	-0.35481042
21	0x3e68fe82	0.22753337
22	0x3ee72398	0.45144343
23	0xbe9eb566	-0.3099777
24	0x3e04592f	0.12924646
25	0xbee5bf17	-0.44872352
26	0x3e852782	0.26006705
27	0x3e736861	0.23770286
28	0xbdd15e04	-0.1022301
29	0xbdf6f29d	-0.120579936
30	0x3e3e700a	0.18597427
31	0xbebc646c	-0.36795366
32	0xbe94e86a	-0.29083568
33	0x3eb87f16	0.3603446
34	0xbe55d577	-0.20882212
35	0x3e987b77	0.29781696
36	0xbedcd4ef	-0.43131205
37	0x3e97deb9	0.2966211
38	0x3dd28b82	0.10280515
39	0x3e5e3a4d	0.21701927
40	0xbe205427	-0.15657102
41	0x3eb3194e	0.34980243
42	0x3e9a2ba7	0.3011143
43	0x3e70adf9	0.23503865
44	0xbeb908d7	-0.36139557
45	0xbe93129c	-0.28725135
46	0xbed8b962	-0.42328936
47	0xbeb789ab	-0.3584722
48	0x3e73ee72	0.23821428
49	0xbeaa670c	-0.33281744
50	0xbe09d7ac	-0.13461179
51	0x3e94bd65	0.29050747
52	0xbeeae1fd	-0.4587554
53	0xbdd8e51a	-0.10590573
54	0x3e5c63b3	0.21522407
55	0x3ebe26a4	0.37138855
56	0xbcfd3740	-0.030910134
57	0x3ec52185	0.38502136
58	0xbdc5c2c2	-0.09656288
59	0x3ebda5e3	0.37040624

conv2.0.bias f4 [10]
0	0x3e5ba22f	0.21448587
1	0x3ece7e27	0.40330622
2	0xbeaf943a	-0.34292775
3	0x3e9a1412	0.30093437
4	0xbead7a03	-0.3388215
5	0xbe40d3d7	-0.1883081
6	0x3e7f043c	0.24903959
7	0x3d2aa028	0.041656643
8	0x3ca7ac21	0.02046782
9	0xbdeb7f3b	-0.11498877

conv2.1.weight f4 [10]
0	0x3f8fdf49	1.1240016
1	0x3f880f4d	1.062967
2	0x3f8b1c6e	1.0868051
3	0x3f8bd405	1.0924078
4	0x3f9283a4	1.1446424
5	0x3f89532a	1.0728505
6	0x3f980fea	1.1879857
7	0x3f87a693	1.059771
8	0x3f89b124	1.0757184
9	0x3f89952b	1.0748647

conv2.1.bias f4 [10]
0	0x3c3e0bf3	0.011599529
1	0x3c6a51b4	0.014301706
2	0x3cb73709	0.02236511
3	0x3d06b20d	0.032884646
4	0x3c5a4206	0.013321405
5	0x3d1664ff	0.03671741
6	0x3c701190	0.014652625
7	0x3a9e504c	0.0012078374
8	0x3ca9bdc3	0.020720368
9	0x3d0c81ba	0.034303404

conv2.1.running_mean f4 [10]
0	0x3e48f35e	0.19624087
1	0x3ecb27da	0.39678842
2	0xbedafd94	-0.4277159
3	0x3e78895b	0.24271147
4	0xbeaf5327	-0.34243128
5	0xbe5aae02	-0.21355441
6	0x3e4eec59	0.20207347
7	0x3df1225f	0.11774134
8	0x3d18e8ae	0.037331276
9	0xbe6a8a16	-0.22904238

conv2.1.running_var f4 [10]
0	0x3d1a1691	0.037619177
1	0x3d29e59f	0.04147875
2	0x3d233942	0.039849527
3	0x3d25ea73	0.04050679
4	0x3d190274	0.037355855
5	0x3d1e0e9c	0.03858815
6	0x3d1d65b6	0.038427077
7	0x3d3cb53a	0.04607127
8	0x3d1efcd2	0.038815327
9	0x3d2d0f6e	0.042251043
