model/pssm_composition_k4_model.ckpt (torch, 635099 bytes, 40 tensors)

conv1.0.weight f4 [10, 1, 3]
0	0xbea80592	-0.3281675
1	0xbf06c85f	-0.5264949
2	0x3ed077ea	0.40716487
3	0xbeb87dc1	-0.36033443
4	0xbf0ab038	-0.5417514
5	0x3edf1df5	0.43577543
6	0x3d5684e3	0.052372824
7	0x3e6012df	0.21882199
8	0x3e12c5c2	0.14333251
9	0x3e28d50f	0.16487525
10	0x3e8d914e	0.2764992
11	0x3e9d760d	0.30754128
12	0x3f03584b	0.513066
13	0xbd1b17d3	-0.037864517
14	0x3eff07d8	0.49810672
15	0xbdde9442	-0.10868122
16	0x3ee08aab	0.43855795
17	0x3eeaeefd	0.4588546
18	0xbe65ac2e	-0.22428963
19	0x3e2704e1	0.16310455
20	0x3ee92afb	0.45540604
21	0xbeea3355	-0.45742288
22	0xbe59d371	-0.21272065
23	0xbe8085c1	-0.25102046
24	0xbe45f17c	-0.193304
25	0xbe0e2a30	-0.13883281
26	0xbf00a7d6	-0.502561
27	0x3edacf4c	0.4273628
28	0x3e841c52	0.25802857
29	0x3f057f6c	0.52147555

conv1.0.bias f4 [10]
0	0x3c20d5b7	0.009816579
1	0xbd090be0	-0.03345859
2	0x3ecb41d4	0.3969866
3	0xbd8fa8b2	-0.07014598
4	0x3d12af05	0.035811443
5	0xbe829953	-0.25507602
6	0x3ea2ad61	0.31772903
7	0x3e42aad6	0.19010481
8	0xbf101a87	-0.5629048
9	0x3ef3ae65	0.4759399

conv1.1.weight f4 [10]
0	0x3f7bd306	0.9836887
1	0x3f7b952e	0.98274505
2	0x3f7bf560	0.9842129
3	0x3f7df9d5	0.9920934
4	0x3f80e1f7	1.0068959
5	0x3f7fc23f	0.9990577
6	0x3f77bcfe	0.96772754
7	0x3f76f865	0.9647277
8	0x3f7dcdd7	0.9914221
9	0x3f7ff89b	0.99988717

conv1.1.bias f4 [10]
0	0xbb8b10c0	-0.00424394
1	0xbb0f7c5a	-0.0021894188
2	0x3c1a7717	0.009427807
3	0xbc83ce27	-0.016089512
4	0x3c327038	0.010891013
5	0xbc9e78ca	-0.019344706
6	0xbc2cbad9	-0.010542595
7	0x3be025e9	0.0068404567
8	0xbc23bf61	-0.009994359
9	0x3a9d0ba6	0.0011981621

conv1.1.running_mean f4 [10]
0	0x3d313d5e	0.043271415
1	0x3c5f083b	0.013612802
2	0x3eb9b649	0.36271885
3	0xbdc22f4c	-0.094816774
4	0xbd5e439c	-0.054263696
5	0xbe956a2d	-0.29182568
6	0x3e9e1721	0.3087702
7	0x3e81e68c	0.25371206
8	0xbef80ce8	-0.48447347
9	0x3ecbe5a5	0.39823642

conv1.1.running_var f4 [10]
0	0x3d2b5e4e	0.041837983
1	0x3d2ebd3e	0.042660944
2	0x3d12972c	0.0357887
3	0x3d1eec47	0.03879955
4	0x3d2f889f	0.0428549
5	0x3d2ac55f	0.041692134
6	0x3d1f62e2	0.03891266
7	0x3d2d10cd	0.04225235
8	0x3d27f7fb	0.041007977
9	0x3d3a2770	0.045447767

conv1.4.weight f4 [400, 10, 3]
0	0xbc5cbb0d	-0.013472331
1	0xbe1128bf	-0.141757
2	0x3dc73249	0.09726388
3	0x3d36a04f	0.044586476
4	0x3d7b5c61	0.061367396
5	0xbe0e518b	-0.13898294
6	0xbde660df	-0.112489454
7	0x3d8e35fa	0.06943889
8	0xbdd2599e	-0.10270999
9	0xbdbc9dca	-0.092097834
10	0x3d5a2a14	0.053262785
11	0x3d0688a4	0.032845154
12	0xbdd92dd1	-0.10604442
13	0xbdb43f23	-0.08801105
14	0xbe0a3ea7	-0.13500462
15	0xbd227768	-0.039664656
16	0x3e3db0a9	0.18524422
17	0xbdcfcf85	-0.10147003
18	0x3cfb3352	0.03066412
19	0xbdcf5d23	-0.10125186
20	0x3d164807	0.036689784
21	0xbdb1e15e	-0.086855635
22	0xbe1a7662	-0.15084222
23	0xbdcfb612	-0.10142149
24	0x3d3cad10	0.046063483
25	0xbd9052bb	-0.070470296
26	0x3d631b62	0.055446036
27	0xbd928d0e	-0.0715581
28	0xbbe17e00	-0.0068814754
29	0xbdcc2d79	-0.09969611
30	0x3e338130	0.1752975
31	0xbe2dd626	-0.16976222
32	0xbe44bbe9	-0.19212307
33	0xbdddb695	-0.108258404
34	0xbe368a74	-0.17826253
35	0xbd275b2e	-0.04085844
36	0x3dd0635b	0.101752006
37	0x3bef807f	0.007309019
38	0xbde36973	-0.11104097
39	0x3d562f4a	0.052291192
40	0xbe6239fc	-0.22092432
41	0xbdfcd2f0	-0.12344921
42	0x3d9f4590	0.0777694
43	0xbc189214	-0.0093121715
44	0xbde8f60c	-0.11375055
45	0x3ddd6e62	0.108120695
46	0x3bff088d	0.0077830018
47	0xbd3322a2	-0.0437342
48	0x3e2b9e1f	0.16759537
49	0xbe15f9b0	-0.1464603
50	0x3dc40615	0.095714726
51	0x3db2ad83	0.08724501
52	0x3d88612b	0.06659158
53	0x3cea8b4c	0.028630875
54	0xbd17ac37	-0.03702947
55	0xbc281003	-0.010257724
56	0x3d5910a6	0.052994393
57	0xbd8fb41a	-0.070167735
58	0xbd13a442	-0.03604532
59	0xbdefbb0f	-0.117056005
60	0x3deb928b	0.1150256
61	0xbb9ede05	-0.004848244
62	0x3d7635ab	0.060109776
63	0x3d1e5b65	0.03866138
64	0xbdde94f4	-0.10868254
65	0x3e4a07c6	0.19729528
66	0xbe20d8e9	-0.15707745
67	0x3dfd6aef	0.123739116
68	0x3d6ab1ad	0.05729835
69	0x3db155d6	0.0865895
70	0x3e06b9a6	0.13156757
71	0x3e09f7f4	0.13473493
72	0x3dd6d5a4	0.104899675
73	0xbe08ca10	-0.1335833
74	0xbd2bca8a	-0.041941203
75	0x3e06efaf	0.1317737
76	0xbe639e79	-0.22228421
77	0x3e3367df	0.17520092
78	0x3da21c61	0.07915569
79	0xbe356b3d	-0.1771669
80	0xbe398e5b	-0.1812071
81	0xbe466877	-0.19375788
82	0x3dfd098e	0.12355338
83	0xbd02dca0	-0.031948686
84	0xbe46675b	-0.19375364
85	0x3e4a8f9a	0.19781342
86	0xbdcd4d4c	-0.10024509
87	0xbd299bd1	-0.041408364
88	0x3d5718fa	0.052514054
89	0x3d85e3d4	0.065375954
90	0xbd90b6b4	-0.07066098
91	0x3b601ce6	0.0034196912
92	0x3e065ea2	0.13122037
93	0x3d3ce0fd	0.046113003
94	0xbd3df1f0	-0.046373308
95	0x3b863c73	0.0040965616
96	0xbce2f730	-0.027705759
97	0xbc69f6b9	-0.014280015
98	0x3ce60c30	0.028081983
99	0x3dc62759	0.09675474
100	0x3df2b470	0.11850822
101	0xbe1442fb	-0.14478676
102	0x3df2a4f6	0.1184787
103	0x3d9f133f	0.07767343
104	0xbe3ad7a5	-0.18246324
105	0x3d817465	0.063210286
106	0xbe385f10	-0.18005013
107	0xbe2aa797	-0.16665493
108	0x3d44625c	0.047945365
109	0xbde28c00	-0.11061859
110	0xbdcc43a6	-0.099738404
111	0x3e24485e	0.16043231
112	0xbe25a68c	-0.16176814
113	0x3e105731	0.14095761
114	0x3dab88fe	0.083757386
115	0x3d577ada	0.052607395
116	0xbceb7555	-0.028742472
117	0x3e560a3d	0.20902343
118	0x3e42ac39	0.1901101
119	0xbdf049a7	-0.11732798
120	0x3e2ec590	0.17067552
121	0xbdbbde2e	-0.09173237
122	0x3e0cd103	0.13751607
123	0xbb88c467	-0.0041738036
124	0x3de1aa20	0.11018777
125	0x3d9f8239	0.0778851
126	0xbd565a62	-0.05233229
127	0xbce1ffb8	-0.027587757
128	0x3d84af5c	0.0647876
129	0x3e0b20d1	0.13586737
130	0x3d57f91d	0.052727807
131	0x3d1f7b9d	0.038936246
132	0xbd2a284a	-0.04154233
133	0xbddbddf6	-0.10735695
134	0xbe2ec16d	-0.17065974
135	0x3dc02c3a	0.093834355
136	0x3d9cc763	0.076552175
137	0xbd994a9d	-0.074849345
138	0x3d8207a0	0.063491106
139	0x3daa5b14	0.08318153
140	0x3e0e12ef	0.1387441
141	0x3d8aeb29	0.067831345
142	0x3d8c4d5e	0.06850694
143	0x3e263c18	0.16233861
144	0xbe4adfd7	-0.1981195
145	0xbe5d623f	-0.21619509
146	0x3d422ddd	0.04740702
147	0xbdf2243d	-0.11823318
148	0x3da216ba	0.07914491
149	0xbd9194de	-0.07108472
150	0x3d7364eb	0.059422415
151	0x3dc08a7c	0.09401414
152	0xbdb457bf	-0.08805799
153	0xbdff1e76	-0.12456982
154	0xbd1f320e	-0.038866095
155	0x3e0539a6	0.13010272
156	0xbd740358	-0.0595735
157	0xbdde4b6a	-0.10854228
158	0xbd8d450d	-0.06897936
159	0xbcdf8435	-0.02728472
160	0xbe188a80	-0.14896584
161	0xbcf0df75	-0.029403428
162	0xbe183ba5	-0.14866503
163	0xbd8dec4a	-0.06929834
164	0x3d6d6117	0.05795392
165	0xbe27a641	-0.16372015
166	0x3bbd178f	0.0057706307
167	0x3e33cf57	0.17559563
168	0xbdb7c355	-0.089728035
169	0x3e20048e	0.15626737
170	0x3e372d54	0.17888385
171	0x3d5fe1d7	0.054658737
172	0x3d1e9241	0.038713697
173	0x3d80f56e	0.06296812
174	0x3de2199a	0.11040039
175	0x3c831a7e	0.016003843
176	0x3e172d9c	0.14763492
177	0xbdae9fd7	-0.08526581
178	0xbdf4a7de	-0.119460806
179	0x3e117aa0	0.14206934
180	0x3d9a4d3e	0.07534264
181	0xbe017945	-0.12643917
182	0xbe2e8ab5	-0.170451
183	0x3deddd66	0.11614494
184	0x3e3a768a	0.18209282
185	0x3c79c893	0.0152455745
186	0x3e242874	0.16031057
187	0x3dbb026a	0.0913132
188	0x3db5f120	0.088838816
189	0x3e3ce639	0.18447198
190	0x3e2981f8	0.16553485
191	0x3e426510	0.18983865
192	0xbd27a5a0	-0.040929437
193	0xbc5dfea2	-0.013549479
194	0xbe23720f	-0.15961479
195	0x3e139f73	0.14416294
196	0x3e14265f	0.14467762
197	0x3e2e6b0d	0.17033024
198	0x3e255904	0.16147238
199	0xbcdc8726	-0.026919913
200	0x3dec46ba	0.115369275
201	0x3d9c66b9	0.0763678
202	0x3cbbf61b	0.0229445
203	0x3e19c919	0.15018119
204	0x3e43f6aa	0.19137064
205	0xbc95b7e8	-0.01827617
206	0x3d1bd71f	0.038046952
207	0x3e1275cc	0.14302748
208	0xbe2e14a8	-0.17000067
209	0xbdc993b5	-0.09842626
210	0xbd0495c3	-0.032369386
211	0xbe4585a5	-0.19289263
212	0x3d91d625	0.07120923
213	0xbd99f180	-0.075167656
214	0x3b852315	0.00406302
215	0xbe187de8	-0.1489178
216	0xbe0c58ec	-0.13705796
217	0x3d8c94c4	0.06864312
218	0x3cdc9a7b	0.02692913
219	0x3d977325	0.07395009
220	0x3d754d5d	0.059888232
221	0x3e172704	0.14760977
222	0x3d1a0360	0.037600875
223	0xbd0699a9	-0.032861385
224	0xbe43d294	-0.19123298
225	0xbd283a5a	-0.041071273
226	0xbdc135ee	-0.094341144
227	0x3d997f0d	0.07494936
228	0xbcf6ca13	-0.030125653
229	0xbdc74dda	-0.09731646
230	0x3d8c339b	0.068457805
231	0x3b994dd6	0.004678468
232	0xbd72fb5a	-0.05932174
233	0xbd5a57eb	-0.0533065
234	0xbcbc22fd	-0.022965902
235	0xbe0cdbc7	-0.13755713
236	0xbcb1aff3	-0.021690344
237	0xbd647c9d	-0.055782903
238	0x3e1daa25	0.15396936
239	0xbbc09fbc	-0.005878417
240	0xbdb634f3	-0.08896818
241	0x3c9aeadc	0.018910818
242	0xbdcf9211	-0.10135282
243	0x3d1a0d43	0.037610304
244	0xbddf47e7	-0.10902386
245	0x3dc79e3a	0.09746976
246	0x3d76cad5	0.06025203
247	0xbe0ec66c	-0.1394288
248	0xbe17c6e2	-0.14821962
249	0xbe176caa	-0.14787546
250	0x3d356bce	0.044292264
251	0x3e239d04	0.15977865
252	0x3df0f494	0.117653996
253	0x3d9c84cf	0.07642519
254	0xbd988401	-0.07447053
255	0xbdb58b93	-0.08864512

conv1.4.bias f4 [400]
0	0xbd03afa7	-0.032149937
1	0xbe20d734	-0.15707093
2	0xbda263c9	-0.07929189
3	0x3cd6de75	0.026229123
4	0x3e215fa9	0.15759148
5	0xbd090581	-0.033452515
6	0xbb823fad	-0.003974876
7	0x3d15af5d	0.036544193
8	0xbe45a592	-0.19301441
9	0xbe3905b4	-0.18068582
10	0xbdeb25d2	-0.11481823
11	0x3dca6e6c	0.098843426
12	0x3e127fcf	0.14306568
13	0xbe0f91b5	-0.14020427
14	0xbe2fa152	-0.17151383
15	0x3db9ca42	0.09071781
16	0x3df3d973	0.119067095
17	0xbd3deb52	-0.046366997
18	0xbdf0c888	-0.11756998
19	0xbe1915c7	-0.14949714
20	0xbe08e87e	-0.13369939
21	0x3df4a218	0.119449794
22	0xbdf9b486	-0.12192635
23	0x3d49b177	0.04924151
24	0xbdf10fe3	-0.11770608
25	0xbe248088	-0.16064656
26	0x3de83017	0.113372974
27	0xbd3b64b3	-0.04575033
28	0xbe490fb5	-0.19634898
29	0xbdd749f9	-0.10512156
30	0xbd1505e9	-0.03638259
31	0x3ddb00a8	0.106934845
32	0x3d04517c	0.032304272
33	0x3d0d6afa	0.03452585
34	0xbcb68472	-0.022279952
35	0xbdad98d1	-0.08476413
36	0xbd9244bd	-0.07142017
37	0xbdbc5a82	-0.091969505
38	0xbe32f966	-0.1747795
39	0xbc90a255	-0.017655531
40	0xbde88d46	-0.11355071
41	0x3e1b6928	0.15176833
42	0xbe5b4aef	-0.21415304
43	0xbe2c3fa8	-0.16821158
44	0xbd224677	-0.03961798
45	0x3c9d23dc	0.019182138
46	0x3e19cb82	0.15019038
47	0xbe1f36f3	-0.15548305
48	0x3e0ddecb	0.1385452
49	0xbd4f2d11	-0.050580088
50	0xbc5b6011	-0.013389603
51	0xbcbb6200	-0.022873878
52	0xbe036c06	-0.12834176
53	0x3e274334	0.1633423
54	0x3d82ee2c	0.06393084
55	0xbe41d581	-0.18929102
56	0xbe229858	-0.15878427
57	0x3cda98dd	0.026684219
58	0x3ab967ec	0.0014145351
59	0x3e05761f	0.13033341
60	0xbe27bfcc	-0.16381758
61	0xbd8dab00	-0.06917381
62	0x3c847309	0.016168134
63	0xbdcb510f	-0.0992757
64	0xbe331723	-0.17489295
65	0xbe194d0f	-0.14970802
66	0x3b94f660	0.0045459718
67	0xbdec8336	-0.11548464
68	0x3d601f87	0.054717567
69	0x3dac312f	0.084078185
70	0xbd407e6a	-0.046995558
71	0x3d97a1bd	0.07403896
72	0x3dc998d2	0.09843601
73	0x3dad738a	0.08469303
74	0xbe4009c8	-0.18753731
75	0xbdc47128	-0.09591895
76	0x3d8cc3d1	0.068732865
77	0xbc0a2855	-0.0084324675
78	0xbe10dbe6	-0.14146385
79	0x3e2b2f4f	0.16717266
80	0x3e24d741	0.16097738
81	0x3e198acf	0.14994358
82	0xbd92ffb0	-0.07177675
83	0xbe12cc0f	-0.14335655
84	0xbc05346c	-0.008130174
85	0x3def75cb	0.11692389
86	0x3dc07287	0.09396844
87	0xbe1f544d	-0.15559502
88	0xbe0e3ec4	-0.1389113
89	0x3db48fdf	0.08816504
90	0x3da1138e	0.07865058
91	0x3e0fe28f	0.14051269
92	0xbcf35054	-0.02970139
93	0xbe1f99db	-0.15586035
94	0x3de1eec9	0.11031873
95	0x3d1197be	0.035545103
96	0xbe05d068	-0.13067782
97	0x3d9b4f1c	0.07583448
98	0x3e048ceb	0.12944381
99	0x3dd9936c	0.106238216
100	0x3d343859	0.04399905
101	0x3e11755a	0.14204922
102	0xbe37f982	-0.17966273
103	0x3d5d914c	0.054093644
104	0x3e02c364	0.12769848
105	0x3d6cd496	0.057819925
106	0x3d8821c8	0.06647068
107	0x3d3bc736	0.04584428
108	0xbe1a17d1	-0.15048148
109	0x3dd702f2	0.10498609
110	0xbe17d80c	-0.14828509
111	0x3dac24c0	0.08405447
112	0xbe0057d7	-0.12533508
113	0xbd8b7697	-0.068097286
114	0xbde007fb	-0.10939022
115	0xbc5f2047	-0.013618535
116	0xbe5b56b3	-0.21419792
117	0xbd9e324e	-0.077244386
118	0x3df6bc84	0.12047675
119	0x3c0636ec	0.008191805
120	0x3d8c3c7c	0.06847474
121	0x3e135b29	0.14390244
122	0xbccbafac	-0.02486404
123	0x3d3c9c40	0.04604745
124	0x3e02cc52	0.12773255
125	0xbe47e966	-0.19522628
126	0x3daf9eb6	0.085751936
127	0x3cd9b8e8	0.026577428
128	0xbe2c6bc3	-0.16837983
129	0xbe3d4460	-0.18483114
130	0xbd0588ca	-0.032601155
131	0x3c016d4f	0.007899596
132	0xbe1fa0f3	-0.15588741
133	0xbcd78c3d	-0.026311988
134	0xbda19e2f	-0.07891499
135	0xbdfbf76e	-0.12303053
136	0xbcb40e58	-0.021979496
137	0x3dd94166	0.10608177
138	0xbe42deff	-0.19030379
139	0x3d855c7d	0.06511781
140	0xbc197d38	-0.009368233
141	0x3d812878	0.06306547
142	0x3de99c81	0.11406804
143	0xbcf4c331	-0.02987823
144	0x3e178a64	0.14798886
145	0xbdc7f4e5	-0.09763507
146	0xbaf2c423	-0.0018521588
147	0xbdc9f11c	-0.09860441
148	0xbcc0e71d	-0.023547703
149	0xbbaaece2	-0.005216227
150	0xbd80c0a9	-0.06286747
151	0xbe0bdee6	-0.13659248
152	0x3e014f36	0.12627873
153	0xbd550ac8	-0.052012235
154	0x3e1993ab	0.14997737
155	0x3d937bf6	0.07201378
156	0xbe09d2c9	-0.13459314
157	0xbe3abf27	-0.18236981
158	0xbe324f4e	-0.17413065
159	0x3dbbcea2	0.091702715
160	0xbdd5785a	-0.10423346
161	0xbdfd721e	-0.12375282
162	0xbd975702	-0.07389642
163	0xbdf47986	-0.11937241
164	0xbe10f7ab	-0.14156978
165	0xbe271a6d	-0.16318674
166	0x3d93166b	0.0718201
167	0xbe266dff	-0.16252898
168	0x3bc673c4	0.006056281
169	0xbe07c478	-0.1325854
170	0xbe4b58b9	-0.19858064
171	0xbd8443f2	-0.06458272
172	0xbceca66c	-0.02888795
173	0xbde599d7	-0.11210983
174	0x3de9d7be	0.11418103
175	0x3ce413fe	0.027841564
176	0xbe1be742	-0.15224937
177	0x3e346601	0.17617036
178	0x3cbfdf09	0.023421781
179	0xbe259db4	-0.1617344
180	0x3bd09120	0.0063649565
181	0xbd39f16c	-0.045396253
182	0xbe1df12a	-0.15424028
183	0x3df1f81a	0.118149
184	0xbe034bdb	-0.12821905
185	0x3c96ae21	0.018393578
186	0x3d71d429	0.059040222
187	0x3e0c536a	0.13703695
188	0x3cd565dc	0.026049547
189	0x3d26edb7	0.040754046
190	0x3b9153b3	0.0044350266
191	0x3e3cfb8a	0.1845533
192	0xbd911180	-0.07083416
193	0x3c762003	0.015022281
194	0xbe218517	-0.15773426
195	0x3dcba738	0.09944004
196	0xbe18a350	-0.14906049
197	0x3daac274	0.0833787
198	0xbd75f89c	-0.060051546
199	0x3d640e26	0.055677556
200	0x3d62a35e	0.05533158
201	0xbc06eba1	-0.008234889
202	0xbe560ce1	-0.2090335
203	0xbdf3466c	-0.11878666
204	0xbe3252d3	-0.17414407
205	0x3d24b2c5	0.04020955
206	0x3e203596	0.15645441
207	0xbe01541e	-0.12629744
208	0x3cb6bc96	0.022306722
209	0xbd9deca6	-0.07711153
210	0xbddb4892	-0.10707201
211	0xbe0ed3c4	-0.1394797
212	0xbe47410a	-0.19458404
213	0x3da4861a	0.0803339
214	0x3dc6a6d1	0.096997865
215	0x3d43d71d	0.04781257
216	0x3daa7879	0.083237596
217	0xbda18d89	-0.07888324
218	0x3d93742a	0.07199891
219	0x3e0fbfb6	0.14037976
220	0xbd1759f4	-0.03695102
221	0xbda42a0e	-0.08015834
222	0x3dce2908	0.1006642
223	0x3e419e57	0.18908058
224	0xbdf5c743	-0.12000897
225	0x3cdf8507	0.027285112
226	0xbde05257	-0.10953205
227	0x3d96884a	0.07350214
228	0x3d53acca	0.051678456
229	0x3cef9804	0.029247291
230	0x3db9f9d8	0.09080857
231	0x3cbd90f1	0.023140403
232	0x3e11c783	0.14236264
233	0x3ba860b3	0.0051384806
234	0xbdf15a12	-0.11784758
235	0xbd73b084	-0.05949451
236	0xbd6954b8	-0.05696556
237	0x3c12126e	0.008915527
238	0x3c5f23b3	0.013619351
239	0xbdca2e10	-0.09872067
240	0x3d9c857c	0.076426476
241	0xbcf9620a	-0.030442256
242	0x3df8c31d	0.1214659
243	0xbe1665ee	-0.1468732
244	0x3d904f25	0.070463456
245	0xbdf542a9	-0.11975605
246	0x3cceb597	0.025233073
247	0x3e066ada	0.13126698
248	0x3e255d50	0.16148877
249	0x3d13acf6	0.03605362
250	0xbd713515	-0.058888514
251	0xbda2149a	-0.07914086
252	0x3d0821c3	0.033235323
253	0x3b250eca	0.0025185817
254	0xbe01a001	-0.12658693
255	0xbd797dd0	-0.060911

conv1.5.weight f4 [400]
0	0x3f77680b	0.9664313
1	0x3f7a8e4b	0.9787337
2	0x3f78ee23	0.9723837
3	0x3f78c76a	0.9717928
4	0x3f78264e	0.9693345
5	0x3f782287	0.96927685
6	0x3f7d3107	0.98902935
7	0x3f730965	0.9493621
8	0x3f72f5ce	0.9490632
9	0x3f776552	0.9663898
10	0x3f7695e5	0.9632247
11	0x3f73f87c	0.9530103
12	0x3f76ac9a	0.9635712
13	0x3f773fae	0.9658154
14	0x3f73832c	0.9512203
15	0x3f747eae	0.955058
16	0x3f7711f0	0.96511745
17	0x3f723e5c	0.946264
18	0x3f77131d	0.9651354
19	0x3f7784d2	0.9668704
20	0x3f71febe	0.9452933
21	0x3f750566	0.9571136
22	0x3f714a0e	0.94253623
23	0x3f7ac1f6	0.9795221
24	0x3f78bb46	0.97160757
25	0x3f742963	0.9537565
26	0x3f775c05	0.96624786
27	0x3f71a2e0	0.9438915
28	0x3f735ea1	0.9506627
29	0x3f7913fb	0.9729611
30	0x3f7193e8	0.9436631
31	0x3f7a6e68	0.97824717
32	0x3f79155c	0.97298217
33	0x3f7a97fe	0.9788817
34	0x3f742253	0.95364875
35	0x3f77534b	0.9661147
36	0x3f7aa870	0.97913265
37	0x3f7a9499	0.9788299
38	0x3f7a265e	0.97714794
39	0x3f7a7cd9	0.9784675
40	0x3f724842	0.94641507
41	0x3f75a54f	0.95955366
42	0x3f76c6e9	0.9639726
43	0x3f75cd98	0.96016836
44	0x3f79f8c2	0.976452
45	0x3f74426e	0.95413864
46	0x3f71fe34	0.9452851
47	0x3f79abde	0.97527874
48	0x3f73cdff	0.952362
49	0x3f72dfbf	0.9487266
50	0x3f74ce1e	0.9562701
51	0x3f74dd27	0.9564995
52	0x3f7a0402	0.97662365
53	0x3f749b94	0.95549893
54	0x3f766db3	0.9626114
55	0x3f70e77f	0.94103235
56	0x3f7409d0	0.9532747
57	0x3f77ad8a	0.96749175
58	0x3f7af1fd	0.98025495
59	0x3f7a9668	0.9788575
60	0x3f787a63	0.9706175
61	0x3f790f4e	0.9728898
62	0x3f785a8b	0.9701316
63	0x3f76fbc5	0.9647792
64	0x3f77c086	0.9677814
65	0x3f75c79d	0.9600771
66	0x3f771593	0.96517295
67	0x3f7301c9	0.949246
68	0x3f7be0a6	0.9838966
69	0x3f7ae94b	0.98012227
70	0x3f74d624	0.9563925
71	0x3f80a850	1.0051365
72	0x3f7622b9	0.9614673
73	0x3f70e340	0.94096756
74	0x3f72c1ac	0.9482677
75	0x3f74b3eb	0.95587033
76	0x3f7899ad	0.9710949
77	0x3f785609	0.9700628
78	0x3f77fed0	0.9687319
79	0x3f75ddbb	0.9604146
80	0x3f74606c	0.9545963
81	0x3f721421	0.94561964
82	0x3f757f51	0.95897394
83	0x3f747be6	0.95501554
84	0x3f79896f	0.9747533
85	0x3f80425c	1.0020251
86	0x3f7ff202	0.9997865
87	0x3f749c48	0.95550966
88	0x3f793312	0.9734355
89	0x3f76016f	0.9609594
90	0x3f71a574	0.94393086
91	0x3f754766	0.9581207
92	0x3f7312d4	0.94950604
93	0x3f769335	0.9631837
94	0x3f75be1f	0.95993227
95	0x3f706e11	0.9391795
96	0x3f770197	0.964868
97	0x3f72acc8	0.94794893
98	0x3f775e4f	0.9662828
99	0x3f7ab559	0.97932965
100	0x3f7051d5	0.93874866
101	0x3f764bc2	0.9620935
102	0x3f77078e	0.964959
103	0x3f713a44	0.9422953
104	0x3f74d936	0.9564394
105	0x3f728102	0.947281
106	0x3f77e08b	0.96827
107	0x3f7be071	0.98389345
108	0x3f7258ed	0.9466694
109	0x3f75cc9f	0.9601535
110	0x3f78e715	0.97227603
111	0x3f74ed60	0.95674706
112	0x3f6f1e9b	0.93406075
113	0x3f7dffee	0.9921864
114	0x3f7571d8	0.95876837
115	0x3f799b52	0.97502625
116	0x3f736b92	0.95086014
117	0x3f76dd11	0.9643107
118	0x3f796fd5	0.9743627
119	0x3f739e60	0.95163536
120	0x3f769f98	0.9633727
121	0x3f737cc2	0.9511224
122	0x3f7804cf	0.9688234
123	0x3f6ef3e3	0.9334089
124	0x3f7736cb	0.9656798
125	0x3f7ea2f4	0.99467397
126	0x3f7a5322	0.977831
127	0x3f780a17	0.96890396
128	0x3f7aaf77	0.9792399
129	0x3f779856	0.9671682
130	0x3f5edec1	0.87058645
131	0x3f762888	0.96155596
132	0x3f758cc4	0.95917916
133	0x3f769695	0.9632352
134	0x3f79a7dc	0.9752176
135	0x3f7a23da	0.97710955
136	0x3f79b468	0.97540903
137	0x3f7a4dbe	0.97774875
138	0x3f76cef1	0.9640952
139	0x3f7353d4	0.95049787
140	0x3f734e12	0.95041
141	0x3f7c0a99	0.9845367
142	0x3f75571b	0.9583604
143	0x3f740059	0.9531303
144	0x3f75093c	0.95717216
145	0x3f741256	0.9534048
146	0x3f760acf	0.9611024
147	0x3f76c59f	0.96395296
148	0x3f7d4aa7	0.98942035
149	0x3f73cfb3	0.952388
150	0x3f750f95	0.957269
151	0x3f724550	0.9463701
152	0x3f75a45b	0.9595391
153	0x3f726c19	0.94696194
154	0x3f769dda	0.9633461
155	0x3f78bb86	0.9716114
156	0x3f740e3e	0.9533423
157	0x3f74eea1	0.9567662
158	0x3f7519c4	0.9574244
159	0x3f769d5e	0.96333873
160	0x3f77b380	0.9675827
161	0x3f7dcd72	0.9914161
162	0x3f767f98	0.9628844
163	0x3f75147d	0.9573439
164	0x3f79df56	0.9760641
165	0x3f779663	0.96713847
166	0x3f7676b2	0.96274865
167	0x3f76476d	0.9620274
168	0x3f722d92	0.94600785
169	0x3f7721fa	0.9653622
170	0x3f725ba6	0.94671094
171	0x3f71d5dc	0.9446695
172	0x3f7740be	0.96583164
173	0x3f72054f	0.9453935
174	0x3f771ae5	0.9652541
175	0x3f77186f	0.9652166
176	0x3f73cff4	0.95239186
177	0x3f78c865	0.9718078
178	0x3f7a717b	0.9782941
179	0x3f71a62c	0.94394183
180	0x3f787ff7	0.9707026
181	0x3f731a70	0.94962215
182	0x3f739b69	0.9515901
183	0x3f7484df	0.95515245
184	0x3f77e4ba	0.96833384
185	0x3f765409	0.9622198
186	0x3f7b879a	0.98253787
187	0x3f70d796	0.9407896
188	0x3f742cff	0.9538116
189	0x3f76750e	0.9627236
190	0x3f757467	0.9588074
191	0x3f788ff0	0.9709463
192	0x3f7674d0	0.9627199
193	0x3f7b3bfa	0.9813839
194	0x3f7beffb	0.98413056
195	0x3f77d4e8	0.96809244
196	0x3f73cc6e	0.9523381
197	0x3f75da1e	0.96035945
198	0x3f78d4da	0.97199786
199	0x3f73193d	0.94960386
200	0x3f752b1c	0.95768905
201	0x3f727748	0.9471326
202	0x3f746c1d	0.9547747
203	0x3f755c8b	0.95844334
204	0x3f734868	0.9503236
205	0x3f75874f	0.9590959
206	0x3f74ff4f	0.9570207
207	0x3f78a4eb	0.97126645
208	0x3f7c1d93	0.98482627
209	0x3f7a8818	0.9786391
210	0x3f790d7c	0.972862
211	0x3f7b61c2	0.9819604
212	0x3f741eb8	0.95359373
213	0x3f7405f7	0.953216
214	0x3f7a6de5	0.97823936
215	0x3f7519f5	0.9574273
216	0x3f6e6b8f	0.9313287
217	0x3f76e45e	0.9644221
218	0x3f79e658	0.976171
219	0x3f7522d4	0.9575627
220	0x3f782dce	0.9694489
221	0x3f741e84	0.95359063
222	0x3f74d1e6	0.9563278
223	0x3f7df506	0.99202
224	0x3f78962c	0.97104144
225	0x3f778cf4	0.9669945
226	0x3f72c51d	0.9483202
227	0x3f741726	0.9534782
228	0x3f77affe	0.9675292
229	0x3f724753	0.9464008
230	0x3f78bf51	0.97166926
231	0x3f7840e6	0.9697403
232	0x3f764e7a	0.96213496
233	0x3f730b56	0.9493917
234	0x3f7112a5	0.94169074
235	0x3f742e07	0.9538273
236	0x3f75cb95	0.96013767
237	0x3f77f891	0.9686366
238	0x3f7464e0	0.95466423
239	0x3f72d142	0.9485055
240	0x3f73a65e	0.9517573
241	0x3f782ca3	0.9694311
242	0x3f7b6eb6	0.98215806
243	0x3f76dc6c	0.9643009
244	0x3f763c64	0.961859
245	0x3f7570a9	0.9587503
246	0x3f7a4b13	0.97770804
247	0x3f7882db	0.9707467
248	0x3f791f05	0.9731296
249	0x3f724442	0.94635403
250	0x3f74e04c	0.9565475
251	0x3f759019	0.95923
252	0x3f79ff04	0.9765475
253	0x3f75a620	0.9595661
254	0x3f77eb2b	0.9684321
255	0x3f7411b1	0.95339495

conv1.5.bias f4 [400]
0	0xbc4ecced	-0.0126221
1	0xbc700435	-0.014649441
2	0xbd1472e6	-0.03624239
3	0x3bb32923	0.0054675504
4	0x3a8dd6e4	0.0010821489
5	0xbb6c7688	-0.0036081392
6	0xbc5cc81a	-0.013475442
7	0xbcf57f57	-0.029967947
8	0xbd070e49	-0.032972608
9	0xbc9a569d	-0.018840129
10	0xbcbfb364	-0.02340097
11	0xbcd8e540	-0.026476502
12	0xbc37cf8d	-0.011218918
13	0x3bd21636	0.006411339
14	0xbc421d96	-0.011847874
15	0xbd27ea27	-0.04099479
16	0x3858688f	5.159579e-05
17	0xbccae72a	-0.02476843
18	0x3a4b98b7	0.0007766592
19	0xbc89a24d	-0.016801024
20	0xbcd07701	-0.02544737
21	0xbbb41c8b	-0.0054965666
22	0xbd0a6d7c	-0.03379582
23	0xbc346998	-0.011011504
24	0xbc0142ae	-0.007889433
25	0xbce5d770	-0.02805683
26	0xbc831064	-0.015999027
27	0xbcf03e84	-0.029326685
28	0xbd5b6235	-0.053560454
29	0xbbcbce8e	-0.0062196916
30	0xbcfe7ae1	-0.031064453
31	0xbc8119d3	-0.015759384
32	0xbbe5a172	-0.007007771
33	0xbc7dd3c9	-0.015492388
34	0xbc92161f	-0.017832814
35	0x396a462d	0.00022342122
36	0xbbed04d0	-0.0072332397
37	0x3a2cad3f	0.0006587095
38	0xbb9063e9	-0.0044064415
39	0x3bb8c35f	0.0056385244
40	0xbce79092	-0.028267179
41	0xbb8f9661	-0.0043819402
42	0xbcaa4f34	-0.02078972
43	0xbcd78293	-0.02630738
44	0x3a151116	0.0005686445
45	0xbcbff6b7	-0.023433072
46	0xbb05c71c	-0.0020412868
47	0xbc4cb9cd	-0.01249547
48	0xbc8c6f6c	-0.017142974
49	0xbc71fbaf	-0.014769479
50	0xbc8ac716	-0.016940635
51	0xbc801b5c	-0.015638046
52	0xbc7909a2	-0.015200051
53	0xbbd716fa	-0.0065640183
54	0xbc02f406	-0.00799275
55	0xbd15244b	-0.036411565
56	0xbca377ba	-0.019954551
57	0xbc151bb2	-0.009100841
58	0xbc11cd1e	-0.008899001
59	0xbc43748e	-0.011929644
60	0xbaa25028	-0.0012383508
61	0xbb23022f	-0.0024873128
62	0xbc94700f	-0.01811984
63	0xbc7c4e39	-0.015399509
64	0xbbface60	-0.0076539963
65	0xba38ee2c	-0.00070545333
66	0xb8d9fa07	-0.000103939376
67	0xbd3fb162	-0.046800025
68	0xbc166df8	-0.009181492
69	0xbad52c08	-0.0016263733
70	0xbc72a24f	-0.014809205
71	0xbc059f92	-0.00815572
72	0xbbfece45	-0.007776054
73	0xbcff1758	-0.03113906
74	0xbca4d52f	-0.020121185
75	0xbcc387ed	-0.023868525
76	0xbce78d5f	-0.028265653
77	0xbc9e7ae6	-0.019345712
78	0xbc6c1cc2	-0.014411153
79	0xbbb674ab	-0.005568107
80	0xbc800347	-0.015626563
81	0xbc7b9a7b	-0.015356655
82	0xbcc50998	-0.024052426
83	0xbcd22a95	-0.02565507
84	0xbba54ac1	-0.0050443118
85	0xbc07c01b	-0.008285548
86	0xbb5aa301	-0.0033361318
87	0xbca71330	-0.020394892
88	0xbc421227	-0.011845148
89	0xbcd4ebc1	-0.025991322
90	0xbcebdc2d	-0.028791511
91	0xbcafc0e3	-0.02145428
92	0xbc39ba6f	-0.011335953
93	0xbcab0a5b	-0.020878961
94	0xbd13d3ed	-0.03609078
95	0xbcdfd90b	-0.027325174
96	0xbc97633b	-0.018479934
97	0xbcf5d065	-0.030006597
98	0xbbc7766c	-0.006087115
99	0x3c546902	0.012964489
100	0xbd0f2c94	-0.034954622
101	0xbc5ffe0a	-0.0136714075
102	0xbc88b6f5	-0.016688803
103	0xbcdcdc5c	-0.026960544
104	0xbcde39dd	-0.0271272
105	0xbcfcd910	-0.030865222
106	0x3ba490aa	0.005022128
107	0xbc9a7cd2	-0.018858347
108	0xbd02daad	-0.031946827
109	0xbd281a5e	-0.04104077
110	0xba79d219	-0.0009529903
111	0xbcc953a1	-0.02457601
112	0xbcde36b4	-0.027125694
113	0xbca114b8	-0.0196632
114	0xbb4fc11a	-0.003170079
115	0xbc69bba7	-0.014265931
116	0xbce941cd	-0.02847376
117	0x3c5d14ca	0.013493726
118	0xbc3b81d7	-0.01144453
119	0xbca9ac86	-0.020712148
120	0xbbe56c38	-0.007001426
121	0xbcaf7e21	-0.021422448
122	0xbbc6da24	-0.006068485
123	0xbcfee120	-0.031113207
124	0xbc2332d5	-0.00996085
125	0xbca57da2	-0.020201508
126	0xbbe0ddd9	-0.006862384
127	0x399957da	0.0002924789
128	0xbc44db1a	-0.0120151285
129	0xbc9b14d4	-0.01893083
130	0xbdea266d	-0.114331104
131	0xbbbabb0a	-0.0056985663
132	0xbcb3d4d9	-0.02195208
133	0xbce59746	-0.028026234
134	0xba6550fa	-0.0008747723
135	0xbc25b30e	-0.010113491
136	0xbca403d0	-0.02002135
137	0xbbffd9e6	-0.007807958
138	0xbc77fd94	-0.015136141
139	0xbc495f81	-0.012290836
140	0xbcfa85b8	-0.03058134
141	0xbbf91aab	-0.007602056
142	0xbc1e5903	-0.009664777
143	0xbc282c51	-0.010264472
144	0x3bd9dd00	0.0066486597
145	0xbca84424	-0.020540304
146	0xbb280a43	-0.0025640882
147	0xbb9492d4	-0.004534105
148	0xbccb791f	-0.024838028
149	0xbb90f77a	-0.0044240328
150	0xbcc8560e	-0.024455097
151	0xbbf4d63d	-0.0074718283
152	0xbca022a7	-0.019547774
153	0xbca3e4ac	-0.0200065
154	0xbb945da1	-0.004527763
155	0xbc58d4ae	-0.013234301
156	0xbc31c707	-0.0108506745
157	0xbd2777c8	-0.040885717
158	0xbcd03ea4	-0.025420494
159	0xbbbf1bfe	-0.0058321944
160	0xbc3e403c	-0.011611994
161	0xbc1b6215	-0.009483834
162	0xbc8b731e	-0.017022666
163	0xbcb652ad	-0.02225622
164	0xbc40eccd	-0.011775208
165	0x3ab9fcb5	0.0014189692
166	0xbbdc5d8f	-0.0067250202
167	0xbcd69f0b	-0.026198884
168	0xbcd7f282	-0.026360754
169	0xbc430725	-0.011903559
170	0xbcbc06a8	-0.022952393
171	0xbd36abf1	-0.04459757
172	0xbc835043	-0.016029483
173	0xbce6ccd9	-0.02817385
174	0xbc22b0b2	-0.009929823
175	0xbc25ec5b	-0.010127152
176	0xbc93fa73	-0.01806376
177	0xba85163b	-0.001015372
178	0xb8b4b7ec	-8.617327e-05
179	0xbd48f858	-0.049064964
180	0xbb7215c4	-0.0036939243
181	0xbd113500	-0.035450935
182	0xbc9313f5	-0.017953852
183	0xbcb6992d	-0.022289837
184	0xbc0372c9	-0.008022972
185	0xbc19bf64	-0.00938401
186	0x39afb710	0.00033514993
187	0xbcb67552	-0.02227274
188	0xbc97cb05	-0.018529424
189	0xbcb33735	-0.02187691
190	0x3b887b47	0.0041650864
191	0xbaad203f	-0.0013208463
192	0xbc41bba9	-0.011824527
193	0xbc4d4975	-0.012529721
194	0xbb84d7f0	-0.004054062
195	0xbb962727	-0.004582304
196	0xbcf2ef0d	-0.029655004
197	0xbca26fad	-0.019828642
198	0xbc345acb	-0.011007975
199	0xbc07fb10	-0.008299604
200	0xbd041229	-0.03224388
201	0xbc9030a3	-0.017601317
202	0xbcd5c52b	-0.026094994
203	0xbcac89cd	-0.021061802
204	0xbcc0b894	-0.023525514
205	0xbc2e43b7	-0.010636262
206	0xbc57ad4d	-0.013163877
207	0xbbd9faee	-0.0066522276
208	0xbbcfafc8	-0.0063380934
209	0xbc1996b3	-0.009374308
210	0xbc889fea	-0.016677815
211	0xbc9a2ad4	-0.01881925
212	0xbcac9e6d	-0.021071637
213	0xbc8fa220	-0.017533362
214	0xbc83ff0c	-0.016112827
215	0xbbb9e8cd	-0.005673504
216	0xbcff99a1	-0.031201186
217	0xbc5b9720	-0.01340273
218	0xbc737450	-0.014859274
219	0xbc96696f	-0.018360822
220	0x3b2925e7	0.0025809945
221	0x3ba7169b	0.0050991303
222	0xbc851bee	-0.01624867
223	0x3bc0eb73	0.0058874427
224	0xbc1705f0	-0.009217724
225	0xbc4eb7ea	-0.012617091
226	0xbc7430f5	-0.01490425
227	0xbca0fce4	-0.019651838
228	0xbc8907fd	-0.016727442
229	0xbcf9abea	-0.030477483
230	0xbbbf2333	-0.0058330535
231	0xba3793ba	-0.0007002909
232	0xbba05889	-0.0048933667
233	0xbd680299	-0.056643102
234	0xbd005c1f	-0.031337854
235	0x3bb07c1b	0.0053858883
236	0xbcecd82c	-0.028911673
237	0xbbc6ceee	-0.0060671484
238	0xbcdd4208	-0.027009025
239	0xbcf3e4bd	-0.029772157
240	0xbd04d0cd	-0.03242569
241	0xbbf12cc5	-0.0073600733
242	0x3bb5ba7e	0.0055459132
243	0xbc9161af	-0.017746774
244	0xbc836462	-0.016039077
245	0xbc76aad6	-0.015055379
246	0xbba16296	-0.0049250824
247	0xbc9b7373	-0.018975949
248	0xbb8a08df	-0.0042124833
249	0xbca843b0	-0.020540088
250	0xbc8c661a	-0.01713853
251	0xbcabaa93	-0.02095536
252	0xbc7bef4a	-0.015376875
253	0xbc805e07	-0.015669836
254	0xbc8ad08b	-0.016945144
255	0xbca4e2a8	-0.02012761

conv1.5.running_mean f4 [400]
0	0xbea705e7	-0.3262169
1	0xbed79504	-0.42105877
2	0x3e7245ab	0.23659389
3	0x3e0a1b26	0.13486919
4	0x3ee79082	0.45227438
5	0x3d6167ff	0.05503082
6	0x3f1561da	0.58352435
7	0x3d333e02	0.043760307
8	0xbe8215e8	-0.25407338
9	0xbce8a3b1	-0.028398367
10	0xbec9d0da	-0.39417154
11	0x3dae8ff5	0.085235514
12	0xbd018b8d	-0.031627227
13	0xbd1d2c28	-0.03837219
14	0xbd9bac7b	-0.076012574
15	0x3dfaebc6	0.122520015
16	0x3d46533f	0.048419233
17	0x3d453824	0.048149243
18	0xbf0a0d4e	-0.5392655
19	0xbe03b135	-0.12860568
20	0xbf032e32	-0.51242363
21	0xbd9789fc	-0.07399365
22	0xbf0f871c	-0.56065536
23	0x3ef72cbe	0.48276323
24	0x3cb8500a	0.022499103
25	0xbde760ee	-0.11297785
26	0xbddb79de	-0.10716604
27	0x3db478da	0.08812113
28	0xbe43160d	-0.1905138
29	0xbe7b92de	-0.24567744
30	0xbe93eda5	-0.28892246
31	0x3de34e18	0.110988796
32	0xbd7b13ee	-0.061298303
33	0x3d55d32f	0.052203353
34	0xbe0055f6	-0.12532791
35	0xbddd0827	-0.107925706
36	0xbeab3568	-0.33439183
37	0x3de27369	0.11057169
38	0xbe558e33	-0.20855026
39	0x3dd9c794	0.1063377
40	0xbea7f813	-0.32806453
41	0xbd2c8954	-0.042123154
42	0xbe782a4f	-0.2423489
43	0xbe5d9653	-0.21639375
44	0xbed569d2	-0.41682297
45	0x3e907d59	0.28220633
46	0x3ecc4433	0.39895782
47	0xbcb7d817	-0.022441907
48	0x3cc73268	0.024316028
49	0xbd51025b	-0.051027637
50	0x3e327003	0.17425542
51	0x3ddce3b6	0.1078562
52	0x3b86135a	0.0040916624
53	0xbe9efe78	-0.3105352
54	0xbe523dc2	-0.20531371
55	0xbeedcc5e	-0.46444982
56	0xbec7be94	-0.39012587
57	0xbdc0246e	-0.093819484
58	0xbe3c0d27	-0.18364392
59	0x3e4ccfc7	0.20001136
60	0xbe2916fb	-0.16512673
61	0x3dc061e3	0.093936704
62	0xbe06df42	-0.13171104
63	0xbeae9a66	-0.34102172
64	0xbe682b3c	-0.22672743
65	0xbeb8116c	-0.35950792
66	0xbdfe526a	-0.12418063
67	0xbe0bbcdb	-0.13646261
68	0x3ec05086	0.37561435
69	0x3ed42ad5	0.41438928
70	0xbe704d4c	-0.23466986
71	0x3eb5adcd	0.35484162
72	0xbdc08e28	-0.09402114
73	0xbcec5a3d	-0.028851623
74	0xbea22b2b	-0.3167356
75	0x3e503701	0.20333482
76	0xbdc19883	-0.094529174
77	0xbdcc1786	-0.09965424
78	0x3e0cac77	0.13737665
79	0x3db74c6b	0.089501224
80	0x3f0e9e62	0.55710423
81	0x3e06884e	0.13137934
82	0x3e0b19c9	0.13584055
83	0xbe6a9364	-0.22907788
84	0xbe3e69ba	-0.18595019
85	0x3e3d972d	0.185147
86	0x3e99ddda	0.30052072
87	0xbda02435	-0.07819406
88	0xbd414b49	-0.04719094
89	0x3dad7002	0.084686294
90	0x3d84b76c	0.064802974
91	0xbe04020d	-0.12891407
92	0xbe638955	-0.22220357
93	0x3cfd8e94	0.030951776
94	0x3c2ba04a	0.010475228
95	0xbd1c2b8e	-0.038127474
96	0xbed8bbd3	-0.42330799
97	0x3dd7c71c	0.10536024
98	0x3dee561c	0.11637518
99	0x3e42aaa6	0.1901041
100	0x3dc66605	0.096874274
101	0x3e91abf0	0.2845149
102	0xbe6d8a08	-0.23197186
103	0x3d51c393	0.051211905
104	0x3e8efbc8	0.2792647
105	0x3bcf8d88	0.0063340105
106	0x3dee3653	0.11631455
107	0x3df43d16	0.11925714
108	0xbe8dfd0c	-0.27732122
109	0x3e63c9ec	0.22244996
110	0x3e8b5f5a	0.27221185
111	0x3da56ffe	0.080780014
112	0xbe802df8	-0.2503507
113	0x3dbc12b6	0.09183256
114	0xbe495add	-0.19663568
115	0x3eb3cf5a	0.35119134
116	0xbf01cf48	-0.5070691
117	0x3ebf99b1	0.37421945
118	0x3ec8f4b5	0.39249197
119	0x3cb884a1	0.02252418
120	0xbdef825d	-0.11694787
121	0x3e893f21	0.26805976
122	0x3d5c8442	0.05383707
123	0x3ec9d231	0.39418176
124	0x3e900edb	0.28136334
125	0xbe75bc05	-0.23997505
126	0x3e395f2a	0.18102708
127	0xbd1ee522	-0.038792737
128	0xbe0868ce	-0.1332123
129	0xbeaa1243	-0.33217058
130	0xbf00298f	-0.50063413
131	0x3e51f36e	0.20503017
132	0xbe1e3e3c	-0.15453428
133	0xbdcdf233	-0.100559615
134	0x3defa39a	0.117011264
135	0xbdf7eebe	-0.12106083
136	0x3d06a7ac	0.032874748
137	0x3df63d6d	0.12023435
138	0x3e68b4b3	0.22725181
139	0xbdc790f5	-0.09744445
140	0xbd59e6cc	-0.05319862
141	0x3d344734	0.044013217
142	0x3df8078d	0.12110815
143	0xbe75cb7b	-0.24003403
144	0x3f021d88	0.5082631
145	0xbeba0fde	-0.3634023
146	0x3d68459f	0.05670702
147	0xbe854d03	-0.26035318
148	0x3eb32f19	0.3499687
149	0x3e6e146b	0.23249976
150	0x3e62e1c1	0.22156431
151	0x3ebe1711	0.37126973
152	0x3e73c1d8	0.23804414
153	0x3e94acdf	0.2903814
154	0x3b1e5575	0.0024159823
155	0x3df8ce27	0.121486954
156	0xbd88d50a	-0.06681259
157	0xbdf6c8df	-0.12050032
158	0x3d7a2ab5	0.061075885
159	0xbdb69a02	-0.089160934
160	0x3c9e99e1	0.019360485
161	0xbe35d59c	-0.17757267
162	0xbd9a3b59	-0.07530851
163	0xbe8b743e	-0.27237123
164	0xbcd2be11	-0.025725396
165	0x3b9dd978	0.004817184
166	0x3eaa2fcf	0.332396
167	0xbe355239	-0.17707147
168	0xbe657c1b	-0.22410624
169	0xbf24a57c	-0.6431501
170	0xbe9be4c4	-0.30447972
171	0xbe4dc593	-0.200949
172	0xbde8f227	-0.11374312
173	0xbe81d0da	-0.25354654
174	0x3b646fa2	0.0034856577
175	0xbe2dda96	-0.16977915
176	0xbf038143	-0.5136911
177	0x3b578849	0.0032887629
178	0x3e3b7e5d	0.18309923
179	0x3e8dc9b3	0.27692947
180	0xbd6566b9	-0.056006167
181	0xbdac928e	-0.084263906
182	0xbe944097	-0.28955528
183	0x3ca4caf8	0.020116314
184	0xbeae5525	-0.34049335
185	0x3c81f0c1	0.01586187
186	0xbd7c1836	-0.061546527
187	0xbe936ff9	-0.28796366
188	0x3eb72ee3	0.3577796
189	0x3eaf04b6	0.34183282
190	0x3e66a917	0.2252544
191	0x3e894b84	0.26815426
192	0x3d07cc1b	0.033153635
193	0x3ead0195	0.3379027
194	0xbeceb872	-0.40375096
195	0x3e826f2d	0.25475445
196	0xbd73c73d	-0.05951618
197	0x3db8d9f1	0.09025944
198	0xbd7af8c7	-0.06127241
199	0x3df46f76	0.11935322
200	0x3e96c4e8	0.29447103
201	0xbdc4c75d	-0.09608338
202	0x3db3e07f	0.087830536
203	0xbe42cd32	-0.19023588
204	0xbddabe08	-0.10680777
205	0xbd536fbe	-0.051620238
206	0x3e036f62	0.12835458
207	0xbe9200db	-0.28516278
208	0x3e26f113	0.163029
209	0xbe6d1b10	-0.23154855
210	0xbed4377a	-0.41448575
211	0xbdbbcca2	-0.0916989
212	0xbe5f2bea	-0.21794096
213	0xbdbffeaf	-0.09374749
214	0x3e3e8f85	0.18609436
215	0xbec537ab	-0.38519034
216	0xbe8214a1	-0.25406364
217	0x3dd2ab4b	0.10286578
218	0x3ed1b5cf	0.4095902
219	0x3e9c390a	0.30512267
220	0xbe713b27	-0.23557721
221	0x3e8707ac	0.2637304
222	0x3d0a9c5d	0.033840526
223	0x3ca912d7	0.020638866
224	0xbe8e6f16	-0.27819127
225	0x3f149c29	0.5805078
226	0xbf01a9eb	-0.506499
227	0x3e095c93	0.1341422
228	0x3e2a2f15	0.16619523
229	0xbddfec7e	-0.10933779
230	0x3ed0165d	0.40642062
231	0x3d4787eb	0.048713606
232	0x3ca52723	0.020160263
233	0x3cab5950	0.020916611
234	0xbed885d7	-0.42289612
235	0x3efddb2e	0.49581283
236	0x3e2ae7f8	0.16690052
237	0x3de63f06	0.112424895
238	0x3e26235c	0.16224426
239	0x3d044d4a	0.03230027
240	0x3e2ee12c	0.17078084
241	0x3e44801a	0.19189492
242	0xbdb87fef	-0.090087764
243	0xbe0a5399	-0.13508452
244	0xbc7a5db9	-0.015281134
245	0xbe70883e	-0.23489472
246	0x3ee36a99	0.44417265
247	0x3ee33858	0.44378924
248	0x3e89bc50	0.26901484
249	0x3d91bb9b	0.07115861
250	0xbd0652cb	-0.0327938
251	0xbe6a33d0	-0.22871327
252	0x3ccfb6c9	0.025355713
253	0xbdac4c5a	-0.084130004
254	0xbd23f491	-0.04002816
255	0x3c5323ef	0.012886985

conv1.5.running_var f4 [400]
0	0x3def69b9	0.11690087
1	0x3e572102	0.21008685
2	0x3e797045	0.24359234
3	0x3e40097c	0.18753618
4	0x3e214482	0.1574879
5	0x3ec14352	0.37746674
6	0x3e8ac1f1	0.2710109
7	0x3e465b34	0.19370729
8	0x3dccd04b	0.10000666
9	0x3e190dcd	0.14946671
10	0x3e5a64e2	0.21327546
11	0x3dc0a7b1	0.094069846
12	0x3e52a15c	0.20569366
13	0x3e150c51	0.1455548
14	0x3e6519c4	0.2237311
15	0x3e02ba11	0.12766291
16	0x3e5ce23e	0.2157068
17	0x3e08e0ea	0.13367048
18	0x3e59d6de	0.21273372
19	0x3e122e08	0.14275372
20	0x3e47d85c	0.19516128
21	0x3e5e6fef	0.21722387
22	0x3eef3336	0.46718758
23	0x3e5781e6	0.21045646
24	0x3e0a5853	0.13510256
25	0x3de11a2e	0.109913215
26	0x3dcd3f45	0.10021833
27	0x3e307426	0.17231807
28	0x3e29a380	0.16566277
29	0x3e1a90fa	0.15094367
30	0x3e023342	0.12714866
31	0x3e181923	0.14853339
32	0x3de74d33	0.112940215
33	0x3e6b73dd	0.22993417
34	0x3ddfd48b	0.10929211
35	0x3e31b74a	0.17355075
36	0x3e2f49d1	0.17118002
37	0x3e81104f	0.25207755
38	0x3e095443	0.1341105
39	0x3df97aab	0.121816
40	0x3e40f178	0.18842113
41	0x3e4d8033	0.20068435
42	0x3e0bfc4d	0.13670464
43	0x3e0f9475	0.14021476
44	0x3e37513f	0.17902087
45	0x3df8438f	0.12122261
46	0x3eb47469	0.35245064
47	0x3e08a160	0.1334281
48	0x3e48e4d8	0.19618547
49	0x3eab4877	0.33453724
50	0x3e3a38b9	0.181857
51	0x3e2c5ac6	0.16831502
52	0x3e153fd6	0.14575133
53	0x3e313253	0.17304353
54	0x3e37f056	0.17962775
55	0x3e31a1a7	0.17346822
56	0x3eb23f1d	0.34813777
57	0x3e007a61	0.12546684
58	0x3e2d2479	0.16908444
59	0x3dd36a2a	0.103229836
60	0x3e335654	0.175134
61	0x3e547ccc	0.20750731
62	0x3e505c2e	0.20347664
63	0x3e02aa3f	0.12760256
64	0x3e066879	0.1312579
65	0x3dfe9226	0.12430219
66	0x3e3761e1	0.17908432
67	0x3e22c63d	0.15895934
68	0x3e4487bb	0.19192402
69	0x3e2d781c	0.1694035
70	0x3e259bb6	0.1617268
71	0x3e1f15c8	0.15535653
72	0x3dfc26e0	0.12312102
73	0x3e1f3442	0.15547279
74	0x3e255b3d	0.16148086
75	0x3e7267b6	0.23672375
76	0x3e3d999f	0.18515633
77	0x3e739558	0.23787439
78	0x3e9132fd	0.28359213
79	0x3dac81d4	0.084232
80	0x3e27ebc3	0.1639853
81	0x3e26ebdf	0.16300915
82	0x3e3afac9	0.1825973
83	0x3dfc592e	0.12321697
84	0x3e0f5546	0.13997373
85	0x3e3ec4ed	0.18629809
86	0x3e0e226a	0.13880315
87	0x3e05e00c	0.13073748
88	0x3e70c4f5	0.23512633
89	0x3e347549	0.17622866
90	0x3dff5df1	0.1246909
91	0x3e20ddf3	0.15709667
92	0x3e30e2fa	0.17274085
93	0x3e989458	0.29800677
94	0x3e09adbc	0.1344518
95	0x3eca33bb	0.39492592
96	0x3e506e04	0.20354468
97	0x3e42e1f1	0.19031502
98	0x3e2794c2	0.1636534
99	0x3e0a4374	0.13502294
100	0x3e65bc7c	0.22435182
101	0x3e175062	0.14776757
102	0x3e4298d9	0.19003619
103	0x3e4cc6df	0.19997738
104	0x3e01ecb8	0.12687957
105	0x3dee101d	0.11624167
106	0x3e6331b5	0.2218693
107	0x3db2784d	0.08714352
108	0x3dd46b1e	0.103719935
109	0x3e43b37b	0.19111435
110	0x3e7c990c	0.24667758
111	0x3e1b277c	0.15151781
112	0x3e9e2432	0.3088699
113	0x3dfe686f	0.12422263
114	0x3df9f896	0.12205617
115	0x3e4be444	0.19911295
116	0x3e7fa3cf	0.24964832
117	0x3e8a92fd	0.27065268
118	0x3e40c2de	0.18824336
119	0x3e036af1	0.12833764
120	0x3e44d52f	0.19221948
121	0x3e362f9b	0.17791598
122	0x3dcbf14a	0.099581316
123	0x3f0c91f4	0.54910207
124	0x3e3f6f55	0.18694814
125	0x3df45834	0.11930886
126	0x3e48999f	0.19589852
127	0x3e013b34	0.1262024
128	0x3e43adc8	0.19109261
129	0x3e165311	0.14680125
130	0x3e7685d4	0.24074489
131	0x3e095dc8	0.13414681
132	0x3e0bd17c	0.1365413
133	0x3e45b6b7	0.19307981
134	0x3e56ec75	0.20988639
135	0x3e0fe0db	0.1405062
136	0x3e05d2f8	0.1306876
137	0x3de6ee51	0.11275924
138	0x3e959e76	0.2922246
139	0x3e37245a	0.17884961
140	0x3e2a04b5	0.16603358
141	0x3df9b8a8	0.121934235
142	0x3e036016	0.12829623
143	0x3e4f3d3d	0.20238204
144	0x3e7fbcb0	0.24974322
145	0x3e2e7164	0.17035443
146	0x3e4d0321	0.20020725
147	0x3e02a8dc	0.12759727
148	0x3e7e3ee7	0.24828683
149	0x3e40f765	0.18844374
150	0x3ec5fdaf	0.38670108
151	0x3ec89ccb	0.39182124
152	0x3e12eb68	0.14347613
153	0x3eadf27a	0.33974057
154	0x3e634955	0.22195943
155	0x3e1d2120	0.15344667
156	0x3e2279e5	0.15866812
157	0x3e0b4d59	0.13603725
158	0x3e390092	0.18066624
159	0x3e1d42d1	0.1535752
160	0x3df487bb	0.11939951
161	0x3e24d101	0.16095354
162	0x3e33a7fb	0.17544548
163	0x3e8df0c4	0.27722752
164	0x3dc08fcb	0.09402426
165	0x3e12c509	0.14332975
166	0x3e43e3ba	0.1912984
167	0x3e07a240	0.13245487
168	0x3e34bc68	0.17649996
169	0x3e827778	0.25481772
170	0x3e1562af	0.14588426
171	0x3e253026	0.16131648
172	0x3e2a8e4e	0.16655847
173	0x3e13c8ce	0.1443207
174	0x3df0c86a	0.11756976
175	0x3e0aa679	0.13540067
176	0x3e84d2ce	0.2594208
177	0x3e14337f	0.14472769
178	0x3deda9d0	0.11604655
179	0x3e660a9d	0.22464986
180	0x3e59aa98	0.21256483
181	0x3dedd754	0.11613336
182	0x3de0969d	0.10966227
183	0x3e8a8edc	0.27062118
184	0x3e4ad659	0.1980833
185	0x3e5cabd8	0.21549928
186	0x3e1932ab	0.14960735
187	0x3e4126a0	0.1886239
188	0x3e6ca8ca	0.23111263
189	0x3e2460c2	0.16052535
190	0x3e839152	0.25696808
191	0x3e05fbb5	0.130843
192	0x3e015654	0.12630588
193	0x3e301209	0.1719438
194	0x3e283684	0.16427046
195	0x3e4075c3	0.18794923
196	0x3efb80b0	0.49121618
197	0x3de829bd	0.11336086
198	0x3dfd9df8	0.12383646
199	0x3e0a48b0	0.1350429
200	0x3e1e2e62	0.15447381
201	0x3e3da10e	0.18518469
202	0x3e6371bd	0.22211356
203	0x3e3702ce	0.17872164
204	0x3e6b9d48	0.23009217
205	0x3e12eae2	0.14347413
206	0x3e5ce629	0.21572174
207	0x3e1761d9	0.1478342
208	0x3e2302f8	0.15919101
209	0x3dd05e0e	0.101741895
210	0x3e1f3936	0.15549168
211	0x3de9696c	0.11397061
212	0x3e5158a7	0.20443974
213	0x3e227e1a	0.15868416
214	0x3e0601e3	0.13086657
215	0x3e751914	0.23935348
216	0x3e4aee14	0.19817382
217	0x3e86b569	0.2631028
218	0x3e3399ca	0.17539135
219	0x3dd7b699	0.105328746
220	0x3e104bab	0.14091365
221	0x3e8c1b04	0.2736436
222	0x3e81b957	0.25336716
223	0x3e549df1	0.20763375
224	0x3e1b43de	0.15162608
225	0x3e8818da	0.2658146
226	0x3e58623b	0.21131222
227	0x3ea40fc0	0.32043266
228	0x3e0d305b	0.13787977
229	0x3e12ed64	0.1434837
230	0x3e0c9802	0.13729861
231	0x3dfa87e2	0.12232949
232	0x3e08cb44	0.1335879
233	0x3e215241	0.15754034
234	0x3e4b4441	0.19850256
235	0x3eaa5bbb	0.3327311
236	0x3e149fea	0.14514127
237	0x3e2679b1	0.16257359
238	0x3e145e6c	0.14489144
239	0x3e23c2a1	0.15992214
240	0x3e446e70	0.19182754
241	0x3e0c5831	0.13705517
242	0x3e3409cb	0.1758186
243	0x3e301b95	0.17198022
244	0x3e163822	0.1466985
245	0x3e0a93a2	0.1353288
246	0x3ec1fb5e	0.3788709
247	0x3e149026	0.14508113
248	0x3e22f4d3	0.15913706
249	0x3e88d6cf	0.26726386
250	0x3e157047	0.14593612
251	0x3e23464e	0.15944788
252	0x3e535483	0.20637707
253	0x3db01248	0.08597237
254	0x3e54aaa4	0.20768219
255	0x3ea121a2	0.31470972

conv2.0.weight f4 [10, 1, 6]
0	0xbdc1392b	-0.09434732
1	0x3e8f1e52	0.2795282
2	0x3ebb2612	0.36552483
3	0xbea8b1c1	-0.32948115
4	0xbe0ff069	-0.14056553
5	0xbeff2fb7	-0.4984109
6	0xbe9e8072	-0.3095737
7	0xbde0ea5c	-0.109822005
8	0x3d4bb2ba	0.049730994
9	0xbeb7159b	-0.3575867
10	0xbdf5eba0	-0.120078325
11	0x3e90ecf9	0.28305796
12	0xbc537c24	-0.012908015
13	0x3dd03445	0.101662196
14	0x3e878745	0.2647039
15	0x3e2dd9e9	0.16977657
16	0x3e6df75e	0.23238894
17	0xbed9cc17	-0.4253852
18	0x3e541e83	0.20714764
19	0xbc998efe	-0.018744942
20	0xbd414a9e	-0.0471903
21	0x3dd7b790	0.10533059
22	0xbd896aad	-0.067098
23	0xbb360948	-0.0027776528
24	0x3e100d20	0.14067507
25	0x3ecd7138	0.40125442
26	0x3e9d0f48	0.3067572
27	0xbe8e977d	-0.2784995
28	0x3edbb980	0.42914963
29	0x3ef01968	0.46894383
30	0x3f0628c1	0.52405936
31	0xbea3742c	-0.3192457
32	0x3e64ea37	0.22354971
33	0x3e334f96	0.17510828
34	0x3c378b9a	0.011202717
35	0x3eeb3413	0.45938167
36	0x3e3e6de9	0.18596615
37	0x3eefb42c	0.46817148
38	0xbe49e198	-0.19714963
39	0x3bf3067c	0.0074165445
40	0xbecc40f5	-0.39893308
41	0xbe5201d6	-0.20508513
42	0x3e8a5a12	0.27021843
43	0xbd0ecb86	-0.034862064
44	0x3e28ebe5	0.16496237
45	0xbdd210a0	-0.10257077
46	0xbeb2acb8	-0.348974
47	0xbd64c4d2	-0.055851765
48	0xbdd1662f	-0.10224568
49	0x3d7e2d46	0.062054895
50	0xbef13bd5	-0.4711596
51	0xbde27080	-0.11056614
52	0x3ee78284	0.45216763
53	0x3e69797a	0.22800246
54	0x3ebf724f	0.37391898
55	0x3f00caba	0.50309336
56	0xbd38f380	-0.045154095
57	0x3ea8245a	0.32840234
58	0x3e668c0a	0.22514358
59	0x3ed4e019	0.41577223

conv2.0.bias f4 [10]
0	0xbeb30c84	-0.34970486
1	0x3de447d2	0.11146511
2	0xbdb21ebd	-0.08697269
3	0xbe583a1a	-0.21115914
4	0x3ea73edd	0.32665148
5	0x3e62dcd8	0.22154558
6	0xbe2fc173	-0.17163639
7	0xbeb753d9	-0.35806158
8	0xbea80177	-0.32813618
9	0x3ed81f44	0.42211354

conv2.1.weight f4 [10]
0	0x3f8c5f09	1.0966502
1	0x3f8a1d1d	1.0790135
2	0x3f9421cc	1.1572814
3	0x3f83abd6	1.0286815
4	0x3f911960	1.1335869
5	0x3f909f23	1.1298565
6	0x3f885804	1.065186
7	0x3f876b44	1.057961
8	0x3f89197a	1.07109
9	0x3f95e1ee	1.1709573

conv2.1.bias f4 [10]
0	0xbc2050da	-0.0097849015
1	0x3add5599	0.0016886472
2	0x3d14f166	0.036363028
3	0x3cd031ee	0.025414433
4	0x3d36b2eb	0.044604223
5	0x3d1c16e0	0.038107753
6	0x3c75b1c7	0.014995999
7	0x3c6fa352	0.014626341
8	0x3ca9fe5a	0.020751167
9	0x3d41bee4	0.047301188

conv2.1.running_mean f4 [10]
0	0xbe9fede3	-0.3123618
1	0x3e10ac18	0.14128149
2	0xbe1f4eac	-0.15557355
3	0xbe813c61	-0.25241378
4	0x3e2d9b61	0.16953804
5	0x3ddaa877	0.10676663
6	0xbe2c3989	-0.16818823
7	0xbec05574	-0.37565196
8	0xbebc0c3e	-0.3672809
9	0x3e798932	0.24368742

conv2.1.running_var f4 [10]
0	0x3d24077f	0.04004621
1	0x3d1d8c3c	0.038463816
2	0x3d19029e	0.03735601
3	0x3d0dff56	0.034667335
4	0x3d474fe7	0.048660185
5	0x3d2b604e	0.04183989
6	0x3d1ffe5b	0.03906093
7	0x3d1442a9	0.036196385
8	0x3d1fa64c	0.038976952
9	0x3d4db148	0.050217897
