model/pssm_ac_k2_model.ckpt (torch, 325083 bytes, 40 tensors)

conv1.0.weight f4 [10, 1, 3]
000000 28 b4 d8 3e e6 f7 19 bf ea 2c 07 bf 3a 0f 20 3d
       0.42324948 -0.6014389 -0.5280291 0.03907702
000010 4b c0 9d be 0e 90 9e 3e f0 4c 4b 3f 45 86 14 be
       -0.3081077 0.3096928 0.7941427 -0.14504345
000020 65 83 d7 3d 7e 38 c0 3e ef 72 ab 3e 43 9b c4 3e
       0.105231084 0.375431 0.33486125 0.38399705
000030 cc 1a ee 3e 00 55 0f 3f cb 1c 0a bf 9b e0 42 3e
       0.4650482 0.55989075 -0.53950185 0.19030993
000040 2e 87 2b 3e 3f 1a ca be 23 f3 8a 3e db 6a 1a 3f
       0.16750786 -0.3947315 0.27138624 0.603193
000050 b3 bc 0f 3f ae 43 92 3d 3e 97 23 3f e2 dc d1 be
       0.5614731 0.07141815 0.6390265 -0.40988833
000060 fe 1a 0f bf e0 c4 42 3e ba 53 d9 be ce 03 43 3e
       -0.5590056 0.19020414 -0.4244669 0.1904442
000070 dc 08 7e 3e fb d3 2e bc
       0.24808067 -0.010670657

conv1.0.bias f4 [10]
000000 7f 22 7a 3e e9 01 a9 be 3c 77 1a 3d dd 30 d2 be
       0.24427222 -0.3300927 0.037711367 -0.41052905
000010 9e c7 b0 3e fc 36 01 bf 03 a8 69 3e 73 c5 60 3e
       0.34527296 -0.50474524 0.22817998 0.21950321
000020 50 46 d3 be e5 44 87 3c
       -0.41264582 0.016512344

conv1.1.weight f4 [10]
000000 2e 68 84 3f c0 f0 77 3f 8e eb 93 3f 42 ba 81 3f
       1.0344293 0.9685173 1.155626 1.0134966
000010 62 4d 84 3f 11 18 78 3f db fd 82 3f a4 ce 88 3f
       1.0336115 0.9691172 1.023372 1.0688062
000020 12 fc 8a 3f ef ee 79 3f
       1.0858176 0.9763021

conv1.1.bias f4 [10]
000000 85 5e 99 3c 78 c4 4f ba ba 57 2b 3c 13 59 06 3c
       0.018721828 -0.00079256995 0.010457927 0.008199948
000010 c0 49 5b 3c c9 18 cc ba a8 8f a8 3c 12 8f 7c 3b
       0.013384283 -0.0015571351 0.020576313 0.0038537425
000020 e8 9e ab 3b 8d 7a b4 39
       0.005237449 0.00034423583

conv1.1.running_mean f4 [10]
000000 59 ed 67 3e 25 c5 9c be 49 73 06 3d 97 3f d8 be
       0.22649135 -0.3061916 0.03282479 -0.42236015
000010 0c 97 a8 3e f8 2d f5 be 77 3d 60 3e 38 7e 53 3e
       0.3292774 -0.47886634 0.21898447 0.20653617
000020 0b c3 d9 be 15 61 58 3c
       -0.42531618 0.01320674

conv1.1.running_var f4 [10]
000000 6a b1 0c 3d 3a a8 0c 3d 49 ac 0c 3d 35 ae 0c 3d
       0.034348883 0.03434012 0.03434399 0.034345824
000010 3f b0 0c 3d 1a a9 0c 3d ae b8 0c 3d 91 ab 0c 3d
       0.03434777 0.034340955 0.03435581 0.034343306
000020 88 ad 0c 3d 93 a6 0c 3d
       0.03434518 0.034338545

conv1.4.weight f4 [200, 10, 3]
000000 41 51 b6 3d 45 a1 ba bd ab f5 2a 3e 52 e5 0b be
       0.08902217 -0.09112791 0.16695277 -0.13661698
000010 23 f9 0f 3e bc 09 c4 3d 5f 59 bd bd b8 03 42 3d
       0.14059882 0.09572169 -0.09245562 0.047366828
000020 42 a5 0e 3e 45 04 91 3d 34 a5 d6 bc e1 a0 8b bd
       0.13930228 0.070808925 -0.026201822 -0.068177946
000030 a8 42 21 3e 21 39 12 3e 61 a1 b9 bd fe 73 a9 bd
       0.15748084 0.14279605 -0.09063984 -0.08274077
000040 75 d0 65 3d c8 ee a1 bd 81 b5 27 be d8 00 06 be
       0.056107003 -0.07906872 -0.16377832 -0.1308626
000050 ae 0b 5f bc 41 81 12 be 6a 83 03 be 0d f3 1c be
       -0.0136136245 -0.14307119 -0.12843099 -0.15327092
000060 e6 c4 88 3d 87 07 25 be 17 24 fb bd 5c cd ab 3d
       0.066781804 -0.16116153 -0.12262743 0.083887786
000070 78 b8 fd bd f5 6a ca 3d 60 2d 6d be ce c4 ba bd
       -0.123887 0.09883682 -0.2316184 -0.09119569
000080 26 91 a2 3d dc 6b 07 3e a3 a4 b7 3d 22 34 10 3e
       0.07937841 0.13224739 0.08966949 0.14082387
000090 c0 fe ca 3d 2a 63 b2 3d 26 c3 04 3e 05 be 30 bd
       0.09911871 0.0871032 0.12965068 -0.043149967
0000a0 ef d5 03 3e 56 9f c7 3c b8 a1 77 3d 67 f4 39 3d
       0.12874578 0.02436797 0.06045696 0.045399096
0000b0 45 d4 bd 3c ec 86 4a 3d 9b 70 16 be f3 1b b5 3c
       0.023172507 0.049445078 -0.14691393 0.022108054
0000c0 4d 24 45 3b 5a a5 b2 bd a0 3b 06 3e 17 43 40 be
       0.0030081451 -0.087229446 0.13108683 -0.18775593
0000d0 41 e2 94 bd fa 56 20 3d dd de 82 be 61 e7 e1 3d
       -0.07269717 0.039145447 -0.25560656 0.1103046
0000e0 f8 30 3e be 20 18 a9 3d 59 9b 09 3e 91 8b 03 3e
       -0.18573368 0.082565546 0.13438167 0.12846209
0000f0 d5 21 44 3d 48 28 95 bd 36 10 c4 3d 8d 1e 93 bc
       0.047883827 -0.07283074 0.095734045 -0.017958904
000100 ab 42 e2 3d f3 75 a7 bd ca d4 de 3d f9 a6 24 3c
       0.11047872 -0.08176794 0.1088043 0.010049575
000110 13 d0 7d bd b4 f9 48 3e 3a d9 4c bd 75 40 00 be
       -0.061966013 0.19626504 -0.05001185 -0.12524588
000120 82 66 37 3e f0 b4 08 3d 6f fe f7 3b 1a 90 18 3c
       0.17910197 0.03337568 0.0075681726 0.0093117
000130 9e 44 b9 3d 6d 14 19 bd 5a fe 9e 3d c9 32 ec 3d
       0.09046291 -0.037372995 0.077633575 0.11533124
000140 8e ba a3 bd 45 27 87 bd 68 0c e5 3d 08 5d 33 3e
       -0.07994567 -0.06599287 0.11184007 0.17515957
000150 88 c8 89 3d 92 06 26 be af f8 e8 3d 7e aa ea 3d
       0.067277014 -0.16213444 0.11375558 0.114583
000160 67 63 8a 3d 70 d6 0f 3e 84 b0 3c be 4f 4e 0d bd
       0.06757241 0.14046645 -0.1842671 -0.03449851
000170 43 eb 96 3d 52 1f ee 3d af 7d 1e be 4e c2 0c bd
       0.07369091 0.116270676 -0.15477632 -0.03436499
000180 37 eb 1d 3e a5 25 ad 3b dd c7 34 be c2 1c 41 be
       0.15421759 0.0052840286 -0.17654367 -0.18858626
000190 99 3f 3f bd 5a 19 07 bc 75 13 78 bd f1 68 c5 3d
       -0.04669151 -0.00824579 -0.06056543 0.096391566
0001a0 db 01 89 3c 8c ea 8a bd 88 53 19 3e f1 99 24 be
       0.016724518 -0.067830175 0.14973271 -0.16074349
0001b0 06 72 de bd 43 d7 88 3d 22 83 4e be f8 7b 50 be
       -0.10861592 0.06681683 -0.2016721 -0.2035979
0001c0 4b 2c 41 be a2 44 37 be 2d 78 1c be 9d ad 13 be
       -0.18864553 -0.17897275 -0.15280218 -0.14421697
0001d0 88 6a 1e be ff e0 15 be f7 99 16 be 8a 99 0e be
       -0.15470326 -0.1463661 -0.1470717 -0.13925758
0001e0 8d d8 19 3c 27 1e 0b be db 24 f8 3d 79 ec a4 bc
       0.009390009 -0.13585721 0.121164046 -0.02013229
0001f0 2d e4 a1 3d 78 53 b3 3d 00 a4 38 3e 66 78 36 be
       0.07904849 0.08756155 0.18031311 -0.17819366
000200 80 0c d5 3d ef dd 6e bd 2c 94 1e be 86 d3 08 be
       0.10402775 -0.05831712 -0.1548621 -0.1336194
000210 fb 2b 2b be b9 12 2b 3e ee ae 40 3d ae d1 f8 3d
       -0.16715996 0.16706361 0.047041826 0.12149368
000220 52 d3 fb bd 71 34 39 be 84 62 fc bd 0f 22 36 be
       -0.122961655 -0.18086411 -0.12323478 -0.1778643
000230 db 37 17 be d9 af d2 bd 9f 30 67 bc fb 58 25 be
       -0.14767401 -0.102874465 -0.014110713 -0.16147225
000240 fd a3 a2 3c 7c dd b3 3b 0e a4 84 3d a0 a4 a9 3c
       0.019853586 0.0054890495 0.064766034 0.020708382
000250 e3 fd 1d 3e 1c 04 8c bc 18 e5 fe bd ac d8 7e bc
       0.15428881 -0.017091803 -0.1244604 -0.015554588
000260 cc d5 6e 3b bf fb 0a 3e b3 70 30 3d 26 10 01 be
       0.003644335 0.13572596 0.04307623 -0.12603816
000270 9a 7f 80 3d a8 6b 08 bc f2 a6 24 bd 7c 47 b6 3d
       0.06274338 -0.0083264485 -0.040198274 0.08900353
000280 07 c9 a2 bd 29 d3 ac 3d f0 4a 5f bd d1 2b 39 be
       -0.07948499 0.08438713 -0.054514825 -0.18083121
000290 55 e8 75 bd de 0b 88 3d db 49 48 bd e7 55 cc bd
       -0.060036022 0.066428885 -0.04889856 -0.09977322
0002a0 5f fe bc 39 0c cc 8d 3d 98 dc 53 be bf 85 3f be
       0.00036047676 0.069236845 -0.20689619 -0.18703364
0002b0 b3 c3 f5 bd 6d 3e aa bd 86 66 4d bd 46 4e b4 bd
       -0.12000217 -0.08312688 -0.050146602 -0.08803992
0002c0 03 cf 78 bd 54 eb 58 be 4d cb dc 3d 04 42 09 be
       -0.060744297 -0.2118352 0.10780964 -0.13404089
0002d0 69 96 af bd cf 35 1b be 22 6a be bb a4 17 1d 3e
       -0.0857361 -0.15157245 -0.005810992 0.1534105
0002e0 1a 4b df bc cd d8 15 be e4 30 32 3e 08 b8 e2 3c
       -0.02725749 -0.14633484 0.17401463 0.027675644
0002f0 33 bc b0 3d d5 4a 25 be 5b f6 89 bd 48 c7 2a be
       0.08629646 -0.16141827 -0.06736442 -0.16677582
000300 7d 3b cb bd 5e 5a b8 3d 48 6a f1 3d 3a e5 15 be
       -0.09923456 0.09001611 0.1178785 -0.14638224
000310 d1 e0 8b 3d 24 8b c9 3c 4a 9b 4b be 02 8f 80 be
       0.0682999 0.02460248 -0.19883457 -0.25109106
000320 82 21 7d bd d7 98 18 3e 0e 7f 51 be 7c 74 01 be
       -0.061799534 0.14902054 -0.20458624 -0.12642092
000330 45 29 40 bd 1f 0a d0 bd a3 e2 28 be ca 27 be bd
       -0.046914358 -0.101581804 -0.16492705 -0.09284933
000340 e0 76 22 be 49 85 a1 bd 84 c5 bb bd 5e 9b 01 be
       -0.1586566 -0.0788675 -0.091685325 -0.12656924
000350 e0 4a e2 3d 7c 09 a5 bd 3f 83 4f 3b c6 da 17 3e
       0.110494375 -0.080584496 0.0031663922 0.14829549
000360 cf d3 20 3e 15 1f e9 bd b4 bc 33 be 74 ba d1 bc
       0.15705799 -0.113828816 -0.17552453 -0.025601603
000370 dc e0 4f 3d e0 25 82 bc 09 5f a6 3b b8 c5 0a bd
       0.050751552 -0.0158872 0.005077247 -0.033879966
000380 c3 1a 1b bd 86 b4 27 3d e6 d2 1f be da e3 26 3e
       -0.03786732 0.040943645 -0.15607795 0.16297856
000390 11 74 1c 3e e4 d4 8f bd c9 98 f7 3d 2f 27 bb 3d
       0.15278651 -0.070230275 0.12089688 0.09138333
0003a0 65 74 33 3c ff 81 fc bc 24 0c 16 3e d5 98 9a 3d
       0.010953044 -0.030823706 0.14653069 0.07548682
0003b0 5e ec 12 be be 1d 9c bb 39 12 a4 3d 23 73 2d bd
       -0.1434798 -0.0047642877 0.08011288 -0.04234613
0003c0 7c 14 d4 3d 3c ae 9b 3d 3a 7a b3 bc 08 8c ef 3d
       0.103554696 0.07601592 -0.021908868 0.11696631
0003d0 27 fa ad bd 28 7e 4c 3d 4c 36 6f bd e5 bd 1c be
       -0.084949784 0.049925 -0.05840139 -0.15306814
0003e0 15 0b 21 3e fe 6c c7 3c 41 c9 bd bd 74 51 3e be
       0.15726884 0.024343964 -0.09266902 -0.1858576
0003f0 1e 89 61 3d d8 83 03 3d a9 3f f8 3d 27 e7 a2 bd
       0.055062406 0.032108158 0.12121517 -0.07954245

conv1.4.bias f4 [200]
000000 42 ca c9 3d d5 49 ae bd 36 83 47 3c 7b 75 27 3d
       0.09853031 -0.08510176 0.012177279 0.040883522
000010 4b 8c da bc 04 81 e8 3c c6 17 d5 3a be 6a 34 3e
       -0.026678225 0.028381832 0.0016257695 0.17618844
000020 8e f1 b6 3d c9 65 85 bd d8 5c b4 3d 56 6c 1f 3e
       0.08932792 -0.065135546 0.08806771 0.1556867
000030 56 cd b5 bd 07 dd 1e bd b3 d3 e7 bd 6a 80 e0 3a
       -0.08877055 -0.038785007 -0.11319675 0.0017128114
000040 df 38 f1 bd 04 dd f2 3d 24 8b 2c 3e e3 19 31 bd
       -0.117784254 0.11858562 0.16849953 -0.043237578
000050 14 30 12 3d 12 5e cb 3d 27 31 e8 3d c7 e7 b6 bd
       0.035690382 0.09930052 0.113375 -0.08930927
000060 50 26 45 3e ae 71 0b be ff 82 0a 3d 3f 34 43 be
       0.19252896 -0.13617584 0.033816334 -0.19062899
000070 c0 05 09 3c 3b 1e 0d be 61 fa be bd b1 3f 61 3d
       0.008363187 -0.13781063 -0.093251 0.05499238
000080 41 d7 8a bd 15 41 5c ba 2e e6 5a 3d 91 dd b5 3b
       -0.06779338 -0.0008402032 0.053442173 0.0055500944
000090 0d 88 bc 3d b5 40 96 3d f7 ab 9f bd 04 2b b8 3c
       0.09205637 0.07336561 -0.077964716 0.022481449
0000a0 96 8c 28 be a9 28 16 be 52 e2 02 be ec f2 8c bd
       -0.1645988 -0.14663948 -0.12781647 -0.06882271
0000b0 d9 3f 38 3d a3 5f 99 3c e0 a3 02 bd e6 f6 cd bd
       0.044982765 0.018722361 -0.031894565 -0.10056858
0000c0 b1 a3 b0 3d a5 2f 2c 3c 58 a0 c5 bb ca e3 73 3d
       0.08624972 0.010509406 -0.0060310774 0.05954341
0000d0 67 49 97 3d 3d 1e 1c 3e ea df ed bd 0d a0 8d bd
       0.07387047 0.1524591 -0.11614974 -0.06915293
0000e0 8b 2b ba 3d 16 cc 3c be e3 54 16 be 11 58 6c 3c
       0.090903364 -0.18437228 -0.14680819 0.014425294
0000f0 1d 60 e5 3d 6e d9 eb bd 98 93 c1 3d c7 4f 1c be
       0.11199973 -0.11516081 0.094519794 -0.15264808
000100 0a 56 f7 bc 8e f3 8b bc a5 66 bb bd 25 d6 24 3e
       -0.030192394 -0.01708391 -0.09150437 0.16097315
000110 a2 c4 45 be 42 7d 8a 3d ab 29 e3 3d 0a 7e 3a bd
       -0.1931329 0.06762172 0.11091932 -0.045530356
000120 27 4a 2d bd 70 fe 2a bd dd 36 4e 3d 8a 8c ed bd
       -0.042307045 -0.041746557 0.05034529 -0.11599071
000130 4c 8d d0 bd 4f 43 02 be ec 63 09 be df 04 13 3e
       -0.101832 -0.12720989 -0.13417023 0.14357327
000140 87 2d d4 3d 24 98 66 bd b4 91 61 3d 65 cb 97 3d
       0.10360246 -0.056297436 0.055070594 0.07411841
000150 ae e5 3e be 03 5c 28 3e f7 ed 0a 3d b5 7e fd bd
       -0.18642303 0.1644135 0.033918347 -0.12377683
000160 23 88 99 3c d7 6e 70 bd f8 20 83 3d 0a 8a 23 3d
       0.018741673 -0.058699455 0.06402773 0.039926566
000170 7f dd 83 bd da aa d0 bd 97 47 45 3d e5 52 b9 bd
       -0.064387314 -0.10188837 0.048163977 -0.09049014
000180 66 61 5d be 5f 48 5a bd 38 df b4 3c c6 da 37 be
       -0.21619186 -0.053291675 0.022079095 -0.17954549
000190 78 1d 17 3e 28 92 10 3e 72 4f 0e be 1e 9a 44 3d
       0.14757335 0.14118254 -0.13897493 0.04799854
0001a0 8a b3 57 bd bf 4b ce 3d 1c ab b2 3a ec 4f c7 bd
       -0.052661456 0.10073041 0.0013631317 -0.09732041
0001b0 d1 7f 75 bd 35 56 af bd 0a 6f 89 bd 3b 7b 2c 3d
       -0.05993635 -0.085613646 -0.06710632 0.04210971
0001c0 35 09 ed 3c 85 77 10 3e df bd 58 be 0c 89 a8 bc
       0.028935054 0.14108093 -0.2116618 -0.020573162
0001d0 8f eb 49 3d a7 52 27 3d 3c 04 27 be b7 cc 13 be
       0.04929691 0.040850308 -0.16310209 -0.14433561
0001e0 90 69 45 be 4b 18 0e 3e 96 18 e3 bd e7 f4 e2 3d
       -0.1927855 0.13876455 -0.11088674 0.11081868
0001f0 89 0f 39 be bb ff ab 3d 15 ba d2 3c 9b 8a 9b 3b
       -0.18072332 0.08398386 0.025723496 0.0047467477
000200 76 04 3e bd 86 11 c2 3d 66 a9 02 be 59 56 70 be
       -0.046390973 0.094759986 -0.12759933 -0.23470439
000210 7b e8 24 3c 72 2f 17 be 49 af 2d 3e 35 d6 85 bd
       0.010065193 -0.14764193 0.16961397 -0.065349974
000220 48 4f 09 3e 07 91 46 bc 4e 5a 0a be 6b dc e3 3b
       0.1340915 -0.012119538 -0.13511011 0.006953766
000230 fe 79 c2 3d 56 e9 70 bd 79 5c 08 3e 95 e5 34 3e
       0.094959244 -0.058816276 0.13316526 0.17665704
000240 17 8e 81 3d b6 e5 36 3d e6 8f 32 3e 4e 4b ee 3d
       0.063259296 0.044652663 0.17437705 0.11635457
000250 97 ee 15 3e 94 a9 9a bd cb a6 17 3e b2 41 c2 bd
       0.14641796 -0.07551876 0.1480972 -0.09485187
000260 2b 38 ea bd 50 69 4e bd 9e c1 27 be 4d a2 1b be
       -0.114364944 -0.050393403 -0.16382453 -0.15198632
000270 a3 73 1f be 3b b4 3a bd 17 aa e9 3c 17 d5 8b 3d
       -0.15571456 -0.045582037 0.028523488 0.06827753
000280 12 fd ea bd d1 5d 8e 3d 9c af d7 3d 75 41 e5 bd
       -0.114740506 0.06951488 0.10531542 -0.111941256
000290 fd c5 32 3e a9 ee d1 3c ec 84 2f be 57 a5 23 bd
       0.17458339 0.025626497 -0.1714055 -0.039952602
0002a0 61 07 2a 3d 6a 85 20 3e 68 d7 97 3d d2 13 7e bd
       0.041510943 0.15675893 0.07414132 -0.06203062
0002b0 e8 a4 0c 3e 1b c8 b4 3c e9 a2 c3 3d 0f a9 52 bd
       0.13734782 0.022068074 0.09552557 -0.051430758
0002c0 78 2a b8 bd c5 b5 38 3c 63 3d 68 3c 2d b4 85 3c
       -0.08992475 0.011273806 0.014174792 0.016321266
0002d0 78 c0 28 3d 9a be b6 3d b3 73 4e 3d 72 d6 c8 3b
       0.041199178 0.08923073 0.050403308 0.0061290795
0002e0 99 6e d7 bd 4a 5a 46 3c 37 5a bf 3d 48 95 4c 3d
       -0.10519142 0.0121064875 0.09343379 0.049947053
0002f0 92 8e 71 be 1d 0f 93 3d 8a c5 4d be 64 86 9b 3d
       -0.23589543 0.07180617 -0.20094886 0.07593992
000300 8c 23 c9 3d 62 7d dc 3d d9 c2 45 3e f2 1a bc bd
       0.09821233 0.107661024 0.1931261 -0.09184827
000310 64 6a 97 bc ba 24 9a 3b d4 8a 33 3d 72 85 7b bd
       -0.018483348 0.004704085 0.04383357 -0.06140656

conv1.5.weight f4 [200]
000000 e8 57 75 3f 36 dc 82 3f c1 0d 7d 3f cf ce 70 3f
       0.9583726 1.0223453 0.9884911 0.94065565
000010 59 6f 78 3f 18 af 6f 3f 0f 6b 6e 3f c5 52 74 3f
       0.97044903 0.93626547 0.9313211 0.95438796
000020 e0 ac 7b 3f e7 68 7e 3f de 38 7b 3f f0 ad 75 3f
       0.9831066 0.9937882 0.9813365 0.9596853
000030 52 8f 81 3f 55 3c 77 3f 9c 87 75 3f 02 c3 77 3f
       1.0121863 0.96576434 0.9591005 0.96781933
000040 d5 79 76 3f 50 6c 7e 3f b1 2c 79 3f c7 c7 71 3f
       0.9627965 0.9938402 0.9733382 0.9444546
000050 a9 1b 79 3f 71 72 77 3f f4 2c 76 3f 0f 87 79 3f
       0.9730783 0.96659 0.96162343 0.9747171
000060 e0 a6 82 3f b6 d8 77 3f 1c e1 7b 3f b0 f4 77 3f
       1.0207176 0.9681505 0.98390365 0.9685774
000070 a3 c5 78 3f ec f6 76 3f db 21 7c 3f 5a ec 77 3f
       0.9717657 0.9647052 0.9848916 0.9684502
000080 19 fb 6c 3f 7a a3 78 3f 62 7e 73 3f c5 47 72 3f
       0.92570645 0.97124445 0.9511472 0.9464076
000090 b1 c7 74 3f 89 59 77 3f d5 ae 7a 3f 31 ff 74 3f
       0.95617205 0.96620995 0.9792302 0.9570189
0000a0 27 10 75 3f e7 81 74 3f 67 0e 72 3f a6 7b 6f 3f
       0.9572777 0.95510715 0.94553226 0.9354805
0000b0 d6 05 74 3f 18 db 78 3f aa 47 87 3f de 2f 87 3f
       0.95321405 0.9720931 1.0568745 1.0561483
0000c0 d7 82 72 3f 34 f3 77 3f c8 9c 8a 3f c2 b7 76 3f
       0.94730896 0.96855474 1.0829096 0.9637414
0000d0 9e d4 77 3f c0 c4 75 3f e3 1a 7d 3f 84 4b 7e 3f
       0.96808803 0.9600334 0.9886915 0.9933398
0000e0 0d 72 71 3f 3e f6 79 3f 48 5d 75 3f 4c 03 7b 3f
       0.9431465 0.9764136 0.9584546 0.98051906
0000f0 a6 82 77 3f 81 c1 73 3f d3 ff 7b 3f 2e d5 77 3f
       0.9668373 0.9521714 0.9843723 0.9680966
000100 43 f9 76 3f 9b b7 78 3f 6e 10 78 3f 2e 7c 76 3f
       0.96474093 0.9715516 0.9690007 0.96283233
000110 51 50 78 3f a9 9e 77 3f 90 6f 78 3f 86 fe 73 3f
       0.96997553 0.9672647 0.9704523 0.95310247
000120 e6 9a 79 3f 9f f2 7d 3f 83 f9 77 3f 9f 7c 78 3f
       0.9750198 0.99198335 0.968651 0.97065157
000130 4f 73 73 3f 33 a8 78 3f e9 d4 7a 3f bb 3f 79 3f
       0.9509782 0.9713165 0.97981125 0.9736287
000140 e2 0c 76 3f 89 b0 89 3f e3 05 78 3f 89 af 78 3f
       0.9611341 1.0756999 0.9688398 0.97142845
000150 c3 f5 77 3f 89 1a 78 3f db e8 81 3f 61 cd 75 3f
       0.9685938 0.9691549 1.0149187 0.9601651
000160 78 72 79 3f 02 7b 78 3f 10 71 77 3f f1 54 79 3f
       0.9744029 0.97062695 0.96656895 0.97395235
000170 d6 18 81 3f 84 84 8b 3f 63 71 78 3f 5a b4 7f 3f
       1.0085704 1.0899816 0.97048014 0.9988457
000180 e4 bd 77 3f 7e c1 78 3f 72 84 79 3f 1f 65 75 3f
       0.96774125 0.97170246 0.9746772 0.95857424
000190 d8 fd 77 3f 14 b6 6e 3f d2 96 78 3f c6 97 75 3f
       0.9687171 0.9324658 0.97105134 0.9593471
0001a0 b9 30 77 3f 95 57 80 3f ca 14 85 3f d7 fa 6e 3f
       0.9655872 1.0026728 1.0396969 0.933515
0001b0 e9 3a 73 3f ab 04 75 3f 96 44 74 3f 04 5e 79 3f
       0.95011765 0.9571025 0.95417154 0.9740908
0001c0 b2 73 73 3f dd f6 77 3f fc 21 78 3f 13 ca 7d 3f
       0.9509841 0.9686106 0.96926856 0.99136466
0001d0 5a 8e 78 3f 74 4e 78 3f a3 57 7f 3f 31 52 7b 3f
       0.9709221 0.9699471 0.997431 0.9817229
0001e0 74 82 76 3f be 7f 77 3f 1e 36 78 3f 3f 97 75 3f
       0.96292806 0.96679294 0.96957576 0.9593391
0001f0 80 90 75 3f b4 50 78 3f 2d eb 77 3f f8 bd 81 3f
       0.95923615 0.96998143 0.96843225 1.0136099
000200 54 c4 78 3f 40 10 71 3f a3 72 75 3f b0 ad 77 3f
       0.9717457 0.9416542 0.95878047 0.967494
000210 ca 7a 7e 3f 71 9e 80 3f 00 0a 7a 3f 92 ce 74 3f
       0.9940611 1.0048352 0.9767151 0.956277
000220 e5 88 76 3f 79 82 72 3f c3 4f 77 3f 92 8c 6f 3f
       0.96302634 0.94730335 0.9660608 0.9357387
000230 d9 98 77 3f 0b 80 7d 3f 16 9e 7b 3f 36 73 7a 3f
       0.967176 0.99023503 0.98288095 0.9783205
000240 a6 97 70 3f d2 82 78 3f 79 17 78 3f 98 de 77 3f
       0.939814 0.97074616 0.96910816 0.96824026
000250 f8 1b 78 3f 97 a2 94 3f 9e 73 7c 3f 5b ac 79 3f
       0.96917677 1.1612118 0.9861392 0.9752862
000260 b0 39 7a 3f 63 6c 93 3f 16 6c 70 3f 67 62 78 3f
       0.97744274 1.1517452 0.93914926 0.9702515
000270 e9 11 80 3f 40 43 78 3f 1d 64 6e 3f 5d da 7b 3f
       1.0005466 0.96977615 0.9312151 0.9838007
000280 92 be 80 3f e0 a0 78 3f 56 61 7a 3f 35 95 7a 3f
       1.0058157 0.97120476 0.9780477 0.9788392
000290 8a 73 79 3f 51 82 71 3f ea ee 78 3f fa a6 78 3f
       0.97441924 0.9433947 0.97239554 0.97129786
0002a0 e7 97 74 3f 87 98 75 3f e6 8d 76 3f 95 93 75 3f
       0.95544285 0.95935863 0.9631027 0.9592832
0002b0 cc cc 79 3f 3c d1 8c 3f cc a5 72 3f 43 68 84 3f
       0.9757812 1.1001353 0.94784236 1.0344318
0002c0 d3 65 7d 3f 19 1f 6c 3f 19 f9 7e 3f a6 4d 76 3f
       0.98983496 0.9223495 0.9959884 0.9621223
0002d0 8e aa 78 3f 3e 29 79 3f a1 13 7c 3f 26 25 72 3f
       0.97135246 0.97328556 0.9846745 0.94587934
0002e0 2e 4b 7d 3f 78 5b 76 3f 9f 13 92 3f c1 1d 79 3f
       0.9894284 0.9623332 1.1412238 0.97311026
0002f0 ba 2e 77 3f 42 55 78 3f c4 c6 72 3f 80 3b 78 3f
       0.96555674 0.97005093 0.9483454 0.9696579
000300 bb cd 77 3f 00 a8 6e 3f a2 28 78 3f 59 93 78 3f
       0.96798295 0.932251 0.96937 0.97099835
000310 99 07 79 3f dd 95 86 3f 8e 96 78 3f ea 3b 76 3f
       0.9727722 1.0514485 0.9710473 0.9618517

conv1.5.bias f4 [200]
000000 a2 69 89 bc 65 1b 07 3c 2a 1b b6 3c 4d 43 1c bd
       -0.016774002 0.008246277 0.02222975 -0.03815012
000010 b2 18 2d bc 99 73 5a bd af 53 58 bd bd 11 21 bb
       -0.01056497 -0.0533329 -0.052814182 -0.0024577223
000020 19 4c 78 ba 88 fe 68 bc ff 76 b5 bb 1f d6 92 bc
       -0.00094717887 -0.014220841 -0.005537867 -0.017924367
000030 ef 9e 88 bc e1 65 07 bc ca 6e 38 bd af b8 81 bc
       -0.016677348 -0.008264036 -0.04502753 -0.015835134
000040 7f 66 d3 bc 6f d7 f6 bc fa 07 ed 3a 7c 5f 30 bd
       -0.02580571 -0.030132024 0.0018084042 -0.04305981
000050 25 69 e5 3a b9 21 7f bc af 80 8b bc ad 03 0e bc
       0.0017502649 -0.015572005 -0.017029135 -0.008667869
000060 39 29 b5 3c 20 6f 3e bb 87 a2 a0 bb 55 f1 75 bc
       0.022114383 -0.0029057935 -0.0049021873 -0.015011151
000070 bf 84 01 ba b2 a4 35 bc 98 66 21 3c fb 60 44 bb
       -0.000494074 -0.01108663 0.00985112 -0.0029965031
000080 37 ea 6f bd dd cd ab bc 0c 82 08 bd e5 a3 29 bd
       -0.058572974 -0.020972187 -0.033327147 -0.041416068
000090 51 79 9a bc 5c 6f 9a bb 55 b1 4b bc c0 d5 21 bd
       -0.018856676 -0.004712982 -0.012432416 -0.03951049
0000a0 f6 a9 ea bc 8a ab 41 bc e0 4f 41 bd 61 b4 30 bd
       -0.028645497 -0.011820683 -0.047195315 -0.043140773
0000b0 a6 e3 d9 bc c1 6c 5d bc 6e 27 9c 3b 2a cc f6 bb
       -0.026597809 -0.0135146985 0.0047654426 -0.0075316625
0000c0 bb 4e 13 bd 9e 63 bf 3b ae d8 1e 3c 6e 7c 05 bc
       -0.035963755 0.0058407327 0.009695215 -0.008147342
0000d0 a2 ec ce bc 2e 82 e7 bc 66 bb 81 bc 79 00 e0 bb
       -0.02525932 -0.028260317 -0.015836429 -0.006835994
0000e0 26 87 29 bd 6e cf 94 bc cb 20 dd bc cd 6b 98 bc
       -0.041388653 -0.018165316 -0.026993176 -0.01860609
0000f0 e1 5e c1 38 09 76 fa bc a9 91 85 bb 49 47 3b bb
       9.22063e-05 -0.030573862 -0.004076202 -0.0028576425
000100 a8 61 07 bd cb 10 86 ba 11 51 d3 ba fa 05 09 bc
       -0.033052117 -0.0010228393 -0.0016122182 -0.008363241
000110 3c a5 50 3a 2c cc b9 bb db 22 2d 39 68 61 d2 bc
       0.0007959192 -0.005670091 0.0001651155 -0.025681213
000120 9b d3 87 bc e2 5b c1 ba 28 c4 90 bb 8d f3 1a bc
       -0.016580394 -0.0014752115 -0.004417915 -0.009457481
000130 b1 c3 b7 bc 02 db ce bb d2 1e 07 bd 35 c8 fa bb
       -0.02243218 -0.006312729 -0.032988377 -0.007653261
000140 58 5f 37 bc e3 1c 63 ba ce 86 9d ba b5 5e 57 bb
       -0.011192165 -0.0008663667 -0.0012018324 -0.0032862846
000150 64 ac c6 39 54 4d e7 bb 98 bb 38 3c 25 74 cb bc
       0.00037893944 -0.007058779 0.011275195 -0.024835655
000160 da 15 bd bc ad 10 50 ba af df 08 3d e5 38 09 3b
       -0.023081709 -0.0007937055 0.033416446 0.0020938453
000170 ce 45 2e bc 76 5e 4e bb d9 dd 45 bc 31 71 b1 bc
       -0.01063676 -0.0031489409 -0.012076818 -0.02166042
000180 89 6f 4c bc 2f 6c 82 bc 21 c3 b6 bc f7 c9 a5 bc
       -0.012477764 -0.015920727 -0.022309842 -0.020237906
000190 87 16 c5 b9 bb 60 19 bd 6b 44 a9 ba 91 b8 38 bc
       -0.00037591552 -0.037445765 -0.0012914067 -0.011274473
0001a0 e3 4c 5c ba fa 7e cb bb 33 22 c3 bb db c1 84 bd
       -0.0008403791 -0.006210205 -0.0059550046 -0.064822875
0001b0 ca e3 12 bd 03 b2 90 bc 4e 97 f3 bc 34 18 89 bb
       -0.035861768 -0.017663008 -0.029735234 -0.0041837934
0001c0 b1 79 17 bd 02 76 68 ba 13 a7 7d bc ef 6a 0f bb
       -0.03698129 -0.0008867682 -0.015481728 -0.0021883806
0001d0 ce 1d 1d 3b f0 2d 14 ba 8b fc 08 bc 45 c4 0b bc
       0.0023974064 -0.0005652597 -0.008360992 -0.008530681
0001e0 68 5d 52 bd 95 f3 41 bc 26 a8 48 bb af f9 91 bc
       -0.05135861 -0.01183786 -0.0030617802 -0.017819254
0001f0 e9 7a b2 bc 0f b2 50 ba a2 20 a6 bb 22 36 d2 3b
       -0.021787124 -0.0007961103 -0.005069808 0.0064151445
000200 a6 e7 95 3a 7f 8f 32 bd fe 8d 23 3b ab 3a 92 bc
       0.0011436834 -0.04359388 0.002495646 -0.01785024
000210 0c 5d ee bc 45 2f c3 bc a1 02 e1 3a 7e ce 5c bd
       -0.029097103 -0.02382625 0.0017166921 -0.053907864
000220 03 68 da 3c 1a 77 19 bd 05 32 5e bc a0 b7 93 bd
       0.026660925 -0.0374671 -0.01356173 -0.07212758
000230 42 ca 32 3a 8e 89 98 bc 64 bf a0 bb f9 ee b7 bb
       0.00068203 -0.018620279 -0.004905628 -0.0056132046
000240 59 53 28 bd 2e 20 a0 3a 81 95 ca 3b e5 74 ef 3b
       -0.04109511 0.0012216622 0.006182373 0.007307636
000250 01 ab 13 bc 26 d0 94 bc b7 30 0c bc 99 95 b0 3b
       -0.0090129385 -0.01816566 -0.008556536 0.005388927
000260 55 d9 17 bc c6 0e f8 bc 5e 0e 50 bd ec d4 3c bc
       -0.009268125 -0.030280482 -0.05079495 -0.011525374
000270 3d 41 c4 bb 2d 1c 60 bb a4 1f 29 bd a3 9f cd bb
       -0.0059892223 -0.0034196482 -0.04128994 -0.0062751337
000280 8b e3 94 bc 75 93 50 bc 3e 08 e2 bc bb d8 2f bc
       -0.018174907 -0.012730469 -0.02759182 -0.010732825
000290 cf c7 1b 3c 51 6f 22 bd ce b3 cd bc 62 8f 5a ba
       0.009508087 -0.03965694 -0.025110152 -0.0008337406
0002a0 0f 4d ae bc f4 d3 28 bc 5f e0 ce bb 80 4d 3d bc
       -0.021276979 -0.01030444 -0.006313368 -0.011554122
0002b0 12 44 1d bc e5 b9 0a 3c 1f 05 83 bd 9b a6 02 3c
       -0.009598749 0.008467172 -0.06397461 0.007974292
0002c0 04 31 93 bb 30 12 7d bd 08 7f fe bb 7a 16 49 bc
       -0.004491927 -0.061784923 -0.007766608 -0.012273425
0002d0 ab 96 76 3a dd b9 91 bc 55 9b 07 3b 8d 8d ee bc
       0.00094066066 -0.017788822 0.002069195 -0.029120231
0002e0 ed ea 1e bd e8 f8 6a bc 82 e7 0b bd 27 2b 55 bc
       -0.03879826 -0.01434157 -0.03415633 -0.013010777
0002f0 8d a9 4f bd b5 7a 1b bb 57 50 3a bd 14 99 57 bc
       -0.050698806 -0.0023724262 -0.045486774 -0.013159055
000300 b3 01 31 bc 28 7e 39 bd ee 85 8e 3c b3 dd 59 bc
       -0.010803628 -0.045286328 0.017397847 -0.013297486
000310 c4 af f3 3a 43 09 bb bb e9 56 12 ba 70 0c 85 bc
       0.0018591811 -0.005707891 -0.00055824086 -0.016241282

conv1.5.running_mean f4 [200]
000000 b6 a5 0c 3d 34 a6 7a bd 61 b7 be 3d 88 37 46 be
       0.03433772 -0.06119366 0.093123205 -0.19357121
000010 43 e0 54 be 9d e5 77 bd 56 1f 1a be ca 84 44 3e
       -0.20788674 -0.06052171 -0.15051016 0.1919128
000020 22 d2 cb 3d d5 86 43 bb bf d7 72 3d 97 56 52 be
       0.09952189 -0.0029835005 0.059287783 -0.20540844
000030 88 a5 98 bd 71 82 b0 bc 97 00 51 be 75 b6 fe bd
       -0.074534476 -0.021546574 -0.20410381 -0.12437145
000040 f2 a9 4c be 21 db d3 3d 5e 57 58 3e d8 eb db bd
       -0.19986704 0.1034453 0.21127078 -0.10738343
000050 57 8f 0e 3e 1c b2 51 3d e2 db 5d 3d 1d 19 7e bd
       0.13921867 0.05119525 0.054164775 -0.06203567
000060 c2 9b 51 3e a9 63 32 3d f5 aa 1a 3c be e4 b9 be
       0.20469573 0.043552075 0.009440173 -0.3630733
000070 cc d6 b8 3d 31 1c d0 bd aa 30 cd bd 14 b3 23 3e
       0.09025344 -0.10161627 -0.100190476 0.15986282
000080 7f 21 a3 be 7a fb 76 3d 85 49 05 bd 1c 57 c9 bd
       -0.31861493 0.06029842 -0.032540817 -0.09831068
000090 9d d7 a8 3d 31 77 45 3d 0b 1b 8f bd 76 61 c1 bc
       0.0824425 0.048209373 -0.0698758 -0.023606043
0000a0 96 a6 2e be 82 5f 44 be 58 94 62 be bb 5a 53 be
       -0.17055735 -0.19177058 -0.22126901 -0.2064008
0000b0 e0 62 bd bd 2a 2e 58 3e 37 3f d2 3c 35 b9 de 3c
       -0.092473745 0.2111136 0.025664909 0.027187923
0000c0 0c 6b fe 35 d3 76 95 3d d9 66 b2 3d 8d e8 4a 3c
       1.895563e-06 0.072980545 0.08711023 0.012384546
0000d0 c4 51 38 3a 02 2d d0 3d 11 dc b1 bd 05 d5 0c be
       0.0007031227 0.101648346 -0.086845525 -0.13753136
0000e0 e0 71 3c 3d 3d 27 5d be 02 91 e4 bd ed 77 bd bd
       0.046007037 -0.21597 -0.111604705 -0.0925139
0000f0 e2 f6 3f 3e f8 dc 9f be f1 3c a5 3d e5 2e 8d 3d
       0.18746522 -0.31223273 0.08068264 0.0689371
000100 b6 cf 63 bd ac 75 3b 3e ed ae 1b 3e c9 9f 2c 3e
       -0.05561801 0.18306607 0.15203448 0.16857828
000110 7e e7 94 bd 92 6a 9c 3d cf 31 61 3e 40 0f 2e be
       -0.07270716 0.07637514 0.21991657 -0.16998005
000120 d6 df 2b bd f1 36 06 bd 8b 73 86 3e b3 3e bc bd
       -0.041961513 -0.03276724 0.26260027 -0.091916464
000130 ed 52 74 be b9 f6 32 3c 52 19 11 be 8a 6f b0 3d
       -0.23859759 0.010923081 -0.14169815 0.086150244
000140 fa b1 1f 3e 03 27 9f 3d 82 a0 2a 3e 1e b2 19 3e
       0.15595236 0.07771113 0.16662791 0.15009353
000150 6b 46 96 bd c8 e9 42 3e fb 53 07 3e e2 02 5e be
       -0.0733765 0.19034493 0.1321563 -0.21680787
000160 3c 9b 35 3d c7 91 51 3e 33 2f 0c 3e d6 c2 39 3e
       0.044337496 0.20465766 0.1368988 0.1814073
000170 1d ea f6 bd 46 f5 93 3c c9 9d 9c 3d 32 b4 0a be
       -0.12056372 0.018061291 0.07647283 -0.13545302
000180 83 d7 0a be 43 14 2a bd f1 96 17 3d 34 14 84 be
       -0.13558774 -0.04152323 0.037009183 -0.25796664
000190 da 2a 95 3e 46 66 cd 3c 06 38 a4 3d df 4b c0 bd
       0.29134256 0.025073182 0.08018498 -0.09389471
0001a0 df 0e de bc b7 c2 d4 3d a7 c3 f9 3d e4 cc 4b be
       -0.0271067 0.103887014 0.12195521 -0.19902378
0001b0 16 97 1d be 1e e1 e8 bd 92 7e f7 bd 3f 62 9e bb
       -0.15389666 -0.11371063 -0.12084688 -0.004833489
0001c0 ee 41 2b bd d2 65 e5 3e 8d f3 7c bd 50 57 b0 bc
       -0.041810922 0.44804245 -0.061755706 -0.021526009
0001d0 9b 53 99 3e 49 9b bc 3e 9c 9c 2d be d8 0f 01 be
       0.29946598 0.36837223 -0.16954273 -0.126037
0001e0 d8 63 62 be b2 84 95 3c 63 ff e9 3d b5 12 8e 3d
       -0.221084 0.01825175 0.11425664 0.06937162
0001f0 78 72 ab be aa cf 6f 3e 06 cd ea 3d 4d 81 81 3d
       -0.3348577 0.23419061 0.11464886 0.0632349
000200 1e fd b0 3d 7a 85 93 3d 96 f5 61 bd f1 43 15 be
       0.08642028 0.07203193 -0.05516585 -0.14576699
000210 81 4c 30 bc 3e 60 3d be f6 ba 34 3e 15 c2 0f be
       -0.010760427 -0.18493745 0.17649445 -0.1403888
000220 7b c6 87 3e 12 f4 1f be 8e e8 f9 bd d3 4c 91 bd
       0.26518616 -0.15620449 -0.122025594 -0.07094731
000230 4b 88 de 3d f3 60 26 bd 84 a3 00 3e 7b 7f 44 3e
       0.108658396 -0.0406198 0.12562376 0.19189255
000240 5d 89 25 be 98 2a ad 3e 83 5a 77 3e c8 84 39 3e
       -0.16165681 0.3382156 0.24155621 0.18117058
000250 1c 55 9e 3d 20 41 ed 3c 38 c4 0e 3e 37 45 dd 3d
       0.07731077 0.028961718 0.13942039 0.10804217
000260 14 61 b1 bd ea 18 e5 bc d2 d8 78 be 40 aa 5a bd
       -0.08661094 -0.027965982 -0.2430146 -0.05338502
000270 cd 91 d0 bd da e2 a2 3d 76 6f f0 bd f6 9b 79 3d
       -0.10184059 0.07953425 -0.117400095 0.06093975
000280 16 f4 16 be 6f 21 5c 3c 4b 5e 5a 3c ee 3b 11 be
       -0.14741549 0.013435706 0.013328145 -0.14183018
000290 ab 2e 63 3e c2 cc 9d bd cd 55 5a be 36 a6 5a 3e
       0.22185771 -0.0770507 -0.21321793 0.21352467
0002a0 ee 00 e5 bb ce 9c c9 3d 32 27 89 3d 68 48 40 be
       -0.006988636 0.09844361 0.06696929 -0.18777621
0002b0 fd 41 46 3e af 80 d3 3c 8b 50 35 3b ca 5b 49 3d
       0.1936111 0.025818197 0.0027666416 0.049159802
0002c0 57 f9 17 be c0 48 4a bd 26 d2 96 bb 09 42 8b bd
       -0.1484121 -0.049385786 -0.0046026884 -0.067997046
0002d0 09 b8 2d 3e 46 7b 68 3d 3c 0f ec 3d e5 62 8a be
       0.16964735 0.056758188 0.11526343 -0.27028576
0002e0 1b 29 db bd 44 cf ee bd bb bf 10 3e 80 97 42 3d
       -0.107011996 -0.116606265 0.1413564 0.047507763
0002f0 0f 67 ac be 66 fa 94 3d a5 80 a1 be 63 9d 0e 3d
       -0.33672377 0.07274322 -0.3154346 0.034818064
000300 55 e6 da 3c 75 b9 3c 3d a5 3a 81 3e eb 61 b4 bd
       0.026721159 0.046075303 0.25240055 -0.08807739
000310 c9 1f 4a 3e d4 10 65 3d 28 fe b2 3d bd 21 c7 bd
       0.19738688 0.05592425 0.08739883 -0.09723232

conv1.5.running_var f4 [200]
000000 5f 55 d4 3d 3c f3 e2 3d 9f 12 d7 3d c9 15 29 3e
       0.10367846 0.110815495 0.105015986 0.16512217
000010 08 6c 87 3e 17 51 8f 3d 37 ec fb 3d 67 0e 97 3d
       0.2644961 0.069978885 0.12300914 0.07375794
000020 c8 82 95 3d 46 8c fd 3d 80 94 d1 3d 9c 2d 9d 3e
       0.07300335 0.12380271 0.10233402 0.3069886
000030 67 f8 29 3e 99 70 bd 3d 4f 25 24 3e f7 7c c9 3d
       0.16598664 0.09249992 0.16029857 0.09838288
000040 f8 9d de 3d 7b 50 a1 3d f7 ec c0 3d 1c 9b e1 3d
       0.10869974 0.078766786 0.094201975 0.11015913
000050 f3 46 ac 3d b6 57 ef 3d c3 ca 18 3e 57 ce a1 3d
       0.0841197 0.116866514 0.14921097 0.07900684
000060 d8 1a 91 3d 0c 14 03 3e 64 5e f5 3d 2e 10 d8 3d
       0.07085198 0.12800616 0.11980894 0.10549961
000070 7b 8c d3 3d 93 bf 9c 3d a6 a7 e0 3d 79 2f b2 3d
       0.10329529 0.076537274 0.109694764 0.08700461
000080 e1 fc 44 3e 5b 0f d7 3d 7b 3b ff 3d 85 5a 0e 3e
       0.1923709 0.10500976 0.12462517 0.13901718
000090 04 3d f0 3d da 0f b2 3d 8d 4b c9 3d 4c 7a e4 3d
       0.11730388 0.0869443 0.09828863 0.11156139
0000a0 2e 79 f2 3d 06 c3 a8 3d bb e8 13 3e e8 79 15 3e
       0.118395194 0.08240323 0.14444248 0.14597285
0000b0 36 d9 b9 3d 2d 2e f6 3d 97 55 ac 3d ee 0b 0a 3e
       0.09074633 0.12020526 0.084147625 0.13481113
0000c0 17 7b f7 3d cb 45 23 3e b0 bd b9 3d 74 fc ef 3d
       0.120840244 0.15944593 0.09069383 0.117180735
0000d0 a5 67 cd 3d 2e 0d 01 3e e0 f0 ae 3d 3d 58 b9 3d
       0.10029534 0.12602684 0.08542037 0.09050033
0000e0 39 75 2e 3e 0d dc 37 3e c2 c7 97 3d 9f e0 f1 3d
       0.17036904 0.17955036 0.07411148 0.11810421
0000f0 13 82 ea 3d 0f ca f1 3d b0 00 dd 3d 4e ca 25 3e
       0.11450591 0.11806118 0.10791147 0.16190454
000100 88 25 9d 3d 8c 80 11 3e e0 df 0d 3e 78 c8 bf 3d
       0.07673174 0.14209193 0.13854933 0.09364408
000110 7f 89 fa 3d 34 11 98 3d 5a e8 a3 3d ba 74 e6 3d
       0.122332565 0.07425156 0.08003302 0.112527326
000120 50 14 ac 3d c8 6b a8 3d 47 b4 21 3e 2f 2b d4 3d
       0.08402312 0.08223683 0.15791427 0.10359799
000130 79 8d 2f 3e 1c b6 0e 3e a2 c5 f3 3d 52 70 b2 3d
       0.17143811 0.13936657 0.1190293 0.0871283
000140 f2 a2 da 3d 15 e9 e1 3d fc 8f 98 3d ca 78 2f 3e
       0.106756106 0.11030785 0.07449338 0.17135921
000150 f7 d8 c4 3d a1 b5 23 3e ac b7 12 3e 2f c2 0c 3e
       0.09611695 0.15987255 0.14327878 0.1374595
000160 2e 86 d3 3d b9 8e 3f 3e ad 0d 92 3e 22 0b bf 3d
       0.10328327 0.18706788 0.2852606 0.09328295
000170 55 1c c0 3d f8 ed 14 3e 2d af 0c 3e 25 54 23 3e
       0.09380404 0.14543903 0.137387 0.15950067
000180 2c 45 a7 3d 09 b0 f1 3d b8 41 29 3e 7f ad d8 3d
       0.0816749 0.11801154 0.16528976 0.10579967
000190 51 7b bb 3d 12 74 2b 3e 74 15 fe 3d a6 42 37 3e
       0.0915438 0.16743496 0.124064356 0.17896518
0001a0 bb 08 ad 3d ef 14 83 3d 7c 57 03 3e 33 21 c3 3d
       0.08448931 0.06400477 0.12826341 0.095278166
0001b0 e3 d5 53 3e 36 91 ac 3d e0 98 18 3e 18 17 16 3e
       0.2068706 0.08426134 0.14902067 0.14657247
0001c0 5b bb c8 3d ca 8a 23 3e d4 ad f3 3d 2f ce f2 3d
       0.0980136 0.15970913 0.118983895 0.11855733
0001d0 7d 0f 2b 3e 4e d6 69 3e e0 52 0e 3e e6 16 0f 3e
       0.16705127 0.22835657 0.13898802 0.13973579
0001e0 96 e0 0c 3e 54 d8 ec 3d e1 c6 35 3e 03 26 b9 3d
       0.13757548 0.11564699 0.17751648 0.09040453
0001f0 1d 8e f9 3d 56 1c a7 3d f1 ff d1 3d d3 9c ec 3d
       0.12185309 0.081597015 0.10253895 0.11553349
000200 f3 33 eb 3d 87 b7 cc 3d 14 94 50 3e 78 23 b1 3d
       0.11484518 0.099959426 0.20368987 0.08649343
000210 5e 15 af 3d c4 6e ed 3d c7 81 ba 3d e2 5b f1 3d
       0.08548997 0.115933925 0.09106784 0.117851034
000220 5d 1a 48 3e 84 8d 03 3e 46 4c de 3d 9d bd 03 3e
       0.19541307 0.12846953 0.10854392 0.128653
000230 d5 97 d5 3d 45 31 9f 3d 49 b9 b9 3d b2 52 9c 3d
       0.1042935 0.07773069 0.090685435 0.076329604
000240 03 5d 46 3e d6 61 47 3e 60 67 ad 3d 93 4b fd 3d
       0.19371419 0.19470915 0.08466983 0.1236793
000250 d6 57 93 3d d0 e6 cd 3d f5 fe 11 3e a8 8c fe 3d
       0.07194488 0.100537896 0.14257415 0.12429172
000260 4e 54 f6 3d 3a 0f be 3d 0f 2f c4 3d eb b5 e7 3d
       0.120277986 0.09280248 0.09579288 0.11313995
000270 dc 59 cd 3d b2 15 f9 3d b0 af cf 3d 06 3f f3 3d
       0.10026905 0.12162341 0.101409316 0.11877255
000280 e7 02 1d 3e 37 75 bd 3d 39 f8 06 3e 2e b2 c0 3d
       0.15333138 0.092508726 0.13180627 0.09408985
000290 e8 99 ce 3d 14 12 ec 3d 13 0e ed 3d c3 04 02 3e
       0.10087949 0.11526886 0.1157495 0.12697129
0002a0 bf 6e cb 3d f4 be 99 3d e1 0c bf 3d 1f d0 10 3e
       0.099332325 0.075071245 0.09328628 0.14141892
0002b0 f5 26 e0 3d 6c 8e ba 3d 44 ec d7 3d fe c6 81 3e
       0.109449305 0.09109196 0.10543111 0.25347131
0002c0 04 ce a4 3d 3d 18 c4 3d 91 98 03 3e ca bd b0 3d
       0.08047107 0.095749356 0.12851168 0.086299494
0002d0 02 40 d7 3d 46 bd c8 3d ac 86 c1 3d b6 77 a0 3e
       0.105102554 0.09801726 0.09449515 0.31341332
0002e0 03 9e cb 3d 25 5d cb 3d 41 68 b4 3d e7 c5 f8 3d
       0.09942248 0.09929875 0.08808947 0.12147122
0002f0 4f 26 e5 3d 3c bf c0 3d 17 cd 12 3e 4f cd 02 3e
       0.111889474 0.09411475 0.14336048 0.12773632
000300 d4 b7 d7 3d a3 74 93 3d cd a4 21 3e e1 bc d0 3d
       0.10533109 0.07199981 0.15785523 0.10192276
000310 7e ca f5 3d d4 21 e3 3d 11 28 94 3d bc 07 9f 3d
       0.12001513 0.110904366 0.072342046 0.07765147

conv2.0.weight f4 [10, 1, 6]
000000 09 99 da 3e 51 6f d4 3e b5 5f c6 3e 7c ea bb be
       0.42694882 0.41491178 0.38744894 -0.36702335
000010 9f e4 bf 3e 75 5b 52 be 79 bd 84 be c7 51 89 3e
       0.37479112 -0.205427 -0.25925806 0.26820204
000020 45 d2 be be 5f 68 e2 be 72 91 e3 3e ca c6 8b be
       -0.37269798 -0.44220254 0.44446903 -0.27300102
000030 92 38 d8 3c de 67 1e 3f 13 c0 c2 3e e2 2f 82 be
       0.026394162 0.6187724 0.38037166 -0.25427157
000040 83 0e 7a be 54 27 02 bf 94 03 cd 3e 0d d0 9b 3e
       -0.24419598 -0.5084126 0.40041792 0.30432168
000050 d8 59 0a 3f af cb 7b 3e 41 7e 87 be eb 42 e7 be
       0.5404334 0.24589418 -0.26463512 -0.45168242
000060 30 fb 3e 3e 2f af 99 3e fa e7 c2 3e b7 e4 ec 3e
       0.18650508 0.30016467 0.3806761 0.46268246
000070 9d c3 e3 3c d0 33 ff 3e c4 6a e4 3e 88 ea 9a be
       0.027803237 0.49844217 0.44612706 -0.30257058
000080 b6 4c cb 3e 68 fd ad 3e b5 d3 24 be 8f cb a8 3e
       0.39706963 0.33982396 -0.16096385 0.32967803
000090 76 e5 0a 3e 42 33 91 be 48 4f a1 3e 24 70 9f 3e
       0.13564095 -0.2835942 0.315058 0.31140244
0000a0 d2 47 ac be 74 60 a9 bd 63 28 9b be 95 db 0b 3e
       -0.33648545 -0.0827035 -0.3030425 0.13657983
0000b0 37 17 97 be e9 6c f8 be 31 d3 47 3e c8 0b bd be
       -0.295099 -0.48520592 0.19514157 -0.3692305
0000c0 55 13 0a bf 2b dc f5 be 31 5d e5 bc 10 30 5d bd
       -0.5393575 -0.48019537 -0.027998539 -0.054000914
0000d0 45 31 25 bf 40 83 22 bf 5c f9 9f be 5f e2 e3 be
       -0.64528304 -0.6348152 -0.31244934 -0.44508645
0000e0 31 ee 13 3f 4b 7d d7 be ab 3f 8e be 2d fa ad 3e
       0.57785326 -0.42087778 -0.2778295 0.3397993

conv2.0.bias f4 [10]
000000 75 b5 87 3e d1 97 74 bd 63 34 70 be 69 62 ad 3e
       0.26505628 -0.059715096 -0.23457484 0.33864143
000010 9d 5f d4 3d 1c d4 97 be c2 fe ae be 1f 6c 80 3e
       0.10369799 -0.29654014 -0.3417874 0.2508249
000020 00 1b 56 be 73 81 31 3e
       -0.20908737 0.17334537

conv2.1.weight f4 [10]
000000 37 a8 81 3f 7b 37 8b 3f 44 83 b1 3f 20 c9 82 3f
       1.012946 1.0876306 1.3868184 1.0217628
000010 25 d6 86 3f d1 64 85 3f 62 ac 9d 3f e9 5b 84 3f
       1.0534102 1.0421392 1.2318232 1.0340549
000020 68 52 98 3f d9 64 94 3f
       1.1900148 1.1593276

conv2.1.bias f4 [10]
000000 2b 59 f5 3b a2 d2 0b 3c 68 b7 37 bb 06 87 22 3c
       0.0074874363 0.0085341055 -0.0028032903 0.009919887
000010 c0 68 c8 3b 33 d0 b5 3b 8f fb 0a bc de 63 2c 3c
       0.006116003 0.005548501 -0.008482828 0.010521857
000020 e1 2d 6a 3b 6e 09 e5 3b
       0.0035732912 0.0069896495

conv2.1.running_mean f4 [10]
000000 76 0a 81 3e c9 d4 96 bd ab db 75 be 57 15 aa 3e
       0.25203294 -0.07364804 -0.24009578 0.33219406
000010 be c6 cd 3d 08 1b 9e be 6e 15 ad be a7 8d 70 3e
       0.10047673 -0.30879998 -0.33805412 0.23491536
000020 68 1e 5c be 4f 03 22 3e
       -0.21495974 0.15821575

conv2.1.running_var f4 [10]
000000 40 b1 0c 3d 6f ac 0c 3d 46 a9 0c 3d 42 b1 0c 3d
       0.034348726 0.034344133 0.03434112 0.034348734
000010 14 b4 0c 3d c4 ae 0c 3d a3 a7 0c 3d 59 af 0c 3d
       0.034351423 0.034346357 0.03433956 0.034346912
000020 03 b0 0c 3d f0 ae 0c 3d
       0.034347545 0.03434652

conv2.4.weight f4 [200, 10, 6]
000000 b7 de e7 bd 0c 32 8d 3d c9 02 c3 3d da 7e da bd
       -0.11321776 0.06894311 0.095220156 -0.10668726
000010 3a 61 89 bc 96 99 5d 3b ab 2c 09 be 7c 67 f1 3d
       -0.016769994 0.0033813468 -0.13395946 0.11787316
000020 46 74 c1 3d 7e 3e 9f bd de 91 05 3c ab 09 bb 3d
       0.094460055 -0.07775591 0.008152453 0.091327034
000030 9e d9 e4 3b 11 aa 6f bc 88 f1 f7 bd f1 e6 0a bd
       0.00698395 -0.014627949 -0.12106615 -0.03391165
000040 1d 31 97 3d 98 d4 d9 3c 72 7d c3 bb 93 85 d2 3d
       0.073824145 0.02659063 -0.005965882 0.102793835
000050 c2 7e 87 bc 4c a1 f6 bd d3 7c 93 bd 77 c1 af 3d
       -0.016539935 -0.12042484 -0.07201543 0.08581822
000060 b4 05 9a bd fc 9e 22 3d ca c4 35 bd d6 33 a5 bd
       -0.07520619 0.0397024 -0.044377126 -0.080665275
000070 d6 5c 90 bd 83 2a dd 3d 70 16 f7 3d 8e 37 38 bd
       -0.07048957 0.10799124 0.120648265 -0.044974856
000080 96 c5 61 3d 39 c1 90 bd 09 62 9b 3d 8d 9f f0 bd
       0.055120073 -0.07068104 0.07587058 -0.11749182
000090 67 ff 9f bd 77 45 a7 3d cb 2c 89 3c 6a ea 71 3c
       -0.07812386 0.08167546 0.016744992 0.014765361
0000a0 cf ef 14 bc 80 2d 04 3d 23 fc 9f bb 61 c9 85 3d
       -0.009090378 0.032269955 -0.004882352 0.065325506
0000b0 d3 c3 2f 3d c4 89 06 3d f8 df bf 3d c4 34 a2 bc
       0.042911362 0.032846227 0.093688905 -0.019800551
0000c0 47 70 a7 bd fa a6 dd 3d 03 e4 3d bd 93 9f b5 3d
       -0.08175712 0.10822864 -0.046360027 0.08868327
0000d0 72 f5 19 bd 3f 2e 04 3d 42 21 b0 3c 4e 28 d1 3d
       -0.03758759 0.032270666 0.021500234 0.10212766
0000e0 f8 1b 00 be 50 6b 5c bd cd 6a ee bc 13 15 92 bd
       -0.12510669 -0.05381328 -0.029103661 -0.07132926
0000f0 ec df 6c bd 7b a4 29 bd 6f fd a1 bc e5 3d 54 3d
       -0.057830736 -0.041416626 -0.019774167 0.05181684
000100 32 10 b1 bd 0a 3d 42 3d 54 de cc 3d 7b 99 d9 bd
       -0.08645667 0.047421493 0.10003343 -0.10624977
000110 9a 70 d9 3d 19 e3 a4 bd fa a2 93 ba 63 33 3d 3d
       0.1061718 -0.08051128 -0.0011263781 0.046191584
000120 b5 5c a2 bd 11 51 a1 3c 37 ae e2 3d c4 8c b9 3d
       -0.07927839 0.019691976 0.11068385 0.09060052
000130 9a 88 db bd 26 1a 45 3d d6 7d 4b bb 8c 3a 4f bd
       -0.10719414 0.04812064 -0.0031050346 -0.050592944
000140 92 ad d3 bd 56 cc 8c 3d 0e de f1 3b 61 b2 31 3c
       -0.1033584 0.068749115 0.0073812073 0.0108457515
000150 9c 61 c3 bd 2a 80 10 3d e4 23 cd 3d f9 41 21 bd
       -0.09540102 0.035278477 0.10016611 -0.039369557
000160 ec 22 0a 3d b9 b3 9b 3c 3a 42 8d 3d 7e d8 b6 bd
       0.03372471 0.019006597 0.06897397 -0.08928011
000170 47 36 49 3d cd c5 0d bd d0 1e c5 3d 3f 63 fb bc
       0.04912403 -0.034612466 0.09625018 -0.030686973
000180 10 2d 9e 3d 1f 2f 86 bd 94 06 c5 3d cf 96 87 3c
       0.07723439 -0.065519564 0.09620395 0.016551403
000190 68 1f a4 bd 50 c8 f3 bd 8b 2b bd 3d d0 74 b5 3c
       -0.08013803 -0.11903441 0.09236821 0.022150427
0001a0 d5 e1 8b 3d be 93 8b 3d 2a 82 de 3d a9 1e d7 bb
       0.068301834 0.06815289 0.108646706 -0.0065649343
0001b0 25 3c 01 3d fd 9e 8d 3d c4 61 f1 3c 4a a7 b3 3d
       0.0315515 0.0691509 0.029465564 0.08772142
0001c0 60 56 a4 3d 42 f7 a2 bd 81 92 a4 3d 76 3d 36 3d
       0.08024287 -0.07957317 0.08035756 0.044492207
0001d0 05 73 92 bc 38 f9 d3 3d eb f8 ad bd eb 00 bb bd
       -0.017877111 0.10350269 -0.08494743 -0.091310345
0001e0 3b 0f 1c be 3f d2 fe 3c 85 99 86 3d 8d cf 20 bd
       -0.15240185 0.031106113 0.0657225 -0.039260436
0001f0 8d 86 c9 3d a8 51 96 3d 81 d0 d3 bd 70 93 fb bd
       0.09840117 0.073397934 -0.10342503 -0.12283981
000200 fd db 8f bd cb 04 2a be 07 9d b1 3d 72 69 25 bd
       -0.07024381 -0.16603391 0.08672529 -0.040383764
000210 3f ea 06 bd b7 26 db bc e4 54 c5 3d d5 63 20 3d
       -0.03293824 -0.02675186 0.09635332 0.039157707
000220 c8 4c 2c bd 80 d2 c7 bd fd 5a b0 3d 26 ee e4 3c
       -0.04206541 -0.097569466 0.08611105 0.02794559
000230 49 3f c9 bd f2 3d c3 bd f0 04 1d be a5 27 ed 3d
       -0.09826524 -0.095332995 -0.15333915 0.11579827
000240 db 20 83 bc ff 0f 20 be 08 d6 1f 3d ed be 41 bd
       -0.016006878 -0.15631102 0.039022475 -0.04730122
000250 fc 7e 40 bd 63 1f 5c bd a4 0b e4 bd 99 52 dc 3c
       -0.0469961 -0.05374087 -0.11135033 0.026894854
000260 f9 5e 06 be 98 76 82 3d de 99 87 bc fa 5d ff bc
       -0.13122167 0.06370276 -0.016552862 -0.031172741
000270 03 d1 7c bd af 1a 27 bd 09 7d a2 bd e2 ce 05 be
       -0.061722767 -0.04079693 -0.07934005 -0.13067201
000280 ac 23 f9 bd 08 15 03 be 56 8e cf bc db f2 85 3b
       -0.12165007 -0.12800992 -0.025336426 0.0040877885
000290 13 6e 46 3d 3a a3 6c 3d 4d 53 02 bd 04 1c ae bd
       0.04844482 0.057772852 -0.031817723 -0.08501437
0002a0 5b b7 e4 bd 9b 64 cc bc 78 86 f6 3d d7 73 0b bd
       -0.11167785 -0.024950316 0.12037367 -0.03404602
0002b0 78 57 df 3b b5 2b 44 3d c5 e6 73 bc 5d e6 ca 3d
       0.006815847 0.047893245 -0.014886563 0.099072196
0002c0 db 38 48 bc fd 76 c8 bd af da b5 bd fe bd 2a be
       -0.012220587 -0.0978832 -0.08879601 -0.16674039
0002d0 62 bc f8 bc 07 ac b5 3d 5d e8 a0 3d 5e 14 7b 3d
       -0.030363265 0.08870702 0.0785682 0.06129872
0002e0 8b 64 95 bd 8f 93 42 bd 37 ea e6 3d b2 be 1d 3c
       -0.07294568 -0.047504004 0.11275142 0.009627985
0002f0 24 0f 0b 3c 41 98 c7 3c a5 c0 1c 3d 57 12 d1 3d
       0.0084874965 0.024364593 0.038269658 0.10208576
000300 a0 1d 80 bb 53 14 2c ba 20 be ab bc 5c 7f 45 3e
       -0.0039097816 -0.0006564308 -0.020964682 0.19286865
000310 79 82 1e 3d 9e d7 c5 bd 63 0b ec 3c fb d8 3d bd
       0.038698647 -0.09660266 0.028814023 -0.046349507
000320 67 be a9 3d 35 20 ef 3d 4f 75 a7 3d 5c f7 95 3c
       0.082882695 0.11676065 0.08176672 0.018306427
000330 a3 7d 05 be e6 32 f9 bc 2e 90 5f bd 78 a3 5f 3c
       -0.13036208 -0.030419778 -0.05458086 0.013649814
000340 d8 28 d4 bd 6a 77 1f bd c6 c1 e0 3d 33 54 ba 3d
       -0.10359353 -0.03893224 0.10974459 0.09098091
000350 4e de c9 3d 7c c5 fb 3d 90 5b 46 bd 38 3e 59 3a
       0.098568544 0.122935265 -0.048427165 0.00082871644
000360 25 c5 81 bd b2 92 03 be c1 3d 87 3d 35 b4 5e 3d
       -0.063364305 -0.12848929 0.066035755 0.054371078
000370 a3 e7 dc 3d a6 35 f1 3d 16 6b af 3d 25 02 47 bd
       0.10786369 0.11777811 0.08565347 -0.04858603
000380 1b 7b fb 3d d9 5c 80 bd f5 c8 ac bd 96 e6 83 3d
       0.1227934 -0.06267709 -0.08436767 0.06440465
000390 c2 45 4e be 1f 01 94 be 33 7f ec bd d7 8a 1a 3e
       -0.20143798 -0.28907105 -0.11547699 0.15092026
0003a0 53 9d 37 be 05 68 b2 bd 39 70 9c bd 39 dc f2 3d
       -0.17931108 -0.087112464 -0.07638592 0.118584104
0003b0 3d 2e 17 3c c6 13 f0 bd ba c4 08 3e f6 23 7c bd
       0.009227333 -0.117225215 0.13356295 -0.061557733
0003c0 39 e2 13 be 25 8a 7d bd 06 71 da bd 0b e6 94 bd
       -0.14441766 -0.061899323 -0.10666089 -0.0727044
0003d0 0d ea 30 3d 0b 3e c6 bd 0c d6 be bd 67 7a 89 bd
       0.04319196 -0.096798025 -0.0931817 -0.067127995
0003e0 e7 f8 0b 3d 9e 94 2b be 28 1e 02 bd 3b 42 3d be
       0.03417292 -0.16755912 -0.03176704 -0.18482296
0003f0 a0 8b 19 bc c1 eb 89 3c 26 d7 21 be f2 84 d4 bd
       -0.009371668 0.016836049 -0.15804729 -0.1037692
