model/pssm_ac_k1_model.ckpt (torch, 325083 bytes, 40 tensors)

conv1.0.weight f4 [10, 1, 3]
00000000: 03a5 ed3e d379 1b3f 210e 823e 9855 e1bd
00000010: 8f9a 98be 041e 2bbe ad17 5c3e 197b 21bf
00000020: a0e1 32be 4393 0c3e cc73 39bd 7d70 053f
00000030: 5c19 3fbc 721d c03d 8cb4 59be c590 ab3e
00000040: fdd1 24bf a749 e1bd 81db 98bd a445 19bf
00000050: 4e41 b83d fce3 06bf 1f5a 353f 11f9 1cbf
00000060: 7bb1 003f e7a9 fdbe 2ae6 f13e 8cfb a0bd
00000070: eb14 fbbd bd09 f33d
0.46414956 0.60732764 0.25401405 -0.11002654 -0.2980542 -0.16710669 0.21493407 -0.6307846
-0.17468882 0.13728051 -0.045276448 0.5212477 -0.011663761 0.09380616 -0.2126028 0.33508888
-0.64382917 -0.11000376 -0.07463742 -0.5987189 0.08996831 -0.52691627 0.7084064 -0.61317545
0.50270814 -0.49543688 0.47245914 -0.07860479 -0.12259849 0.11867092

conv1.0.bias f4 [10]
00000000: a935 4a3e 618a 023f feaf 063f 8462 15bf
00000010: 2a3d 613e a73a b0be c408 05bd bf48 ff3e
00000020: eeba 6d3e 40c4 8dbe
0.19747032 0.509924 0.5261229 -0.5835345 0.21995988 -0.34419748 -0.032479063 0.49860188
0.2321584 -0.2768879

conv1.1.weight f4 [10]
00000000: 9732 833f 4801 7e3f b759 843f 0405 7a3f
00000010: da58 7a3f 3782 843f b20b 983f 3f64 963f
00000020: c3df 8c3f 67f8 783f
1.0249814 0.99220705 1.0339879 0.97663903 0.97791827 1.0352238 1.1878569 1.1749343
1.1005787 0.9725403

conv1.1.bias f4 [10]
00000000: 9d40 983c cf26 273b 8c9f a23a 1d9a 2cbb
00000010: fee6 1b3a a7dc d039 61ea b93b ae71 793c
00000020: 6ed6 003c 21d8 66bb
0.018585498 0.002550531 0.0012407168 -0.0026336976 0.0005947201 0.0003983725 0.005673692 0.015224857
0.007863624 -0.0035224038

conv1.1.running_mean f4 [10]
00000000: 69b9 383e b1c2 fe3e 5b44 003f cb31 0cbf
00000010: c61e 593e b646 b1be a2e9 10bd 57b5 f53e
00000020: c74f 633e 0f0c 8bbe
0.18039478 0.49757913 0.501043 -0.5476348 0.21203145 -0.3462426 -0.03537906 0.47989914
0.22198401 -0.27157637

conv1.1.running_var f4 [10]
00000000: f5b3 0c3d e5a7 0c3d 88ab 0c3d 6bac 0c3d
00000010: 3fa5 0c3d 60ad 0c3d 81a7 0c3d 9ab0 0c3d
00000020: ecac 0c3d 64a5 0c3d
0.034351308 0.034339804 0.034343272 0.034344118 0.03433728 0.03434503 0.03433943 0.034348108
0.0343446 0.034337416

conv1.4.weight f4 [200, 10, 3]
00000000: 1634 ad3d 47b6 773d d7a2 0e3c ac2b 2fbe
00000010: 755c 973d e05c aabd 42cc 2e3d aada 30be
00000020: d38c f13d 13f7 e2bd 92cd 95bc 68a3 393e
00000030: 6786 773c 0f23 11be fb56 99bd 1826 13be
00000040: 099c 113e ac9c 73be abb9 76be 6ee2 c4bd
00000050: a2f8 253d c8d7 943d cf67 33be ff99 19be
00000060: b79c 44be c918 fc3d 4f47 dbbc 7bd5 c23c
00000070: 7c40 54bd ab02 0bbc 3e27 e3bc b090 4fbb
00000080: d843 9c3c 35f6 14be f51a 143e 2ca2 9b3d
00000090: 706a aa3d 3819 7bbb fb33 a13d 84da 2c3d
000000a0: 6cef a5bd b6d9 0fbe 0864 13be 9e2e fc3c
000000b0: 12c2 83bb baf9 163e 8e61 1d3e c38d 263e
000000c0: 1fd0 c9bd 8995 133e a8b4 a13d ea11 0cbe
000000d0: 6964 8bbd 1b52 c13d b76f b0bd 1cfa a63d
000000e0: 893e 943d 3bdc 1e3d f8b4 0b3d 5d99 31bd
000000f0: 7e43 183e 90d2 8abd 40c1 133e 142d 243e
00000100: 0506 fd3d 6045 013e c7b3 fcbd 0822 22bd
00000110: 539e 853d 0f1e 723d a5be 46bb 7bc7 2e3e
00000120: 8aaf 063e 2c34 1a3e 41b2 0cbe 83ba 9abd
00000130: 7404 9d3c 644b 293d 6736 a33d 3c24 a13d
00000140: 2ebf dd3d 10a2 c8bc 3065 bb3d d952 c2bd
00000150: cab6 153d ebde 06bd 5069 1f3e a22e fe3d
00000160: 127d 703b b583 e1bd 4c7d 04be a75d 5d3d
00000170: 2e46 41bd cd81 e4bd e74c b8bd 928f b6bd
00000180: 7bde f9bd a0db 173d 762f 23bd fda2 07bd
00000190: c9b8 30be 01b8 2c3e 1e07 20bd 769f d8bd
000001a0: d1f2 1d3e f4eb 81bd 0660 183e 99c5 20be
000001b0: 83be f53d 61da 033e 055b d7bd 4d36 73bd
000001c0: b385 013e 11a7 94bd 3d96 1fbb ce48 45be
000001d0: 7424 463e e76d f53d db2b adbd ad0d ebbc
000001e0: 17bc 95bb 3e8e 183e 344a 84bd 040e 4f3d
000001f0: 003d d1bc 3df5 183e 0707 b3bd f1f8 aabd
00000200: 2d3a 88bb 10ae 013e 3b85 05be f868 efbd
00000210: efbd 283e e8f3 903d 3fa3 233e e4c3 60bd
00000220: 569f e23d 0a24 263e 04be 083e 82d3 86bd
00000230: c159 bd3d 1d36 193e 3e68 8c3d c67e 413e
00000240: c524 a53d 83dc 82bd 965c 9dbd c23d 0cbd
00000250: bac4 28bd dcc4 b93d 4232 b33c e69d b73d
00000260: da3d 183e 0587 0d3e 50ee cdbc 0f6b d6bc
00000270: 8669 253e 35d9 15be 7382 62be 30bb 2c3e
00000280: 55bb 95bd 4646 383e 4453 0cbe 2d5e ba3d
00000290: 86d5 113c f7df 13bd 48b1 223e 1fdc 7bbc
000002a0: e6ac 123e 03a9 f0bd 6264 73bd 4346 0d3e
000002b0: 69c5 cabd 093b ff3d 4eef 173c b780 663d
000002c0: 0055 48be c686 213d 97f7 0cbd 2f26 92bd
000002d0: e495 c1bd 9a24 b93d e012 13be 0b65 9b3d
000002e0: 5f37 043e d0e4 45bd f8d1 223e 77b9 b13d
000002f0: eeb4 433e 046c fc3d 8fc9 e7bd 7b7b cf3d
00000300: 2243 0a3e f88b 343e 3661 88bd a370 983d
00000310: 7fd6 0dbd 79bd ecbc 7c54 cdbc 508d 5cbe
00000320: 5ae3 803d 6d4c 2dbe 805d a93c b267 5fbe
00000330: 3d83 98bd fc8e 16be e87b 0a3e 3ea3 34be
00000340: a6d8 0e3e ee6e d9bc d09d 6abb b423 38be
00000350: e8e5 3cbe d824 6d3c 8f25 5dbd 3e57 153d
00000360: a3b3 203e 8697 debd 132b 333e 726f aabd
00000370: d67c bb3d b6b1 3fbc 2136 9d3d c1e4 48be
00000380: e412 26be f366 a53d e495 efbd 1aa0 b9ba
00000390: 40a0 19be a490 7d3b 3bd9 2d3d 5b28 59be
000003a0: e075 ebbd 9d1d 1fbe 9d97 bb3d 9c7b 8bbd
000003b0: 6b3d a43d 6ad9 0cbe ad32 e33d a1e0 c7bd
000003c0: 02d1 663b cd4a b9bd c8aa 13bd 4a41 233e
000003d0: 8069 e83d 7e4a 083e 1cf9 fbbd 578d f1bb
000003e0: 9848 083e eac4 243d f1ec c63d c8ca c9ba
000003f0: 18d6 703d 0d08 c4bd bf1d 13be 7d5c 97bc
0.084572 0.060476568 0.008705816 -0.17106503 0.07390682 -0.08318496 0.042675264 -0.17270914
0.11794438 -0.11082282 -0.0182865 0.18128741 0.015107728 -0.1417353 -0.07487293 -0.1437
0.14219679 -0.23790234 -0.24094264 -0.096135005 0.040520318 0.072677195 -0.17520069 -0.15000151
-0.19200407 0.12309415 -0.026767401 0.023783436 -0.05181931 -0.008484523 -0.027728673 -0.0031671934
0.01907532 -0.14547046 0.14463408 0.07599291 0.083210826 -0.0038314592 0.078712426 0.04220058
-0.08102307 -0.14047894 -0.14393628 0.030783948 -0.0040209377 0.147437 0.15369245 0.16265015
-0.09854149 0.14412512 0.078957856 -0.13678709 -0.06806261 0.094394885 -0.08615058 0.08153173
0.0723849 0.038784247 0.034108132 -0.04335915 0.14869496 -0.06778443 0.14429188 0.16032821
0.12354664 0.1262412 -0.12338977 -0.039583236 0.065243386 0.059110697 -0.0030326035 0.17068283
0.131529 0.15058964 -0.13739873 -0.075551055 0.019167162 0.041331664 0.07969361 0.07868239
0.1082748 -0.02449134 0.09150159 -0.09488458 0.036551274 -0.032927435 0.15567517 0.12411238
0.0036695641 -0.11011449 -0.12938422 0.054044392 -0.04718607 -0.1115757 -0.08999043 -0.089141026
-0.12200638 0.037074685 -0.039840184 -0.033114422 -0.1725799 0.16867067 -0.039069287 -0.1057729
0.15424658 -0.063438326 0.1488038 -0.15700378 0.11999228 0.12876274 -0.105154075 -0.059377957
0.12648658 -0.07258428 -0.0024351024 -0.19266054 0.19349843 0.11983853 -0.084556304 -0.028693045
-0.004569541 0.14898011 -0.064594656 0.050550476 -0.025541782 0.14937301 -0.08741575 -0.08348263
-0.0041573257 0.12664056 -0.13039105 -0.11689943 0.16478704 0.070777714 0.15980242 -0.054874316
0.11065547 0.16224685 0.13353735 -0.06583311 0.09245635 0.14962049 0.0685582 0.18896016
0.08063654 -0.063897155 -0.07683675 -0.034238584 -0.041203238 0.09070751 0.02187455 0.089656636
0.14867344 0.13821037 -0.02513805 -0.026174096 0.16153535 -0.14633639 -0.22120075 0.16868281
-0.073111214 0.17995557 -0.13703638 0.09099994 0.008901006 -0.03610226 0.1588794 -0.015372305
0.14323768 -0.117509864 -0.059421904 0.13796334 -0.09900934 0.12462432 0.009273363 0.056275096
-0.19563675 0.03943517 -0.034415808 -0.07136189 -0.094524175 0.09040184 -0.14362669 0.07587632
0.12911747 -0.048313916 0.15900409 0.08677953 0.19111988 0.1232529 -0.11317741 0.10130974
0.13502172 0.17631519 -0.066591665 0.07443359 -0.034628388 -0.028898941 -0.0250647 -0.21538281
0.06293364 -0.16923685 0.020674467 -0.218169 -0.07446907 -0.14702982 0.13523829 -0.17640397
0.13949832 -0.026542153 -0.003579963 -0.1798237 -0.18447077 0.014474116 -0.053990897 0.036460154
0.15693526 -0.108687446 0.174969 -0.08322038 0.0915467 -0.011700084 0.0767634 -0.19618513
-0.16218144 0.08076277 -0.11698511 -0.0014162094 -0.15002537 0.003869095 0.042443495 -0.212068
-0.11497092 -0.1553864 0.09159777 -0.06810686 0.08019527 -0.13754812 0.1109365 -0.097596414
0.0035219793 -0.0904747 -0.03605154 0.15942875 0.113482475 0.13309667 -0.12303373 -0.0073715854
0.13308942 0.040226854 0.09713162 -0.0015395517 0.058797926 -0.09571848 -0.14366816 -0.018476719

conv1.4.bias f4 [200]
00000000: 6db8 f83d d414 63be b176 28be fcba 623e
00000010: 7744 573d bb5e c3bd 649b 7fbd 9d6e a83d
00000020: 41d0 1abe 6bf7 e53d f695 28bc b47b 97bd
00000030: 46f2 9c3b 9b09 16bd 18be ebbc 8d1b e33d
00000040: b82f 89bd c222 f1bc 6180 81bd e2e9 10bd
00000050: 67d6 e5bd b784 173e a5ba 353e d3b9 aa3c
00000060: be1d 79bc 6a46 95bd 0fa0 5b3d 8e40 083e
00000070: 29db e5bd e224 743d b7d0 f4bd 1cbb 8e3d
00000080: 4d7c dcbd 38bc 2bbe 1593 16be 233d 023e
00000090: 01c1 ae3d 3caa 223e 09b8 ae3d 98c9 023e
000000a0: dace f13d 6080 aa3d da15 99bc f960 863d
000000b0: 4323 b23d b0e2 53bd 07a9 e1bd c1ef 393e
000000c0: 75d8 8bbc 5356 883d 9c05 e2bd 2eeb 32be
000000d0: d166 0bbe 842d 483d d958 eb3d 2c8d 3a3e
000000e0: e688 eabc 8eac e53d 1eb6 dd3b ecc5 f8bd
000000f0: dfba bc3c 5057 c73c d340 193b 8f68 823d
00000100: 0397 2dbe 045f d638 027a 2f3d 41fe 503c
00000110: c6bf 563d 0f18 31be 9dc4 f9bd 5769 a63d
00000120: 1355 a03d 240c 0ebe 2cd3 e3bd 7755 a93c
00000130: 4fe3 843d 457b fabd aa9c 75bc 6d2c d7bc
00000140: 9f1a fcbd aff3 fabc 6988 05be d5f6 08be
00000150: 44e3 133e 00aa 02be 2cc6 f6bc ad60 2b3d
00000160: 2910 1fbd 152c 633d 802f 2a3e ee31 dc3d
00000170: 091b 35bd 8882 cebc 0cb1 a73c a361 b63d
00000180: cbd7 943d 8699 28be 8b8c 483d 2dba 4fbd
00000190: 8b94 8cbd dbad 9f3d 52b0 fe3d 2b60 b2bd
000001a0: b7f7 fa3d 2d87 f93d 877f e13c 9f1b 9b3d
000001b0: 4541 763d d230 36be eebc 233d 54b9 bbbd
000001c0: 8c4d b5bd 327f 49bd 5779 41be 5761 473c
000001d0: 7405 033d a235 aa3d 23ac 31bd 5639 2b3e
000001e0: 0a18 5cbd c3be cfba 6978 0b3d 72fb 643d
000001f0: aa3e 2f3e eb4f 0dbe 82d7 dcbd 091f 113e
00000200: b2f4 e7bd 83bb 1dbe b9f7 083c a6d9 2fbe
00000210: edf3 19be 96dc efbd 452c 4abd e6a0 9c3d
00000220: 5891 67bc d2a9 27bc 06c4 b03b 98be b9bd
00000230: 0d60 ccbd 51bb db3d 2f77 013e a3f0 18be
00000240: ac65 abbd 5d33 e7bb 3834 f5bd c79b 643d
00000250: cc65 2bbe 398c 1abe e41b 7d3d 45d7 c13d
00000260: 243c 40be 6372 0bbe 36ee 59bd b953 c53d
00000270: b554 9f3d e34b 09bd 59e5 083c c3b2 acbd
00000280: 3527 35bd fc33 d73d f9ec eebd 8017 233e
00000290: afaf f7bc f8c7 9ebc 5602 f5bd ffc5 c03d
000002a0: 74ed c63d 05e4 85bd cbff 8e3c 7b51 72bd
000002b0: c911 003e b7f1 d6bd 2f92 ccbd d9cc 47be
000002c0: 80de c03d c270 9c3d 97d6 453c c0d3 173e
000002d0: 7d37 ae3d 5f14 c8bd eaf3 dbbd e4bc 85bd
000002e0: f5ad 81bd 7859 9cbd 852d 80bd aa9d 0ebd
000002f0: 60d5 fd3d fca9 d53c 41c1 0dbe e74e 19be
00000300: 177f 3abe 5131 213c 23ba 1d3e 7ebf e9bd
00000310: ed5d 653e 2467 09be 393a 2bbd 5f32 153e
0.121445514 -0.22175914 -0.16451527 0.22141641 0.052555528 -0.09539553 -0.06240405 0.08224223
-0.15118505 0.11228832 -0.01028966 -0.073966414 0.0047896234 -0.036630254 -0.028777167 0.11089239
-0.06698555 -0.02943552 -0.063233145 -0.035379298 -0.112225346 0.1479672 0.1774698 0.020840561
-0.015204845 -0.07288821 0.05361944 0.13305876 -0.11223442 0.059605487 -0.11953872 0.06969282
-0.10765896 -0.16771019 -0.14704545 0.12718634 0.08532906 0.15885252 0.08531196 0.12772214
0.11807032 0.08325267 -0.018687177 0.06561465 0.08698132 -0.051729858 -0.110185675 0.18157865
-0.017070988 0.0665709 -0.11036226 -0.17472526 -0.1361344 0.048871532 0.11491556 0.18217915
-0.028629731 0.11214553 0.006766095 -0.121471256 0.023038326 0.024333626 0.0023384586 0.06367599
-0.16952138 0.00010222013 0.042840965 0.012755931 0.052428983 -0.17294334 -0.12195704 0.08125561
0.078287266 -0.13871819 -0.11124262 0.020670636 0.06488668 -0.12230543 -0.014990965 -0.026266301
-0.12309765 -0.030633776 -0.13040318 -0.13375409 0.14442164 -0.12760162 -0.030123793 0.041840244
-0.03883377 0.05546196 0.16619682 0.10751711 -0.044215236 -0.025208727 0.020470165 0.089053415
0.07267722 -0.16464815 0.048962157 -0.05071466 -0.0686427 0.07796832 0.12435974 -0.08709749
0.12254279 0.12183986 0.02752663 0.07573628 0.06012084 -0.17792061 0.0399751 -0.09166208
-0.088526815 -0.04919357 -0.18893944 0.012169204 0.031987622 0.08311011 -0.043377053 0.1672109
-0.053733863 -0.0015849698 0.03405038 0.05590386 0.17113748 -0.13800018 -0.10783292 0.14171995
-0.11325969 -0.15403561 0.008359843 -0.1717287 -0.15034457 -0.11711995 -0.049358625 0.076478764
-0.014133774 -0.010233359 0.0053944616 -0.09069556 -0.09979258 0.10729087 0.12643121 -0.14935546
-0.08369002 -0.0070556835 -0.119728506 0.055812623 -0.16738051 -0.15092553 0.061794177 0.094648875
-0.18772942 -0.13617854 -0.05320569 0.096351095 0.077798285 -0.033519637 0.008355462 -0.084325336
-0.044226844 0.10507962 -0.11666293 0.15926933 -0.03023514 -0.019382462 -0.11963336 0.09412765
0.09713259 -0.06537632 0.017455956 -0.059159737 0.12506784 -0.10495322 -0.0998882 -0.19511737
0.094174385 0.07638694 0.012075088 0.1482687 0.08506677 -0.097695105 -0.10739882 -0.06530169
-0.06332008 -0.07634252 -0.06258682 -0.03481833 0.12394214 0.026082031 -0.13843252 -0.14971505
-0.18212543 0.009838418 0.15403037 -0.11413477 0.22399111 -0.13418251 -0.041803572 0.14569996

conv1.5.weight f4 [200]
00000000: d851 7b3f 5631 7a3f 5cd2 793f 7b30 773f
00000010: 728f 793f 1d04 813f acce 7a3f a154 763f
00000020: 7861 7b3f b1f5 793f 71e3 7b3f 3b3b 763f
00000030: 8457 793f 8e7e 763f cd64 7a3f a4ac 7a3f
00000040: cf67 7b3f 1780 763f 64ef 713f d282 793f
00000050: 9100 833f f5ea 7b3f 3bce 823f 4c2e 813f
00000060: 6ba3 813f f3b8 713f 26bc 783f e464 793f
00000070: 8861 7b3f df3b 7b3f c8e0 823f 3ead 793f
00000080: 7bba 703f 83f7 773f b620 793f 21cb 763f
00000090: 3f87 783f 56fb 873f f21e 793f 393e 7e3f
000000a0: 6ea1 783f c144 793f c039 7c3f 9ca4 883f
000000b0: 2b1f 793f 7241 793f 34c6 783f 173a 783f
000000c0: f96c 793f 9a72 743f 181f 843f 9dc6 773f
000000d0: 9e19 7a3f 12bf 823f 4fcf 743f ea38 783f
000000e0: 4348 793f dca9 793f 3939 793f 5137 793f
000000f0: 4322 713f 2206 6f3f 9afe 773f 548c 793f
00000100: 0ab1 8f3f fd00 7b3f 64f1 793f cf6b 773f
00000110: 539b 753f a674 793f cccb 7f3f 1498 783f
00000120: 8c57 7e3f c194 8d3f b18f 713f 1f36 793f
00000130: 18f8 773f ca4e 793f f416 7b3f 4e47 743f
00000140: d27c 733f 5416 723f 9404 7a3f 603f 803f
00000150: 6304 7a3f f780 823f 6250 743f 8728 793f
00000160: 3824 763f 5795 933f bcca 783f c6b5 763f
00000170: 55de 753f d2bf 783f e0ae 783f 8534 783f
00000180: 1841 783f 41ce 783f d9fc 7b3f 5325 773f
00000190: 2417 743f 19fe 7a3f 98a0 783f 7c70 773f
000001a0: 01cd 793f 5fcf 773f ea6c 7e3f cf3b 793f
000001b0: 1e4f 863f 56b6 783f 6427 783f 5dd4 743f
000001c0: 446c 7b3f 7247 793f 75b3 7a3f 457d 773f
000001d0: 6f88 763f 31ee 783f 0850 773f 7082 763f
000001e0: e6be 773f 0272 783f 18bf 793f da70 793f
000001f0: f0fa 773f adc3 7a3f e046 773f 94e3 733f
00000200: 2a47 793f 8de5 743f 4c77 783f 9696 793f
00000210: f98f 7c3f dc70 783f dd64 783f fc80 793f
00000220: 9b4b 783f ac6f 8c3f e97c 783f 9eef 763f
00000230: ac38 7b3f 274f 743f 2145 733f 2efa 763f
00000240: fb43 793f 3ce9 773f 09cb 7d3f 3840 783f
00000250: 10e6 783f 2607 863f 0bb3 7a3f 9b4e 793f
00000260: 1d36 7a3f 5a5a 773f f428 793f a365 7c3f
00000270: ece4 753f 3405 793f eb96 7d3f 82c2 773f
00000280: 2483 733f 0f68 763f ca1e 793f d996 813f
00000290: ea7c 7a3f fa0b 783f b2b8 783f a81a 743f
000002a0: bf91 783f 5f1f 7a3f d61b 7a3f 5265 8d3f
000002b0: 0842 7b3f 0ecc 8d3f 449f 743f 7a9c 773f
000002c0: 316b 793f d46b 813f 6741 783f 59f6 793f
000002d0: c2e3 753f 6af0 753f ba16 813f 2111 763f
000002e0: bde2 7a3f 7b13 773f ae99 793f ab6e 7a3f
000002f0: ecd6 753f a31b 7a3f 63d0 803f d473 793f
00000300: db66 753f 74ea 783f 1f17 7a3f 397d 763f
00000310: 1689 783f baf2 793f 000e 753f e81f 753f
0.9817176 0.9773153 0.9758661 0.9655835 0.97484505 1.007938 0.97971606 0.96222883
0.981956 0.9764052 0.98393923 0.9618413 0.97399163 0.9628686 0.9781006 0.9791968
0.98205274 0.962892 0.94505906 0.9746524 1.0234548 0.9840539 1.0219187 1.0092254
1.0127996 0.94422835 0.9716209 0.9741957 0.98195696 0.9813823 1.0224848 0.9752997
0.94034547 0.9686205 0.9731554 0.964037 0.9708137 1.0623577 0.97312844 0.99313694
0.9712132 0.97370535 0.9852562 1.0675235 0.97313184 0.97365487 0.97177434 0.9696364
0.97431904 0.9548737 1.0321989 0.96787435 0.9769534 1.021456 0.9562883 0.96961844
0.9737589 0.9752481 0.9735294 0.9735003 0.94192904 0.9336873 0.96872866 0.9747975
1.1225903 0.98048383 0.9763396 0.9664888 0.9594013 0.97443616 0.99920344 0.9710705
0.99352336 1.1061021 0.9435988 0.9734821 0.96862936 0.9738585 0.980819 0.954213
0.95112336 0.9456532 0.97663236 1.001934 0.97662944 1.0195607 0.95435154 0.97327465
0.96149015 1.152995 0.9718435 0.96371114 0.96042377 0.97167695 0.9714184 0.9695514
0.96974325 0.9718972 0.9843269 0.9654133 0.9534781 0.9804397 0.97120047 0.9665601
0.97578436 0.968008 0.9938494 0.97356886 1.0492895 0.9715322 0.96935105 0.9563654
0.98212075 0.9737464 0.9793008 0.9667552 0.9630193 0.9723845 0.96606493 0.9629278
0.9677566 0.9704896 0.9755721 0.9743782 0.96867275 0.9795483 0.9659252 0.9526913
0.9737421 0.95662767 0.9705703 0.974954 0.98657185 0.9704721 0.97028905 0.9746244
0.96990365 1.097158 0.970656 0.96459377 0.9813335 0.95433277 0.9502736 0.96475494
0.97369355 0.9684026 0.9913793 0.9697299 0.9722605 1.0470932 0.9792945 0.9738557
0.9773882 0.9662224 0.97328115 0.98592585 0.9605243 0.97273564 0.9905841 0.9678117
0.9512198 0.9625253 0.97312605 1.012416 0.97846854 0.96893275 0.9715682 0.95353174
0.9709739 0.9770412 0.97698724 1.1046546 0.9814763 1.1077898 0.9555552 0.9672314
0.97429186 1.0111032 0.96974796 0.9764152 0.96050656 0.9606997 1.0085061 0.96119887
0.98002225 0.965141 0.9750012 0.97825116 0.9603107 0.9769842 1.0063595 0.97442365
0.9586007 0.9723275 0.9769153 0.96284825 0.97084177 0.97635996 0.9572449 0.9575181

conv1.5.bias f4 [200]
00000000: 1544 5dbc c265 e436 48b7 43ba e4e9 8e3b
00000010: 5770 1d3c 6238 d7ba e7cf 96bb ea0e 05bd
00000020: 7af6 02bb 12e7 b33a f0b2 63bb 8676 4ebc
00000030: 21b8 b7bb 4d73 2cbc 9a63 72bc 40f8 c8bb
00000040: 0e7c 01bc 5e76 c8bb e6e4 14bd 7cdc 89bb
00000050: cc44 d73b be8f afbc 7991 103c 7efe 5c3b
00000060: e6ae 463c 6ae2 25bd a6da c1b8 1991 fdbb
00000070: fce8 7fbb fe66 08bd 5600 9c3c a8c4 01bc
00000080: 6058 11bd 06a5 c8bb 3671 e3ba 1640 f73b
00000090: 2d32 b0bb 0491 543c 940c 71bb d39e 1a3c
000000a0: 4b06 b039 440e 49ba 4418 8e3b 6c51 35bc
000000b0: 476a 77bc e9cc 88bc c8b6 25bc ddff aabb
000000c0: 7956 06bd 539e 12bd c59e a9bb 1e8b d8bb
000000d0: 1d88 c93b 6e69 d9bb 952d ab3c 7dd7 10bb
000000e0: 9f8b a7bc 47a8 59bc d556 7ab9 3274 ed3b
000000f0: 9e95 26bd c194 0cbd 1a67 93bc b42c 9c3b
00000100: ceef 77bc 298c 62bc 1f7e b6ba 4670 08bd
00000110: ec18 3ebd eb27 8bba 4fcf eabb a4a0 10bc
00000120: 2053 bbbb f48b abbc c02b 21bd dd82 cdbc
00000130: 6d2a afbc a472 f83a 12cb a6bc 55ce 8bbc
00000140: c7a5 06bd 4969 a2bc 1954 a1bc 1e46 ceba
00000150: 1440 b93b ff84 6dbc 40fc e3bc db65 0bbc
00000160: 124f 46bc 197e 82bb 85b1 a4bb d4cc 293c
00000170: 105d ecbc bfa7 0bba 52ee 32bc dd2f 3b3c
00000180: e2d7 84bc 0691 0ebc bffb c23c 92ae ddbc
00000190: 8808 febc 6789 5cbc c496 10bb b1c1 34bb
000001a0: 2906 32bc 40c8 a7ba 34b1 cbb8 affe f0bb
000001b0: 32c3 333b 9af2 5cbd d554 c1bb e2e1 0cbc
000001c0: a33e 15bc 01f8 9fba d1a3 4ebc 5595 41bc
000001d0: 72b7 15bc 00c5 eabb 7e38 2fbc db31 27bb
000001e0: f2c2 2b3c 2960 053c 311f 353b 8e32 d03b
000001f0: 5ed2 01bb 738e 51bb c4b2 613a 49a6 a1bc
00000200: ec99 7bbb 31b7 69bc 1242 98bc 5cad d03a
00000210: 6fcf 45bc 8d60 c9ba e026 a5bc 1769 e73a
00000220: 2632 3dbc 0cfb b9bc 2280 e2bb 998a 7dbc
00000230: 66b8 e9bc da5e 14bd 0d49 08bc 2926 38bc
00000240: 7bc8 bfba 0f25 d7bb cd89 ca39 77b8 1cbc
00000250: e7df 82bc 9efa 0e3c a36c bbbc 2f7b e63a
00000260: 8547 0bb9 e578 e33b 1082 e8b9 3e6b 17bd
00000270: eda1 ca3a dfc6 633a 1b6a 9838 5a86 5c3a
00000280: 3577 2dbd 1f08 a3bb 4bec d3bc d1bb 393b
00000290: 7545 063c 95da 28bd 21ab 0e3c d9ad eabc
000002a0: ddec 55bc a153 3ebc b306 0cbc 1c31 fb3b
000002b0: 3f35 563c c790 a7bb ea85 a6bc af0b b03b
000002c0: ef60 87bb abde cb3b c268 56bc 8d0f a9bc
000002d0: 4f01 14bc 3c47 b3bc 9eff 85bb c958 05bd
000002e0: dbfc 9a3b f9f6 e7bb 30f1 8eba c29b 80bb
000002f0: 7f6b 84bc b760 61bc 3825 fa3c 19a2 d03a
00000300: a2d8 dbbc 5f1b 193b 241d 413c ce3b 383a
00000310: 7325 d73b 7cd4 cdbc 6e94 3bbc 9b88 f7bc
-0.013505002 6.8067757e-06 -0.00074659707 0.004361378 0.009609303 -0.0016420002 -0.0046024206 -0.032484926
-0.0019983337 0.001372548 -0.0034744106 -0.0126015 -0.0056066667 -0.010525537 -0.014794255 -0.0061331093
-0.007903112 -0.006117626 -0.036351107 -0.004207192 0.0065694805 -0.021430846 0.008823746 0.0033721025
0.01212666 -0.04049913 -9.2436836e-05 -0.0077382443 -0.0039048782 -0.033301346 0.019043129 -0.007920422
-0.03548467 -0.006123188 -0.0017352465 0.0075454814 -0.005377075 0.012974028 -0.0036781179 0.009437281
0.00033574025 -0.0007669667 0.004336389 -0.011066776 -0.015101022 -0.016699271 -0.010114379 -0.0052184896
-0.03279731 -0.03579552 -0.0051763975 -0.006608381 0.006150259 -0.0066348827 0.020895759 -0.0022101097
-0.020452319 -0.013284749 -0.00023874205 0.0072465176 -0.04067003 -0.03432155 -0.017993499 0.004766071
-0.0151328575 -0.013827362 -0.0013923085 -0.033310197 -0.046410486 -0.0010616755 -0.0071658264 -0.008827362
-0.0057166964 -0.020940758 -0.039348364 -0.025086815 -0.021382535 0.0018955064 -0.020360503 -0.01706616
-0.03287294 -0.019825594 -0.019693421 -0.0015737449 0.0056533907 -0.014497041 -0.027830243 -0.008508171
-0.012103813 -0.003982317 -0.005026045 0.010363776 -0.02885297 -0.00053274253 -0.010921078 0.011424986
-0.016216222 -0.0087015685 0.023801683 -0.02706078 -0.031009927 -0.013460494 -0.002206252 -0.002758127
-0.0108657265 -0.0012800768 -9.712801e-05 -0.0073545794 0.0027429578 -0.0539423 -0.0059000053 -0.0085987765
-0.009109172 -0.0012204648 -0.012612299 -0.011815389 -0.009137975 -0.0071645975 -0.010694621 -0.0025511894
0.01048349 0.008140602 0.0027637 0.006353683 -0.0019809227 -0.0031975775 0.0008609707 -0.019732611
-0.0038391305 -0.014264868 -0.018586192 0.0015920806 -0.012073382 -0.0015363857 -0.020160139 0.001765522
-0.011547601 -0.022702716 -0.0069122473 -0.015474939 -0.02853031 -0.03622327 -0.008318198 -0.011239567
-0.0014631891 -0.006565697 0.00038631112 -0.009565464 -0.015975906 0.008726744 -0.02287895 0.0017584319
-0.00013282716 0.006941902 -0.00044347392 -0.03696751 0.0015459635 0.0008688997 7.2676885e-05 0.0008412354
-0.042350013 -0.0049753333 -0.02586951 0.0028340707 0.008195271 -0.04122408 0.0087077925 -0.02864735
-0.013056961 -0.011616618 -0.008546519 0.0076657664 0.013074218 -0.0051136944 -0.020327527 0.0053724865
-0.0041314284 0.0062216124 -0.0130865 -0.020637298 -0.009033515 -0.021884553 -0.00408931 -0.032555375
0.0047298498 -0.007079002 -0.001090562 -0.003924818 -0.01616454 -0.013755969 0.030535325 0.001591745
-0.026836697 0.0023362262 0.011786733 0.00070279546 0.0065657436 -0.025125735 -0.011448963 -0.030216506

conv1.5.running_mean f4 [200]
00000000: d034 713d b3f3 60bd 63ce 6f3d 3db8 b23d
00000010: aa0d 433e 9a44 cbbc 90e8 cfbd d47d 5abd
00000020: 2dff d6bd a13b 98bd 8229 773d 2c83 44be
00000030: 2e67 d63d 2063 c7bd 6740 86bd b0fd 9b3d
00000040: 8ac0 3dbd 4bb3 423c 0b0e e2bd 4c55 d23d
00000050: 1964 f83c 0601 893e e75e 523e aa28 913d
00000060: a372 15bd 1dcb 61be 5da9 f63d 2e1c 133e
00000070: d718 9ebc ffd1 353d 9533 a0bd 6758 7d3e
00000080: f40b 95be e1f1 9fbd 340e 453d 3c17 913c
00000090: 86f1 6c3e 881f 3c3e a654 123e d792 013e
000000a0: 8a77 593e 7955 413e f143 93bc 335e 9c3d
000000b0: 01db 603e 3d32 3b3d 40ae 02be 01dd 873e
000000c0: 015a 52bd aa23 72bd 8545 14be 2b92 3bbc
000000d0: 5e2c 30be 1f4c b33c a892 203e aa15 6a3e
000000e0: f322 d0bc 866d 963d 9475 1e3e 4beb b5bd
000000f0: 81a3 e53c bdad 39be 20b9 35bc 4754 e33d
00000100: 300b 40be 095f ce3d 82eb d53d e105 d4bc
00000110: ec5b b2bc cd37 193c acc2 02be 5d5c 573e
00000120: 984a 9d3d 29c8 25be e182 94be 6fa7 8b3c
00000130: 2229 c0bd 8677 be3d f0c1 39bd 4de2 36be
00000140: efb7 48be d4fa 2abe ba7f 7cbd 7843 56be
00000150: f99d 183e 2d4f 44be 644b e7bc 4d2d dd3d
00000160: 772a c3bd cdc8 453e 2bdc ad3e 23af 973c
00000170: c5eb 79bd cc9c 55bd 5fba 483e e91c 203e
00000180: 4056 bcbd cb50 2cbe d16b 023e 1384 393d
00000190: cdeb 22be 71cc d93b 4e35 f33d aba9 24bd
000001a0: 58e0 023e 2a73 1d3e 1e7f 063c 2059 533e
000001b0: 76d5 943d a8ba 45be c2db ea3d 0673 48be
000001c0: a8c7 42be ee7f bebd 7f2b 23be 90ac f23c
000001d0: 9e70 be3b 28a6 c63d 51b5 113d 086b 103e
000001e0: 0fdc 713c 0c33 f7bd 87ea ce3d 6ede 0b3e
000001f0: f85c 233e 3da1 24be 8a3a 22bd b488 0c3e
00000200: 449d 00bd 66b5 a9be 9cb5 943c 1d82 833d
00000210: 33b0 25be 4c6f dd3d 932a b6bd d8c8 743e
00000220: 278a 993c b760 833d 2cc1 73be 5722 05be
00000230: e266 99bc 3cfa 6c3d 3aa1 4e3c 0ee5 42be
00000240: 30b1 253e f47e 563e f578 dfbd f7fe 1d3e
00000250: fa32 50be 9429 0ebe c5ff 653e 54e5 8b3e
00000260: e668 14be cd26 11be ac56 00bd 60ce 873d
00000270: d099 aa3b cabc d33d c139 acbd 9408 bcbc
00000280: c8e8 fbbd d10a e5bc b695 e1bd 3516 5c3e
00000290: 4a7d 09be 7e57 18bd 2bf1 9ebd 20da b3bb
000002a0: e8b2 393d 27ab ecbd 428f f0bc 58f5 06bc
000002b0: 3292 5c3e 1270 1ebe ad22 5fbe 4354 04be
000002c0: 9ff2 403e 0a2a 3e3d f877 45bd d85f 943e
000002d0: 25a8 273b 3406 2dbe 2f5b cdbd fed5 ffbd
000002e0: ba4d 78bd 82de dabd 7953 6f3d eff0 48bd
000002f0: 193f 1abd b4a3 c93d 8876 c0bc bd50 3f3c
00000300: efca a5be 939e 06be a7d4 5b3e 0edc 07bd
00000310: bb0a c13e 0366 efbd 3703 10be d105 353e
0.058888257 -0.05491991 0.058546435 0.08726547 0.19048181 -0.024812985 -0.1015178 -0.053342655
-0.1049789 -0.07433248 0.06034232 -0.19190663 0.10468899 -0.097357035 -0.065552525 0.076167464
-0.046326198 0.011883567 -0.11037835 0.10270175 0.030321168 0.26758593 0.20544015 0.07087834
-0.03648628 -0.22050138 0.12044022 0.14366218 -0.019298954 0.04438972 -0.078223385 0.24740754
-0.29110682 -0.078098066 0.04810925 0.017711274 0.23139009 0.18371403 0.14290103 0.12653671
0.21237007 0.18880261 -0.017976733 0.076351546 0.21958543 0.045702208 -0.12761784 0.265358
-0.051355366 -0.059116043 -0.14479645 -0.011448423 -0.17204425 0.021886883 0.15680945 0.22859827
-0.02540729 0.07345109 0.1547454 -0.08882769 0.028032066 -0.18132682 -0.0110915005 0.11100059
-0.18754268 0.1007672 0.1044531 -0.02588171 -0.021772347 0.009351683 -0.12769574 0.21031328
0.07680243 -0.16189636 -0.29006103 0.017047612 -0.093828455 0.09300141 -0.04535097 -0.17859764
-0.19601415 -0.16697246 -0.061645247 -0.20924175 0.14904012 -0.19170828 -0.028234191 0.10799656
-0.09529584 0.1931488 0.33957037 0.018516129 -0.061015863 -0.052151486 0.19602345 0.15636028
-0.091961384 -0.16827695 0.12736441 0.04529197 -0.15910263 0.006646686 0.118754014 -0.04020087
0.12780893 0.15375963 0.008209018 0.20639467 0.07267277 -0.19309485 0.11467697 -0.19575128
-0.19021475 -0.093017444 -0.15934561 0.0296233 0.005811765 0.096996605 0.035573307 0.14103329
0.014761939 -0.12070283 0.10103326 0.13659069 0.15953434 -0.16077133 -0.03960661 0.13724023
-0.03139998 -0.3314621 0.018153004 0.064213015 -0.16180496 0.10812244 -0.08894839 0.23904741
0.018742634 0.06414931 -0.23804158 -0.13001381 -0.018725816 0.05785583 0.012611682 -0.1903269
0.16180873 0.20946866 -0.109117426 0.15429293 -0.20331946 -0.13883048 0.2246085 0.273234
-0.1449314 -0.14174958 -0.031332657 0.0663116 0.005206324 0.10338743 -0.08409453 -0.02295331
-0.12300259 -0.02795926 -0.11014883 0.21492846 -0.134267 -0.037192814 -0.07760843 -0.005488649
0.045336634 -0.11556082 -0.029365186 -0.008237205 0.21540144 -0.15472439 -0.21790572 -0.12922768
0.18842553 0.04642681 -0.048210114 0.28979373 0.00255824 -0.16896898 -0.100271575 -0.12491988
-0.060621 -0.10686971 0.058429215 -0.049057897 -0.03765783 0.09845677 -0.02349402 0.011676964
-0.3238139 -0.13146429 0.21467839 -0.033168845 0.377035 -0.11689379 -0.14063726 0.17678

conv1.5.running_var f4 [200]
00000000: 5e1d cd3d 91b7 b53d 800f 143e 11e6 d23d
00000010: 6d23 ca3d 7159 d33d 2979 9e3d 7017 f53d
00000020: 97ec 513d 8549 ce3d c02c 913d 0aa8 d23d
00000030: 6582 c93d 2dc6 8b3d 879a 9a3d 67ff b63d
00000040: 01af c43d 557c b23d 3b84 913d 33a1 e23d
00000050: 75dd cd3d a3f2 b43d 37f7 c23d a4e5 c53d
00000060: bd31 963d 9551 f23d 87b3 683d 5d4c 933d
00000070: e50d cb3d 27cd d63d 6ccf 723d 6fb3 a73d
00000080: 12c6 be3d 1dd5 8b3d 7a93 023e b123 bb3d
00000090: f7a5 053e 21cc ed3d 888a 823d 554f a53d
000000a0: 657c b93d e3a0 943d 6433 8b3d cf71 9a3d
000000b0: ed70 933d 9818 8a3d d854 9c3d 43c7 633d
000000c0: 332d 033e e705 063e 8ef4 c83d a99b c33d
000000d0: f552 9f3d 903f b03d 2b70 bd3d 24f2 aa3d
000000e0: a385 c83d f8ef db3d 3552 b93d cef8 8f3d
000000f0: 6f77 933d 2b86 ab3d 7052 993d 5463 8d3d
00000100: a190 133e adf7 9e3d c60d 7f3d 3f66 a63d
00000110: 18fe f13d c45c cc3d 2cca 893d abb0 063e
00000120: b9e1 f83d e898 993d 65cb fc3d aba0 963d
00000130: cded f23d 841e f03d 2531 b43d 3e63 cc3d
00000140: d38c 743d a765 b83d 51e9 fe3d 3769 fb3d
00000150: 0574 033e 542f ac3d 9e31 823d 0858 a83d
00000160: a330 063e a769 f73d ffa7 c33d e5d4 ab3d
00000170: 2893 983d 8605 a13d cbcc d63d 9f7a b93d
00000180: f771 0e3e 0bef b83d c3c5 e63d 147a 9d3d
00000190: c75c f33d 354a ff3d 8f14 eb3d a8de c33d
000001a0: 14a7 a63d 9800 983d 53ad 613d 5ac5 8c3d
000001b0: cb50 b33d 0fb9 a03d fadf d53d e77a b23d
000001c0: 465d a33d 875d 813d 0034 913d 18db a13d
000001d0: af83 aa3d a331 723d 7dad cc3d d752 963d
000001e0: d860 af3d 3f53 a53d ef86 9b3d cee7 953d
000001f0: dd2f 493d 4e1b 933d 77ae d63d 819d 9d3d
00000200: d879 9c3d 143c af3d 31ad a73d d43c df3d
00000210: 5dca 7b3d 4401 043e 0152 8f3d e333 ca3d
00000220: 4104 933d 21cb d43d 22b4 113e 992c de3d
00000230: d240 d33d 34ec c03d 1369 9e3d 6d8d 933d
00000240: a25f 113e df8b c43d 1f25 eb3d 5607 863d
00000250: 73a6 d03d 4705 0c3e b1df 9a3d ac38 ec3d
00000260: 5c56 9e3d cb69 903d be72 833d ee6b 173e
00000270: 44a0 f53d d0e3 a73d 8bd9 873d 7961 ca3d
00000280: 9d8f e43d 083f 0e3e 98f8 923d 41e1 cb3d
00000290: c741 bb3d 7d54 bc3d b3f5 be3d 12ac c03d
000002a0: decf 1c3e e314 773d e467 a53d ad02 cd3d
000002b0: ab8f 093e 6f70 973d 474f dc3d dea7 cd3d
000002c0: 1710 8a3d 45d3 be3d 9ab7 f83d 7366 e23d
000002d0: a9ec aa3d 4e19 ea3d f64a fb3d 95c9 db3d
000002e0: a3b3 873d f934 663d 7eeb b83d e000 973d
000002f0: c6f0 093e cdbb af3d 4c80 013e 47e2 c73d
00000300: b866 113e f75e b23d d3e7 c43d a406 0d3e
00000310: 0abf 223e 7db5 af3d 6a26 a63d 6d5a 843d
0.10015367 0.08872903 0.14459038 0.10297788 0.09870038 0.10319794 0.07737953 0.11967361
0.05125102 0.100726165 0.070886135 0.10285957 0.09839324 0.068249084 0.07549005 0.08935433
0.09603692 0.08715121 0.07105299 0.110659026 0.10052005 0.08835342 0.09519809 0.09662941
0.073337056 0.11831967 0.056811836 0.071922995 0.099147595 0.104883485 0.059279844 0.08188521
0.09315123 0.068277575 0.1275157 0.09137667 0.13051592 0.116112 0.06374079 0.08071772
0.090569295 0.07257249 0.06796911 0.075412385 0.07199273 0.06742972 0.0763337 0.055609953
0.12810211 0.13088189 0.0981227 0.09551174 0.07779495 0.086058736 0.0924991 0.08346966
0.09791114 0.1073913 0.09048883 0.070298776 0.072005145 0.083752 0.07486427 0.06903711
0.1441064 0.07762084 0.062268995 0.08124971 0.11816043 0.09978631 0.06728014 0.13153331
0.12152428 0.07499868 0.12343482 0.07354864 0.11861763 0.117245704 0.08798436 0.099798664
0.059704613 0.09003764 0.12446845 0.122759275 0.12837227 0.084074646 0.0635712 0.08219916
0.13104491 0.120806985 0.09553527 0.08390216 0.07449943 0.07862382 0.1048828 0.09056591
0.13910662 0.09029969 0.11268189 0.076893 0.1188293 0.12465326 0.114785306 0.09563953
0.081373364 0.07421988 0.055096935 0.06873579 0.087556444 0.07847797 0.10443111 0.08714848
0.07976775 0.06316667 0.07089996 0.07903117 0.08325898 0.05912937 0.09994028 0.07340019
0.08563393 0.080725186 0.07594096 0.07319604 0.04911791 0.07182942 0.10482495 0.07696057
0.07640427 0.08556381 0.081873305 0.10900274 0.061472286 0.12891108 0.06998063 0.09873178
0.07178546 0.10390306 0.14228871 0.1084835 0.10315098 0.09420052 0.07734885 0.07204709
0.14196637 0.09596991 0.1148169 0.06544368 0.10187998 0.13673888 0.07562197 0.11534247
0.077313155 0.070514284 0.0641837 0.14787266 0.11993459 0.08197749 0.0663329 0.09881873
0.111602046 0.13891232 0.07176322 0.09955073 0.091434054 0.09195802 0.09324207 0.0940782
0.1531367 0.060322654 0.08076456 0.10010276 0.13433711 0.07394492 0.107573085 0.10041784
0.0674135 0.0931764 0.12144394 0.11054697 0.083459206 0.11430608 0.12270157 0.10731808
0.0662606 0.056202862 0.090292916 0.07373214 0.13470754 0.08580742 0.12646598 0.09759956
0.1419934 0.08709519 0.096145295 0.13772064 0.15893188 0.08579538 0.08112796 0.0646256

conv2.0.weight f4 [10, 1, 6]
00000000: 27e1 f3bd 8e37 0e3f 347e 06bf 364d ebbe
00000010: 6651 753e 8b3a 9abe 664b 3d3e 05b2 dbbd
00000020: de8a da3e 821f 2d3e 3dc7 043e b08e 483e
00000030: b68f ddbe b09b 02bf cd6c 2ebf 16d2 04bf
00000040: 968d 1a3f c310 283d 31bf d2be 8e08 c03e
00000050: 0ccf 253c 976f e2bd 4d04 0cbf c7f0 0abf
00000060: 12e5 21bf 0cfe f4be 6eac 17bf 4af7 ab3e
00000070: 2a20 9dbe 2108 9a3e 7abb 0e3e 0382 3ebe
00000080: 3dfc d93e f0c0 073f 6869 a43e a017 aebe
00000090: 0988 a83e 63e4 3ebe 5eff 073f 0a3d 52be
000000a0: 1e30 debd dbe4 223f 4428 6d3e bf0e 8c3e
000000b0: 2e76 bb3e 139a 93bd 9e26 71be 61ad 9d3e
000000c0: fa1c c0be 3696 94be bbfb c53d cee8 b83d
000000d0: ea0a a9be d5b5 e7be 79e1 593e e5ea 0ebf
000000e0: 434a 47be 4409 a1be 6f57 573e 7ec3 55bd
-0.11908179 0.5555352 -0.5253632 -0.45957345 0.23956832 -0.3012279 0.18485793 -0.10727314
0.42684072 0.1690655 0.12966628 0.19585681 -0.43273705 -0.5101881 -0.68134767 -0.51883066
0.60372293 0.04103161 -0.41161492 0.37506527 0.010120165 -0.1105644 -0.5469406 -0.5427365
-0.6324016 -0.47850072 -0.5924748 0.33587104 -0.30688602 0.30084327 0.13938704 -0.18604283
0.42575255 0.53028774 0.3211167 -0.340024 0.32916287 -0.1864181 0.53124034 -0.20531097
-0.108490214 0.63630456 0.23159891 0.27355 0.366136 -0.07207122 -0.23549888 0.3079634
-0.37522107 -0.29020852 0.096671544 0.09028779 -0.3301614 -0.45255914 0.21277417 -0.5582717
-0.19461922 -0.31452382 0.21029447 -0.05218839

conv2.0.bias f4 [10]
00000000: bcb2 1b3c 35ae 063d 73dc ba3d ee69 153d
00000010: 4158 a73e 4f75 bb3e 65ce 373e 0dfd 243e
00000020: 107c 4b3d 8850 75be
0.009503063 0.03288098 0.091240786 0.036477976 0.3268452 0.36612937 0.17949827 0.16112156
0.049678862 -0.23956501

conv2.1.weight f4 [10]
00000000: 46df 873f 13b7 823f a790 ac3f 8469 873f
00000010: 8408 a53f f0d1 823f 8f3f 873f 43ef 843f
00000020: 2a8f 833f da02 933f
1.0615013 1.021212 1.3481644 1.0579076 1.2893224 1.0220318 1.0566272 1.0385517
1.0278065 1.1485245

conv2.1.bias f4 [10]
00000000: 710b 863b 8822 2a3c a1e3 a139 c4ff 5a3b
00000010: 2424 9abb 9637 3f3c dc14 3c3c a6d1 673c
00000020: b324 8ab9 785a 3abb
0.0040907194 0.010384209 0.0003087791 0.0033416608 -0.0047040153 0.011670968 0.011479583 0.014149105
-0.00026348754 -0.0028435271

conv2.1.running_mean f4 [10]
00000000: 11a3 febb 15a5 c03c 2cc7 ab3d f14b a83c
00000010: 790f a33e 9abf b33e 7831 2c3e 9e2d 203e
00000020: 3fc2 0e3d 6841 75be
-0.007770904 0.023516217 0.083875984 0.020544024 0.31847742 0.35107118 0.16815746 0.15642402
0.034853216 -0.23950732

conv2.1.running_var f4 [10]
00000000: a2ae 0c3d 4ba9 0c3d 5caf 0c3d 6eb1 0c3d
00000010: f6ab 0c3d 81ae 0c3d ebac 0c3d 98a9 0c3d
00000020: 02ad 0c3d b5aa 0c3d
0.03434623 0.034341138 0.034346923 0.034348898 0.034343682 0.034346107 0.034344595 0.034341425
0.03434468 0.034342486

conv2.4.weight f4 [200, 10, 6]
00000000: 346e 2dbd d168 803d 00e0 bb3b 5c33 a6bd
00000010: 4b27 25bd 13ae 91bd 9660 d63d 015a acba
00000020: a5cb 873d f2bb ddbc faeb a53d 7837 98bd
00000030: 7065 14bb a439 59bb 3f8b 12be 17f6 1e3c
00000040: 8afc 7e3c 1095 53bc b777 103d 9cc6 213b
00000050: 1a1d 553d 8231 74bb c8dc 3cbc 5dfd 0ebe
00000060: e28f 92bd 2e00 e0bc e222 0ebc c135 c03d
00000070: 40a7 77bd b6a9 e03d 39a2 ecbd 83d5 ce3d
00000080: f375 463d 7165 853d c1ed d8bd f7e8 233b
00000090: 8120 c73d 1e11 12bd 502c 0fbe 7492 c63a
000000a0: d19b a1bd 1742 9ebd 3527 fbbd e6cf 0ebe
000000b0: d865 f5bd b27c 803d f6c7 d0bd ed24 3dbd
000000c0: 31b8 a13c 057a 4ebd 168e 853d 67ce 0cbe
000000d0: b9e6 adbc 5c35 12be ec19 8fbd eafa eabd
000000e0: 7263 b7bd 6401 2ebc 1582 b4bd 6235 d7bd
000000f0: f7eb e1bd dd13 73bd 771d f0bc a4e5 85bd
00000100: 5157 c1bd 2c2e acbd 9b21 cfbd 2167 ba3d
00000110: 7a32 383d 6d46 c63d 97dc 92bb 1cbc d0bc
00000120: 9b2f debd 029b 1dbc 4e21 45be 8166 81be
00000130: 050c 38be 72d6 5fbe b038 d6bd 403d a0bd
00000140: 99f2 413c 0bae 09be 3eb4 afbd 5611 f03d
00000150: ccda 98bc b5c9 a3bd 886f 9cbd 8572 8dbe
00000160: 8cb4 54be a960 233d 12e6 963d 6e68 103d
00000170: 258b 833d 2ba4 f2bc b2d1 cd3c a81f a63c
00000180: 03f7 cd3d 2740 d93d e91f ecbd 6e71 d03c
00000190: fbec beba d202 b43c 3b3c 2a3c 78ee 6dbc
000001a0: 446d 0b3d 0884 5dbb f0af b33c 631f de3d
000001b0: 2163 513d 8805 873b 715b 283d 546e c5bc
000001c0: 83b7 e3ba 9f68 c3bd 45e5 e2bd f9a8 14be
000001d0: d5ac 2f3d d003 71bd 33e4 51bc ad19 283d
000001e0: deda 03be 81fd 3b3e af13 0fbe 3a1e 953d
000001f0: b3cd 7f3d 825e 26be 8adb 233d a2a6 cbbb
00000200: 5972 c0bd 694e e53d 3ff1 9b3d c7c2 af3d
00000210: 9998 233e cbdf 1a3e b2d8 0c3d 93de 033e
00000220: d91d 33bd b55c 78be f766 85bd 4296 833d
00000230: d8f1 933b 9413 10be a996 253d 018d 58be
00000240: 1f5b 303d 8a7e 803d 3992 133e e3c6 80bd
00000250: 842e b93d 9e23 babd b0bd 20be 5b0a 9dbc
00000260: d9ab 19bc 2d51 abbd 5124 af3d 1730 393d
00000270: b2d3 cdbc a6ab 99bd fca6 c03d 831d b23d
00000280: 50fb 863d f2fc a23d b853 16bd 41d0 ad3d
00000290: a68a f4bd 9901 a1bd b23b ed3d 10f9 f73d
000002a0: 5d60 cc3d 5a60 6ebc 8eab 1b3d f90b 253c
000002b0: b90e 2dbd 8abb a9bc 64f2 10bd 181c 0dbd
000002c0: 034c d23d 3b38 3bbe 63a1 95ba 227d d9bb
000002d0: 0b26 d1bc eda8 09bd 0ac9 7b3c 2d55 873d
000002e0: c0b3 0a3e f7f9 ab3d 9831 a33c 1bb5 25bd
000002f0: 9d7f d83c 7a31 6ebc 6d90 ae3d af0a 82bd
00000300: 4d6a 8f3d e61b 953d 9441 febd 8695 4fbc
00000310: e2c6 583d 00c0 38bd f3d2 ba3c 5b7a 09bd
00000320: 585e edbc adef 68bd a738 dfbd a7f1 9abc
00000330: e05a bb3c 616b 93bd fcc4 7cbd 5537 3a3d
00000340: ee3d cdbd f08c ce3d 3ad9 f8bd af16 d03d
00000350: 85c1 f4bd 4986 80bc 6c64 0b3e 90de 213e
00000360: 5f92 083c d154 efbd 5706 1c3d 9cde f63d
00000370: 930c edbc 9e00 30be a00a b33d fdae f73c
00000380: c553 67bd 8cf7 133d b4b4 a6bb c2c0 81bd
00000390: 2f2a b53b 15d6 6c3d 084c 203d 9dfc 953d
000003a0: 0ce6 8a3d dae8 c33d 8341 58bd 2423 d63c
000003b0: 8aec f1bd 6ab0 67bd 1800 85bc 243c 15be
000003c0: 8341 483c 0311 493d e67e 53bd 6f68 8f3d
000003d0: a524 f33c 6b09 29be fcc7 123d c2f2 cf3d
000003e0: 8084 d8bd aec4 0fbe 2701 ad3d 6e9e efbc
000003f0: b76d f83c b0b6 e8bd ff87 9b3d 1555 723c
-0.042341426 0.06269992 0.00573349 -0.08115265 -0.040320676 -0.0711328 0.10467641 -0.0013149382
0.06630639 -0.027067158 0.081016496 -0.07432455 -0.002264347 -0.0033145929 -0.1431093 0.009702227
0.01556314 -0.012913957 0.03527042 0.002468503 0.052029707 -0.0037260954 -0.011527248 -0.13963838
-0.0715635 -0.027343836 -0.008675309 0.09385253 -0.060462236 0.1096987 -0.11554379 0.10099318
0.04845233 0.06513489 -0.10592223 0.0025010684 0.097229965 -0.035660855 -0.13981748 0.0015149848
-0.07891048 -0.077274494 -0.122633375 -0.13946494 -0.11982316 0.06273784 -0.101943895 -0.046177793
0.01974115 -0.050409336 0.06521241 -0.13750611 -0.021228181 -0.14278167 -0.06987366 -0.11473639
-0.089545146 -0.010620449 -0.08813874 -0.10508229 -0.11031335 -0.059345115 -0.029310925 -0.06537941
-0.094404824 -0.08407244 -0.101138316 0.091017015 0.044970013 0.096814014 -0.0044818628 -0.025480323
-0.10848924 -0.009619476 -0.19250986 -0.25273517 -0.17973335 -0.21859148 -0.10460031 -0.078241825
0.011837625 -0.13445298 -0.085793 0.117220566 -0.018659018 -0.07997457 -0.076384604 -0.27626434
-0.20771998 0.039887104 0.07368101 0.035255842 0.06423024 -0.029619297 0.025124405 0.020278767
0.10056879 0.10607939 -0.11529524 0.025444712 -0.0014566475 0.021974001 0.010390337 -0.014522187
0.03403975 -0.003380062 0.02193448 0.1084583 0.051119927 0.0041205324 0.04110283 -0.02410046
-0.0017373416 -0.09541439 -0.11078886 -0.14517583 0.042889435 -0.058841527 -0.012810755 0.04104011
-0.1287646 0.18358423 -0.13972352 0.07281156 0.06245203 -0.1624699 0.04000429 -0.0062149325
-0.0939681 0.11196596 0.076143734 0.08582073 0.1597618 0.15124433 0.034386344 0.12877874
-0.043729637 -0.24254115 -0.065137796 0.06425144 0.004514914 -0.14069968 0.040426884 -0.21147539
0.04305565 0.062741354 0.14411248 -0.06287935 0.09042075 -0.09088825 -0.1569736 -0.019169977
-0.009379351 -0.083650924 0.08551849 0.045211878 -0.025125358 -0.075034425 0.0940685 0.08697035
0.06590903 0.07958402 -0.036700934 0.08486987 -0.119405076 -0.07861633 0.115836516 0.12108052
0.09979317 -0.014549339 0.038005404 0.010073655 -0.04225037 -0.020719308 -0.03538741 -0.03445062
0.10268404 -0.18283169 -0.0011415895 -0.0066372314 -0.025530836 -0.033608366 0.015367756 0.06608043
0.13545132 0.083972864 0.01992111 -0.04045592 0.026428038 -0.014538163 0.08523641 -0.06349694
0.07002697 0.07280712 -0.12414852 -0.0126699265 0.052924044 -0.04510498 0.022805667 -0.033563953
-0.02897565 -0.056869198 -0.108994775 -0.018914057 0.022870481 -0.07198215 -0.061711296 0.045462925
-0.10021578 0.100854754 -0.12150808 0.101605766 -0.119509734 -0.015689032 0.13612527 0.15807557
0.008335679 -0.11686099 0.038091984 0.12054178 -0.02893666 -0.17187735 0.08742261 0.030234808
-0.056476373 0.03612475 -0.0050874595 -0.06335594 0.0055287103 0.057821352 0.03913501 0.07323573
0.06782159 0.09565897 -0.05279685 0.026139803 -0.11812694 -0.056564726 -0.016235396 -0.14573723
0.01222265 0.04908849 -0.05163469 0.07002341 0.02968056 -0.16507499 0.03583525 0.10153724
-0.10572147 -0.14039871 0.084474854 -0.02925035 0.030325754 -0.1136297 0.075942986 0.014790793

conv2.4.bias f4 [200]
00000000: 6ed7 80bd d7cf 12bc 1d84 67bc 1556 b83d
00000010: 149c 0dbe a88b b7bd 2f80 a7bb 000f a8bd
00000020: aa01 43bb 267c a8bd 0295 f5bc f191 dfbc
00000030: 198f 01bd b412 d9bd c0ee ef3c 2454 3d3b
00000040: 956b 11be 3a1b 0abb 439f 7a3d b1fc 833d
00000050: 613e 9b3d 654a e63d fab0 dabd 8d1f 21bd
00000060: c80e 9fbd 49d8 98bd e568 01be f87d 993d
00000070: 95ac 813d a0c8 593d 5220 1d3d 568b 4fbb
00000080: 6c19 be3d 6931 15bd 5349 833c c644 fa3d
00000090: 2065 343d cd73 a03c 660a ac3d be40 af3c
000000a0: d99e f3bd bf19 02bd 9d52 a23a baca 87bd
000000b0: 3b3f c63d c7fe 953d ed09 143d 50fd 3bbd
000000c0: c337 d23d c5a2 dc3c 38ac d1bc c41a 28be
000000d0: 97c0 c63d 1e51 e4bd 1030 dbbb a718 b9bd
000000e0: 11f8 32bd d637 1abe bf38 22bd bc96 b1bd
000000f0: a6b0 c93c dcbb 0ebd 328f af3d bc60 e4bd
00000100: f67e a73d ad70 0bbe 5db8 d13d fe93 02be
00000110: 7c4e a63d dfea bebd 9a07 dc3d 60f6 cb3c
00000120: 2abc 1b3e 158e 5fbd f8c7 c8bc eb83 0e3e
00000130: 6e26 dbbd 186d a13d dce0 d8bd e615 bebd
00000140: 4b6d 1dbe a35c 3abd fc48 01be e24e 61bd
00000150: 5f25 a6bd 1bcf dfbc f42c 2bbe ca38 9bbd
00000160: 0a3a a8bd 8dd2 dbbd 452b a0bd 47e9 b73d
00000170: 2521 b23d 6a7e afbd 8edd 183e bbdd 90bd
00000180: 11f9 7cbd f156 e03d 761b 283d d636 c53d
00000190: 955f 3a3c ca5d 423d 0aa8 d23c 76ba 2e3d
000001a0: 50ac bc3d dee8 abbc b7f0 e9bd a496 643d
000001b0: 9200 7fbb 3798 1bbc 88c4 acba 7262 d33d
000001c0: 4149 7b3d d8b9 033d 79ae 86bb 00de a0bd
000001d0: 0d76 01be 2751 033c 6d47 71bd e853 da3d
000001e0: 0a5e cf3c ca52 4ebb edd3 91bc 3ec7 b8bd
000001f0: f76f 75bd a74e a3bd 04ee c83d d6df 4fbd
00000200: 2453 c3bc 24b3 ebbc ea61 96bd 642f fb3d
00000210: c196 d6bd b1a7 1f3b f81c cf3d 66ff 9e3d
00000220: 90d4 b0bd c245 96bd 938c 0f3d c1cb eb3d
00000230: d387 c9bd 3f3e d7bb 2291 0cbe 4585 16be
00000240: 5b91 313d 4061 22bd bcc5 fcbd 32e8 05be
00000250: 8535 a53c 77f0 edbd a9e4 f43d 96c9 4c3d
00000260: 388e b63d 6c65 4dbb b9b2 353c 6b13 b7bd
00000270: bf29 d03d 6cdf 23bd 3e87 bdbd c9e7 063e
00000280: e14c c2bd 788a afbd cfe6 053e 31e7 d1bd
00000290: 2c47 a23d 2f8c d43d a705 dbbc 772c c6bc
000002a0: 9d48 173e 575e a9bd 5bc0 4bbc 5202 08bd
000002b0: 4c87 d1bd 0634 4cbd 6a9b acbd 99ac 28be
000002c0: 99b7 3ebc e0c9 01be 62b2 aa3d 4823 403d
000002d0: 6f05 863c d178 a93d 2579 a7bd a2b4 0d3d
000002e0: 92c4 81bd 91e8 c33d a89d 2bbd e802 49bd
000002f0: 70f9 583d e5bc 8c3d d646 863d f7bd 34be
00000300: 6c9b b6bd 1ba7 f13b a78d 06be 7a64 983d
00000310: 928b aabd 429d b13d 96d8 f8bc b5a1 b6bd
-0.0629109 -0.008960686 -0.014130619 0.09000794 -0.1382907 -0.08962184 -0.005111716 -0.08205986
-0.002975563 -0.082268044 -0.029978279 -0.02729127 -0.03163061 -0.105992705 0.02928865 0.0028889263
-0.14201196 -0.0021073357 0.06118704 0.064446814 0.07580257 0.112446584 -0.10678287 -0.03933673
-0.07766491 -0.07463128 -0.1263767 0.0749473 0.063317455 0.053169847 0.0383609 -0.0031668744
0.092821926 -0.036424074 0.016026175 0.12220149 0.044041753 0.019586468 0.08400421 0.021393176
-0.11895532 -0.031762835 0.001238424 -0.06630464 0.09680029 0.073239855 0.03614228 -0.045895875
0.10264542 0.026933083 -0.025594816 -0.1641646 0.09704702 -0.111482844 -0.006689079 -0.09037905
-0.043693606 -0.15060362 -0.0396049 -0.086713284 0.024620365 -0.034847125 0.08572234 -0.11151263
0.08178513 -0.13617201 0.10240243 -0.12751767 0.081204385 -0.09322142 0.107436374 0.024897754
0.15208498 -0.05457886 -0.024509415 0.1391751 -0.10700689 0.07882136 -0.105897635 -0.092815205
-0.15373723 -0.0454985 -0.12625498 -0.05500687 -0.08112597 -0.027320435 -0.16716367 -0.07579191
-0.08214195 -0.10733519 -0.07820753 0.08980041 0.08697728 -0.085690334 0.14928266 -0.07073542
-0.061760966 0.10954083 0.041041814 0.096296 0.011375328 0.047452725 0.025714893 0.04265829
0.092125535 -0.020985063 -0.11422866 0.055807725 -0.0038910252 -0.00949674 -0.001318113 0.10321511
0.061349157 0.032159656 -0.004110154 -0.07854843 -0.12642689 0.008014954 -0.058906008 0.10660535
0.025313396 -0.0031482452 -0.01780125 -0.090223774 -0.05992123 -0.07973986 0.09811023 -0.050750576
-0.023843355 -0.028771944 -0.073428944 0.122648984 -0.10477973 0.0024361426 0.10112947 0.07763557
-0.08634293 -0.07337524 0.03504617 0.11513472 -0.098403595 -0.0065686996 -0.13727239 -0.14699276
0.043351512 -0.039643526 -0.12342402 -0.13076857 0.020167122 -0.11618131 0.11957676 0.049996935
0.08913845 -0.003134097 0.011089974 -0.089392506 0.101642124 -0.040007994 -0.09254311 0.13174357
-0.0948732 -0.08571333 0.13076328 -0.102491744 0.07923731 0.103783004 -0.026736094 -0.024191124
0.14773794 -0.08269947 -0.012435998 -0.033205338 -0.10230884 -0.0498543 -0.084280804 -0.16472091
-0.011640453 -0.12674665 0.08334805 0.046908647 0.016360013 0.08274997 -0.08177403 0.034596093
-0.06336321 0.09565843 -0.0418984 -0.049075037 0.052972257 0.06871966 0.0655648 -0.17650591
-0.08916363 0.007374657 -0.13139974 0.074410394 -0.08327402 0.08672573 -0.030376714 -0.08917562
