model/rpssm_k1_model.ckpt (torch, 185371 bytes, 40 tensors)

conv1.0.weight f4 [10, 1, 3]
000000 c3 7c ac 3e 5b 4e c5 3e 6d 50 bf 3e 0d 02 a9 bd
       0.33688936 0.38536343 0.37366048 -0.08252344
000010 5a 88 d5 3e 7a 16 d3 be e3 12 31 3d 0b ea ab be
       0.4170559 -0.41228086 0.043230902 -0.33576998
000020 39 dd 27 bd 78 94 61 3e 73 fe 91 3d bf 45 d6 3e
       -0.04098246 0.22029293 0.071286105 0.41850087
000030 a9 bd f3 be 83 87 29 3e dd e3 89 be f0 1a 01 bf
       -0.47605637 0.165556 -0.26931658 -0.5043173
000040 b0 5c 5c 3e 70 53 4a 3e 23 81 e7 be 1d 71 d1 be
       0.21519732 0.19758391 -0.4521571 -0.4090661
000050 67 98 08 3f 29 eb b1 bd 97 76 b5 3e 23 9b 95 3e
       0.5335755 -0.08687431 0.3544204 0.29219922
000060 0e 5a db be 63 2f 12 bf ee ba 8c be aa 25 c3 be
       -0.42842144 -0.57103556 -0.27486366 -0.38114673
000070 6b e8 ab 3e 3b d4 83 be
       0.33575758 -0.25747856

conv1.0.bias f4 [10]
000000 5c 65 63 bd c9 87 0f 3f ae 79 51 be 11 5c cf be
       -0.055516586 0.56066567 -0.20456573 -0.4049993
000010 a1 59 b6 3e 5b 2a 98 be e7 2a f8 be 76 d1 0a be
       0.35615256 -0.29719815 -0.48470232 -0.13556466
000020 49 a7 ac 3e 9d e8 8f be
       0.33721378 -0.28107157

conv1.1.weight f4 [10]
000000 08 1c 7d 3f b4 ef 80 3f af c6 8e 3f 4f 19 78 3f
       0.988709 1.0073152 1.1154383 0.9691362
000010 16 7d 7d 3f 60 7f 7e 3f 44 ad 86 3f 69 38 7b 3f
       0.9901899 0.9941311 1.0521626 0.9813295
000020 f1 a3 7d 3f 82 50 80 3f
       0.9907828 1.0024569

conv1.1.bias f4 [10]
000000 16 79 23 3c 37 b4 30 3c 7c 4a f8 3b d3 35 c6 3c
       0.0099776 0.010785154 0.0075772386 0.024195587
000010 a4 1a 3d 3c 0d e8 41 3c c6 24 b0 bc 90 f8 c8 3c
       0.011541996 0.01183511 -0.02150191 0.024532586
000020 ce 9b 0a bc 62 07 c3 bc
       -0.008459998 -0.023807231

conv1.1.running_mean f4 [10]
000000 74 f5 ec 40 c9 9b cf be 45 35 01 c0 03 55 84 40
       7.4049625 -0.40548542 -2.0188763 4.1353774
000010 57 ed 80 c0 00 72 64 bf 0e 5d 16 c0 39 77 5f 40
       -4.028972 -0.8923645 -2.3494296 3.4916518
000020 89 a7 01 c1 39 fb 1e c0
       -8.103402 -2.4840834

conv1.1.running_var f4 [10]
000000 5a 0b 34 41 9b f8 84 3f e7 06 4f 3f e7 77 8c 40
       11.252771 1.0388368 0.8086991 4.3896365
000010 2c 86 88 40 5c e5 7b 3f 40 0e 23 40 dc 24 3f 40
       4.2663784 0.9839685 2.5477448 2.9866247
000020 ac 37 68 41 eb c2 c8 3f
       14.513592 1.5684484

conv1.4.weight f4 [110, 10, 3]
000000 87 80 94 3c 5f ad b8 bc a4 bf 04 be d9 7f 3e 3e
       0.018127693 -0.022543607 -0.1296373 0.18603458
000010 6c 4e cb 3d 0b 49 a3 3a ec cf fa bd ea d7 19 3e
       0.09927067 0.0012457682 -0.12246689 0.15023771
000020 1a 30 ea bd ab 9b 1d 3e 77 e1 59 3b 05 0a c1 bd
       -0.11434956 0.15391414 0.003324596 -0.09425739
000030 aa 8d 87 3d d7 a8 9f bd 27 09 b4 3d c1 f1 4a 3d
       0.06618817 -0.077958755 0.08790808 0.04954696
000040 cf dd 6f bc 70 fa 68 3d 42 5a dd 3d 50 7b 88 be
       -0.014640286 0.05687946 0.10808231 -0.2665658
000050 45 a3 9a 3d 65 37 b7 3c cf ab 9b 3d fd 20 a0 3d
       0.075506724 0.022365281 0.07601129 0.07818792
000060 66 fa 95 3d 22 bd d8 bd fe 27 0e 3e ce 0f 3b 3e
       0.0732315 -0.10582949 0.13882443 0.18267748
000070 e2 01 d9 bd de 04 1a be 01 9b 27 3e f2 a5 16 3e
       -0.10596062 -0.15040919 0.16367723 0.1471174
000080 81 87 30 3e b1 57 2e b9 49 27 9e bd fd de 29 be
       0.1723919 -0.000166266 -0.07722337 -0.1658897
000090 5f 79 a7 bd 1d 28 3a 3d fa 82 3e bd c1 db 03 be
       -0.081774466 0.04544841 -0.046511628 -0.12876798
0000a0 f8 ad 4a 3d e2 6f d5 3c 76 ba 0f be c5 6d 0c bd
       0.049482316 0.026054326 -0.14035973 -0.034284372
0000b0 4a 5c b7 3b ef 8e 6c 3c 56 fd f2 bd ec e4 70 bc
       0.0055957185 0.014438375 -0.11864726 -0.014703017
0000c0 00 f3 e2 bb 0c 52 12 3e 3b a7 01 bd ae 81 79 3d
       -0.0069259405 0.14289111 -0.031653624 0.060914688
0000d0 82 41 26 be aa 81 a7 bd b7 70 a3 3c 0f f8 81 3d
       -0.16235927 -0.08179028 0.019951208 0.063461415
0000e0 1a 5f 24 be ae 2d c3 3d 4c 7e 23 3e 93 a8 05 3e
       -0.16051903 0.09530197 0.15966147 0.13052587
0000f0 39 2f 19 3e 7f c0 28 3e 40 68 18 be 94 67 83 3c
       0.1495942 0.16479681 -0.14883518 0.0160406
000100 46 ef 3f 3d ec 4a e1 bd 9f d7 61 bd e4 52 e2 3d
       0.04685905 -0.11000618 -0.055137273 0.110509664
000110 09 88 26 3d e2 68 8f bd d5 54 00 3e 4d 3e 81 3d
       0.040657077 -0.07002427 0.12532361 0.06310711
000120 61 73 1c be c6 4f 49 bd 74 11 c5 3c b7 2b 41 bb
       -0.15278389 -0.049148344 0.024056174 -0.002947552
000130 a7 3c 7d 3d d6 46 20 bd f0 d4 19 3d 64 c9 e4 3d
       0.06182542 -0.039130054 0.03755659 0.11171225
000140 0a 18 7e 3d 33 00 a5 3c 44 c5 c5 bd d8 64 3b bd
       0.062034644 0.020141697 -0.09656766 -0.04575047
000150 f8 02 f5 bd f1 f9 34 3e 25 c6 98 3d 44 77 0c be
       -0.11963457 0.1767347 0.07459668 -0.13717371
000160 f8 eb 10 be ce 62 c7 3d 72 f7 56 be 07 0e 33 be
       -0.14152515 0.097356424 -0.2099283 -0.1748582
000170 d3 2e 88 bd 41 ac 03 be 6f 4e f8 3d 71 83 52 be
       -0.06649556 -0.12858678 0.12124335 -0.20557953
000180 f6 b5 0d be cd 67 0f 3e 21 5c e7 3d bc 5e 27 be
       -0.13838944 0.1400444 0.11296869 -0.16344732
000190 54 3a 0e be db ae e4 bd bd ae a1 bd 52 bf de 3d
       -0.13889438 -0.111661635 -0.07894657 0.10876335
0001a0 1f a0 97 3d f5 0c ed bd 12 99 e4 3d 3e 09 da ba
       0.074035875 -0.11574737 0.11162008 -0.0016634834
0001b0 42 79 0b be 90 2d 17 be a3 0a cc 3b 4b f9 c2 bd
       -0.13620475 -0.14763474 0.006226854 -0.09520205
0001c0 27 fa 05 bd 41 7b d9 bc 17 9e c6 3d 21 98 05 3e
       -0.032709267 -0.02654803 0.09698122 0.13046314
0001d0 a3 80 a6 bd 8f 41 b7 3d a9 a9 f2 3d 1b d7 4a 3c
       -0.08130004 0.08948051 0.11848766 0.012380387
0001e0 f2 0d d5 3d 43 5c e5 bc 1a af 90 bd 47 c6 ec bd
       0.104030505 -0.027998095 -0.07064648 -0.11561256
0001f0 a3 c2 4b 3b 61 51 e1 bd b3 e6 5a 3d fa b0 c1 bd
       0.0031091354 -0.1100185 0.05344267 -0.09457584
000200 13 28 50 3d 61 06 76 bd 16 43 f0 bd 74 01 ff 3d
       0.050819468 -0.060064677 -0.117315456 0.12451449
000210 ba 60 f4 bd 4c af fe 3d 03 04 3e be 57 ca 19 be
       -0.11932512 0.12435779 -0.18556218 -0.15018593
000220 e7 3e e9 3c d9 b2 1f bd 34 09 24 be a1 ec 15 bd
       0.028472377 -0.03898892 -0.16019136 -0.03660262
000230 28 6d 6c be 13 dc 37 be 5b 71 23 bd 7b ee af 3d
       -0.23088515 -0.17955045 -0.039903026 0.085904084
000240 7c 0e fc 3d fe 90 ff 3c 42 e5 46 3e 1d 60 83 be
       0.1230745 0.031197067 0.19423392 -0.25659266
000250 58 f9 a5 3d 89 af 2c be 42 09 cd bc 61 68 2f 3e
       0.08104199 -0.16863836 -0.025028829 0.17129661
000260 5d 6e 1c 3e ca 62 d2 bd ec 37 a6 bd 7a 20 6a 3c
       0.15276475 -0.10272749 -0.08116135 0.01428997
000270 95 11 7f 3d f1 5c fb bd 5c 27 ad bd 84 98 c4 bd
       0.062272627 -0.122735865 -0.08454773 -0.095994025
000280 8b 74 10 3e a8 d7 39 be 1c 2d 9f 3d 5c 45 04 3e
       0.14106958 -0.18148673 0.07772276 0.12917084
000290 cf e1 c3 3d d2 a5 36 3e 3f 61 06 bd 89 0e ce 3c
       0.09564554 0.17836693 -0.032807585 0.025153415
0002a0 ed 90 8a 3d 49 bd 09 3e 6f 19 ac be 79 49 15 3e
       0.06765924 0.13451113 -0.33613154 0.14578809
0002b0 c7 e5 9e 3d 05 85 45 bc 84 5b 7f bc 2e 1e 76 bc
       0.0775867 -0.01205564 -0.015585784 -0.015021844
0002c0 0f e6 f5 3d 78 83 e0 bd b4 e7 e7 3a 21 7c ee 3d
       0.12006771 -0.10962576 0.0017692954 0.116447695
0002d0 59 7c ff bd 40 44 f7 3d 2f 13 89 bc 51 a7 90 bd
       -0.12474889 0.120735645 -0.01673278 -0.07063163
0002e0 67 a1 43 be c3 f9 2c 3e c4 d9 70 3d 0b b5 68 3d
       -0.19104539 0.16892152 0.058801427 0.05681328
0002f0 02 39 a0 be 06 a5 e9 bd 51 af 61 bd 2e 2a 2d 3e
       -0.31293494 -0.11408429 -0.055098835 0.16910622
000300 42 9c a1 bc 82 db a9 3d 02 90 8d 3d 48 0b ae bd
       -0.01972783 0.08293821 0.06912233 -0.084982455
000310 d1 2f 04 3e b5 77 fc 3c a3 61 07 3e 12 d8 d9 bd
       0.12908866 0.0308188 0.13220839 -0.10636915
000320 d6 71 01 3e 32 db ed bd 21 f0 d1 bd 15 65 05 be
       0.12641081 -0.11614074 -0.10250879 -0.13026841
000330 af f9 22 bc 57 a2 f2 3d d2 c1 67 be 7d f8 e5 3b
       -0.0099472245 0.1184737 -0.2263253 0.0070181475
000340 2c 05 0d be ec fd c1 3d b7 11 42 3d 77 3d 92 3d
       -0.13771504 0.0947226 0.047380175 0.0714063
000350 31 2e a2 3d 6d 83 2f 3d b2 48 d8 3d 97 c8 58 bd
       0.079189666 0.042849947 0.105607405 -0.052925672
000360 af 4d 16 3d 05 5f 5d 3d 47 c9 c5 3d b7 aa 76 3d
       0.03669518 0.054045696 0.09657531 0.0602214
000370 a8 3a eb bd 20 11 2a bd 5e b3 bd 3c ce fa b9 3c
       -0.11485797 -0.041520238 0.023156818 0.0227026
000380 f9 47 f3 bd 2a 33 f7 3d 00 cb 33 be 6a 52 06 3e
       -0.11878962 0.12070306 -0.17557907 0.13117376
000390 7d ad b5 3d fa e0 b2 bd e9 15 05 be cd a4 79 bc
       0.08870981 -0.08734317 -0.1299664 -0.0152370455
0003a0 26 e0 34 bd 07 9c cc bc 77 f9 64 bd 99 39 02 3d
       -0.044159077 -0.024976743 -0.05590197 0.03179321
0003b0 01 67 45 bc 3f af ac 3d 2c 6d 48 bd a2 9a fc 3c
       -0.012048484 0.08431863 -0.04893224 0.030835453
0003c0 6c 2d ab 3d 95 f8 ad 3c a9 13 25 3e 8f 3f 9c 3d
       0.08358273 0.021236697 0.16120781 0.0762931
0003d0 89 38 81 bd 44 ba e7 bd 9c c3 60 3d a3 b0 c2 bd
       -0.06309611 -0.11314824 0.054874048 -0.09506347
0003e0 c1 ec 0b be 38 46 27 bd 80 59 62 be 47 cf cf 3d
       -0.13664533 -0.04083845 -0.22104454 0.10146957
0003f0 46 ec eb 3d 31 65 a8 3d 65 e1 d6 bd 6f 88 9c bd
       0.11519675 0.08222426 -0.10492209 -0.0764321

conv1.4.bias f4 [110]
000000 37 1f d4 3d b9 be 57 bd e1 11 21 be f2 b3 68 3c
       0.10357516 -0.05267212 -0.15729477 0.014203059
000010 9b 90 83 bd 39 95 f4 3d 88 50 27 3d a7 4d 0b be
       -0.06424066 0.119425245 0.040848285 -0.13603841
000020 23 09 9e b9 a6 ad 34 be ff a3 48 3d c5 bc 3e be
       -0.00030142916 -0.17644367 0.048984524 -0.18626697
000030 90 99 d1 3d 46 b2 ea bd 4a 9d aa 3d 23 46 9c bc
       0.10234368 -0.11459784 0.08330782 -0.019076413
000040 39 ea 32 be b6 c9 12 3e a8 a5 24 3e 48 0f 25 be
       -0.17472161 0.14334759 0.16078818 -0.1611911
000050 41 6d f4 bd 33 2f 23 be 08 69 4b be 8b 0e 24 3d
       -0.11934901 -0.15935974 -0.19864285 0.04005293
000060 e6 c1 67 bd 6c 01 f2 bd 63 50 8f 3d 85 ba f8 bc
       -0.0565814 -0.118166775 0.069977544 -0.030362377
000070 7a a5 ba bd 3e 97 9c 3c be 7a ee 3c fc 24 c7 bd
       -0.091135934 0.019115087 0.029111262 -0.09723851
000080 2c 9d 43 bd 66 5c c8 3d 4c 9a 05 3d 81 f6 10 be
       -0.047757313 0.097832486 0.032617852 -0.14156534
000090 c9 56 1a 3e a5 d5 10 3c 1c e4 2b 3e 46 0e ad 3d
       0.15072168 0.008839999 0.16786236 0.08449988
0000a0 ed 41 0e 3d 94 60 f8 bd ef 03 e7 3d 86 ff 72 3d
       0.03473084 -0.12127796 0.11280047 0.059325717
0000b0 32 55 43 be b2 c9 c7 bd a5 29 34 be cc ad 44 3d
       -0.19075468 -0.09755267 -0.17594011 0.048017308
0000c0 94 a1 f8 3d fa 40 2c be d7 84 16 3e ec ad fc 3d
       0.121401936 -0.16821662 0.14699112 0.123378605
0000d0 cc 9c 84 bd 26 ec 1d be 20 b6 13 bd 56 e0 3d bd
       -0.06475219 -0.15422115 -0.03606236 -0.04635652
0000e0 57 d0 c8 3c 3c 3f b5 3c 08 ef d8 3b 25 be b6 3c
       0.024513407 0.022124879 0.0066202916 0.022307465
0000f0 64 05 41 bd 29 22 f5 3c 58 b8 78 bd ad 82 d0 bc
       -0.04712428 0.029923515 -0.06072268 -0.025452936
000100 90 8c 64 3d 38 fb d2 3d a2 c8 18 3e e4 4c 69 bd
       0.055798113 0.103018224 0.14920285 -0.056958094
000110 31 fa 1a be b4 bb 0c 3e 1c 65 50 3d 49 bf 18 3e
       -0.15134503 0.13743478 0.050877675 0.1491672
000120 2e 25 59 3c 11 a5 fc bd 7c 41 97 3d c2 be 04 3d
       0.013253493 -0.123361714 0.07385537 0.032408483
000130 2d d3 1e 3e f5 c7 4f bd f5 5a 41 be e8 4e fb 3d
       0.15510245 -0.050727803 -0.18882354 0.122709095
000140 64 ae 0e 3d ed 8c af bd b2 b9 31 be f2 f3 3b be
       0.03483428 -0.08571801 -0.17355993 -0.18354777
000150 3d d1 02 3e c9 0d 3d be 3d e0 ec 3d 16 6e 34 be
       0.1277513 -0.1846229 0.115662076 -0.1762012
000160 4b 06 c0 3d 05 7f 89 bb a9 95 48 be 76 84 07 3e
       0.093762 -0.00419605 -0.19588341 0.13234124
000170 da 02 8c 3d fb 25 b5 bd 98 03 fe bd d3 e2 0a be
       0.068364814 -0.08845135 -0.12403029 -0.13563089
000180 73 c3 85 3c 39 2a 07 be 3a f5 15 3e 07 b1 4a bd
       0.016328549 -0.131997 0.14644328 -0.049485233
000190 70 da 0e bd 4c 1b f7 bb b7 dd 56 3c 77 87 1b 3e
       -0.034876287 -0.007541096 0.013114384 0.15188394
0001a0 ed a1 1d ba d4 db f1 3d df 76 36 be b7 70 ea bc
       -0.00060132035 0.11809507 -0.17818783 -0.0286182
0001b0 db 89 4a bd e8 13 89 3d
       -0.049447875 0.0669325

conv1.5.weight f4 [110]
000000 52 b3 7e 3f 97 50 79 3f 6c 3e 7d 3f 0a ec 73 3f
       0.9949237 0.97388595 0.98923373 0.9528204
000010 c2 7a 82 3f e1 89 7a 3f 48 37 7b 3f ae e0 78 3f
       1.0193713 0.97866637 0.9813123 0.97217834
000020 fb 72 7b 3f 11 ed 75 3f a6 7f 78 3f 84 40 75 3f
       0.9822232 0.9606486 0.97069776 0.9580157
000030 cc ea 6e 3f c8 72 7b 3f 16 6a 7a 3f 4f 16 7d 3f
       0.9332702 0.9822202 0.97818124 0.98862165
000040 81 48 7d 3f 7b bb 79 3f 66 2c 80 3f 18 9f 79 3f
       0.9893876 0.975517 1.0013549 0.9750838
000050 e6 8b 73 3f 45 69 7f 3f 98 7c 7b 3f 38 ba 7c 3f
       0.95135343 0.99770004 0.9823699 0.9872165
000060 f0 14 76 3f 1f 28 7f 3f d8 48 81 3f 07 cd 7f 3f
       0.961257 0.99670595 1.0100355 0.9992222
000070 e7 0b 80 3f 58 26 80 3f 9a 96 85 3f 40 7c 79 3f
       1.0003632 1.0011702 1.0436585 0.97455215
000080 6a f9 70 3f 12 c9 7f 3f 7c 33 79 3f 68 ea 7a 3f
       0.94130576 0.99916184 0.97344184 0.98013926
000090 b5 ee 78 3f ce 60 76 3f 93 06 80 3f 7b 9b 81 3f
       0.9723924 0.9624146 1.0002006 1.0125574
0000a0 0b 4a 78 3f f4 23 79 3f dc 3b 73 3f bb 5f 73 3f
       0.9698798 0.97320485 0.95013213 0.9506795
0000b0 b3 a0 75 3f 0f 37 78 3f 77 5e 7f 3f 2c ef 78 3f
       0.9594833 0.9695901 0.99753517 0.9723995
0000c0 1b aa 79 3f 28 31 7c 3f 4f 09 80 3f 9d 5e 77 3f
       0.97525185 0.98512506 1.0002841 0.96628743
0000d0 47 75 79 3f aa e9 76 3f a6 ed 74 3f f4 6b 78 3f
       0.97444576 0.96450293 0.9567512 0.97039723
0000e0 25 35 7f 3f 34 98 7d 3f 06 ae 78 3f 90 d9 7a 3f
       0.9969047 0.9906037 0.9714054 0.97988224
0000f0 2c 15 7d 3f dc e4 76 3f 54 1f 76 3f f0 c2 71 3f
       0.9886043 0.9644296 0.9614155 0.94438076
000100 79 37 78 3f 43 6d 81 3f d4 63 78 3f d1 c9 7e 3f
       0.96959645 1.0111469 0.97027326 0.995267
000110 77 6a 7c 3f 9c 17 77 3f 3a 8e 7e 3f 9a 28 80 3f
       0.9859995 0.965204 0.9943577 1.0012391
000120 27 8e 7f 3f 85 cf 74 3f ff 68 78 3f 88 b9 7e 3f
       0.9982628 0.9562915 0.9703521 0.9950185
000130 77 74 75 3f 0f 45 78 3f 2f 92 75 3f b4 fb 74 3f
       0.95880836 0.96980375 0.95926183 0.9569657
000140 5a 76 75 3f 4b 5e 75 3f 43 08 7f 3f 58 e9 79 3f
       0.95883715 0.95847005 0.9962198 0.9762168
000150 09 6b 7e 3f 55 f6 7b 3f 49 c3 75 3f da 45 78 3f
       0.9938207 0.9842275 0.96001107 0.96981585
000160 72 e4 7e 3f f6 e1 7f 3f 91 30 6c 3f d9 3c 84 3f
       0.9956733 0.99954164 0.92261606 1.0331069
000170 c3 18 78 3f ca 84 7a 3f 3d 9b 78 3f 1f 37 7c 3f
       0.96912783 0.9785887 0.97111875 0.9852161
000180 57 13 80 3f 05 81 80 3f a3 76 7a 3f 2d d0 7c 3f
       1.0005902 1.0039374 0.97837275 0.9875515
000190 04 6a 7d 3f 8e 4f 78 3f c4 9c 7a 3f f0 df 79 3f
       0.9898989 0.9699639 0.97895455 0.97607327
0001a0 c5 c3 80 3f be 4e 7a 3f d9 cc 7f 3f 14 dc 79 3f
       1.0059744 0.977764 0.9992195 0.9760144
0001b0 1f e5 79 3f 8b 94 75 3f
       0.97615236 0.95929784

conv1.5.bias f4 [110]
000000 33 b1 d0 bb 69 06 12 bc 5c 48 f2 bb a1 5d d6 bc
       -0.00636878 -0.008912661 -0.00739388 -0.026167693
000010 22 60 45 3c 3d db 76 bc 66 e5 3d bc 60 7d 28 bc
       0.012046846 -0.015066919 -0.011590337 -0.010283798
000020 e6 81 3d bc 31 3c fd bc 72 96 08 bc a8 03 08 bd
       -0.011566615 -0.03091249 -0.00833665 -0.033206612
000030 85 d3 07 bd 55 67 35 bc 73 5a af bc 70 be 97 bb
       -0.033160705 -0.011072 -0.021405434 -0.004630856
000040 11 d6 ff bb 27 7e 55 bc 29 30 1b 3c da 5c bc bc
       -0.007807501 -0.013030565 0.0094719315 -0.022993494
000050 e7 db 0b bd fc bb c4 3a 10 c6 08 bd 7f 04 30 bb
       -0.034145262 0.0015009637 -0.033392012 -0.0026858149
000060 13 b6 e9 bc 74 e2 8d bc 84 98 9e 3c ac 27 a6 bb
       -0.028529203 -0.017319895 0.019359834 -0.005070647
000070 21 28 5b 3c b7 5b 34 3c 56 ed 37 3c 93 81 3b bc
       0.013376267 0.011008195 0.011226019 -0.011444467
000080 11 68 2c bd 6a f6 56 bc 42 dd 9b bc fa ab 26 bb
       -0.042091433 -0.013120273 -0.019026402 -0.0025432096
000090 c7 b4 50 bc 16 9e 89 bc b5 c5 f0 3a 06 67 48 bb
       -0.012738413 -0.016799014 0.0018369468 -0.0030578985
0000a0 a5 f2 3d bc ce 33 c0 bc 31 9f 00 bc f0 e4 09 bd
       -0.0115934955 -0.023462202 -0.007850454 -0.033665597
0000b0 63 98 ec bc df 33 98 bb 43 ea 3f bc 7a 00 65 3a
       -0.028881257 -0.0046448554 -0.011713567 0.0008735728
0000c0 7e 25 a5 bc 4c 5a bd bb 0b e6 07 bc 40 bf a1 bc
       -0.02015948 -0.0057785865 -0.008294593 -0.019744515
0000d0 e1 49 a0 bc 09 14 cf bc d2 d5 99 bc c1 bb ed bb
       -0.019566478 -0.025278108 -0.018778715 -0.007255048
0000e0 2a 58 20 bb f9 85 25 bc e1 35 9c bb a8 76 e9 bc
       -0.0024466612 -0.010102742 -0.004767165 -0.028498963
0000f0 cb eb ef bb cb 47 47 bc b9 1a 5f 3c 74 14 92 bc
       -0.00732181 -0.012163113 0.013617211 -0.017832018
000100 dc f9 cb bc 0e a8 6b bb e3 94 9c bc 69 0b 13 bc
       -0.024899416 -0.0035958323 -0.019113963 -0.008974888
000110 88 64 2d bc 41 f0 95 bc c0 0e 54 3b 1f c5 9b bc
       -0.010583051 -0.018303039 0.0032357424 -0.019014893
000120 66 49 25 b8 6d 37 bd bc a3 74 b0 bc 1a 5e ac bb
       -3.9407423e-05 -0.023097718 -0.021539992 -0.005260241
000130 f6 89 aa bc 59 91 9b bc 82 98 e3 bc 24 db e4 bc
       -0.020817738 -0.018990206 -0.027782682 -0.027936526
000140 ce 60 70 bc da c8 9a bc 31 03 9e bb 60 b4 85 bc
       -0.014671518 -0.018894602 -0.004822158 -0.016321361
000150 fa a6 c0 bb 65 25 ae bc 8f 36 88 bc 47 95 2d bc
       -0.00587928 -0.021258065 -0.016627578 -0.0105946725
000160 92 7f cd bb 18 69 c8 bb df 5d 50 bd 38 e4 3d 3c
       -0.006271311 -0.006116044 -0.050870772 0.011590056
000170 d7 49 92 bc b1 d4 9a bc 0e 0d 0d bc 89 e5 80 bc
       -0.017857475 -0.018900247 -0.0086090695 -0.01573445
000180 a3 41 89 3b 8c b7 be bb b9 dd 04 bb dd 56 0e bc
       0.0041887327 -0.0058202203 -0.0020273759 -0.008687702
000190 c9 a9 42 bc 0c 97 0d bd 0f b6 6c bc da 31 64 bc
       -0.0118813 -0.034567878 -0.014447703 -0.013927901
0001a0 55 fb d9 bb 79 da 20 bc 8b d0 2f bc 21 64 01 bc
       -0.0066522756 -0.009817713 -0.010730873 -0.007897408
0001b0 cf a5 12 bc ef e5 dc bb
       -0.008950665 -0.0067412774

conv1.5.running_mean f4 [110]
000000 96 f6 be 3e 99 1f fb bc 2c 7e 57 bd d6 53 ee bc
       0.37297505 -0.030654715 -0.05261056 -0.02909271
000010 b0 fc 24 be 1e 43 e6 3e af 4e 08 be 49 12 49 bd
       -0.16112018 0.4497308 -0.13311265 -0.049089704
000020 65 10 f3 3c 5e b3 b5 bd 34 f8 3a ba 24 b6 d8 3d
       0.029670903 -0.08872102 -0.0007132322 0.105816156
000030 d5 19 43 3e a4 8a ec be dd 86 a8 be 41 c3 95 be
       0.19052823 -0.46199524 -0.32915393 -0.2925053
000040 b0 10 2d be aa 10 95 3e f6 e0 da b9 fb 44 6a be
       -0.16900897 0.29114276 -0.0004174781 -0.22877876
000050 b4 2c 8c be 45 e3 26 be 76 66 8b bb a0 51 89 be
       -0.27377856 -0.16297634 -0.0042541577 -0.26820087
000060 73 0e 83 be 1f 60 f6 bd 4c 4a ee bb e0 89 1e 3e
       -0.2559696 -0.120300524 -0.0072720405 0.15482283
000070 21 f2 69 bc f6 6a b4 3e 4d ce 17 be 27 4b f3 3d
       -0.014278919 0.35237855 -0.14824791 0.118795685
000080 11 d7 aa 3e 20 bd d3 bd 69 67 35 3d 52 76 84 be
       0.33367208 -0.10338807 0.044288073 -0.2587152
000090 b9 0a e8 bd e9 aa df 3e e8 16 bd 3d 8a 20 94 3d
       -0.1133017 0.43685082 0.09232885 0.07232769
0000a0 c7 5a a8 be 6d 65 84 be 20 21 23 3f a6 c0 9d 3e
       -0.32881758 -0.25858632 0.6372242 0.30811042
0000b0 cb 25 41 3e 82 d8 01 3d 75 f4 27 be ea c1 fd bd
       0.18862073 0.03170062 -0.16401847 -0.12390502
0000c0 1a 01 37 3e 51 e7 de be 27 ad b0 bc 4d 4c 21 3e
       0.17871514 -0.43535855 -0.02156694 0.15751763
0000d0 3e 55 e9 bc a1 5a 99 be 18 63 91 be d4 21 ab bd
       -0.02848303 -0.29951957 -0.28395915 -0.083560616
0000e0 82 04 8a be 7f b3 9f 3c 45 97 b6 be 7d d6 a6 bd
       -0.26956564 0.01949477 -0.35662284 -0.08146379
0000f0 95 de 90 bd c5 18 8d bc dc 6a 54 be 85 ee 45 3e
       -0.07073704 -0.017223725 -0.20743889 0.19329269
000100 7c fe b7 3e 1e 25 1e 3f ce 29 eb 3e e7 98 00 3d
       0.35936344 0.61775386 0.45930332 0.03139582
000110 a0 82 a0 be 58 e7 5a bd bc 68 8a 3e 0c f9 7c 3d
       -0.3134966 -0.053443283 0.2703303 0.061760947
000120 92 bd 43 3e 75 b0 40 be a1 c3 12 3e 5d f7 77 3d
       0.19115284 -0.18817313 0.14332439 0.06053864
000130 6a df 82 bc 70 8a 4d 3e cf de 2c 3d 2e fc 25 3f
       -0.015975673 0.20072341 0.042204674 0.6483792
000140 cd 51 00 be c8 54 85 3e 89 d7 5f 3e ce 99 0e be
       -0.12531205 0.26041245 0.21859564 -0.1392586
000150 fd 67 ee ba 01 5d 61 be 5e d5 d2 3e 0d 31 12 be
       -0.001818895 -0.22008134 0.4117841 -0.14276524
000160 bd 84 bb 3d af e2 d5 bd 26 cf e8 bd 8a da da 3c
       0.09156177 -0.10443627 -0.113676354 0.026715536
000170 d0 75 bf 3e 21 44 bd 3d 90 a5 b4 be 90 38 3e be
       0.3739457 0.0924151 -0.35282564 -0.18576264
000180 05 a5 6d be 10 40 9b be 52 11 13 3e 87 93 9e 3e
       -0.23207481 -0.30322313 0.14362076 0.3097193
000190 63 79 87 3e f1 e4 1f be 03 41 91 3e c4 04 6a bd
       0.26459798 -0.15614678 0.28369913 -0.05713345
0001a0 6c b9 a7 bd 11 5e d6 3e 71 e8 a8 3d 56 6f f6 3e
       -0.08189663 0.41868642 0.0824746 0.48131818
0001b0 a5 79 16 3e bc e5 e7 3e
       0.14694841 0.4529246

conv1.5.running_var f4 [110]
000000 9c c0 f7 3d fa f7 e1 3d a0 3a cc 3d e1 a1 2c 3f
       0.12097284 0.11033626 0.09972119 0.6743451
000010 ff fa bc 3d e8 53 1e 3e 2c 43 40 3e ad 5e cd 3d
       0.09227561 0.15461695 0.18775624 0.100278236
000020 cf d7 d5 3d ba ad 5e 3e 39 d9 d6 3d bc f5 1c 3e
       0.10441553 0.21745959 0.10490651 0.15328115
000030 04 77 08 3e 51 fa 4b 3e 86 0d 60 3e f1 1c 0f 3e
       0.13326651 0.19919707 0.21880159 0.13975884
000040 dc 31 1c 3e 27 33 d3 3d f5 05 f2 3d 95 86 36 3e
       0.15253395 0.10312491 0.118175425 0.17824776
000050 bb 09 f8 3d 42 24 0a 3e 87 29 0a 3e 42 4a 23 3e
       0.12111231 0.13490394 0.13492404 0.15946296
000060 73 d0 f6 3d 40 3b 47 3e a3 7e e7 3d 36 b3 df 3d
       0.12051477 0.19456196 0.11303451 0.10922854
000070 57 e2 91 3e b3 e7 1a 3e cb 84 20 3e e2 8c e2 3e
       0.28492996 0.15127449 0.15675656 0.4424811
000080 5d f8 a6 3e 8d 07 27 3e f2 9d 4e 3e 3c a9 02 3e
       0.3261136 0.16311474 0.20177439 0.1275987
000090 aa 6b 27 3e 41 c6 1e 3e 29 c9 fc 3d e7 f4 2e 3e
       0.16349664 0.15505315 0.12343056 0.1708561
0000a0 2a c5 4a 3e c4 0f 0c 3e 8d e3 b4 3e d1 9b 11 3e
       0.19801775 0.13677889 0.35329857 0.14219595
0000b0 b1 61 3a 3e f6 59 5c 3e a7 af c3 3d 21 e4 f1 3d
       0.18201329 0.21518692 0.095549874 0.1181109
0000c0 8f 4a 32 3e cf 6d 88 3e be e0 07 3e 9f a4 c3 3d
       0.17411254 0.26646277 0.13269326 0.09552883
0000d0 c7 69 c7 3d 05 c8 a4 3e 20 98 4e 3e c4 5e 38 3e
       0.09736972 0.32183853 0.20175219 0.180049
0000e0 77 85 9b 3e de d1 fb 3d cc 9e 6f 3e 4c f7 74 3e
       0.30375263 0.12295888 0.2340042 0.23922461
0000f0 39 d3 69 3e 97 d5 0b 3e 12 08 25 3e a6 26 ba 3e
       0.22834481 0.13655697 0.1611636 0.3635761
000100 73 e4 27 3e 48 73 6d 3e 52 c0 20 3e db 6b d8 3d
       0.1639574 0.23188508 0.15698364 0.10567447
000110 1d 10 38 3e 2f 25 f7 3d 93 ef 16 3e 01 02 f6 3d
       0.17974897 0.12067639 0.14739828 0.12012101
000120 5d 8e 0d 3e b8 29 7d 3e b5 89 24 3e 8f 8b c7 3d
       0.13823839 0.24722946 0.16068156 0.097434156
000130 0e 23 0e 3e d4 97 d9 3d 59 db 18 3e fb 05 92 3e
       0.1388056 0.10624662 0.14927424 0.28520188
000140 68 03 f3 3d 9a 36 f9 3d f9 2a 47 3e f8 28 24 3e
       0.11865884 0.121686175 0.19449987 0.16031253
000150 f5 43 1b 3e bc 8e 02 3e fa d7 92 3e b3 1c 76 3e
       0.15162642 0.12749761 0.28680402 0.24034385
000160 85 6e 19 3e 4a 8a dd 3d c4 e5 21 3e be 5b 03 3e
       0.14983566 0.10817392 0.15810305 0.12827966
000170 6c 18 80 3e 56 ca 02 3e 06 f8 2b 3e f0 c5 ee 3d
       0.25018632 0.12772498 0.16793832 0.11658847
000180 a3 a1 07 3e ac 5c ec 3d e5 86 22 3e 40 2b 27 3e
       0.13245253 0.11541113 0.1587177 0.16325092
000190 33 1b 16 3e 73 7b d3 3d 6c a7 0b 3e 59 74 1e 3e
       0.14658813 0.103262804 0.13638085 0.1547407
0001a0 e4 dc f6 3d e5 eb 0b 3e 3c d8 1c 3e b3 ad 21 3e
       0.1205385 0.13664205 0.15316862 0.15788917
0001b0 ad d3 d0 3d 1f 87 6d 3e
       0.10196624 0.23196076

conv2.0.weight f4 [10, 1, 6]
000000 8b f5 77 3e 14 f9 66 be 7b ed 64 3e 9f 32 9f 3e
       0.24214761 -0.22555953 0.22356217 0.31093308
000010 3f 09 9a be a1 05 2a 3c 1a d7 fe 3d 4b 1f d3 bd
       -0.3008518 0.010377319 0.12443371 -0.10308703
000020 99 9d 64 be 35 ea d9 3d b6 73 5d 3e 95 4d b8 3e
       -0.22325744 0.106403746 0.21626171 0.3599669
000030 d5 70 cd be 6e 22 be 3e 6f 59 07 be a6 d5 a6 3e
       -0.40125147 0.37135643 -0.1321771 0.32584876
000040 6c fb 06 be a8 89 ef 3d 13 dc 8f be 9f be d6 be
       -0.13181847 0.11696178 -0.2809759 -0.41942307
000050 7c b5 64 bd 23 ae 97 3c 23 81 be 3e 01 0d a3 3e
       -0.05583714 0.018515652 0.37207898 0.3184586
000060 04 fe 84 3e e2 0f 76 3e 87 e1 d2 3d 33 fc 3c be
       0.2597505 0.24029496 0.10296922 -0.18455581
000070 8c a2 da bc 4c 94 c2 be 17 ee 8a be ff c9 a1 3e
       -0.026688837 -0.38003767 -0.27134773 0.31599423
000080 1f ec 4c 3e 99 bd c5 3e 61 04 7e 3d ae 4e a4 be
       0.20011948 0.38621214 0.062015895 -0.32091278
000090 b7 82 c8 be 08 b5 a4 be e9 7a 44 be 10 27 83 be
       -0.39162228 -0.32169366 -0.19187512 -0.2561574
0000a0 08 e9 e1 be 25 74 38 be 9c b3 d5 bd 5b f2 c4 3e
       -0.441231 -0.18013056 -0.104346484 0.38466153
0000b0 14 14 85 3c be 27 79 3e df a2 97 3e 83 bc b6 3e
       0.016244926 0.24331567 0.29616448 0.35690698
0000c0 e9 a2 f5 bc 22 34 32 3e 48 2e 94 be 6c 4d 7e be
       -0.029984908 0.174027 -0.2894156 -0.24834222
0000d0 fb a9 ba be ed 58 8d 3e 17 01 0e 3e e4 f6 29 3c
       -0.3645781 0.27606907 0.13867603 0.010373805
0000e0 a3 1a 8a 3e 56 0f bb bd 87 2a b4 3e 75 35 9c 3e
       0.26973447 -0.091337845 0.35188696 0.30509534

conv2.0.bias f4 [10]
000000 21 20 6e 3e de ed fa bd 21 ba 6b 3e fe 3b 90 3d
       0.23254444 -0.12252401 0.23020221 0.070426926
000010 be 7a 86 3e 56 e5 1e 3e 05 8c 61 be 97 df 93 3e
       0.2626552 0.15517172 -0.2202607 0.28881523
000020 54 7a 72 be b9 51 4d be
       -0.23679477 -0.20050706

conv2.1.weight f4 [10]
000000 1e 74 96 3f e4 c1 86 3f 3c 45 96 3f a0 63 84 3f
       1.1754186 1.0527921 1.1739879 1.0342903
000010 82 eb 88 3f a9 f4 88 3f f8 ad 80 3f 34 1f 81 3f
       1.0696871 1.0699664 1.0053091 1.0087647
000020 21 fb 89 3f a1 42 82 3f
       1.0779763 1.0176584

conv2.1.bias f4 [10]
000000 7d 7d 1f bb ee 77 42 3c 45 10 9a bc 2b 11 a5 3c
       -0.0024336271 0.011869414 -0.018806586 0.020149788
000010 3b c9 5f 3c c9 6c 07 3d 11 c6 2e bc 97 7d 37 bc
       0.013658817 0.03306273 -0.01066734 -0.011199377
000020 9f b4 a8 bc 52 af 24 3c
       -0.02059394 0.010051565

conv2.1.running_mean f4 [10]
000000 be 8d d1 3f 55 d5 31 40 c0 f7 85 3f 36 58 08 bf
       1.6371381 2.7786458 1.0466232 -0.532596
000010 21 2e 88 3e 34 ef 37 40 81 c8 39 c1 b9 7a 02 41
       0.26597694 2.8739748 -11.611451 8.154962
000020 76 dc 6f c0 be e8 cb 40
       -3.7478309 6.372161

conv2.1.running_var f4 [10]
000000 85 99 8f 3f 02 df 27 40 1f 55 81 3f 84 5f 3f 40
       1.1218725 2.6229863 1.0104102 2.9902048
000010 b0 88 c8 3f e7 d2 28 40 f7 b6 cb 41 d7 7b 4c 41
       1.5666714 2.6378725 25.464338 12.780234
000020 50 c6 4c 40 d5 1f 0c 41
       3.199604 8.7577715

conv2.4.weight f4 [110, 10, 6]
000000 1e 62 aa bc 6d 0f 21 be 26 20 a5 3d 51 52 79 bd
       -0.020798739 -0.1572854 0.080627725 -0.06086952
000010 19 3c 53 3c b6 e9 e4 3c 8f fd 9a bd 19 6c f4 bd
       0.012892746 0.027943473 -0.07567894 -0.119346805
000020 d6 cf 0d be 41 67 27 3e 82 20 3a 3b 02 c9 a0 bd
       -0.13848814 0.16347982 0.0028400724 -0.07850839
000030 43 22 0e bc 9a c6 13 be c3 1e e9 bd c8 c3 d7 bd
       -0.008675161 -0.14431229 -0.113828205 -0.10535389
000040 31 e9 2d be 85 4a 00 be 9a 24 9a 3d b0 b0 10 be
       -0.16983487 -0.12528427 0.075265124 -0.14129901
000050 08 48 f9 bc d5 91 63 ba 87 56 b6 ba 3e 27 28 be
       -0.030429855 -0.00086810935 -0.0013911285 -0.1642122
000060 1f 95 24 3d 56 40 88 3d ea c1 69 bd c5 ad bb 3c
       0.040181275 0.06652896 -0.057069696 0.022910008
000070 3c 9f f4 3d dc 09 9f 3d f4 89 cc bd 28 67 57 bd
       0.11944434 0.077655524 -0.0998725 -0.05258861
000080 42 06 0b be 0b 66 4e be c5 8b 0a bc dd b3 ba 3d
       -0.13576606 -0.20156114 -0.008456175 0.091163374
000090 aa 12 8b bd db 9f cf 3d d9 8a f9 3c 64 c7 5c bd
       -0.06790669 0.10137912 0.030461716 -0.05390109
0000a0 ca f8 b0 ba aa f0 06 3e 5d f6 2c 3d 15 5a 10 be
       -0.0013501879 0.13177744 0.042227138 -0.14096864
0000b0 f0 c4 af bd d2 ed aa bd c7 7f b5 bd ce 1c ea bb
       -0.08582485 -0.08346142 -0.08862262 -0.007144547
0000c0 bb ab a4 bc bb 46 b4 bd f9 16 10 3d 06 8d 0d 3e
       -0.020101419 -0.08802553 0.03517816 0.13823327
0000d0 4e 97 06 be 8f 99 83 3d 3e 64 86 3d 42 cc 52 bd
       -0.13143656 0.06425773 0.065620884 -0.051464327
0000e0 2a 7b cc 3d 60 34 0d 3e 79 5a bc 3c 3f bd af bd
       0.09984429 0.1378951 0.02299236 -0.08581018
0000f0 fb 0d dc 3d 0a 52 87 bd 9f 27 1d be 5a 09 e4 bc
       0.10744854 -0.066074446 -0.15347145 -0.02783649
000100 ce a8 2c 3d af 7d 82 3d 32 b1 ec bd b6 45 b8 bd
       0.042153172 0.063716285 -0.11557235 -0.08997671
000110 d4 d1 f2 3c 1b 73 f6 3c 97 ad dd 3c eb d8 f7 bd
       0.02964107 0.030084183 0.027060313 -0.12101921
000120 5a 32 ec bd 90 87 7e 3d 4d 18 ee bc 56 09 00 be
       -0.11533041 0.062141 -0.029064322 -0.12503561
000130 41 60 b6 3d 6b 19 6f be d9 3b 5a bd f9 01 06 3e
       0.08905078 -0.2334954 -0.05327973 0.1308669
000140 ef 3e 49 bd 0c 5c c1 bd 50 40 1f bd 7d 88 d0 bd
       -0.049132284 -0.09441385 -0.038879693 -0.10182283
000150 9f 26 87 3d b8 75 4b be 7f 23 0d be 4a 88 60 bc
       0.06599163 -0.19869125 -0.13783072 -0.013704369
000160 8e 8a a7 bd 2f 5e 90 bd 0a 37 27 3c b0 97 36 bd
       -0.08180724 -0.07049214 0.010205993 -0.044578254
000170 5c 80 55 be 97 1e 15 3d ec c0 dd 3d a4 cb b8 3d
       -0.20849746 0.036406126 0.108278126 0.09023216
000180 8a a8 9c 3d 2d 91 8a bd b2 da 64 3d 96 f7 f7 3d
       0.07649334 -0.06765971 0.055872627 0.1210777
000190 5a 51 4e be a6 52 51 bd b1 16 ec 3c f0 e5 c3 3c
       -0.2014822 -0.05110421 0.028819414 0.023913354
0001a0 45 4d 92 3d 2a f4 e6 3d f5 12 59 3d a4 3e 58 bc
       0.07143644 0.11277039 0.052996594 -0.013198528
0001b0 7e 99 fb 3d 18 58 6c 3c 15 74 3c be 03 1f 74 3b
       0.12285136 0.0144253 -0.18403657 0.003724993
0001c0 9c 11 20 be b8 e4 14 be 2b 55 0c be 2f ec d3 3b
       -0.15631717 -0.14540374 -0.13704364 0.0064673643
0001d0 15 8c d5 3d 0a 83 2c bd 80 1e bb bd b0 78 b3 3d
       0.10427109 -0.042117156 -0.09136677 0.08763254
0001e0 e2 fb 96 3c 2f 1e c3 3d 2f 88 18 3d b7 8d db bd
       0.018430654 0.095272414 0.03723925 -0.10720389
0001f0 cd 26 30 be e7 b8 ac bc 09 64 d3 3d 43 5a 30 bd
       -0.17202301 -0.021084262 0.103218146 -0.04305483
000200 17 51 73 bc 4d 84 72 3d 80 b4 f7 3d 12 fc 2a 3d
       -0.014850876 0.059208203 0.120949745 0.0417443
000210 17 04 08 3d ba 8f 35 be 3c 94 09 3e 42 4a 8b 3d
       0.033207025 -0.17730609 0.13435453 0.06801273
000220 66 12 a0 bd 93 43 9d bd 27 2a 3f bd d8 98 cb 3c
       -0.07816009 -0.076789044 -0.04667106 0.024853155
000230 e6 f4 a4 bc b5 39 cb bd 05 2a d9 bc d0 45 d8 3d
       -0.020136308 -0.09923116 -0.026509294 0.10560191
000240 01 e4 8e 3d 81 e2 9b 3d dd 96 55 bd b0 6a a6 3b
       0.06977082 0.076115616 -0.052145828 0.005078636
000250 92 8e fc bd d0 3d e7 bd 85 99 e9 bd 90 c2 ed bd
       -0.12331881 -0.11291087 -0.11406235 -0.116093755
000260 e0 2c 26 3c ff e1 0c 3e ae 53 0b 3d 80 56 04 3e
       0.010142535 0.13758086 0.03401535 0.12923622
000270 bf 36 5e 3d eb 2c a0 bd 09 4e 5b 3d 30 7d 87 3b
       0.05425143 -0.078210674 0.053541217 0.0041347966
000280 ed 9d 52 3d a5 ae 1f bd 5f 30 fd 3d cd e4 07 3e
       0.05142014 -0.038984913 0.12362742 0.13270874
000290 1e f9 0c 3e 3d ce cc 3d 98 4b db 3d af 4e 8c bd
       0.13766906 0.10000274 0.10707778 -0.06850945
0002a0 a7 fc 81 bd b8 e0 e9 bd b5 3b 9b bc 07 86 a9 bd
       -0.06347018 -0.11419815 -0.018949369 -0.08277517
0002b0 11 85 d4 3d 55 7a 78 bd 17 cd 9d bd 14 30 d3 3d
       0.10376943 -0.06066354 -0.077051334 0.103119045
0002c0 1f dc b7 bd 87 f2 f1 3c f9 00 b2 3d c0 df 72 3d
       -0.08977532 0.029534591 0.08691592 0.059295416
0002d0 d0 60 88 bd 85 55 64 bd 38 0a 8b 3d b4 f8 d7 3b
       -0.066590905 -0.05574562 0.067890584 0.006590927
0002e0 1a 7c 6d bc 52 12 a9 3d bf 09 28 be b1 c1 6f be
       -0.01449492 0.082554474 -0.16409968 -0.23413731
0002f0 75 43 3b be 42 f7 d9 3d 78 0a 8c 3d 6c 68 f8 bd
       -0.18287452 0.10642864 0.06837934 -0.12129292
000300 f5 f2 13 3e 13 b6 c3 bb b0 ff 05 3e 73 c0 cd 3d
       0.1444815 -0.0059726327 0.13085818 0.100464724
000310 85 89 84 bd ef 5c c1 3d 18 16 93 3d 79 7f ab bd
       -0.06471542 0.09441554 0.071819484 -0.08373923
000320 92 68 39 be 6e 27 ac 3d 93 dc 8f bd 93 40 de bd
       -0.18106297 0.08405958 -0.07024493 -0.1085216
000330 2f e6 3b 3d db cd 9d 3d b5 ca 04 3e d1 d8 46 be
       0.045873817 0.077052794 0.12967952 -0.19418646
000340 6f 52 49 bd 93 16 ce bd 86 d6 1e 3e c8 0a 0b 3e
       -0.04915088 -0.100628994 0.15511522 0.13578331
000350 10 58 97 3d fe d3 ab bd aa 33 00 bd c5 ce 84 3d
       0.073898435 -0.08390044 -0.03129927 0.06484751
000360 d7 8b d0 bd 48 b0 73 be 37 01 3c be 6f 56 3d be
       -0.10182922 -0.23797715 -0.18359838 -0.18490003
000370 27 a5 24 be 13 3e 57 be 18 e7 7d 3c 78 eb 8a bd
       -0.16078626 -0.21019773 0.015496992 -0.06783193
000380 52 32 61 3d 9d 2b 9e bd 2a a4 1f be 02 16 18 be
       0.05497963 -0.07723162 -0.15589967 -0.14852145
000390 34 fd 78 be cc bb 03 be a9 84 9d bb 45 34 ba bb
       -0.2431534 -0.12864608 -0.004807074 -0.0056825005
0003a0 0b 0b 75 be c0 8b 76 be 2f 5c 13 bd 63 be 8d 3c
       -0.23929994 -0.24076748 -0.035976585 0.017302698
0003b0 05 2f 85 bd fd 50 b2 bc cf 6a 1f bd 1a 56 65 bd
       -0.06503109 -0.021767134 -0.03892022 -0.055990316
0003c0 93 be 53 bd c0 8f 10 be 85 79 9e bd b0 2c 7b bd
       -0.051695418 -0.14117336 -0.07738022 -0.061321914
0003d0 f3 22 db 3d 3d 92 ec bd 97 32 25 be 74 e3 0c be
       0.107000254 -0.1155133 -0.1613258 -0.13758641
0003e0 54 e7 27 bd ea 90 96 bb 4b 5d fb 3d 9f f2 07 3d
       -0.040992096 -0.004594912 0.122736536 0.033190366
0003f0 bd e9 92 3d 17 82 67 3d 7a 3b 97 bd 10 d8 d0 bd
       0.07173488 0.056520548 -0.07384391 -0.10197461

conv2.4.bias f4 [110]
000000 d4 28 cb 3d d2 24 aa 3d bb cb bc 3c bc 65 e0 bd
       0.09919897 0.08307804 0.023046365 -0.10956904
000010 01 21 d7 bd 3d 1d 70 bd fc 9d 06 3e fd 03 c1 ba
       -0.10504342 -0.058621634 0.13146204 -0.001472592
000020 e8 de 74 3d 1e 8c 95 bd 1c 24 13 3d 94 e3 ad bd
       0.059782892 -0.07302116 0.03592311 -0.08490673
000030 12 07 86 bc 82 53 e3 bd 4b 45 1d bd 62 6c 85 bd
       -0.016360793 -0.11099912 -0.03839616 -0.06514813
000040 ba 26 0e be f2 d2 75 bd c5 ae 96 3d e9 c5 ac bd
       -0.1388196 -0.060015626 0.073575534 -0.08436186
000050 14 43 af bd 31 8d 84 3d 8d e5 c6 bd ba fb 5d bd
       -0.08557716 0.064722426 -0.09711752 -0.054195143
000060 5e 94 2b 3d 63 e5 b1 bd 0f f0 67 bb d0 ab 37 3c
       0.04188954 -0.0868633 -0.0035390889 0.011210397
000070 28 27 4f 3d 31 9e 82 bd 80 ec 86 3d c9 28 63 3d
       0.05057445 -0.06377829 0.065880775 0.055458818
000080 32 e0 a7 3d f8 7c dd 3d 45 22 2b bd cd 7e 31 3d
       0.08197059 0.108148515 -0.04178073 0.043333817
000090 6b 90 6c bd 12 f5 9f b8 1a d2 8b bc bd 53 95 3d
       -0.057754915 -7.627359e-05 -0.017067958 0.072913624
0000a0 68 cc a5 3d 6c 7e 6a bb 62 d4 0a 3d b0 6e e1 bd
       0.08095628 -0.003578092 0.03389395 -0.1100744
0000b0 3c 9f 9b bd 90 77 db bd f8 de e1 3d e1 8e 45 bd
       -0.07598731 -0.10716164 0.11028856 -0.048231963
0000c0 2a 20 29 3d db ca 29 3d 14 c2 99 3d 9d 70 87 3d
       0.04129044 0.041453224 0.075077206 0.06613276
0000d0 bb af 94 3d 2f a5 ee bb 63 f9 24 be 1d c2 64 3c
       0.072600804 -0.007282875 -0.16110758 0.013962296
0000e0 f9 08 9d 3d f6 b9 ae bd c8 db b7 bd ea 6f e1 3c
       0.07667727 -0.08531563 -0.08977467 0.027519185
0000f0 3f 2c ea bd 59 c9 32 3d 67 84 92 3d 75 3c a6 3d
       -0.114342205 0.04364905 0.0715416 0.08117
000100 28 86 cf bc 23 e2 14 ba cd 33 4d bc cb 24 a5 3d
       -0.025332525 -0.0005679449 -0.012524557 0.08063658
000110 bd fa 4e 3d c2 75 8a bd e5 f1 8a bd 28 eb 90 bd
       0.05053209 -0.06760742 -0.06784419 -0.070761025
000120 9b ad 34 bb 8a 69 9a bc 7f 1c 85 bd 87 c0 9c bd
       -0.0027569297 -0.018849153 -0.06499576 -0.07653909
000130 bb 73 f7 bd 7a 75 48 3d 84 b9 00 3d 34 42 a5 3d
       -0.12082621 0.04894016 0.03142692 0.08069268
000140 b0 09 0a bc f5 3b 3e 3d ea 8f ce bd f0 69 04 3d
       -0.008425161 0.0464439 -0.10086043 0.032327592
000150 6c 67 f0 3c 31 61 e4 bd 94 47 62 bd 33 3f 2a bd
       0.02934619 -0.1115135 -0.055244043 -0.041564178
000160 7c 5d ad 3d 8c 9d 33 bd cf 9a f4 bc aa 7e 0a bd
       0.08465096 -0.04385142 -0.029858975 -0.033812203
000170 79 b5 00 be 9c b9 c7 3d 9a cf fc 3c 0b d7 af 3c
       -0.12569226 0.09752199 0.03086071 0.021464845
000180 7f 6c 9b 3d f1 d3 48 3d a1 e3 f1 3d 39 43 02 3d
       0.07589053 0.049030248 0.11810995 0.03180239
000190 42 70 a4 3c fd 4f 0a 3d e0 68 cb 3c e2 76 38 bd
       0.02007306 0.03376769 0.024830282 -0.04503525
0001a0 eb c0 b4 bd eb fb 9a 3d b8 cf a5 3d 64 72 e7 bd
       -0.08825859 0.07567581 0.0809626 -0.11301115
0001b0 be d2 37 3d 38 12 31 bd
       0.044878714 -0.043230265

conv2.5.weight f4 [110]
000000 15 85 7f 3f c1 4c 84 3f 4b 7d 7f 3f 64 c3 86 3f
       0.9981244 1.0335923 0.99800557 1.0528378
000010 b3 32 85 3f 50 87 80 3f 65 9b 7e 3f 20 6b 77 3f
       1.0406097 1.0041294 0.99455863 0.96647835
000020 dd f6 74 3f a5 9c 7e 3f 95 e0 7b 3f e2 1d 7c 3f
       0.95689183 0.9945777 0.9838956 0.984831
000030 78 c3 80 3f a3 8d 7b 3f 38 4e 78 3f 4e 08 80 3f
       1.0059652 0.98262995 0.9699435 1.0002534
000040 af a8 76 3f e5 a6 7e 3f 72 a9 80 3f 52 8e 7a 3f
       0.9635114 0.9947341 1.0051711 0.97873414
000050 43 5a 80 3f 9f 01 80 3f 05 d0 77 3f 5d 1d 83 3f
       1.0027546 1.0000495 0.9680179 1.0243336
000060 de 24 7a 3f b0 37 81 3f aa e0 78 3f 8b 45 76 3f
       0.97712505 1.009512 0.9721781 0.96199864
000070 e5 0d 7a 3f 66 cf 7a 3f e6 07 76 3f 81 d0 82 3f
       0.9767745 0.97972715 0.961058 1.021988
000080 f4 e5 80 3f a0 1f 85 3f d2 1d 75 3f 3b b6 81 3f
       1.0070176 1.0400276 0.9574863 1.0133737
000090 2f 64 81 3f d5 0d 7d 3f 20 b4 81 3f 6a 91 7c 3f
       1.0108699 0.9884923 1.0133095 0.98659384
0000a0 f8 1e 81 3f cc ca 77 3f e7 53 83 3f b4 71 7e 3f
       1.0087576 0.9679382 1.025998 0.9939225
0000b0 18 d8 7b 3f 6a 84 7b 3f 6b a9 7b 3f 45 4f 81 3f
       0.9837661 0.9824892 0.98305386 1.0102316
0000c0 37 f5 7a 3f e2 fe 88 3f ff 4b 79 3f f7 5a 81 3f
       0.9803042 1.0702784 0.97381586 1.0105885
0000d0 dc 3d 7c 3f 87 24 7c 3f d2 bc 6f 3f 06 29 76 3f
       0.9853189 0.98493236 0.9364749 0.96156347
0000e0 09 3a 7c 3f f8 07 7f 3f 09 6d 77 3f e8 66 7e 3f
       0.98526055 0.99621534 0.9665075 0.9937577
0000f0 06 b3 78 3f 8c 95 7a 3f fd 7b 75 3f f6 d9 86 3f
       0.9714817 0.9788444 0.95892316 1.0535266
000100 d7 5c 7d 3f fd f1 75 3f 42 ff 74 3f 0d 53 7b 3f
       0.9896979 0.9607237 0.9570199 0.981736
000110 2f 2c 7a 3f 01 6f 78 3f 22 0a 7b 3f 87 a1 7c 3f
       0.9772367 0.9704438 0.98062336 0.9868397
000120 d2 76 7a 3f 21 01 81 3f e3 bb 81 3f ab e3 7a 3f
       0.97837555 1.007847 1.0135463 0.98003644
000130 1a 67 85 3f 35 3e 80 3f 4d 65 7f 3f 35 ae 7e 3f
       1.0422089 1.0018984 0.9976395 0.9948457
000140 96 e9 74 3f 01 74 7f 3f f6 00 74 3f fc 69 73 3f
       0.95668924 0.9978638 0.95313966 0.95083594
000150 35 3a 79 3f 4e 80 7c 3f b3 a7 79 3f 50 00 7c 3f
       0.9735444 0.9863328 0.97521514 0.98437977
000160 0e 31 81 3f bb 64 83 3f 8b a9 80 3f ba 29 77 3f
       1.0093095 1.0265115 1.005174 0.96548045
000170 81 a9 7a 3f ce 8f 77 3f a3 57 7c 3f 7d c6 7c 3f
       0.9791489 0.96703804 0.98571223 0.9874037
000180 64 96 81 3f 52 ad 7f 3f fa 1f 7d 3f e7 94 7a 3f
       1.012402 0.9987384 0.9887692 0.97883457
000190 60 16 7f 3f db 54 7b 3f 8a 30 7c 3f 77 15 7f 3f
       0.99643517 0.98176354 0.98511565 0.9964213
0001a0 da b7 78 3f 64 3e 7a 3f 4f bd 7c 3f f1 4d 80 3f
       0.97155535 0.9775145 0.9872636 1.0023786
0001b0 48 ce 80 3f 7b e1 82 3f
       1.0062952 1.0225061

conv2.5.bias f4 [110]
000000 23 12 49 bc 15 54 fa 39 7b 7c d1 3b 2c 5d 28 bd
       -0.012272391 0.00047746362 0.006393013 -0.04110448
000010 fb 8e ad bb f6 e0 e0 bb 41 53 0e 3c 5e 06 b0 bc
       -0.0052965856 -0.006862755 0.008686841 -0.021487411
000020 df 98 0d bd c2 2b 7b bb 3a 50 0a bc e3 ca 85 bc
       -0.034569617 -0.0038325642 -0.008441979 -0.016332095
000030 b8 99 a8 b9 be e7 82 bc 65 4d d7 bb eb 66 19 bc
       -0.00032157986 -0.015979644 -0.0065705054 -0.009362916
000040 a8 d3 9f bc 61 8f ab bb 31 3d 52 bc 6a 1e 97 bc
       -0.019510105 -0.005235598 -0.012831972 -0.01844712
000050 a4 fd e7 bb 0e 49 d8 bc be de b5 bc 61 28 34 bc
       -0.007079797 -0.026402023 -0.022200938 -0.010995955
000060 db 20 9d bc af d9 52 bc 48 bf bc bb 68 cc a0 bc
       -0.019180706 -0.012869283 -0.005760107 -0.019628718
000070 2c 67 04 bd 7c 44 91 bb 85 1c 81 bc 90 e4 ee bb
       -0.032324955 -0.004433213 -0.01576067 -0.0072904304
000080 8f f9 a1 bc 3b 08 1e bc 8c 6a c3 bb 28 81 ce 3c
       -0.01977232 -0.009645517 -0.005963629 0.02520807
000090 3c a8 1e bd e5 ce 2f bc 03 a1 dc bc bf bc 2c bb
       -0.03873466 -0.01073048 -0.026932245 -0.0026357619
0000a0 d0 a8 26 3c 60 d1 99 bc 5c 7a a6 3a 44 09 f7 bb
       0.010172084 -0.018776596 0.0012701261 -0.0075389463
0000b0 47 49 64 bc 79 86 aa bc 92 72 ac bb ff e1 7d bc
       -0.013933486 -0.020816075 -0.0052626813 -0.015495776
0000c0 a1 86 d3 bb 4b 6a 82 3c 20 2e 44 bc 60 ca e4 3a
       -0.006455258 0.015919825 -0.011973888 0.0017455332
0000d0 44 93 58 bc 55 51 d2 bc 2d 0c 43 bd 51 7e 18 bd
       -0.013218705 -0.025673548 -0.047619034 -0.03722984
0000e0 c8 7b 9b bc bb 6d 30 bc c9 ec 03 bd 37 b2 b2 bb
       -0.018979922 -0.010768349 -0.032208238 -0.005453374
0000f0 41 02 0b bd 74 af 1f bc 8d 02 b2 bc 54 4f ee bb
       -0.033937696 -0.009746421 -0.021729732 -0.0072726402
000100 3f 63 01 bc 3b d8 27 bc d8 7a 99 bc 90 04 0c 3c
       -0.007897197 -0.010244424 -0.018735334 0.00854601
000110 fc 71 59 bb da 5a 5a bc e4 51 95 bb 14 99 0b bc
       -0.0033179512 -0.013327325 -0.0045568813 -0.008520383
000120 85 86 34 bc 4d 74 be bb a3 04 31 bc c1 d8 a4 bb
       -0.0110184 -0.005812204 -0.010804328 -0.005030722
000130 09 fd f0 b9 de 66 31 bc ba 6b e4 bb 8b b2 3a bc
       -0.00045964893 -0.010827748 -0.00697085 -0.011395107
000140 2c f2 1f bd 54 fd b2 bc 0f 76 fa bc 64 ca c6 bc
       -0.039049312 -0.021849312 -0.030573873 -0.02426643
000150 8b 1c 93 bc 5a 25 13 bc ac 63 79 bc 7a 8c 3b bc
       -0.017957946 -0.008981073 -0.0152215175 -0.011447066
000160 f0 35 1d ba 0a f7 d6 bb c9 6d 67 bb 63 06 5d bc
       -0.0005997112 -0.006560211 -0.003531324 -0.013490292
000170 a5 06 eb bb f6 6e fd bb a6 1c f5 bb 5b 67 3b bc
       -0.007172423 -0.007734175 -0.007480222 -0.011438216
000180 7c 8d 12 3b 11 f1 80 ba c8 7b b6 bb a9 73 71 bb
       0.0022362163 -0.0009837468 -0.005568955 -0.003684262
000190 2c be 03 bd 25 81 71 bc 32 69 64 bc 91 78 a1 bc
       -0.032163784 -0.014740263 -0.013941096 -0.01971081
0001a0 23 71 bc bc cf 18 c4 bc 47 16 c1 bc 85 3c df bb
       -0.023003167 -0.02393761 -0.023570193 -0.0068126344
0001b0 ed ff d6 bb 3c ef b0 bb
       -0.0065612704 -0.0053996127

conv2.5.running_mean f4 [110]
000000 e3 b9 a3 be 6f f1 38 3e bf 91 0d 3e 6b 8e 6e be
       -0.31977758 0.1806085 0.13825129 -0.23296516
000010 3f 92 42 bf 8d 23 97 3d d5 28 aa 3d 01 3d 00 3c
       -0.76004404 0.07379828 0.08308569 0.007827044
000020 7e ab a9 bd 49 64 98 3d 92 d8 5c be aa 9d 08 bf
       -0.08284663 0.07441003 -0.2156699 -0.53365576
000030 99 ca 87 be 60 69 69 be c5 b6 8c be 8a 8c 48 bd
       -0.26521757 -0.22794104 -0.27483192 -0.048962153
000040 d4 83 f6 bd 73 28 01 be c9 e8 f1 bd fb 5c 6a bd
       -0.12036863 -0.12613086 -0.11811978 -0.05721758
000050 48 c8 d3 3d 64 e1 8f bd f1 f0 25 be 4f 1e ba 3c
       0.10340935 -0.07025412 -0.16205193 0.02271953
000060 7b 07 83 3e 99 b7 67 be da ca 10 3e 8f 73 57 3e
       0.25591645 -0.2262863 0.14139882 0.21040176
000070 15 d5 ca 3e dd 6a 84 be 2d 23 81 3e 4f e0 dc bd
       0.39615694 -0.2586278 0.2522215 -0.10784971
000080 61 c9 5b 3e 49 da 81 3d d7 ed 3d 3e b4 9a 6d 3e
       0.21463539 0.06340463 0.1854776 0.23203546
000090 85 9a 49 be 18 a4 f0 3d dc 0a f4 be 72 3d ce be
       -0.19687851 0.117500484 -0.47664535 -0.40281254
0000a0 5d 7b f2 3c 8b 33 b2 3e d5 ba 1b bc a9 29 42 be
       0.02959984 0.3480495 -0.009504993 -0.18961205
0000b0 97 90 89 3c 8e 08 93 bd c0 5b c1 3d 34 f3 cc 3d
       0.016792579 -0.07179366 0.09441328 0.10007325
0000c0 bc a8 56 3e 00 e4 12 be 06 17 0a 3e ff a2 9b bc
       0.20962805 -0.14344788 0.13485345 -0.018998621
0000d0 27 98 2a 3e 7b 13 ee 3d 2c a9 99 be 37 1c 67 be
       0.16659604 0.11624809 -0.3001188 -0.22569357
0000e0 47 b4 2a 3e 8f 79 41 be c3 8a f8 bc a8 9e 96 bd
       0.16670333 -0.18894027 -0.030339604 -0.0735448
0000f0 3d 02 91 bd 45 5c 15 bc 38 0a 37 3e 6e ae 87 3e
       -0.07080505 -0.009116237 0.17874992 0.26500267
000100 2b 01 9b 3e 56 22 89 bd 4c ad 9d be b9 42 63 3d
       0.3027433 -0.06696002 -0.30796278 0.055483554
000110 c8 3d 19 be ac 0e 0e bd aa 4d 22 be 62 9f 85 be
       -0.14964974 -0.03468196 -0.15849939 -0.26098162
000120 df 9e f5 3d 5c 72 b3 3e 05 4d e6 be 85 d1 df 3d
       0.11993193 0.35048187 -0.44980636 0.109286346
000130 f8 f3 cc be 6e 90 82 3e 2c b9 c2 3e be 87 3c 3e
       -0.40029883 0.25500816 0.380319 0.18411157
000140 1c e7 42 3e a6 98 5a bd 49 ad f0 3d e9 ae 48 3e
       0.19033474 -0.053368233 0.117518015 0.19597973
000150 ed 70 55 3e 3b 9a 04 bf ac b8 11 bc 82 9e 72 3e
       0.20843859 -0.51797837 -0.008894127 0.23693278
000160 c3 f4 37 3e 9a da f5 3b ff c8 e1 be ab 11 27 be
       0.17964463 0.007502866 -0.4409866 -0.16315334
000170 10 7b 51 be 8b 26 b6 3e 6d 71 d0 bd fa 94 33 bd
       -0.20457101 0.3557628 -0.10177884 -0.043843247
000180 d7 99 af 3d c3 29 85 3e fa 99 bd 3e b6 f7 1a 3f
       0.085742645 0.26008424 0.37031537 0.60534227
000190 ab 54 d6 3d 33 71 93 3d d9 41 98 3e ec 05 4b be
       0.10465368 0.071993254 0.29737738 -0.19826478
0001a0 ab fa 9b bc e9 be e9 3e da ca 84 3e 32 1e 0e 3e
       -0.019040426 0.45653465 0.25936013 0.13878706
0001b0 0d c3 fd 3b 1d 5f b3 bd
       0.007744199 -0.08758376

conv2.5.running_var f4 [110]
000000 c5 47 97 3e 6b aa 47 3e 16 7d 93 3e 24 ae e2 3e
       0.29546943 0.19498603 0.2880637 0.44273484
000010 87 52 60 3e 31 cd d6 3d d3 c1 48 3e 0a 6a 1c 3e
       0.21906482 0.10488356 0.19605188 0.15274826
000020 1e a0 5d 3e a7 10 62 3e 29 47 2f 3e 8f d3 8e 3e
       0.21643111 0.22076665 0.17116989 0.2789578
000030 d9 86 30 3e 3e d0 26 3e 17 14 42 3e e2 9f 5d 3e
       0.1723894 0.16290376 0.18952976 0.21643022
000040 6c 6f 14 3e 6c 1e 2d 3e b7 d1 17 3e b9 0c 2d 3e
       0.14495629 0.16906136 0.14826094 0.16899385
000050 3c 8b 24 3e ae 76 32 3e 2a d0 d5 3e bc 38 02 3e
       0.16068739 0.17428085 0.4176038 0.12716955
000060 67 f1 85 3e 33 63 12 3e c0 29 37 3e ea 86 45 3e
       0.26160738 0.14295654 0.1788702 0.19289747
000070 b8 b5 40 3f 9c 1f 30 3e 9a 10 33 3e c8 43 5b 3e
       0.7527728 0.17199558 0.17486802 0.21412575
000080 3e 8e 38 3e 28 75 4c 3e 34 6a 25 3e 68 33 8d 3e
       0.18023011 0.19966567 0.16153795 0.27578282
000090 14 6c 10 3e 54 45 6e 3e 44 b5 58 3e 64 66 47 3e
       0.14103729 0.23268634 0.21162897 0.19472653
0000a0 aa 2f 6f 3e 23 d1 b2 3e d5 bd 82 3e c6 cb 57 3e
       0.23358026 0.34925184 0.25535455 0.21073827
0000b0 cb b7 01 3e a1 da 2e 3e 23 1d 66 3e 23 d6 21 3e
       0.12667768 0.17075588 0.22472052 0.15804343
0000c0 5e 62 3c 3e 7a fc 43 3e 0b ed 38 3e 00 d9 2a 3e
       0.18396899 0.19139281 0.18059175 0.16684341
0000d0 4e 29 00 3e 1f 5e 11 3e 13 c2 a1 3e 3e 2c 82 3e
       0.12515756 0.1419606 0.3159338 0.2542438
0000e0 2e 99 3f 3e ed 15 4c 3e e7 f1 61 3e af 1f 3f 3e
       0.18710777 0.19930239 0.22064935 0.1866443
0000f0 cd 45 0b 3e 1a 5a 1a 3e c2 cd 3f 3e d5 fb 13 3e
       0.13600846 0.15073434 0.18730834 0.14451535
000100 98 e7 7c 3e 9a ac af 3e 42 52 49 3e 66 65 3c 3e
       0.24697721 0.34311372 0.19660285 0.18398055
000110 ab cb 24 3e b3 db 5e 3e d1 93 79 3e 6c 86 2b 3e
       0.16093318 0.21763496 0.24372794 0.16750497
000120 74 36 01 3e fa c8 51 3e 6e 25 39 3e 64 8a 8a 3e
       0.12618428 0.20486823 0.18080685 0.2705871
000130 0d c8 2b 3e 26 59 1b 3e a8 a9 56 3e 5f b5 2d 3e
       0.16775532 0.15170726 0.20963156 0.16963719
000140 25 69 07 3f 45 76 33 3e fb d2 18 3e 2d 52 1c 3e
       0.5289481 0.17525585 0.14924233 0.15265723
000150 09 9d 1a 3e 79 94 51 3e 3d 75 7d 3e e7 a5 3d 3e
       0.15098967 0.20466794 0.24751754 0.18520318
000160 d1 36 1b 3e ca af 46 3e 7e 8c 88 3e 74 e2 4f 3e
       0.1515763 0.19402996 0.26669687 0.20301229
000170 bf 9b 62 3e 9b ba 74 3e 58 57 22 3e 30 4a 5e 3e
       0.22129725 0.2389931 0.15853631 0.21707988
000180 77 61 b6 3e b2 e4 41 3e 1e 03 88 3e e2 d0 09 3f
       0.35621235 0.18934897 0.26564878 0.53834355
000190 52 4f ba 3e fe 79 71 3e 6f ea 7d 3e 96 d4 11 3e
       0.36388642 0.23581693 0.2479646 0.14241251
0001a0 ef 19 50 3e 47 5d 7d 3e 3f 75 88 3e d1 f7 99 3e
       0.20322393 0.24742614 0.26651952 0.3007188
0001b0 07 77 2e 3e c4 62 3e 3e
       0.17037593 0.18592364
