model/rpssm_k5_model.ckpt (torch, 185371 bytes, 40 tensors)

conv1.0.weight f4 [10, 1, 3]
0.07791403 -0.11598478 -0.2618395 0.50021726 -0.31161395 -0.4408629 -0.08142582 0.51815546
0.4504421 0.5300028 0.40198538 -0.32156193 -0.36766773 0.5106334 -0.42908615 -0.55854297
0.47462702 0.29039222 -0.18846706 0.5270622 -0.5177376 -0.130087 0.42301267 -0.4305951
0.52492386 0.005492419 -0.50908065 0.38887995 -0.52618825 0.15417282
00000000: 6491 9f3d 6e89 edbd d40f 86be 3d0e 003f
00000010: dd8b 9fbe c8b8 e1be 95c2 a6bd d6a5 043f
00000020: 59a0 e63e 43ae 073f 07d1 cd3e c4a3 a4be
00000030: f23e bcbe dfb8 023f 2eb1 dbbe acfc 0ebf
00000040: 5002 f33e 4aae 943e 82fd 40be 8ced 063f
00000050: 748a 04bf 8735 05be 1e95 d83e f676 dcbe
00000060: 6961 063f c0f9 b33b 1c53 02bf 461b c73e
00000070: 46b4 06bf 7bdf 1d3e

conv1.0.bias f4 [10]
-0.32819238 0.32585564 0.33841673 0.54163903 -0.40025353 0.28727296 0.44456786 0.29019177
-0.054375026 -0.47527334
00000000: d508 a8be 8dd6 a63e f544 ad3e dba8 0a3f
00000010: 08ee ccbe 7115 933e 669e e33e 0494 943e
00000020: 59b8 5ebd 0757 f3be

conv1.1.weight f4 [10]
1.0385777 1.0023483 1.0435401 0.99422747 1.0032095 1.0134252 0.9618077 0.96644133
1.0214905 1.0262505
00000000: 1df0 843f f34c 803f b992 853f b185 7e3f
00000010: 2b69 803f ebb7 813f 0839 763f b368 773f
00000020: 33c0 823f 2d5c 833f

conv1.1.bias f4 [10]
-0.010208231 0.0030733894 -0.042968057 0.022824826 0.032510996 0.008793524 0.0036132676 -0.011559252
0.022689922 -0.0064143934
00000000: 6d40 27bc eb6a 493b 46ff 2fbd 21fb ba3c
00000010: 402a 053d b612 103c 92cc 6c3b 0463 3dbc
00000020: 37e0 b93c d52f d2bb

conv1.1.running_mean f4 [10]
-1.9962301 -1.4428256 7.0064883 4.54753 -2.4576683 2.3583643 -1.4909319 -0.6435596
-0.249176 -0.44486946
00000000: 7884 ffbf 82ae b8bf 2735 e040 5e85 9140
00000010: 704a 1dc0 71ef 1640 dbd6 bebf 52c0 24bf
00000020: fe27 7fbe eec5 e3be

conv1.1.running_var f4 [10]
0.7268744 2.1892378 9.362859 4.733954 2.041985 2.3129892 2.1167867 1.117057
1.7768975 0.90850425
00000000: 7114 3a3f 791c 0c40 45ce 1541 8d7c 9740
00000010: e2af 0240 0408 1440 6f79 0740 b9fb 8e3f
00000020: 6171 e33f bc93 683f

conv1.4.weight f4 [110, 10, 3]
0.020923365 -0.19072054 0.06315868 0.034398515 -0.20187655 0.07393383 0.0042979605 -0.16359472
-0.15278299 0.04641051 -0.15556449 -0.1680214 0.036646675 -0.18964651 -0.06662791 0.04066678
0.07928837 -0.0047120345 -0.006193754 -0.041430876 0.06534555 -0.13187803 -0.12559444 0.11181204
-0.0072233346 -0.14957838 -0.020193134 -0.08902866 -0.07315947 -0.03642763 -0.018134454 -0.16470446
-0.13535279 -0.08083652 0.19537915 0.14021528 0.08518477 -0.049133863 -0.13660297 0.04166511
-0.16041602 -0.058640487 0.12209003 -0.030749358 -0.07589881 0.12300127 -0.11311271 -0.1344954
0.04942996 -0.01587421 -0.03545091 0.093889214 -0.07565091 0.14124793 0.15450275 -0.03516181
0.07609286 -0.040834505 -0.16612503 -0.061585948 -0.11179918 0.013877109 0.103912935 -0.055339396
-0.07908493 -0.038595043 0.069019966 0.025087066 -0.13803345 -0.013888672 0.12186094 -0.052652698
0.08444099 -0.013263892 0.103433646 -0.033760786 -0.0898253 0.1161608 0.08516602 -0.13507506
0.08103381 0.15854016 0.005745679 0.09344685 0.04898284 -0.09225357 0.02159742 0.05027931
-0.15789272 -0.12753364 -0.09637213 -0.012983984 -0.030591529 -0.05284329 0.06383173 -0.053646546
-0.09412983 -0.1785477 -0.092539184 0.028057378 -0.08582651 0.093652435 0.038975257 -0.13006064
0.11695316 0.033600822 -0.04063902 -0.07800135 0.044578433 0.035405997 0.042554643 -0.09578521
0.16863729 0.03796013 0.1691693 0.06015799 -0.060942747 -0.15246049 -0.16666235 -0.07770811
-0.14134653 -0.010081913 0.019819796 0.06421632 0.067918085 0.07336106 -0.16117944 -0.09127432
-0.10199796 -0.070618525 0.016508639 -0.053049468 -0.0065160436 0.1610103 0.11790616 -0.26162484
-0.121527605 0.022406034 0.1221387 -0.00791516 0.0650198 0.012009218 0.0036383958 0.14884345
0.08398607 -0.1812009 -0.012690925 0.1202384 -0.17823467 -0.010682271 0.048967067 0.121833034
-0.04362463 -0.022561569 0.124482594 0.16639641 -0.056138955 -0.065358944 -0.026904231 0.15627204
0.11899802 -0.13258757 -0.07707842 0.11067431 0.14167649 0.037169363 -0.16331105 0.00085924705
0.15400583 -0.044013716 0.0847925 0.12246248 -0.18838538 -0.11932439 -0.029530408 -0.09123604
0.08704354 0.0726685 0.12259189 0.08465561 0.15039395 -0.14899378 0.023286344 0.036712628
-0.09089319 -0.07221044 -0.19335751 0.041463405 -0.14863843 0.13643977 0.0049402057 0.12542221
-0.14684908 -0.03256811 -0.066138946 -0.030559953 0.019033631 0.07955166 -0.15756592 0.009069613
-0.15882732 -0.20643218 0.11498136 -0.17512645 0.048202977 0.030715175 0.17006257 -0.051203016
0.1298374 -0.072707385 0.1307433 0.0403594 -0.24661504 0.10229676 -0.18392171 -0.14928539
-0.16173151 -0.16848703 0.14901683 0.0016593859 0.07567699 0.118413635 0.0023858987 0.14958082
-0.104727216 -0.28474864 -0.076202504 -0.042164717 -0.07350798 -0.028443743 -0.085400224 0.14162749
0.038893417 -0.118795805 0.05433775 -0.13101994 0.1974081 0.1523179 0.11315073 -0.033086654
-0.09188537 -0.0043165213 -0.1665801 -0.13581681 0.06321886 0.024967657 0.0185387 -0.13897543
0.09202396 -0.12777276 -0.08321816 0.11004875 0.074362844 -0.06764375 -0.018687192 -0.101535566
00000000: 7a67 ab3c 3f4c 43be 5759 813d 75e5 0c3d
00000010: bab8 4ebe 9f6a 973d e8d5 8c3b 6085 27be
00000020: 2573 1cbe f218 3e3d 4c4c 1fbe cd0d 2cbe
00000030: d31a 163d b232 42be 3774 88bd 3692 263d
00000040: f161 a23d 6967 9abb f9f4 cabb 6cb3 29bd
00000050: e3d3 853d 090b 07be d49b 00be b6fd e43d
00000060: b9b1 ecbb 132b 19be 126c a5bc a854 b6bd
00000070: a2d4 95bd 2335 15bd b58e 94bc 49a8 28be
00000080: ec99 0abe 9e8d a5bd 7911 483e 9894 0f3e
00000090: 5a75 ae3d 9740 49bd a6e1 0bbe 09a9 2a3d
000000a0: 1944 24be 0231 70bd 560a fa3d 14e6 fbbc
000000b0: d670 9bbd 17e8 fb3d a3a7 e7bd 2ab9 09be
000000c0: 1277 4a3d a20a 82bc f934 11bd fd48 c03d
000000d0: ddee 9abd 4ca3 103e f835 1e3e d505 10bd
000000e0: 93d6 9b3d 1542 27bd ae1c 2abe 8c41 7cbd
000000f0: f8f6 e4bd d05c 633c 4ed0 d43d 90ab 62bd
00000100: 48f7 a1bd d615 1ebd 575a 8d3d 6483 cd3c
00000110: a458 0dbe 508d 63bc 3a92 f93d 5baa 57bd
00000120: 66ef ac3d cc50 59bc 05d5 d33d c048 0abd
00000130: 54f6 b7bd b7e5 ed3d 866b ae3d 1e51 0abe
00000140: 0ef5 a53d 5a58 223e 4046 bc3b 1061 bf3d
00000150: 3ba2 483d 71ef bcbd 13ed b03c aef1 4d3d
00000160: a1ae 21be 2e98 02be c05e c5bd c7ba 54bc
00000170: 169b fabc 3572 58bd 36ba 823d 7bbc 5bbd
00000180: 24c7 c0bd 35d5 36be 2f85 bdbd 96d8 e53c
00000190: cfc5 afbd d9cc bf3d 85a4 1f3d 9e2e 05be
000001a0: 2385 ef3d 04a1 093d 1a75 26bd 2cbf 9fbd
000001b0: e097 363d e105 113d c74d 2e3d 092b c4bd
000001c0: 41af 2c3e 157c 1b3d b83a 2d3e 3968 763d
000001d0: 1a9f 79bd 9a1e 1cbe 89a9 2abe 6e25 9fbd
000001e0: 25bd 10be 9c2e 25bc 205d a23c d983 833d
000001f0: a318 8b3d 533e 963d 390c 25be 08ee babd
00000200: 4ee4 d0bd 72a0 90bd 203d 873c 664a 59bd
00000210: 8984 d5bb e2df 243e c978 f13d b1f3 85be
00000220: 77e3 f8bd dc8c b73c db23 fa3d 96ae 01bc
00000230: 1a29 853d 50c2 443c 2772 6e3b 6b6a 183e
00000240: e300 ac3d bb8c 39be 99ed 4fbc 8d3f f63d
00000250: 2683 36be b104 2fbc b191 483d 9983 f93d
00000260: bdaf 32bd 0ad3 b8bc bbf0 fe3d d263 2a3e
00000270: f6f1 65bd e9da 85bd 4366 dcbc c705 203e
00000280: 3cb5 f33d 09c5 07be 4adb 9dbd 36a9 e23d
00000290: a413 113e e73e 183d 033b 27be 183f 613a
000002a0: b4b3 1d3e ba47 34bd b1a7 ad3d 9ccd fa3d
000002b0: 19e8 40be 5960 f4bd c1e9 f1bc f6d9 babd
000002c0: e243 b23d 39d3 943d 7511 fb3d ec5f ad3d
000002d0: df00 1a3e d391 18be 01c3 be3c fb5f 163d
000002e0: 3526 babd 11e3 93bd 83ff 45be 88d5 293d
000002f0: ac34 18be deb6 0b3e 73e1 a13b ae6e 003e
00000300: 9b5f 16be 2366 05bd db73 87bd de58 fabc
00000310: 6bec 9b3c fbeb a23d f658 21be b798 143c
00000320: a1a3 22be f562 53be 597b eb3d 5954 33be
00000330: 7c70 453d 649e fb3c e224 2e3e 41ba 51bd
00000340: 18f4 043e 9ce7 94bd 92e1 053e e64f 253d
00000350: a788 7cbe f780 d13d f955 3cbe 45de 18be
00000360: f29c 25be dd87 2cbe de97 183e c07f d93a
00000370: 8afc 9a3d d982 f23d bd5c 1c3b b72b 193e
00000380: 397b d6bd 93ca 91be 0f10 9cbd e9b4 2cbd
00000390: 5a8b 96bd da02 e9bc 50e6 aebd cc06 113e
000003a0: b44e 1f3d 374b f3bd 4391 5e3d 172a 06be
000003b0: 5925 4a3e 39f9 1b3e 92bb e73d df85 07bd
000003c0: 662e bcbd 9b71 8dbb f993 2abe 9013 0bbe
000003d0: e478 813d f988 cc3c 79de 973c 934f 0ebe
000003e0: 0f77 bc3d ddd6 02be 486e aabd 3d61 e13d
000003f0: 8c4b 983d ce88 8abd e215 99bc e1f1 cfbd

conv1.4.bias f4 [110]
0.06306175 0.028336944 -0.17174019 -0.022079492 -0.09369551 -0.024011746 0.11045999 0.06517658
-0.0029772627 0.03729809 0.019655196 0.14875312 0.12722386 -0.18270513 0.13878897 0.1173745
-0.13076235 -0.13956848 -0.17894374 -0.10985583 -0.063669525 -0.13578877 0.1134909 -0.03843233
0.06745178 -0.0034529625 0.14263022 -0.17170747 0.12877962 0.13047862 -0.11893156 0.024876075
-0.11760682 0.07223649 -0.09064763 -0.0008925413 0.11605858 -0.031190034 -0.10649681 0.048725385
-0.089940496 -0.001275004 0.016312383 -0.064055294 -0.008282603 -0.16695413 0.071487315 -0.17790426
0.040190954 -0.14372124 -0.07335378 -0.019166792 -0.16051058 0.08750113 0.1422561 0.038478386
-0.10936864 -0.0636646 0.11464073 0.14905185 0.17367461 0.057055444 0.1812255 -0.06578841
-0.020518143 -0.19011016 -0.11104292 0.10894328 0.054266296 -0.024257366 -0.1311824 0.04586318
-0.1417294 0.034625124 -0.0039844746 -0.13089833 -0.03814006 0.025077175 0.048657365 0.05725811
0.040572844 0.15366925 0.0027315905 -0.18994348 -0.013026204 0.16653839 0.07736289 -0.113789365
-0.08358729 -0.023336625 -0.11972821 0.023221932 0.08473253 -0.2002799 -0.17307982 0.04268935
-0.17958027 0.04183655 -0.18815467 -0.0470766 -0.036197253 0.050685257 -0.00151509 0.07049326
0.13133095 0.063786395 0.015309904 0.16978934 -0.13532493 0.11751391
00000000: 8526 813d e122 e83c a9dc 2fbe 0de0 b4bc
00000010: 6ee3 bfbd 48b4 c4bc d938 e23d 4c7b 853d
00000020: 2e1e 43bb e2c5 183d ef03 a13c bd52 183e
00000030: f946 023e 0e17 3bbe b21e 0e3e 0b62 f03d
00000040: 91e6 05be 0aeb 0ebe 073d 37be 18fc e0bd
00000050: 2b65 82bd 360c 0bbe eb6d e83d 386b 1dbd
00000060: 2924 8a3d 194b 62bb a80d 123e 15d4 2fbe
00000070: cede 033e 309c 053e 6492 f3bd e9c8 cb3c
00000080: d8db f0bd baf0 933d 77a5 b9bd 6ff9 69ba
00000090: 1fb0 ed3d 3e82 ffbc 001b dabd 4594 473d
000000a0: b932 b8bd 091e a7ba 8ca1 853c 6c2f 83bd
000000b0: c1b3 07bc 06f6 2abe f167 923d 892c 36be
000000c0: 459f 243d a92b 13be 823a 96bd ad03 9dbc
000000d0: e35c 24be cb33 b33d 95ab 113e 839b 1d3d
000000e0: aafc dfbd 9662 82bd c2c8 ea3d 0ca1 183e
000000f0: c2d7 313e f8b2 693d 2d93 393e 13bc 86bd
00000100: aa15 a8bc 3dac 42be 786a e3bd a81d df3d
00000110: 5646 5e3d 62b7 c6bc ae54 06be 08db 3b3d
00000120: 8321 11be 13d3 0d3d 3290 82bb 360a 06be
00000130: c038 1cbd a66e cd3c f24c 473d 7b87 6a3d
00000140: b62f 263d 795b 1d3e 7c04 333b 8b80 42be
00000150: dc6b 55bc 0a89 2a3e 6f70 9e3d 660a e9bd
00000160: d02f abbd 732c bfbc 1034 f5bd ec3b be3c
00000170: 4088 ad3d 2d16 4dbe d63b 31be 07db 2e3d
00000180: e4e3 37be cd5c 2b3d 9eab 40be 65d3 40bd
00000190: 9243 14bd 589b 4f3d fc95 c6ba c55e 903d
000001a0: 9f7b 063e 71a2 823d 64d6 7a3c 42dd 2d3e
000001b0: 9e92 0abe 22ab f03d

conv1.5.weight f4 [110]
0.96908367 0.9466731 0.95300525 0.96765447 0.9684148 0.9652723 0.97068524 1.0251398
0.9459846 0.9554826 0.9677059 1.0079818 0.9785609 0.9698544 0.9998611 1.0021173
0.97485334 1.0218487 1.005711 0.9675493 0.9758165 1.0120784 0.99669075 0.9984768
0.99920297 0.98938054 1.0042065 0.994395 0.98124367 0.9578203 1.0056837 1.0001822
0.96236974 1.0337766 0.98318243 0.97848475 0.9798325 0.95254296 0.98697114 0.9959105
0.9841137 0.9526168 1.0250454 0.9905763 0.95256305 0.990718 0.9896306 0.9694419
0.9625811 0.9846071 0.9982707 1.0026718 1.0099978 0.9702566 0.979859 0.9656849
0.95961565 0.95499533 0.9875434 0.9673014 1.0019921 0.97089887 0.9856587 0.9862296
0.9441275 0.98626596 1.0008366 0.99229896 0.99691385 0.9503632 1.0250118 0.9542354
0.98413306 0.9535957 1.0269649 0.9756039 0.98259664 0.96045786 1.0023383 0.9856031
1.0118266 0.99471885 0.96303326 0.99847984 0.9800591 0.9936148 0.97906 1.0161304
0.98702097 0.9598366 0.98108137 1.0029464 0.9742519 0.9563652 0.99144584 0.96381456
0.9629686 0.9688392 0.9524039 0.97121006 0.96823055 0.9748113 1.0230497 0.9775082
0.9476183 0.97492766 0.96205574 1.0137672 1.0106826 0.9583316
00000000: de15 783f 2b59 723f 27f8 733f 34b8 773f
00000010: 08ea 773f 161c 773f d47e 783f c837 833f
00000020: 0c2c 723f 829a 743f 93bb 773f 8c05 813f
00000030: f882 7a3f 6148 783f e6f6 7f3f 6145 803f
00000040: fd8f 793f f0cb 823f 23bb 803f 50b1 773f
00000050: 1ccf 793f c98b 813f 2027 7f3f 2d9c 7f3f
00000060: c4cb 7f3f 0b48 7d3f d789 803f ac90 7e3f
00000070: c932 7b3f b633 753f 3eba 803f f805 803f
00000080: dd5d 763f cb52 843f d8b1 7b3f fa7d 7a3f
00000090: 4dd6 7a3f dbd9 733f 24aa 7c3f fef3 7e3f
000000a0: e0ee 7b3f b2de 733f b034 833f 6996 7d3f
000000b0: 2cdb 733f b29f 7d3f 6e58 7d3f 582d 783f
000000c0: b76b 763f 360f 7c3f ab8e 7f3f 8d57 803f
000000d0: 9c47 813f bd62 783f 0ad8 7a3f 2037 773f
000000e0: 5fa9 753f 937a 743f a5cf 7c3f 11a1 773f
000000f0: 4741 803f d48c 783f 2154 7c3f 8b79 7c3f
00000100: 57b2 713f ed7b 7c3f 6a1b 803f 4e07 7e3f
00000110: bf35 7f3f 014b 733f 9633 833f c548 743f
00000120: 25f0 7b3f d91e 743f 9673 833f 2dc1 793f
00000130: 748b 7b3f 91e0 753f 9f4c 803f 7c50 7c3f
00000140: 8983 813f e5a5 7e3f 5989 763f 609c 7f3f
00000150: 27e5 7a3f 8a5d 7e3f ada3 7a3f 9010 823f
00000160: 68ad 7c3f dab7 753f 2628 7b3f 8c60 803f
00000170: 9368 793f 5ad4 743f 65cf 7d3f 8dbc 763f
00000180: 1c85 763f d905 783f bed0 733f 39a1 783f
00000190: f5dd 773f 3c8d 793f 4bf3 823f fa3d 7a3f
000001a0: 1d97 723f dc94 793f 4949 763f 20c3 813f
000001b0: 0c5e 813f 3855 753f

conv1.5.bias f4 [110]
-0.015553589 -0.039074942 -0.018827146 -0.013433088 -0.00886454 -0.012092083 -0.010268425 -0.0062042754
-0.032875925 -0.018978612 -0.009176042 -0.008716412 -0.0155757675 -0.012250163 -0.006528427 -0.0048313164
-0.012154507 -0.028144458 -0.007426896 -0.01636096 -0.015086109 -0.022802768 0.00074767513 -0.0075981715
-0.0191188 -0.008342988 -0.0001748071 -0.010995012 -0.0085910205 -0.023341265 -0.0043257517 -0.023392713
-0.017541174 -0.0042968197 -0.009408083 0.0063138865 0.004279934 -0.05190226 -0.011588012 -0.005324352
-0.0055707907 -0.029925955 -0.010799555 -0.009864376 -0.017134406 -0.021254683 -0.00628143 -0.018801725
-0.019172855 -0.0026990466 -0.003985974 -0.0064788447 -0.01627793 -0.011184573 -0.009638957 -0.012321911
-0.025677143 -0.02069017 -0.002302213 -0.0093873385 -0.005590433 -0.009063219 0.010061317 -0.01701716
-0.03495324 -0.026260374 -0.010287908 0.008482444 -0.007851633 -0.028430466 0.0038846158 -0.022878224
-0.012741912 -0.022120744 0.0057568983 -0.022154069 -0.0041914494 -0.0146661885 -0.022231147 -0.0072279735
9.037261e-05 -0.01100448 -0.018083688 -0.007922202 -0.005351821 -0.007847787 -0.022726709 -0.0069706226
-0.009746248 -0.05134117 -0.0048803966 -0.0047836793 -0.014495013 -0.020927204 -0.0083475895 -0.016066117
-0.014907265 -0.017913945 -0.023019785 -0.018723393 -0.009669588 -0.0078248875 0.021227788 -0.010466676
-0.036036063 -0.0054179975 -0.024729153 -0.006543044 -0.0068712546 -0.013860409
00000000: 7bd4 7ebc 0c0d 20bd 633b 9abc 7416 5cbc
00000010: 933c 11bc df1d 46bc e53c 28bc 3c4d cbbb
00000020: e8a8 06bd 0979 9bbc 1c57 16bc 48cf 0ebc
00000030: 8131 7fbc e8b4 48bc 6aec d5bb 0550 9ebb
00000040: b323 47bc 358f e6bc 525d f3bb 6c07 86bc
00000050: ba2b 77bc dfcc babc a1ff 433a 15fa f8bb
00000060: 089f 9cbc 07b1 08bc 6c4c 37b9 6c24 34bc
00000070: 5ac1 0cbc 2e36 bfbc 09bf 8dbb 13a2 bfbc
00000080: 82b2 8fbc 56cc 8cbb 5c24 1abc b8e4 ce3b
00000090: b03e 8c3b 7797 54bd a5db 3dbc e777 aebb
000000a0: 2e8b b6bb 4727 f5bc 9ef0 30bc 319e 21bc
000000b0: 745d 8cbc 4d1e aebc 74d4 cdbb 1306 9abc
000000c0: 6410 9dbc 7de2 30bb c69c 82bb 7d4c d4bb
000000d0: 4b59 85bc 803f 37bc b7ec 1dbc d7e1 49bc
000000e0: df58 d2bc 6e7e a9bc bae0 16bb 5acd 19bc
000000f0: f32f b7bb e57d 14bc 39d8 243c 9267 8bbc
00000100: 212b 0fbd ff1f d7bc 9d8e 28bc f3f9 0a3c
00000110: 23a4 00bc 02e7 e8bc 0a95 7e3b 1d6b bbbc
00000120: 74c3 50bc 9036 b5bc 5da4 bc3b 737c b5bc
00000130: 6d58 89bb 744a 70bc 181e b6bc a3d8 ecbb
00000140: 6d86 bd38 224c 34bc 3e24 94bc 20cc 01bc
00000150: 545e afbb 0194 00bc 5d2d babc d269 e4bb
00000160: baae 1fbc 1e4b 52bd bceb 9fbb 69c0 9cbb
00000170: 7e7c 6dbc 876f abbc 54c4 08bc 179d 83bc
00000180: 9a3d 74bc 44c0 92bc fd93 bcbc cd61 99bc
00000190: 316d 1ebc f533 00bc e6e5 ad3c 6c7c 2bbc
000001a0: 8d9a 13bd 7589 b1bb cb94 cabc 0867 d6bb
000001b0: 4328 e1bb c516 63bc

conv1.5.running_mean f4 [110]
-0.44268212 -0.028437395 -0.08810909 -0.1074497 -0.11471594 0.22332144 -0.052960336 -0.03712206
-0.17775543 0.5815756 0.021334682 -0.074084856 0.1631506 -0.59553605 0.44765392 -0.13117674
-0.079569235 -0.16236319 0.0366106 -0.3841504 -0.6789255 0.091531046 0.10168156 0.315894
0.09905151 0.4597386 0.35268283 -0.052276105 -0.2795376 0.20155852 0.025894951 -0.4996724
0.1489769 -0.31928605 0.02104474 0.012404685 0.10962898 -0.16744798 -0.10594517 -0.17093304
-0.015802605 0.06604691 0.117515616 -0.1712979 0.1969967 -0.08535986 -0.078887805 -0.19747865
0.3659271 -0.34203506 -0.26247424 -0.018464977 -0.24371509 0.109333344 0.16352825 -0.038434606
-0.22966439 -0.03048177 0.5952671 0.27899286 0.37072068 0.33214122 -0.40075618 -0.07280866
0.16696349 -0.024095275 -0.17595483 -0.0573799 0.09306566 0.08456053 -0.55994475 0.49028423
-0.15801086 0.08847354 -0.41231233 -0.32905224 -0.4281904 0.454857 0.09747191 0.20490716
-0.64028615 0.2006534 0.13260762 -0.38528094 0.21131743 -0.00398177 -0.5314712 0.077937156
0.16586837 0.010649405 0.0008974145 0.06722159 -0.26449418 -0.23594019 -0.14552978 0.17276542
0.087995954 0.15387112 -0.12674786 0.001951186 -0.078162834 0.14488754 -0.18921424 0.416093
0.22926536 0.5592224 0.028019024 0.29221505 -0.21331294 0.5630661
00000000: 3ba7 e2be 8af5 e8bc 8a72 b4bd 970e dcbd
00000010: 31f0 eabd 60ae 643e f0ec 58bd 4d0d 18bd
00000020: 8505 36be 23e2 143f 12c6 ae3c cdb9 97bd
00000030: f310 273e 0d75 18bf e532 e53e 3253 06be
00000040: 32f5 a2bd 8942 26be fff4 153d 5caf c4be
00000050: 10ce 2dbf a174 bb3d 6c3e d03d dcbc a13e
00000060: 85db ca3d dc62 eb3e d892 b43e 781f 56bd
00000070: 8d1f 8fbe 5b65 4e3e a621 d43c 10d5 ffbe
00000080: 678d 183e 7679 a3be 0566 ac3c 053d 4b3c
00000090: 2985 e03d 7c77 2bbe c8f9 d8bd 1209 2fbe
000000a0: 7774 81bc 9a43 873d 07ac f03d b768 2fbe
000000b0: 81b9 493e 26d1 aebd ee8f a1bd d837 4abe
000000c0: cc5a bb3e 381f afbe 0663 86be dd43 97bc
000000d0: 7390 79be 29ea df3d f373 273e 9b6d 1dbd
000000e0: 242d 6bbe e8b4 f9bc 6d63 183f 27d8 8e3e
000000f0: 1acf bd3e 6a0e aa3e ea2f cdbe b51c 95bd
00000100: 7af8 2a3e 7463 c5bc 812d 34be 3007 6bbd
00000110: 3599 be3d 122e ad3d 8a58 0fbf 8906 fb3e
00000120: 99cd 21be 9e31 b53d 9a1a d3be 8979 a8be
00000130: c63b dbbe 04e3 e83e 5a9f c73d 2fd3 513e
00000140: cbe9 23bf 1678 4d3e 4bca 073e 8b43 c5be
00000150: 9963 583e 8279 82bb 7f0e 08bf 849d 9f3d
00000160: 66d9 293e d87a 2e3c 7840 6b3a 79ab 893d
00000170: c86b 87be 4e9a 71be c205 15be 6be9 303e
00000180: 3937 b43d 6490 1d3e 31ca 01be f0be ff3a
00000190: d613 a0bd 665d 143e 61c1 41be 240a d53e
000001a0: 8ac4 6a3e 3329 0f3f 2788 e53c 369d 953e
000001b0: b56e 5abe 1a25 103f

conv1.5.running_var f4 [110]
0.383496 0.15548325 0.1833876 0.12851281 0.41355544 0.325592 0.22981383 0.16975582
0.15391554 0.17504682 0.31283045 0.16733691 0.15513267 0.16823347 0.33478945 0.17013943
0.24609458 0.11871892 0.11779009 0.16692172 0.29972628 0.11782404 0.1466873 0.18329483
0.15588136 0.30492297 0.12778126 0.2111074 0.30195147 0.21997888 0.13146606 0.44931272
0.16326463 0.27352083 0.18709391 0.22044086 0.10855153 0.31431663 0.15361065 0.13180006
0.17688252 0.20883834 0.17497475 0.21543005 0.21424115 0.19219111 0.18094136 0.34939992
0.14997095 0.11557381 0.27763757 0.14875859 0.39076012 0.33526647 0.21391346 0.29124135
0.13413969 0.24656478 0.3982251 0.19397786 0.1398869 0.17137676 0.25937548 0.12814437
0.17086138 0.15158202 0.10986639 0.20538396 0.17401515 0.17760791 0.1561934 0.2928882
0.28587893 0.19582185 0.21191864 0.1911341 0.15537849 0.2933416 0.118104324 0.1590342
0.20976205 0.14369814 0.27662903 0.17493598 0.1893371 0.22078529 0.3738246 0.16026881
0.13267386 0.17236938 0.25579554 0.18489777 0.21223398 0.47975585 0.15180692 0.17306145
0.17453752 0.19730274 0.35791686 0.2333764 0.14490442 0.21490867 0.17739806 0.21658306
0.21529846 0.26194182 0.35713375 0.22627015 0.09166183 0.18809502
00000000: 9659 c43e 0037 1f3e f6c9 3b3e dd98 033e
00000010: 8abd d33e ffb3 a63e 5154 6b3e 78d4 2d3e
00000020: 099c 1d3e 793f 333e 502b a03e 5e5a 2b3e
00000030: 19db 1e3e 6545 2c3e 8669 ab3e 0839 2e3e
00000040: 3800 7c3e e822 f33d ee3b f13d 87ed 2a3e
00000050: b975 993e bb4d f13d 3235 163e a4b1 3b3e
00000060: 5d9f 1f3e dd1e 9c3e 17d9 023e 8a2c 583e
00000070: 6299 9a3e 2542 613e 0a9f 063e 510c e63e
00000080: d82e 273e ec0a 8c3e 8c95 3f3e 40bb 613e
00000090: 4450 de3d 1cee a03e 1c4c 1d3e 98f6 063e
000000a0: b120 353e b8d9 553e 952c 333e b299 5c3e
000000b0: 0862 5b3e bfcd 443e b148 393e 8ce4 b23e
000000c0: fc91 193e f6b1 ec3d 8326 8e3e 2c54 183e
000000d0: b611 c83e 0ca8 ab3e 210c 5b3e 961d 953e
000000e0: ea5b 093e 7a7b 7c3e 29e4 cb3e 22a2 463e
000000f0: 833e 0f3e 647d 2f3e ddcc 843e 4738 033e
00000100: 49f6 2e3e 5138 1b3e a101 e13d 2c50 523e
00000110: 0731 323e d9de 353e 2af1 1f3e 71f5 953e
00000120: b95e 923e 8685 483e 3301 593e a8b8 433e
00000130: 8a1b 1f3e df30 963e aee0 f13d dcd9 223e
00000140: ddcb 563e 9b25 133e 52a2 8d3e 6b22 333e
00000150: 96e1 413e 8a15 623e f065 bf3e 821d 243e
00000160: a8db 073e 9981 303e a2f7 823e d755 3d3e
00000170: dd53 593e 8fa2 f53e 4673 1b3e 0537 313e
00000180: f7b9 323e bb09 4a3e e140 b73e 39fa 6e3e
00000190: d361 143e 0511 5c3e d6a7 353e f3c7 5d3e
000001a0: 3377 5c3e 3d1d 863e 3cda b63e 5db3 673e
000001b0: 33b9 bb3d fb9b 403e

conv2.0.weight f4 [10, 1, 6]
0.21481791 -0.11609212 -0.266046 0.30756995 0.073863976 -0.31071022 -0.096335955 0.13883348
0.32196692 0.13110729 -0.34938794 -0.05929091 0.29615706 0.08162854 -0.13534155 0.24042606
-0.04343877 0.34020397 -0.13673162 0.32934362 0.26039413 0.3279112 -0.34774086 -0.11078411
0.41101938 0.3249683 0.050647564 0.39372957 -0.24699186 -0.2048978 0.16530804 -0.38697007
0.010749297 0.12776709 -0.22162746 0.4384035 -0.20895371 -0.3246914 -0.17028959 0.2650554
0.22669742 0.38806617 -0.21006209 -0.3021989 0.025673456 -0.4176705 -0.020430459 -0.05022551
-0.23078322 -0.35278934 0.3925927 0.39978966 0.037843827 0.06579607 0.05779232 0.293708
0.21120773 -0.08656255 -0.29264453 -0.39155257
00000000: 3af9 5b3e b5c1 edbd 2e37 88be cf79 9d3e
00000010: ff45 973d 6915 9fbe c94b c5bd 5d2a 0e3e
00000020: d9d8 a43e fd40 063e fae2 b2be 06db 72bd
00000030: e6a1 973e dd2c a73d fa96 0abe 4032 763e
00000040: daec 31bd 372f ae3e 6003 0cbe ba9f a83e
00000050: 6152 853e fae3 a73e 170b b2be c8e2 e2bd
00000060: 2271 d23e 3f62 a63e d273 4f3d ec96 c93e
00000070: 6feb 7cbe bbd0 51be 8346 293e f120 c6be
00000080: d21d 303c 60d5 023e 4ff2 62be 6c76 e03e
00000090: f6f7 55be f43d a6be 6560 2ebe 57b5 873e
000000a0: 5e23 683e 9cb0 c63e 841a 57be d0b9 9abe
000000b0: 2451 d23c e8d8 d5be c75d a7bc 44b9 4dbd
000000c0: 7052 6cbe cea0 b4be e901 c93e 3bb1 cc3e
000000d0: 2102 1b3d 17c0 863d a4b7 6c3d e560 963e
000000e0: d746 583e b547 b1bd 81d5 95be 9479 c8be

conv2.0.bias f4 [10]
0.16943376 0.1403009 0.36992303 0.048475154 0.14956455 0.23916414 -0.20973933 -0.2687078
0.22627018 0.26495788
00000000: 0b80 2d3e 0aab 0f3e 8d66 bd3e e28d 463d
00000010: 7327 193e 72e7 743e e8c5 56be 1294 89be
00000020: 5fb3 673e 8fa8 873e

conv2.1.weight f4 [10]
1.2033074 1.0372206 1.0834169 1.070793 1.0135953 1.1146182 1.0940683 0.993572
1.1587601 1.0065155
00000000: fa05 9a3f a5c3 843f 68ad 8a3f bf0f 893f
00000010: 7ebd 813f cfab 8e3f 6e0a 8c3f bc5a 7e3f
00000020: 4052 943f 80d5 803f

conv2.1.bias f4 [10]
0.0069536776 0.01754328 0.021798 0.022494473 -0.0009645016 -0.00020622475 -0.03288395 -0.0070673386
0.01692683 0.0006578855
00000000: addb e33b edb6 8f3c b891 b23c 5446 b83c
00000010: 9bd6 7cba 093e 58b9 52b1 06bd 2295 e7bb
00000020: 23aa 8a3c f375 2c3a

conv2.1.running_mean f4 [10]
-0.67783916 0.2810587 4.451219 1.5313246 5.054903 0.550711 1.0233533 -6.7044673
2.0034068 -1.5484573
00000000: de86 2dbf ede6 8f3e 6370 8e40 7202 c43f
00000010: c4c1 a140 65fb 0c3f 3efd 823f ff8a d6c0
00000020: d137 0040 d933 c6bf

conv2.1.running_var f4 [10]
0.94100296 1.0891886 3.6487308 1.9087257 6.9892087 0.9922833 3.03448 8.375756
2.014401 2.9060774
00000000: 92e5 703f 886a 8b3f ce84 6940 2051 f43f
00000010: 99a7 df40 4706 7e3f ec34 4240 1903 0641
00000020: f2eb 0040 2cfd 3940

conv2.4.weight f4 [110, 10, 6]
0.10422845 -0.096056074 -0.14075132 0.0091380095 -0.14761765 -0.07167719 0.108715534 -0.14804034
0.11776288 -0.076899365 -0.11259383 0.026346015 -0.09123067 0.06786868 0.02421492 0.010157248
-0.06802027 -0.02675087 -0.04202267 -0.12282884 0.121121794 0.008911305 0.13670766 0.022627737
-0.14788765 -0.13402154 0.013664331 -0.056378175 0.045988563 0.0133194635 0.11881076 0.04702724
0.060461216 0.11029921 -0.16396224 0.058956675 0.12658852 -0.06710528 0.054912724 -0.043219384
0.0022110736 -0.040918823 0.10050363 0.12640277 0.07106432 -0.016398156 -0.14767025 -0.14977421
0.070280895 0.056319524 -0.044471756 -0.029756106 0.1183283 0.118159994 -0.10546457 -0.1433851
0.024226772 -0.09711444 -0.06691559 0.09439117 0.055750888 -0.15388796 -0.10199659 -0.12940131
-0.08886297 -0.250759 -0.028626353 -0.09447531 0.05675497 0.02775329 -0.025160523 -0.14351784
0.03630253 -0.028610906 0.092162244 -0.11477956 0.020531923 -0.061584048 0.12553631 0.08424335
0.027325891 -0.06628581 0.09321662 -0.121874824 0.05885942 -0.09553085 -0.08836065 -0.075963855
0.16229539 0.021781929 -0.07745171 0.013777958 0.10467132 0.13578011 -0.102171205 0.086156964
0.07578059 0.0647275 -0.017325003 -0.06257461 0.054205988 -0.0087877 0.01743652 0.030459788
-0.08073832 0.107907385 -0.107508786 -0.053240906 -0.13065493 -0.03275769 0.0931609 0.10683629
-0.0476587 -0.16102093 0.014179842 0.0077568875 -0.13131508 -0.0026385877 0.14014745 -0.1602339
0.08381417 0.078796655 0.026339695 0.10153876 -0.07308624 0.0113516655 -0.10502951 0.0565576
0.121497035 0.04024903 0.073166996 -0.09649638 -0.043988176 -0.09077103 -0.17427638 -0.08492613
0.073891185 -0.088556476 0.07844286 0.023606842 -0.046909846 0.015840242 0.06311652 0.04128825
-0.14421551 -0.06707102 0.09542931 0.118494794 -0.11639036 -0.026422473 -0.11616554 0.054190595
-0.0063118017 -0.03771702 0.049733706 0.012504238 -0.047793727 -0.061722845 -0.14055501 0.02298233
-0.06047137 -0.09074254 -0.039924063 -0.15146945 0.046555534 -0.15027308 -0.049820658 -0.10499447
-0.095623195 -0.09886104 0.021705747 -0.038396098 -0.018769113 0.11247858 -0.107903525 0.09978374
0.034702815 0.0031463283 -0.1132276 0.080514096 0.018602408 0.08601474 0.04895368 -0.16271013
-0.055929217 -0.068143636 -0.044174496 0.1240526 0.07206892 0.059317715 0.012919785 0.00061867444
0.031092124 0.05308871 -0.022822086 -0.01580184 0.03735544 -0.004257303 0.09509889 0.112616286
0.11779734 0.052008893 -0.042623207 -0.28962263 -0.034796342 -0.15611349 0.000908049 -0.044374194
0.006749207 -0.27909347 0.10458172 -0.085535556 0.12517048 0.05607313 -0.10285167 -0.02784099
-0.07761861 -0.05531634 0.08147346 0.060234137 -0.022386517 -0.03455714 -0.06523374 -0.14599802
0.03322483 -0.11021698 0.024990866 -0.025882667 0.11083274 0.009252074 0.055360265 -0.025890276
0.11430881 -0.0961949 0.18210211 -0.13405643 0.009283522 -0.0233255 0.11274885 0.0323411
0.06992913 -0.07721449 0.02989066 -0.042618036 -0.0054152 -0.1335808 -0.09704598 0.114844896
0.07709433 0.050837923 0.0592876 0.033742666 0.10145974 -0.10654864 -0.08808768 0.09599573
00000000: ba75 d53d 0cb9 c4bd 1d21 10be 97b7 153c
00000010: 1529 17be 7ecb 92bd 40a6 de3d e397 17be
00000020: aa2d f13d 6a7d 9dbd 9897 e6bd 99d3 d73c
00000030: 25d7 babd bcfe 8a3d 5e5e c63c 966a 263c
00000040: 364e 8bbd a424 dbbc f71f 2cbd b08d fbbd
00000050: b40e f83d b900 123c 18fd 0b3e ce5d b93c
00000060: dc6f 17be f13c 09be 5ce0 5f3c cdec 66bd
00000070: 815e 3c3d e139 5a3c 0e53 f33d a39f 403d
00000080: 2ea6 773d 8de4 e13d b8e5 27be 8e7c 713d
00000090: 6ca0 013e 7e6e 89bd 2aec 603d cf06 31bd
000000a0: a9e7 103b 7f9a 27bd d9d4 cd3d ba6f 013e
000000b0: 2c8a 913d 6d55 86bc df36 17be 695e 19be
000000c0: 6eef 8f3d 4daf 663d 0428 36bd 14c3 f3bc
000000d0: 1c56 f23d defd f13d cffd d7bd 8bd3 12be
000000e0: 3977 c63c efe3 c6bd 0a0b 89bd 2850 c13d
000000f0: 0b5b 643d ce94 1dbe 97e3 d0bd c781 04be
00000100: cafd b5bd 7c63 80be d081 eabc 457c c1bd
00000110: e677 683d de5a e33c 711d cebc 57f6 12be
00000120: f6b1 143d 6b61 eabc 8fbf bc3d 8c11 ebbd
00000130: 9032 a83c 8e3f 7cbd 978c 003e c787 ac3d
00000140: 8cda df3c dbc0 87bd 5be8 be3d 8299 f9bd
00000150: 9316 713d aea5 c3bd 6ef6 b4bd f092 9bbd
00000160: c330 263e 0470 b23c 019f 9ebd f2bc 613c
00000170: eb5d d63d f109 0b3e 233f d1bd 1073 b03d
00000180: db32 9b3d da8f 843d 2aed 8dbc 1e27 80bd
00000190: 1907 5e3d 49fa 0fbc 08d7 8e3c ce86 f93c
000001a0: 225a a5bd 8cfe dc3d 912d dcbd 2313 5abd
000001b0: 68ca 05be ed2c 06bd 24cb be3d fccc da3d
000001c0: c535 43bd ace2 24be 9152 683c 7d2d fe3b
000001d0: 7677 06be 28ec 2cbb d082 0f3e 5b14 24be
000001e0: c3a6 ab3d 2460 a13d 58c6 d73c 8ef3 cf3d
000001f0: 3dae 95bd 56fc 393c b619 d7bd f1a8 673d
00000200: 70d3 f83d 2bdc 243d 94d8 953d e59f c5bd
00000210: f22c 34bd 29e6 b9bd 8275 32be c0ed adbd
00000220: 4354 973d 195d b5bd a6a6 a03d 2363 c13c
00000230: 8a24 40bd 65c3 813c 3c43 813d de1d 293d
00000240: 3bad 13be 885c 89bd 7170 c33d 66ad f23d
00000250: 125e eebd f173 d8bc 33e8 edbd f5f6 5d3d
00000260: 3bd3 cebb 297d 1abd 92b5 4b3d 93de 4c3c
00000270: 5bc3 43bd 18d1 7cbd a7ed 0fbe 7045 bc3c
00000280: d4b0 77bd 3ad7 b9bd 6a87 23bd cf1a 1bbe
00000290: 04b1 3e3d 30e1 19be bf10 4cbd 5707 d7bd
000002a0: 18d6 c3bd a877 cabd 40d0 b13c 3a45 1dbd
000002b0: afc1 99bc 2b5b e63d 86fc dcbd 6b5b cc3d
000002c0: 8a24 0e3d a132 4e3b dfe3 e7bd 93e4 a43d
000002d0: 1464 983c 7f28 b03d a783 483d 7c9d 26be
000002e0: 0916 65bd e48e 8bbd 51f0 34bd 4a0f fe3d
000002f0: df98 933d 22f7 723d 82ad 533c 8a2e 223a
00000300: e9b4 fe3c 8c73 593d 62f5 babc dc72 81bc
00000310: 0502 193d d980 8bbb 35c3 c23d 5ea3 e63d
00000320: bb3f f13d 4707 553d ac95 2ebd 6b49 94be
00000330: 9c86 0ebd 37dc 1fbe 230a 6e3a b7c1 35bd
00000340: 7428 dd3b 57e5 8ebe f12e d63d 442d afbd
00000350: b12c 003e f0ac 653d e5a3 d2bd ca12 e4bc
00000360: 81f6 9ebd 6393 62bd 8fdb a63d 12b8 763d
00000370: ee63 b7bc ca8b 0dbd 4499 85bd 8180 15be
00000380: c216 083d 71b9 e1bd a5b9 cc3c e307 d4bc
00000390: 47fc e23d 0396 173c 72c1 623d d817 d4bc
000003a0: bd1a ea3d d501 c5bd fa78 3a3e 1746 09be
000003b0: ea19 183c 1e15 bfbc dee8 e63d 1a78 043d
000003c0: 0137 8f3d a122 9ebd 42dd f43c 4090 2ebd
000003d0: fd71 b1bb 68c9 08be 0bc0 c6bd cd33 eb3d
000003e0: a2e3 9d3d 6d3b 503d 8ed7 723d c035 0a3d
000003f0: 20ca cf3d 2c36 dabd 5067 b4bd 6999 c43d

conv2.4.bias f4 [110]
-0.07866096 -0.038643416 -0.12102551 -0.11181301 -0.02820166 -0.06068138 0.01095646 0.05318074
0.040857162 0.06201774 0.10479237 0.09223405 0.09550204 -0.04032026 0.042832013 0.009135387
-0.059718218 -0.022119215 0.03934179 -0.061377097 0.08501015 0.073175736 -0.044408306 -0.11808649
0.0316609 -0.057622917 -0.023345193 -0.005490928 -0.119767666 -0.01915679 -0.04916855 -0.10534978
-0.027942693 -0.09701703 -0.03609164 0.11137892 0.007973481 -0.059316803 0.09084758 0.03411336
0.029871486 -0.07024014 0.12508762 0.11105699 0.09438637 -0.045906004 -0.078779116 0.097764656
-0.03797458 0.061006907 -0.0062087094 -0.015649265 0.018794974 -0.12364639 -0.10799701 -0.020407956
-0.13501085 0.06557616 -0.013444578 -0.103152424 0.10083024 -0.13717169 -0.082975715 -0.016409315
-0.095726445 0.05313547 0.02323046 0.11624623 0.0723444 0.10529991 -0.07145961 -0.020256143
0.013964279 -0.018001858 -0.12314188 0.061987292 0.07118375 -0.09617723 0.013466294 -0.009790835
-0.08197117 -0.11726491 -0.082419984 -0.049610708 -0.015166921 0.060014483 -0.05925785 -0.10531521
0.029425068 0.027160281 0.069029875 -0.02883168 -0.005254622 0.03371445 0.053309124 -0.07579206
-0.0021995192 0.07073392 0.03574589 -0.060809337 0.0010542565 -0.06569419 0.021024672 0.032800432
-0.11839936 -0.095535405 -0.07591338 -0.0891344 -0.0728542 0.04680449
00000000: ff18 a1bd 8f48 1ebd 39dc f7bd 38fe e4bd
00000010: 2b07 e7bc 0a8d 78bd b982 333c 0cd4 593d
00000020: d759 273d 5006 7e3d 629d d63d 35e5 bc3d
00000030: 9396 c33d db26 25bd 9f70 2f3d 97ac 153c
00000040: 179b 74bd 5b33 b5bc db24 213d 8d66 7bbd
00000050: cd19 ae3d 29dd 953d 7ce5 35bd 54d7 f1bd
00000060: dcae 013d 0206 6cbd 6b3e bfbc 3eed b3bb
00000070: c048 f5bd b3ee 9cbc f664 49bd a0c1 d7bd
00000080: 13e8 e4bc ddb0 c6bd d4d4 13bd a21a e43d
00000090: 34a3 023c 2df6 72bd 4c0e ba3d 73ba 0b3d
000000a0: 0cb5 f43c 10da 8fbd f816 003e d971 e33d
000000b0: a44d c13d ef07 3cbd f256 a1bd d638 c83d
000000c0: 3c8b 1bbd 61e2 793d 6e72 cbbb e332 80bc
000000d0: ebf7 993c 523a fdbd 892d ddbd 962e a7bc
000000e0: 4940 0abe cb4c 863d a646 5cbc 9441 d3bd
000000f0: 1680 ce3d bc76 0cbe 2cef a9bd d46c 86bc
00000100: 3a0c c4bd 94a4 593d ce4d be3c 8112 ee3d
00000110: 4d29 943d 7ba7 d73d 6a59 92bd 36f0 a5bc
00000120: 6eca 643c a278 93bc cf31 fcbd 63e6 7d3d
00000130: c9c8 913d 91f8 c4bd bba1 5c3c bd69 20bc
00000140: 80e0 a7bd 9628 f0bd cfcb a8bd 9934 4bbd
00000150: ad7e 78bc bfd1 753d 5cb8 72bd 80af d7bd
00000160: d70c f13c 3d7f de3c 895f 8d3d 6a30 ecbc
00000170: f72e acbb 2a18 0a3d ab5a 5a3d de38 9bbd
00000180: cf25 10bb f2dc 903d 486a 123d 3613 79bd
00000190: fa2e 8a3a ad8a 86bd ef3b ac3c bf59 063d
000001a0: 5d7b f2bd 11a8 c3bd 7978 9bbd 198c b6bd
000001b0: 9534 95bd 11b6 3f3d

conv2.5.weight f4 [110]
1.0065135 1.0064484 0.97483706 0.9933623 0.99720126 1.000403 0.9990597 0.9952812
1.0179299 0.9951299 1.0165436 1.006969 0.9466311 0.97101146 0.993926 1.0004525
0.9776285 0.9469191 0.9742712 1.0129492 0.97460854 0.97809035 0.9971779 0.9826743
1.0695469 0.9602301 1.0081131 1.0040873 0.9899167 1.0326711 1.0008137 1.0332538
0.99283946 0.9897687 1.0031583 1.0203525 0.9966451 1.0076376 1.0050377 0.9714643
0.9899811 0.99806684 1.0013094 0.97726667 0.9787804 1.0075091 0.9962395 0.9777749
0.9430195 1.0036496 1.0017052 1.0182524 0.98349166 1.0373656 0.9987317 0.96416533
0.95021474 0.9907709 0.97199607 0.975902 1.0136032 1.0062593 0.9614833 1.0328134
0.98727757 1.0043452 0.99523705 1.0120326 0.990482 0.9738354 1.0165254 1.0141356
0.9873257 0.9990711 1.0373193 1.0268923 0.9722438 0.97713625 0.98301876 0.9939255
0.9809541 0.9998884 0.9533304 1.0171988 0.9806982 1.0022303 0.9910786 1.002929
1.0105679 0.99517703 0.9824289 0.97472143 1.0136726 1.0043274 0.98748314 0.98707527
1.0348098 0.99848264 0.97407544 0.98908883 0.97622347 0.9817899 0.989235 0.98957145
1.0133455 0.9692204 0.9900728 0.9690325 0.99201596 1.0152862
00000000: 6fd5 803f 4dd3 803f ec8e 793f fe4c 7e3f
00000010: 9548 7f3f 350d 803f 60c2 7f3f c0ca 7e3f
00000020: 874b 823f d5c0 7e3f 1a1e 823f 5ce4 803f
00000030: 6a56 723f 3594 783f ef71 7e3f d40e 803f
00000040: dd45 7a3f 4a69 723f d669 793f 52a8 813f
00000050: f27f 793f 2164 7a3f 0d47 7f3f 8b90 7b3f
00000060: eae6 883f a4d1 753f da09 813f ef85 803f
00000070: 2e6b 7d3f 912e 843f aa1a 803f a941 843f
00000080: ba2a 7e3f 7b61 7d3f 7e67 803f e99a 823f
00000090: 2224 7f3f 45fa 803f 13a5 803f e2b1 783f
000000a0: 676f 7d3f 4f81 7f3f e82a 803f 262e 7a3f
000000b0: 5a91 7a3f 0ff6 803f 8d09 7f3f 754f 7a3f
000000c0: ba69 713f 9777 803f e037 803f 1856 823f
000000d0: 1cc6 7b3f 65c8 843f e1ac 7f3f 8ad3 763f
000000e0: 4641 733f 29a3 7d3f bcd4 783f b7d4 793f
000000f0: c0bd 813f 1bcd 803f c523 763f 3b33 843f
00000100: 39be 7c3f 628e 803f dbc7 7e3f 498a 813f
00000110: 3a90 7d3f 474d 793f 811d 823f 32cf 813f
00000120: 61c1 7c3f 20c3 7f3f e1c6 843f 3571 833f
00000130: f8e4 783f 9a25 7a3f 1ea7 7b3f e771 7e3f
00000140: cf1f 7b3f b0f8 7f3f 760d 743f 9233 823f
00000150: 0a0f 7b3f 1549 803f 54b7 7d3f fa5f 803f
00000160: 4a5a 813f ecc3 7e3f 7680 7b3f 5887 793f
00000170: 06c0 813f cd8d 803f b2cb 7c3f f7b0 7c3f
00000180: a674 843f 8f9c 7f3f 025d 793f ed34 7d3f
00000190: c8e9 793f 9556 7b3f 813e 7d3f 8e54 7d3f
000001a0: 4eb5 813f d41e 783f 6975 7d3f 8412 783f
000001b0: c2f4 7d3f e6f4 813f

conv2.5.bias f4 [110]
-0.00765662 -0.0068830424 -0.02771372 -0.0057050264 0.002445585 -0.014041052 -0.009306158 -0.008287546
-0.011343405 -0.0043997266 -0.00870527 -0.012532715 -0.03124252 -0.012437603 -0.011440399 -0.01913792
0.0068199444 -0.038565207 -0.024597276 -0.001847041 -0.018699696 -0.02580786 -0.008354089 -0.0062954705
0.01014902 -0.015066907 -0.0050988384 -0.005450686 -0.02009976 0.0027085894 -0.007960201 -0.012292634
-0.008137515 -0.025642818 -0.008732535 0.0021796776 0.007989768 -0.01309583 -0.0022021204 -0.014238961
-0.0036109341 -0.01217317 0.0024093008 -0.005723279 -0.014327079 0.014898511 -0.0074309064 -0.01866668
-0.032632 -0.0041687516 -0.006226395 -0.0038672474 -0.0073087625 -0.0072424407 -0.008791812 -0.011730887
-0.036645148 -0.011500307 -0.007284049 -0.014624868 -0.013130211 -0.0083786035 -0.0034117664 -0.0067494595
-0.016858347 -0.0026120392 -0.010779892 0.0094882315 -0.0063506765 -0.006300794 -0.013444598 -0.00947644
-0.0053240135 -0.002086952 -0.009782648 -0.0013334675 -0.012712295 -0.0019346029 -0.017940067 -0.006606236
-0.027670505 -0.0006582684 -0.025333544 -0.014600966 -0.015970264 -0.0002815366 -0.010642905 -0.0075898417
-0.0074705454 0.00035083242 -0.011300782 -0.012908631 0.002953809 -0.001496383 -0.011158913 -0.016850276
-0.002639622 -0.01084765 0.003252312 -0.010302755 -0.010008141 -0.011186227 -0.011308702 -0.010134298
-0.006043813 -0.017353147 -0.009929073 -0.01714128 -0.00069377496 -0.0024142496
00000000: 62e4 fabb 258b e1bb e207 e3bc 3bf1 babb
00000010: 1c46 203b 710c 66bc db78 18bc 7dc8 07bc
00000020: b0d9 39bc 952b 90bb 8ca0 0ebc 0456 4dbc
00000030: 50f0 ffbc 17c7 4bbc 8370 3bbc 21c7 9cbc
00000040: d779 df3b 8df6 1dbd 3a80 c9bc 6918 f2ba
00000050: 1b30 99bc 016b d3bc 97df 08bc 3c4a cebb
00000060: 1348 263c 30db 76bc 2814 a7bb ab9b b2bb
00000070: 40a8 a4bc 9782 313b 816b 02bc 0b67 49bc
00000080: 3653 05bc e310 d2bc e812 0fbc ecd8 0e3b
00000090: 84e7 023c e48f 56bc 7351 10bb 884a 69bc
000000a0: 6ca5 6cbb fa71 47bc 5ce5 1d3b 588a bbbb
000000b0: 20bc 6abc e218 743c f67e f3bb deea 98bc
000000c0: 22a9 05bd 069a 88bb c906 ccbb a571 7dbb
000000d0: 587e efbb ff51 edbb 880b 10bc e832 40bc
000000e0: 3919 16bd c96b 3cbc 08af eebb 249d 6fbc
000000f0: 1920 57bc 6946 09bc f197 5fbb 922a ddbb
00000100: 841a 8abc bf2e 2bbb 259e 30bc 8774 1b3c
00000110: 5619 d0bb e476 cebb bb46 5cbc 1243 1bbc
00000120: 1075 aebb 3fc5 08bb 6647 20bc bfc7 aeba
00000130: 3b47 50bc 8092 fdba 0cf7 92bc 2079 d8bb
00000140: 41ad e2bc a58f 2cba 4b88 cfbc e438 6fbc
00000150: 12d4 82bc 349b 93b9 945f 2ebc 35b4 f8bb
00000160: 7acb f4bb eeef b739 ea26 39bc b97e 53bc
00000170: b194 413b 4822 c4ba e0d3 36bc 9709 8abc
00000180: 82fd 2cbb 57ba 31bc be24 553b e3cc 28bc
00000190: 30f9 23bc 7046 37bc 2248 39bc 540a 26bc
000001a0: 2e0b c6bb 3028 8ebc 8dad 22bc df6b 8cbc
000001b0: 73de 35ba 6338 1ebb

conv2.5.running_mean f4 [110]
-0.088877015 -0.30961022 -0.17005126 -0.0052557443 0.21789704 -0.15296395 -0.04539576 0.12833554
-0.29195872 -0.0026912852 -0.32313654 0.077070415 0.040926825 0.22309777 0.17119446 -0.12133668
0.06083058 -0.13672148 -0.029493712 -0.43662658 -0.01939028 0.038331617 0.03482146 0.095821775
-0.5153576 -0.20313826 -0.21355318 -0.15791032 0.0061548552 -0.2790208 -0.09330995 -0.36505824
-0.04774674 0.3497314 -0.1501599 0.011582646 -0.054189093 -0.09698702 -0.1814183 0.3465566
-0.07396392 -0.010593177 0.121582136 -0.11450623 -0.25611484 -0.12708138 0.053724542 0.045769505
0.01838605 -0.14827071 -0.11214405 0.1838211 0.28162897 -0.33253026 -0.022835497 0.21390802
0.0016287343 -0.119421676 0.107183725 0.0656205 0.081838794 -0.4292925 -0.06404023 -0.20372151
0.13549897 0.007660524 0.050229765 0.015187073 0.10603183 0.24209347 0.27914 -0.20115484
0.37333307 -0.13162278 -0.09433932 0.13180812 0.04719848 -0.15116104 0.28527656 -0.17919053
-0.03644281 -0.08873729 0.23456049 -0.32895464 0.17126697 -0.064524435 0.09935317 0.06403824
-0.06746835 0.017748613 -0.0336853 -0.2404432 -0.38802546 -0.19153628 0.2416331 0.023789467
-0.45317784 -0.12988523 0.14733191 -0.051615637 0.10723729 0.22040695 0.38380468 -0.1054816
-0.100334466 0.28489712 -0.3484018 -0.05507851 0.0625273 -0.027654927
00000000: 2705 b6bd 3b85 9ebe eb21 2ebe 6138 acbb
00000010: 6720 5f3e 95a2 1cbe e8f0 39bd 646a 033e
00000020: 9d7b 95be 4660 30bb 2772 a5be 18d7 9d3d
00000030: e3a2 273d be73 643e 9a4d 2f3e 5e7f f8bd
00000040: 7c29 793d b700 0cbe cc9c f1bc 858d dfbe
00000050: 5dd8 9ebc 9d01 1d3d f2a0 0e3d 353e c43d
00000060: 7aee 03bf 7a03 50be afad 5abe 3eb3 21be
00000070: abae c93b d0db 8ebe 4919 bfbd eae8 babe
00000080: 1692 43bd fe0f b33e 84c3 19be 23c5 3d3c
00000090: 62f5 5dbd 21a1 c6bd b8c5 39be de6f b13e
000000a0: 657a 97bd 018f 2dbc 0e00 f93d 3e82 eabd
000000b0: 7c21 83be 9f21 02be 440e 5c3d ce78 3b3d
000000c0: 579e 963c 47d4 17be c8ab e5bd 993b 3c3e
000000d0: ac31 903e 6841 aabe 8211 bbbc b40a 5b3e
000000e0: 417b d53a 5a93 f4bd 2483 db3d 0a64 863d
000000f0: 199b a73d 3acc dbbe 8627 83bd 5f9c 50be
00000100: 3ec0 0a3e 2205 fb3b babd 4d3d 33d3 783c
00000110: 3727 d93d 5ae7 773e 70eb 8e3e 89fb 4dbe
00000120: 8325 bf3e 1fc8 06be f934 c1bd b5f8 063e
00000130: 3253 413d f6c9 1abe c50f 923e b97d 37be
00000140: 0e45 15bd e5bb b5bd a030 703e be6c a8be
00000150: 9c60 2f3e 6325 84bd ad79 cb3d 7b26 833d
00000160: d92c 8abd 8a65 913c 99f9 09bd be36 76be
00000170: 46ab c6be 1622 44be ab6e 773e 21e2 c23c
00000180: ed06 e8be a200 05be 2dde 163e eb6a 53bd
00000190: 399f db3d 5cb2 613e 0c82 c43e bd06 d8bd
000001a0: 287c cdbd 09de 913e b961 b2be 019a 61bd
000001b0: 500e 803d 968c e2bc

conv2.5.running_var f4 [110]
0.19814955 0.18761657 0.17959598 0.15775459 0.37000504 0.21225777 0.26151437 0.20862105
0.25224936 0.1951812 0.16767707 0.15704325 0.22882238 0.15766902 0.19220027 0.15978415
0.19994971 0.2612592 0.26728386 0.20319895 0.27349073 0.21220744 0.22890832 0.24142817
0.26365286 0.196678 0.20197478 0.16624194 0.2159797 0.18811692 0.19614172 0.19888091
0.2059865 0.25681067 0.16540076 0.14767645 0.2140989 0.21006285 0.16126862 0.2965768
0.17174973 0.17365709 0.19725804 0.13674916 0.24102208 0.21898293 0.18252063 0.23972625
0.30623323 0.20898783 0.1901373 0.2246881 0.15917675 0.25372782 0.18234572 0.21466163
0.19110532 0.28738686 0.17150165 0.19171779 0.14553922 0.23227046 0.19125445 0.1360917
0.20916183 0.18292987 0.30445355 0.1583451 0.17412058 0.19178583 0.15778928 0.19106069
0.21685864 0.18247749 0.17276457 0.11127308 0.16715957 0.1554385 0.22278841 0.2394852
0.25003985 0.23948784 0.18457323 0.18876188 0.14671291 0.20287311 0.13367091 0.17666869
0.16130072 0.14786564 0.15113856 0.2146486 0.22952852 0.15987009 0.3360248 0.19778624
0.23164202 0.18730813 0.19618858 0.2169283 0.19945258 0.16353612 0.36278984 0.17578574
0.17194335 0.23717235 0.15432717 0.14198439 0.26860064 0.14144115
00000000: b7e7 4a3e 8f1e 403e 02e8 373e 6b8a 213e
00000010: 4d71 bd3e 1a5a 593e 36e5 853e c2a0 553e
00000020: d426 813e 95dd 473e 8ab3 2b3e f2cf 203e
00000030: 6a50 6a3e fd73 213e 26d0 443e 759e 233e
00000040: 9ebf 4c3e c4c3 853e 6ed9 883e 6313 503e
00000050: fa06 8c3e e84c 593e f166 6a3e f238 773e
00000060: 82fd 863e f565 493e 7ad2 4e3e 543b 2a3e
00000070: c829 5d3e b9a1 403e 60d9 483e 70a7 4b3e
00000080: 20ee 523e b07c 833e d15e 293e 7f38 173e
00000090: be3c 5b3e b71a 573e 9a23 253e ead8 973e
000000a0: 29df 2f3e 2ad3 313e 03fe 493e f907 0c3e
000000b0: 7ece 763e 103d 603e b0e6 3a3e cc7a 753e
000000c0: 9aca 9c3e e800 563e 5ab3 423e a314 663e
000000d0: 3bff 223e 9de8 813e d6b8 3a3e 42d0 5b3e
000000e0: 1db1 433e 5f24 933e 219e 2f3e ab51 443e
000000f0: 3c08 153e 4fd8 6d3e 35d8 433e 9f5b 0b3e
00000100: 852e 563e f851 3b3e 56e1 9b3e 3825 223e
00000110: aa4c 323e 8163 443e 8393 213e 6aa5 433e
00000120: 3110 5e3e 61db 3a3e 32e9 303e 24e3 e33d
00000130: e12b 2b3e 452b 1f3e a522 643e 9c3b 753e
00000140: 3905 803e 4d3c 753e c400 3d3e cb4a 413e
00000150: e93b 163e f8bd 4f3e 07e1 083e a3e8 343e
00000160: 042c 253e 176a 173e 11c4 1a3e d8cc 5b3e
00000170: 8609 6b3e fcb4 233e 710b ac3e 7a88 4a3e
00000180: 9133 6d3e b4cd 3f3e a9e5 483e 7422 5e3e
00000190: 4c3d 4c3e 0376 273e 97bf b93e 2d01 343e
000001a0: eb11 303e 4fdd 723e f107 1e3e 5b64 113e
000001b0: 0686 893e f3d5 103e

conv3.0.weight f4 [10, 1, 9]
-0.21596988 0.14754154 0.14799692 -0.14530522 -0.16731481 -0.30919173 -0.113110214 0.25273386
-0.0013677404 -0.34387028 0.2324419 -0.31131473 0.25357145 -0.14087225 -0.022310581 -0.29862997
-0.09582986 0.0015294475 -0.09661988 -0.2951714 -0.059183065 0.26918018 0.060148064 -0.04116106
-0.2610507 0.3662348 -0.23541348 -0.14063583 -0.102386236 0.1139652 -0.17605543 -0.30389792
-0.16109046 0.050751217 0.2157686 0.2090982 0.04707496 -0.09883304 0.40376613 -0.1499909
-0.21325819 0.27797073 -0.020842372 -0.119938314 -0.24532439 -0.42285025 0.19895767 -0.08402313
0.07980018 0.093365274 -0.18463713 -0.30802667 -0.36261523 0.15998329 -0.0062971455 0.36361116
0.0849174 -0.31880647 -0.21170692 0.07053542 0.224438 0.1693642 0.17866227 -0.30995825
-0.080898345 -0.28668845 -0.2467792 -0.14198877 -0.25711197 0.22205706 -0.105527975 0.24799481
0.097731434 0.34473875 0.13055398 0.17463103 -0.23276505 -0.097587496 0.33936524 -0.1007517
-0.32121682 0.2501512 0.2919163 -0.13576896 0.2577937 0.05652763 0.035078216 -0.057609174
-0.21274757 0.10633708
00000000: 3527 5dbe 2115 173e 818c 173e e4ca 14be
00000010: 9354 2bbe 614e 9ebe 54a6 e7bd 5566 813e
00000020: c145 b3ba c40f b0be 4005 6e3e a564 9fbe
00000030: 1ed4 813e d140 10be aec4 b6bc 07e6 98be
00000040: 7242 c4bd be77 c83a a5e0 c5bd b520 97be
00000050: f169 72bd fcd1 893e d15d 763d 8098 28bd
00000060: 70a8 85be 2183 bb3e 3b10 71be d702 10be
00000070: e0af d1bd 9666 e93d e047 34be 8298 9bbe
00000080: e6f4 24be 82e0 4f3d 72f2 5c3e d71d 563e
00000090: acd1 403d fa68 cabd 6fba ce3e 3797 19be
000000a0: 5b60 5abe 2e52 8e3e 9fbd aabc 38a2 f5bd
000000b0: 5136 7bbe d47f d8be 8fbb 4b3e 5214 acbd
000000c0: 476e a33d 4b36 bf3d 8411 3dbe acb5 9dbe
000000d0: b4a8 b9be a9d2 233e 4958 cebb 3e2b ba3e
000000e0: 2ce9 ad3d 9a3a a3be b3c9 58be e074 903d
000000f0: 13d3 653e cf6d 2d3e 3ef3 363e d9b2 9ebe
00000100: 08ae a5bd d4c8 92be b0b3 7cbe 8165 11be
00000110: 2ea4 83be ed62 633e 0d1f d8bd 5af2 7d3e
00000120: 6b27 c83d 9981 b03e f1af 053e 7ad2 323e
00000130: f659 6ebe f4db c7bd 48c1 ad3e e856 cebd
00000140: 8876 a4be d113 803e 0e76 953e 0507 0bbe
00000150: 89fd 833e 8489 673d 2dae 0f3d 99f7 6bbd
00000160: 80da 59be 41c7 d93d

conv3.0.bias f4 [10]
-0.18571118 0.2883903 -0.012104499 -0.19196387 -0.041776925 0.01737241 -0.13523267 -0.1942785
-0.20865455 -0.36018655
00000000: 122b 3ebe e5a7 933e f351 46bc 2d92 44be
00000010: 481e 2bbd 9650 8e3c 6f7a 0abe f1f0 46be
00000020: 8aa9 55be 5f6a b8be

conv3.1.weight f4 [10]
1.1687968 1.0687046 1.1309928 1.0522184 1.1197903 1.1269095 1.1531639 0.9899038
1.105081 1.102466
00000000: 229b 953f 50cb 883f 5fc4 903f 18af 863f
00000010: 4a55 8f3f 923e 903f e09a 933f 566a 7d3f
00000020: 4b73 8d3f 9b1d 8d3f

conv3.1.bias f4 [10]
0.007844059 -0.012731718 -0.04509664 0.008840904 0.07298177 0.003766564 0.0014064113 -0.017454216
0.012889499 -0.03604611
00000000: 5e84 003c b298 50bc 41b7 38bd 70d9 103c
00000010: 7777 953d 75d8 763b 5557 b83a 25fc 8ebc
00000020: 7a2e 533c 16a5 13bd

conv3.1.running_mean f4 [10]
-3.1074207 -4.9799733 -2.7382913 -2.0344634 -1.4526161 -4.6856513 3.152975 -6.2708154
1.0164508 3.7414722
00000000: fbdf 46c0 f15b 9fc0 2a40 2fc0 a634 02c0
00000010: 53ef b9bf dbf0 95c0 58ca 4940 85aa c8c0
00000020: 0f1b 823f 4874 6f40

conv3.1.running_var f4 [10]
2.187705 5.938234 2.3235202 1.9503211 1.3069348 5.400658 3.3100176 8.56241
1.9219192 4.2033606
00000000: 5c03 0c40 0306 be40 8eb4 1440 1fa4 f93f
00000010: a449 a73f 31d2 ac40 54d7 5340 a2ff 0841
00000020: 7301 f63f ee81 8640
