model/tpc_k5_model.ckpt (torch, 635099 bytes, 40 tensors)

conv1.0.weight f4 [10, 1, 3]
00000000: 6b2a 37be e44a 833e b125 243e e50b ef3e
00000010: ce34 683e a03d a83d 2208 9fbe 1a1f 83be
00000020: 9066 953e a13c cebe 700a aabc 079a 893e
00000030: 02f6 e63e 4afb dc3e a47e ee3e 0c06 b13d
00000040: 071f f9be 11a2 03be 03e5 593b 98b4 273e
00000050: 054a 8f3d ebd0 083f 945e bd3e 7d26 973e
00000060: b743 02be 60dd 91be 4ccd f83e ff0b 663e
00000070: cfdb 293e d529 fe3e
-0.17887275 0.25643075 0.16030003 0.46688762 0.22676393 0.08214879 -0.31060892 -0.25609666
0.2917981 -0.4028063 -0.02075693 0.26875326 0.45109564 0.43160468 0.46580994 0.086437315
-0.48656484 -0.12854792 0.0033248074 0.16377485 0.0699654 0.53443784 0.3698622 0.29521552
-0.12721144 -0.28489208 0.4859413 0.22465514 0.16587757 0.4964129

conv1.0.bias f4 [10]
00000000: b5ad 02bf 9136 563e 3587 643e bd87 ac3d
00000010: 483f 053f 9061 013f c4c9 063f d365 fc3e
00000020: ecce 78bd cc82 99be
-0.51046306 0.20919253 0.22317202 0.084243275 0.52049685 0.50539494 0.5265162 0.49296436
-0.06074421 -0.29982603

conv1.1.weight f4 [10]
00000000: f4e3 663f f192 673f 7926 653f 9021 6f3f
00000010: 610f 593f 7849 643f a914 5e3f 5004 663f
00000020: 1e8a 6c3f 4608 663f
0.9019158 0.9045859 0.8951183 0.9341059 0.8478909 0.89174604 0.86750275 0.8985033
0.9239825 0.89856374

conv1.1.bias f4 [10]
00000000: 9b98 59bd 21ef 313d c1c9 9d3c 83ae 0d3c
00000010: 19ab 353d 72cf 793d bc9d 653d 0c66 013d
00000020: 6111 8c3b b30d e13b
-0.05312405 0.04344094 0.019261243 0.008647564 0.044352625 0.06098885 0.05605863 0.03159146
0.0042745327 0.006868088

conv1.1.running_mean f4 [10]
00000000: 4f42 06bf 8f5b 4e3e 9001 403e bf2b 563d
00000010: 3ace 113f aa3c e53e d7f9 043f 7791 0b3f
00000020: b9c5 abbd 36b5 95be
-0.5244493 0.20152114 0.18750596 0.052287813 0.569553 0.44772846 0.51943725 0.54518837
-0.08387322 -0.29239815

conv1.1.running_var f4 [10]
00000000: f003 a53d 7e8f 1c3e 3c38 143e 60a1 053e
00000010: 935c b53e ec76 373e eeba 3c3d bef8 893e
00000020: a29d 383e 22a5 3d3e
0.08057392 0.15289113 0.14474577 0.13049841 0.3542219 0.17916459 0.046076708 0.26947588
0.18028882 0.18520024

conv1.4.weight f4 [400, 10, 3]
00000000: cfda 6b3d 70f8 a3bd 1a16 dfbd 497c b0bc
00000010: 3dba 1f3d 0acf 5cbd 77c5 e4bd a433 923d
00000020: 7eae babd 2c04 6e3d 3be8 c23d ef13 17bd
00000030: dc22 5e3d de83 5bbe 2ba0 28bd 2d1a 3b3e
00000040: 41ae ff3c ad54 eabd b5cb 67be 5c4e b7bc
00000050: 3aa6 1a3d 4165 84bd c58e c6bb b78e 42bd
00000060: 421d 57be e599 f43c e8f1 b53d c1e9 6cbe
00000070: 1eb1 bfbd 2a19 18bd 30a1 c9bd f8fb 18be
00000080: 6f41 25be 7892 08be a6f4 d8bc bec2 27bd
00000090: 0e31 953d 75ac 4bbe cc6a 59bd c2a1 9bbd
000000a0: 0d74 c7bd 6710 df3d 16e8 33be a0ff 243e
000000b0: e99f 08be 8430 c13d 484a 27bd 3302 36bd
000000c0: 1db4 29be d8ec e7bb 3788 203d 8888 8e3d
000000d0: a5ba 273e e98f b9bd 8902 8d3d f676 28be
000000e0: 80fa fd3d 911b 26bd f5de 0abe e715 d2bd
000000f0: 134b 6c3d 77af 56bd 00c8 53be ba87 e7bb
00000100: c1d1 603d ed8c a63c d8e6 aebd 7c92 4bbe
00000110: 9fde 1fbe 292f 89bd 1e8c 64bd 3f2d d03c
00000120: 21f8 87bd ac4d 9d3d 54fe 87be 6ece 8dbd
00000130: f13f 353e b88f c2bd 4f76 6a3b 1056 53be
00000140: 6eb6 e8bd dded c43d 095f dfbd 837c 493c
00000150: 04b9 13be 44af 80be 2697 7ebe 74a1 873d
00000160: ab66 223d 404d 46be ecb4 c13c e852 a1bd
00000170: 4d3a 65bd 53e1 32be 7722 e6bd d051 243d
00000180: ae2d dc3c cd93 ac3d eb75 49bd a6a5 063e
00000190: c038 96bd 8abd 343e 48f2 27be a150 ccbd
000001a0: 4311 3fbd 8b84 a43d ce8c 84bd 72d0 9a3d
000001b0: 59e7 ffbd 9112 1ebe 6885 f6bd 40cb e43d
000001c0: daf1 d8bc 3b99 20be 5c7d 7fbd 6d6d 06be
000001d0: 2b29 f23d 3eab 253d c0f2 c2bd cf40 03bd
000001e0: feff 0ebe d784 833d efe3 e3bd 7c24 2f3a
000001f0: ebe9 02be 03a3 153e 8ce4 27be 6dd8 bcbd
00000200: aa20 93be 0a45 9ebd 3eef 06be bd43 f5bc
00000210: 76ff aebd 7f3e 96bc 4f85 37bd 41b5 fdbc
00000220: ae18 e6bd 6e57 30be 70e9 96bd 9bd4 073e
00000230: f7c4 58be ed13 3abe a7b3 753d 92ee 05bd
00000240: 4fa8 de3c 539c 15be f64f 9bbd 901f 5f3d
00000250: 33ad 2abe 4e2d c23d e002 843d ba8f 13be
00000260: bd69 d2bc 1f11 133e 9022 59be cdfe 40be
00000270: ab11 ad3d 7bb7 1d3d 34b6 cdbd 2ff9 3bbd
00000280: 8c13 66bc 4590 11be 358b 3abe 8677 a9be
00000290: 42c6 9d3c e5d3 e2bd a2d8 023e 9292 86be
000002a0: 4064 61be b7eb 20bd 996f ce3d ecea d13c
000002b0: 647f 73be c0bc 80be 5ee1 2dbe 8701 053e
000002c0: 67dc 2abe e127 a8bd 5afe 303d 9275 b23d
000002d0: b949 11be 01b6 04bd bc94 56be fe54 6abb
000002e0: 943d 1d3e 0995 1d3d f506 0b3e 7073 9cbd
000002f0: 19b8 b2bd 7054 08bd 73e7 f6bd 01c6 7fbc
00000300: de5a 1b3e 0801 1b3d 1f7f f9ba 42ae ea3d
00000310: a5de 503d f2b9 31be 5841 473d b0b9 c0bd
00000320: f2bc 04be 4d00 c8bd 12b3 d5bd 5dc7 41be
00000330: af19 27bd d088 3b3e 080b 763c 8aac aebc
00000340: 2fd1 72bd b108 03be e7a8 0d3e 2978 d83d
00000350: c8e4 283e 3969 f63d 8f3b 6b3d 3310 d6bc
00000360: 0e41 60be 5402 583c 2b06 5e3d 2426 1bbe
00000370: 755c 0a3e 219b 54bd b09c c73d 4a19 b4bd
00000380: a215 313d 3bdc 003e 2b3c 243e 02e8 c338
00000390: 6136 253e 3b60 85bd 5ef9 64bd d67f 0b3e
000003a0: 0eee bf3d a958 f73d 0109 aa3d 9f5a 4fbc
000003b0: edc5 ebbd 8ab5 a83d a222 0c3e 3944 283d
000003c0: 9f10 1e3e ab59 06be fbaf 81bd 11bd 36bd
000003d0: e520 b63d fd94 e53c a4dc 283d 095d 27be
000003e0: 4693 663d 6115 e3ba 1c34 ee3c 8ea2 1c3e
000003f0: 7936 6dbc 050f f33d a268 4a3d c0b7 b7bd
0.05758172 -0.0800637 -0.108928874 -0.021543639 0.03899597 -0.053908385 -0.11170476 0.07138756
-0.09115313 0.058109447 0.09516951 -0.036884245 0.054232463 -0.21437022 -0.041168373 0.18271704
0.03121102 -0.11441932 -0.22636302 -0.022376232 0.037756182 -0.06464625 -0.0060595 -0.047499385
-0.21007255 0.029858539 0.088840306 -0.23136045 -0.09359954 -0.037133373 -0.09845197 -0.14939868
-0.16138242 -0.13337123 -0.026483845 -0.040957205 0.07284747 -0.19890006 -0.053080365 -0.07599212
-0.09738932 0.108918004 -0.17569003 0.16113138 -0.13342251 0.09433082 -0.040842324 -0.04443569
-0.16572614 -0.0070777945 0.039192405 0.06959635 0.16379793 -0.09060652 0.06885249 -0.1645163
0.12401295 -0.040553633 -0.13561614 -0.10258084 0.057688784 -0.05241343 -0.20681763 -0.0070657404
0.054887537 0.02033087 -0.08540124 -0.19880098 -0.15612267 -0.06698448 -0.05579769 0.0254122
-0.06639124 0.0768083 -0.26561224 -0.06924139 0.17700173 -0.095000684 0.0035776084 -0.20638299
-0.11362921 0.09615681 -0.109067984 0.012297752 -0.14426047 -0.25133717 -0.24862346 0.066225916
0.039648693 -0.19365406 0.02364584 -0.07877141 -0.055963803 -0.17468767 -0.112370424 0.040117085
0.02687725 0.08426628 -0.04918472 0.13149127 -0.07335043 0.17650428 -0.16401017 -0.09976316
-0.04664732 0.08033093 -0.06472169 0.07559289 -0.12495298 -0.1543677 -0.12037164 0.11171579
-0.026482511 -0.15683453 -0.06237541 -0.1312768 0.118242584 0.040446512 -0.09518957 -0.03204423
-0.13964841 0.064218216 -0.11127459 0.0006681157 -0.12784545 0.14612965 -0.16395777 -0.092209674
-0.28735858 -0.07728012 -0.13177201 -0.029939527 -0.08544819 -0.018340347 -0.044804867 -0.030970218
-0.11235176 -0.17220852 -0.073687434 0.13264696 -0.21168886 -0.18171664 0.059985783 -0.03269822
0.027179865 -0.14610414 -0.07583611 0.05447346 -0.16667633 0.094812974 0.06445861 -0.14410296
-0.025685186 0.14362 -0.21204591 -0.18847199 0.084506355 0.03850506 -0.10044518 -0.045891937
-0.014042746 -0.1421519 -0.18217166 -0.33099002 0.019259576 -0.11075572 0.12777951 -0.262837
-0.22010899 -0.039287295 0.10079879 0.025624715 -0.23779064 -0.25144005 -0.16980502 0.12988864
-0.1668564 -0.08210731 0.04321132 0.08713831 -0.14188279 -0.032400135 -0.20955175 -0.0035756226
0.15355521 0.03847221 0.13576873 -0.076392055 -0.0872652 -0.03328365 -0.12055864 -0.015611173
0.15171382 0.03784278 -0.0019035077 0.11459018 0.05099358 -0.17356089 0.0486463 -0.09410417
-0.12962702 -0.09765682 -0.104345456 -0.18923707 -0.04079598 0.18313909 0.0150172785 -0.021322507
-0.059281524 -0.12796284 0.13833962 0.10569794 0.16493523 0.120317884 0.057429846 -0.026130771
-0.21899816 0.013184149 0.0542051 -0.15151268 0.13511832 -0.051905755 0.09746683 -0.08793886
0.04323352 0.12584011 0.16038577 9.3415394e-05 0.16134025 -0.06512495 -0.055901878 0.13622984
0.09371577 0.120774575 0.083024986 -0.012655883 -0.11512361 0.08237751 0.13685086 0.041080687
0.15436028 -0.13120143 -0.06332394 -0.0446139 0.08892993 0.028025145 0.041226044 -0.16344084
0.056292795 -0.0017325097 0.029077582 0.15296385 -0.014478319 0.11868099 0.049416192 -0.089705944

conv1.4.bias f4 [400]
00000000: 9d45 5a3d d656 a2bd 5da7 c13d cb6b 203c
00000010: fbf0 0fbe 86cf a5bd 7625 8c3d 79cb ebbd
00000020: 4580 90bd 79b9 ebbd 56a9 49bd 8f42 96bd
00000030: 6511 103e ad1c d5bd f15f b53e 9236 fd3c
00000040: fe64 a03c e411 0cbd 2400 42be 57b6 5d3c
00000050: 25f8 223e 588c 9cbe e398 7abe 1b04 61bd
00000060: 7f70 04be 8fc8 793d 2ae7 e23c efdd 80bd
00000070: 120e bebb 243e 2a3e 3064 d03d 6537 a5bc
00000080: 6b22 243d 13e3 06bc 599a e0bd e287 d23d
00000090: 8659 27be cf9e fabd e520 ad3c ae1e 29be
000000a0: 3d54 b8be f90f 573e 2c95 c23d ed16 37be
000000b0: 7d6a 2d3e ecba 703d 0438 b3bd e8e0 0dbd
000000c0: 01b8 bfbd 32fa 7bbe 5fdc f43d 25be bcbd
000000d0: 6d03 e1bd 770e 2e3e 86fd 17be ec77 563e
000000e0: 0615 01be 912e e63d fefd 753d 2e70 dcbd
000000f0: f1dd 723d 04d4 06be 2003 73be a7ac 30bd
00000100: cd43 8d3b b5d4 413e 0489 ac3b 9718 b63c
00000110: ab77 a23d dab9 0a3d 570b d9bd 4bb9 a6be
00000120: b52c d23a 8e7e 5bbe 185b 513e 05e4 a23d
00000130: 202f 723e a96f 99bd 0cca 9dbb 3098 093c
00000140: 89ab 2a3d 2bc8 b4bc 1b67 7bbd 296d a53c
00000150: b604 ccbd 41f2 053d 6668 9dbd 1b91 5ebd
00000160: cbda e3bd 07cb 11be 9ea2 503e 6c01 c73d
00000170: cead a53e e5ef 1abe 209c 2e3e 0904 383c
00000180: 1abc 51be 4d7b 443e 14bd 5c3b 750c 0bbd
00000190: 7217 14be 4bad cabd da36 143d 93c8 2f3e
000001a0: e2b2 13bc f171 8dbc f263 683d cc3f ddbd
000001b0: 25c0 2ebe 17e5 60bd 956a a33c 66f2 983e
000001c0: af29 223b b8f8 923d 338e b7bd 715d 22bd
000001d0: d46f 913d c8df 01be cb30 c5be 3eae 3ebd
000001e0: 382d 03bc 8be5 78be 4a9d f13d efbf d63d
000001f0: ce7f 92bd 067f 00be 9a01 09bd a93f 023d
00000200: e3ef 4b3e 33f6 60be 08b0 09bd 22bd babd
00000210: 060f 85be 7a5c 74bd b384 4ebe cddf 6abd
00000220: 45f3 edbc 2ab1 45bd 4f16 6c3d b6b6 f03d
00000230: 79f4 173c 89fe eebc f897 363e c1c8 46bc
00000240: 3caa 383d de96 d4bd 9829 a8bd a316 a5be
00000250: f8c4 243d 43a7 4fbe 4510 30bd ff46 c8bd
00000260: c243 a43d b72d 4abe bd08 633e bab9 59bd
00000270: 5cbd 5c3e b82b 933a 9fe7 bf3d 5152 af3d
00000280: 11f8 08be 35d7 a5bd dd9e 023e e87b 0d3d
00000290: 4791 df3b 9608 5f3e d304 fabd 1e1a 9ebd
000002a0: b17a c53d ae7f 2fbd b6f7 91be 950c fd3c
000002b0: 923a 39be 57d7 273e 2ecc cf3b efac b3bd
000002c0: 2cfe 5f3e ef5b b23d a60b d93d aa12 123e
000002d0: 02ce fbbd 03d3 bb3d df21 a0be 1fd6 c13d
000002e0: a3a4 783e ce09 8f3e d2a7 85bd 7b15 9ebc
000002f0: 9056 23be 5071 f9bb eb31 043e 8c3f 52be
00000300: 557b 023d f6fc 12be 92f7 04bd 5758 aebd
00000310: 07df 32be 621e e8be 9961 02be 3109 5bbc
00000320: df6c 423d 498b 38be 53a3 4b3e 99d2 1bbe
00000330: d4f6 10be 038b 8e3d 2166 55be 8fd9 98be
00000340: ed8c 56be 62eb 06bd ded8 fdbd 9edd a63b
00000350: c7f6 d13c 25df 6dbe 792b 873e c6cc 0ebc
00000360: 8b56 ca3c 0424 353e 3262 30bd 5d9e b5bd
00000370: 7aab 3eba a38b c53d 66a2 a53d 865a bc3d
00000380: 1607 263d e0ef 903d 1eb4 6bbd 35f5 3bbd
00000390: e660 29be 8441 83bb b0fb acbc 3cf8 51bc
000003a0: 6847 b73d ed3e 1d3c 9cb7 bcbd 843a 373d
000003b0: f739 d3bd 4ce7 e2bc c255 c13e 9ceb 8a3d
000003c0: 1568 a9bd e286 5dbe 9fcd 78bd 4e9a bcbd
000003d0: 2491 84be 76e2 e4bd 2004 9f3d f504 6bbd
000003e0: fca5 c7bc 8604 b83e a046 833e eed6 883d
000003f0: 307d 2ebe a6c7 50be 323c 69be b5f2 3e3e
0.053289045 -0.07926719 0.0945575 0.009791325 -0.1405677 -0.080962226 0.068430826 -0.11513419
-0.070557155 -0.115099855 -0.049233757 -0.07336914 0.14069135 -0.1040586 0.3542476 0.03090981
0.019579407 -0.03419675 -0.18945366 0.013532243 0.15914972 -0.30575824 -0.24472384 -0.054935556
-0.12933539 0.060982283 0.027698118 -0.062923305 -0.005800017 0.16625267 0.10175359 -0.020168016
0.040071886 -0.00823285 -0.109669395 0.10279824 -0.16342744 -0.122373216 0.02113385 -0.1651561
-0.3600177 0.21002187 0.095011085 -0.17879839 0.16935153 0.058772013 -0.087509185 -0.034638315
-0.09361268 -0.2460716 0.11956095 -0.09215955 -0.109869815 0.16997705 -0.14842805 0.20944184
-0.12605676 0.112393506 0.06005668 -0.10763584 0.05929369 -0.13166815 -0.23731661 -0.043133404
0.004311061 0.18928798 0.005265357 0.022228522 0.07932981 0.033868648 -0.10597866 -0.32563242
0.0016035052 -0.21434996 0.20444906 0.079536475 0.2365079 -0.074920006 -0.0048153456 0.008398101
0.041667495 -0.022068104 -0.061377626 0.020193653 -0.09961836 0.032701734 -0.07685928 -0.054337602
-0.11125716 -0.14237605 0.20374534 0.09717068 0.32359165 -0.15130575 0.17051744 0.011231431
-0.20481911 0.1918766 0.0033682035 -0.033947427 -0.14462069 -0.09896334 0.036185123 0.17166357
-0.009014817 -0.017266246 0.05673594 -0.10803184 -0.17065485 -0.054905977 0.019948283 0.29872435
0.0024744084 0.071763456 -0.08962669 -0.039639894 0.07101408 -0.12683022 -0.3851379 -0.04655289
-0.008006386 -0.24306314 0.11797579 0.10485827 -0.07153283 -0.12548456 -0.033448793 0.031798992
0.19915728 -0.21968918 -0.033615142 -0.091181055 -0.25988024 -0.059658505 -0.20167808 -0.05734234
-0.029046664 -0.04826466 0.057638463 0.11753599 0.009274595 -0.029174106 0.17831409 -0.012132824
0.045084223 -0.10380338 -0.082110584 -0.32243833 0.040226907 -0.20278649 -0.042984266 -0.097791664
0.08020736 -0.19744001 0.22171302 -0.05315564 0.2155661 0.0011228239 0.0937035 0.085606225
-0.1337588 -0.08097688 0.12755914 0.034541994 0.0068227383 0.21780619 -0.122079514 -0.07719825
0.09642542 -0.042846374 -0.285093 0.030889789 -0.18088749 0.1639074 0.006341479 -0.08773219
0.21874303 0.08708941 0.10597925 0.14264932 -0.12295152 0.09171107 -0.31275842 0.094646685
0.24281554 0.27937168 -0.0652615 -0.019297352 -0.1595099 -0.007612385 0.12909667 -0.20532054
0.0318559 -0.1435431 -0.032462664 -0.08512943 -0.1746789 -0.4533568 -0.12732543 -0.013368891
0.04746711 -0.18021883 0.19886522 -0.15217055 -0.14156657 0.06960108 -0.2083974 -0.29853484
-0.20952196 -0.032939322 -0.1239488 0.005092337 0.025630368 -0.23229654 0.26400355 -0.008715814
0.02469947 0.1768952 -0.043062396 -0.08868096 -0.0007273477 0.09645774 0.08087616 0.091969535
0.0405341 0.070770025 -0.05754482 -0.045888145 -0.1654087 -0.004005613 -0.021116108 -0.012815531
0.089491665 0.009597522 -0.09214708 0.04473354 -0.1031379 -0.027698182 0.3776074 0.0678322
-0.08271805 -0.21633485 -0.06074297 -0.09209119 -0.25891984 -0.111760065 0.07764459 -0.057377774
-0.02437114 0.3594095 0.2563982 0.066816196 -0.17039943 -0.2038866 -0.22776869 0.18647273

conv1.5.weight f4 [400]
00000000: 40b3 6f3f 5dc2 533f 2791 603f 3328 5a3f
00000010: 3e3a 643f e1f6 863f 9b2b 6c3f 0acb 5c3f
00000020: a72d 583f bc9c 6b3f 4030 603f 050e 5f3f
00000030: f016 523f 0c2d 5e3f 60a1 8f3f 7fa6 5f3f
00000040: 7bdd 593f e338 5e3f b5e7 753f 0bdb 623f
00000050: 2005 5f3f 75ad 673f af85 5f3f 6464 5d3f
00000060: 413d 623f 0a41 853f de7c 693f 33c1 603f
00000070: 00e2 583f 7b30 6c3f 5187 5e3f 3e8c 6e3f
00000080: 8863 5c3f 8ab7 6a3f a39f 633f bbe6 6d3f
00000090: 3567 583f b3b2 643f 8943 5d3f b496 553f
000000a0: 6d28 663f 7b2b 5b3f c0b6 5e3f f90c 643f
000000b0: 6274 553f 341f 553f 843c 5e3f cd8f 6c3f
000000c0: 462e 593f 0a24 633f 90ad 5c3f 9aa3 593f
000000d0: 18ef 713f 9ed0 693f b66b 673f 486d 543f
000000e0: fcce 843f ccff 5e3f e1a8 643f 7d0f 5b3f
000000f0: a657 683f fe0e 583f 8f63 663f 7331 673f
00000100: 0bc5 643f 7245 693f 2949 5e3f 2af2 623f
00000110: c33e 5e3f 5cd2 603f e18f 5c3f 9309 683f
00000120: ac1d 5f3f 24f5 643f ee63 693f a982 673f
00000130: 67f3 5a3f 7f45 593f 8e1c 673f e4fa 5b3f
00000140: 6aa4 5d3f f9f8 593f b501 683f 286b 5b3f
00000150: b564 633f 5d88 683f ede9 623f 0049 5b3f
00000160: 2a20 843f bc5c 553f 7c5a 583f f23f 5c3f
00000170: 9d83 6f3f 073e 643f e832 693f 47dc 643f
00000180: 2251 5b3f fe83 713f f42d 6e3f e524 6c3f
00000190: ae4a 693f 9eb8 643f 1c82 643f f7c2 663f
000001a0: df0d 653f ab5e 673f 3681 6e3f b958 5c3f
000001b0: 78af 5d3f cada 543f 2140 683f cc21 703f
000001c0: ebff 5f3f f6bb 633f 4509 503f 75c8 623f
000001d0: e57a 643f 2983 6d3f 6d7d 6e3f 1155 623f
000001e0: 46f4 503f d15b 543f 59d4 643f 87f3 633f
000001f0: 86a8 6a3f b4fb 653f 65dd 633f e282 5e3f
00000200: 652a 833f 4abe 4e3f cf20 643f 1d99 5f3f
00000210: 814f 5e3f d73a 663f 9d65 693f 0ee5 593f
00000220: 716d 5d3f b230 6a3f 07bc 613f 5fb1 5a3f
00000230: cbe1 5c3f fee2 623f ca28 6a3f e53d 5f3f
00000240: acee 5f3f 08d0 5b3f ab96 673f 6ce7 6e3f
00000250: 24bd 633f 8aee 663f ad62 633f 1474 7e3f
00000260: dbb3 5e3f 416e 583f 84bf 503f f45e 5f3f
00000270: 12e5 6b3f c97c 6d3f 7a1d 643f 719c 623f
00000280: 250c 663f f86c 583f ee75 633f 8dc2 673f
00000290: e261 5d3f 9542 693f aa0f 5f3f 7163 5e3f
000002a0: 7b3c 5e3f 2633 623f bbd1 683f 252a 583f
000002b0: 91e8 653f 3fae 503f 07ed 653f 46fe 6e3f
000002c0: 2322 713f 0cff 633f 8243 623f 7a0f 533f
000002d0: 5a23 5a3f 51b1 6a3f 1230 693f 7480 6d3f
000002e0: 0543 833f 0206 693f 6ef0 573f 9c04 613f
000002f0: 63c1 553f 5ff1 683f 56a0 6c3f 66d4 683f
00000300: 88ed 703f 9d08 593f 83ec 5d3f 8244 583f
00000310: 2362 5e3f 3651 6b3f 7d71 583f dfba 663f
00000320: e9d7 633f f957 643f 60f9 753f fe3e 5e3f
00000330: e92f 663f a409 673f 8ebc 5b3f 2316 5d3f
00000340: 8554 5e3f 08e6 5d3f c19c 643f a95a 743f
00000350: 95e4 5b3f af2d 583f 9ca0 6d3f e83a 583f
00000360: 5dd0 653f cb72 573f 3edc 5e3f e74b 633f
00000370: 59fe 653f 8885 663f f183 603f 8c80 603f
00000380: 2d9e 703f 34e7 6b3f 0eb0 673f a7fb 5c3f
00000390: 346c 653f d87c 773f 4c6c 5b3f a6b6 5a3f
000003a0: 89c9 5d3f f61b 5b3f 070a 803f a37c 673f
000003b0: 844b 583f 81d3 653f 3db8 7d3f 84f5 5e3f
000003c0: 9fca 5d3f bbf8 823f 8311 5f3f 1749 5d3f
000003d0: c91a 583f 07db 6a3f 57c2 623f d828 5b3f
000003e0: 78ef 643f f9dc 523f 3c8e 5e3f 5410 5a3f
000003f0: 23a1 703f a41a 663f 6ee8 703f f6fb 723f
0.9363289 0.8271845 0.87721485 0.8521759 0.8915137 1.0544091 0.92254037 0.86247313
0.8444466 0.9203603 0.87573624 0.8713077 0.8206625 0.86787486 1.1221123 0.8736343
0.8510358 0.8680555 0.9605668 0.88615483 0.87117195 0.9049905 0.8731336 0.8648131
0.88374716 1.0410473 0.9120616 0.877948 0.8471985 0.92261475 0.86925226 0.9318274
0.8608937 0.9168631 0.8891546 0.9293019 0.8453248 0.89335173 0.86431175 0.8343308
0.89905435 0.8561322 0.86997604 0.89082295 0.8338071 0.8325074 0.8681109 0.9240692
0.8483623 0.88726866 0.86202335 0.8501526 0.94505453 0.9133395 0.9039873 0.8297925
1.0375667 0.87109065 0.8932019 0.8557051 0.9075874 0.84397876 0.89995664 0.9030983
0.89363164 0.9112159 0.86830384 0.88650763 0.86814517 0.8782098 0.8615704 0.9063961
0.8715465 0.89436555 0.91168106 0.90433747 0.8552765 0.8487167 0.90277946 0.85929704
0.86579 0.8514553 0.90627605 0.8571038 0.8882554 0.90833074 0.8863819 0.85658264
1.0322316 0.83344626 0.8451307 0.8603507 0.935602 0.89157146 0.910933 0.89398617
0.85670674 0.9434203 0.9303887 0.92243797 0.9112958 0.89344203 0.8926103 0.9014124
0.8947429 0.90378827 0.9316591 0.8607288 0.8659587 0.83146346 0.9072285 0.9380157
0.87499875 0.8895868 0.81264144 0.88587123 0.8925002 0.9277826 0.93160135 0.8841105
0.8162273 0.829526 0.89386517 0.8904347 0.91663396 0.89837193 0.89009696 0.8691846
1.0247313 0.8075911 0.8911256 0.8734301 0.86840063 0.8993353 0.91170675 0.85115135
0.8649512 0.91480553 0.8817753 0.85426897 0.8628203 0.8862761 0.9146849 0.8720382
0.8747356 0.85864305 0.90464276 0.9332187 0.8896048 0.9020773 0.8882244 0.9939587
0.8699319 0.84543234 0.8154223 0.8725426 0.9214641 0.9276853 0.8910748 0.8851996
0.8986228 0.84541273 0.8885182 0.90531236 0.8647748 0.9111722 0.87133276 0.86870486
0.86811036 0.88359296 0.90945023 0.8443931 0.89807993 0.8151588 0.898148 0.9335674
0.94192713 0.89061046 0.8838426 0.8244549 0.8521019 0.91676813 0.91088974 0.9277413
1.0254828 0.9102479 0.8435124 0.8789766 0.8349821 0.90993303 0.92432153 0.90949094
0.94112444 0.8477877 0.86689013 0.84479535 0.86868495 0.91920793 0.8454817 0.9012889
0.8900133 0.89196736 0.9608364 0.8681487 0.89916855 0.90249085 0.85834587 0.863619
0.86847717 0.86679125 0.8930169 0.95450836 0.85895663 0.8444471 0.92823195 0.84464884
0.8977106 0.84159535 0.8705481 0.8878769 0.8984123 0.900475 0.87701327 0.87696147
0.9399136 0.9214966 0.90503013 0.8632149 0.8961823 0.9667487 0.8571212 0.8543495
0.86635643 0.8558954 1.000306 0.90424556 0.8449023 0.89775854 0.9910925 0.8709338
0.866373 1.0232157 0.87136096 0.8643965 0.8441587 0.9174046 0.8857779 0.856092
0.894279 0.8236843 0.8693578 0.85181165 0.93995875 0.898844 0.9410466 0.9491571

conv1.5.bias f4 [400]
00000000: 0ab0 9c3d bf22 03bd 307e 6dbd a3e2 25bc
00000010: d3c6 fabb bd4c aebc 16b9 b63d 0757 f83c
00000020: 5b4e a73c 0c86 a0bd ccb0 1b3d fd19 5abd
00000030: 4c95 0fb9 015f c4bc dde9 833e 32e8 27bd
00000040: 2856 b53c 060f bfbd f3b5 2dbe 083a b3bd
00000050: 2509 273d da74 11be 95fc c4bd 3647 4ebd
00000060: 134f bfbd c594 cc3c b49b ff3c 74f2 1fbd
00000070: 0a0d ecbc c058 0f3e 5008 05bc ca59 8abd
00000080: d58e 29bc 23bc 4abd 12db 19bc 05eb 213d
00000090: 709e 14bd 038e 2d3c b84b 603d 19b1 53bd
000000a0: d49f 11be 3223 133d 0bf6 6ebd 50ae c5bd
000000b0: 922e 623d ff81 bbbb 442c ccbd b952 683d
000000c0: af09 12bc 7afe b8bd af2d 923d 0062 8d3c
000000d0: 8a44 04bd 3e10 bb3d 885d b03c d062 023d
000000e0: 0197 01bc d373 d73c d10d 4fbd d032 94bd
000000f0: 3fc3 99bd 4aed 7cbd 1f48 19be f226 b0bd
00000100: d69b 693d ec97 683d 5f2d dbbd b520 b1bd
00000110: c026 313d 8115 a6bc abcb 9abd dbb3 09be
00000120: e4bf 9a3d 66c5 293c f4ad b23d b446 9c3d
00000130: d5ff 043d 9cf0 e6ba ffd0 8abd 58ef afbd
00000140: 7cbf a83d 8ee6 71bd dfbf 27be 1e3e 52bd
00000150: cd2e 4ebe b410 bf3c 273f a3bd e3d3 1b3d
00000160: 0725 883c 61b4 67bd a6b1 f33c 1207 9cbd
00000170: a67c 3b3e 18aa 85bd 3f86 bd3d e4a2 f73c
00000180: 8f35 55bd ea80 d63d 46d4 32bd d56e cfbd
00000190: 088d 03bd d113 a53b 0fcf d8bd b626 983d
000001a0: ad43 5ebb 5cf0 0fbc 112b 9d3d f14b c53c
000001b0: 7410 89bd 0651 383c c181 f0bd 2cbc ac3d
000001c0: fec8 fabc ba7e 9abd d96f 6bbc e841 8abd
000001d0: 6ec5 bc3c 9535 d9bd 83c8 38be 5c90 dcbd
000001e0: e501 073d 0106 a8bd 796d 263c a4fe f5bc
000001f0: e12b f6bd 686e 99bd e119 01bd a69f 9ebd
00000200: ffb0 923d 33e1 d7bd d455 913d eb0f e2bc
00000210: 271f cebd c9af 2c3d aa44 1abe 5e4d 97ba
00000220: 9f2f acbc c58e a8bd def2 b9bd 6892 2bbc
00000230: 24ad 62bd b980 b33c 759a bd3d 17ec d1bd
00000240: 3548 a7bc bdbb 49bd 8cac 43bd 7559 3cbe
00000250: 7bd8 8f3c eb9d d5bd 9189 f93c c2b4 e1bc
00000260: 3db3 94bd ffe1 8cbd ef63 353c 8435 ce3c
00000270: 55c7 003e 0a07 113d d6be 693b 3ff0 34bd
00000280: ca33 d63a 2872 b4bd 0faa 153d e935 a73b
00000290: 0052 1abd c9f7 ce3d 8330 c13b 1532 17bd
000002a0: 6556 86bd 1c0b b9bd 84c4 17be 2d0f a1bd
000002b0: ed78 a0bd b061 aabb 5d3e adbd 85c8 cb3c
000002c0: c3e8 e43d dc45 ad3d 46ca c43c 9455 6e3c
000002d0: 0856 da3b d95f ff3c 6951 24be 6e65 3d3d
000002e0: 6c1c 4e3e 25e9 cc3d 1bee f13b b07a b2bd
000002f0: 3d67 66bd da8f 8dbd a2a8 ce3d ca0f 8cbd
00000300: d83f 2cbc 35a4 87bd a27a 6dbd a2c8 99bc
00000310: 6b16 a5bd eab5 3dbe 07a1 883c 6326 eebd
00000320: 21ee 903d 5475 b3bd f7de 273e 195b dbb9
00000330: fb6f 2cbe 46dc b63d b7f2 b6bd b82f 02be
00000340: 9947 00bc d1ee 9cbd a63f 89bd 4fac 23bc
00000350: 8e6e 91bc 6865 aebd d443 353e 7917 a4bc
00000360: c17e eebd 6544 97ba 4476 113c be15 cbbd
00000370: 0fb3 8ebc 79f5 b93d fefe fa3c 9c38 85bc
00000380: 68d2 a63d 899d 92b8 9811 15be 8efe bcbd
00000390: 406d c2bd 6c43 3bbd 64dd 88bd dd2a 43bc
000003a0: 799c 50bd f896 60bd 5897 16be 40e3 9bbc
000003b0: b27c 76bc f7fa 7c3c 2267 3d3e 8293 18bc
000003c0: ef8b 39bd b958 12bd ea52 5bbc 625d 9bbd
000003d0: 1238 34be 19c2 f4bd 73d1 b1bd c0b8 6cbc
000003e0: 6bfd 98bd 543d da3d 9c75 433d 2ea3 efbc
000003f0: dd4a 98bd 89cb e8bd e161 58bd 1f0d c73d
0.07650764 -0.03201556 -0.05798167 -0.010124835 -0.007653096 -0.021276826 0.08922021 0.030314935
0.020423105 -0.078380674 0.038010404 -0.05324744 -0.0001369316 -0.023971083 0.2576436 -0.040992923
0.022135809 -0.09329037 -0.1696394 -0.08751303 0.040780205 -0.14204732 -0.09618489 -0.05036088
-0.09341254 0.024973283 0.031202175 -0.03904958 -0.028814811 0.13998699 -0.008119658 -0.06755407
-0.010348995 -0.049495827 -0.009390609 0.039530773 -0.03628391 0.01059294 0.05475971 -0.051682565
-0.14221126 0.035922237 -0.058340114 -0.09652388 0.055220194 -0.005722284 -0.099693805 0.056719515
-0.008913442 -0.090329126 0.0713762 0.017258644 -0.032291926 0.09133957 0.021528974 0.031832516
-0.007909537 0.026300346 -0.050550286 -0.07236254 -0.07507943 -0.061749734 -0.14968918 -0.08601178
0.057033382 0.05678551 -0.10702013 -0.086488165 0.043249846 -0.020273926 -0.07558378 -0.13447516
0.075561315 0.010362005 0.08724585 0.07630673 0.032470543 -0.0017619315 -0.06778144 -0.08590573
0.08239648 -0.059057765 -0.16381787 -0.05132877 -0.2013504 0.023323394 -0.0797103 0.038043868
0.016619219 -0.056568507 0.029747795 -0.07618536 0.18309268 -0.065265834 0.09254121 0.03022904
-0.05205303 0.10473807 -0.04365947 -0.101285614 -0.03211692 0.0050377627 -0.10586368 0.074292585
-0.003391485 -0.0087853335 0.0767423 0.024084063 -0.06692591 0.011249786 -0.117434986 0.084343284
-0.030613419 -0.075437024 -0.014369928 -0.06750852 0.02304336 -0.10605923 -0.18045239 -0.10769722
0.03296079 -0.0820427 0.010157936 -0.030028649 -0.12020088 -0.074917614 -0.03151882 -0.07745294
0.071626656 -0.10541 0.070964485 -0.02759548 -0.100645356 0.04215983 -0.15065256 -0.0011543443
-0.021018801 -0.08230356 -0.09079526 -0.010471918 -0.0553409 0.021911966 0.09257976 -0.10250109
-0.020420173 -0.049251307 -0.047771975 -0.183935 0.01755928 -0.10430511 0.030461105 -0.027552012
-0.072607495 -0.06879043 0.011071189 0.025172003 0.12576039 0.035407104 0.0035666726 -0.04417443
0.0016342339 -0.08810836 0.036539134 0.005102862 -0.037675858 0.10105855 0.0058956756 -0.036912996
-0.06559447 -0.09035322 -0.14821059 -0.07864223 -0.07835565 -0.0051996335 -0.084591605 0.024875889
0.11177208 0.0846059 0.024022233 0.014546771 0.0066630878 0.031173633 -0.1604668 0.04623931
0.2012803 0.10005406 0.0073831207 -0.08714807 -0.0562508 -0.06912203 0.10090758 -0.06838949
-0.010513268 -0.06623117 -0.05797828 -0.018772427 -0.080609165 -0.18526426 0.016678346 -0.116284154
0.070766695 -0.08762613 0.16393648 -0.00041838808 -0.16839592 0.089287326 -0.08933013 -0.12713516
-0.00782957 -0.07662738 -0.06701593 -0.009989812 -0.017752912 -0.085154355 0.17701656 -0.020030724
-0.1164527 -0.0011540769 0.008878294 -0.09916256 -0.017419366 0.09080023 0.030639168 -0.016262345
0.081456006 -6.991166e-05 -0.14557493 -0.0922824 -0.09493494 -0.045718595 -0.06682852 -0.011912075
-0.050930474 -0.054831475 -0.1470617 -0.01902926 -0.015044378 0.015440694 0.18496373 -0.009312512
-0.045299467 -0.035729144 -0.0133864675 -0.07586171 -0.17599514 -0.11951084 -0.086825274 -0.014448345
-0.07470211 0.10656229 0.047719583 -0.029252615 -0.07436154 -0.11366946 -0.05282772 0.097192995

conv1.5.running_mean f4 [400]
00000000: d937 56be 985c 0abe 8a1c e73d 6250 84bd
00000010: 3414 71be 3aa3 b8bd 01f5 4ebe 44b6 a03d
00000020: 6540 ecbb 27e6 153d 1474 a83d cd80 5f3e
00000030: 4469 1c3e b581 0fbe 15da 2abe 9501 1a3e
00000040: 4709 9c3d 1b60 623d 199a 4d3e 1d1a 343e
00000050: eb6a 903d c494 c3bd 4d16 18be 661a cf3d
00000060: 668d e7bc bbc3 99be b26d cbbd c29a 023e
00000070: 0daa 963c db89 93bd ce03 893d a96c 383c
00000080: 7de2 97bd 9ad3 253e e641 74be 2516 5abd
00000090: c8f0 abbd 39a1 87be 8729 c5bd 8c4a f2bd
000000a0: 474c 89bc 0284 083e 5626 433e 1a92 f2bc
000000b0: feda cc3d d403 103e e9d3 56bc 6263 80be
000000c0: ca94 0abe 6dd9 5fbd 696a 5e3c eb7d 51bd
000000d0: 11de 16be 1d60 11be 58f1 c0be 8854 3d3e
000000e0: a48d 27be 74ad 74bd d890 213e b2a3 d1bb
000000f0: 860d 833e 84ed 1ebd f4dc 9b3d 77c0 ff3d
00000100: 13fc 30be 1276 6fbd 562e 2a3e 03d7 343d
00000110: 5f14 8a3e e3d8 073e fd45 9cbd de78 ebbd
00000120: 37b9 2dbe 2ab2 87bd 67d0 dabc 2a55 79bd
00000130: a912 5f3e c535 95bb fc72 ab3c 2ad7 173e
00000140: 2e7d 58be f6cb 6a3d f3bb bf3d efcb cd3d
00000150: c8b9 7c3e 9e1c 0abe 8d87 e93d ec11 ce3d
00000160: 84e6 95be ed8f acbd d48c ed3d 3d38 853e
00000170: 23bb a9bc d4c5 96bc 94be 28bd e9a4 233e
00000180: aa65 70be e11a afbd a2a5 d1bd 31b0 5c3e
00000190: e44b 87be cff7 abbd 199c 733e e7cd 47bd
000001a0: 55b9 943c b03f d53c ec8b 1fbe a89e d03c
000001b0: 1e32 31be f087 81be c74e 973e 86fc 3b3d
000001c0: 47f5 14bc f9a7 373e 41db 7ebd dcc5 b03c
000001d0: d572 ba3d dfb4 46bd 90f4 9ebd c9fc e33d
000001e0: a62c 2cbc c5a1 5ebe 4158 073c 8ebf 153d
000001f0: c2f6 043e 933b debd 5266 34bd 2881 ec3d
00000200: 02c3 29bd e191 b3bd 14c2 73be 0f21 c6bd
00000210: 3cef 4fbe ba81 4fbe a11d 003d 5043 4abe
00000220: 5f34 2a3d ce26 913d 19bb 883e ff97 233e
00000230: 68c9 b2bd 1d58 0ebe cfb0 9fbd 6d99 0c3e
00000240: 61ef f03d 9720 0fbe 3143 2dbd bdae 6bbe
00000250: 23ff a33c d2c4 0f3d 640c 7dbe aea6 31be
00000260: 5e1b 1b3e f568 f7bd c068 813e 8342 803d
00000270: b2ab b4bd f381 3abe 567a fc3d 227f 3c3e
00000280: fcd8 78be dc0b 0dbc 9be1 26bd 8ba5 013d
00000290: 1149 be3c 1c10 afbd 27ba 97bd f6ab 29bd
000002a0: 5486 7f3e c6a5 323e 1c0b c2bd 3939 6d3d
000002b0: d332 9abc 9b46 3a3e e906 313e 040f eabc
000002c0: 0cfe e5bc 1efb 8bbd 7683 3a3e 8136 8f3c
000002d0: 79f8 acbd 2379 663e cfd1 2cbe 5ab8 ccbd
000002e0: 7de3 72be 3c1b 5d3d 523a d9bd 5bf2 ed3d
000002f0: cec2 85be bfa7 123e 6927 4bbe 1d9e 27be
00000300: 4217 e73c a6d8 a7bd ad53 de3d 0706 94bd
00000310: a193 dbbd 59b2 79bd dd70 75bd 4ec7 2e3e
00000320: 8a66 00be bb99 4fbd a39f 15be 48c2 f3bd
00000330: 7c59 993d 743a 27be a014 0ebe 65d6 b9bd
00000340: 9be0 2abe 3f69 a13e 1ff4 53bd 11a6 ca3d
00000350: 3754 06bc 0575 3ebe de48 2a3c 76c9 1abd
00000360: cb7c d43d de88 603e 2187 9abd bd92 433d
00000370: a395 07be 3076 8cbd 316b 863d 6ad7 d33c
00000380: 4135 91be bab4 2b3e db36 ce3d aecb 0b3e
00000390: 9536 04be 57c9 91bd c3ef d33d 64b7 21be
000003a0: 7741 b63e a347 5d3d dd75 aebc f1e2 a63c
000003b0: 7ab7 5bbe 3361 6fbe bbc7 37bd 8a05 1e3d
000003c0: 5dbf 14bd 937b 79be 7026 4bbd ad23 7b3d
000003d0: 2f14 15be 364b 963d 44a7 493e 582e b5bc
000003e0: ebef b73e 4c17 8b3e 50a3 c03d 5753 543d
000003f0: 72b0 c9bd 0363 1cbe f69f 97be 2c79 b9bd
-0.20919742 -0.13511884 0.1128474 -0.06460644 -0.23542863 -0.09015508 -0.20210649 0.078472644
-0.007209825 0.036596444 0.08225265 0.21826477 0.1527453 -0.14014323 -0.16684754 0.15039666
0.07618957 0.055267435 0.20078315 0.17588086 0.07051643 -0.09549859 -0.14852257 0.10112457
-0.028265666 -0.30032143 -0.09933032 0.12754348 0.018391633 -0.07204028 0.06690179 0.011256375
-0.07416246 0.16194001 -0.23853263 -0.053243775 -0.08395535 -0.2649019 -0.09627061 -0.11830625
-0.016760005 0.13331607 0.19057593 -0.029610682 0.10002707 0.1406396 -0.013112047 -0.25075823
-0.13533321 -0.054650713 0.013575175 -0.051145475 -0.14733149 -0.1419682 -0.3768413 0.18489277
-0.16362625 -0.05973573 0.1577791 -0.006397688 0.25596255 -0.03880073 0.07610503 0.12487882
-0.17283659 -0.05846221 0.16619238 0.044150364 0.26968667 0.1326633 -0.07630537 -0.11497663
-0.16965185 -0.06625779 -0.026710702 -0.060872234 0.21784462 -0.004553529 0.020928852 0.14828172
-0.21141502 0.05732342 0.0936202 0.10048663 0.24680245 -0.13487479 0.114028074 0.10062012
-0.29277432 -0.08425889 0.115991265 0.2601947 -0.020719117 -0.018404879 -0.041197374 0.15980877
-0.23476282 -0.085500486 -0.1023667 0.21551587 -0.26425087 -0.08396875 0.23790015 -0.04878035
0.01815478 0.026031345 -0.1558072 0.025466278 -0.17304274 -0.25299025 0.2955229 0.045895122
-0.009091682 0.1793517 -0.062220816 0.021578722 0.09103934 -0.048512336 -0.0776149 0.11132199
-0.010508692 -0.21741398 0.008260787 0.036559634 0.12984756 -0.10851207 -0.044042893 0.11548072
-0.04144574 -0.087680586 -0.23804504 -0.09674274 -0.20306104 -0.2026433 0.031278256 -0.1975224
0.04155385 0.070874795 0.26705244 0.1597595 -0.087298214 -0.139008 -0.077973954 0.13730402
0.11764408 -0.13977276 -0.042300407 -0.23015876 0.02001912 0.03509981 -0.24711758 -0.1734874
0.15147159 -0.12080566 0.2527523 0.06262686 -0.08821811 -0.18213634 0.12328021 0.18407872
-0.24301523 -0.0086087845 -0.040742498 0.031652015 0.0232282 -0.085479945 -0.074085526 -0.04142376
0.24953586 0.1744605 -0.09474775 0.0579159 -0.018823063 0.18190996 0.17287792 -0.028571613
-0.02807524 -0.06835006 0.18214211 0.017482044 -0.0844583 0.22507147 -0.1687691 -0.099961
-0.23719592 0.05398105 -0.10606827 0.11618491 -0.26125187 0.14321803 -0.19839253 -0.16368909
0.028209332 -0.08195619 0.10855804 -0.07227712 -0.10721517 -0.0609611 -0.059922088 0.17068216
-0.12539116 -0.05068372 -0.14611678 -0.119022906 0.07487771 -0.16330892 -0.13875055 -0.09074096
-0.16687243 0.3152561 -0.051746484 0.09894956 -0.008198789 -0.18599327 0.010393349 -0.037789784
0.10375365 0.2192721 -0.07545305 0.047747362 -0.13240676 -0.0685848 0.06563414 0.025859553
-0.28360942 0.1676816 0.100690566 0.13651916 -0.12911446 -0.07118481 0.10348465 -0.15792614
0.3559682 0.054023396 -0.021296436 0.020371886 -0.2145671 -0.23376922 -0.044868212 0.0385795
-0.03631531 -0.24363546 -0.049597204 0.06131332 -0.1455848 0.07338564 0.19692713 -0.022116825
0.3592523 0.27166212 0.094061494 0.05183729 -0.098481074 -0.15272145 -0.29614228 -0.09056315

conv1.5.running_var f4 [400]
00000000: fcfe 863e ab31 753e 2216 893e ec62 d23e
00000010: d6d8 843e 5410 363e 8a78 743e 4a9a e03e
00000020: 78d9 c03e 187c 253e 0dd6 8c3e 6415 ba3e
00000030: 2a35 363e 7eb2 8a3e ecfa ca3e 2270 3a3e
00000040: 86f4 693e c8d0 953e 96f0 293e 293a 5c3e
00000050: e6bf 7b3e 2113 223e f890 743e d7fe 3a3e
00000060: 1844 453e 6d85 2f3f 5fe0 093e 9391 613e
00000070: aba6 9f3e cc15 043e 7808 5a3e c5f5 843e
00000080: 7535 7e3e a811 8a3e 3a25 333e bd43 373e
00000090: 18a5 203e e925 853e a924 223e db46 7e3e
000000a0: 6e8a a23e f349 4e3e 207c 4f3e 5040 803e
000000b0: af51 3b3e 0c1e c13e 4373 423e a46d 673e
000000c0: 18c6 d73e 4302 063e 9af9 0c3e 364e 473e
000000d0: 4b94 df3e 37d2 d23e a678 db3e ef3e 3f3e
000000e0: 17dd 0c3e 4040 993e d428 863e 8b4d 8c3e
000000f0: 8e57 8a3e d932 1e3e 56e8 723e 1f22 413e
00000100: 1341 133e 1380 673e 3482 593e 01dc 2d3e
00000110: 7317 b13e ce85 253e bdbb 443e 065f 013e
00000120: 5e35 a83e f529 523e 97d2 313e dd84 853e
00000130: 1c22 413e 72ea 093e 24bd 763e 5385 633e
00000140: 296e 8f3e 1a39 023e 9347 1b3e 7302 de3e
00000150: cbdd 033f 44cf 5a3e be48 573e 253d af3e
00000160: 3c03 703e 2c48 653e 2db8 0b3e 4f42 3e3e
00000170: 3908 993e b799 b53e 6d4e 813e 0d78 6a3e
00000180: 40c1 3a3e 187a 663e b284 733e 7b57 833e
00000190: 3cdd 8d3e fe80 683e d275 623e 15b3 1a3e
000001a0: a264 9c3e 28b2 383e a88f 133e 71e9 943e
000001b0: 7b4d 203e 9ed5 023f ce4d de3e 1e97 2f3e
000001c0: a07b 323e bfe5 0f3e 7bff 893e 9d90 6c3e
000001d0: 167c 0d3e 157a 973e ba9d f83d 160d 153e
000001e0: 23c3 783e 8ef1 153f f0e5 923e 40fb 7d3e
000001f0: 5004 553e 0f20 0a3e 26a7 763e 0bb0 143e
00000200: bf03 6f3e 76d0 783e 2e49 5d3e ccaf f33d
00000210: d3ba 573e c5d4 373e 3bd8 c23e 8e43 ae3e
00000220: 0b60 6e3e 37aa 313e 210d 813e 3c98 023e
00000230: 92d3 bc3e ba02 cd3d 868c 123e 68f8 393e
00000240: 2038 413e 4636 903e 402e 333e ebb7 803e
00000250: 68bb 9f3e 4880 063f aefb 9c3e 45fd a13e
00000260: bf24 153e f26c fe3d 0338 a03e 662f 4e3e
00000270: 395a ac3e 78a2 963e d335 fd3d 1f7c 253e
00000280: 0924 393e 3ea4 323e 7d3c 9d3e 7f9e 993e
00000290: 03cb ff3d 4546 973e 4290 393e 6780 433e
000002a0: bfb1 473e c88c 203e ce09 303e a1a5 843e
000002b0: 9e98 723e e363 083e 3947 323e f2a1 1b3e
000002c0: e518 7e3e f503 0b3e 4bed 243e 0a8f 523e
000002d0: 6aef 073e 4b30 8c3e 2b7a af3e 8e1a 553e
000002e0: 9d70 d13e c20a 263e abdf 563e 055e 7f3e
000002f0: 675b 9f3e 6299 9f3e 3355 c33e b034 273e
00000300: 4803 503e 7bc2 e13e 947f 613e af71 2f3e
00000310: e338 113e f1c9 4b3e b37f 613e 7d8e 013e
00000320: 168c 333e e7bb cb3d 0183 1a3e 58fa 2f3e
00000330: 234e 6c3e ea4b 7b3e 38c0 553e 1df0 943e
00000340: ff6d 253e 73b1 053f 6da9 8d3e f80f 113e
00000350: 74c7 843e c510 1b3e 2ace 283e 8b2b 353e
00000360: d129 4d3e 4db3 7c3e 7f85 f33d 3785 2a3e
00000370: 9149 8b3e 6dfb 0d3e fd69 703e 7283 113e
00000380: d5d1 9a3e df5f 613e 4376 523e 2713 f93d
00000390: 75e8 863e 0e4f a93e 7aeb bf3e 35d8 913e
000003a0: e871 e13e 81b2 833e cf64 843e 2b23 713e
000003b0: 3de9 683e f0a0 073f d5f0 773e 7d25 003e
000003c0: 70fb 433e 32b7 793e 2e98 023e d20e 843e
000003d0: 1e5d 583e ce68 9f3e c72a 8a3e a848 f53d
000003e0: 8394 f73e 1808 413e 99d6 783e ce1a ee3d
000003f0: 5047 083e 07ab 303e f392 973e 3959 9c3e
0.26366413 0.23944728 0.26774698 0.41091096 0.25946683 0.17779666 0.23874107 0.43867713
0.37665915 0.1616062 0.27507058 0.36344445 0.17793718 0.27089304 0.39644563 0.18206838
0.22847185 0.2926085 0.16595683 0.21506561 0.24584922 0.1582761 0.23883426 0.18261276
0.19264257 0.68562967 0.13464497 0.22028188 0.31181845 0.1289894 0.21292293 0.25968757
0.2482508 0.26966596 0.1749467 0.17896934 0.15687978 0.26005486 0.15834297 0.24831717
0.31746238 0.20145397 0.20262194 0.25049067 0.18292879 0.37718236 0.18989281 0.22600418
0.4214332 0.130868 0.1376709 0.19463429 0.43667826 0.41176006 0.42865485 0.18676351
0.13756214 0.2993183 0.26203024 0.2740291 0.27019924 0.15449084 0.23721442 0.18860672
0.14380293 0.2260745 0.21241075 0.16978456 0.34588203 0.16164324 0.19212241 0.12633905
0.32853216 0.20523818 0.1736549 0.2607793 0.18860668 0.1346834 0.24095589 0.22218828
0.28013733 0.12717095 0.15164022 0.43361244 0.51510304 0.21368128 0.21023843 0.34226337
0.23438734 0.22390813 0.13644476 0.18579982 0.29889086 0.35468838 0.25255147 0.22897358
0.18237782 0.22507513 0.23781088 0.2565268 0.2770785 0.22705457 0.22115257 0.15107377
0.30545527 0.18036711 0.1441027 0.29084352 0.15654556 0.51107204 0.43418735 0.1714749
0.17429972 0.14052485 0.2695273 0.2310204 0.13816866 0.2958533 0.12139459 0.14555773
0.24293189 0.5857171 0.28691053 0.24802876 0.20802426 0.13488792 0.240872 0.1452028
0.23341273 0.24298272 0.21609947 0.11898765 0.21067362 0.17952259 0.38055596 0.34035915
0.23278825 0.17350088 0.2520533 0.12753385 0.36880165 0.10010286 0.14311418 0.18161166
0.18869066 0.28166407 0.17498112 0.25140318 0.31197667 0.5253949 0.30660766 0.31638542
0.14564799 0.124231234 0.31292734 0.20135269 0.33662584 0.2942083 0.12363782 0.1616063
0.18080153 0.17445466 0.3071021 0.30003735 0.12489893 0.295458 0.18121436 0.1909195
0.19501399 0.15678704 0.1719124 0.25907615 0.23691031 0.13319354 0.17409982 0.15198496
0.24814184 0.13575728 0.16106145 0.20562378 0.13274923 0.27380595 0.34272894 0.20810911
0.4090623 0.16215041 0.2098376 0.2493821 0.31124422 0.3117171 0.3815094 0.16328692
0.20313752 0.4409369 0.22021323 0.1713321 0.14181857 0.19901253 0.2202137 0.12652011
0.17533907 0.09947949 0.15089037 0.17185342 0.23076682 0.24540678 0.20874107 0.29089442
0.16155241 0.5222389 0.27668324 0.14166248 0.2593342 0.15143116 0.16484895 0.17692392
0.20035483 0.24677773 0.11890697 0.1665238 0.27204564 0.13865443 0.23477931 0.14210299
0.30238214 0.22009228 0.20552926 0.12161856 0.26349226 0.33068126 0.37484342 0.28485265
0.44032216 0.25722125 0.2585816 0.23548572 0.22745223 0.52979946 0.24212964 0.125143
0.19138885 0.2438629 0.12753364 0.25792557 0.21129271 0.31134647 0.26985762 0.11976749
0.48355493 0.18850744 0.24300613 0.11626206 0.13308454 0.17252742 0.296043 0.3053682

conv2.0.weight f4 [10, 1, 6]
00000000: 3135 053f e7d9 5abe d0c3 9dbe 91d2 9c3e
00000010: e013 9f3e 9a41 81be 2f9e 8fbe 9e97 51be
00000020: 572d 1bbe d130 9fbd 0ead 75be 6e92 d5bd
00000030: 2694 d23e 9f27 18be 7cbe 923b fe29 83be
00000040: 0031 6b3e 7080 edbe 8bee c13e 8838 c6be
00000050: baa1 463e 4677 263c 40fe 923e 4b99 aabe
00000060: 39af 7d3e f100 d6be a4f9 b03e c25a e83e
00000070: bcd5 bf3e 8553 e03e 5481 e3be dbd0 aebd
00000080: 377e e6be 247a cebd 0fc9 d2be d2ae c23e
00000090: da29 f83e 8eb4 02be d008 723e 72cc 3e3e
000000a0: e0a8 0abd 6ccc 0fbf 3649 99bc fe45 143f
000000b0: f356 2cbe 2c14 0cbf ee78 d73d 42d1 a7be
000000c0: 2899 ffbe f297 4fbc 96bd a33e 1eaa 86be
000000d0: e754 473e b427 c4be 3598 a03e d526 f93d
000000e0: fd67 12bf aeb7 86be b200 87bd 9be1 65be
0.5203429 -0.21372186 -0.30813456 0.306294 0.3106985 -0.25245363 -0.28050372 -0.20467994
-0.15154015 -0.07772983 -0.23991796 -0.1042832 0.41128653 -0.14858864 0.004478274 -0.25617975
0.22967911 -0.46387053 0.37877306 -0.38715005 0.19397631 0.010160273 0.28709602 -0.33320078
0.24773873 -0.41797593 0.3456546 0.45381743 0.37467754 0.4381372 -0.44434607 -0.0853593
-0.4501817 -0.1008189 -0.4116902 0.38024002 0.4846943 -0.12764189 0.23636174 0.18632677
-0.033852458 -0.561713 -0.018711668 0.579193 -0.16830043 -0.5471828 0.105211124 -0.3277684
-0.49921536 -0.012670504 0.3198058 -0.26301664 0.19465981 -0.3831154 0.31366125 0.1216561
-0.57189924 -0.2631201 -0.065919295 -0.22449343

conv2.0.bias f4 [10]
00000000: 362e 9ebe d548 643e 2fa2 623e 3912 6f3e
00000010: e431 663e 60e9 833e ff37 a2bd c5e2 02be
00000020: 6a2e c33d 3cda 8a3c
-0.3089463 0.22293408 0.2213218 0.23346795 0.2247997 0.25763988 -0.07920837 -0.12781818
0.09530337 0.016949765

conv2.1.weight f4 [10]
00000000: 072e 953f 07b2 773f 58c6 833f 2dd5 953f
00000010: 4972 8e3f 5c07 8c3f 6763 a43f a34e a23f
00000020: d61c 8d3f c04e 933f
1.1654671 0.96756023 1.0294905 1.1705681 1.1128627 1.0939746 1.2842835 1.2680248
1.1024425 1.1508408

conv2.1.bias f4 [10]
00000000: 99ee e6bc bfc4 41bd 278f fe3c 96df e83c
00000010: 6041 273d eb4a d73c 782b e5bb cf6d 08ba
00000020: c5ce 383c 8e74 e43b
-0.028189944 -0.047306772 0.03107412 0.028426927 0.04083383 0.02628084 -0.0069937073 -0.0005204351
0.011279766 0.006971902

conv2.1.running_mean f4 [10]
00000000: 2d9f aabe 982c 8c3e 92f1 353e 4986 673e
00000010: 0289 7a3e e933 233e 3f76 c6bd cb6d 39be
00000020: 2851 8e3d 59ff 69bd
-0.33324566 0.27377772 0.17767933 0.2260982 0.24466327 0.15937771 -0.096905224 -0.18108289
0.06949073 -0.057128284

conv2.1.running_var f4 [10]
00000000: d2ad 183e fdb6 9d3d 478e 463e 32d4 153e
00000010: 83f3 6a3e 10b8 663e 3a60 283e c1f7 3c3e
00000020: cb10 353e ae16 143e
0.14910057 0.07700918 0.19390212 0.14631727 0.22944455 0.22531152 0.16442958 0.18453886
0.17682187 0.14461777

conv2.4.weight f4 [400, 10, 6]
00000000: 9483 3abc 9c4e b8bc 2019 573d b98a 283c
00000010: 95f3 883d d715 ae3d 0414 a7bd 791e b73c
00000020: c678 bbbd 6cdf 7e3d 32de ee3b 2bf1 163d
00000030: 2829 c83b bf2f 493d e517 55bd 95f0 64bc
00000040: e074 edbd 52a6 c3bd aef9 5abd 061f 0dbe
00000050: 7134 693d 8f65 f4bd 2d90 96bd 96df 153e
00000060: 90f4 0abe 5581 63bd a19f f8bc 7b60 bebc
00000070: 0862 4dbd d435 4b3d 5642 00be c538 93bb
00000080: 4a8d 23be 3a04 5d3d 6884 163d dfe4 1ebc
00000090: 38e6 423d 3de5 9abd c3f6 bfbc ee74 79bc
000000a0: 8473 0ebe 4e25 5ebd d2e9 48bd 47fc 83bd
000000b0: e839 6ebd 3f87 4f3d 331e e8bc c3b3 893d
000000c0: 9e78 3fbd d031 95bd 1787 24bd 3303 d5bb
000000d0: 0225 45be c810 3e3d 59a7 39bd ed04 123c
000000e0: 6db9 d73c 523a ac3d 39ed a93d c282 01be
000000f0: afe7 03bd 180b 143d eacd b53b 321c 18be
00000100: 20f2 dcbd 8845 8b3c d0f8 503d bac4 113d
00000110: 0815 433d 990b 813d 3369 0e3d 0347 823c
00000120: 1093 febd 30c8 eb3c 34c4 3a3d 7ff2 dfbd
00000130: c589 293e e3dc 803d 67bb b1bd 5e19 2a3d
00000140: 0326 73bd dc8d 22bd ddea d0bd ea94 7a3d
00000150: c9b9 d33d 75a4 bbbb c205 173d 7a2b a73d
00000160: f1db 85be 33f1 0a3e 717c de3a 6a24 713d
00000170: 10bf e8bc f0b7 5fbd 1ec3 47be 7f76 5bbd
00000180: 0a8e bdbe e9bf 293d 065c ca3d bd77 0cbe
00000190: c0c5 8a3d 267c 94bc 2fe1 19be 7c8b 853c
000001a0: ea95 c63c 0def 05be f479 ee3d b5b0 a8bd
000001b0: d967 a03d 162a aabd 8d9c 11bd e6cd 31bd
000001c0: 8b99 c13d 1b3b 32bd b324 93bd c551 683d
000001d0: fcca 97be 54ca 98be 1f07 753c dbbd 913d
000001e0: 4d5f cabd 9381 82bc 71df d13d 7090 8dbd
000001f0: 420e 9fbd 48da 1e3d ab43 b43b bc6f aa3d
00000200: 95b6 603d e439 d23b d9da 943d 96fd 093d
00000210: cf97 abbd 3cfe dbbd d61f cdbd aaa2 393c
00000220: ff6a 20be be2a 03be 5585 c73d f270 0abe
00000230: b7cc 383d e038 bfbd 1ebb fcbd 79a2 4ebd
00000240: 7870 d43d 38aa 3dbd 6ea9 0bbd b282 43be
00000250: aa24 a03c 9efa 8abc 4e99 83bd bf76 713d
00000260: 940c c1bd 9375 6b3d 0edf 11be 8ccd a4bb
00000270: 17f4 fc3d 011b cdbc 6d9f 06be 375d b83d
00000280: 8abe ebbd 4b84 0a3d 172b a23d 3eac a8bd
00000290: 5511 1b3c 6719 9cbd 7d6c 45be 122f 8cbe
000002a0: 715b ea3c 6adb ac3d 771d 8bbd 2c1e a03d
000002b0: c841 f7bc 7ec7 54be c7fd 9b3d 9925 ccbd
000002c0: 051b 93bd 8fcf 9fbd 7b56 663b d69a 93bd
000002d0: 82c2 f33d cab9 d43d c91b d1bd 4622 1abe
000002e0: f814 20be ca81 a1bb 3364 953d 4523 02bc
000002f0: cd70 1e3d 3285 213e e4d5 19bc 49f7 ea3c
00000300: 5e5e ebbc 8654 e73c 1d3b be3c ef8c efbc
00000310: 00dd ae3c 9408 32be 65e1 c63c 3954 4b3c
00000320: ef0a b2bd e760 8fbc e31f 233d a545 babd
00000330: c4a4 57bd 5f85 b03d ae4d 593d 6134 32be
00000340: ddee 3abe 8d1a 6bbe 75ad e83d a228 3cbb
00000350: b068 ed3d 713a 48be 7471 54be 38f1 a1bd
00000360: e59a 80bd 0848 3d3d 8ca3 26bd f961 3a3d
00000370: 9f13 03be 9d0b 3fbe f6e7 4bbc d3ab 823d
00000380: 9c04 d43c d84b c2bd 8b06 86bd 784f f2bd
00000390: 599c 393d 83f9 04bd d951 003d 9f0a 44be
000003a0: 15b4 febc be78 f53c 442e a93d 9478 05be
000003b0: 707f 4a3d 4219 943c e542 53bd 6f11 133c
000003c0: 0616 c23d 4719 3abe 2478 173d 2561 7b3d
000003d0: a3da 863c 0052 633c 68a4 393d a4cd 2abd
000003e0: ced4 f7bc 7736 883c e74c 943d 94be 1e3d
000003f0: 388e 553c ee0a f1bd 0c38 523d 0106 44bc
-0.01138391 -0.022498421 0.052514195 0.01028698 0.066870846 0.08500259 -0.081581146 0.022353398
-0.09153895 0.06222479 0.0072896713 0.03685109 0.006108422 0.0491178 -0.05202474 -0.013973375
-0.11594558 -0.095532075 -0.05346077 -0.13781366 0.056934778 -0.11933433 -0.07351718 0.14636073
-0.13569856 -0.055543263 -0.030349554 -0.023239365 -0.050142318 0.04961188 -0.12525305 -0.0044928514
-0.15971866 0.05395911 0.036747366 -0.009698122 0.047582835 -0.07563255 -0.023433095 -0.015225632
-0.13911253 -0.054234795 -0.049051113 -0.064446025 -0.058160692 0.05066609 -0.028334713 0.0672374
-0.04674589 -0.072848916 -0.040167894 -0.0065006255 -0.19252399 0.046402723 -0.04532561 0.008912307
0.026333535 0.08409561 0.082972 -0.12647536 -0.032203373 0.036143392 0.0055482285 -0.14854506
-0.10788369 0.017000929 0.051018536 0.035588004 0.04762748 0.0630104 0.034768295 0.015903002
-0.12430394 0.02878198 0.04559727 -0.10934924 0.16556461 0.06292131 -0.08678322 0.0415281
-0.059362423 -0.03968607 -0.102010466 0.06117717 0.1033817 -0.005726392 0.036870725 0.08162589
-0.26144364 0.13568573 0.0016974342 0.058872618 -0.028411418 -0.054618776 -0.19508025 -0.053579804
-0.3702243 0.041442785 0.09880833 -0.13717552 0.06775999 -0.018125605 -0.15027307 0.016301863
0.024241406 -0.13079472 0.116443545 -0.08236829 0.07832307 -0.083088085 -0.03554969 -0.04340925
0.09453114 -0.0435134 -0.07184734 0.056718607 -0.29647052 -0.29841864 0.014955311 0.0711629
-0.098814584 -0.015930926 0.10247696 -0.06912315 -0.07766391 0.038782388 0.0055012307 0.08322093
0.054861624 0.0064155925 0.072683044 0.033689104 -0.083785646 -0.10741851 -0.10015838 0.011330286
-0.15665816 -0.12809274 0.09742228 -0.13519648 0.045117106 -0.0933702 -0.12340377 -0.050447915
0.10373014 -0.04630491 -0.034097128 -0.19092825 0.019548733 -0.016965207 -0.06425725 0.058951136
-0.09426227 0.057485174 -0.14245245 -0.005029386 0.12351244 -0.02503729 -0.13146754 0.09002154
-0.11510952 0.03381757 0.07918375 -0.082359776 0.0094645815 -0.076220326 -0.19279666 -0.27379662
0.028608056 0.084402874 -0.06792729 0.07818255 -0.030182734 -0.20779225 0.076167636 -0.09968109
-0.07182888 -0.078032605 0.0035146761 -0.07207267 0.11902334 0.10386999 -0.10210378 -0.15052137
-0.15632999 -0.004928802 0.07294502 -0.007942979 0.038681794 0.15773466 -0.009389374 0.028682368
-0.028731521 0.028238546 0.023221547 -0.029242007 0.021345615 -0.17386085 0.024277398 0.012410217
-0.08693492 -0.017502261 0.03982533 -0.09095315 -0.052647367 0.086191885 0.053052597 -0.17402793
-0.18255182 -0.22959347 0.11361209 -0.0028710742 0.11592233 -0.19553544 -0.20746404 -0.07907337
-0.06279544 0.046211272 -0.040683314 0.04550359 -0.12800454 -0.18656774 -0.0124454405 0.06380429
0.025881104 -0.09487122 -0.06544217 -0.11831564 0.04531512 -0.032464515 0.031328056 -0.19144677
-0.03109173 0.0299648 0.082607776 -0.13034278 0.04943794 0.01807845 -0.051577467 0.008976324
0.09476857 -0.18173705 0.03697981 0.06137194 0.016461676 0.013874531 0.045322806 -0.04170002
-0.03025284 0.016627533 0.072412305 0.03875597 0.013034396 -0.11769663 0.05132298 -0.011964322
